trained_model_16_4_3_2.pth (torch, 110385 bytes, 63 tensors)

inp_embedding.weight f4 [115, 16]
00000000: 3cff 2fbf 13b2 a7be d600 dcbe 2e02 b23d
00000010: 3d94 0a3e b8e0 96be 2d7a 6c3e 3280 083e
00000020: 7e2b a5bc ec31 1c3e 74e8 033d 45f8 343e
00000030: df2c 833d 5b57 cd3e a390 edbe 3795 ba3e
00000040: 53c8 1a3e 0a53 ab3e 3c5c eebe c41a bf3d
00000050: 7c2d fa3d d4e2 5bbe 4a2f 323d cdc4 94bd
00000060: 3077 473e 11fe 8dbe 6d0b c83d 525f 7b3d
00000070: 78bf 9f3e fe12 dc3d 2080 a53e 20c0 66bc
00000080: 05fe 53be 32c8 373e 8a52 173e d30e a9be
00000090: 7f51 5e3e 9bd2 a2be 6ba2 fb3d 5be9 25bc
000000a0: ec45 a9bd e3b2 96be 7daa 93be d813 8a3e
000000b0: 036f 013f 2336 693d 490c 3b3e 2812 57be
000000c0: 494c 323e 4804 55be e4c7 ac3e 383c 42bf
000000d0: 0993 22be 9e62 f2bd fe97 9d3b 0aae 403f
000000e0: b266 afbe 4ecb 5abd 4061 f5bd 53f5 4a3e
000000f0: 3550 c13e 4c10 153f b5a8 54be bdca cf3e
00000100: bef6 0a3f 758b ac3d a2c3 153f c69f 823e
00000110: b9e8 00bf e529 36bf 9782 d53e dbfc eb3d
00000120: c2fb 21be 735f 063e cec6 8fbe 9238 abbd
00000130: 1708 03be c338 e83e 1465 7dbd c6a4 893e
00000140: 16c1 85be 1f5d d83d 4698 85be d206 62bd
00000150: 1ada 883e f77a 9a3d ec89 cfbd 48bc 063e
00000160: c947 fa3d 6f19 e0be 7067 b03e 1720 b33e
00000170: 61e0 cb3d b361 13bf 1a9d 333d aa3c d23e
00000180: a470 073f 7b9d 07be 3f0d 19bd f05f 0d3d
00000190: 39c4 a13e 3d60 30bf b1ce 17bb bd33 da3e
000001a0: c939 a63d 4e53 0bbf 424d 1abe 3c53 233e
000001b0: edbe b5be f5d9 3cbd 1851 433d a3e8 3ebe
000001c0: 1f24 cebd bf7e 7b3e 98bd 103f a020 cebe
000001d0: 3310 953e f90b 5cbe b5c6 933e 2bca 27bd
000001e0: 7772 1a3d 0111 0bbf cf39 f93d 647e cb3e
000001f0: 5605 463e 31ab 993e 2b1d 72be 58b1 9cbe
00000200: 2af9 93be 2031 ca3d 592d 9b3e 22b2 9c3e
00000210: c3d7 07bd 72ba a0bc f1a6 143d 001a 79bd
00000220: 6f42 cc3d 4187 01be 819f 993e 65a8 b63e
00000230: fd72 99be a8db 31bc aec2 4c3e 92cd 573e
00000240: c189 633e c620 b83e 7a0f 7dbd d922 383e
00000250: e975 1dbe a491 813e ac26 89be 43f9 25bd
00000260: 4406 e23e 7676 c4be 1ccc de3e b0d6 4cbd
00000270: 397a f5be 378c ac3d 5621 513e e147 9dbe
00000280: a8b1 533f ac92 b93d 80f5 e03e 2d2b 07bf
00000290: f1f8 653f aa80 3dbe 2dd2 f0be f388 8e3d
000002a0: b59f 353c 794c 123e 9113 55bd 6e1c ce3d
000002b0: a753 773e 5483 2d3d c236 a53e 6985 e93e
000002c0: f814 3fbe 6770 10be cdc2 193e 0ddb 4ebd
000002d0: 20ed f23e 20ef 8abd fbce d8bc 541d 04bf
000002e0: 5e99 69be 6e13 1e3f 9e7d 3bbf 9062 fabd
000002f0: 435f cdbd 42b2 a0bd da84 423e 044a 9b3e
00000300: 5728 d33d a298 2bbd e724 a2be 3150 593e
00000310: 2748 993e 1524 2fbf aa77 83be 83f4 563f
00000320: 5a73 c33e c973 8ebc 3dc3 373e 9b7c f4bd
00000330: 31b2 5ebd 7271 93be a8f9 dc3d 9e90 6dbe
00000340: 5c78 323e 81ce ad3d 7b04 c5be 5a51 4dbe
00000350: 2ccb 453f b672 35bd 3be6 ad3e edf7 4ebd
00000360: a5d3 98be 0112 563e b6d8 fdbe c8ed b2be
00000370: e5b5 ffbd 9cbb b73d 2ea5 32be 4889 9e3e
00000380: 5c4c 1bbd c7df be3e 38ce 853c 9b52 7dbe
00000390: a951 93be 8838 a8bb d1d9 e0bc d0ec 2a3d
000003a0: 25b4 83be 3e58 b33e 2616 a83c 816b c83c
000003b0: 87ad e53e f638 12be a2f6 85be 45d0 9cbe
000003c0: d389 4e3e 0ed6 053f 9af8 4bbe 4aa4 063e
000003d0: 19e2 f3be dd88 09be 29c3 bebe 9bda 4a3e
000003e0: e1b8 23be c90d c73e 27a5 58be 6592 3abe
000003f0: 19ec 96be 5de1 a1bd 05d4 e73e 4e9a e43d
-0.6874883 -0.32753047 -0.42969388 0.08691822 0.13533111 -0.29468322 0.23093481 0.13330153
-0.02016234 0.15253419 0.032204106 0.17672832 0.06405043 0.4010571 -0.46399412 0.36441967
0.1511548 0.3346179 -0.46554744 0.09331277 0.12215707 -0.21473247 0.04350213 -0.07264099
0.1947906 -0.277329 0.09767804 0.0613702 0.31200767 0.1074581 0.32324314 -0.014083892
-0.2070237 0.17947462 0.1477758 -0.33019122 0.21710776 -0.31801304 0.12286838 -0.010126437
-0.0826529 -0.29433355 -0.2884101 0.26968265 0.50560015 0.056936394 0.18266405 -0.2100302
0.17411913 -0.20802414 0.33746254 -0.75873137 -0.15876402 -0.11835216 0.0048093786 0.7526556
-0.34258038 -0.053416543 -0.119814396 0.19820146 0.37756506 0.5822799 -0.20767482 0.40584365
0.5428275 0.08425037 0.58501637 0.25512522 -0.50355107 -0.71157676 0.41701195 0.11522838
-0.15818694 0.13122348 -0.28081363 -0.08360399 -0.12796055 0.45355806 -0.061863974 0.26883525
-0.26123875 0.105646364 -0.26092738 -0.055182286 0.26728898 0.07542985 -0.101337284 0.13157761
0.12220723 -0.43769404 0.34453917 0.3498542 0.09954906 -0.5757095 0.043850996 0.41061908
0.5290625 -0.13243668 -0.037366148 0.03451532 0.31595019 -0.6889685 -0.002316397 0.42617598
0.081164904 -0.5442399 -0.15068534 0.1594972 -0.35497227 -0.046106298 0.04768476 -0.18643431
-0.10065483 0.24560069 0.565393 -0.40259266 0.29113922 -0.21488942 0.2886254 -0.040964287
0.03770682 -0.5432282 0.12169229 0.39744866 0.19337973 0.3001342 -0.23643939 -0.30604053
-0.28901035 0.09872651 0.30308035 0.30604655 -0.03316475 -0.019620154 0.03629202 -0.06081581
0.09973609 -0.12649252 0.30004504 0.3567535 -0.29970542 -0.010855593 0.1999614 0.21074513
0.22220518 0.35962504 -0.061782338 0.17982043 -0.1537701 0.25306427 -0.26787317 -0.040520918
0.44145405 -0.3837163 0.43515098 -0.05000943 -0.4794481 0.08425181 0.20422873 -0.30718902
0.82692957 0.090611786 0.43937302 -0.52800256 0.8983298 -0.18506113 -0.4703535 0.06959715
0.01108544 0.14286985 -0.052020613 0.10064016 0.24153005 0.042361572 0.3226834 0.45609596
-0.18660343 -0.14105378 0.15015717 -0.05050187 0.47446537 -0.06783891 -0.026465883 -0.5160725
-0.22812411 0.617484 -0.7323855 -0.122258306 -0.10027935 -0.078465 0.18995991 0.30329907
0.103104286 -0.04189361 -0.3166878 0.21221997 0.2993786 -0.6841443 -0.25677234 0.83966845
0.38173944 -0.017389195 0.17945571 -0.11937829 -0.054369155 -0.2879749 0.10789806 -0.23199698
0.17428726 0.08486653 -0.3847998 -0.20050564 0.7726314 -0.04429885 0.33964714 -0.05052941
-0.29848972 0.20905305 -0.495794 -0.34947038 -0.124858655 0.089713305 -0.17445824 0.30964112
-0.03791462 0.37280104 0.016333684 -0.24738543 -0.2877324 -0.005133692 -0.027447613 0.04172975
-0.25723377 0.3502826 0.020518374 0.024465324 0.44858953 -0.14279541 -0.26164728 -0.30627647
0.20169763 0.52279747 -0.19919053 0.13148609 -0.47633436 -0.13431115 -0.3725827 0.19809954
-0.15988494 0.38877705 -0.2115675 -0.18219908 -0.29477003 -0.07904313 0.45278946 0.11162244

attention_blocks.0.attention_blocks.0.layer_norm.weight f4 [16]
00000000: 9160 863f 9f31 843f 41db 8d3f f2a1 843f
00000010: f4e2 923f 18a0 903f 24fd 833f ab45 983f
00000020: d9ee 903f 0515 9c3f ea9c 7e3f d57d 963f
00000030: fa72 863f ff9d 8b3f 1ec3 8c3f 9a61 983f
1.049822 1.0327643 1.1082536 1.0361922 1.1475511 1.1298857 1.0311627 1.1896261
1.132289 1.2193915 0.9945818 1.1757151 1.0503838 1.0907592 1.0997045 1.1904786

attention_blocks.0.attention_blocks.0.layer_norm.bias f4 [16]
00000000: 716b 543b e785 36bc 2bed 5e3d 3cbe 023d
00000010: c779 903d 22bf e4bc 11fa 5b3c 69cf c2bc
00000020: c45b 19bd ba49 183c 4921 183c 9b71 0e3c
00000030: c832 fcbc 1b73 a53c c22d fe3c 4816 dc3b
0.0032412673 -0.011140323 0.0544254 0.031919703 0.07054477 -0.02792317 0.01342632 -0.023780541
-0.03744103 0.0092949215 0.00928528 0.008694078 -0.030785933 0.020196488 0.031027678 0.0067165233

attention_blocks.0.attention_blocks.0.W_k.weight f4 [4, 16]
00000000: cd85 2dbe d916 24bf 7dc8 993e e3fe c53e
00000010: ede3 233e 4b6f febe fa07 863d f9b1 a9be
00000020: 7d43 eb3e 5ea7 23bf f88e e03d c737 f83e
00000030: 77ac 4c3e ff9e b33d faba 8c3e 963d 1ebf
00000040: 5c40 8bbd 0b5f 9abd 3feb a9be 29e9 343f
00000050: a20c 72bd 7695 febe 2406 7d3e b74b 203f
00000060: 0f0c 1c3f a9bb 893e 9a6e 213d 4690 97bd
00000070: ec06 823e 5438 d9be 2f78 2dbe 381f 9bbe
00000080: 929e d43e b09c 863e 8a71 cfbe 435b 10bd
00000090: 268f 04bf a9ea f33d cef6 c23e 320a 933e
000000a0: 01a2 013f 025d bebe a8cb 30be 5268 2a3e
000000b0: 15b0 013e 30c9 a5be ebb5 19bf 6d34 83be
000000c0: 3b97 d8bd 9234 713d 8256 8f3e 9fa4 8e3d
000000d0: 86fb 8d3e 844e 64be 9b04 25bf 86bf ed3e
000000e0: ce2b 8dbe 8207 c1bc 86bc c6be 014f 9a3d
000000f0: eb9d 56bf b7ad 3bbd ded9 a23e a5f9 15be
-0.16945572 -0.6409736 0.30035773 0.38671026 0.16004916 -0.49694285 0.0654449 -0.33143595
0.45949927 -0.6392726 0.10964769 0.48480055 0.19987665 0.087705605 0.27486402 -0.6181272
-0.06799385 -0.07537659 -0.3318729 0.70668274 -0.05909408 -0.49723405 0.24709374 0.6261553
0.609559 0.26900986 0.03941212 -0.07400565 0.25395906 -0.42425787 -0.16940378 -0.30297256
0.4152723 0.26291418 -0.4051631 -0.035243284 -0.5178093 0.11909992 0.38078922 0.28718716
0.50637823 -0.37180334 -0.17265189 0.16641358 0.12664826 -0.32380056 -0.6004321 -0.25625935
-0.1057572 0.058888026 0.27995688 0.06964993 0.2773096 -0.22295576 -0.6446015 0.46435183
-0.27572483 -0.02356315 -0.38815707 0.075346 -0.83834714 -0.045819964 0.31806844 -0.14646013

attention_blocks.0.attention_blocks.0.W_q.weight f4 [4, 16]
00000000: c9c0 2d3c 8edc 8dbe dfad 16bf 7bc4 acbc
00000010: 3311 bf3e b9cd 273f 4cee 49bd f7cc 003f
00000020: fa58 e73e 697b 083f c09a f3bd e890 51be
00000030: a76d 61bd 0d5b 0fbf 8e0b b6be f238 99bd
00000040: b496 63bf 0fcf ddbe 62a6 d73e cb79 d53e
00000050: 9876 cfbe a79f d33e 4ce6 3cbe ae88 56bd
00000060: 8113 0fbe 3883 b53e 9090 b7be d9eb a53e
00000070: 9ce9 1ebe 9d97 f83d 8f25 0fbf 99d0 af3d
00000080: fcd0 2dbe 4543 15be 722b 52be ca9c bcbd
00000090: 7d38 21bf efd2 8f3e e13b c1be b8a8 2d3e
000000a0: c683 d7be 569f eabd 3b5b 91bd 1d6a 1d3f
000000b0: 75e0 d13e 37d3 933e e285 44be 4771 0c3e
000000c0: cba8 9c3e dd59 263e c1fd a4bd e25e c93e
000000d0: e1a1 febe 7ff9 db3e 37c1 39be 49b5 a8be
000000e0: 2f63 303e c37d 6f3e e365 8bbe 8973 81bd
000000f0: c0e0 183f 7a51 a1bd 5c57 9a3c 0641 9dbe
0.010605046 -0.27707332 -0.58859056 -0.021089783 0.3731781 0.6554828 -0.049299523 0.5031275
0.4518507 0.5331331 -0.118947506 -0.20465434 -0.055036213 -0.5599831 -0.3555569 -0.074815646
-0.8890183 -0.43322036 0.42119128 0.41694483 -0.40520167 0.41332743 -0.18447226 -0.05237644
-0.13972284 0.35451674 -0.3585248 0.324065 -0.15518802 0.12138293 -0.55916685 0.08584709
-0.16974252 -0.14576443 -0.20524386 -0.09209593 -0.6297682 0.28090617 -0.37740996 0.16958892
-0.42092723 -0.11456172 -0.07097479 0.6149004 0.4099156 0.28872082 -0.19191697 0.13715087
0.3059753 0.16245218 -0.08056212 0.39330202 -0.4973288 0.42963788 -0.18140112 -0.3295081
0.17225336 0.23387818 -0.2722617 -0.06320865 0.5971794 -0.078768685 0.018840484 -0.3071367

attention_blocks.0.attention_blocks.0.W_v.weight f4 [4, 16]
00000000: 39ab 823d c0dc 54be 1a1a ffbe f6ce 99be
00000010: 061b 903e 62e5 fabc 4433 f03e dfe8 4ebd
00000020: 2ff8 03bd a450 a4bd 79ca ea3d 2e11 d83e
00000030: 27e8 47bc 7d4d 0dbf 627f 85be bd46 c9bc
00000040: 5364 8d3e 3f51 7bbb 7383 943d d0c0 d93e
00000050: ebb5 8e3e ce8e 4b3e 5a50 f3bd 6be6 8dbe
00000060: 1cc2 4cbe a711 05be b0f2 353e 1a9c 8ebc
00000070: 189c 88be 5348 933d 2850 3dbe 442e 903d
00000080: b8bf 0e3e 0aeb 82bd 6a6e a83e b74d 84be
00000090: 7185 4cbd ca04 cd3e a801 0fbf 92ae fe3d
000000a0: da20 5ebe cc12 663d 67a6 ba3b 9120 173e
000000b0: a374 7dbe 70fb 693c 161e 19be 2494 9dbe
000000c0: 93d6 97be 4648 b7be 540e bf3c 8fc9 2abe
000000d0: a567 2b3d a883 353e 2d10 bd3d 0bea 403e
000000e0: b0f7 4dbd 4a5f e5be 17e2 50bc 9512 27bd
000000f0: 8d15 e8bd d44b 92bd 882d b53d 0a42 3dbc
0.063803144 -0.20787334 -0.498246 -0.3004071 0.28145617 -0.030626956 0.46914113 -0.050515052
-0.03221911 -0.080231935 0.114644 0.42200607 -0.0122013455 -0.5519636 -0.26073748 -0.024569863
0.27615604 -0.0038347987 0.072516344 0.42529917 0.27873167 0.19878694 -0.1188056 -0.27714857
-0.19995922 -0.12995015 0.17768359 -0.01740842 -0.2668159 0.07191529 -0.18487608 0.070400745
0.13940322 -0.063924864 0.3289674 -0.25840542 -0.049931947 0.40042716 -0.558619 0.124356404
-0.2169222 0.05617027 0.0056961062 0.14758517 -0.24751525 0.014281139 -0.14952883 -0.30777085
-0.29655895 -0.35797328 0.023322262 -0.16678451 0.04184689 0.17726004 0.09231601 0.1883928
-0.05028504 -0.44799262 -0.0127492165 -0.040789206 -0.113322355 -0.07143369 0.08846575 -0.0115513895

attention_blocks.0.attention_blocks.0.W_o.weight f4 [16, 4]
00000000: 3d7c 9fbe 8938 d5be 4831 b6bd ee99 e3bd
00000010: b000 c23d eb45 cdbd 1af1 f2be 6f90 03be
00000020: 4463 9dbe ddd6 263e 742d 62be f5f5 36bd
00000030: 4155 aa3d dea2 fbbd 363d 373e f586 aa3e
00000040: 1bfe 433d f35a 823a c23e 35be 92db 153e
00000050: d353 343d f7a7 48bd 7da5 c2bd bd19 bc3e
00000060: 0f9a 6f3d 91ea 8dbe 879d 0d3d 7d1b 82bd
00000070: 5570 883e 3531 03be edbc 8c3e f699 6dbe
00000080: 99d0 8f3e b387 6a3e f4e5 213e 9f5f 04bf
00000090: f648 f03e 6f56 83bd 22f2 7c3a 28ca c8bd
000000a0: e1d3 b5be 7afd bd3e a6bf b7be 87c4 39be
000000b0: 1aff e5be aff3 e83d 3d5f 21be facc 7dbe
000000c0: 51d6 5ebd cb12 8a3e 5cb1 c83d dc03 71be
000000d0: 5253 72be bdb6 173e ff0b a83e 9f80 0c3c
000000e0: 02e7 45be a961 3abe b711 2ebe 2a7a 553e
000000f0: ac99 f2bc 1b1a 6c3e be6a 9b3d 34b5 42bd
-0.31149474 -0.41644695 -0.088961184 -0.11113344 0.094727874 -0.100231014 -0.4744957 -0.12848066
-0.30739796 0.16292901 -0.22087651 -0.044668157 0.08317042 -0.12286924 0.17894444 0.3330609
0.047849756 0.0009945318 -0.17699721 0.1463454 0.044025254 -0.04898831 -0.09504221 0.36738387
0.05849653 -0.27718022 0.034574058 -0.06352899 0.26648203 -0.1281174 0.2748789 -0.23203263
0.28088835 0.22903328 0.15810376 -0.51708406 0.46930665 -0.0641297 0.0009649118 -0.09804183
-0.35513213 0.3710745 -0.35888404 -0.18141375 -0.4492119 0.11374604 -0.15758987 -0.24785224
-0.054403607 0.26967463 0.097994536 -0.23536628 -0.23664597 0.14815803 0.32821652 0.0085755875
-0.19326404 -0.18201317 -0.16998945 0.20847383 -0.029614292 0.23056833 0.07588719 -0.04753609

attention_blocks.0.attention_blocks.1.layer_norm.weight f4 [16]
00000000: 67fe 8a3f cd58 813f b148 8b3f cc04 823f
00000010: 22af 883f e965 843f 9bcd 823f b56f 813f
00000020: 0697 813f c48f 843f ddfe 5b3f 78ce 863f
00000030: 1389 753f cc21 943f 0e70 773f ae57 823f
1.0858887 1.0105225 1.0881559 1.0157714 1.0678446 1.03436 1.0218996 1.0112215
1.0124214 1.0356374 0.85935766 1.0531759 0.95912284 1.1572814 0.96655357 1.0183008

attention_blocks.0.attention_blocks.1.layer_norm.bias f4 [16]
00000000: 94b1 313d 3666 d33d 2518 adbd b6cc 26bd
00000010: 0784 bbbd f766 00bd e699 a7bc 242c 153c
00000020: 3838 2b3d 4043 3e3d 59df 27bc ed54 18bd
00000030: 706f 703c a10b 773b 5dab 57bd f9f7 e23c
0.043382242 0.103222296 -0.08451871 -0.04072257 -0.091560416 -0.031348195 -0.020459127 0.009104762
0.04180166 0.046450853 -0.010246121 -0.037190367 0.014675006 0.003769614 -0.05265366 0.027706133

attention_blocks.0.attention_blocks.1.W_k.weight f4 [4, 16]
00000000: 4be2 5ebe 7739 683e 9f4a 543e 8a79 083f
00000010: b43d 2cbd d658 fd3d 7ec0 c4bd f6b1 25bf
00000020: fd69 43bd 7e3b dcbe 3418 203f ffbf d83e
00000030: e271 353c edc3 b0bd d9fe a83e f3ad 4abc
00000040: 832c 0bbe f76d 0bbf 37ba eb3e 2434 293e
00000050: 6f50 473f 4b4e b03b 7f5a e9bd 2e13 0fbe
00000060: 6bd1 d1bd 5bda 70be 9143 64be e554 bd3d
00000070: ab80 45bd d4bd 53be d81b b33e 28e6 54bd
00000080: ca70 783d 7ce1 183e 951c 393f 1a69 f63e
00000090: 2693 80be 0318 80be 4487 febe 9224 b6be
000000a0: 9f7e d2be c4f4 023e bc91 2c3e 1bbd aa3e
000000b0: 3337 383e 0786 26bf 3937 90be b5d3 a5bd
000000c0: 4005 22bf 3bf9 cbbe 0afa 723e f376 163d
000000d0: e425 213e 6c34 183f 8cf8 243f 0f4c 733e
000000e0: 8e4a 71be 281a f83d c668 883e d987 c53e
000000f0: a8d3 d1be d549 9fbe 76e0 ce3d e516 f3bd
-0.21766011 0.22678171 0.2073159 0.53310454 -0.042051032 0.1237046 -0.096070275 -0.6472467
-0.0477085 -0.4301414 0.6253693 0.4233398 0.011074515 -0.0863112 0.33006933 -0.012370574
-0.13591199 -0.5446467 0.46040508 0.16523796 0.77857107 0.005380427 -0.11394214 -0.1397216
-0.102450214 -0.23520796 -0.222914 0.09244708 -0.04821841 -0.20677882 0.3498218 -0.051977307
0.06065444 0.14929765 0.7230924 0.4812706 -0.25112265 -0.2501832 -0.49712574 -0.35574776
-0.4111223 0.12788683 0.16852468 0.333474 0.17989807 -0.6504826 -0.28167132 -0.080970205
-0.6328926 -0.39838585 0.23728195 0.036734533 0.1573711 0.5945499 0.6444175 0.23759483
-0.23563597 0.12114364 0.26642436 0.38580206 -0.40981793 -0.31111017 0.10101406 -0.11869601

attention_blocks.0.attention_blocks.1.W_q.weight f4 [4, 16]
00000000: 7c91 2b3c 18bd 893e bb90 19be 0ef8 28be
00000010: ca11 1b3e 6a9c 32be c4cb 1dbc 3140 42bd
00000020: 5d33 a8bd c6b5 9d3e cf94 f93d 9b55 cbbe
00000030: f8c0 c63e 1e10 8d3d 83cb d83d 1cea 02bf
00000040: 579a 7f3e f74a 073e 8788 96be 731d c63d
00000050: a9ca ddbe e1f3 0bbd 0e64 92bd 8f1d 5e3e
00000060: a0ff 62be c187 4abc 7d6c 363c af95 433e
00000070: c1e3 9ebe 324e 643d 80e1 46bd 4731 27bf
00000080: cf1a 903d 43f2 283e b313 bf3e 0407 353f
00000090: d823 8fbe 5cbc 343f 33ea e4be 56bd 31be
000000a0: 376b 23be 6461 22bd 9809 5e3d c3f5 fdbe
000000b0: fce6 0fbd 5f6f 19bf eb52 cfbd 62cd 01bd
000000c0: 59ec bfbc 40be ad3e be98 d8be 862d 1d3f
000000d0: f824 3d3d a902 e1ba 884f 663f 8511 123e
000000e0: 8283 3cbf ad61 6e3f 26ed 65bd e272 6ebe
000000f0: cad3 a73c 8a2e dcbe 9ce9 12bd d7f7 413e
0.010471698 0.2690208 -0.14996617 -0.16500875 0.15143505 -0.1744248 -0.009631101 -0.0474245
-0.08212922 0.30802745 0.12186586 -0.3971375 0.38819098 0.0688784 0.10585692 -0.5113847
0.2496122 0.1321219 -0.29401037 0.09673586 -0.4331868 -0.034168128 -0.0714799 0.21690963
-0.22167826 -0.012361468 0.011134264 0.19100069 -0.31033137 0.055738635 -0.048554897 -0.65309566
0.07036363 0.16498666 0.37319717 0.7071383 -0.27957034 0.70599914 -0.4470993 -0.17357382
-0.15958868 -0.03964366 0.054208368 -0.49601564 -0.035132393 -0.59935564 -0.10123237 -0.03169001
-0.023428129 0.33934212 -0.42304033 0.6139759 0.046177834 -0.001716693 0.89965105 0.14264496
-0.73638165 0.9311779 -0.056134365 -0.23286012 0.020486731 -0.43004256 -0.03586732 0.189422

attention_blocks.0.attention_blocks.1.W_v.weight f4 [4, 16]
00000000: 08f3 363e adc2 cf3e cd6c 493d fb5f 7cbe
00000010: 1515 48be bdb0 52be 60de e43d 747b d83e
00000020: 1500 b63d 3a23 b5be ea86 2b3d 550e 1f3e
00000030: e0f4 c13e 4a4e 943d d686 a9bd 8c8a ee3d
00000040: b079 90be 0905 91bd b7cf 6f3e a524 a8bd
00000050: 8a99 cb3d e3b6 1abf 6868 ccbe 6142 123e
00000060: 7455 693e c2a9 0b3a 1990 8abd 60dd 1e3e
00000070: 8a98 5cbd ec39 32bd 4c9c a0bb a82e 3ebe
00000080: d61e 0a3e 099e 62bd 5b9a 0c3d 6fdd f63d
00000090: fba3 d63e c421 27be 7898 bfbe bf37 12be
000000a0: 12e4 493f 837e 0d3e e303 1a3e ba21 083e
000000b0: f4df 563d 36a3 97be dbf1 60bd 1d9d cd3c
000000c0: 5fb3 a8bd d6d2 de3c f621 773e 88c4 d9bd
000000d0: f8a6 003f 585e d3be a631 c13e 2f51 3e3c
000000e0: 270e ac3d 6db3 68be ad18 053f 11fc 0abf
000000f0: 9650 283e 2d99 773c f040 bf3d 95df 57be
0.17866147 0.40578213 0.049176026 -0.24645989 -0.19539292 -0.20575233 0.11175227 0.42281687
0.088867344 -0.35378438 0.04187671 0.15532811 0.37882137 0.07241495 -0.08277671 0.116475195
-0.2821784 -0.070810385 0.2341908 -0.082101144 0.099413946 -0.60435313 -0.39923406 0.14283134
0.22786504 0.0005327725 -0.06765766 0.15514135 -0.05385641 -0.04351227 -0.0049014445 -0.18572485
0.13488325 -0.055326495 0.034326892 0.12053954 0.41921982 -0.16321474 -0.37421012 -0.14279078
0.7886363 0.13817792 0.15040545 0.13294116 0.052459672 -0.29616708 -0.05491815 0.025099332
-0.08237337 0.027200144 0.24134049 -0.106331885 0.50254774 -0.41282916 0.3773319 0.011616035
0.08401137 -0.22724696 0.5199078 -0.5429087 0.16436991 0.015112204 0.09338558 -0.21081384

attention_blocks.0.attention_blocks.1.W_o.weight f4 [16, 4]
00000000: ab82 38be 9683 a1be 1c5c 193f 877c 4abe
00000010: ea24 c13d d95a ab3d 046f 2b3e 0f39 99be
00000020: 51b4 073f e64c 543e 2460 c7be f6ba f03e
00000030: 1b30 28be b62e 82bd 00f3 843e 0757 1dbe
00000040: 8720 0e3d 10e1 7abd 99de c1be 4430 65bd
00000050: 09de 4bbc 94b7 d73d 9005 333e ff14 cb3e
00000060: 3503 fabe 4b0d 83be b27c 93be 458d 97be
00000070: 41fc 173f 4796 83be 3e8c 78bd ff2a 02bf
00000080: fa3a 82be b9eb de3e f484 083e e54a 303d
00000090: e2e2 7e3c 36d3 4a3e 51d9 163d 88a0 c43a
000000a0: 7027 edbd 86e4 4c3e 7921 603e e6cd 1a3e
000000b0: 71a9 6cbc 7d13 da3e 428b a1be 25e9 9bbd
000000c0: 17c0 b8be 37cf f83e 8ecf 8a3e 4dff 003f
000000d0: cc13 41bd 1171 b7be 61ea 6d3d f877 82bb
000000e0: 7ddf 103e 2652 1abb ef30 0b3f c8cf ecbe
000000f0: 1acc 08bf 1f8e 5e3d c157 9f3d 2c6e 35bf
-0.18018596 -0.31545705 0.5990617 -0.19774066 0.09430869 0.08366937 0.16741568 -0.29926345
0.53009516 0.2073246 -0.38940537 0.4701764 -0.16424601 -0.06356566 0.25966644 -0.1536523
0.03469899 -0.061249793 -0.3786514 -0.055954233 -0.012443074 0.105330616 0.1748259 0.39664456
-0.48830572 -0.2559608 -0.28806072 -0.29599968 0.59369284 -0.2570059 -0.06068062 -0.50846857
-0.2543562 0.43539217 0.13331968 0.043040175 0.015557023 0.19807133 0.036828343 0.0015001455
-0.11579788 0.2000905 0.21887769 0.15117607 -0.014444695 0.42592993 -0.31551558 -0.07612828
-0.36084053 0.48595592 0.27111477 0.5038956 -0.04713802 -0.3582845 0.05808485 -0.0039815865
0.14147754 -0.00235475 0.5437154 -0.46252275 -0.53436434 0.054334756 0.077804096 -0.70871234

attention_blocks.0.attention_blocks.2.layer_norm.weight f4 [16]
00000000: 22a4 873f 3893 993f 8b10 883f 4cc2 923f
00000010: dcc8 913f 0e5f 8a3f ddc1 7c3f a05c 6b3f
00000020: f0ab 823f 93a5 8e3f a68d 923f 4688 893f
00000030: 71be 8d3f 051b 7e3f 4f81 7a3f e0a8 853f
1.0596964 1.1998053 1.0630049 1.1465545 1.1389422 1.0810258 0.9873331 0.9193821
1.0208721 1.1144279 1.1449478 1.0744712 1.1073743 0.9925998 0.9785356 1.0442162

attention_blocks.0.attention_blocks.2.layer_norm.bias f4 [16]
00000000: 4448 813d 2344 2abd 6d77 023d 10de cdbc
00000010: b2ac 2b3d 5d74 acbc 2ff5 0c3c 8f5b e7bd
00000020: f20b 553d 6ec3 1a3e f35f 953c 0213 823d
00000030: ab9c efbc 97a9 853d 2c25 f6bc 6c2d 6cbc
0.06312612 -0.041568886 0.031852175 -0.025130302 0.041912742 -0.02105158 0.008603378 -0.1129676
0.052013345 0.15113613 0.018234229 0.06351282 -0.02924951 0.06526487 -0.030047022 -0.014415126

attention_blocks.0.attention_blocks.2.W_k.weight f4 [4, 16]
00000000: c0bd 49bd 8e8f 3a3d bdd4 c13d 9b50 343f
00000010: 3fb0 d2bd 6dd5 2abf 8cfc bfbe 22f8 d33d
00000020: d203 613d 41e7 9b3e 6cde 843e 2ddc 77be
00000030: 182f c5bd 93eb 883a 1ee2 b03e c420 0b3e
00000040: e115 033e a9b3 bb3e 130f c9be b314 a6be
00000050: c47f afbe 921c 6d3e b709 54bc 4641 fe3d
00000060: a5a5 9a3e d1a2 98be b8eb 463f 164e ae3b
00000070: b83d cbbe 2b1d 49be 103f 103f 6ec5 083f
00000080: d875 b1be 0b40 a7bd d241 fb3b fdfa 1d3e
00000090: 1d93 03bd 2b3e 293e 14b5 0e3e 270a b03e
000000a0: 3056 2cbe 60a4 80bf cc15 a9be 4600 9fbe
000000b0: 3035 d93e f59d 91be e2f4 82bd 7927 b5be
000000c0: a3ba 9c3e 7f61 f6be 441b f6be 7fd3 57bf
000000d0: 5944 c6be e725 6d3e 2789 67ba 33ff fc3d
000000e0: 7fc0 233e 2a3a a93d 6058 033f 014a fa3e
000000f0: f637 d93e 4799 57bd 95ff 8e3e 6bf7 1d3e
-0.049253225 0.04554706 0.09464405 0.70435494 -0.102875225 -0.6673191 -0.37497365 0.10350062
0.054935284 0.3044987 0.25950944 -0.24205084 -0.09628123 0.0010446183 0.34547514 0.13586718
0.12801315 0.36660507 -0.39269313 -0.32437667 -0.34277165 0.2315543 -0.012941769 0.12414794
0.30204502 -0.2981172 0.7770343 0.005319367 -0.39695525 -0.19640033 0.56346226 0.53426254
-0.3466022 -0.08166512 0.0076677585 0.15427776 -0.03212272 0.16527621 0.13936263 0.34382746
-0.16829753 -1.0050163 -0.33024442 -0.31054896 0.4242339 -0.28440824 -0.06394364 -0.35381678
0.30611143 -0.4812126 -0.48067677 -0.8430709 -0.3872402 0.2315899 -0.0008832388 0.12353363
0.159914 0.08263047 0.51306725 0.48884585 0.42425507 -0.05263641 0.2792937 0.15426414

attention_blocks.0.attention_blocks.2.W_q.weight f4 [4, 16]
00000000: 0335 113f 66c9 b1bc 88fb fdbe 15e3 8fbe
00000010: aac5 943e 6419 17be e38c 90be f88a cc3d
00000020: 57b0 04be 1d31 673d e65e 1fbf d4a3 29bf
00000030: 338d e2be 1a9b 713e 2d0c 283e 3121 4ebd
00000040: 67b4 08be f5f9 c4be 1385 ae3b 3c52 eb3e
00000050: cd19 abbe 96f2 bd3e b783 68bd 3f9d 7bbe
00000060: 344e a33e d8a8 c93e 4ae1 cd3e c497 aabe
00000070: 71f2 98bd 9ecf 5bbe 30bf 223f 2c3f 823f
00000080: 046a b6bd 0941 3d3f bea7 c2bd 2a89 6b3d
00000090: 72fc b3be 0933 f1bc 99a8 0abe 4204 59be
000000a0: 0994 a9be c730 033f 1796 7bbe 3681 183f
000000b0: 4e2f d7be df76 58bb 8bd7 f2bc 6c49 4abe
000000c0: bacc 17bf bd0a e33e 5e7a a33e ed5c 49bd
000000d0: 63d4 d03b fb81 313e 6375 c9be 56b2 fdbc
000000e0: 993c 01be ffdc fcbe 3663 ebbe a9bc 01bf
000000f0: 413d e73e f310 ab3e a5e0 cd3d f0f0 033f
0.56721514 -0.02170248 -0.49605966 -0.28102937 0.29057056 -0.1475578 -0.28232488 0.09987444
-0.12957893 0.056443322 -0.6225418 -0.66265607 -0.4424835 0.23594323 0.16410895 -0.050324623
-0.13350068 -0.38471952 0.0053259223 0.45961177 -0.33418122 0.3709914 -0.056766238 -0.24571703
0.31895602 0.3938663 0.40210944 -0.33318913 -0.07468117 -0.21465918 0.6357298 1.0175529
-0.089069396 0.7392736 -0.095046505 0.057503857 -0.35153538 -0.02944328 -0.13540877 -0.2119303
-0.33120754 0.51246303 -0.24568973 0.5957216 -0.42028278 -0.0033029837 -0.029643795 -0.1975457
-0.5929676 0.4434413 0.31929296 -0.049160887 0.0063729747 0.1733474 -0.3934737 -0.030968826
-0.12620772 -0.49387357 -0.4597413 -0.506785 0.4516392 0.3341137 0.10052613 0.51539516

attention_blocks.0.attention_blocks.2.W_v.weight f4 [4, 16]
00000000: bce9 9fbd e117 ac3d 9721 50bf 2589 dfbe
00000010: b82e 80be 2ed5 03be 03d8 2fbe f340 143f
00000020: 2de0 683c 12ba 553e 8973 f33d 1f78 a63d
00000030: 2ebe f7bd 7c63 07bf 8e37 4dbe 576b 603e
00000040: bca6 2d3e 20c9 24be fae8 173d 9587 f0be
00000050: dad8 e63e 6b1e 46be 6960 6bbd 3855 ce3e
00000060: acae 2fbe 4f4c 27bd b6de 803e e9f1 073f
00000070: c4c0 b53e c73e 403e f300 cbbe 02d0 22bd
00000080: 1f92 d23e 6feb 213d 778b 4a3e 6645 383e
00000090: bd0a 193d 10fd be3c 7f71 933d a6bc c03e
000000a0: 49dd edbd 06f9 603d 900a 1bbd f91d 683d
000000b0: d064 b63c 86f4 cebe d15e 66be d7a2 ae3e
000000c0: 83a2 1c3e 2a1d d4bd f25e 9a3c 4880 b13d
000000d0: a429 a5be ba87 493c 2da2 f5bd b869 bd3e
000000e0: 341c a53c 97ba bb3e 2636 91bd 8419 6fbb
000000f0: 2d32 0b3f 8c4e 3d3e 70f5 a93d d0c1 3abe
-0.07808253 0.08402992 -0.81301254 -0.4365932 -0.25035644 -0.1287429 -0.17172246 0.57911605
0.014213604 0.20871761 0.11887271 0.0812838 -0.12096821 -0.52886176 -0.20040724 0.21915947
0.16958135 -0.16092348 0.03708742 -0.4697844 0.4508732 -0.19347541 -0.05746499 0.40299392
-0.17156476 -0.040844258 0.25169915 0.531035 0.3549863 0.18773948 -0.39649162 -0.039749153
0.41127107 0.039531168 0.19779764 0.17995223 0.037363756 0.023314029 0.07199382 0.37643927
-0.116144724 0.054924987 -0.03785187 0.05666921 0.022264868 -0.40420932 -0.22497107 0.34108612
0.15296368 -0.10357125 0.018844102 0.08667046 -0.32258332 0.012300426 -0.11993823 0.3699472
0.02015505 0.36665794 -0.07090406 -0.0036483714 0.5437344 0.18486995 0.082987666 -0.18237996

attention_blocks.0.attention_blocks.2.W_o.weight f4 [16, 4]
00000000: 52e6 b5be dd87 46bd 2286 cdbe 1a8b 7e3e
00000010: de78 b9be 23aa e63b b536 723b feae e13d
00000020: 763d cb3d 7d48 973e b82c a83e 76d3 d6be
00000030: d334 853e 2fd6 033e b776 18be d42b 123f
00000040: fc76 823e 777a a5be eeac 653e 6ef9 2abe
00000050: 3f20 e33c 5859 f1be 4032 c4be 23ae 40be
00000060: 1a46 84be f74d ddbd 044f 38be 705b 36be
00000070: ddba e0be af26 d43e 5a27 2dbe ee49 2d3e
00000080: fc53 0fbe 87c2 8d3d 9c46 11be 30e8 dcbe
00000090: 76b1 4abe c813 a23d ab5a a9be fca8 24bd
000000a0: 2475 113d d57e ddbe 756a 813d ccf2 cd3d
000000b0: 98c9 563e 92b5 81bd 6902 6abf ac82 893e
000000c0: 2495 85be 998a 87be 6c49 37be 198b 3e3d
000000d0: f71b 2cbf b9c6 9fbe 4b98 243e 0838 453d
000000e0: 3fc1 043c 637c 0cbf fe84 6f3e 6fd3 723e
000000f0: ded3 67be 686a 993e 8196 24be 4e59 50bd
-0.35527283 -0.048469413 -0.40141398 0.2485775 -0.36225027 0.007039325 0.0036958877 0.11019705
0.09923832 0.29547492 0.32846618 -0.41958207 0.26016864 0.12874673 -0.14889036 0.57098126
0.25481403 -0.32319996 0.22429249 -0.16696712 0.027725337 -0.47138476 -0.38319588 -0.18816428
-0.25834733 -0.10805886 -0.17998892 -0.17808318 -0.43892565 0.41435763 -0.16909543 0.16922733
-0.13996881 0.06921869 -0.14187092 -0.43145895 -0.19794258 0.07913929 -0.33076987 -0.04020022
0.035512105 -0.43260828 0.06319133 0.100560755 0.2097534 -0.0633346 -0.9140993 0.26857507
-0.26090348 -0.2647293 -0.17899102 0.046519373 -0.6723017 -0.312063 0.1607372 0.04814914
0.008102714 -0.548773 0.23390576 0.23713468 -0.22639415 0.29963994 -0.16073038 -0.050866418

attention_blocks.0.attention_blocks.3.layer_norm.weight f4 [16]
00000000: cbb3 8c3f f0b3 843f 92c4 933f 62d5 7f3f
00000010: abb6 7b3f e254 873f f4dd 863f 9539 673f
00000020: 3b1f 883f 00b0 8c3f 8db5 783f a6a3 833f
00000030: 0169 7d3f ef2b 973f ff22 883f b36c 803f
1.0992368 1.0367413 1.1544363 0.9993497 0.98325604 1.0572779 1.0536485 0.9032224
1.0634531 1.0991211 0.97152025 1.0284317 0.9898835 1.1810282 1.063568 1.0033172

attention_blocks.0.attention_blocks.3.layer_norm.bias f4 [16]
00000000: 695b 02be 32e6 5b3c 44fb 903d ad01 3dbd
00000010: d02e aebd 323c 89bd 6d09 00bd b409 a63d
00000020: 77c9 dfbb 83ff 16bc 1146 a2bd 03fa c33d
00000030: 4039 563d ad7f 55bd ddee 4b3d b141 163d
-0.12730183 0.013421582 0.07079175 -0.046144176 -0.085050225 -0.067009345 -0.03125899 0.081073195
-0.0068294364 -0.009216192 -0.0792352 0.0956917 0.05230069 -0.052123714 0.049788345 0.036683742

attention_blocks.0.attention_blocks.3.W_k.weight f4 [4, 16]
00000000: bebb 4abf 2582 cd3e 2376 103f 9d6d b0bd
00000010: ecb4 553e 7e61 00be 143c 95be eb12 cd3d
00000020: a57b babe 425b 2dbe 3862 c0be 2a9d 2e3f
00000030: 4c1c 673e 4ded 1abf 7402 f83e ef44 683e
00000040: 0a26 18be a0b7 453f f2c7 b1be 887c 803e
00000050: 9879 523e 1982 e5bd c900 ae3d 13e5 72bd
00000060: 5e71 c03e 29c7 98be 7518 313e cdcc f03e
00000070: e411 0ebe 9f05 34be 8a4f 083f f366 83be
00000080: 1cbd a9bd 9073 7e3e 035c f13e 6a7c 09be
00000090: 8d94 103e 8fb0 a83e 4b43 c83d fd3a ca3e
000000a0: aca8 dabe a934 c9bd 68b3 c13e d9b4 c8be
000000b0: c105 24be aaac c83e 33b8 9d3d f405 f9be
000000c0: fdbe 2abf fca5 63be 0a48 7d3d 9860 bcbe
000000d0: 3360 06bf 153c acbe c1c4 b1bd 94de 153f
000000e0: b565 8a3d d280 6e3e d1cb 0cbf 0489 df3e
000000f0: 6e35 9c3c 8a72 e73e a1ae 213e 86ea d8bd
-0.7919272 0.40138355 0.5643026 -0.08614657 0.20869797 -0.1253719 -0.29147398 0.10013374
-0.36422458 -0.16929343 -0.37574935 0.68208563 0.22569388 -0.6051834 0.48439372 0.22682546
-0.14858261 0.77233315 -0.3472286 0.2509501 0.20554197 -0.11206455 0.084962435 -0.059300493
0.37586492 -0.29839447 0.17294486 0.4703125 -0.13874012 -0.1758027 0.53246367 -0.25664482
-0.08288023 0.24848771 0.47140512 -0.13426366 0.14119168 0.32947204 0.0977846 0.3949813
-0.4270681 -0.09824497 0.3783219 -0.39200476 -0.1601782 0.39194232 0.07701149 -0.48637354
-0.66697675 -0.22231287 0.06183628 -0.36792445 -0.5249054 -0.3363959 -0.08680106 0.5854275
0.0675768 0.23291329 -0.549985 0.43659222 0.019068446 0.45204574 0.15789272 -0.10591607

attention_blocks.0.attention_blocks.3.W_q.weight f4 [4, 16]
00000000: 0ed5 a5be b756 623d c2b6 f53d b6b7 94be
00000010: aca9 0cbd e9a1 183e 3be6 21bf 6810 8cbe
00000020: c924 80bd fe93 91be b037 71be acd6 313d
00000030: c743 973d f485 163f 4964 b6bd d281 6a3d
00000040: 7481 e5bc 2dfe ea3e 1321 c5bd 0171 44bf
00000050: ce52 8bbe 806c d7be f088 65be fde4 a1bc
00000060: eb7a 81be 71c6 2abf f99c 653d d732 adbc
00000070: 287c b73d 0380 9c3d 0486 ee3e ac03 d03e
00000080: fa6f 013f d364 6a3e 955a 9c3e dd0f 66be
00000090: 9e91 dd3d 8817 063f 6fd1 01bf cc84 d8bd
000000a0: 3f9c 1dbe 37b4 d4bd 8312 5e3d cbb5 dcbe
000000b0: e81a debe a928 22bf 6ee4 fabd 33fe ebbb
000000c0: 4d38 edbd 95a6 3bbd 9042 2fbf 85c0 33be
000000d0: a944 bf3e 29b8 af3d e462 e4be dc57 ad3c
000000e0: 67ce fa3e 95f8 99be 5021 e73d c88d c53e
000000f0: 09f4 393c 8cec 10be 3428 603c 2b67 043e
-0.3238911 0.05525848 0.11997749 -0.2904641 -0.0343415 0.14905514 -0.6324193 -0.27356267
-0.06257016 -0.28433222 -0.235564 0.043417618 0.073859744 0.58798146 -0.089058466 0.057252713
-0.02801583 0.45897046 -0.09625449 -0.7673493 -0.27211612 -0.42074966 -0.22415519 -0.01976251
-0.2528909 -0.6670905 0.056057904 -0.021142406 0.08959228 0.07641604 0.4658662 0.406278
0.5056149 0.22890024 0.3053786 -0.22466989 0.1081879 0.52379656 -0.50710195 -0.10572204
-0.15391634 -0.10385936 0.054216873 -0.43107447 -0.43379903 -0.6334329 -0.12250601 -0.007201934
-0.11583004 -0.045813162 -0.6846094 -0.17553909 0.3735707 0.08580048 -0.44606698 0.021160059
0.48985597 -0.30072466 0.11285651 0.38584733 0.011349686 -0.14152735 0.01368146 0.1292998

attention_blocks.0.attention_blocks.3.W_v.weight f4 [4, 16]
00000000: 5468 d5bc ed95 9c3e 81d1 0bbe 6366 703d
00000010: 2056 0c3d 7b99 5dbe 9440 d03c dbe3 a23d
00000020: daf4 7fbe 889c 76be 678d fbbb 0750 2c3d
00000030: b8b9 8f3e 9227 a63e e6d0 18bf 966d 0dbf
00000040: 051e adbe 29fb dc3e af64 a7bd c28e d03d
00000050: 37dd 623e 55f3 df3e ab88 afbd 36dd 783b
00000060: 5b62 0d3f 2a26 9d3e 5e7a c43e d8d4 143f
00000070: 8d6d d53e 7473 c1be ca07 093e dc1a 9fbc
00000080: d164 acbd 953e cf3e 75dc 203e 71dc b4bc
00000090: 900d fabd 6701 8fbe 589e 793e 5f6a 0cbe
000000a0: b6f4 c03e 57ef 7ebe d00a 763d c5e9 023e
000000b0: a995 e73e 8bec 86bd df9a 53be 8f2c a33d
000000c0: a36b d0bd 6ca9 113e 0528 a53e 261e 5b3e
000000d0: 320c 313d 4dff 8abd cbf3 7cbe af8f 753d
000000e0: 5a8c 583c 664c 76be a817 783e ee56 b7bd
000000f0: a793 03bf e508 a13d 0094 c23e a678 063e
-0.026050724 0.30583134 -0.13654138 0.058691394 0.034261823 -0.2164058 0.025421418 0.07953616
-0.24995747 -0.2408315 -0.0076767686 0.042068508 0.2807138 0.32452065 -0.59693754 -0.5524534
-0.33811966 0.4316037 -0.08173501 0.10183479 0.221547 0.43740335 -0.08570989 0.003797365
0.55228204 0.3069318 0.3837461 0.58137274 0.41685143 -0.37783396 0.13381878 -0.019421987
-0.08417667 0.40477434 0.15709098 -0.02207777 -0.12209618 -0.27930757 0.2437681 -0.13712452
0.376867 -0.24895988 0.060068905 0.12784488 0.4523137 -0.06588086 -0.20664547 0.07967483
-0.1017678 0.14224786 0.32257095 0.2139822 0.04322452 -0.06786976 -0.24702375 0.05995148
0.013217056 -0.24052581 0.24227774 -0.089521274 -0.51397175 0.078630246 0.3800354 0.13131961

attention_blocks.0.attention_blocks.3.W_o.weight f4 [16, 4]
00000000: 01a6 53be c988 9c3d e93c ec3e e0ff 8cbe
00000010: 7cba 873d 7344 85bd 18b7 9d3e 44c4 db3e
00000020: fb41 1a3f fdfa 023f 5c04 233e 6225 2fbf
00000030: 81b1 c0bd ab15 463e 495b d4bd 93d4 e7be
00000040: 170e de3d 5f4e ebbb 1a41 6fbe 2348 3fbd
00000050: 7f7c 6f3e 11de c2bd 9c6e 023f 3d65 0dbd
00000060: 9dd8 983e 91d5 79be c925 0abd 5aaa a83d
00000070: 38b5 31be 2940 163e 9ed2 f03e 7a7e 773d
00000080: bff7 163e afd4 72be 235e a43d 6f21 7e3e
00000090: 26ff 753d 3e78 503e 5d2e 32be 54c4 23be
000000a0: 10b7 8e3e 07f5 d0bd 9a8d 1bbf 9c32 adbe
000000b0: dc53 043e be4d 4b3e a3bd f0be d005 143e
000000c0: 2f8b 8f3e 512b 603d bd80 75be e0e2 56be
000000d0: 4773 093e 11a9 a6bd c049 5a3d 31e0 5f3e
000000e0: 3f94 83be 08d6 5ebc 503c 75bd a509 233d
000000f0: 7716 b23e 4a44 f83e 6f76 b0be 9fa8 e8be
-0.20668794 0.07643277 0.4614022 -0.27538967 0.06627366 -0.06507196 0.30803752 0.42923176
0.6025693 0.5116423 0.15919632 -0.68416417 -0.09408856 0.19344203 -0.10368974 -0.4527937
0.10842531 -0.0071809734 -0.23364678 -0.046699654 0.23387335 -0.09515012 0.50950027 -0.034520376
0.29852763 -0.24397875 -0.03372744 0.08235617 -0.17354286 0.14672913 0.47035688 0.06042335
0.14742945 -0.23713945 0.08025768 0.24817441 0.06005778 0.20358369 -0.17400499 -0.15992862
0.2787404 -0.10202985 -0.6076294 -0.33827674 0.12922615 0.19853875 -0.4701968 0.14455342
0.28035876 0.05472881 -0.23974891 -0.20984983 0.13422881 -0.081377156 0.05329299 0.21862866
-0.2569904 -0.013600834 -0.05987197 0.03980412 0.34782764 0.484896 -0.34465358 -0.45441148

attention_blocks.1.attention_blocks.0.layer_norm.weight f4 [16]
00000000: a2a4 933f 7845 a63f 76c8 913f 51fb 943f
00000010: f7f8 853f 2dd9 c03f 34fd ac3f 83cf 8e3f
00000020: c248 c13f c86b a63f 1dde 8f3f beef 833f
00000030: cf73 b03f 588a 8b3f ee36 983f a5fd 903f
1.1534617 1.298995 1.1389301 1.1639196 1.0466603 1.5066277 1.3514771 1.1157078
1.5100329 1.3001642 1.1239659 1.0307539 1.3785342 1.0901594 1.1891763 1.1327406

attention_blocks.1.attention_blocks.0.layer_norm.bias f4 [16]
00000000: 3174 b13d 2836 ec3b 35db c93d 004c e4bd
00000010: 4ee3 e4bd 0995 7ebc b04e f13c cb30 7a3d
00000020: bf8a 05bc 0334 13bd b366 753b 275b dabc
00000030: 3872 8cbd 3465 e0bd 1a79 92bb 42c0 16bb
0.0866474 0.0072086044 0.098562635 -0.11147308 -0.111761674 -0.015538462 0.029456466 0.06108169
-0.008150755 -0.035938274 0.0037445247 -0.026654793 -0.06857723 -0.10956803 -0.004470003 -0.0023002778

attention_blocks.1.attention_blocks.0.W_k.weight f4 [4, 16]
00000000: 93ee 1cbe 59b4 bdbd dcd1 8dbe 34b5 81bc
00000010: ebe3 4b3d 1a2b 1bbe b3a3 4ebe a264 51be
00000020: c0ff 57be 5646 073f eee6 093f f7d7 d23d
00000030: ee90 42be 688f 5a3e c570 743e b43e 8c3e
00000040: a695 943e bbe0 083e d5fa afbe b5c4 09bf
00000050: 6259 ffbd 8b0b 303f 284e 2fbe 7cf6 16be
00000060: 373a bf3d 8840 adbd f7cb de3e 75f3 b5be
00000070: 682f a93e 9d76 bcbd 3065 85be baa2 56bf
00000080: a583 d8bd 5730 b9be 2bcf 12be 5762 1b3f
00000090: e71a a53e 3956 b9be 6684 3abf c70d 923d
000000a0: f07f 5a3d f947 b23e aac2 58be 2555 0a3e
000000b0: 3fcb 9d3e dcd1 0c3e 041a 87be fb7c b0bd
000000c0: 86dd 75be 79ca dd3e 0aca 6ebe 47aa 07bf
000000d0: 84a6 803e 5957 acbe a7a1 0c3f 3223 0c3f
000000e0: 564c 90bf b43c 1a3f f02a 26be ed99 0d3e
000000f0: 3ba0 083f 4cc2 183f 7b97 32be af24 87be
-0.15325384 -0.09262914 -0.27699172 -0.015833475 0.049777906 -0.1515316 -0.20179634 -0.20448545
-0.21093655 0.528417 0.53867996 0.10295098 -0.19000599 0.21343768 0.23871143 0.2739159
0.29020423 0.13366978 -0.34371057 -0.53815776 -0.1246822 0.68767613 -0.17119658 -0.14742464
0.093372755 -0.08459574 0.43514988 -0.35537305 0.3304398 -0.09202311 -0.26053762 -0.8384205
-0.10571984 -0.36169693 -0.14336841 0.6069693 0.32247087 -0.36198595 -0.72858274 0.07131534
0.053344667 0.34820536 -0.21168008 0.13509043 0.30819127 0.1375193 -0.26387036 -0.08617588
-0.24010286 0.43318537 -0.2331926 -0.529942 0.2512704 -0.3366039 0.5493416 0.54741204
-1.1273296 0.60248876 -0.16227317 0.1382825 0.5336949 0.59671474 -0.17440598 -0.26395175

attention_blocks.1.attention_blocks.0.W_q.weight f4 [4, 16]
00000000: 23cf 1bbf 7722 3e3e dd91 b23e a4ea 6a3e
00000010: 6d27 dbbe fa5a 80be a7a7 e8be 440c 553e
00000020: 98ba 1bbe 61c6 443f cac3 74be 3fa3 283e
00000030: 6caf 6e3d db26 8bbe bf62 d3be ed70 0b3e
00000040: 053a ee3e 0e6c 04bf bd9e dbbe dd2d 033e
00000050: 65cf f0ba 3815 09bf a8db f8bd 778f e73e
00000060: 3626 22bf 9f70 42be ef40 e53e e771 02bf
00000070: 96b9 30bd 51dc 1a3f 2490 033f b400 df3c
00000080: 3829 113e 9500 743f f48b 99bd c342 bfbe
00000090: f9f5 96be 8bc1 46be 204d d9be f7d7 09bf
000000a0: 5d35 d73e 6d6d b9bd 9c5b fbbe 81a2 963e
000000b0: 82bf 8d3c a696 2ebe 0105 203e 1026 393e
000000c0: 2a62 4dbf 1016 143e fb90 1dbe 9c56 82be
000000d0: d762 03bf a43d 313e 012f 08be a77a 33bd
000000e0: 6ef2 e83d 5217 fcba d910 02be 898f 38be
000000f0: ee47 52bf 1127 a53a 1d10 353f 5cf6 63bd
-0.6086294 0.18567835 0.3487691 0.22941071 -0.42803517 -0.2506941 -0.4544041 0.2080546
-0.15207899 0.768652 -0.23902813 0.16468523 0.058272764 -0.27178082 -0.41286275 0.13617297
0.4652864 -0.5172738 -0.42894545 0.12810464 -0.0018372355 -0.53548 -0.12151271 0.45226642
-0.63339555 -0.18988274 0.44776103 -0.5095505 -0.04314574 0.60492426 0.51391816 0.027222015
0.1417588 0.9531339 -0.07497397 -0.37355623 -0.29484537 -0.19409768 -0.42441654 -0.5384516
0.420329 -0.090540744 -0.4909333 0.29420856 0.017303232 -0.17049655 0.15626909 0.18080926
-0.8022791 0.14461541 -0.15387337 -0.25456703 -0.5132269 0.1730867 -0.1329918 -0.043818142
0.11374365 -0.0019233024 -0.1270174 -0.18023504 -0.82141006 0.0012600144 0.7072771 -0.05565487

attention_blocks.1.attention_blocks.0.W_v.weight f4 [4, 16]
00000000: 3b5f d1be c888 0f3f 8cce 9d3e d7e8 39bf
00000010: 3d28 3dbc 9851 77be fdae 90be f0e8 9bbd
00000020: 5f65 6ebe 7115 88be cf82 27be a89b 763d
00000030: 1ead 723e ded0 3fbf e4af c13d b206 bdbe
00000040: c3d2 893e eca8 7fbe aa77 c4be ef59 4cbe
00000050: 92d5 fbbe 4666 03bf 3062 d1be 61c9 6b3d
00000060: 4ed1 333e e27c 983d 1eab 133f 36b2 afbd
00000070: 4bef 13bf a004 eabd 5276 783d 834e 773e
00000080: 7ab8 b43e 32d9 e83a ce6e 06bd 162f f4be
00000090: 99a7 05be 0a4c b33e 98f7 98be d3da 533e
000000a0: f92b f4bd c967 2fbf 2bd4 b1be 52af 043f
000000b0: 808e eb3e 4fed 82be 0ac7 5dbe 241d 3b3f
000000c0: 56f2 1abd 9952 55be fbf9 fd3c acc3 e43d
000000d0: 20cf 74be cbd4 353f 7dab 9a3e 2550 c2bd
000000e0: fa7f d6bc 929e 863d 7d10 3ebe 8633 8abe
000000f0: a1ba 15bf df4a 2c3f 2f55 7c3e 2584 1d3e
-0.40892968 0.56068087 0.30821645 -0.7262091 -0.011545238 -0.2415222 -0.28258505 -0.07612789
-0.23280858 -0.26578858 -0.16358493 0.06020704 0.23698851 -0.7492808 0.094573766 -0.3691917
0.2691861 -0.24966782 -0.38372546 -0.19956182 -0.4918638 -0.5132793 -0.40895224 0.057565097
0.17560312 0.074456945 0.5768298 -0.08578913 -0.5778701 -0.114266634 0.060659714 0.24151044
0.35296994 0.0017764925 -0.032820515 -0.47692174 -0.13052215 0.3501895 -0.298764 0.20688944
-0.119224496 -0.6851774 -0.34732184 0.5183002 0.46007156 -0.25571677 -0.21657959 0.7309134
-0.037828766 -0.2083229 0.031002989 0.11170134 -0.23907137 0.7102782 0.3020896 -0.094879426
-0.02618407 0.06573214 -0.18560977 -0.26992434 -0.584879 0.67301744 0.2464187 0.1538244

attention_blocks.1.attention_blocks.0.W_o.weight f4 [16, 4]
00000000: aad2 08bf df43 5b3d 0233 a5bc 72a0 9c3e
00000010: 5ee1 81be 5c9d ee3e b4cd 97bd 7cd4 26be
00000020: ace0 fdbe b305 d1bb 51dd 913d 862e 873d
00000030: 5908 b73d 38e5 03bf c1cb 42be a19b 95be
00000040: 206a 173e 14d7 193c 043b 02bf 0365 483e
00000050: 3cb8 c63e 424f 14bf 85a3 0bbd a2be afbd
00000060: a5e6 0fbe c1ca a33c 8977 713d 346e a73b
00000070: 3698 e2be 8cfb c0bd 5c5f 7fbb 9e6f 533e
00000080: 89bc ba3e 30c1 90be 001c 4abe 0a32 3dbf
00000090: f410 2dbe 7892 f5be ecf1 743e 1db4 683e
000000a0: 7f09 fb3d 9170 cebe 645b 26bf b41a eebe
000000b0: 1199 80be 98f3 2d3e c7b9 5fbf 393f 1b3f
000000c0: 32b8 c6be 2cb5 ed3e c504 9e3d c930 603e
000000d0: cb8c 1ebe 2eef 263f 9860 d33e 0e0d 54bd
000000e0: d5ef 843e 38f2 bf3e 4ee0 a93e 4165 f63d
000000f0: 2560 ee3d 103c 9fbe 4e7b ffbe 949c fa3e
-0.5344645 0.053531524 -0.020165924 0.3059116 -0.25367254 0.4660443 -0.07412282 -0.16291994
-0.49585474 -0.006378853 0.07122291 0.066006705 0.08937139 -0.51521635 -0.19023038 -0.29220298
0.14786577 0.0093896575 -0.508713 0.19569783 0.38812435 -0.5793344 -0.03409149 -0.08581282
-0.14052828 0.019994142 0.05895189 0.005109573 -0.44256753 -0.09422979 -0.003896675 0.20648047
0.36471966 -0.2827239 -0.19737244 -0.7390448 -0.16900998 -0.4796331 0.23920411 0.22724958
0.122576706 -0.40320256 -0.649832 -0.46504748 -0.2511678 0.16987455 -0.8739285 0.60643345
-0.38812405 0.46427286 0.077157535 0.2189361 -0.15483396 0.6520871 0.41284633 -0.051770262
0.25964227 0.37489486 0.33178943 0.120310314 0.11639432 -0.31100512 -0.49898762 0.48947585

attention_blocks.1.attention_blocks.1.layer_norm.weight f4 [16]
00000000: 4608 853f a1ed a53f caec 8f3f 37c7 933f
00000010: 0e23 b93f 8158 a43f a207 a43f 2e06 953f
00000020: f6d1 283f b338 883f f4be 853f 38f8 883f
00000030: 4d35 b13f 0d27 7a3f 6f01 b03f c054 9c3f
1.039315 1.2963144 1.1244137 1.154517 1.4463823 1.2839509 1.2814829 1.1642511
0.65945375 1.0642303 1.0448899 1.070075 1.3844391 0.97715837 1.3750437 1.2213364

attention_blocks.1.attention_blocks.1.layer_norm.bias f4 [16]
00000000: 2741 eb3b 0ab8 b0bd ed49 c63c cb1d c03d
00000010: 6b7e a03c 24a2 2d3c 4cbe 34bd 9b6f 2b3d
00000020: 2bfb 06bd 22d6 92bc a3ca be3d 64c2 93bd
00000030: c27e 6f3c 2a0a 9e3d 4144 ea3c ced3 883d
0.0071793976 -0.08628853 0.024205172 0.093806826 0.01959153 0.010597739 -0.044126794 0.041854482
-0.032954376 -0.017924372 0.09315994 -0.072148114 0.014617624 0.077167824 0.028597 0.066810235

attention_blocks.1.attention_blocks.1.W_k.weight f4 [4, 16]
00000000: d978 72bd 23fc b33e 0a4d 823e cf02 983e
00000010: 4389 44be 7898 ab3e 6a3b ab3e ccae c63e
00000020: facc 963e 4fc4 ac3e 9d13 33be ecd2 1ebe
00000030: 35d1 81be 7d15 943e caea 74be effa 05bf
00000040: 6ed1 4dbe 7d5b 7a3c 9060 043e 8a2b 093f
00000050: 0451 ce3e daef 453f bb35 603e 6ce4 27be
00000060: 5eb7 a03e c4b2 f23c 0d39 86bf 2302 643d
00000070: 95c8 17bf 3c3d b5be 54f6 363d 4318 ff3e
00000080: 8c5e 183f 918d 37bf 3164 0fbf 91b3 53bd
00000090: 9eb0 eebe dc24 62be 2310 913e c850 bc3e
000000a0: 3d04 febd f4a0 1e3f 557a 20bd f849 f5be
000000b0: f8a5 4bbf 42af 943e 98ed e83e ec4a 72be
000000c0: 09c1 613d 8e2e aabd e934 383f 2b2d 45be
000000d0: 9239 863b 3658 423d 97b5 2dbf 157e 0d3c
000000e0: 6761 953e 8fce 07be 8874 d13d c544 6fbe
000000f0: feb4 b43a d39c a93e f5ea 6a3e 8c71 bc3e
-0.05919728 0.35153303 0.254494 0.29689643 -0.19192986 0.33514762 0.33443767 0.38805234
0.2945326 0.33743522 -0.1748795 -0.15510148 -0.25354925 0.28922644 -0.2391769 -0.5233602
-0.20099422 0.015280602 0.1292746 0.5358206 0.40296185 0.7731911 0.21895497 -0.1639573
0.31389898 0.029626258 -1.048616 0.0556661 -0.5929044 -0.3539828 0.04466851 0.49823198
0.5951927 -0.7170039 -0.56012255 -0.05168492 -0.46619123 -0.22084373 0.28332624 0.3678038
-0.12403152 0.61964345 -0.039179165 -0.47907996 -0.79550123 0.2903996 0.4549377 -0.23661393
0.055115733 -0.08309661 0.71955734 -0.19255511 0.0040962184 0.047447406 -0.6785521 0.008636017
0.29175875 -0.1326239 0.10227305 -0.23366077 0.001378685 0.3312746 0.22941191 0.3680538

attention_blocks.1.attention_blocks.1.W_q.weight f4 [4, 16]
00000000: ae21 51bd 32de c13e 960d 9dbd 30f8 0f3e
00000010: 6064 273f e60b 32bf 5583 debe 7877 c7be
00000020: 2ab1 17bd 216e 76be c29a 503e b62f 7d3e
00000030: a441 7ebe c541 3fbd 0e12 bfbd 4136 7b3e
00000040: 61d6 8abe 35e7 78bf e092 50be 2d44 e63c
00000050: c136 333f 0137 7c3d cc58 e03e 6da2 c0be
00000060: 101e 52be fe72 c9be 22fc 2f3e bb16 c2bd
00000070: e74f 4b3e 7cdc 8c3e 70a9 02bf ff79 bb3d
00000080: c152 1fbf 42ea 69bd 466c 723e 5855 063e
00000090: 719c d43d 2ecc 64bf dbe1 83bc 8503 a23e
000000a0: 64cd b5be a4ae 033f 2a60 a63d 221f 9e3e
000000b0: 047e 1c3e 12f7 00bd 957d 15bf 0f0b a93d
000000c0: dde6 223f f847 29be d3d6 953d 4686 bb3d
000000d0: 17fa 3abf 1178 0c3e 936c b53e a6fd a93e
000000e0: 46f0 6dbe 390f d9be e406 07be a128 b9be
000000f0: 3b9e abbe b76b a13d 16df 3bbd e631 523e
-0.05105751 0.37864834 -0.07668607 0.1405952 0.65387535 -0.69549406 -0.43459573 -0.38958335
-0.03703419 -0.24065448 0.20371535 0.24725232 -0.24829727 -0.046693582 -0.093296155 0.24532415
-0.27116683 -0.97227794 -0.20368528 0.02810868 0.7000542 0.061575893 0.43817747 -0.3762392
-0.2051928 -0.39345545 0.17186025 -0.09476992 0.19854699 0.27511966 -0.5103979 0.09154128
-0.6223565 -0.05710817 0.23674116 0.13118494 0.10381401 -0.89374053 -0.016098907 0.3164331
-0.35508263 0.51438355 0.081238106 0.30883127 0.15282446 -0.031485625 -0.5839475 0.082540624
0.6363352 -0.1653136 0.07316365 0.0915647 -0.73037857 0.13717677 0.35434398 0.3320133
-0.23236188 -0.42394426 -0.13186222 -0.3616381 -0.33519158 0.07881873 -0.04586705 0.20526847

attention_blocks.1.attention_blocks.1.W_v.weight f4 [4, 16]
00000000: 4bbb f8bc ad54 dcbe 0eb3 c6bd 8b9c 0a3f
00000010: 7f1b 673d f828 1b3e 74d1 e23d 7129 af3e
00000020: c25f debd 84ca 19bd 13b3 5e3f 642b 06bf
00000030: 7ab2 83bd f699 d93d 5ea2 acbe 07ad 3b3e
00000040: 8e72 a7be 9f56 0a3f 2ad3 93be 4cfb 3abf
00000050: 3aca bf3e 3a2b 80be bcc8 8ebe 97e3 af3d
00000060: 66b5 dcbd b995 69bd 416a a03e 3c19 11bf
00000070: 0019 bb3e cdfb 86be f0cd 813c a1c7 063d
00000080: 859d a33e 58ff e2be dc3c 86be 7400 c13e
00000090: 5bc3 473d 28e0 21be beae 923c 35fd 9cbe
000000a0: b08d 86be 997f 8fbd 7604 933e ddd0 813e
000000b0: 7737 a73d e84f 2f3f 981c d93e a042 613e
000000c0: 59e0 ecbd 2479 23bd d127 1a3c e93f 603d
000000d0: 6a7f 4cbf 28fc 12bf 33b1 2cbf e463 523e
000000e0: cf03 13be 71f5 cb3e 2fe3 bf3e b0bb 0ebe
000000f0: 7fb3 37bd 8c40 5d3e a16d 493e 417c c3bd
-0.030362746 -0.43033352 -0.09702121 0.54145116 0.056422707 0.15152347 0.11075106 0.34211305
-0.10858108 -0.03754665 0.86991996 -0.5240996 -0.06430526 0.10625069 -0.33717626 0.18327723
-0.32704586 0.54038423 -0.28872043 -0.730397 0.37458974 -0.2503298 -0.27887523 0.08588331
-0.107767865 -0.057027552 0.31331065 -0.5667913 0.3654251 -0.26363984 0.015845269 0.032905225
0.31956115 -0.44335437 -0.26218307 0.37695658 0.04877029 -0.15808165 0.01790559 -0.30661932
-0.26279974 -0.07006759 0.2871434 0.25354663 0.08164876 0.684813 0.42404628 0.21998072
-0.115662284 -0.03991045 0.009408907 0.05474845 -0.7988192 -0.5741601 -0.67457885 0.20545918
-0.14356922 0.39835694 0.37478015 -0.13938785 -0.044848915 0.21606654 0.19670726 -0.09545184

attention_blocks.1.attention_blocks.1.W_o.weight f4 [16, 4]
00000000: f91b e43d 5052 2dbd f387 5abe 1762 0c3d
00000010: b207 863d 4e9b 1cbe bd04 2f3e 301c 053e
00000020: 46b8 a23e 8dd4 febd 5bb2 2a3d 1a02 823e
00000030: 3e31 8ebd 5a98 9fbe 8c23 d73e bcb5 283e
00000040: 8948 c63e 9a33 1d3e 5ee6 8fbe 3c41 963e
00000050: 1bf2 10bf a421 903e 5605 88be 6850 be3c
00000060: 5ed5 0f3f c9b4 12bd b463 3bbe 606a 2c3e
00000070: adef 0fbf ce51 993e 50cf 9c3d 83e9 7bbe
00000080: 05bc adbe 2d8c 34be 7591 72be fe14 303d
00000090: 6567 cdbd 3c7c c23e 9e8d dfbe a3df 253f
000000a0: d9cf 7e3d 4b3e 0f3d db45 cc3d 4d69 32bc
000000b0: 38f6 293f 7c40 41bf 3589 2e3f 8984 3b3e
000000c0: 08a5 25be 944a 8dbe a392 913d c751 6fbe
000000d0: dd34 d7be ac60 1bbf da93 903e 6af5 9e3c
000000e0: 4180 933d f166 fe3c 59ab 153c c6c3 92be
000000f0: 0135 7ebe 5abf 153f b3e9 a2be 1846 c23e
0.11138148 -0.042314827 -0.21340923 0.034273233 0.065444365 -0.15293619 0.17091651 0.12999034
0.31781214 -0.124428846 0.041674 0.25392228 -0.06942986 -0.31170923 0.42019308 0.16475576
0.38727215 0.15351716 -0.28105444 0.29346645 -0.56619424 0.28150666 -0.2656657 0.0232317
0.5618495 -0.03581694 -0.18299752 0.16837454 -0.5622509 0.29945225 0.07656729 -0.24600796
-0.3393251 -0.17631598 -0.236883 0.04298877 -0.100294866 0.37985408 -0.43662733 0.6479437
0.062209938 0.034971517 0.099742614 -0.0108893635 0.66391325 -0.7548902 0.6817811 0.18312277
-0.16176236 -0.2759596 0.07108047 -0.2337104 -0.4203252 -0.60694385 0.28237802 0.019404132
0.07202197 0.031054946 0.009135091 -0.28664988 -0.24824907 0.58495104 -0.31818923 0.37944102

attention_blocks.1.attention_blocks.2.layer_norm.weight f4 [16]
00000000: e5be 953f ff14 8d3f eca1 813f f604 a23f
00000010: 122e 9e3f 66a8 653f 0f28 813f f4c8 793f
00000020: 3397 783f 3292 843f 1f9c 8c3f dc4d 6a3f
00000030: daa0 9b3f 3cb8 843f 5b50 783f 79f7 8c3f
1.1698881 1.1022032 1.012754 1.2657764 1.235781 0.8971008 1.009035 0.97572255
0.9710571 1.0357115 1.0985144 0.91525054 1.2158463 1.0368724 0.9699761 1.1013023

attention_blocks.1.attention_blocks.2.layer_norm.bias f4 [16]
00000000: 40b2 1e3e b2e2 da3c d1fc 90bc aaeb 5cbc
00000010: 9f85 cfbe 32ca 313e e424 72bd 2d85 1e3e
00000020: 78bb 273e e315 eb3d 113a 30bd 15e9 703e
00000030: db3b 7fbd 5ba8 66be 5fcf 52be 55d3 29be
0.15497684 0.026719425 -0.017698677 -0.013483921 -0.40531632 0.17362288 -0.059117213 0.1548049
0.16380107 0.11478784 -0.043024126 0.23526414 -0.062312942 -0.2252516 -0.20586918 -0.16584523

attention_blocks.1.attention_blocks.2.W_k.weight f4 [4, 16]
00000000: fb3e 903e ef95 c4bc 44e2 263f 7452 90be
00000010: 6efd 34be 3faa f9bd 32f2 203f eb2d 3bbe
00000020: 24a5 253f a7f7 82be 7cc4 d6bd ff7d c4bd
00000030: 83b6 26bf ac12 85be d312 f3bd 7b6f 13bf
00000040: 7da0 3e3e 31fd a2be 430e 6dbe 7d6c 183f
00000050: 974a bcbe 6c8e a03d 5143 53bd 26ec a43d
00000060: f075 843d 4273 fc3d ac12 9bbe 6bde cf3e
00000070: e9ef 89bd 7e5b c13d 1dd6 49bd 98d6 4dbe
00000080: e079 12bf 3557 95be 88af 17be caa6 03be
00000090: c8a6 523e 365f 10bf c78e 723d 56f6 c33d
000000a0: e472 a03e 1cb4 bf3d d270 d5be 96b0 40be
000000b0: ee97 633f dca3 29bb e2ac 143e f798 3bbf
000000c0: ea99 ae3d b17d 07bf bf7a 64be 411e f1be
000000d0: 097b 6d3d 2ef1 933e c405 d73e d7dd fa3e
000000e0: 55d7 5ebe 77ca d03e 1b97 223f 34f2 dd3d
000000f0: f40e 8cbe 3312 073d 4df1 99be 87fb bebe
0.2817305 -0.023997275 0.65189004 -0.28187907 -0.17674801 -0.12190675 0.6286956 -0.18279235
0.6470511 -0.2557957 -0.10486695 -0.09594344 -0.6512224 -0.25990808 -0.11868825 -0.5759198
0.18615909 -0.31833795 -0.23149972 0.5954054 -0.36775658 0.07839665 -0.05157787 0.08052854
0.06467807 0.12326671 -0.30287683 0.4059938 -0.06735212 0.09441279 -0.04927646 -0.20101392
-0.57217216 -0.29168096 -0.14813054 -0.12856594 0.20571434 -0.5639528 0.059218194 0.09568469
0.31337655 0.09360525 -0.41687638 -0.18817362 0.889037 -0.0025885021 0.14519075 -0.7328028
0.085254505 -0.52926165 -0.22312449 -0.47093394 0.057978664 0.28894943 0.41996586 0.48997375
-0.2176183 0.40779468 0.6351182 0.10837212 -0.27355158 0.03297634 -0.3006691 -0.37301275
