trained_model_6_1_5_1.pth (torch, 65255 bytes, 16 tensors)

inp_embedding.weight f4 [115, 6]
-0.2025795 -0.66334885 -0.38156733 0.52768093 1.6608478 0.57834023 0.10238546 -0.33393505
-0.80368066 0.22651453 1.6834745 0.38761133 -0.0065165395 0.46636164 -0.96563905 -0.055926222
1.3039235 0.06390526 -0.07190624 -0.45800897 0.4286918 -0.36810997 1.5303496 -0.3469248
-0.37095496 0.61044174 -0.7890927 0.5545621 0.9606745 -0.40268865 -0.15765637 -0.051998068
0.50027305 -0.11392978 1.2945346 -0.73959565 -0.40206465 0.7469007 -0.72995305 -0.53956074
0.94492835 0.1836498 -0.32098514 -0.053098775 0.34687012 -0.69494337 1.3721294 -0.36807862
-0.6366975 -0.5644464 0.3488033 -0.5152301 0.81905276 0.2548157 -0.47936827 0.49545616
-0.94477034 -0.017295115 0.9527458 0.09658415 -0.64046264 0.08485624 -0.4162134 -0.8923714
0.7729444 0.64895445 -1.498039 -1.9905044 -1.7008772 -1.0590644 -1.4515692 2.851047
-1.4027156 0.75813437 -0.25609466 -0.57100123 0.47185296 0.10720133 -0.5305304 0.60490346
-0.6624851 -0.10125375 0.7746841 -0.6313428 -0.41603294 0.49964067 -0.50048995 1.9051362
-0.14757165 -0.42950347 -0.41551426 0.50030094 -0.49995604 1.9059234 -0.14704122 -0.42889607
-0.41608128 0.49960846 -0.5005361 1.9051154 -0.14761777 -0.4295459 -1.1241138 -0.64562875
-0.22736512 1.5660183 0.38139254 0.50388575 -1.119301 0.17731048 0.4735126 0.10792194
0.07161551 -0.34678936 -1.6132787 0.26813272 -0.4500024 0.39276633 0.15392144 0.07425099
0.3990156 1.4740256 0.37953028 -1.4268923 1.4509516 0.36443943 0.057532817 -1.0077755
0.35880548 -0.6222307 0.5899294 0.761312 -0.27064538 1.4538164 0.11885276 -1.850598
-0.2806438 -0.65305096 -0.43570927 0.46617615 0.7053766 -1.1527613 -0.6732997 1.7058783
-0.43570936 0.46617723 0.7053762 -1.152762 -0.6732994 1.7058786 -0.26948118 1.4582012
0.118885644 -1.8647331 -0.27768803 -0.65618414 -0.33949336 0.67204505 -0.65232325 -2.099747
0.42510515 0.7194185 0.42418882 0.40259138 -1.8971641 -2.1029856 -0.41384277 1.2557374
-0.6010714 -0.26184595 -0.14551838 -0.6792945 -0.20233253 1.569161 -0.22268584 0.5212691
-0.44192168 -1.415162 0.5816434 -0.4004743 -1.6021819 -0.69864166 -0.46481118 2.822641
-2.5100226 6.5398984 1.8369416 0.7430001 1.2927841 0.85551685 -0.9019305 1.2483314
-0.44562954 -0.37267306 0.12997633 -1.2061769 -0.011842284 1.6630691 0.60254115 2.958523
-0.8507192 -0.71119124 -0.006783619 -0.32886308 -0.43570936 0.46617705 0.7053763 -1.1527618
-0.6732994 1.7058784 -0.028658433 -0.8373295 -0.6087578 -0.8190178 -2.033187 -0.56357884
-0.592756 -0.85328066 1.1045488 -1.5505238 0.60928714 1.4768136 0.77798283 -1.6531444
0.5335607 -1.0107867 1.0976864 -0.14017074 -0.22706936 0.5124276 -0.44725087 -1.4376243
0.59840035 -0.40624645 0.13031305 0.28355575 0.82209605 -1.9434025 -0.44657508 -0.23367333
-0.16627516 0.6056511 -1.4715965 -1.2566282 0.26724696 -1.2264616 -0.547495 -0.092177525
-2.1308239 -0.16045044 0.79185456 -1.2047501 1.3706735 -0.82968354 0.115319856 -0.11847539
00000000: 0071 4fbe 3bd1 29bf cb5c c3be 1916 073f
00000010: a996 d43f 1b0e 143f 78af d13d 89f9 aabe
00000020: 04be 4dbf 6df3 673e 187c d73f fe74 c63e
00000030: b288 d5bb f4c6 ee3e 1f34 77bf e512 65bd
00000040: f7e6 a63f c3e0 823d 9443 93bd 2780 eabe
00000050: 7e7d db3e e978 bcbe 7fe2 c33f 21a0 b1be
00000060: cfed bdbe e945 1c3f fb01 4abf c8f7 0d3f
00000070: c4ee 753f 352d cebe ac70 21be edfb 54bd
00000080: e511 003f 0454 e9bd 4fb3 a53f 2456 3dbf
00000090: 6bdb cdbe e234 3f3f 34de 3abf a720 0abf
000000a0: d3e6 713f b10e 3c3e 2a58 a4be 1a7e 59bd
000000b0: f698 b13e cfe7 31bf f0a1 af3f cd74 bcbe
000000c0: 9bfe 22bf 8f7f 10bf 5996 b23e 1fe6 03bf
000000d0: 71ad 513f 3477 823e c26f f5be 6eac fd3e
000000e0: 78dc 71bf 7cae 8dbc 26e7 733f e9cd c53d
000000f0: 5cf5 23bf 1cc9 ad3d ec19 d5be 7472 64bf
00000100: afdf 453f e121 263f bebf bfbf d9c8 febf
00000110: 58b6 d9bf 6c8f 87bf 05cd b9bf 8e77 3640
00000120: 2f8c b3bf 1815 423f d71e 83be 232d 12bf
00000130: b696 f13e 5f8c db3d d7d0 07bf f4da 1a3f
00000140: a098 29bf 205e cfbd b251 463f af9f 21bf
00000150: 4502 d5be e7d0 ff3e 1c20 00bf 81db f33f
00000160: 061d 17be e1e7 dbbe 49be d4be b913 003f
00000170: 3dfa ffbe 4cf5 f33f f991 16be 4498 dbbe
00000180: 9b08 d5be aecc ff3e 2223 00bf d2da f33f
00000190: 1d29 17be 71ed dbbe f6e2 8fbf ed47 25bf
000001a0: 67d2 68be 4a73 c83f e245 c33e a8fe 003f
000001b0: 4145 8fbf e190 353e 3e70 f23e 2e06 dd3d
000001c0: 27ab 923d 608e b1be eb7f cebf b148 893e
000001d0: b766 e6be ab18 c93e 959d 1d3e e710 983d
000001e0: c64b cc3e dfac bc3f cb51 c23e 68a4 b6bf
000001f0: c8b8 b93f ce97 ba3e 88a7 6b3d cafe 80bf
00000200: 5ab5 b73e 834a 1fbf 9d05 173f 58e5 423f
00000210: 0892 8abe a816 ba3f 1369 f33d 65e0 ecbf
00000220: 8bb0 8fbe 592e 27bf 4915 dfbe a4ae ee3e
00000230: 9093 343f af8d 93bf 5e5d 2cbf 385a da3f
00000240: 4c15 dfbe c8ae ee3e 8993 343f b58d 93bf
00000250: 595d 2cbf 3b5a da3f 70f9 89be 56a6 ba3f
00000260: 517a f33d 93af eebf 202d 8ebe affb 27bf
00000270: 13d2 adbe 250b 2c3f a8fe 26bf 4162 06c0
00000280: 62a7 d93e d02b 383f 472f d93e 7520 ce3e
00000290: 46d6 f2bf 5197 06c0 33e3 d3be 01bc a03f
000002a0: d1df 19bf ac10 86be c502 15be 3fe6 2dbf
000002b0: 4230 4fbe 45da c83f c207 64be e471 053f
000002c0: 8f43 e2be 0724 b5bf 95e6 143f f80a cdbe
000002d0: 4c14 cdbf 2eda 32bf bbfb edbe 26a6 3440
000002e0: 36a4 20c0 d946 d140 e720 eb3f 4135 3e3f
000002f0: f379 a53f 2703 5b3f ebe4 66bf 53c9 9f3f
00000300: 8e29 e4be 01cf bebe 8418 053e 0164 9abf
00000310: 2406 42bc 73df d43f 2340 1a3f 7158 3d40
00000320: bcc8 59bf a110 36bf 1f49 debb be60 a8be
00000330: 4c15 dfbe c2ae ee3e 8b93 343f b38d 93bf
00000340: 595d 2cbf 395a da3f 17c5 eabc 3a5b 56bf
00000350: 8dd7 1bbf 27ab 51bf bc1f 02c0 b446 10bf
00000360: dbbe 17bf 9a70 5abf db61 8d3f 9077 c6bf
00000370: 3efa 1b3f 3a08 bd3f e229 473f 3c9a d3bf
00000380: 6f97 083f 7561 81bf fd80 8c3f eb88 0fbe
00000390: df84 68be 752e 033f 11fe e4be 1304 b8bf
000003a0: c430 193f 89ff cfbe c970 053e 382e 913e
000003b0: e374 523f 6ac1 f8bf 7da5 e4be 1048 6fbe
000003c0: 0944 2abe f30b 1b3f 465d bcbf 31d9 a0bf
000003d0: 98d4 883e b2fc 9cbf a228 0cbf 92c7 bcbd
000003e0: 6b5f 08c0 1f4d 24be fbb6 4a3f 4035 9abf
000003f0: 3b72 af3f 2466 54bf d12c ec3d 3aa3 f2bd

attention_block.layer_norm.weight f4 [6]
1.2706075 0.8374611 1.0860133 0.31305966 1.203447 0.91267896
00000000: 44a3 a23f da63 563f 7c02 8b3f 5b49 a03e
00000010: 8d0a 9a3f 54a5 693f

attention_block.layer_norm.bias f4 [6]
0.23149085 -0.19515578 0.2908158 0.21859069 0.27312317 0.14813285
00000000: f00b 6d3e ebd6 47be cfe5 943e 3dd6 5f3e
00000010: cdd6 8b3e 23b0 173e

attention_block.W_k.weight f4 [6, 6]
-1.3810966 -0.07754245 0.8951772 -0.2630341 0.64955246 0.21320516 -0.054984424 -0.050436456
-0.18774527 0.24836054 -1.9934142 -0.4028908 0.13929413 -0.40025657 -0.186265 0.4094223
0.88156706 -1.610705 -0.36229554 -0.66298044 -0.14331758 1.3458722 0.70735115 0.43401495
0.59566504 0.5975477 0.922002 -0.6073772 -0.22035018 -0.1317886 -0.8420543 0.32822704
-0.742601 -0.24266914 0.0059620044 0.07739529
00000000: c6c7 b0bf 93ce 9ebd 552a 653f 68ac 86be
00000010: 1249 263f 7452 5a3e 5937 61bd 7596 4ebd
00000020: 4c40 40be 3a52 7e3e 3228 ffbf b447 cebe
00000030: 1fa3 0e3e 6eee ccbe 41bc 3ebe cd9f d13e
00000040: 61ae 613f 952b cebf cd7e b9be 16b9 29bf
00000050: d8c1 12be 8a45 ac3f f714 353f 3537 de3e
00000060: 817d 183f e3f8 183f 5308 6c3f 127d 1bbf
00000070: 7aa3 61be 97f3 06be df90 57bf 600d a83e
00000080: 191b 3ebf 427e 78be eb5c c33b 6c81 9e3d

attention_block.W_q.weight f4 [6, 6]
0.2862606 0.16718823 -2.1088476 -0.28177726 -0.031116482 0.55919987 -0.5248308 0.76445913
0.7797674 -0.25953925 -0.8869759 0.6702881 0.025978247 -2.144936 -0.068311475 0.16454673
-0.648474 0.30978218 0.017459095 -0.4794239 -1.0603479 0.49225128 -0.805202 -0.66567403
-0.27727398 0.02871304 0.2731771 -0.47042912 1.3486557 0.7204302 0.53116447 0.66119176
0.23770964 -0.8933822 -0.8508963 -0.09877085
00000000: c090 923e 6433 2b3e 5cf7 06c0 1c45 90be
00000010: fee7 febc b927 0f3f 505b 06bf 98b3 433f
00000020: d69e 473f 54e2 84be da10 63bf 0098 2b3f
00000030: 55d0 d43c a246 09c0 e3e6 8bbd f07e 283e
00000040: 6402 26bf c59b 9e3e 6006 8f3c 0d77 f5be
00000050: 7bb9 87bf 5c08 fc3e b821 4ebf 9d69 2abf
00000060: dbf6 8dbe 9c37 eb3c dedd 8b3e 16dc f0be
00000070: c0a0 ac3f 1d6e 383f 65fa 073f dd43 293f
00000080: 286a 733e b2b4 64bf 57d4 59bf 5f48 cabd

attention_block.W_v.weight f4 [6, 6]
-2.2149227 -0.22771104 -0.22423027 0.6336254 0.47979176 -0.37237525 -1.69446 -0.57544464
0.09137165 -0.12730591 0.09845226 -1.4385351 -1.9254271 -0.3491665 -0.013251217 -0.58417827
-0.038095966 -0.10185585 -1.8146298 0.092392825 0.26145318 0.301168 -0.057617497 -1.3768259
2.2701585 -0.7964405 -0.16633783 0.10180289 0.20437406 -0.11028766 -0.53107244 -0.220052
-0.5313004 -0.0043470613 0.30053827 0.32960993
00000000: 4bc1 0dc0 152d 69be 9f9c 65be 4635 223f
00000010: 44a7 f53e f8a7 bebe 11e4 d8bf 5750 13bf
00000020: 0f21 bb3d 7b5c 02be 57a1 c93d eb21 b8bf
00000030: 6574 f6bf f4c5 b2be a21b 59bc b58c 15bf
00000040: 840a 1cbd cd99 d0bd ca45 e8bf 7338 bd3d
00000050: 31dd 853e b132 9a3e 5300 6cbd d53b b0bf
00000060: 474a 1140 86e3 4bbf 7754 2abe 097e d03d
00000070: 6f47 513e 7fde e1bd 5df4 07bf 5055 61be
00000080: 4e03 08bf cb71 8ebb 27e0 993e a2c2 a83e

attention_block.W_o.weight f4 [6, 6]
1.6445807 1.1559486 1.8535377 0.8456698 -1.5795768 0.33367917 -0.1811656 -0.10161183
-0.10100295 -0.034377813 0.11705884 -0.40030527 0.19352844 0.82410616 0.14504354 0.7358908
0.006061122 -0.2747339 -0.43452457 -1.1526793 -0.3814121 -0.6888412 -0.4043399 0.23388223
0.28970304 -0.85571 -0.7772887 -1.4237084 1.5802337 0.9255666 1.0089215 0.46056354
0.2278824 0.40117568 -0.3258751 0.258731
00000000: 9f81 d23f 20f6 933f b940 ed3f d17d 583f
00000010: 932f cabf ffd7 aa3e 7a83 39be dd19 d0bd
00000020: a2da cebd c0cf 0cbd 8cbc ef3d d0f4 ccbe
00000030: 522c 463e 9ff8 523f 4b86 143e 5763 3c3f
00000040: 609c c63b eca9 8cbe 017a debe ff8a 93bf
00000050: 7248 c3be e657 30bf a405 cfbe d37e 6f3e
00000060: f553 943e d00f 5bbf 64fc 46bf 143c b6bf
00000070: 1945 ca3f eff1 6c3f 5724 813f fcce eb3e
00000080: 015a 693e e666 cd3e 1ad9 a6be 6478 843e

attention_block.W_o.bias f4 [6]
-0.60925335 1.0887783 -0.48525822 0.8291663 0.6621818 0.93110967
00000000: 07f8 1bbf 165d 8b3f c473 f8be 3e44 543f
00000010: bf84 293f 345d 6e3f

feedforward_block.layer_norm.weight f4 [7]
1.7850136 1.9504509 2.1512268 3.2879725 0.009510588 2.2175112 2.2195961
00000000: 537b e43f 60a8 f93f b3ad 0940 246e 5240
00000010: 4cd2 1b3c b4eb 0d40 dd0d 0e40

feedforward_block.layer_norm.bias f4 [7]
1.2035779 -0.92823446 0.77530915 0.5340294 0.001352359 0.62837416 -0.26335704
00000000: d70e 9a3f c6a0 6dbf a97a 463f 27b6 083f
00000010: a341 b13a 21dd 203f bcd6 86be

feedforward_block.linear_layer_1.weight f4 [35, 7]
-0.035964094 0.22635756 0.28468606 -0.04965877 -0.06693138 -0.264232 -0.2770632 0.24780338
1.2946929 -0.20870715 -0.5794214 0.044495527 -1.1051434 -1.3131844 0.82725847 -0.06350748
1.3626728 -1.0549142 0.00875953 0.51662886 -2.6541548 -0.5790443 0.15316567 0.23493984
-0.7592061 -0.04538609 -0.2145474 -1.6712137 -0.16653606 0.08837912 -0.017815525 -0.0066316836
-0.21328878 -0.19113985 -0.09187767 0.61141443 0.021578891 0.038162053 -0.003954361 0.13540603
-1.3181822 -0.89922655 1.6891593 -2.0221114 2.1468391 -1.5014008 0.010533526 0.3500915
1.0017713 0.6039741 0.47525662 0.16231155 0.5716629 -0.26349974 -0.5781583 -1.335024
-0.5203374 0.27148682 0.15695208 0.011890198 0.042577114 -2.8253355 1.5874457 -0.049633037
-0.021948785 0.0141466 -0.0016667689 0.14795962 -0.09454293 0.012746345 -0.16645737 1.0287627
-0.6418185 -0.93376803 -0.019817634 -1.4670026 0.9165364 -0.6368083 0.2048096 -0.23834334
0.013138894 -0.0047590146 -0.058053944 0.6425908 -0.18165202 1.3115338 0.73354673 -0.11030478
0.1364172 -0.8389404 -3.4581273 0.8404988 -0.23976967 -0.38612893 -0.06871188 -0.12660448
0.53893685 -1.7619637 -0.24507575 -0.25376925 0.6871294 0.78964245 0.016158357 -0.4882945
-0.48130915 -0.18487082 -0.13456276 -0.29564995 0.618921 -0.06125575 -2.3041844 1.1749825
4.546037e-05 0.00301724 0.01699383 0.0034367468 0.016822005 -0.0039690654 0.0061041377 -0.087761275
0.07203538 0.08832502 -0.06376516 0.2804377 -0.20688628 0.07018901 0.0025295897 0.02721016
0.06615367 -0.013349234 0.11266121 -0.04673778 -0.007619632 -0.39858782 1.1001015 1.5357944
0.46414274 -0.0022635073 -2.3697498 -0.24584039 0.07252019 0.17127776 0.08829754 -0.146926
-0.44184387 -0.15544996 -0.47270384 0.008291974 0.012753789 0.046609454 -0.023223486 0.074815795
-0.054459516 -0.019971557 0.086264536 1.6164367 1.719982 0.04884776 0.02864909 -0.20250075
-2.3926284 0.6293347 -1.2165394 1.4562111 0.6522377 0.20336021 -0.4267055 -1.6037549
0.1970006 0.76741284 2.3742743 0.4021942 -0.019092886 0.71541464 -2.0077019 0.55086744
-0.106437966 -1.9079385 0.13417232 -0.015249194 0.065757215 -1.6815436 -0.25604454 1.071799
0.6276015 0.123110905 0.061407294 -0.43507197 -4.2192955 -0.39933392 0.3909506 -1.4323643
0.46531835 0.015487312 -0.47943652 1.1829839 -0.348179 -0.26675448 0.5942183 0.9246874
0.039571952 -0.6976074 -0.6339618 -0.472017 -0.75391203 0.3325889 0.72231233 -0.05656812
-0.40553075 -0.7035989 -0.4262277 0.9116248 -0.69025797 -0.9563507 -0.017849898 -2.0731535
1.1803671 0.019619612 -0.014889933 0.100364774 -0.032904893 0.052569296 -0.3841972 -0.059997153
-0.010003669 0.021853192 0.027991436 -0.008692486 0.01543046 0.0056211296 -0.025320303 -0.13200529
0.16638547 -0.9600495 0.26392746 0.0034744996 -1.509677 0.87594515 0.10934219 0.73064196
-1.0011818 -0.37155908 0.028381748 -1.1794138 1.1396911
00000000: 164f 13bd 47ca 673e 5fc2 913e ff66 4bbd
00000010: 5213 89bd 6b49 87be 3adb 8dbe 2bc0 7d3e
00000020: 7fb8 a53f 54b7 55be f654 14bf f140 363d
00000030: 5775 8dbf 6d16 a8bf 36c7 533f 3610 82bd
00000040: 106c ae3f 6e07 87bf 2284 0f3c ca41 043f
00000050: acdd 29c0 3f3c 14bf 76d7 1c3e 1294 703e
00000060: 555b 42bf c4e6 39bd 50b2 5bbe 55ea d5bf
00000070: 6e88 2abe 1d00 b53d ddf1 91bc 984e d9bb
00000080: 6068 5abe 2aba 43be 5c2a bcbd a885 1c3f
00000090: 37c6 b03c d04f 1c3d 9693 81bb e1a7 0a3e
000000a0: 32ba a8bf b633 66bf 5f36 d83f 466a 01c0
000000b0: d065 0940 e72d c0bf cf94 2c3c 313f b33e
000000c0: 0b3a 803f 0c9e 1a3f d654 f33e 0035 263e
000000d0: 8058 123f 70e9 86be 2f02 14bf 11e2 aabf
000000e0: d534 05bf 5200 8b3e 0cb8 203e 1bcf 423c
000000f0: 5765 2e3d 4cd2 34c0 6c31 cb3f 034c 4bbd
00000100: f0cd b3bc 24c7 673c 7c77 daba ba82 173e
00000110: b99f c1bd 0cd6 503c cd73 2abe 7fae 833f
00000120: 384e 24bf 6c0b 6fbf 9758 a2bc bec6 bbbf
00000130: 21a2 6a3f de05 23bf 9cb9 513e 4710 74be
00000140: 8444 573c 82f1 9bbb f9c9 6dbd d580 243f
00000150: fd02 3abe 57e0 a73f b8c9 3b3f 79e7 e1bd
00000160: f3b0 0b3e ccc4 56bf f551 5dc0 ee2a 573f
00000170: 2e86 75be b1b2 c5be d0b8 8cbd 9ba4 01be
00000180: c4f7 093f 0788 e1bf 23f5 7abe 0bee 81be
00000190: b6e7 2f3f 0226 4a3f 885e 843c bd01 fabe
000001a0: 276e f6be c74e 3dbe d2ca 09be 6e5f 97be
000001b0: 9b71 1e3f 4fe7 7abd c277 13c0 d465 963f
000001c0: b3ac 3e38 e3bc 453b a536 8b3c 0b3b 613b
000001d0: 4dce 893c ef0e 82bb 3805 c83b 2fbc b3bd
000001e0: 4987 933d c0e3 b43d 4f97 82bd 8895 8f3e
000001f0: ffd9 53be 41bf 8f3d 79c7 253b d7e7 de3c
00000200: 937b 873d bfb6 5abc ecba e63d 1d70 3fbd
00000210: 1bae f9bb b413 ccbe 20d0 8c3f e994 c43f
00000220: 1ea4 ed3e 5a57 14bb fba9 17c0 95bd 7bbe
00000230: 7785 943d 7063 2f3e 57d5 b43d c573 16be
00000240: 5c39 e2be 462e 1fbe 3d06 f2be 0fdb 073c
00000250: 45f5 503c 8ee9 3e3d 2e3f bebc 0639 993d
00000260: f110 5fbd 649b a3bc 76ab b03d 66e7 ce3f
00000270: 5f28 dc3f 9714 483d 7fb1 ea3c 5b5c 4fbe
00000280: d320 19c0 141c 213f 90b7 9bbf 2065 ba3f
00000290: 0df9 263f a93d 503e 2579 dabe d747 cdbf
000002a0: 86ba 493e 2b75 443f 1cf4 1740 66ec cd3e
000002b0: af68 9cbc 6a25 373f 307e 00c0 a605 0d3f
000002c0: 26fc d9bd 5437 f4bf 7864 093e c1d7 79bc
000002d0: b8ab 863d d23c d7bf 4518 83be b630 893f
000002e0: 7eaa 203f 9221 fc3d 3786 7b3d c1c1 debe
000002f0: 7804 87c0 7f75 ccbe ad2a c83e b757 b7bf
00000300: 353e ee3e 7fbe 7d3c b478 f5be 046c 973f
00000310: 8544 b2be 0b94 88be b11e 183f 50b8 6c3f
00000320: 3316 223d 6696 32bf 524b 22bf 36ac f1be
00000330: 6100 41bf 1849 aa3e 76e9 383f f9b3 67bd
00000340: baa1 cfbe 0f1f 34bf 843a dabe 3e60 693f
00000350: bfb4 30bf 66d3 74bf f339 92bc 8cae 04c0
00000360: 4516 973f 4fb9 a03c e8f4 73bc 0c8c cd3d
00000370: 48c7 06bd e752 573d 7fb5 c4be 93bf 75bd
00000380: 6ee6 23bc 7705 b33c 4c4e e53c ee6a 0ebc
00000390: 0ad0 7c3c 7431 b83b 866c cfbc 652c 07be
000003a0: f460 2a3e cec5 75bf 8021 873e 6eb4 633b
000003b0: 193d c1bf f13d 603f ccee df3d 5a0b 3b3f
000003c0: ba26 80bf fe3c bebe d780 e83c 08f7 96bf
000003d0: 66e1 913f

feedforward_block.linear_layer_1.bias f4 [35]
-0.63937324 -0.47220424 0.080930784 -0.9464171 -0.5778846 -0.38834348 0.21342163 -0.51844645
-0.61161697 -0.3355371 -0.95235485 -0.044402618 -0.47283354 0.82607836 -0.09074333 0.05068691
-0.0333272 -0.51592934 -0.14460358 -0.21063678 -0.98479265 -0.07836529 -0.9273972 -0.57215387
-0.40662795 -0.6788065 -0.53426886 0.27306348 -0.07796687 0.02294009 -0.9402026 -0.35837972
-0.08677587 0.3255921 -1.9984354
00000000: f7ad 23bf c1c4 f1be 0abf a53d 6448 72bf
00000010: 3ff0 13bf f5d4 c6be 338b 5a3e e8b8 04bf
00000020: ee92 1cbf 85cb abbe 87cd 73bf 85df 35bd
00000030: 3d17 f2be df79 533f a4d7 b9bd 149d 4f3d
00000040: 1a82 08bd f213 04bf f612 14be 2bb1 57be
00000050: 5f1b 7cbf fb7d a0bd e769 6dbf ad78 12bf
00000060: 8a31 d0be 43c6 2dbf d8c5 08bf face 8b3e
00000070: 18ad 9fbd dbec bb3c 1eb1 70bf 8c7d b7be
00000080: 8cb7 b1bd 02b4 a63e bbcc ffbf

feedforward_block.linear_layer_2.weight f4 [7, 35]
2.473385e-05 -5.023937e-05 -3.4932314e-06 1.1849624e-05 1.4349235e-05 8.197145e-08 -1.1297501e-05 8.13493e-05
-1.0720355e-05 -2.122513e-05 1.7787983e-05 1.1810608e-05 -2.8238323e-05 -2.5257976e-05 2.2705375e-05 2.34422e-06
-2.3902725e-05 5.282536e-07 -2.3168514e-05 -4.2701326e-05 1.6768798e-05 2.0725005e-05 2.3790528e-05 -9.87793e-06
-2.248755e-05 2.8648281e-05 6.0596663e-05 -3.0377261e-05 5.4143834e-06 3.0464242e-05 -1.6845901e-05 2.1164446e-05
-6.864672e-05 4.2054275e-05 -5.9853566e-05 -1.3913341e-05 -2.0236803e-05 -2.32244e-05 2.518671e-05 -1.7002778e-05
6.883797e-05 4.6571666e-05 -5.332989e-05 -3.814052e-06 -1.4889206e-05 -1.3361529e-05 -4.6875462e-05 5.911826e-05
3.147767e-05 -7.004588e-05 -2.1405212e-05 -1.18301205e-05 -9.099483e-06 -5.8842393e-06 -1.420915e-05 -3.3816425e-05
1.1559323e-05 1.049786e-05 -1.3375491e-05 1.6414515e-05 -2.2913955e-05 1.8837633e-05 -3.6776593e-05 6.946241e-06
-2.4655374e-06 1.2985294e-05 -6.074337e-06 2.8829154e-05 -4.22979e-06 -1.714477e-05 -6.607153e-06 2.9111481e-05
5.749468e-06 6.700788e-07 3.160751e-05 -7.0631622e-06 1.35702485e-05 1.1290309e-05 1.4461415e-05 -1.5981337e-05
9.087972e-06 6.5806103e-06 -1.3624714e-05 3.6121394e-06 -4.78228e-05 -1.539308e-05 -8.291092e-06 -9.050626e-06
3.164605e-05 -2.3023128e-07 2.2153743e-05 -3.2062904e-05 2.9219544e-05 1.0015821e-05 3.4430275e-05 1.6208067e-05
-3.4432873e-05 5.124986e-05 4.3179152e-05 -2.2571327e-05 -5.753754e-05 1.4063794e-05 -1.549433e-05 1.2353045e-05
-1.7983919e-05 -2.3217392e-05 -3.5548688e-05 1.2910724e-05 -4.05039e-05 -4.4617565e-05 8.060642e-06 -1.5471205e-05
-1.4653579e-06 -2.418906e-05 -4.6852662e-07 1.1503311e-05 3.230774e-05 -4.1149456e-06 2.0812859e-05 3.8428557e-06
3.934272e-05 5.406948e-06 -9.2303235e-05 -1.1569427e-05 3.1730648e-05 -1.1405949e-06 2.378329e-05 3.2390292e-06
5.2697446e-06 1.9340492e-05 -1.2115194e-05 -8.570497e-07 -2.3046847e-05 -4.65336e-05 2.3533816e-05 -3.058956e-06
4.4825014e-05 3.2078748e-05 -1.0825687e-06 -1.7637461e-05 -3.654087e-05 -5.7455322e-06 -1.4683673e-05 2.1409112e-05
-1.1009833e-05 2.7148388e-05 -6.217246e-06 -4.058922e-05 2.1856318e-05 5.108589e-05 1.8783901e-06 -6.240141e-05
1.8177301e-05 -3.354903e-05 1.8489103e-05 -2.4314926e-05 5.890724e-05 -8.238446e-06 1.9228642e-05 -5.8358648e-05
-2.2029577e-05 3.4251234e-06 2.8085124e-05 4.32235e-06 4.2421823e-05 -3.9563776e-05 -4.0843443e-05 -9.443601e-08
2.4458457e-05 -5.981233e-07 3.9923325e-05 -4.4357468e-05 -2.1704378e-05 -1.8656528e-05 5.8032503e-05 4.961132e-06
2.3875806e-05 1.7027354e-06 -1.6720202e-05 -1.814392e-05 -6.274161e-05 2.8187384e-05 1.5392861e-05 6.8907593e-06
2.5387795e-05 1.4275803e-05 -5.219974e-06 -2.3920815e-05 -8.6218615e-06 -1.7018327e-05 -1.3521357e-05 -3.5028585e-05
2.5564312e-05 2.4685833e-05 3.54854e-07 -3.243554e-05 8.1530125e-06 -7.511185e-06 1.0291232e-05 -5.619486e-06
2.651704e-05 -3.393272e-05 1.8769679e-05 -3.173483e-05 -1.5703763e-05 2.9168565e-05 2.0412564e-05 5.0234183e-05
5.0118913e-05 3.73083e-05 0.054829303 2.8934216 -2.0524433 0.35185665 -0.23257236 0.3419638
1.5867436 -0.5739174 -2.078025 0.001961692 -1.5961773 -0.23244552 -3.9909916 -0.948049
0.47820997 -0.9729714 -0.0006465344 0.007843341 0.0036519219 1.3143275 0.04811378 0.0011927934
-1.2144942 -1.6860132 1.812591 1.4835509 4.4309025 -0.72259474 0.67962813 0.49766082
-1.9061375 -0.09498173 -0.0061816 -0.5821032 -2.7155135
00000000: 8a7b cf37 1db8 52b8 426d 6ab6 bfcd 4637
00000010: 7fbd 7037 4808 b033 668a 3db7 139a aa38
00000020: 93db 33b7 9f0c b2b7 6737 9537 2d26 4637
00000030: 56e1 ecb7 17e1 d3b7 6c77 be37 6551 1d36
00000040: b682 c8b7 50cd 0d35 015a c2b7 331a 33b8
00000050: b8aa 8c37 9cda ad37 c591 c737 63b9 25b7
00000060: a5a3 bcb7 b751 f037 2c29 7e38 acd2 feb7
00000070: 33ad b536 768d ff37 4c50 8db7 4d8a b137
00000080: 6df6 8fb8 6f63 3038 470b 7bb8 586d 69b7
00000090: 34c2 a9b7 05d2 c2b7 0c48 d337 30a1 8eb7
000000a0: 1b5d 9038 f255 4338 89ae 5fb8 eaf4 7fb6
000000b0: a7cc 79b7 552b 60b7 259c 44b8 c0f5 7738
000000c0: e406 0438 98e5 92b8 588f b3b7 fb79 46b7
000000d0: fba9 18b7 3b71 c5b6 d663 6eb7 1cd6 0db8
000000e0: eaee 4137 f71f 3037 4c67 60b7 e7b1 8937
000000f0: 5837 c0b7 8205 9e37 9140 1ab8 c113 e936
00000100: 9c75 25b6 6adb 5937 28d2 cbb6 23d6 f137
00000110: 9fed 8db6 1dd2 8fb7 03b3 ddb6 6e34 f437
00000120: 8eeb c036 77df 3335 4e92 0438 1a00 edb6
00000130: c6ab 6337 826b 3d37 4e9f 7237 a90f 86b7
00000140: 8b78 1837 03cf dc36 b395 64b7 1568 7236
00000150: 5795 48b8 6320 81b7 f819 0bb7 25d8 17b7
00000160: b0bb 0438 7e35 77b4 cdd6 b937 487b 06b8
00000170: 7e1c f537 a009 2837 3a69 1038 8ff6 8737
00000180: 046c 10b8 1ef5 5638 431b 3538 8e57 bdb7
00000190: 7754 71b8 89f3 6b37 d2f9 81b7 ed3f 4f37
000001a0: 2cdc 96b7 f8c2 c2b7 1d1a 15b8 239b 5837
000001b0: bbe2 29b8 bf23 3bb8 323c 0737 29c8 81b7
000001c0: 50ad c4b5 9ce9 cab7 cf89 fbb4 58fe 4037
000001d0: 2c82 0738 1d13 8ab6 4697 ae37 e1f1 8036
000001e0: ed03 2538 546d b536 ec92 c1b8 501a 42b7
000001f0: 8616 0538 8b16 99b5 3a82 c737 195e 5936
00000200: c3d2 b036 643d a237 5d42 4bb7 0210 66b5
00000210: ba54 c1b7 132d 43b8 7c6a c537 7748 4db6
00000220: 7e02 3c38 4b8c 0638 c74c 91b5 29f4 93b7
00000230: 7643 19b8 bfc9 c0b6 e559 76b7 b897 b337
00000240: dfb6 38b7 b8bc e337 bd9d d0b6 583e 2ab8
00000250: 1658 b737 0f45 5638 fe1c fc35 80dd 82b8
00000260: 757b 9837 ffb6 0cb8 0c19 9b37 e8f7 cbb7
00000270: 2b13 7738 db37 0ab7 324d a137 1fc6 74b8
00000280: 28cc b8b7 2cdb 6536 5898 eb37 b408 9136
00000290: 16ee 3138 48f1 25b8 504f 2bb8 bfcc cab3
000002a0: 232c cd37 b88e 20b5 5873 2738 780c 3ab8
000002b0: cc11 b6b7 9780 9cb7 ed67 7338 cd77 a636
000002c0: e748 c837 8b89 e435 5c42 8cb7 c633 98b7
000002d0: 2594 83b8 f273 ec37 eb1f 8137 2c37 e736
000002e0: e0f7 d437 1b82 6f37 3c27 afb6 8fa9 c8b7
000002f0: 9da6 10b7 94c2 8eb7 c9d9 62b7 a8eb 12b8
00000300: f172 d637 6c14 cf37 c382 be34 650b 08b8
00000310: ecc8 0837 9608 fcb6 81a8 2c37 048f bcb6
00000320: e970 de37 fb52 0eb8 9473 9d37 041b 05b8
00000330: 93bb 83b7 04af f437 a63b ab37 8bb2 5238
00000340: c636 5238 7b7b 1c38 b194 603d d22d 3940
00000350: 3b5b 03c0 8e26 b43e 7327 6ebe e115 af3e
00000360: 6a1a cb3f 40ec 12bf 5dfe 04c0 bb8f 003b
00000370: 8a4f ccbf 3306 6ebe 686c 7fc0 57b3 72bf
00000380: f0d7 f43e a714 79bf 307c 29ba 5b81 003c
00000390: 1555 6f3b e23b a83f f412 453d 8157 9c3a
000003a0: 8c74 9bbf 48cf d7bf fb02 e83f ffe4 bd3f
000003b0: f4c9 8d40 f8fb 38bf 1cfc 2d3f 66cd fe3e
000003c0: 50fc f3bf c885 c2bd 058f cabb b704 15bf
000003d0: f9ca 2dc0

feedforward_block.linear_layer_2.bias f4 [7]
0.0 0.0 0.0 0.0 0.0 0.0 1.0605737
00000000: 0000 0000 0000 0000 0000 0000 0000 0000
00000010: 0000 0000 0000 0000 e1c0 873f

linear_layer_1.weight f4 [115, 115]
-0.010448002 0.024032772 -0.0097494405 0.025980307 0.02267411 0.012750745 0.017829405 0.012205871
0.0065409923 0.025891358 -0.012837131 0.063903 -0.016197313 0.0047931117 0.0062633012 0.02794617
0.009003512 -0.034908503 -0.024261342 0.013747712 0.012687199 0.0028586152 -0.026657678 0.016170444
0.02229705 -0.011324179 0.020387225 0.01726845 0.013873834 -0.035031278 0.062839225 0.010159383
0.030929165 0.0063467515 0.04019221 -0.011591409 -0.022051252 -0.0050540166 0.033135574 0.024509268
-0.0082504125 0.01015338 -0.011437439 -0.039817076 -0.013634973 -0.007832685 -0.011667329 -0.020335
0.03726601 0.0031611705 0.020507459 -0.015369281 0.026985103 -0.0073469304 -0.011778364 -0.03146887
-0.020244347 0.017452745 -0.000100473546 -0.023061449 0.0028927831 -0.002580375 -0.022975642 0.015984176
0.014528879 -0.012604032 -0.015128919 -0.030596009 0.016122637 0.0071378653 0.024676774 -0.004041781
-0.01633696 0.00903745 0.0110610435 0.004449939 0.012331219 0.015144 -0.008773089 0.0022816637
-0.0049913493 -0.018356243 0.006736459 0.022759967 0.045799885 -0.013060256 -0.007956426 -0.029775675
0.0028909626 0.0009912195 -0.0017170405 -0.02319078 -0.029045125 -0.00020530516 0.010033397 -0.014151028
0.026014308 0.013157072 0.0024273472 -0.024474625 0.0049732747 0.010177197 -0.028491834 -0.0095193535
-0.0045556254 -0.013444097 0.01805049 -0.02494119 -0.027686391 0.0161281 -0.02093381 0.018288495
-0.0067690588 -0.022335388 0.011820378 -0.018633697 0.0014841293 -0.009014606 0.018866438 -0.015105671
0.010036123 0.037978753 -0.018956756 -0.011372257 -0.010308723 -0.01181184 -0.044089932 0.022866268
-0.0028336307 -0.03058869 0.011285795 0.021642746 -0.002431309 -0.006722587 0.0020784335 0.005975615
-0.017214717 0.0011153733 0.01099058 0.025107993 0.013297028 0.0026905432 0.027425963 -0.012589077
0.0023753613 0.016353512 -0.0018513108 -0.018009216 -0.013244571 0.0063082483 0.015770417 0.042787064
-0.00011777257 0.026968708 0.0058392296 0.019589584 0.031530857 -0.0072552124 0.006066141 -0.0029588703
0.0032697353 0.018347364 -0.033607602 -0.04754212 0.02146435 -0.04278834 -0.03620798 -0.009521584
-0.0032373117 0.009558852 0.026825624 -0.029063508 -0.004505382 -0.012313962 0.0026166067 -0.029825201
0.0075047063 0.028748032 -0.00058088487 -0.048550643 0.026931174 0.039381795 0.032352284 0.0065237265
-0.026215054 -0.025593715 0.015224382 0.013839357 0.027179662 0.023572437 -0.023155103 -0.0036833598
-0.01607438 -0.00919933 -0.005942895 0.002616521 0.033586886 0.028110607 0.017697766 -0.007170596
-0.014269699 -0.013236206 0.013816003 -0.043407336 0.0033074857 -0.0057833414 0.018193128 0.04683382
0.037468243 0.029487187 -0.0041333013 0.029162645 -0.022597352 -0.00466587 0.016238557 0.02762197
-0.012405972 0.028732305 0.027746307 0.035652194 0.039720435 -0.013082088 -0.0069034975 0.00082692696
0.021034602 0.013740528 -0.024121502 0.007299741 -0.013846266 -0.0033354037 -0.03711674 -0.00085794897
0.008516521 -0.02401389 -0.010142797 0.025568606 0.04010735 0.018962765 -0.014102278 0.0118473
0.02489228 0.015265471 0.018223798 0.0137901455 -0.012933133 0.033479474 0.0021378102 -0.017643042
-0.012952593 -0.017462438 -0.020355064 -0.012025963 -0.037094608 -0.04030231 -0.038556524 0.039571587
00000000: 192e 2bbc 60e0 c43c 1ebc 1fbc a7d4 d43c
00000010: 0ebf b93c 80e8 503c f90e 923c 22fb 473c
00000020: d255 d63b 1d1a d43c d452 52bc 93df 823d
00000030: 3ab0 84bc 890f 9d3b 613c cd3b 5eef e43c
00000040: 7783 133c 38fc 0ebd b9bf c6bc 153e 613c
00000050: f8dd 4f3c 9b57 3b3b 3461 dabc e177 843c
00000060: 4ea8 b63c 0d89 39bc 1c03 a73c 9176 8d3c
00000070: 144f 633c f57c 0fbd dab1 803d 8a73 263c
00000080: 295f fd3c 69f8 cf3b 96a0 243d e5e9 3dbc
00000090: d4a4 b4bc 2a9c a5bb 2bb9 073d a9c7 c83c
000000a0: bd2c 07bc 5d5a 263c 1964 3bbc 3b17 23bd
000000b0: 3965 5fbc a954 00bc 5328 3fbc 9695 a6bc
000000c0: 3ea4 183d a42b 4f3b 42ff a73c 70cf 7bbc
000000d0: dd0f dd3c 85be f0bb 0afa 40bc 80e5 00bd
000000e0: 79d7 a5bc 0ff9 8e3c 53b5 d2b8 5deb bcbc
000000f0: d994 3d3b 821b 29bb 6a37 bcbc 3ff1 823c
00000100: 890a 6e3c 2481 4ebc 49df 77bc 7ba4 fabc
00000110: 9f13 843c c1e4 e93b f226 ca3c eb70 84bb
00000120: 17d5 85bc d011 143c 6139 353c cbd0 913b
00000130: e208 4a3c 8a1e 783c 01bd 0fbc f787 153b
00000140: 798e a3bb d55f 96bc 84bd dc3b 1c73 ba3c
00000150: a998 3b3d affa 55bc ab5b 02bc 1eec f3bc
00000160: 4e76 3d3b cfeb 813a 520e e1ba 97fa bdbc
00000170: 0bf0 edbc 2f47 57b9 1e63 243c b7d9 67bc
00000180: f51b d53c c290 573c 2114 1f3b 027f c8bc
00000190: daf6 a23b 42be 263c b567 e9bc 10f7 1bbc
000001a0: 5b47 95bb a144 5cbc 9fde 933c 7751 ccbc
000001b0: 92ce e2bc 141f 843c 627d abbc c1d1 953c
000001c0: fbce ddbb b4f8 b6bc 42aa 413c b2a5 98bc
000001d0: 1e87 c23a ffb1 13bc ca8d 9a3c c77d 77bc
000001e0: 8d6e 243c 9c8f 1b3d 334b 9bbc b452 3abc
000001f0: ebe5 28bc 7386 41bc a597 34bd 0a52 bb3c
00000200: 6fb4 39bb 2295 fabc 0ee8 383c 214c b13c
00000210: 9956 1fbb 2649 dcbb 5436 083b 17cf c33b
00000220: e105 8dbc b831 923a d511 343c 47af cd3c
00000230: c7db 593c d353 303b 6aac e03c 6b42 4ebc
00000240: f3ab 1b3b cdf7 853c afa7 f2ba 1088 93bc
00000250: c2ff 58bc 6cb5 ce3b f630 813c 7d41 2f3d
00000260: abfc f6b8 7bed dc3c 0257 bf3b 567a a03c
00000270: 8026 013d 22bd edbb 7bc6 c63b 9be9 41bb
00000280: 0e49 563b 364d 963c 20a8 09bd 87bb 42bd
00000290: 01d6 af3c d442 2fbd d24e 14bd 6b00 1cbc
000002a0: 1429 54bb bb9c 1c3c 69c1 db3c 9816 eebc
000002b0: e2a1 93bb 80c0 49bc 607b 2b3b fb53 f4bc
000002c0: 0aea f53b fe80 eb3c 8646 18ba 0add 46bd
000002d0: c49e dc3c ce4e 213d d483 043d fcc4 d53b
000002e0: f4c0 d6bc e9a9 d1bc b06f 793c 78be 623c
000002f0: e2a7 de3c fc1a c13c c5af bdbc 8664 71bb
00000300: 6bae 83bc c9b8 16bc 9ebc c2bb f079 2b3b
00000310: 6792 093d 3748 e63c e8fa 903c 52f7 eabb
00000320: 75cb 69bc acdc 58bc 845c 623c e4cb 31bd
00000330: 67c2 583b 2f82 bdbb c109 953c d2d4 3f3d
00000340: 4d78 193d 1d8f f13c a570 87bb 80e6 ee3c
00000350: 151e b9bc 28e4 98bb b906 853c 7847 e23c
00000360: 6b42 4bbc 0360 eb3c 394c e33c 0908 123d
00000370: e5b1 223d 4156 56bc bc36 e2bb 21c6 583a
00000380: c250 ac3c f41f 613c 759a c5bc aa32 ef3b
00000390: 73db 62bc ca96 5abb b907 18bd fbe7 60ba
000003a0: e188 0b3c c7b8 c4bc f92d 26bc 4175 d13c
000003b0: 9b47 243d cd57 9b3c 3e0d 67bc 2e1b 423c
000003c0: e5ea cb3c 071c 7a3c 134a 953c 10f0 613c
000003d0: 7ee5 53bc c621 093d 811a 0c3b 2488 90bc
000003e0: 1d37 54bc 630d 8fbc aabf a6bc 8b08 45bc
000003f0: 84f0 17bd 0914 25bd 72ed 1dbd d115 223d

linear_layer_1.bias f4 [115]
0.0 0.0 0.0 0.0 0.0 0.0 0.0 0.0
0.0 0.0 0.0 0.0 0.0 0.0 0.0 0.0
0.0 0.0 0.0 0.0 0.0 0.0 0.0 0.0
0.0 0.0 0.0 0.0 0.0 0.0 0.0 0.0
0.0 0.0 0.0 0.0 0.0 0.0 0.0 0.0
0.0 0.0 0.0 0.0 0.0 0.0 0.0 0.0
0.0 0.0 0.0 0.0 0.0 0.0 0.0 0.0
0.0 0.0 0.0 0.0 0.0 0.0 0.0 0.0
0.0 0.0 0.0 0.0 0.0 0.0 0.0 0.0
0.0 0.0 0.0 0.0 0.0 0.0 0.0 0.0
0.0 0.0 0.0 0.0 0.0 0.0 0.0 0.0
0.0 0.0 0.0 0.0 0.0 0.0 0.0 0.0
0.0 0.0 0.0 0.0 0.0 0.0 0.0 0.0
0.0 0.0 0.0 0.0 0.0 0.0 0.0 0.0
0.0 0.0 0.0
00000000: 0000 0000 0000 0000 0000 0000 0000 0000
00000010: 0000 0000 0000 0000 0000 0000 0000 0000
00000020: 0000 0000 0000 0000 0000 0000 0000 0000
00000030: 0000 0000 0000 0000 0000 0000 0000 0000
00000040: 0000 0000 0000 0000 0000 0000 0000 0000
00000050: 0000 0000 0000 0000 0000 0000 0000 0000
00000060: 0000 0000 0000 0000 0000 0000 0000 0000
00000070: 0000 0000 0000 0000 0000 0000 0000 0000
00000080: 0000 0000 0000 0000 0000 0000 0000 0000
00000090: 0000 0000 0000 0000 0000 0000 0000 0000
000000a0: 0000 0000 0000 0000 0000 0000 0000 0000
000000b0: 0000 0000 0000 0000 0000 0000 0000 0000
000000c0: 0000 0000 0000 0000 0000 0000 0000 0000
000000d0: 0000 0000 0000 0000 0000 0000 0000 0000
000000e0: 0000 0000 0000 0000 0000 0000 0000 0000
000000f0: 0000 0000 0000 0000 0000 0000 0000 0000
00000100: 0000 0000 0000 0000 0000 0000 0000 0000
00000110: 0000 0000 0000 0000 0000 0000 0000 0000
00000120: 0000 0000 0000 0000 0000 0000 0000 0000
00000130: 0000 0000 0000 0000 0000 0000 0000 0000
00000140: 0000 0000 0000 0000 0000 0000 0000 0000
00000150: 0000 0000 0000 0000 0000 0000 0000 0000
00000160: 0000 0000 0000 0000 0000 0000 0000 0000
00000170: 0000 0000 0000 0000 0000 0000 0000 0000
00000180: 0000 0000 0000 0000 0000 0000 0000 0000
00000190: 0000 0000 0000 0000 0000 0000 0000 0000
000001a0: 0000 0000 0000 0000 0000 0000 0000 0000
000001b0: 0000 0000 0000 0000 0000 0000 0000 0000
000001c0: 0000 0000 0000 0000 0000 0000
