trained_model_20_4_8_3.pth (torch, 207321 bytes, 93 tensors)

inp_embedding.weight f4 [115, 20]
-0.113718115 0.18901832 0.011642672 0.23117544 -0.22512263 -0.0910481 0.40142876 -0.011269077
-0.3588307 -0.046046734 -0.2203132 -0.24867964 -0.15725635 0.11313737 -0.29192406 0.1698378
-0.25386906 0.18242861 -0.5913612 -0.06836466 0.02311965 -0.18361259 -0.16146325 -0.46201798
0.019051444 0.12718207 0.16125287 0.07049641 -0.113773614 0.07544454 0.32922995 -0.3104519
-0.14092539 0.27734154 -0.16933072 -0.0028035147 0.7024887 -0.010351459 0.22153428 -0.17541492
-0.065186426 -0.21898149 0.26454085 -0.28367424 0.20711203 -0.43083233 -0.08541709 -0.0824808
0.10461259 -0.031267587 0.35193118 0.23341455 0.11125497 0.02136069 -0.35331276 0.19681507
0.1528568 0.07479209 0.29957366 -0.49267304 -0.26614293 0.13631986 -0.043603517 0.26405552
0.41628322 -0.0008692161 0.0070067006 0.082137816 0.04723608 0.15049288 -0.31110483 -0.48206633
0.23679894 -0.14275923 -0.57131076 -0.351707 0.310104 -0.17643009 -0.27685833 0.18426798
0.1896124 -0.40983427 0.38471454 0.53375643 0.0741643 -0.40966323 0.16383979 0.018195108
-0.017307205 -0.22964916 0.11685782 -0.089460015 -0.30138147 -0.056574855 0.27392337 -0.10804062
0.09662185 0.2183246 0.08166391 0.10395223 0.543585 0.011141362 -0.18571849 -0.082164854
-0.09124646 -0.2276229 0.2684152 0.09509321 0.038613528 0.15364966 -0.17668366 -0.3968676
0.0051384014 0.008040809 0.059213765 0.2861374 -0.03950223 -0.1457528 -0.08311455 -0.07205784
-0.018282441 -0.2686635 -0.080571935 0.15814196 0.12056036 0.39620546 0.4567714 -0.35503578
-0.25726792 -0.3412789 0.035847515 -0.36959088 -0.20761846 0.4615491 0.20431799 -0.09767608
0.22562906 0.1339073 -0.0063007236 -0.007971904 0.20741047 0.2759291 -0.11183901 -0.055924457
0.031262554 -0.08477602 0.26565826 0.08759997 0.14581336 -0.128663 0.026002131 -0.053119645
-0.057869602 -0.4555146 -0.060469076 -0.08837255 0.13558623 0.29142588 -0.2657966 0.31545824
-0.17906854 0.23817371 0.4602149 0.046438523 0.07754211 0.3524459 -0.040342048 0.017825864
-0.51265043 -0.1010236 -0.042309295 0.4515669 0.24644575 0.25832665 -0.18284138 0.36811876
-0.11576195 -0.17467219 -0.082605235 -0.0067472765 0.04643153 -0.06048227 -0.06316857 -0.018091153
-0.05312741 -0.60608953 0.11943216 0.26567897 -0.008845668 -0.3907784 -0.19370393 -0.11494699
-0.03329828 0.12956128 0.2434347 0.018781897 0.3265405 -0.13867125 0.23539533 -0.06404311
0.17566304 0.0028713883 -0.23041259 -0.13305767 0.37980098 0.07304962 0.1439538 -0.24268016
-0.13807064 -0.1677854 -0.04815079 0.14822121 0.07216779 -0.34131417 0.72726434 -0.12883292
-0.02448757 0.17501852 0.0572616 -0.043680336 -0.43309736 -0.61033326 0.16087554 0.046210434
0.31477803 0.50543123 -0.3480143 0.3119226 -0.11984773 0.47889358 0.4109615 -0.1139232
-0.28635135 0.5997488 0.15495323 -0.07645895 0.0125600975 -0.15254195 -0.33827364 -0.40499017
-0.29611945 -0.18803807 -0.025269188 -0.48248595 -0.056779824 0.21368742 -0.10056779 -0.025734344
0.0034886189 0.123193555 -0.33266193 0.17033793 -0.18134744 0.19378068 0.2689743 -0.31185457
00000000: 0be5 e8bd 058e 413e e8c0 3e3c 41b9 6c3e
00000010: 8c86 66be 6d77 babd 1288 cd3e efa1 38bc
00000020: a8b8 b7be 809b 3cbd c999 61be e0a5 7ebe
00000030: cf07 21be 91b4 e73d 1277 95be f6e9 2d3e
00000040: 20fb 81be 91ce 3a3e 7363 17bf c502 8cbd
00000050: 6c65 bd3c f004 3cbe 9f56 25be 9f8d ecbe
00000060: c611 9c3c 043c 023e 791f 253e 6c60 903d
00000070: 2402 e9bd ab82 9a3d d490 a83e 8df3 9ebe
00000080: bf4e 10be b6ff 8d3e 0865 2dbe 2cbb 37bb
00000090: 4dd6 333f 2a99 29bc e2d9 623e f89f 33be
000000a0: 7680 85bd af3c 60be e671 873e c03d 91be
000000b0: 2d15 543e 0e96 dcbe 28ef aebd b2eb a8bd
000000c0: 203f d63d 7112 00bd 5330 b43e 3904 6f3e
000000d0: a5d9 e33d 9dfc ae3c 69e5 b4be e489 493e
000000e0: 7e86 1c3e 982c 993d b861 993e a43f fcbe
000000f0: e343 88be 6f97 0b3e 9a99 32bd 4932 873e
00000100: 1323 d53e 1bdc 63ba 7798 e53b df37 a83d
00000110: 9f7a 413d ce1a 1a3e 2249 9fbe 66d1 f6be
00000120: 6c7b 723e 7a2f 12be 6c41 12bf f112 b4be
00000130: f4c5 9e3e 17aa 34be 60c0 8dbe bfb0 3c3e
00000140: c129 423e ccd5 d1be 4ef9 c43e 43a4 083f
00000150: 74e3 973d 61bf d1be 9ec5 273e e80d 953c
00000160: d7c7 8dbc 2629 6bbe 2753 ef3d d036 b7bd
00000170: ac4e 9abe 09bb 67bd af3f 8c3e 6744 ddbd
00000180: ade1 c53d 7c90 5f3e 683f a73d e8e4 d43d
00000190: 6328 0b3f 428a 363c fd2c 3ebe 0c46 a8bd
000001a0: 6ddf babd fa15 69be b86d 893e 3bc0 c23d
000001b0: 3829 1e3d 5656 1d3e 90ec 34be 3b32 cbbe
000001c0: 0960 a83b 99bd 033c 228a 723d 9a80 923e
000001d0: 17cd 21bd 3940 15be f637 aabd 1093 93bd
000001e0: 0fc5 95bc 438e 89be e602 a5bd f7ef 213e
000001f0: 5ae8 f63d 71db ca3e f1dd e93e 40c7 b5be
00000200: 9fb8 83be 1cbc aebe d8d4 123d 043b bdbe
00000210: ef99 54be 2a50 ec3e bc38 513e 660a c8bd
00000220: 4e0b 673e ff1e 093e 4d76 cebb 979c 02bc
00000230: 6963 543e 9446 8d3e da0b e5bd 0b11 65bd
00000240: 2a0d 003d 0d9f adbd 5c04 883e 9d67 b33d
00000250: 1950 153e 3cc0 03be 6c02 d53c fc93 59bd
00000260: ad08 6dbd 3639 e9be 6cae 77bd abfc b4bd
00000270: 1ed7 0a3e c635 953e 7e16 88be be83 a13e
00000280: be5d 37be cfe3 733e 4aa1 eb3e 5236 3e3d
00000290: 66ce 9e3d ca73 b43e b43d 25bd 8c07 923c
000002a0: 0f3d 03bf 76e5 cebd 834c 2dbd c733 e73e
000002b0: 465c 7c3e 6443 843e c53a 3bbe 107a bc3e
000002c0: 9a14 edbd 44dd 32be ef2c a9bd 4218 ddbb
000002d0: fd2e 3e3d 42bc 77bd 865e 81bd e633 94bc
000002e0: 219c 59bd af28 1bbf d998 f43d 1307 883e
000002f0: 6ced 10bc 1b14 c8be 535a 46be 5469 ebbd
00000300: c763 08bd b6ab 043e f246 793e 7edc 993c
00000310: 5130 a73e d6ff 0dbe 790b 713e 0929 83bd
00000320: 03e1 333e e72d 3c3b 47f1 6bbe 4540 08be
00000330: 4675 c23e 0a9b 953d a068 133e 2681 78be
00000340: 6462 0dbe f0cf 2bbe c339 45bd 4dc7 173e
00000350: b5cc 933d bbc0 aebe ff2d 3a3f c7ec 03be
00000360: 289a c8bc 0e38 333e 248b 6a3d 27ea 32bd
00000370: f0be ddbe cd3e 1cbf 8fbc 243e 2747 3d3d
00000380: 962a a13e f163 013f ee2e b2be 52b4 9f3e
00000390: ba72 f5bd 8a31 f53e 8c69 d23e 9150 e9bd
000003a0: a59c 92be 2389 193f 0fac 1e3e 8396 9cbd
000003b0: dec8 4d3c f533 1cbe 3432 adbe df5a cfbe
000003c0: f89c 97be 0d8d 40be 5401 cfbc 6608 f7be
000003d0: f691 68bd e0d0 5a3e 7cf6 cdbd d5d0 d2bc
000003e0: 50a1 643b e74c fc3d aa52 aabe 116d 2e3e
000003f0: 25b3 39be 716e 463e 00b7 893e 67ab 9fbe

attention_blocks.0.attention_blocks.0.layer_norm.weight f4 [20]
1.020386 0.9949779 0.87788874 0.90325445 0.84422165 0.8830969 1.0129089 0.97267723
0.81495285 0.84631866 0.9563339 0.84900296 0.9923975 0.9577268 0.80506694 0.9988546
0.75932515 0.9304558 0.903223 0.95789415
00000000: 029c 823f dfb6 7e3f 51bd 603f af3b 673f
00000010: e91e 583f a312 623f 00a7 813f 6001 793f
00000020: c0a0 503f 57a8 583f 4cd2 743f 4258 593f
00000030: c30d 7e3f 952d 753f de18 4e3f efb4 7f3f
00000040: 2263 423f 5a32 6e3f 9f39 673f 8d38 753f

attention_blocks.0.attention_blocks.0.layer_norm.bias f4 [20]
0.049617358 -0.026174683 0.015911633 0.0038590538 -0.0099867815 -0.014406268 -0.0026927984 -0.035235904
0.04611179 0.01839269 0.026469126 0.03143647 0.017356686 0.023446005 0.0114133125 0.006832806
-0.03810612 0.019552154 -0.053063456 -0.04376127
00000000: 923b 4b3d 4a6c d6bc 1d59 823c 2ee8 7c3b
00000010: 999f 23bc 4408 6cbc a979 30bb 8653 10bd
00000020: b7df 3c3d 44ac 963c c8d5 d83c 87c3 003d
00000030: 9c2f 8e3c d611 c03c e7fe 3a3c bbe5 df3b
00000040: 2a15 1cbd d72b a03c 1159 59bd 043f 33bd

attention_blocks.0.attention_blocks.0.W_k.weight f4 [5, 20]
-0.4909707 0.32131207 -0.12523413 -0.074313864 0.07906413 -0.27668408 -0.013425203 0.5245907
-0.28709424 -0.2579334 -0.71334535 -0.15456946 -0.3108154 -0.2647882 0.046968624 -0.19452083
0.39628685 -0.16315687 0.34512427 0.4845109 -0.5849247 0.2615579 -0.20874211 -0.025624206
0.36628208 -0.07277297 0.62609947 0.03422167 -0.036801584 -0.07007476 -0.15393668 0.17580326
0.023955705 0.059304822 -0.12565815 0.16973221 0.065083764 0.4343289 -0.14039065 -0.4196228
-0.32058954 0.41472596 0.20411865 0.016081644 -0.37004155 -0.20462462 0.23745725 -0.05961447
0.20257476 0.056894433 0.15918744 -0.05924915 0.12546743 0.03139038 -0.1122922 0.1717521
-0.094249204 -0.04265139 -0.12938741 0.27836642 -0.2872339 -0.05491322 -0.0023590375 -0.027630763
-0.049235128 0.14616902 -0.30830178 0.049003966 -0.023361115 0.0512805 -0.035499632 -0.476202
0.1226353 -0.0829973 0.13277844 0.63833934 -0.13353093 -0.02236929 0.3436861 0.2288217
-0.2558382 -0.406217 0.37663957 -0.62224895 0.06760701 -0.13349877 -0.03043502 -0.29472643
0.040298365 0.2911174 -0.37660196 0.40593556 -0.13162437 -0.15650494 0.34644344 0.29825297
-0.10493978 0.63153464 0.027865428 0.1391263
00000000: 8360 fbbe 0483 a43e 603d 00be de31 98bd
00000010: 60ec a13d 89a9 8dbe 62f5 5bbc 934b 063f
00000020: 04fe 92be d90f 84be cd9d 36bf 7547 1ebe
00000030: 3223 9fbe 5292 87be 2c62 403d 7830 47be
00000040: 1ce6 ca3e 9812 27be 21b4 b03e d011 f83e
00000050: a0bd 15bf ebea 853e 7ec0 55be dbe9 d1bc
00000060: 5389 bb3e ff09 95bd 0e48 203f 062c 0c3d
00000070: 42bd 16bd 5b83 8fbd 94a1 1dbe c505 343e
00000080: c13e c43c 9de9 723d 88ac 00be 48ce 2d3e
00000090: a34a 853d 5c60 de3e 91c2 0fbe cdd8 d6be
000000a0: 5024 a4be f656 d43e 7b04 513e a7bd 833c
000000b0: 1676 bdbe 1e89 51be fe27 733e 4d2e 74bd
000000c0: c26f 4f3e 230a 693d 0802 233e 3daf 72bd
000000d0: 897a 003e 3393 003d 74f9 e5bd c8df 2f3e
000000e0: ba05 c1bd 39b3 2ebd 227e 04be 0b86 8e3e
000000f0: 5210 93be afec 60bd 159a 1abb e959 e2bc
00000100: c6aa 49bd 55ad 153e bbd9 9dbe 62b8 483d
00000110: cf5f bfbc 800b 523d 1068 11bd c0d0 f3be
00000120: 3728 fb3d 7dfa a9bd 12f7 073e 356a 233f
00000130: 55bc 08be cd3f b7bc a0f7 af3e 3c50 6a3e
00000140: 39fd 82be adfb cfbe e7d6 c03e b54b 1fbf
00000150: 8b75 8a3d e7b3 08be dd52 f9bc 62e6 96be
00000160: e60f 253d 570d 953e f9d1 c0be c9d6 cf3e
00000170: 8ac8 06be d542 20be 0961 b13e 9db4 983e
00000180: abea d6bd 41ac 213f 0a46 e43c 2077 0e3e

attention_blocks.0.attention_blocks.0.W_q.weight f4 [5, 20]
0.48834017 -0.45539498 -0.20369484 -0.31092626 -0.45481047 0.16690476 -0.18747574 0.3553853
0.007987573 -0.070957944 0.37376168 0.17555225 -0.09268494 -0.38402596 0.19379944 0.013227882
0.20800935 0.086660385 0.5257006 0.19321693 0.32501444 -0.034745768 -0.19597967 -0.08780844
-0.29007432 -0.7024893 0.013864895 -0.068681054 0.3021849 -0.29968375 -0.007406828 0.071516246
-0.10198118 0.57968533 0.4510917 0.16965957 -0.16193175 0.23953396 -0.33753136 -0.47605875
-0.5865792 0.06651993 -0.03355991 -0.25306678 -0.12482556 0.2703374 -0.26576784 0.32659855
-0.2992682 -0.31111392 0.060013454 -0.026223669 0.07904398 0.37060386 0.32779387 0.45129544
0.15135534 -0.27934638 0.14171843 -0.11403804 -0.21048063 -0.29684845 -0.013827865 -0.20389539
-0.10880648 0.32196873 -0.29487848 0.12186272 0.2959391 0.03967886 -0.1974909 -0.018929206
0.18880723 0.058111425 -0.12786075 -0.31470823 0.26035652 -0.06479458 0.27772805 0.09933927
0.3861395 0.10786749 -0.076979734 0.71314025 0.011713663 0.020978661 -0.5478927 0.0009308825
0.28341386 -0.4351415 -0.46683457 -0.09142545 0.33920878 0.04513574 -0.16919897 -0.048186325
-0.013756219 -0.3296327 -0.22924462 0.189176
00000000: b907 fa3e 8829 e9be 6195 50be ba31 9fbe
00000010: ebdc e8be 15e9 2a3e a4f9 3fbe 10f5 b53e
00000020: 4fde 023c 6652 91bd b15d bf3e f8c3 333e
00000030: 9ad1 bdbd 0d9f c4be 5c73 463e c2b9 583c
00000040: 6700 553e 007b b13d 5194 063f a9da 453e
00000050: 4b68 a63e 9451 0ebd e5ae 48be e9d4 b3bd
00000060: 9f84 94be 57d6 33bf 9629 633c a7a8 8cbd
00000070: fbb7 9a3e 2670 99be fab4 f2bb 1c77 923d
00000080: 82db d0bd 4266 143f 7ef5 e63e 3dbb 2d3e
00000090: 70d1 25be 6448 753e e9d0 acbe f9bd f3be
000000a0: 0e2a 16bf 9a3b 883d 1e76 09bd f891 81be
000000b0: 8ba4 ffbd aa69 8a3e b912 88be ed37 a73e
000000c0: ae39 99be 534a 9fbe abd0 753d 05d3 d6bc
000000d0: cfe1 a13d cabf bd3e 99d4 a73e 3210 e73e
000000e0: e5fc 1a3e 7d06 8fbe a31e 113e c78c e9bd
000000f0: 3c88 57be 85fc 97be 458e 62bc f4c9 50be
00000100: efd5 debd 16d9 a43e 50fa 96be 2993 f93d
00000110: 5485 973e 4d86 223d 0e3b 4abe 6c11 9bbc
00000120: af56 413e 3f06 6e3d eeed 02be 7021 a1be
00000130: 734d 853e 05b3 84bd 5f32 8e3e 6372 cb3d
00000140: 14b4 c53e a1e9 dc3d 8da7 9dbd 5c90 363f
00000150: aaea 3f3c 71db ab3c b242 0cbf 7806 743a
00000160: 9f1b 913e deca debe f104 efbe 443d bbbd
00000170: c6ac ad3e 41e0 383d 7f42 2dbe 065f 45bd
00000180: c461 61bc 9ec5 a8be 1abf 6abe 5ab7 413e

attention_blocks.0.attention_blocks.0.W_v.weight f4 [5, 20]
0.13830481 -0.40497035 -0.22920427 0.20937993 -0.014810588 -0.24487813 0.16048177 0.08075701
0.19012128 0.17123823 0.44934592 -0.050545324 -0.17435385 0.16322285 -0.10312753 0.22982934
0.012702303 -0.20986407 0.17826436 0.28781757 -0.22669499 0.3752207 -0.017924406 -0.068685025
-0.11937969 0.41972667 -0.044343572 0.2224893 -0.37180185 -0.17269059 0.13096265 -0.24999066
-0.14580524 -0.32071337 0.31814158 0.15295321 -0.19294983 -0.2864811 0.46773747 -0.1551905
-0.24141188 0.15704578 -0.25706825 -0.2569408 -0.38413116 -0.29326499 0.352185 -0.2088936
-0.3902957 -0.16344905 -0.069253415 0.25810975 -0.26874533 0.53904116 0.32242882 -0.23040374
-0.19738683 -0.10404924 -0.066614 -0.6086741 -0.05626331 -0.045078102 -0.14424671 -0.2952736
0.03640379 0.25031054 0.19121243 -0.23637739 -0.18085317 0.13282393 0.029227197 0.009941845
0.0046949433 0.09598261 -0.15530068 -0.08275729 -0.21681476 0.49008152 0.22372803 0.38224903
0.12904789 0.0072966632 0.24812639 -0.0055098017 0.089270085 -0.066451296 -0.22202212 -0.064664766
-0.46915722 0.20778695 0.14097796 -0.19390257 0.29659936 0.39567545 0.107538514 -0.29268286
0.19887908 -0.088913634 0.122397095 0.25951576
00000000: c79f 0d3e 4658 cfbe 86b4 6abe b167 563e
00000010: 1ca8 72bc 55c1 7abe 5555 243e ee63 a53d
00000020: 27af 423e 1359 2f3e ab10 e63e 9d08 4fbd
00000030: d189 32be e423 273e 8734 d3bd 6258 6b3e
00000040: 521d 503c 9be6 56be ef8a 363e d35c 933e
00000050: bb22 68be ed1c c03e 34d6 92bc bcaa 8cbd
00000060: 577d f4bd 6ae6 d63e 9ba1 35bd 3cd4 633e
00000070: d05c bebe cdd5 30be 131b 063e 8dfd 7fbe
00000080: f84d 15be 8b34 a4be 74e3 a23e c49f 1c3e
00000090: a494 45be a7ad 92be 497b ef3e 42ea 1ebe
000000a0: ad34 77be 9cd0 203e 739e 83be bf8d 83be
000000b0: d7ac c4be d426 96be 9851 b43e 34e8 55be
000000c0: d7d4 c7be 305f 27be bcd4 8dbd f626 843e
000000d0: fd98 89be 9afe 093f 6415 a53e f5ee 6bbe
000000e0: c61f 4abe c517 d5bd ec6c 88bd 11d2 1bbf
000000f0: 5b74 66bd d1a3 38bd 69b5 13be 1a2e 97be
00000100: 241c 153d b428 803e 31cd 433e ea0c 72be
00000110: 9331 39be ff02 083e e06d ef3c 1fe3 223c
00000120: 0ad8 993b 8892 c43d 2407 1fbe a77c a9bd
00000130: b004 5ebe f7eb fa3e f618 653e 25b6 c33e
00000140: 2125 043e d918 ef3b d814 7e3e 918b b4bb
00000150: 3cd3 b63d 9e17 88bd c459 63be f66e 84bd
00000160: 6035 f0be 1ac6 543e 875c 103e 658e 46be
00000170: dfdb 973e f995 ca3e 273d dc3d 87da 95be
00000180: f5a6 4b3e 5a18 b6bd 54ab fa3d 40df 843e

attention_blocks.0.attention_blocks.0.W_o.weight f4 [20, 5]
0.29273844 -0.08451966 0.4109291 -0.17721292 -0.31361485 -0.20682846 0.36537245 -0.2967873
-0.61082655 -0.18216518 0.019474627 0.47083992 0.099159606 0.10998306 -0.30212635 -0.09109464
0.28753006 -0.40155804 -0.024736391 -0.057348136 0.16443755 -0.07551307 -0.030598203 0.46992603
0.07138712 -0.12299728 -0.16757949 0.0047378354 0.071007326 -0.04063086 0.11673099 -0.11470761
-0.04624524 0.123085745 -0.023045002 0.40233928 -0.09335001 0.05245442 -0.25970992 -0.04687926
0.1343161 0.106596515 0.4369405 -0.12887491 -0.04359323 0.36037335 0.30582133 -0.21215549
-0.29449064 0.07020733 0.28814477 0.42327997 0.099924676 0.31755918 0.12388442 0.3037268
-0.056081444 0.1434456 -0.12995641 -0.39861628 0.047353473 0.041642588 -0.22811909 -0.087149724
0.18147779 -0.27026013 -0.16664553 0.39258346 -0.008023927 -0.003061604 -0.34129098 0.048848957
-0.35178584 0.14324543 0.24751242 -0.03483055 -0.11040216 0.014826167 0.037468713 -0.3485435
-0.64204234 -0.3783384 -0.09342933 -0.15177731 -0.3110016 -0.19783756 -0.17664926 -0.100778416
0.16341512 0.38437775 -0.07158772 -0.20870101 0.110302165 -0.46127895 0.1269722 -0.18460172
-0.3207213 0.2924047 -0.30826122 0.6212207
00000000: d0e1 953e a518 adbd 4d65 d23e 4e77 35be
00000010: 2092 a0be d7ca 53be 1912 bb3e 81f4 97be
00000020: 215f 1cbf 8289 3abe 4189 9f3c ee11 f13e
00000030: 3114 cb3d cc3e e13d 4eb0 9abe d48f babd
00000040: 2437 933e 0499 cdbe f9a3 cabc e1e5 6abd
00000050: 5162 283e 99a6 9abd 15a9 fabc 259a f03e
00000060: 6933 923d ffe5 fbbd f599 2bbe d83f 9b3b
00000070: 4a6c 913d 8b6c 26bd a810 ef3d d3eb eabd
00000080: a66b 3dbd 6114 fc3d dfc8 bcbc 6aff cd3e
00000090: 4a2e bfbd 72da 563d b3f8 84be 7804 40bd
000000a0: 298a 093e 464f da3d aab6 df3e c9f7 03be
000000b0: d18e 32bd db82 b83e 9d94 9c3e 4a3f 59be
000000c0: 7ac7 96be dcc8 8f3d b687 933e 27b8 d83e
000000d0: 4fa5 cc3d 1e97 a23e 1db7 fd3d 1482 9b3e
000000e0: a8b5 65bd 67e3 123e 4b13 05be 6f17 ccbe
000000f0: b7f5 413d 6b91 2a3d 0d98 69be 8e7b b2bd
00000100: 50d5 393e 895f 8abe 20a5 2abe b300 c93e
00000110: ca76 03bc 31a5 48bb b1bd aebe d815 483d
00000120: 461d b4be eeae 123e e573 7d3e 7baa 0ebd
00000130: 871a e2bd 74e9 723c cb78 193d 4b74 b2be
00000140: e35c 24bf 92b5 c1be e057 bfbd 836b 1bbe
00000150: 9a3b 9fbe ee95 4abe 8be3 34be ea64 cebd
00000160: 4b56 273e 29cd c43e 959c 92bd b8b5 55be
00000170: 1ae6 e13d c12c ecbe 0005 023e 3c08 3dbe
00000180: 9535 a4be 12b6 953e 6ad4 9dbe 5208 1f3f

attention_blocks.0.attention_blocks.1.layer_norm.weight f4 [20]
0.95921063 0.9620069 1.003243 1.0122017 0.8433151 1.0229307 0.9184941 0.9488772
0.8567058 0.8858557 0.84973794 0.8888721 0.8568853 0.99857223 0.934411 1.0430303
0.98517954 0.9018348 1.1473937 0.8787835
00000000: d48e 753f 1646 763f 446a 803f d38f 813f
00000010: 80e3 573f 65ef 823f 6e22 6b3f 9ee9 723f
00000020: 1251 5b3f 70c7 623f 6d88 593f 1f8d 633f
00000030: d65c 5b3f 6ea2 7f3f 8f35 6f3f 0482 853f
00000040: ba34 7c3f a5de 663f ccdd 923f f5f7 603f

attention_blocks.0.attention_blocks.1.layer_norm.bias f4 [20]
-0.024687057 -0.07556074 0.062231503 0.055374455 0.05034976 0.04931593 0.022072677 0.00996742
0.024707654 0.031737063 -0.019238321 -0.0061972826 -0.013104311 0.058631904 -0.072909676 0.020301942
0.023496559 -0.10523251 0.06797727 0.025525268
00000000: 833c cabc 97bf 9abd 76e6 7e3d 53d0 623d
00000010: 8d3b 4e3d 80ff 493d c2d1 b43c 644e 233c
00000020: b567 ca3c b9fe 013d af99 9dbc 9312 cbbb
00000030: 77b3 56bc 0228 703d ab51 95bd 4250 a63c
00000040: db7b c03c 2484 d7bd ab37 8b3d 5e1a d13c

attention_blocks.0.attention_blocks.1.W_k.weight f4 [5, 20]
-0.0665741 0.01772363 0.1763434 0.21686286 -0.14614463 -0.10415369 -0.6411151 0.4213265
0.2000952 0.09303891 -0.070038356 -0.57198876 -0.7079572 -0.106792174 -0.035378568 0.662516
0.114404194 -0.030015402 -0.2225416 -0.29160684 -0.3972829 -0.12563549 0.2527522 -0.035768658
-0.19018556 -0.019230558 -0.43034855 -0.2043446 -0.033747405 0.21212675 0.040006835 -0.57261354
-0.026032558 -0.27695128 -0.028540185 -0.65001124 0.34117877 0.23284952 0.42280647 -0.008251766
0.27002573 0.35449883 -0.06757706 -0.14614922 -0.33745372 -0.3631943 0.023355054 -0.2184804
0.47226062 -0.19320351 0.024927484 0.27547508 0.34191525 -0.21580493 0.46406016 -0.24219795
0.11500442 0.54668385 -0.004044716 0.025988813 -0.41426036 -0.031672556 0.12416049 0.73537695
0.2155201 0.2684565 -0.07523692 -0.2100255 0.18302865 -0.20854725 0.3728627 -0.15150236
-0.29970172 -0.100680165 0.030446956 0.4627228 0.29699013 -0.333595 0.21004434 -0.29600805
-0.049228787 -0.12038886 -0.594258 0.29057413 0.03800347 0.25185844 0.024640981 0.085047536
-0.23084514 -0.07876996 -0.58417404 -0.1264529 0.053196013 -0.37104106 0.2798539 0.120675534
0.6483044 -0.02443309 -0.17439885 -0.16601174
00000000: 0058 88bd 2531 913c 5d93 343e 4c11 5e3e
00000010: f0a6 15be 884e d5bd 1f20 24bf 1bb8 d73e
00000020: c2e5 4c3e 2f8b be3d 4570 8fbd db6d 12bf
00000030: af3c 35bf dbb5 dabd 1ee9 10bd a69a 293f
00000040: bf4c ea3d dce2 f5bc f2e1 63be 7e4d 95be
00000050: aa68 cbbe 97a6 00be bd68 813e 2882 12bd
00000060: 01c0 42be 6789 9dbc a556 dcbe b63f 51be
00000070: b83a 0abd c137 593e 35de 233d cd96 12bf
00000080: 3b42 d5bc 8fcc 8dbe 1bcd e9bc 2367 26bf
00000090: fcae ae3e 1b70 6e3e 177a d83e 6a32 07bc
000000a0: d040 8a3e df80 b53e d765 8abd 24a8 15be
000000b0: bcc6 acbe 9af4 b9be 1953 bf3c 53b9 5fbe
000000c0: 25cc f13e 24d7 45be b934 cc3c 120b 8d3e
000000d0: 840f af3e f8fb 5cbe 4b99 ed3e bd02 78be
000000e0: 7087 eb3d 79f3 0b3f 8989 84bb 7ee6 d43c
000000f0: ef19 d4be 15bb 01bd db47 fe3d aa41 3c3f
00000100: 4db1 5c3e 2173 893e d015 9abd ed10 57be
00000110: dd6b 3b3e 698d 55be dce7 be3e 6f23 1bbe
00000120: 8172 99be 6731 cebd e56b f93c 01ea ec3e
00000130: 170f 983e f7cc aabe dd15 573e 5e8e 97be
00000140: 20a4 49bd 6f8e f6bd 4b21 18bf 22c6 943e
00000150: 87a9 1b3d 97f3 803e e2db c93c 672d ae3d
00000160: ab62 6cbe 2552 a1bd 6e8c 15bf de7c 01be
00000170: 10e4 593d 18f9 bdbe 0349 8f3e bc24 f73d
00000180: 47f7 253f e727 c8bc 9d95 32be fbfe 29be

attention_blocks.0.attention_blocks.1.W_q.weight f4 [5, 20]
0.1514933 0.1653291 -0.38640013 -0.1860318 0.310589 0.18991287 0.27653506 0.08758982
0.31048578 -0.015733616 0.026534908 -0.15087622 0.029114254 -0.60571915 0.47646716 -0.3212741
-0.074517794 0.45882377 0.30237642 0.19867003 0.16600662 0.6634768 0.17297591 0.025540186
0.041554302 0.35031158 0.035413995 0.08561118 0.4032773 0.24385935 -0.0826189 0.068274565
0.03335752 0.12485881 -0.59181714 0.09143285 -0.5739507 0.05322432 -0.59318936 -0.23903394
-0.3401633 0.018103799 0.113523975 0.04354016 -0.26542237 0.23706545 -0.30623463 -0.14646384
0.17333762 -0.054553274 -0.104108274 -0.020876266 -0.07086058 0.05052609 -0.7818328 -0.29026678
-0.21482222 -0.05564527 1.188294 -0.40308893 -0.3196088 0.02008846 -0.2492347 0.42308
0.024996964 0.39706355 0.15514997 -0.047397442 -0.4780046 0.09280744 -0.11146473 -0.3119816
0.09516141 -0.13069023 0.7062955 0.19601613 -0.36932236 -0.07269972 -0.16860065 0.47597635
-0.32308996 0.46789983 0.24953191 0.33802366 -0.20694707 -0.2611059 -0.23219803 -0.20874485
-0.08158085 -0.5131429 -0.1679478 -0.0898035 0.3074715 -0.7238394 0.032373145 0.042292025
-0.5575654 -0.22176011 -0.3035176 0.054037735
00000000: 0f21 1b3e 084c 293e 3dd6 c5be 1f7f 3ebe
00000010: 8505 9f3e 8578 423e 0196 8d3e 4b62 b33d
00000020: fef7 9e3e c9e3 80bc bc5f d93c 4c7f 1abe
00000030: 0481 ee3c 6910 1bbf 81f3 f33e 0a7e a4be
00000040: c99c 98bd f3ea ea3e 15d1 9a3e 2870 4b3e
00000050: a4fd 293e 9ed9 293f 9920 313e a739 d13c
00000060: d834 2a3d 0a5c b33e 440e 113d ea54 af3d
00000070: 5d7a ce3e 44b6 793e 1934 a9bd 89d3 8b3d
00000080: e5a1 083d fab5 ff3d 5481 17bf 2541 bb3d
00000090: 6fee 12bf bf01 5a3d 42db 17bf 50c5 74be
000000a0: e229 aebe 6b4e 943c 427f e83d 2b57 323d
000000b0: 71e5 87be 49c1 723e c9ca 9cbe 9efa 15be
000000c0: 6b7f 313e 4173 5fbd b836 d5bd b404 abbc
000000d0: 5a1f 91bd 72f4 4e3d 3226 48bf d99d 94be
000000e0: 5bfa 5bbe 4bec 63bd 051a 983f ac61 cebe
000000f0: c4a3 a3be 8e90 a43c 6237 7fbe f19d d83e
00000100: 6fc6 cc3c ea4b cb3e a2df 1e3e d223 42bd
00000110: 05bd f4be d411 be3d 9f47 e4bd 0dbc 9fbe
00000120: fce3 c23d a9d3 05be c8cf 343f 74b8 483e
00000130: d217 bdbe 97e3 94bd a6a5 2cbe 2cb3 f33e
00000140: 0c6c a5be 9190 ef3e 4b85 7f3e 7011 ad3e
00000150: efe9 53be acaf 85be 52c5 6dbe 36c1 55be
00000160: dc13 a7bd 555d 03bf 82fa 2bbe e6ea b7bd
00000170: e86c 9d3e 8a4d 39bf b499 043d 673a 2d3d
00000180: 9bbc 0ebf 1515 63be a966 9bbe ac56 5d3d

attention_blocks.0.attention_blocks.1.W_v.weight f4 [5, 20]
-0.042730976 0.5852018 -0.28337055 -0.21518512 -0.15322945 -0.11163755 -0.2844642 -0.4324715
0.057402458 -0.40932673 -0.044568967 -0.022697538 -0.05608095 0.0754937 0.010506828 -0.08024282
-0.19628313 0.024196628 0.029811312 -0.06715192 0.228301 0.043646865 0.0287987 -0.22735864
0.06709167 -0.3340786 -0.14520052 -0.18687241 0.21474192 -0.33715585 -0.042249426 0.30375746
-0.3974218 -0.12372045 -0.11272323 -0.1934945 0.0072507504 0.26454416 -0.050741013 -0.021647751
-0.06673022 -0.0590723 -0.19690956 0.2762059 0.028669016 0.09894661 0.3112203 0.061567634
-0.046280935 0.11187233 -0.5728772 0.052422114 0.06731671 -0.18432175 -0.08141134 -0.41444212
-0.054133434 0.12433954 0.26935884 0.29853177 -0.37557575 -0.14717287 -0.0035953203 -0.32839948
0.30103818 0.24526307 0.06741761 -0.06608679 -0.09869761 -0.085669324 0.12658542 0.17212349
0.13287747 0.2622179 0.10026535 -0.04439846 0.14074339 -0.20497596 0.0017442447 -0.24185696
-0.0874387 0.1412784 -0.121521495 -0.161032 0.047136735 0.19988394 -0.0006242246 0.08868245
-0.129399 -0.005706365 0.24744092 -0.052781947 0.09641817 0.1518476 -0.24220091 -0.27568448
-0.41272447 -0.32617036 0.06756344 -0.07497733
00000000: ad06 2fbd c9cf 153f f215 91be 7d59 5cbe
00000010: 2ee8 1cbe 3aa2 e4bd 4ba5 91be e86c ddbe
00000020: d71e 6b3d 4693 d1be f38d 36bd 30f0 b9bc
00000030: 23b5 65bd 719c 9a3d d524 2c3c 5956 a4bd
00000040: 72fe 48be 0238 c63c da36 f43c f286 89bd
00000050: bdc7 693e 0ec7 323d 40eb eb3c b4d0 68be
00000060: 5c67 893d 5a0c abbe 72af 14be 7b5b 3fbe
00000070: 4ee5 5b3e b19f acbe bc0d 2dbd 1986 9b3e
00000080: df7a cbbe 2661 fdbd 70db e6bd 6c23 46be
00000090: b497 ed3b 5572 873e cfd5 4fbd a056 b1bc
000000a0: dba9 88bd ccf5 71bd a9a2 49be dc6a 8d3e
000000b0: 49db ea3c 85a4 ca3d 4458 9f3e 582e 7c3d
000000c0: 1491 3dbd 521d e53d 15a8 12bf 92b8 563d
000000d0: 58dd 893d d7be 3cbe fdba a6bd c231 d4be
000000e0: 05bb 5dbd bba5 fe3d 67e9 893e 28d9 983e
000000f0: 774b c0be 7cb4 16be 779f 6bbb fa23 a8be
00000100: ad21 9a3e 3e26 7b3e 3e12 8a3d 8358 87bd
00000110: f921 cabd 6673 afbd 9c9f 013e 2441 303e
00000120: 0811 083e 6d41 863e eb57 cd3d 29db 35bd
00000130: 091f 103e 38e5 51be 249f e43a 5aa9 77be
00000140: 1013 b3bd 49ab 103e 43e0 f8bd 93e5 24be
00000150: 7312 413d 60ae 4c3e 01a3 23ba 259f b53d
00000160: 2c81 04be 76fc babb 2761 7d3e e231 58bd
00000170: e476 c53d f07d 1b3e 8403 78be 8426 8dbe
00000180: 9f50 d3be cdff a6be b35e 8a3d b78d 99bd

attention_blocks.0.attention_blocks.1.W_o.weight f4 [20, 5]
0.24425718 -0.19303331 0.005011762 0.055004984 -0.16549946 0.026319962 0.061250664 -0.33960742
0.38338193 0.36407983 0.04392503 -0.3375019 0.29225716 0.14625752 -0.030614173 0.4200472
0.46010867 -0.18059662 0.44181415 -0.19427676 0.044223 0.14917865 0.13264634 0.253049
0.20402946 -0.16441713 -0.21540946 0.16864815 0.2642694 -0.3176926 0.44328716 -0.016759675
-0.023173604 -0.13798772 0.2986958 0.046527844 0.25828463 0.1495128 0.21575671 0.02299474
-0.04217566 -0.00815318 0.06316938 0.30046734 0.046546537 0.35064968 -0.31496558 0.045467567
-0.279449 -0.08771369 0.079450384 0.13102321 -0.4306987 -0.19217268 0.31959832 -0.059067007
-0.21700689 -0.48392233 0.0939887 0.1698448 -0.14219208 -0.1486292 0.19502136 -0.2320261
-0.06088688 0.17167303 0.0796266 -0.07724842 0.22472525 -0.23970489 -0.5255867 0.09900844
0.18356054 0.08918324 0.1533063 -0.051454615 0.05576863 -0.20342734 0.12754904 0.04858665
0.13254757 0.055620845 0.13449171 -0.20545682 -0.07965209 0.23535345 0.025888337 0.2287706
0.12320503 0.26495746 0.11477194 -0.17972404 0.06789763 0.13052948 0.15785854 0.020525752
0.546535 -0.15458053 0.43862957 -0.52757955
00000000: 8e1e 7a3e 86aa 45be b539 a43b e84c 613d
00000010: b178 29be f69c d73c fae1 7a3d 06e1 adbe
00000020: a34a c43e ac68 ba3e bbea 333d 0dcd acbe
00000030: bba2 953e 88c4 153e 93ca fabc 6d10 d73e
00000040: 5d93 eb3e 52ee 38be 7735 e23e 7df0 46be
00000050: 2d23 353d 4ac2 183e 71d4 073e a38f 813e
00000060: 19ed 503e f75c 28be 4c94 5cbe 1ab2 2c3e
00000070: 524e 873e 9ba8 a2be 89f6 e23e 964b 89bc
00000080: 92d6 bdbc a74c 0dbe a8ee 983e fb93 3e3d
00000090: e23d 843e e219 193e 54ef 5c3e 775f bc3c
000000a0: 63c0 2cbd ea94 05bc f35e 813d dbd6 993e
000000b0: 95a7 3e3d 5b88 b33e 2b43 a1be 333c 3a3d
000000c0: f013 8fbe 3ca3 b3bd e2b6 a23d f32a 063e
000000d0: 8a84 dcbe eac8 44be 64a2 a33e 3ff0 71bd
000000e0: 0e37 5ebe abc4 f7be 267d c03d cceb 2d3e
000000f0: cd9a 11be 4132 18be aeb3 473e 4098 6dbe
00000100: 8564 79bd 0ecb 2f3e 4513 a33d 6b34 9ebd
00000110: 601e 663e 3375 75be da8c 06bf f0c4 ca3d
00000120: 4bf7 3b3e b4a5 b63d 54fc 1c3e 13c2 52bd
00000130: a66d 643d 424f 50be 379c 023e cc02 473d
00000140: 8dba 073e afd2 633d 32b8 093e 4663 52be
00000150: a320 a3bd 7f00 713e c713 d43c d742 6a3e
00000160: eb52 fc3d 81a8 873e 8d0d eb3d 9409 38be
00000170: ea0d 8b3d 85a9 053e aba5 213e 9f25 a83c
00000180: b8e9 0b3f 5c4a 1ebe 0e94 e03e 740f 07bf

attention_blocks.0.attention_blocks.2.layer_norm.weight f4 [20]
0.95323604 0.85904527 0.99478686 0.87281275 0.9450645 0.94028765 0.9930908 0.76097006
0.9434526 0.87436026 0.96496737 0.9256252 0.9356773 0.89594966 0.8981625 0.85870934
0.91214025 0.95318234 0.97013867 0.9177985
00000000: 4707 743f 64ea 5b3f 5aaa 7e3f a870 5f3f
00000010: bfef 713f b1b6 703f 333b 7e3f efce 423f
00000020: 1c86 713f 13d6 5f3f 1a08 773f c6f5 6c3f
00000030: 8c88 6f3f f55c 653f faed 653f 60d4 5b3f
00000040: 0682 693f c203 743f 025b 783f d8f4 6a3f

attention_blocks.0.attention_blocks.2.layer_norm.bias f4 [20]
-0.10601012 -0.040388856 0.029056527 0.066560015 0.16510232 0.009045188 -0.026592765 -0.095322415
0.0074104415 -0.058493182 0.1140429 0.031761337 0.029834861 -0.09498762 -0.04119641 -0.04487615
-0.07450492 0.035289135 0.057504497 0.049968757
00000000: d51b d9bd c96e 25bd f407 ee3c 9e50 883d
00000010: 9510 293e 4532 143c 12d9 d9bc 6638 c3bd
00000020: 4ad3 f23b 8c96 6fbd 538f e93d 2d18 023d
00000030: 3d68 f43c df88 c2bd 91bd 28bd 0ed0 37bd
00000040: 0996 98bd 578b 103d d689 6b3d 0aac 4c3d

attention_blocks.0.attention_blocks.2.W_k.weight f4 [5, 20]
0.6474981 0.30735913 0.18699664 0.18460737 -0.19794813 0.18894014 0.67034036 0.27546325
-0.6943563 0.00069207203 -0.28415063 0.3258056 -0.093469 0.2926815 0.35334483 -0.28972363
-0.21472865 -0.11768408 0.4167186 -0.21090043 -0.27552634 0.22449917 0.5581804 0.2534686
0.5274522 0.49345696 -0.116925344 -0.3357541 -0.11494742 -0.1513989 -0.007238891 0.09982317
-0.15625149 -0.20156297 0.15905458 -0.49991518 -0.0668962 0.1203323 -0.16656378 0.43480334
0.03586209 0.22013114 -0.21167651 -0.1519845 0.058851484 0.19453356 -0.06913722 0.17009938
3.491462e-05 0.24023926 -0.5748572 -0.6638794 -0.62465984 -0.1561904 0.3289912 -0.17195731
0.2149546 0.38975036 0.15882641 0.26371703 0.08563642 -0.3490043 0.2782555 -0.3815601
0.12631409 -0.30685487 -0.113860466 0.22941265 0.22916211 0.11609903 -0.09423875 0.24720994
0.023609042 -0.33844548 -0.32100037 0.029048108 0.1419078 0.5305037 0.22834069 -0.04470812
0.13314041 0.06625974 0.31430134 -0.20424832 -0.56226474 0.17612854 0.024966074 0.018727347
0.5754539 -0.024286382 -0.36138088 0.2039148 -0.4477661 0.0021449758 0.42641953 -0.014322658
0.520994 0.041151647 -0.7462281 -0.37564832
00000000: 6fc2 253f 2d5e 9d3e 0c7c 3f3e b709 3d3e
00000010: eab2 4abe 8679 413e 6d9b 2b3f 8509 8d3e
00000020: 56c1 31bf 2b6c 353a 317c 91be fecf a63e
00000030: ad6c bfbd 59da 953e 9de9 b43e a856 94be
00000040: d4e1 5bbe 5a04 f1bd 245c d53e 48f6 57be
00000050: ca11 8dbe 1ce3 653e e9e4 0e3f a3c6 813e
00000060: 1b07 073f 64a6 fc3e 8e76 efbd f6e7 abbe
00000070: 8e69 ebbd 5008 1bbe 3834 edbb 1770 cc3d
00000080: 6400 20be 8666 4ebe 34df 223e e2f4 ffbe
00000090: e000 89bd c870 f63d b28f 2abe 8b9e de3e
000000a0: 20e4 123d 0f6a 613e bac1 58be d3a1 1bbe
000000b0: 410e 713d ce33 473e d197 8dbd 882e 2e3e
000000c0: 4a71 1238 4801 763e d729 13bf 00f4 29bf
000000d0: b5e9 1fbf 60f0 1fbe 8971 a83e 9415 30be
000000e0: 0f1d 5c3e 5c8d c73e 64a3 223e eb05 873e
000000f0: 2662 af3d b1b0 b2be 8177 8e3e d85b c3be
00000100: 7b58 013e 151c 9dbe ad2f e9bd 26eb 6a3e
00000110: 79a9 6a3e 54c5 ed3d 3f00 c1bd 9a24 7d3e
00000120: c067 c13c ba48 adbe 295a a4be 4cf6 ed3c
00000130: 4750 113e 17cf 073f 24d2 693e dd1f 37bd
00000140: f655 083e 30b3 873d 1bec a03e 7926 51be
00000150: 95f0 0fbf 0a5b 343e a785 cc3c 186a 993c
00000160: f250 133f 3cf4 c6bc ea06 b9be 0bcf 503e
00000170: 9941 e5be b992 0c3b a953 da3e 95a9 6abc
00000180: dd5f 053f a18e 283d ce08 3fbf fa54 c0be

attention_blocks.0.attention_blocks.2.W_q.weight f4 [5, 20]
-0.39549407 -0.040108006 -0.36235344 0.5430737 -0.10669098 -0.3841242 -0.0023217208 0.06419093
0.17541964 0.1960774 -0.020351842 0.0760538 0.6728792 0.10384098 -0.31354266 -0.3251723
-0.14115636 -0.0886587 0.23846813 -0.23009579 0.24201754 0.30784205 0.09278481 -0.3026872
-0.470265 -0.34173134 0.30316314 0.20233567 0.43409255 0.1908516 0.011307881 -0.074861266
-0.22389317 0.03415434 -0.32179412 0.3421295 0.1176784 -0.3207743 -0.03605416 -0.22359231
0.024471298 0.12342461 0.2335991 -0.072827786 -0.20954062 0.14655119 -0.41151264 -0.15040094
-0.0015476458 0.29362005 0.2733944 0.7535514 -0.006251965 0.6648304 -0.22053233 -0.027189715
-0.30618325 -0.37537968 0.25192186 -0.6948986 0.405336 0.26283452 -0.028462725 -0.2500146
-0.525943 0.4779449 -0.31261307 0.13075681 -0.19975184 0.46482837 -0.099824645 -0.20269482
0.2572641 0.21185899 0.13795413 -0.019831097 -0.037137542 0.026070734 -0.017993877 0.33724388
-0.41415256 -0.21038064 0.69337046 -0.16437936 -0.09743141 0.43419895 0.33509114 0.37920895
-0.046464927 0.3953749 0.11588478 0.127192 -0.2941898 0.18345119 -0.34437767 -0.23806323
0.055678304 0.18079132 0.3150213 0.15374026
00000000: 337e cabe 4b48 24bd 6486 b9be e106 0b3f
00000010: cd80 dabd edab c4be 0328 18bb 8976 833d
00000020: 35a1 333e 84c8 483e e8b8 a6bc 18c2 9b3d
00000030: d041 2c3f 94aa d43d aa88 a0be fc7c a6be
00000040: 4b8b 10be b192 b5bd fd30 743e 3b9e 6bbe
00000050: 72d3 773e 799d 9d3e f605 be3d d1f9 9abe
00000060: 93c6 f0be 69f7 aebe 3338 9b3e 1531 4f3e
00000070: 6141 de3e 9a6e 433e b144 393c dd50 99bd
00000080: 4044 65be 6ce5 0b3d 33c2 a4be 992b af3e
00000090: 5f01 f13d 873c a4be 87ad 13bd 62f5 64be
000000a0: 0878 c83c 0bc6 fc3d 9a34 6f3e bc26 95bd
000000b0: d191 56be 8411 163e c9b1 d2be b402 1abe
000000c0: 60da caba 5e55 963e 5afa 8b3e bfe8 403f
000000d0: 49dd ccbb 5332 2a3f 3ad3 61be f7bc debc
000000e0: 0dc4 9cbe c431 c0be e7fb 803e e0e4 31bf
000000f0: 3388 cf3e 3f92 863e a92a e9bc ea01 80be
00000100: 33a4 06bf 32b5 f43e d20e a0be 1de5 053e
00000110: bf8b 4cbe fcfd ed3e dd70 ccbd 3b8f 4fbe
00000120: 1fb8 833e 90f1 583e d943 0d3e d374 a2bc
00000130: 891d 18bd 4b92 d53c e567 93bc 3bab ac3e
00000140: ce0b d4be 066e 57be ba80 313f 1053 28be
00000150: 1e8a c7bd 534f de3e 1191 ab3e ad27 c23e
00000160: 0252 3ebd 946e ca3e 0055 ed3d 9f3e 023e
00000170: 0ca0 96be a1da 3b3e 4552 b0be d9c6 73be
00000180: ef0e 643d 5c21 393e 794a a13e 166e 1d3e

attention_blocks.0.attention_blocks.2.W_v.weight f4 [5, 20]
-0.3981842 -0.15823913 0.47833204 -0.10213897 -0.17525361 0.3403818 -0.1425215 -0.080633484
0.044191163 0.48453173 -0.018204449 -0.26122057 -0.014156403 0.14759363 -0.17098863 -0.16467115
-0.0033188784 0.092687905 0.06773409 0.42403013 0.2919506 0.12589918 -0.05219985 -0.115761146
0.050510544 -0.047312938 -0.10889684 0.076108925 0.31146023 0.2924202 0.1503685 0.28872377
-0.32476467 0.4254075 0.36188036 0.3579908 0.0351197 -0.33499628 -0.021942725 -0.03614811
-0.015138608 -0.55014783 0.18037026 0.28419775 0.028676836 -0.21061991 -0.1486503 -3.197384e-05
0.3743331 0.016964579 0.5181612 0.21199462 -0.44450292 0.13979991 0.075306006 0.24196675
-0.046697102 0.24844731 -0.0026644988 -0.7473571 -0.03608642 0.049064297 -0.17627133 -0.24548335
0.18001524 0.04238388 -0.27848876 -0.0058064847 0.12992258 0.1416567 -0.14384359 0.16699137
0.15283114 -0.08754946 -0.30512458 0.7424162 -0.23806508 -0.06466253 -0.0497889 -0.14020531
-0.18742059 0.09885028 -0.013009748 0.30023673 0.04891301 -0.41794422 -0.40615052 -0.016470632
-0.5397744 -0.4112685 -0.006748765 0.01755884 -0.25135806 0.3172653 -0.1696755 -0.25381905
-0.20153455 0.21335436 -0.16889839 -0.036281332
00000000: cdde cbbe 7009 22be f0e7 f43e 3c2e d1bd
00000010: af75 33be 8646 ae3e 28f1 11be 2b23 a5bd
00000020: cb01 353d 8b14 f83e 7f21 95bc b4be 85be
00000030: 42f0 67bc c922 173e a517 2fbe 8e9f 28be
00000040: 8a81 59bb 28d3 bd3d 2cb8 8a3d 7a1a d93e
00000050: 8d7a 953e b7eb 003e 83cf 55bd 2e14 edbd
00000060: 25e4 4e3d 36cb 41bd 4e05 dfbd ffde 9b3d
00000070: b777 9f3e 1ab8 953e 33fa 193e 9ad3 933e
00000080: 8e47 a6be 03cf d93e 6248 b93e 924a b73e
00000090: add9 0f3d a284 abbe 3bc1 b3bc 0a10 14bd
000000a0: ed07 78bc 7dd6 0cbf fbb2 383e 5e82 913e
000000b0: afeb ea3c bfac 57be c937 18be a61b 06b8
000000c0: 97a8 bf3e 4df9 8a3c 36a6 043f 1e15 593e
000000d0: e395 e3be b527 0f3e 093a 9a3d 22c6 773e
000000e0: 7645 3fbd f968 7e3e df9e 2ebb cb52 3fbf
000000f0: 5bcf 13bd a5f7 483d 7980 34be fd5f 7bbe
00000100: ea55 383e b89a 2d3d 1496 8ebe 5344 bebb
00000110: 6d0a 053e 740e 113e bc4b 13be c9ff 2a3e
00000120: c47f 1c3e 224d b3bd 4a39 9cbe fd0e 3e3f
00000130: 55c7 73be ca6d 84bd 72ef 4bbd fb91 0fbe
00000140: 2feb 3fbe 0472 ca3d d726 55bc a1b8 993e
00000150: 0259 483d c9fc d5be f6f2 cfbe 6bed 86bc
00000160: a82e 0abf c991 d2be be24 ddbb 8ed7 8f3c
00000170: 01b2 80be 9970 a23e 6abf 2dbe 92f4 81be
00000180: 135f 4ebe 9179 5a3e b3f3 2cbe bc9b 14bd

attention_blocks.0.attention_blocks.2.W_o.weight f4 [20, 5]
-0.02616474 -0.13982993 0.07787976 -0.021971337 0.25680345 0.20552942 -0.12074476 -0.07855516
0.005496233 -0.09151422 -0.31080878 0.18738812 -0.093915105 0.0476754 -0.57673657 -0.081635125
0.0102474 -0.08519412 0.017847309 -0.31547096 0.09893561 -0.16113709 -0.2665926 -0.13073899
0.23654787 -0.20701554 -0.026602957 0.24786904 0.1168915 -0.14411883 -0.11944605 0.42079744
0.3763243 0.20549929 -0.21344692 -0.16379663 0.42859033 0.10131263 -0.43139684 0.01190616
0.19243267 0.31909892 0.22741297 -0.015182363 -0.45076433 0.31705603 -0.13405517 -0.46747664
-0.47151405 0.2435406 -0.28240797 0.029704498 0.13813268 -0.26931491 0.27553633 -0.26862657
-0.31765923 0.26957664 -0.3382429 -0.2792867 0.194256 0.13296834 0.30911276 -0.10685482
-0.20515591 0.14309266 -0.051275607 -0.032289613 0.31317306 0.00510411 0.30848566 0.028957842
-0.03670701 -0.07574373 0.24536191 0.11861769 -0.47179848 0.0063593104 -0.13782085 0.061161287
0.051748294 -0.02167101 0.1364661 -0.32949585 -0.4780982 -0.041886743 -0.43987283 -0.1949723
-0.04544347 -0.09008701 -0.27402753 0.112859234 0.111337855 0.084679954 -0.019788567 -0.24736913
-0.17648318 -0.21489707 0.21811077 -0.07661855
00000000: 7057 d6bc 942f 0fbe 6c7f 9f3d 3cfd b3bc
00000010: be7b 833e 4e76 523e 0749 f7bd 87e1 a0bd
00000020: be19 b43b cf6b bbbd 5422 9fbe ace2 3f3e
00000030: 9056 c0bd 4847 433d 02a5 13bf 5130 a7bd
00000040: b6e4 273c 417a aebd 8534 923c 6985 a1be
00000050: c19e ca3d 1f01 25be d37e 88be 71e0 05be
00000060: 9b39 723e e2fb 53be 72ee d9bc 62d1 7d3e
00000070: d064 ef3d e393 13be 21a0 f4bd c372 d73e
00000080: 94ad c03e 686e 523e d491 5abe 4eba 27be
00000090: 3170 db3e ff7c cf3d 0ce0 dcbe 0e12 433c
000000a0: 120d 453e ef60 a33e f2de 683e 72bf 78bc
000000b0: 95ca e6be 2b55 a23e c245 09be 1959 efbe
000000c0: 4a6a f1be b562 793e c797 90be d956 f33c
000000d0: a772 0d3e a5e3 89be 1913 8d3e 6c89 89be
000000e0: 3ba4 a2be f305 8a3e 2c2e adbe abfe 8ebe
000000f0: 0beb 463e da28 083e 0744 9e3e b3d6 dabd
00000100: 6414 52be e286 123e 5f06 52bd 1d42 04bd
00000110: 3858 a03e 6140 a73b d5f1 9d3e ff38 ed3c
00000120: 175a 16bd 871f 9bbd 2740 7b3e d5ed f23d
00000130: 928f f1be c361 d03b e920 0dbe 4284 7a3d
00000140: 05f6 533d 6787 b1bc c5bd 0b3e aeb3 a8be
00000150: 4ac9 f4be 6f91 2bbd 0337 e1be d2a6 47be
00000160: ef22 3abd 8a7f b8bd 564d 8cbe be22 e73d
00000170: 1a05 e43d af6c ad3d a21b a2bc 554e 7dbe
00000180: 02b8 34be fa0d 5cbe 6e58 5f3e 30ea 9cbd

attention_blocks.0.attention_blocks.3.layer_norm.weight f4 [20]
0.92783433 0.926728 0.67063123 0.95929396 0.94155157 0.76876265 0.86248267 0.9174269
0.9509443 0.89917046 0.9802892 0.99840176 0.8328771 0.9577497 1.0363269 0.8319559
0.9722827 0.8342227 0.93242264 0.9342245
00000000: 8d86 6d3f 0c3e 6d3f 7dae 2b3f 4a94 753f
00000010: 8609 713f a1cd 443f aacb 5c3f 7ddc 6a3f
00000020: 1671 733f 0930 663f 3cf4 7a3f 4297 7f3f
00000030: 6f37 553f 162f 753f 5ca6 843f 10fb 543f
00000040: 85e7 783f 9e8f 553f 40b3 6e3f 5629 6f3f

attention_blocks.0.attention_blocks.3.layer_norm.bias f4 [20]
0.03302871 0.00023877434 0.00061946566 -0.042429812 -0.04802742 -0.005644247 0.017557064 0.19509277
-0.096322566 0.1497159 0.038400616 -0.028796302 0.0761118 -0.06754231 -0.008499449 -0.02950152
0.029687919 0.0027267968 -0.008053481 -0.041450668
00000000: 1d49 073d 805f 7a39 a363 223a e2ca 2dbd
00000010: 66b8 44bd 60f3 b8bb d5d3 8f3c 66c6 473e
00000020: c444 c5bd 204f 193e f749 1d3d 39e6 ebbc
00000030: 81e0 9b3d 9f53 8abd 4641 0bbc 2cad f1bc
00000040: 1434 f33c 0fb4 323b bff2 03bc 2dc8 29bd

attention_blocks.0.attention_blocks.3.W_k.weight f4 [5, 20]
0.0058761006 -0.22327879 0.026341282 0.7393855 -0.48990768 -0.3499905 -0.08040149 -0.24925269
-0.017847722 -0.04319992 0.43444383 0.63672405 -0.36111653 0.27874276 0.19277169 0.020168073
-0.104702964 0.37220842 -0.5438638 0.25546587 -0.22468346 -0.0013454835 0.037757058 -0.41775802
-0.010146719 0.13602151 0.40811697 0.06563524 -0.17702386 0.18476121 0.6420724 0.09543169
0.15361044 -0.3046465 0.3345294 0.20679393 0.10237369 0.28102064 -0.2630098 -0.30558687
-0.09022804 -0.042085115 -0.113457024 0.2498692 -0.53309834 -0.17553909 0.054292362 0.2133305
-0.3591673 0.59520334 -0.04119655 -0.13546428 -0.008910004 0.36843663 0.2504941 -0.10512963
0.514854 0.2962451 -0.063908294 -0.337693 -0.4323575 -0.42369905 -0.31217536 0.025509665
-0.4447692 -0.2994874 -0.090178445 -0.115039535 0.6527588 0.2643396 -0.12510566 -0.6580522
-0.050993975 0.47720003 0.5460938 0.2506528 -0.039722487 -0.21168149 0.23177594 -0.18773302
-0.18748346 0.2844069 0.03449823 -0.06285823 0.2997821 -0.018100718 -0.043493807 -0.30285266
0.064857915 -0.35133845 0.1983006 0.6326266 -0.27082866 0.41219005 0.33877194 0.15262175
0.39476013 0.110120244 0.001192636 0.37017548
00000000: 4e8c c03b 32a3 64be acc9 d73c 5e48 3d3f
00000010: 2ed5 fabe f431 b3be 89a9 a4bd 193c 7fbe
00000020: 6335 92bc 66f2 30bd 6c6f de3e 5900 233f
00000030: 44e4 b8be 5fb7 8e3e f165 453e 8437 a53c
00000040: 826e d6bd 1a92 be3e a83a 0bbf 6ccc 823e
00000050: 6c13 66be ef5a b0ba 25a7 1a3d 61e4 d5be
00000060: 6d3e 26bc 3949 0b3e b5f4 d03e c56b 863d
00000070: be45 35be 0b32 3d3e db5e 243f b171 c33d
00000080: 0e4c 1d3e a0fa 9bbe 7047 ab3e cac1 533e
00000090: 4ca9 d13d f0e1 8f3e 38a9 86be e275 9cbe
000000a0: 7bc9 b8bd 7161 2cbd 285c e8bd b6dd 7f3e
000000b0: 2279 08bf 85c0 33be ab61 5e3d 5073 5a3e
000000c0: c7e4 b7be 3f5f 183f b7bd 28bd 26b7 0abe
000000d0: 44fb 11bc baa3 bc3e c340 803e 344e d7bd
000000e0: 79cd 033f 70ad 973e 5ae2 82bd 19e6 acbe
000000f0: f65d ddbe 15ef d8be 73d5 9fbe a5f9 d03c
00000100: cab8 e3be 6a56 99be 7aaf b8bd d999 ebbd
00000110: 331b 273f 8557 873e b31b 00be 1c76 28bf
00000120: 0fdf 50bd 9053 f43e cecc 0b3f 9055 803e
00000130: 0cb4 22bd 08c3 58be ac56 6d3e 163d 40be
00000140: aafb 3fbe c89d 913e 044e 0d3d d1bb 80bd
00000150: 0a7d 993e f547 94bc 9026 32bd 810f 9bbe
00000160: 3ad4 843d a2e2 b3be 500f 4b3e d1f3 213f
00000170: 0eaa 8abe 930a d33e 8473 ad3e e048 1c3e
00000180: 001e ca3e b986 e13d 3952 9c3a a487 bd3e

attention_blocks.0.attention_blocks.3.W_q.weight f4 [5, 20]
-0.38463843 -0.025637235 -0.17655294 0.080053896 -0.466311 0.10235891 -0.21277477 -0.2669124
-0.37419036 -0.49804813 -0.112029955 0.15387398 0.20385125 0.040257435 0.40925056 0.12685248
0.21672978 -0.01050806 0.1256122 0.57221895 -0.14133729 0.04781442 0.1616754 0.54178125
-0.36919287 -0.054396354 0.08798768 -0.33201364 0.018511774 -0.16481416 -0.0035477192 -0.54232943
-0.076286115 0.37768182 0.73688966 -0.18081942 -0.39091069 0.021009559 -0.5258046 -0.12485915
0.51743674 -0.07485457 0.07023549 -0.1691451 -0.09730294 0.15029453 0.36050743 0.19886823
-0.15599841 0.016178872 -0.5714508 -0.02289148 -0.3662177 0.19336735 0.3815081 0.28193316
0.19781435 -0.4532634 0.23152101 -0.0064342762 -0.1885724 0.38014424 -0.050190885 -0.11680586
0.20887558 0.2961061 0.20621525 0.6580926 0.22409573 -0.3617394 0.29996616 0.5677534
-0.39366794 0.44040343 0.5344698 -0.23522468 -0.11171997 -0.111860506 0.42696068 -0.10588891
0.30136964 0.044135127 0.008602465 0.114629 -0.16359454 -0.22459587 -0.6593803 -0.31894702
-0.2898165 0.6213335 -0.21966179 0.4891937 -0.301906 -0.07986228 0.026512185 -0.055866644
-0.4229987 -0.09355342 0.21293904 0.53149736
00000000: 54ef c4be 2e05 d2bc 4bca 34be 4cf3 a33d
00000010: 51c0 eebe 8ca1 d13d a1e1 59be bea8 88be
00000020: e195 bfbe 2a00 ffbe f66f e5bd 2491 1d3e
00000030: 62be 503e fbe4 243d 4a89 d13e 9ee5 013e
00000040: 69ee 5d3e 002a 2cbc 7ca0 003e f17c 123f
00000050: b9ba 10be 0ed9 433d 3c8e 253e 2db2 0a3f
00000060: d906 bdbe b6ce 5ebd e332 b43d b1fd a9be
00000070: 01a6 973c 0bc5 28be da80 68bb 1ad6 0abf
00000080: e53b 9cbd 835f c13e cda4 3c3f ba28 39be
00000090: 7225 c8be 3d1c ac3c 219b 06bf 27b6 ffbd
000000a0: bc76 043f 5a4d 99bd a0d7 8f3d 6034 2dbe
000000b0: c446 c7bd cfe6 193e 6e94 b83e 1da4 4b3e
000000c0: 0cbe 1fbe 8e89 843c 9a4a 12bf ea86 bbbc
000000d0: e380 bbbe 1702 463e 0855 c33e 8b59 903e
000000e0: d88f 4a3e 2412 e8be d813 6d3e 9fd6 d2bb
000000f0: 2019 41be 44a2 c23e f594 4dbd e937 efbd
00000100: 7be3 553e 389b 973e 172a 533e c278 283f
00000110: 5a79 653e e835 b9be 2a95 993e 4958 113f
00000120: d88e c9be 8f7c e13e 03d3 083f bdde 70be
00000130: 71cd e4bd 1f17 e5bd 979a da3e 49dc d8bd
00000140: 1f4d 9a3e 09c7 343d 5af1 0c3c 9cc2 ea3d
00000150: 5485 27be 76fc 65be 26cd 28bf 064d a3be
00000160: d462 94be b60f 1f3f 05ef 60be 9977 fa3e
00000170: 6c93 9abe d68e a3bd 1530 d93c 6cd4 64bd
00000180: 4993 d8be ef98 bfbd b10c 5a3e 3610 083f

attention_blocks.0.attention_blocks.3.W_v.weight f4 [5, 20]
-0.1372445 0.060981993 0.24231158 -0.05016964 -0.33608913 -0.20049582 -0.22636196 -0.120931156
0.22564559 0.0013660815 -0.017002385 -0.2945582 0.17022437 0.123541676 0.028750762 -0.09540423
0.18271717 -0.39723432 -0.079430595 0.109896064 -0.4706732 -0.15205209 -0.03660968 -0.25435138
0.0058302786 -0.026498878 0.14123704 0.025273113 0.11753825 0.30703402 0.051205903 -0.09613515
0.1897299 0.1438452 0.09299913 -0.11128086 -0.5067876 0.14159521 0.31689304 0.081389055
0.0026543378 -0.16145498 -0.08433365 0.09877095 -0.20689145 0.3479784 -0.37713927 -0.23596142
-0.14203015 -0.2647063 -0.103518985 -0.30878118 0.21198799 0.12182096 0.12126091 0.54047585
0.33460805 0.09529341 0.080450445 -0.21757448 -0.41031292 0.0051144483 0.17172286 0.0653121
-0.044371083 0.47526118 -0.0034384725 0.047413982 0.2530838 -0.104276694 -0.38719636 -0.4933197
-0.14285935 0.19800586 -0.032854307 -0.2803288 0.056650233 0.42033094 0.020237464 0.01342486
-0.14008974 -0.04381917 0.10345754 0.013828488 0.24360552 -0.017320257 -0.23111542 0.13960351
-0.12651093 0.08784108 -0.1846981 0.158849 0.05142177 -0.28860933 -0.3314466 0.0971518
0.42086187 -0.3923736 0.28761402 0.15497233
00000000: d289 0cbe 41c8 793d 8720 783e ae7e 4dbd
00000010: e013 acbe c74e 4dbe 6ecb 67be c1aa f7bd
00000020: a30f 673e 170e b33a 9648 8bbc 55d0 96be
00000030: 4c4f 2e3e 6b03 fd3d b886 eb3c 4b63 c3bd
00000040: 361a 3b3e 4c62 cbbe 82ac a2bd 3011 e13d
00000050: 14fc f0be 8bb3 1bbe 08f4 15bd 583a 82be
00000060: ec0b bf3b 2d14 d9bc 71a0 103e 8f09 cf3c
00000070: e5b7 f03d 9033 9d3e 48bd 513d 81e2 c4bd
00000080: 8e48 423e 284c 133e 5476 be3d 38e7 e3bd
00000090: d5bc 01bf 56fe 103e ce3f a23e 4eaf a63d
000000a0: 66f4 2d3b 7454 25be 1fb7 acbd 6d48 ca3d
000000b0: 5adb 53be 3a2a b23e 6618 c1be df9f 71be
000000c0: 5a70 11be 9687 87be c301 d4bd 9118 9ebe
000000d0: 6113 593e 447d f93d a457 f83d a05c 0a3f
000000e0: bf51 ab3e 3129 c33d 34c3 a43d d8cb 5ebe
000000f0: 8914 d2be 1a97 a73b 1ed8 2f3e 5ac2 853d
00000100: 74be 35bd 6f55 f33e ff57 61bb 2a35 423d
00000110: 3394 813e 058f d5bd 9a3e c6be 6694 fcbe
00000120: b949 12be 0cc2 4a3e 3d92 06bd 4287 8fbe
00000130: 130a 683d 9e35 d73e 0ac9 a53c f2f3 5b3c
00000140: af73 0fbe bb7b 33bd 8ce1 d33d e290 623c
00000150: ba73 793e 36e3 8dbc 85a9 6cbe 39f4 0e3e
00000160: 158c 01be 06e6 b33d 8021 3dbe 50a9 223e
00000170: a29f 523d 9ac4 93be 5eb3 a9be 86f7 c63d
00000180: 357b d73e 31e5 c8be 2542 933e 11b1 1e3e

attention_blocks.0.attention_blocks.3.W_o.weight f4 [20, 5]
0.092094205 -0.07954358 -0.29688582 -0.4617469 0.3494994 0.013214515 0.04005271 0.32568252
0.66381055 0.17125165 0.16436984 -0.05026065 0.31068662 0.13959493 0.016985422 -0.2295408
-0.10709582 -0.12190987 0.104675904 0.55845404 -0.31378686 -0.27872664 0.2846081 -0.05699687
0.059100807 0.12247499 -0.26884973 0.09520026 -0.06883152 -0.16728832 0.13541575 -0.19541736
-0.39708787 0.1288756 -0.103017986 0.1003118 -0.04357979 0.283801 0.2140917 -0.15437557
0.12700918 -0.011673149 -0.35672802 -0.018291002 0.08670841 0.09375383 0.266046 0.25470373
-0.24059767 0.09654178 -0.20128617 0.33859253 -0.5121678 0.11049359 0.11837827 -0.24417163
-0.72063184 0.24317446 0.3530858 -0.1246319 0.031004407 -0.17272405 0.07564085 0.07315743
0.27709234 0.3401462 -0.41270363 0.45949054 0.5617324 0.33283457 -0.23669814 -0.14828601
0.21192291 -0.10075907 0.18934299 -0.24596994 -0.2486721 -0.35198763 0.30886367 -0.55896276
-0.00802437 0.20041524 -0.42742947 0.3752159 0.021558428 0.3486958 0.023213157 -0.10538752
0.2987483 -0.51339304 0.31171966 0.16705357 -0.045529447 -0.19246182 0.19997193 0.22133479
0.1396404 -0.2868174 -0.14684968 -0.047904696
00000000: e39b bc3d bfe7 a2bd 6b01 98be 176a ecbe
00000010: 96f1 b23e b181 583c 4f0e 243d dcbf a63e
00000020: 7def 293f 985c 2f3e 9150 283e 1dde 4dbd
00000030: 5112 9f3e f9f1 0e3e 0325 8b3c be0c 6bbe
00000040: 0e55 dbbd e2ab f9bd 5260 d63d d8f6 0e3f
00000050: aca8 a0be 42b5 8ebe 27b8 913e 8d75 69bd
00000060: b013 723d 2bd4 fa3d aca6 89be 5bf8 c23d
00000070: 8af7 8cbd a14d 2bbe 6daa 0a3e 7d1b 48be
00000080: 1a4f cbbe f7f7 033e 18fb d2bd 4670 cd3d
00000090: b980 32bd 5d4e 913e db3a 5b3e a114 1ebe
000000a0: b20e 023e bc40 3fbc 0ea5 b6be 03d7 95bc
000000b0: 2e94 b13d 0202 c03d 2e37 883e 8768 823e
000000c0: 3c5f 76be b2b7 c53d f61d 4ebe 005c ad3e
000000d0: 6e1d 03bf 774a e23d 4e70 f23d 2108 7abe
000000e0: 547b 38bf ba02 793e a9c7 b43e 023f ffbd
000000f0: f4fc fd3c 93de 30be 97e9 9a3d 90d3 953d
00000100: 0cdf 8d3e a527 ae3e e44d d3be 5842 eb3e
00000110: b2cd 0f3f 4b69 aa3e ff60 72be 4ad8 17be
00000120: 5202 593e c55a cebd 21e3 413e 8bdf 7bbe
00000130: e6a3 7ebe b937 b4be 6123 9e3e 2f18 0fbf
00000140: a678 03bc a739 4d3e 09d8 dabe 4c1c c03e
00000150: 4d9b b03c 4288 b23e 8529 be3c 69d5 d7bd
00000160: 8af5 983e ba6d 03bf b899 9f3e 1710 2b3e
00000170: 167d 3abd b614 45be 71c5 4c3e 96a5 623e
00000180: e5fd 0e3e bbd9 92be c35f 16be b737 44bd

attention_blocks.1.attention_blocks.0.layer_norm.weight f4 [20]
0.7702961 0.8545914 0.9467483 0.86312705 0.8973461 0.8568628 0.83400553 0.9752453
0.9211024 0.9114618 0.863548 0.9160201 0.83093995 0.89941627 0.7227613 1.0019282
0.93463916 0.9668712 0.9971674 0.9709346
00000000: 2032 453f 81c6 5a3f 195e 723f e5f5 5c3f
00000010: 79b8 653f 5c5b 5b3f 6381 553f ada9 793f
00000020: 5ecd 6b3f 8f55 693f 7b11 5d3f 4b80 6a3f
00000030: 7bb8 543f 2540 663f e206 393f 2f3f 803f
00000040: 8344 6f3f df84 773f 5d46 7f3f 2c8f 783f

attention_blocks.1.attention_blocks.0.layer_norm.bias f4 [20]
0.038060572 0.019635787 -0.018812276 0.0384814 -0.04413148 -0.031086165 0.019808615 0.12000677
-0.10233754 0.034267206 0.09623638 0.027291369 0.033282723 -0.03652162 -0.011378882 -0.0135552855
0.068659715 -0.06077687 0.08690117 -0.02274467
00000000: 67e5 1b3d 3bdb a03c 341c 9abc ac9e 1d3d
00000010: 36c3 34bd 6aa8 febc ad45 a23c 1cc6 f53d
00000020: 5896 d1bd c55b 0c3d 9417 c53d 2692 df3c
00000030: 7753 083d b297 15bd 7e6e 3abc fd16 5ebc
00000040: 779d 8c3d 2bf1 78bd 3ef9 b13d 0853 babc
