trained_model_16_4_3_2_r.pth (torch, 110523 bytes, 63 tensors)

inp_embedding.weight f4 [115, 16]
0.17375128 -0.008747808 -0.07324952 0.12949908 0.2696735 0.074851975 0.056121256 -0.032820147
0.005394158 -0.033292033 -0.057935417 0.12111162 -0.09825912 -0.026778426 -0.02255516 -0.1892031
0.09565566 0.006940288 -0.17369232 0.01225926 0.24350291 0.024637166 0.0077990713 -0.073245116
-0.025750922 -0.043233585 0.003095298 0.22250111 -0.07479037 -0.044656795 -0.025527474 -0.067201346
0.016434483 0.033718772 -0.03537372 0.123512685 0.39128932 -0.011597074 0.012045626 0.048258003
-0.10284367 -0.16188224 -0.044252645 0.086597405 -0.11941487 -0.038875822 -0.1343211 -0.040448528
0.2206071 -0.13931718 -0.017006429 0.019108547 0.040902033 -0.11011163 0.011585248 0.046954855
0.0040154513 0.22029479 -0.20477699 -0.0141626615 0.06788072 -0.09154229 0.14314173 -0.113198996
-0.0550053 0.060852606 0.065506816 -0.05198653 0.17664784 0.016372867 0.043470427 0.23156467
0.019224416 -0.21441074 -0.06935007 0.016188575 -0.016398797 0.011406467 -0.11879296 0.020857733
-0.03708056 0.09793124 0.01864435 0.059832357 0.30024314 0.1296891 0.09343713 0.11397624
-0.033667553 -0.06117352 0.020121371 0.033200935 -0.039025348 -0.026831547 -0.055667847 -0.1520186
0.1587073 -0.118063636 0.007790702 -0.0021670244 0.062386014 -0.15172179 0.017742617 0.022995966
-0.09053321 0.22615117 -0.1056252 0.01257526 0.094366625 -0.10653336 0.14606124 -0.09908478
0.26650742 -0.21219164 0.020654662 -0.08071676 -0.017147208 -0.08404744 0.038591415 0.11982878
-0.076997176 0.19456705 -0.026071725 0.015030417 0.049098138 -0.09356943 0.068888985 0.0065794587
0.066788636 0.10904048 -0.14696595 -0.010616785 0.44268566 0.07098251 0.07915751 0.012686148
-0.09815692 -0.093657345 0.036038976 0.1666912 0.030710129 0.0065458445 -0.043768983 -0.42238098
0.35161862 -0.064069204 -0.0852215 0.12103793 0.09538461 -0.08586586 -0.030167479 -0.014254288
-0.082830645 0.1898057 -0.12931891 0.005725682 0.020838788 -0.08956557 0.07482848 -0.09291424
0.048732065 -0.0233499 -0.09852927 0.08852064 0.2116727 0.0046298765 0.006246875 0.13547814
-0.11468315 -0.07512855 -0.004668366 0.121996924 -0.17082876 -0.072316475 -0.08288271 0.016745182
0.028897073 0.020876434 -0.005992725 -0.039013132 0.10085636 0.0339943 0.06632742 0.06579004
0.08354621 -0.12641624 -0.035324663 -0.14622508 -0.018651694 0.019141741 -0.026643464 0.07035357
0.02061916 0.04554712 -0.11131313 -0.046433594 0.09707628 0.041096777 0.106287725 0.2712836
-0.16687283 -0.09055053 -0.03359379 0.09611185 -0.1639877 0.03874846 -0.100800015 -0.05299622
0.15900399 -0.003351855 -0.12865831 -0.1969089 0.06662322 -0.048880704 0.033204436 0.026399165
-0.112832986 -0.029364435 -0.031178236 0.19975455 -0.1886366 -0.021378275 -0.05506514 -0.000944362
-0.12207653 0.08663463 -0.15517746 -0.15405571 -0.010799955 0.17134011 0.105964415 0.0042371633
-0.17890911 -0.13996091 0.03570701 -0.14598583 -0.26627746 0.12964578 -0.1589175 0.06923634
0.0082919365 -0.0105331065 -0.1337592 -0.11768765 0.0055060214 0.078209504 0.096124835 -0.0578737
-0.14346112 0.05559159 0.071887955 0.024922619 -0.06973798 0.060477838 -0.023472117 0.0055732997
00000000: dbeb 313e f752 0fbc d803 96bd 689b 043e
00000010: a512 8a3e fe4b 993d 67df 653d 6b6e 06bd
00000020: 7ac1 b03b 3a5d 08bd b04d 6dbd 5e09 f83d
00000030: 143c c9bd 6e5e dbbc 99c5 b8bc 75be 41be
00000040: 1de7 c33d 5b6b e33b 66dc 31be 10db 483c
00000050: d458 793e e2d3 c93c 5a8f ff3b 8901 96bd
00000060: 99f3 d2bc b315 31bd 7cda 4a3b 55d7 633e
00000070: b22b 99bd 0bea 36bd fe1e d1bc dca0 89bd
00000080: 9ca1 863c b21c 0a3d 09e4 10bd 38f4 fc3d
00000090: 1357 c83e a701 3ebc 045b 453c 2faa 453d
000000a0: b49f d2bd 75c4 25be 4342 35bd fb59 b13d
000000b0: c98f f4bd 413c 1fbd 788b 09be 5bad 25bd
000000c0: d4e6 613e 2aa9 0ebe 1151 8bbc 8789 9c3c
000000d0: e488 273d 3582 e1bd 0dd0 3d3c bc53 403d
000000e0: 0c94 833b f594 613e 0fb1 51be 820a 68bc
000000f0: 0c05 8b3d 867a bbbd bf93 123e e0d4 e7bd
00000100: 3d4d 61bd 9540 793d 7028 863d d4ef 54bd
00000110: 2ce3 343e 6420 863c 0c0e 323d 4a1f 6d3e
00000120: 867c 9d3c 7d8e 5bbe 6907 8ebd e79d 843c
00000130: c556 86bc 31e2 3a3c b949 f3bd d6dd aa3c
00000140: c9e1 17bd 2d90 c83d 09bc 983c c612 753d
00000150: 78b9 993e 38cd 043e f75b bf3d 606c e93d
00000160: fde6 09bd 1691 7abd 93d5 a43c b4fd 073d
00000170: 0bd9 1fbd d5cd dbbc f803 64bd c4aa 1bbe
00000180: 2b84 223e 59cb f1bd 2549 ff3b a304 0ebb
00000190: 7a88 7f3d f55c 1bbe f758 913c 0962 bc3c
000001a0: 7a69 b9bd 2c94 673e 0652 d8bd 7708 4e3c
000001b0: 4a43 c13d 2a2e dabd 1491 153e f6ec cabd
000001c0: a973 883e c448 59be f733 a93c d44e a5bd
000001d0: 4d78 8cbc 1021 acbd 0812 1e3d cb68 f53d
000001e0: b2b0 9dbd 963c 473e 5f94 d5bc 2342 763c
000001f0: 211b 493d 54a1 bfbd ab15 8d3d 8098 d73b
00000200: 7bc8 883d 9d50 df3d 3e7e 16be 06f2 2dbc
00000210: b2a7 e23e 475f 913d 551d a23d 90d9 4f3c
00000220: 7f06 c9bd 6ccf bfbd 9b9d 133d 19b1 2a3e
00000230: cf93 fb3c 867e d63b 1b47 33bd 5242 d8be
00000240: 5b07 b43e b736 83bd 9c88 aebd bce2 f73d
00000250: 0259 c33d 71da afbd ca21 f7bc d18a 69bc
00000260: 1da3 a9bd 6d5c 423e 2d6c 04be 809e bb3b
00000270: 1bb6 aa3c 276e b7bd ad3f 993d d249 bebd
00000280: 469b 473d 4a48 bfbc b7c9 c9bd 4f4a b53d
00000290: bac0 583e 38b6 973b 96b2 cc3b c8ba 0a3e
000002a0: 00df eabd ffdc 99bd 18f9 98bb 86d9 f93d
000002b0: bced 2ebe a91a 94bd 69be a9bd 312d 893c
000002c0: 8eb9 ec3c 0e05 ab3c 9f5e c4bb 3ccc 1fbd
000002d0: c78d ce3d 9b3d 0b3d acd6 873d eebc 863d
000002e0: 461a ab3d 4273 01be 98b0 10bd 07bc 15be
000002f0: 70cb 98bc 24cf 9c3c 6543 dabc 8815 903d
00000300: 83e9 a83c 9e8f 3a3d 23f8 e3bd 2731 3ebd
00000310: eecf c63d 1855 283d 61ad d93d afe5 8a3e
00000320: b6e0 2abe 8e72 b9bd a499 09bd 4ad6 c43d
00000330: 64ec 27be b5b6 1e3d 3d70 cebd 9012 59bd
00000340: f1d1 223e ccaa 5bbb 01bf 03be 7da2 49be
00000350: c171 883d 2237 48bd 6001 083d 1043 d83c
00000360: fb14 e7bd af8d f0bc 8069 ffbc 758c 4c3e
00000370: f429 41be 7e21 afbc fc8b 61bd 108f 77ba
00000380: 4203 fabd 7f6d b13d d7e6 1ebe c8c0 1dbe
00000390: 4bf2 30bc c873 2f3e df03 d93d e7d7 8a3b
000003a0: f333 37be ea51 0fbe 8441 123d 4f7d 15be
000003b0: 8555 88be ddc1 043e 45bb 22be c8cb 8d3d
000003c0: e7da 073c 0d93 2cbc 2cf8 08be 3906 f1bd
000003d0: db6b b43b 4e2c a03d 19dd c43d f90c 6dbd
000003e0: 79e7 12be 02b4 633d fe39 933d 852a cc3c
000003f0: c9d2 8ebd 9cb7 773d 9948 c0bc 3aa0 b63b

attention_blocks.0.attention_blocks.0.layer_norm.weight f4 [16]
1.2464381 1.169937 1.1651127 1.3608731 1.4598261 1.2939324 1.2399117 1.3325454
1.1245863 1.229203 1.0085999 1.6151346 1.368525 1.4442654 1.0964023 1.3193619
00000000: 498b 9f3f 7fc0 953f 6a22 953f 1731 ae3f
00000010: 95db ba3f 949f a53f 6db5 9e3f d990 aa3f
00000020: 72f2 8f3f 8656 9d3f cd19 813f bbbc ce3f
00000030: d42b af3f b0dd b83f e956 8c3f dae0 a83f

attention_blocks.0.attention_blocks.0.layer_norm.bias f4 [16]
0.08996294 -0.034456868 -0.10495223 -0.060170423 0.09538399 0.060843993 0.05035135 0.09457772
-0.086059056 0.029216211 -0.011643285 -0.09054606 -0.1430806 0.051793102 0.06005136 -0.01785023
00000000: 7d3e b83d a522 0dbd 32f1 d6bd 4375 76bd
00000010: ae58 c33d 8d37 793d 383d 4e3d f7b1 c13d
00000020: bb3f b0bd d656 ef3c 7ac3 3ebc 3670 b9bd
00000030: b983 12be 0125 543d 6af8 753d a53a 92bc

attention_blocks.0.attention_blocks.0.W_k.weight f4 [4, 16]
0.039499175 -0.16165866 -0.09332075 0.028801767 -0.14095974 0.2793891 0.40729576 0.06852811
0.07905236 0.14198394 -0.086160414 -0.35622627 0.1605012 0.3225154 -0.07368961 -0.355103
-0.16613783 0.14867751 0.12586853 0.17420028 -0.009845182 -0.50924486 -0.13545606 -0.15361099
0.050183352 -0.3749803 0.17040426 0.37777326 0.0223311 0.1447864 -0.047130305 0.32421705
-0.20410854 0.35579482 0.1830006 -0.14244841 -0.29688206 0.27709198 -0.014671588 -0.12660396
-0.062045485 -0.040580746 0.04880411 0.45659798 0.18052045 -0.63359827 -0.0851596 -0.070236884
0.35299426 -0.24632256 -0.2242675 -0.15674987 0.41547257 0.02158775 -0.21971667 0.18176328
-0.18557665 0.2808212 -0.17108695 -0.3385229 -0.463855 0.002205913 0.18554819 0.052642196
00000000: e3c9 213d d989 25be f31e bfbd aff1 eb3c
00000010: c057 10be 170c 8f3e 1289 d03e 7758 8c3d
00000020: 34e6 a13d 3d64 113e df74 b0bd 4a63 b6be
00000030: 6d5a 243e bd20 a53e 94ea 96bd 0fd0 b5be
00000040: 0920 2abe eb3e 183e aee3 003e 8f61 323e
00000050: b04d 21bc df5d 02bf feb4 0abe 334c 1dbe
00000060: 0f8d 4d3d 6bfd bfbe 747e 2e3e 7f6b c13e
00000070: b6ef b63c e342 143e b50b 41bd c7ff a53e
00000080: d401 51be bd2a b63e 8264 3b3e ffdd 11be
00000090: ed00 98be 00df 8d3e 1a61 70bc 78a4 01be
000000a0: 6823 7ebd ff37 26bd d2e6 473d 36c7 e93e
000000b0: 5ada 383e 7f33 22bf 2868 aebd 5bd8 8fbd
000000c0: aabb b43e fb3b 7cbe 61a6 65be 0a83 20be
000000d0: d2b8 d43e cbd8 b03c 68fd 60be 2720 3a3e
000000e0: ce07 3ebe ccc7 8f3e 6b31 2fbe e052 adbe
000000f0: 677e edbe 1491 103b 5800 3e3e 589f 573d

attention_blocks.0.attention_blocks.0.W_q.weight f4 [4, 16]
0.113237925 -0.07582326 -0.12493135 0.40119016 0.59285533 0.06978115 -0.114126936 -0.33774224
0.148843 0.08289384 -0.02746129 0.25611907 0.044465367 -0.17638488 -0.017749174 -0.41564342
-0.17637934 0.020999584 0.07453285 -0.37255785 -0.51611006 -0.042133942 0.022771178 -0.31474292
0.051664125 0.038868714 0.006120629 -0.32128727 0.19226731 0.24316248 0.105427004 0.18770896
-0.580654 0.17078273 0.17916682 0.13055182 -0.23078154 0.1774761 0.14187962 0.16548167
-0.11852748 -0.2558017 0.057787836 -0.5743886 -0.021453477 0.18025957 -0.20292749 0.067251906
0.4556806 -0.064161845 -0.14502202 -0.05551276 0.2756842 -0.15089113 -0.0025488434 0.5069719
-0.15234311 0.06910853 -0.025554188 0.561012 -0.24955323 -0.21448745 -0.023762286 0.15140869
00000000: 49e9 e73d 3a49 9bbd 02dc ffbd cc68 cd3e
00000010: 5ec5 173f 6be9 8e3d 62bb e9bd 8dec acbe
00000020: 4d6a 183e 3fc4 a93d 80f6 e0bc 0a22 833e
00000030: 5121 363d 3d9e 34be b766 91bc 37cf d4be
00000040: c99c 34be 5207 ac3c aea4 983d e7bf bebe
00000050: ca1f 04bf a494 2cbd 9f8a ba3c fc25 a1be
00000060: c39d 533d cd34 1f3d 8f8f c83b c47f a4be
00000070: b9e1 443e 96ff 783e 1dea d73d c736 403e
00000080: bea5 14bf abe1 2e3e 8277 373e 60af 053e
00000090: ff51 6cbe 4bbc 353e e448 113e 0774 293e
000000a0: 89be f2bd 71f8 82be f0b2 6c3d 220b 13bf
000000b0: 34bf afbc f795 383e 39cc 4fbe 5ebb 893d
000000c0: f84e e93e 4967 83bd a780 14be 5961 63bd
000000d0: 7b26 8d3e 3483 1abe 7f0a 27bb e9c8 013f
000000e0: d5ff 1bbe c688 8d3d 0457 d1bc 7c9e 0f3f
000000f0: e28a 7fbe 99a2 5bbe 20a9 c2bc e10a 1b3e

attention_blocks.0.attention_blocks.0.W_v.weight f4 [4, 16]
0.010752957 0.004342149 0.006901713 0.024368364 -0.0026929472 0.004182889 0.020205507 0.009800312
0.00038207968 0.004343043 0.03045131 0.015184298 0.0022302528 0.0020276133 0.03219377 0.00857317
-0.024552202 0.0026379942 0.023159426 0.0065595387 0.0063957768 -0.007476838 0.019423021 -0.0030575118
0.009530932 0.016055385 0.028158627 0.012909489 -0.02279455 0.01952026 0.031567447 0.0026425929
-0.002229256 0.004433154 0.019352635 0.004424005 0.0028234636 0.0154826585 -0.006376638 -0.0042594206
-0.013966724 -0.0034919633 -0.01924652 0.006746107 -0.0037148774 -0.0031708998 0.00930397 0.006921657
0.037644356 0.051375583 -0.06350109 -0.07165871 -0.0115191275 0.06536854 0.048645634 -0.02212323
-0.047360115 -0.023414118 0.02012359 -0.04584631 -0.016943628 0.028228533 -0.050919592 -0.0127053335
00000000: 2c2d 303c 9648 8e3b c427 e23b 2aa0 c73c
00000010: 287c 30bb 9e10 893b 0586 a53c 7d91 203c
00000020: de51 c839 1650 8e3b 0775 f93c 90c7 783c
00000030: 6f29 123b b5e1 043b 9ddd 033d 7b76 0c3c
00000040: b321 c9bc 33e2 2c3b d6b8 bd3c 66f1 d63b
00000050: aa93 d13b 4300 f5bb 071d 9f3c 8960 48bb
00000060: a027 1c3c 9586 833c ecac e63c 5282 533c
00000070: a3bb babc f4e8 9f3c de4c 013d 5a2f 2d3b
00000080: b618 12bb fe43 913b 6b89 9e3c 3ef7 903b
00000090: dc09 393b faaa 7d3c 1ef3 d0bb 9c92 8bbb
000000a0: b0d4 64bc 6cd9 64bb e1aa 9dbc 720e dd3b
000000b0: 4d75 73bb dfce 4fbb ae6f 183c 11cf e23b
000000c0: f830 1a3d 346f 523d dc0c 82bd cdc1 92bd
000000d0: b9ba 3cbc f1df 853d a540 473d c73b b5bc
000000e0: aefc 41bd f7ce bfbc 3ada a43c 57c9 3bbd
000000f0: 5dcd 8abc 863f e73c 1091 50bd 082a 50bc

attention_blocks.0.attention_blocks.0.W_o.weight f4 [16, 4]
0.0020359494 -0.0074133063 0.012251506 -0.03927419 -0.0029188988 0.0011178313 -0.0019192167 -0.0024665182
0.00045794723 -0.0022162783 0.003918248 0.03263748 0.005156099 0.004946623 0.00637644 0.011189526
0.00071359257 -0.0025981767 0.0004489707 -0.03660985 0.0042475415 0.0094278995 0.002478793 0.043692853
0.00850392 0.002239272 0.0008820068 0.037995238 0.0075965766 0.005064577 0.0068969186 0.04324905
0.011129362 0.004152398 0.004514697 0.0015990887 0.0001282732 0.0046461155 0.002107915 0.06650736
0.00044693373 -0.0021030519 -0.0019974655 0.019694807 -0.0007474108 0.004360353 0.0057203383 -0.080406696
0.0031950478 0.0014677724 0.008102144 0.0001102853 0.003754388 -0.0038665906 0.013148595 0.0029522153
0.0035758228 -0.008035681 -0.0026041851 0.025565436 0.008839453 0.00791145 0.0079607805 0.04454292
00000000: 906d 053b 52eb f2bb 8aba 483c f9dd 20bd
00000010: ff4a 3fbb 3284 923a 3a8e fbba 4fa5 21bb
00000020: a318 f039 fb3e 11bb a664 803b e1ae 053d
00000030: 7ef4 a83b 4817 a23b 75f1 d03b 4654 373c
00000040: 6310 3b3a 2c46 2abb d463 eb39 36f4 15bd
00000050: f62e 8b3b 7a77 1a3c 3f73 223b 47f7 323d
00000060: 0754 0b3c c0c0 123b 7936 673a e5a0 1b3d
00000070: b4ec f83b c0f4 a53b 8cff e13b ea25 313d
00000080: ed57 363c d710 883b 06f0 933b 8398 d13a
00000090: 1381 0639 713e 983b f224 0a3b 0335 883d
000000a0: 6e52 ea39 5bd3 09bb e9e7 02bb 0157 a13c
000000b0: e4ed 43ba 4be1 8e3b ad71 bb3b 44ac a4bd
000000c0: 0264 513b 4562 c03a dbbe 043c f848 e738
000000d0: 2e0c 763b a066 7dbb 346d 573c f479 413b
000000e0: 5a58 6a3b 17a8 03bc faaa 2abb 9b6e d13c
000000f0: 5ad3 103c 079f 013c ef6d 023c a372 363d

attention_blocks.0.attention_blocks.1.layer_norm.weight f4 [16]
1.3345823 1.1189547 0.9937761 1.2878504 1.4080192 1.3057339 1.2831526 0.98566556
1.2042153 1.163704 1.2614042 1.4708534 1.075314 1.3711259 1.0326912 1.2776747
00000000: 98d3 aa3f e839 8f3f 1c68 7e3f 48d8 a43f
00000010: f939 b43f 4a22 a73f 583e a43f 9454 7c3f
00000020: ba23 9a3f 41f4 943f b175 a13f ed44 bc3f
00000030: e4a3 893f 0e81 af3f 3a2f 843f d88a a33f

attention_blocks.0.attention_blocks.1.layer_norm.bias f4 [16]
0.10334419 -0.07073197 -0.045417342 -0.019075718 0.06442128 0.06701307 0.07303146 0.09223245
-0.028270205 0.14113438 -0.12433852 -0.067747325 -0.070170656 0.06048571 0.046109263 -0.12449445
00000000: 1ea6 d33d ecdb 90bd 8907 3abd ae44 9cbc
00000010: 4eef 833d 263e 893d 8591 953d 5ee4 bc3d
00000020: eb96 e7bc 8885 103e 32a5 febd 1cbf 8abd
00000030: a2b5 8fbd ddbf 773d 11dd 3c3d f2f6 febd

attention_blocks.0.attention_blocks.1.W_k.weight f4 [4, 16]
0.14813294 -0.19801612 -0.042599116 0.009731474 0.07979104 0.22423536 0.2788559 0.09928191
-0.09492522 0.22812885 -0.26385292 -0.38979137 -0.028985118 0.16920346 0.07427976 -0.19754103
0.08658523 -0.115125656 -0.10230876 -0.055031765 0.073195115 0.38781092 0.30235934 0.030075107
-0.14403988 0.19037493 -0.14106509 -0.40255135 -0.031527083 0.19282618 0.024828594 -0.23194338
0.27888778 -0.1711642 -0.08125473 0.11485802 0.13636294 0.18328358 0.12046625 0.09180395
0.0024277768 0.25622025 -0.33570305 -0.28733572 -0.046558607 -0.041486356 0.053098302 -0.3125243
-0.038086113 -0.081131466 -0.06564182 -0.2300029 0.0448252 0.54810244 0.50792843 -0.029989578
-0.31660792 0.020969374 -0.0738812 -0.378536 -0.03280262 0.5249379 -0.025863996 -0.07463148
00000000: 29b0 173e bdc4 4abe 697c 2ebd c370 1f3c
00000010: 7c69 a33d f49d 653e 33c6 8e3e 5054 cb3d
00000020: 2768 c2bd 9c9a 693e bb17 87be bc92 c7be
00000030: 3372 edbc ac43 2d3e fd1f 983d 3248 4abe
00000040: 9953 b13d 00c7 ebbd 4187 d1bd fd68 61bd
00000050: 52e7 953d 278f c63e d8ce 9a3e 1260 f63c
00000060: 317f 13be a5f1 423e 5e73 10be 361b cebe
00000070: 8b22 01bd 3a74 453e 5665 cb3c 9182 6dbe
00000080: 61ca 8e3e ab45 2fbe e168 a6bd ae3a eb3d
00000090: baa2 0b3e b1ae 3b3e 02b7 f63d b603 bc3d
000000a0: 561b 1f3b 4d2f 833e 45e1 abbe ab1d 93be
000000b0: 3db4 3ebd 99ed 29bd 9b7d 593d 2f03 a0be
000000c0: 2f00 1cbd 4128 a6bd 386f 86bd e185 6bbe
000000d0: a19a 373d 7150 0c3f 9907 023f b4ac f5bc
000000e0: 6f1a a2be f7c7 ab3c 074f 97bd 78cf c1be
000000f0: 0a5c 06bd 5562 063f bbe0 d3bc 64d8 98bd

attention_blocks.0.attention_blocks.1.W_q.weight f4 [4, 16]
0.30134806 -0.13208292 0.038809296 0.26489598 0.4375534 -0.0896975 -0.09482258 0.07217003
0.08387225 0.12256645 -0.195512 0.33846322 -0.06837481 -0.20119435 0.07426112 -0.23114203
0.3699204 -0.097128436 -0.018356271 0.30086342 0.46229407 -0.07115998 -0.033323783 0.072952226
-0.015661262 0.09718635 -0.13664332 0.28585786 -0.10079052 -0.15826254 -0.007912983 -0.22890767
0.2655757 -0.22122481 0.045303 0.45055366 0.26670212 -0.22429447 -0.17317238 0.14622986
0.17392601 0.18262872 -0.19136675 0.26994944 0.031954363 -0.40258893 0.096388526 -0.2357882
0.49592227 -0.021813324 -0.08763433 0.07704509 0.5873284 0.0020431704 0.118598156 0.064914696
-0.13328594 0.03326674 -0.046433907 0.339549 -0.23085937 -0.0098773595 -0.11822096 -0.15270297
00000000: 4b4a 9a3e bf40 07be 7ff6 1e3d 72a0 873e
00000010: 0007 e03e 53b3 b7bd 5732 c2bd e1cd 933d
00000020: 37c5 ab3d 1e04 fb3d 4c34 48be 0d4b ad3e
00000030: 1808 8cbd e405 4ebe 3716 983d 7fb0 6cbe
00000040: 3566 bd3e 46eb c6bd e45f 96bc c50a 9a3e
00000050: cfb1 ec3e 53bc 91bd 857e 08bd fa67 953d
00000060: 0c4c 80bc a309 c73d 3aec 0bbe f65b 923e
00000070: 436b cebd 930f 22be 75a5 01bc c666 6abe
00000080: 8af9 873e c288 62be a38f 393d f8ae e63e
00000090: 2e8d 883e 73ad 65be 1a54 31be 48bd 153e
000000a0: a919 323e 0603 3b3e a5f5 43be d036 8a3e
000000b0: 94e2 023d 2320 cebe 5967 c53d 7672 71be
000000c0: 86e9 fd3e dbb1 b2bc a179 b3bd d1c9 9d3d
000000d0: 275b 163f b6e6 053b 97e3 f23d fff1 843d
000000e0: 1c7c 08be b542 083d 7b31 3ebd 5ed9 ad3e
000000f0: 6666 6cbe a6d4 21bc d51d f2bd 2b5e 1cbe

attention_blocks.0.attention_blocks.1.W_v.weight f4 [4, 16]
-0.012449889 0.009639452 0.017546043 -0.0018646725 0.01909994 0.020320907 0.02885428 -0.018100027
0.012705213 0.007755113 -0.024481358 0.00050890836 0.016423238 -0.022749504 -0.00070927385 0.023151638
-0.010356445 0.011563948 0.013232376 -0.025197307 0.011911351 -0.015453564 0.013403783 -0.03937136
-0.0018407056 -0.010420103 -0.011493182 -0.015131777 0.03795358 -0.007971752 0.021686414 -0.025365297
0.011011436 -0.042328384 0.053667344 0.05934802 0.017524235 -0.033041894 -0.04048773 -0.004116912
0.09833212 -0.039841715 0.009520108 0.05909368 0.07293987 -0.027333112 0.004962417 0.012779311
-0.0017047788 0.02826643 0.0237802 0.018292898 0.0081293415 -0.024387768 0.0072722426 -0.015383321
-0.026678588 0.00829473 -0.0060082576 -0.011196279 -0.033184066 0.009235638 0.02715366 0.014748146
00000000: 9ffa 4bbc cbee 1d3c b8bc 8f3c 0768 f4ba
00000010: 7a77 9c3c 0878 a63c d05f ec3c 8246 94bc
00000020: 8729 503c 9a1e fe3b 218d c8bc 4368 053a
00000030: 078a 863c 2b5d babc 90ee 39ba 81a8 bd3c
00000040: 14ae 29bc b776 3d3c 9ccc 583c 956a cebc
00000050: d427 433c f230 7dbc 8a9b 5b3c dd43 21bd
00000060: d543 f1ba 14b9 2abc e64d 3cbc 46eb 77bc
00000070: 3775 1b3d f49b 02bc b5a7 b13c e2ca cfbc
00000080: 4f69 343c 8760 2dbd 4ad2 5b3d e916 733d
00000090: fc8e 8f3c f056 07bd 76d6 25bd 29e7 86bb
000000a0: 5a62 c93d 1131 23bd 3afa 1b3c 370c 723d
000000b0: 8061 953d b1e9 dfbc c59b a23b 5160 513c
000000c0: e272 dfba 008f e73c b2ce c23c fdda 953c
000000d0: ee30 053c dbc8 c7bc fe4b ee3b 530a 7cbc
000000e0: 0e8d dabc 9fe6 073c ebe0 c4bb 9970 37bc
000000f0: 04ec 07bd 1351 173c 5a71 de3c 35a2 713c

attention_blocks.0.attention_blocks.1.W_o.weight f4 [16, 4]
-0.01125999 -0.013981781 -0.04577375 -0.010783014 -0.011169951 -0.0036306456 0.008046024 -0.00033306426
-0.0011670636 -0.010775879 9.964137e-05 0.0011684961 -0.0018348875 -0.011399604 0.09990877 0.0010664049
0.0025603692 -0.000739284 0.067160405 0.003928679 -0.00960671 0.0010194673 -0.018032758 -0.0005283187
0.0019961337 0.001549358 0.015141043 0.0078277355 -0.0042868955 -0.008872161 -0.030624475 -0.00023725582
0.0075155525 -0.0026598359 0.008384057 0.00048325496 -0.010132477 0.00038005487 -0.033295475 0.0041413875
0.011406977 -0.0034026073 0.017413484 0.005699584 -0.007925689 -0.0045373486 0.100656934 0.0013917148
-0.011374874 -0.008339976 0.013820708 -0.0031049224 0.0063294503 -0.016206872 -0.011666626 -0.0043006255
0.023289463 -0.009539924 -0.007415741 0.008239053 -0.0123098465 -0.004362504 0.036662556 -0.001050052
00000000: d27b 38bc d713 65bc 417d 3bbd 3dab 30bc
00000010: 2c02 37bc 20f0 6dbb 78d3 033c 219f aeb9
00000020: 28f8 98ba 508d 30bc 8ef6 d038 3928 993a
00000030: 9c80 f0ba 68c5 3abc f89c cc3d 9cc6 8b3a
00000040: decb 273b 82cc 41ba 658b 893d 26bc 803b
00000050: 7665 1dbc a59f 853a 6fb9 93bc de7e 0aba
00000060: 91d1 023b d413 cb3a 2312 783c e73f 003c
00000070: 1679 8cbb 8a5c 11bc 2ee0 fabc e0c7 78b9
00000080: 0645 f63b a450 2ebb 495d 093c 625d fd39
00000090: b002 26bc 1a42 c739 d660 08bd 7ab4 873b
000000a0: 54e4 3a3c 47fe 5ebb b9a6 8e3c 93c3 ba3b
000000b0: c0da 01bc 0aae 94bb 3925 ce3d 336a b63a
000000c0: ae5d 3abc 65a4 08bc 4070 623c f47b 4bbb
000000d0: 4767 cf3b 46c4 84bc 6025 3fbc 43ec 8cbb
000000e0: 8bc9 be3c 574d 1cbc bfff f2bb 18fd 063c
000000f0: 3daf 49bc 56f3 8ebb 7a2b 163d e6a1 89ba

attention_blocks.0.attention_blocks.2.layer_norm.weight f4 [16]
1.1096853 1.1183795 1.1245695 1.2772181 1.2415528 1.2525834 1.1619269 1.1342888
1.1359078 1.323143 1.2182876 1.3681339 1.0990772 1.3035719 1.1562333 1.2281975
00000000: 2b0a 8e3f 0f27 8f3f e5f1 8f3f e27b a33f
00000010: 34eb 9e3f a754 a03f 05ba 943f 6030 913f
00000020: 6d65 913f c05c a93f d9f0 9b3f 031f af3f
00000030: 90ae 8c3f 72db a63f 74ff 933f 9335 9d3f

attention_blocks.0.attention_blocks.2.layer_norm.bias f4 [16]
0.15465376 0.014110421 -0.083887234 -0.14352573 0.008226622 0.15668832 0.14643295 0.15408498
-0.085241996 0.152583 -0.04276125 -0.11259698 -0.12418297 0.20587076 -0.14584753 -0.15870747
00000000: 8e5d 1e3e 652f 673c 12cd abbd 69f8 12be
00000010: f4c8 063c e772 203e 85f2 153e 74c8 1d3e
00000020: 5b93 aebd b83e 1c3e 6c26 2fbd 3f99 e6bd
00000030: a453 febd c9cf 523e 0e59 15be 3684 22be

attention_blocks.0.attention_blocks.2.W_k.weight f4 [4, 16]
0.14805442 -0.18339036 -0.24035956 -0.25364313 0.13358225 0.14489694 0.08115502 0.14160453
-0.06600134 0.34977847 -0.18134937 -0.17706506 -0.1972571 0.22284406 -0.08410143 -0.23603785
0.14272879 -0.21653733 0.047131885 -0.27784765 0.14246872 0.12750132 0.07639879 0.12581286
0.008932187 0.24596012 -0.24992384 -0.22003688 -0.10971684 0.28973156 0.1271187 -0.26681995
0.13851587 -0.15773945 -0.120819926 -0.2948291 0.16019826 0.17669316 0.13665819 0.16412564
-0.032630343 0.28672346 -0.18235007 -0.09774553 -0.14598224 0.24192803 -0.040711045 -0.28614944
0.13228947 -0.20185135 -0.04692327 -0.31808528 0.15247454 0.17121631 0.032430667 0.16759697
-0.009880486 0.3239396 -0.21865794 -0.14142898 -0.14360823 0.27610573 0.063969426 -0.24812277
00000000: 949b 173e afca 3bbe d120 76be 83dd 81be
00000010: c9c9 083e dd5f 143e 9a34 a63d c700 113e
00000020: b62b 87bd 2a16 b33e a6b3 39be 8b50 35be
00000030: c4fd 49be 3c31 643e 5f3d acbd e8b3 71be
00000040: 7f27 123e f6bb 5dbe 5d0d 413d 0c42 8ebe
00000050: 52e3 113e b58f 023e f876 9c3d 16d5 003e
00000060: 4f58 123c f8dc 7b3e 09ec 7fbe 5951 61be
00000070: 39b3 e0bd b257 943e 682b 023e a09c 88be
00000080: 1bd7 0d3e 7386 21be 7070 f7bd d7f3 96be
00000090: 030b 243e 0def 343e 20f0 0b3e 8d10 283e
000000a0: 65a7 05bd 6bcd 923e fab9 3abe cf2e c8bd
000000b0: 5e7c 15be fbbb 773e a0c0 26bd 2e82 92be
000000c0: e476 073e 1fb2 4ebe 9d32 40bd 13dc a2be
000000d0: 4922 1c3e 5453 2f3e 05d6 043d 8a9e 2b3e
000000e0: c3e1 21bc 69db a53e dee7 5fbe c2d2 10be
000000f0: 090e 13be bb5d 8d3e 6702 833d e513 7ebe

attention_blocks.0.attention_blocks.2.W_q.weight f4 [4, 16]
0.32805547 -0.15462644 0.18618548 -0.17588401 0.20128132 -0.29573947 -0.11529904 0.18146461
0.022550542 0.38374156 -0.20785327 0.33190235 0.04616764 -0.20738164 0.17963201 -0.08611378
0.11593316 -0.041613497 0.19276872 -0.04347297 0.3729704 -0.24584013 -0.25211233 0.19426362
0.14890641 0.2392565 -0.2650366 0.44748905 -0.020250104 -0.20669708 0.1363214 -0.1931664
0.29410875 -0.07703979 0.27544752 -0.18082193 0.30173546 -0.29094568 -0.09586824 0.17103963
0.07518191 0.3131241 -0.23202743 0.31126398 0.012469715 -0.13330425 0.12100719 -0.15751614
0.18005909 -0.0978463 0.21853305 -0.17275363 0.29374295 -0.28770012 -0.20418702 0.22301002
0.09448413 0.26801848 -0.26073572 0.38545084 -0.01530146 -0.17169721 0.17478423 -0.091688864
00000000: e3f6 a73e 6556 1ebe 68a7 3e3e f01a 34be
00000010: b11c 4e3e 2a6b 97be e721 ecbd dcd1 393e
00000020: eabb b83c c679 c43e 7dd7 54be 1bef a93e
00000030: 471a 3d3d da5b 54be 74f1 373e 6c5c b0bd
00000040: 5d6e ed3d ea72 2abd 2a65 453e b710 32bd
00000050: faf5 be3e 84bd 7bbe de14 81be 0bed 463e
00000060: ec7a 183e a8ff 743e e1b2 87be 491d e53e
00000070: 8ce3 a5bc 66a8 53be d697 0b3e 6acd 45be
00000080: 6c95 963e 0ac7 9dbd 7507 8d3e 6229 39be
00000090: 127d 9a3e d5f6 94be 9156 c4bd 0325 2f3e
000000a0: f9f8 993d cd51 a03e 9998 6dbe fe5d 9f3e
000000b0: c74d 4c3c e980 08be 9ed2 f73d e94b 21be
000000c0: 6961 383e a463 c8bd 21c7 5f3e 54e6 30be
000000d0: 7a65 963e 6e4d 93be 6716 51be bd5c 643e
000000e0: e580 c13d b839 893e 277f 85be d059 c53e
000000f0: fab2 7abc 65d1 2fbe a3fa 323e 5fc7 bbbd

attention_blocks.0.attention_blocks.2.W_v.weight f4 [4, 16]
0.032574814 0.029986814 -0.07531177 -0.045904763 -0.022569057 0.053587776 0.03323977 0.046787176
-0.15784547 0.03996344 0.002895833 -0.076783195 -0.05453734 0.02809703 0.02288545 -0.025892023
-0.005425501 -0.018122498 0.019177109 -0.016245486 -0.008210526 -0.005937781 -0.004960773 0.0028473497
-0.03114264 0.013321288 0.00867909 0.0045397743 0.005648449 0.027037866 -0.016436255 0.0014158024
0.01189868 -0.013114454 0.017457312 0.035696846 -0.013719415 0.015174197 -0.031292535 0.015647894
0.03841388 -0.032445293 -0.017710293 -0.016127586 -0.00042780893 0.020256035 0.0012610229 0.00018835973
-0.008200666 -0.0071489788 0.030969998 0.04462681 0.0153848445 0.0004362581 0.0005404773 0.007269804
0.02346994 0.010796086 -0.0048708143 0.016509285 0.035879444 0.028215935 0.006055672 0.044785146
00000000: 2b6d 053d e8a6 f53c 0f3d 9abd a206 3cbd
00000010: bee2 b8bc db7e 5b3d 6d26 083d e9a3 3f3d
00000020: 3ea2 21be b4b0 233d 04c8 3d3b 8240 9dbd
00000030: 8c62 5fbd be2b e63c 447a bb3c 821b d4bc
00000040: 67c8 b1bb a275 94bc 5019 9d3c 4115 85bc
00000050: 7185 06bc b891 c2bb fb8d a2bb 9a9a 3a3b
00000060: da1e ffbc 8841 5a3c be32 0e3c 63c2 943b
00000070: a016 b93b 847e dd3c 53a5 86bc 7292 b93a
00000080: aef2 423c 02de 56bc a302 8f3c db36 123d
00000090: 66c7 60bc 329d 783c 9a2c 00bd 0330 803c
000000a0: df57 1d3d 5be5 04bd 2d15 91bc 001e 84bc
000000b0: 8b4b e0b9 fcef a53c e848 a53a 6e82 4539
000000c0: 165c 06bc fb41 eabb cbb4 fd3c 9aca 363d
000000d0: b710 7c3c 92b9 e439 d1ae 0d3a 8937 ee3b
000000e0: 0844 c03c 11e2 303c 5a9b 9fbb 7b3e 873c
000000f0: 53f6 123d 1b25 e73c a96e c63b a170 373d

attention_blocks.0.attention_blocks.2.W_o.weight f4 [16, 4]
0.1524771 0.0020142128 -0.022506887 -0.009686747 -0.0550379 0.0015095483 0.047824927 0.038187075
-0.055881973 0.003640574 0.002175367 0.03534968 0.07609147 0.0044731824 -0.010868153 0.0011704218
0.0034660941 0.0020627128 0.016207438 -0.0026754595 0.04180617 0.003180582 -0.02699525 0.009613991
0.03451934 -0.0016618224 0.021580849 -0.01087741 -0.024083251 0.00043172695 -0.016807795 -0.002995384
-0.037824936 -0.0019850826 0.010354182 0.0010541604 0.037220106 -1.6888078e-05 0.01204297 -0.0049302406
-0.0064348434 0.0037916256 0.0054275477 0.028245471 -0.16720507 0.0031245186 0.017778276 0.03877057
-0.03251048 0.0013098943 0.011894088 0.039599534 0.017553665 0.0051775593 -0.028513493 0.0009134945
-0.038568527 0.0019539893 0.007752277 -0.021629205 -0.03596917 -0.001599739 0.015097782 0.0010016125
00000000: f522 1c3e e200 043b 5d60 b8bc 29b5 1ebc
00000010: 6c6f 61bd 09dc c53a 12e4 433d 0d6a 1c3d
00000020: 7fe4 64bd b296 6e3b 9a90 0e3b d3ca 103d
00000030: d8d5 9b3d c693 923b 5610 32bc d768 993a
00000040: 6927 633b 942e 073b 76c5 843c c356 2fbb
00000050: f23c 2b3d 5071 503b 2425 ddbc 0084 1d3c
00000060: 2764 0d3d 82d1 d9ba 52ca b03c 2a37 32bc
00000070: 3d4a c5bc 6959 e239 80b0 89bc 344e 44bb
00000080: 52ee 1abd 2918 02bb 96a4 293c c12b 8a3a
00000090: 1c74 183d dfaa 8db7 e14f 453c db8d a1bb
000000a0: 61db d2bb ec7c 783b 92d9 b13b 0c63 e73c
000000b0: ce37 2bbe b9c4 4c3b bfa3 913c e4cd 1e3d
000000c0: b629 05bd c2b0 ab3a 6cdf 423c 1f33 223d
000000d0: b4cc 8f3c 84a8 a93b 2195 e9bc 9477 6f3a
000000e0: 08fa 1dbd 800e 003b d006 fe3b bb2f b1bc
000000f0: 6954 13bd 55ae d1ba b05c 773c 8a48 833a

attention_blocks.0.attention_blocks.3.layer_norm.weight f4 [16]
1.2480783 1.1960366 1.1760947 1.343864 1.0460267 1.2456771 1.1882985 1.2040668
1.25053 1.2222025 1.1183047 1.244522 1.0355635 1.1171463 1.1769505 1.1344035
00000000: 08c1 9f3f ba17 993f 458a 963f bc03 ac3f
00000010: 34e4 853f 5972 9f3f 2a1a 983f dc1e 9a3f
00000020: 5e11 a03f 2271 9c3f 9c24 8f3f 7f4c 9f3f
00000030: 588d 843f a6fe 8e3f 50a6 963f 2234 913f

attention_blocks.0.attention_blocks.3.layer_norm.bias f4 [16]
0.03958513 0.019460624 -0.08802616 -0.108019404 0.10791511 0.10717375 0.11374667 0.051167563
-0.10042834 0.018587697 -0.08810444 -0.08899441 -0.088125505 0.04979167 -0.17315549 -0.010167762
00000000: 0424 223d e36b 9f3c 0f47 b4bd 4739 ddbd
00000010: 9902 dd3d e97d db3d 04f4 e83d 1495 513d
00000020: 60ad cdbd 3a45 983c 1a70 b4bd b442 b6bd
00000030: 257b b4bd 5af2 4b3d ac4f 31be af96 26bc

attention_blocks.0.attention_blocks.3.W_k.weight f4 [4, 16]
-0.094151884 0.0042871614 0.34659323 0.3502539 -0.06971539 -0.21607387 -0.2133394 -0.20263322
0.4138741 -0.22142646 0.12900504 0.06120362 0.10754123 -0.010663744 0.16624029 0.08426688
0.18570817 -0.18512394 0.03649596 -0.3797687 0.1700737 0.06802285 -0.0002934006 0.14912735
0.06414876 0.2868593 -0.26558062 -0.033978757 -0.08729503 0.11552511 0.0077579715 -0.26621014
0.0022182516 0.09913623 -0.4969536 -0.32477427 -0.029342134 0.33668548 0.3389892 0.18188347
-0.65840405 0.24063624 -0.028293047 -0.102371536 -0.22427751 -0.01588757 -0.29799467 0.059275664
0.12617368 -0.10813415 -0.1145497 -0.40394312 0.14731397 0.18926765 0.11879246 0.1309935
-0.17832297 0.29232854 -0.17233735 -0.034464393 -0.11387582 0.07820387 -0.087452516 -0.2028666
00000000: b4d2 c0bd 517b 8c3b ab74 b13e 7b54 b33e
00000010: f1c6 8ebd 7842 5dbe a575 5abe 157f 4fbe
00000020: 4ee7 d33e 9ebd 62be e619 043e a6b0 7a3d
00000030: 943e dc3d fcb6 2ebc e53a 2a3e 1d94 ac3d
00000040: 482a 3e3e 2191 3dbe ca7c 153d 0b71 c2be
00000050: cd27 2e3e 904f 8b3d 90d3 99b9 d7b4 183e
00000060: 6d60 833d 39df 923e 2ffa 87be 4f2d 0bbd
00000070: bdc7 b2bd 6e98 ec3d 9536 fe3b b24c 88be
00000080: 1660 113b f007 cb3d b470 febe d048 a6be
00000090: ea5e f0bc 0a62 ac3e fe8f ad3e a93f 3a3e
000000a0: 2b8d 28bf 5969 763e d2c6 e7bc 2ba8 d1bd
000000b0: 01a9 65be a626 82bc c292 98be 0acb 723d
000000c0: ac33 013e 7075 ddbd 0899 eabd a2d1 cebe
000000d0: 79d9 163e 61cf 413e 7649 f33d 2923 063e
000000e0: 4c9a 36be 16ac 953e 3479 30be 892a 0dbd
000000f0: ba37 e9bd 5a29 a03d 4e1a b3bd 43bc 4fbe

attention_blocks.0.attention_blocks.3.W_q.weight f4 [4, 16]
-0.466197 0.33228722 -0.12538089 0.17027028 -0.0640965 0.26369232 0.0549129 -0.27411917
0.12111966 -0.3523179 0.12784965 -0.24412195 -0.04834923 0.1997465 -0.23879641 0.034579147
0.1312585 -0.20756674 0.2241336 0.18689291 0.09320728 -0.27556923 -0.31359255 0.2744105
0.24243167 0.1206367 -0.30797666 0.33848304 -0.04568007 -0.23596674 0.2825962 -0.09127231
0.65082026 -0.4829959 0.017714543 -0.3055552 0.04821584 -0.18650977 0.09692134 0.25645077
-0.2811096 0.49440092 -0.011849956 0.24040861 0.0326334 -0.18320188 0.18635172 -0.014881066
0.30739182 -0.29819888 0.1281349 -0.021981766 0.10403294 -0.2520325 -0.15216556 0.29021218
0.08231997 0.23418045 -0.25103098 0.33645067 0.00039480964 -0.26894072 0.23893435 -0.06492809
00000000: 60b1 eebe 8d21 aa3e d963 00be 555b 2e3e
00000010: 0745 83bd ae02 873e 59ec 603d 5959 8cbe
00000020: 960d f83d 0363 b4be 05eb 023e 1bfb 79be
00000030: d809 46bd 598a 4c3e 0c87 74be dda2 0d3d
00000040: a168 063e 608c 54be 4783 653e db60 3f3e
00000050: 75e3 be3d 6917 8dbe 348f a0be 887f 8c3e
00000060: 0240 783e 6010 f73d 1eaf 9dbe a64d ad3e
00000070: 061b 3bbd 44a1 71be 73b0 903e faec babd
00000080: 289c 263f 3d4b f7be 171e 913c bb71 9cbe
00000090: f97d 453d 6bfc 3ebe b27e c63d 844d 833e
000000a0: 99ed 8fbe 1e22 fd3e 5126 42bc ad2d 763e
000000b0: 9aaa 053d 4699 3bbe fcd2 3e3e b7cf 73bc
000000c0: 7662 9d3e 86ad 98be cc35 033e 1b13 b4bc
000000d0: 390f d53d 670a 81be 4ad1 1bbe b196 943e
000000e0: 5f97 a83d 00cd 6f3e 2287 80be 4343 ac3e
000000f0: 74fe ce39 99b2 89be 35ab 743e 05f9 84bd

attention_blocks.0.attention_blocks.3.W_v.weight f4 [4, 16]
0.007132218 0.0014048258 -0.057474505 -0.0732316 0.023714751 0.010421009 0.019755369 0.011777114
-0.05331172 -0.030654093 -0.041626878 -0.037615974 -0.027607568 0.02796569 0.011081224 -0.013612359
-0.0025943497 0.016558634 -0.12678276 -0.08523663 -0.003957026 0.044076297 0.033921797 0.011392889
-0.10602157 0.0025597713 -0.022257602 -0.0816246 -0.07127681 0.08656008 0.017452115 0.004853752
0.020626953 0.043214295 0.10159499 0.07482258 -0.003117792 -0.10307325 -0.073420145 -0.0056383484
0.102389544 -0.014107707 0.052312456 0.09446119 0.024038944 -0.053608064 0.031473126 0.00253161
0.03330135 0.037957583 -0.060119458 -0.092580155 0.008401841 0.018725784 0.020219045 0.032542296
-0.009321493 0.029135447 -0.039296377 -0.08870262 -0.019227901 0.043452047 -0.012916113 -0.0059338585
00000000: 62b5 e93b 2222 b83a 636a 6bbd 73fa 95bd
00000010: 7045 c23c e1bc 2a3c 03d6 a13c ccf4 403c
00000020: 645d 5abd 4b1e fbbc f280 2abd 3513 1abd
00000030: 4429 e2bc 4d18 e53c 068e 353c 5f06 5fbc
00000040: f705 2abb f9a5 873c 57d3 01be 8b90 aebd
00000050: f1a9 81bb 5989 343d 95f1 0a3d 3da9 3a3c
00000060: d621 d9bd d6c1 273b 9355 b6bc cc2a a7bd
00000070: 93f9 91bd 6946 b13d bdf7 8e3c 390c 9f3b
00000080: dbf9 a83c 7901 313d 0911 d03d 953c 993d
00000090: df53 4cbb 1118 d3bd 4d5d 96bd e5c1 b8bb
000000a0: 9cb1 d13d 0324 67bc 9645 563d de74 c13d
000000b0: 52ed c43c 2194 5bbd f7e9 003d 5ee9 253b
000000c0: ff66 083d 6979 1b3d d23f 76bd aa9a bdbd
000000d0: e0a7 093c d166 993c 69a2 a53c 124b 053d
000000e0: 2db9 18bc 76ad ee3c 3df5 20bd b8a9 b5bd
000000f0: d583 9dbc c6fa 313d 1b9e 53bc d070 c2bb

attention_blocks.0.attention_blocks.3.W_o.weight f4 [16, 4]
-0.00066368113 0.09219552 -0.0586751 -7.4319854e-05 -0.08847038 -0.09974303 0.047809143 -0.061407253
-0.048705306 -0.084985785 0.050105523 -0.05212977 0.08528588 0.08347032 -0.12650375 0.08812577
0.02217 0.020467274 -0.035829663 0.0059508537 0.03537482 0.036844935 -0.02121911 0.04235052
0.04390852 0.0388563 -0.018596705 0.0319696 0.0074516167 0.004958861 0.018105187 0.059927396
-0.07173828 -0.027901547 0.063913986 -0.057109304 0.034451924 0.06187688 -0.040314984 0.037937485
-0.011525188 0.0056976173 -0.0021910227 -0.03577759 -0.066238165 -0.21591127 0.16505767 -0.06608272
-0.007299614 -0.06058513 0.047127735 -0.020370984 -0.0032888043 0.027377479 -0.03260296 -0.004976921
0.009321109 0.009749568 -0.007676614 0.024330232 -0.00348565 -0.006369096 0.017949458 0.018634122
00000000: e3fa 2dba 01d1 bc3d 4d55 70bd 2bdc 9bb8
00000010: f52f b5bd 1346 ccbd 85d3 433d 2c86 7bbd
00000020: 377f 47bd 070d aebd 733b 4d3d 0786 55bd
00000030: 5daa ae3d 7df2 aa3d 338a 01be 497b b43d
00000040: dc9d b53c fcaa a73c 20c2 12bd 61ff c23b
00000050: 30e5 103d b7ea 163d b3d3 adbc bd77 2d3d
00000060: 6cd9 333d c927 1f3d 1e58 98bc 8ef2 023d
00000070: b12c f43b f17d a23b 5451 943c 6e76 753d
00000080: 85eb 92bd c991 e4bc 56e5 823d 72eb 69bd
00000090: 761d 0d3d 9c72 7d3d 5321 25bd 5664 1b3d
000000a0: 24d4 3cbc 14b3 ba3b 4397 0fbb 868b 12bd
000000b0: e0a7 87bd d817 5dbe e104 293e 6156 87bd
000000c0: 9a31 efbb 1d28 78bd 0309 413d 0de1 a6bc
000000d0: fb88 57bb bc46 e03c ae8a 05bd 7015 a3bb
000000e0: 91b7 183c a7bc 1f3c 1b8c fbbb 3250 c73c
000000f0: 816f 64bb dab3 d0bb be0a 933c 96a6 983c

attention_blocks.1.attention_blocks.0.layer_norm.weight f4 [16]
1.184847 1.1424611 1.2630734 1.2709124 1.9239694 1.1168889 1.2051612 1.8793324
1.2901654 1.2132573 1.3592615 1.3212279 1.3501723 1.175529 1.2430241 1.2410927
00000000: 11a9 973f 2a3c 923f 64ac a13f 42ad a23f
00000010: a144 f63f 37f6 8e3f b942 9a3f f78d f03f
00000020: 2424 a53f 044c 9b3f 48fc ad3f ff1d a93f
00000030: 72d2 ac3f bc77 963f 6a1b 9f3f 20dc 9e3f

attention_blocks.1.attention_blocks.0.layer_norm.bias f4 [16]
-0.08370557 0.065263055 -0.018613413 -0.07702709 0.037104007 0.07218407 0.044671953 0.03687632
-0.022019692 -0.070995 -0.037781965 0.026069567 -0.07707459 0.074335754 -0.07421049 0.027031302
00000000: d36d abbd a3a8 853d 287b 98bc 61c0 9dbd
00000010: 5ffa 173d 3ed5 933d f0f9 363d a00b 173d
00000020: a462 b4bc d465 91bd 43c1 1abd d88f d53c
00000030: 48d9 9dbd 583d 983d abfb 97bd c070 dd3c

attention_blocks.1.attention_blocks.0.W_k.weight f4 [4, 16]
0.18730548 0.08852742 0.15775433 -0.32305744 0.5275247 -0.14707726 -0.036463507 0.57595485
-0.08773004 -0.17043999 -0.29490757 0.23920125 -0.09836469 -0.037438106 0.0065310444 -0.30441672
-0.08541717 0.053837676 -0.22266728 -0.063783154 0.41178265 0.11836655 0.16148439 0.37666672
-0.17789896 -0.07270342 -0.22176808 0.09390652 -0.04506939 0.091327734 -0.06119919 -0.08577011
0.08774045 -0.09766648 0.31927404 -0.026560858 -0.43515846 -0.17044273 -0.16727051 -0.30857
0.2083191 0.065398514 0.16666721 -0.08474924 0.10127481 -0.09371539 0.074803986 0.08208376
0.14235115 -0.08792125 0.31179705 -0.04926074 -0.3447305 -0.19812827 -0.2205054 -0.2625288
0.17591779 0.050236527 0.11324663 -0.03775759 0.10648416 -0.08966433 0.088696696 0.045357477
00000000: 02cd 3f3e dd4d b53d 5a8a 213e c967 a5be
00000010: dc0b 073f 6c9b 16be c25a 15bd c771 133f
00000020: cfab b3bd d287 2ebe 20fe 96be 2cf1 743e
00000030: 6d73 c9bd b358 19bd 5f02 d63b 82dc 9bbe
00000040: 32ef aebd e584 5c3d e402 64be bea0 82bd
00000050: 2dd5 d23e 296a f23d 2a5c 253e 76da c03e
00000060: 252b 36be 88e5 94bd 2c17 63be 1052 c03d
00000070: ae9a 38bd 090a bb3d 00ac 7abd 3da8 afbd
00000080: 44b1 b33d 5d05 c8bd e377 a33e 2896 d9bc
00000090: 17cd debe 8a88 2ebe f648 2bbe e3fc 9dbe
000000a0: 9a51 553e a8ef 853d cfaa 2a3e 0291 adbd
000000b0: 2b69 cf3d dbed bfbd d532 993d 881b a83d
000000c0: 80c4 113e 0e10 b4bd dda3 9f3e a1c5 49bd
000000d0: 8480 b0be 23e2 4abe 2bcc 61be 2d6a 86be
000000e0: cb23 343e d1c4 4d3d d9ed e73d b4a7 1abd
000000f0: 5e14 da3d efa1 b7bd 9da6 b53d c3c8 393d

attention_blocks.1.attention_blocks.0.W_q.weight f4 [4, 16]
0.06315878 -0.11906271 0.17905818 0.19937322 0.43799108 -0.16969591 -0.13207015 0.6931016
0.14991103 -0.071667455 -0.19463342 0.3463193 0.0075672646 -0.26900515 -0.0029936465 -0.2254738
0.073436186 -0.2006152 0.17616785 0.3251729 0.23625875 -0.18293798 -0.25770187 0.24273932
0.29994893 0.0032921839 -0.1718077 0.052507997 0.28461936 -0.2994681 0.15614292 -0.20132042
-0.02094947 0.18201733 -0.26373005 -0.3120855 -0.2686993 0.15508841 0.24632142 -0.042961754
-0.39159894 0.021170601 0.22158186 0.09907967 -0.42604855 0.33860606 -0.2062069 0.17974171
-0.015196883 0.1577995 -0.22084312 -0.23569024 -0.16406971 0.1424647 0.21299566 0.1412837
-0.35273474 0.019072684 0.1737668 0.19695432 -0.43237892 0.23556302 -0.22883205 0.14084807
00000000: 6459 813d 26d7 f3bd 075b 373e 7e28 4c3e
00000010: 5e40 e03e c4c4 2dbe 663d 07be 1b6f 313f
00000020: 4782 193e 63c6 92bd fc4d 47be c350 b13e
00000030: d1f6 f73b 0bbb 89be 0e31 44bb 9be2 66be
00000040: b665 963d 126e 4dbe 5865 343e 107d a63e
00000050: d0ed 713e 1854 3bbe 80f1 83be a890 783e
00000060: e892 993e aec1 573b 5cee 2fbe a012 573d
00000070: a1b9 913e e253 99be eee3 1f3e f126 4ebe
00000080: 399e abbc c062 3a3e a007 87be acc9 9fbe
00000090: f492 89be 7fcf 1e3e af3b 7c3e aaf8 2fbd
000000a0: a87f c8be f86d ad3c 5be6 623e 48ea ca3d
000000b0: 0923 dabe c65d ad3e e727 53be 360e 383e
000000c0: 59fc 78bc 3196 213e b324 62be c858 71be
000000d0: e401 28be 44e2 113e 891b 5a3e adac 103e
000000e0: a699 b4be 513e 9c3c edef 313e 65ae 493e
000000f0: c560 ddbe 6f37 713e f352 6abe 7a3a 103e

attention_blocks.1.attention_blocks.0.W_v.weight f4 [4, 16]
0.32337275 -0.3520778 0.057897497 0.27211127 -0.35644177 -0.29823077 -0.24986544 -0.13128142
0.06198165 0.47491693 0.03459645 0.38644943 0.5345422 -0.35708693 0.5675506 -0.1444834
-0.21454786 0.18907914 0.06945984 -0.1673755 0.43211496 0.17593907 0.07867285 0.17675418
0.10104356 -0.3466027 -0.08007923 -0.37215415 -0.5416489 0.17792429 -0.48587468 0.061465934
0.17510727 -0.15619425 -0.13365741 0.08958687 -0.44023564 -0.15016933 0.0072283377 -0.18461199
-0.15509291 0.3653465 0.13661504 0.36515298 0.47828466 -0.1225071 0.39394826 -0.014529931
-0.39786458 0.3062233 -0.119726405 -0.264681 0.40166286 0.27062035 0.25665474 0.22740763
-0.069521084 -0.49685043 -0.06363093 -0.31394735 -0.5159221 0.28976727 -0.52292687 0.102299966
00000000: 1d91 a53e 8b43 b4be ed25 6d3d 2b52 8b3e
00000010: 897f b6be b4b1 98be badc 7fbe a36e 06be
00000020: 78e0 7d3d 5028 f33e 02b5 0d3d b3dc c53e
00000030: c2d7 083f 19d4 b6be ff4a 113f 75f3 13be
00000040: 6fb2 5bbe f69d 413e f640 8e3d 7c64 2bbe
00000050: 2c3e dd3e 5f29 343e 3b1f a13d 0cff 343e
00000060: edef ce3d e975 b1be 9400 a4bd fd8a bebe
00000070: 81a9 0abf c931 363e 91c4 f8be b4c3 7b3d
00000080: 524f 333e 63f1 1fbe 7ddd 08be 5279 b73d
00000090: 9166 e1be fdc5 19be b1db ec3b ed0a 3dbe
000000a0: add0 1ebe b20e bb3e d0e4 0b3e 55f5 ba3e
000000b0: bae1 f43e 01e5 fabd 96b3 c93e f30e 6ebc
000000c0: e8b4 cbbe 4dc9 9c3e 1e33 f5bd 4584 87be
000000d0: c1a6 cd3e c08e 8a3e 4068 833e 8cdd 683e
000000e0: 1261 8ebd 2e63 febe ef50 82bd b5bd a0be
000000f0: 7913 04bf 605c 943e 89de 05bf a582 d13d

attention_blocks.1.attention_blocks.0.W_o.weight f4 [16, 4]
-0.044212937 0.30218717 -0.6784326 0.06359985 0.18909363 -0.2029733 0.19652483 -0.2983638
-0.25550592 0.4867905 -0.6137305 0.23400874 0.3329622 -0.6271858 0.8015128 -0.5782429
0.08091857 -0.15451565 0.1645901 -0.28281605 0.23537143 -0.2607166 0.29017755 -0.35791788
0.46616143 -0.70874566 0.84939164 -0.57568645 0.25695232 -0.4463668 0.5884359 -0.3803166
-0.20776682 0.3271212 -0.5024712 0.17230299 -0.13859308 0.46383822 -0.7752347 0.22485921
0.23369022 -0.2557817 0.26473826 -0.34106308 -0.18582812 0.38123405 -0.6440832 0.17633483
-0.21034278 0.3305407 -0.51387906 0.1315115 0.21520491 -0.25420213 0.25735155 -0.33990017
-0.19979453 0.44582114 -0.6693124 0.18300527 0.23555188 -0.273859 0.28194425 -0.33950645
00000000: a018 35bd 47b8 9a3e c2ad 2dbf a340 823d
00000010: c3a1 413e 3cd8 4fbe ce3d 493e 24c3 98be
00000020: acd1 82be 9b3c f93e 711d 1dbf fd9f 6f3e
00000030: 057a aa3e 408f 20bf f12f 4d3f ba07 14bf
00000040: a3b8 a53d 5a39 1ebe 4f8a 283e 44cd 90be
00000050: 3505 713e a57c 85be 2792 943e 0341 b7be
00000060: b6ac ee3e 5b70 35bf bb71 593f 3060 13bf
00000070: 418f 833e 308a e4be bca3 163f dbb8 c2be
00000080: d3c0 54be 6e7c a73e f4a1 00bf 3270 303e
00000090: 58eb 0dbe 347c ed3e c875 46bf 7e41 663e
000000a0: 7d4c 6f3e d2f5 82be c68b 873e d29f aebe
000000b0: ba49 3ebe 1c31 c33e a3e2 24bf 1e91 343e
000000c0: 1964 57be a13c a93e 948d 03bf f3aa 063e
000000d0: ad5e 5c3e c826 82be 95c3 833e 6507 aebe
000000e0: f096 4cbe ab42 e43e 0f58 2bbf bc65 3b3e
000000f0: 8334 713e 3f37 8cbe ff5a 903e cad3 adbe

attention_blocks.1.attention_blocks.1.layer_norm.weight f4 [16]
1.174644 1.181339 1.1892778 1.2805119 1.224265 1.1924193 1.2143047 1.176001
1.1617509 1.2638589 1.23071 1.2996546 1.2066451 1.1765099 1.1794147 1.1956477
00000000: bc5a 963f 1e36 973f 413a 983f d0e7 a33f
00000010: b7b4 9c3f 32a1 983f 566e 9b3f 3387 963f
00000020: 41b4 943f 21c6 a13f e887 9d3f 155b a63f
00000030: 5973 9a3f e097 963f 10f7 963f fc0a 993f

attention_blocks.1.attention_blocks.1.layer_norm.bias f4 [16]
0.031325046 -0.017044162 0.048514295 0.0022225124 -0.024571916 -0.05149224 -0.0070031784 -0.016245326
0.023214024 0.017801594 0.078542426 -0.0058881366 0.094794795 -0.033611983 0.026229309 0.010216782
00000000: b14e 003d 33a0 8bbc edb6 463d 92a7 113b
00000010: 0b4b c9bc 87e9 52bd eb7a e5bb eb14 85bc
00000020: 562b be3c a6d4 913c dada a03d 45f1 c0bb
00000030: c623 c23d b8ac 09bd d9de d63c 4a64 273c

attention_blocks.1.attention_blocks.1.W_k.weight f4 [4, 16]
-0.0058330614 -0.09249088 0.029174995 0.31986415 -0.14820097 -0.03624719 -0.19077289 -0.17113179
0.049506836 0.16303009 0.11303327 -0.25993326 0.0146582015 -0.10249243 0.09661793 0.16453105
0.048393343 -0.1594441 0.06674741 0.3105547 -0.079857275 -0.12739198 -0.17702891 -0.15489869
0.08879992 0.22111805 0.10157365 -0.23424633 0.10097307 -0.089634866 0.107806265 0.10839925
-0.10144454 0.203095 -0.12176768 -0.16318637 0.061936546 0.145635 0.14375843 0.07933597
-0.11501478 -0.27434748 -0.07728967 0.12665094 -0.13207676 0.1441279 -0.15276828 -0.08621731
-0.07031919 0.15019053 -0.054561682 -0.25460222 0.11759981 0.1217608 0.18413301 0.120693445
-0.080236524 -0.23707385 -0.09026198 0.21767235 -0.11883111 0.13804561 -0.13176055 -0.10473901
00000000: 4423 bfbb dc6b bdbd 6600 ef3c 3cc5 a33e
00000010: ffc1 17be ef77 14bd f859 43be 2c3d 2fbe
00000020: aec7 4a3d 5cf1 263e fd7d e73d f915 85be
00000030: f428 703c 8de7 d1bd 9fdf c53d d47a 283e
00000040: 1938 463d 5045 23be deb2 883d 0701 9f3e
00000050: 368c a3bd 0b73 02be 1147 35be c39d 1ebe
00000060: bcdc b53d c56c 623e d905 d03d 45de 6fbe
00000070: f8ca ce3d 7c92 b7bd 88c9 dc3d 6d00 de3d
00000080: 28c2 cfbd 23f8 4f3e 5561 f9bd 541a 27be
00000090: 2db1 7d3d 5721 153e 6935 133e e67a a23d
000000a0: de8c ebbd 4677 8cbe 0c4a 9ebd c9b0 013e
000000b0: 213f 07be 4496 133e 4a6f 1cbe b392 b0bd
000000c0: 8203 90bd 8ccb 193e 127c 5fbd 395b 82be
000000d0: 2bd8 f03d ba5d f93d 5d8d 3c3e 202e f73d
000000e0: 0c53 a4bd 7dc3 72be 46db b8bd 80e5 5e3e
000000f0: ba5d f3bd d45b 0d3e 3dec 06be 6881 d6bd

attention_blocks.1.attention_blocks.1.W_q.weight f4 [4, 16]
-0.27600172 0.18268697 -0.4159876 -0.05421483 -0.5188191 0.26465768 0.18117361 -0.5094176
-0.10911755 -0.16082563 0.36747152 -0.014031106 -0.09328707 0.22574663 -0.122244194 0.35415223
-0.14970466 0.12635113 -0.34988967 -0.15381896 -0.17529058 0.1561075 0.13702743 -0.2592894
-0.17774951 -0.17452194 0.29026774 0.2582223 -0.15764123 0.15603863 -0.14573856 0.18722048
0.10542518 -0.16632082 0.2593219 0.25254792 -0.100983344 -0.11999597 -0.14537193 0.062958285
0.19265951 0.12867086 -0.16740616 -0.41709659 0.20518109 -0.159695 0.21156816 -0.10932157
0.14668393 -0.15586989 0.37488216 0.20005596 0.070620894 -0.1677076 -0.17682269 0.24475223
0.20639463 0.108599186 -0.25002143 -0.29161236 0.19863763 -0.10804532 0.1233214 -0.19059166
00000000: 1950 8dbe 4b12 3b3e 54fc d4be 5f10 5ebd
00000010: 54d1 04bf 3681 873e 9385 393e 3169 02bf
00000020: 0679 dfbd 79af 24be 3a25 bc3e b9e2 65bc
00000030: 4b0d bfbd 202a 673e 2a5b fabd 7153 b53e
00000040: 2e4c 19be 3162 013e bd24 b3be b882 1dbe
00000050: 607f 33be a5da 1f3e eb50 0c3e 95c1 84be
00000060: f803 36be e1b5 32be f99d 943e b735 843e
00000070: b46c 21be 97c8 1f3e 7d3c 15be bab6 3f3e
00000080: 28e9 d73d 0150 2abe d7c5 843e f64d 813e
00000090: 5bd0 cebd 72c0 f5bd 61dc 14be 46f0 803d
000000a0: 8948 453e 4bc2 033e 856c 2bbe af8d d5be
000000b0: fe1a 523e 1687 23be 53a5 583e fde3 dfbd
000000c0: 5034 163e 5b9c 1fbe 8ef0 bf3e 78db 4c3e
000000d0: b0a1 903d 8bbb 2bbe 0211 35be 54a0 7a3e
000000e0: 1d59 533e 4069 de3d cf02 80be 374e 95be
000000f0: aa67 4b3e dd46 ddbd ee8f fc3d 762a 43be

attention_blocks.1.attention_blocks.1.W_v.weight f4 [4, 16]
-0.35392627 0.4090516 -0.2637613 -0.41931164 0.23092759 0.37926555 0.43873912 0.14194714
-0.40315366 -0.51747984 0.026165398 -0.045040812 -0.49885908 0.40447828 -0.527291 0.15154944
0.13703749 -0.25343218 0.1457711 0.233163 -0.1554992 -0.3036178 -0.25667894 -0.07628205
0.23797852 0.3445265 0.038173623 0.03551934 0.4113636 -0.21048558 0.36807615 -0.06506811
-0.22602548 0.35494474 -0.1598237 -0.31613028 0.18257748 0.37678996 0.3664697 0.08183361
-0.31434774 -0.39839932 -0.034995347 -0.08106018 -0.4546887 0.35332385 -0.4395821 0.13531262
-0.24182118 0.41931173 -0.25794643 -0.3295557 0.21741599 0.3760617 0.3706074 0.065731764
-0.33451703 -0.488803 0.008713716 -0.03938848 -0.5175864 0.38229838 -0.5093928 0.13994703
00000000: d335 b5be 366f d13e b90b 87be 04b0 d6be
00000010: 4878 6c3e 182f c23e 6aa2 e03e 975a 113e
00000020: 286a cebe 8f79 04bf d158 d63c b77c 38bd
00000030: 756a ffbe c717 cf3e 8bfc 06bf c72f 1b3e
00000040: 8e53 0c3e ddc1 81be 0545 153e 48c2 6e3e
00000050: 2f3b 1fbe cb73 9bbe 6c6b 83be c339 9cbd
00000060: a4b0 733e c765 b03e f25b 1c3d ba7c 113d
00000070: 409e d23e 8889 57be 7a74 bc3e 6e42 85bd
00000080: 3973 67be 51bb b53e d3a8 23be d4db a1be
00000090: 97f5 3a3e 9dea c03e eba1 bb3e 6198 a73d
000000a0: 30f2 a0be fffa cbbe 4857 0fbd e102 a6bd
000000b0: f5cc e8be dde6 b43e e810 e1be 648f 0a3e
000000c0: f99f 77be 07b0 d63e 8e11 84be 86bb a8be
000000d0: 4ca2 5e3e 298b c03e 41c0 bd3e 609e 863d
000000e0: d145 abbe 6344 fabe f9c3 0e3c d155 21bd
000000f0: 8b80 04bf 9dbc c33e 9167 02bf 464e 0f3e

attention_blocks.1.attention_blocks.1.W_o.weight f4 [16, 4]
-0.1542072 0.116414316 -0.08115786 -0.15473713 -0.49828762 0.38384566 -0.41040412 -0.49055502
0.17341368 -0.09935113 0.16295294 0.18292177 -0.2969326 0.2527025 -0.23679744 -0.31189436
-0.6173621 0.5962806 -0.60363466 -0.5945229 -0.48762846 0.41478735 -0.47640085 -0.49911046
-0.18262132 0.16165859 -0.21152435 -0.21013877 -0.20068671 0.17876409 -0.13815919 -0.19911131
0.18156122 -0.16221619 0.12999766 0.16462864 -0.044660293 0.0020000276 -0.018260991 -0.057369594
-0.36829242 0.3622095 -0.41962934 -0.46161202 0.116355225 -0.10457167 0.14343709 0.14632703
0.14399046 -0.074193195 0.12705286 0.118880354 -0.54072404 0.5037817 -0.4920256 -0.54307085
0.08919985 -0.122579664 0.09162786 0.07761661 -0.43068108 0.34270495 -0.39014852 -0.44128284
00000000: 7ee8 1dbe a16a ee3d 1836 a6bd 6973 1ebe
00000010: 8e1f ffbe 6b87 c43e 7d20 d2be 072a fbbe
00000020: 5b93 313e 9b78 cbbd 23dd 263e d84f 3b3e
00000030: 8d07 98be 3962 813e 077b 72be 9eb0 9fbe
00000040: 710b 1ebf d8a5 183f cd87 1abf a732 18bf
00000050: 70aa f9be 025f d43e d0ea f3be 688b ffbe
00000060: 1501 3bbe d489 253e d799 58be 9e2e 57be
00000070: d180 4dbe ef0d 373e 9a79 0dbe d6e3 4bbe
00000080: 2feb 393e 001c 26be 1b1e 053e 6994 283e
00000090: b6ed 36bd e512 033b 1398 95bc 61fc 6abd
000000a0: d390 bcbe 8673 b93e a8d9 d6be 6958 ecbe
000000b0: a64b ee3d ac29 d6bd 2ce1 123e c1d6 153e
000000c0: 3c72 133e 9af2 97bd 251a 023e 8b77 f33d
000000d0: e46c 0abf d6f7 003f c8ea fbbe b106 0bbf
000000e0: 69ae b63d 0c0b fbbd 63a7 bb3d 75f5 9e3d
000000f0: 3b82 dcbe 0677 af3e 8cc1 c7be d3ef e1be

attention_blocks.1.attention_blocks.2.layer_norm.weight f4 [16]
1.0570259 1.1504885 1.21936 1.1143043 1.2074188 1.1511773 1.1892582 1.0669651
1.1899561 1.1570864 1.1585033 0.91455054 1.226245 1.1351161 1.1633955 1.0368865
00000000: a04c 873f 3543 933f fd13 9c3f 86a1 8e3f
00000010: b38c 9a3f c759 933f 9d39 983f 5092 883f
00000020: 7b50 983f 681b 943f d649 943f fc1f 6a3f
00000030: 99f5 9c3f 7c4b 913f 25ea 943f b2b8 843f

attention_blocks.1.attention_blocks.2.layer_norm.bias f4 [16]
-0.03270791 0.037172038 -0.014960502 -0.040330574 0.0012978821 0.030274613 0.018784963 0.0014438241
-0.03471065 -0.03318501 0.080598265 -0.004766199 -0.01860558 0.020950738 0.030224817 0.028013358
00000000: bbf8 05bd b541 183d e51c 75bc ac31 25bd
00000010: b21d aa3a 7702 f83c ece2 993c b33e bd3a
00000020: c12c 0ebd 01ed 07bd b410 a53d c62d 9cbb
00000030: bb6a 98bc e2a0 ab3c 099a f73c 457c e53c
