trained_model_12_3_5_2.pth (torch, 98977 bytes, 51 tensors)

inp_embedding.weight f4 [115, 12]
0	0x3d23f7d0	0.040031254
1	0x3ddfe523	0.10932376
2	0x3d9b5918	0.07585353
3	0xbeb621c2	-0.3557263
4	0xbe348772	-0.17629793
5	0xbc736aff	-0.014857053
6	0x3f014762	0.50499547
7	0xbe2d28ad	-0.16910048
8	0x3e389868	0.18026888
9	0xbe097565	-0.13423689
10	0xbdcfb4f7	-0.10141938
11	0x3f0befc8	0.5466275
12	0x3e5de893	0.21670751
13	0x3dd2f778	0.10301107
14	0xbe500e03	-0.20317845
15	0xbeb355fc	-0.35026538
16	0xbea44e33	-0.3209091
17	0xbcdee3f4	-0.027208306
18	0x3e93b0d3	0.28845844
19	0xbe532f2b	-0.20623462
20	0xbe0564c0	-0.13026714
21	0x3ca4b9b2	0.020108078
22	0x3d37eb66	0.044902228
23	0x3e95051a	0.29105455
24	0x3d20585d	0.03914677
25	0x3e19fd08	0.1503793
26	0xbea7d442	-0.32779127
27	0xbee011f6	-0.43763703
28	0xbf3ea42f	-0.74469274
29	0xbf2199e4	-0.63125443
30	0x3e884861	0.2661772
31	0x3e95ff51	0.29296353
32	0x3ea787db	0.32720837
33	0x3eb3f8b9	0.35150698
34	0x3d8aacef	0.06771266
35	0xbe8cc0e7	-0.27490923
36	0x3e5367e2	0.20645097
37	0xbe1cd177	-0.1531428
38	0x3e81590c	0.2526325
39	0x3f5c5fa4	0.86083436
40	0xbec6255e	-0.38700384
41	0xbe1133e7	-0.14179955
42	0xbe874f82	-0.26427847
43	0x3f14fe6f	0.58200735
44	0x3e706f50	0.23479962
45	0xbe49f914	-0.19723922
46	0xbe1c95bb	-0.15291493
47	0x3d40ad77	0.04704043
48	0x3e77a561	0.24184181
49	0x3f078bd7	0.52947754
50	0xbc13e55c	-0.0090268515
51	0xbce1d7f9	-0.027568804
52	0xbf10611b	-0.5639817
53	0xbd840aed	-0.064473964
54	0x3dac1fe9	0.08404524
55	0xbe0824e5	-0.13295324
56	0x3e8bd0dd	0.27307788
57	0x3f198eca	0.59983504
58	0xbdc53244	-0.09628728
59	0x3e7fc08d	0.24975796
60	0xbe967cbb	-0.29392037
61	0x3ebe6a98	0.371907
62	0xbe82fa88	-0.25581765
63	0xbecf52d3	-0.40492877
64	0xbd917e90	-0.07104218
65	0x3dcc816d	0.099856235
66	0xbda13047	-0.07870536
67	0x3f4c047c	0.7969434
68	0xbe1fbc23	-0.15599112
69	0xbda25e1d	-0.07928107
70	0x3e6a4399	0.22877349
71	0x3e966360	0.29372692
72	0x3ce83a39	0.028348075
73	0xbe56b33e	-0.20966813
74	0x3f1491d3	0.5803501
75	0x3dd5c7b3	0.1043848
76	0x3e45f8b2	0.19333151
77	0x3e2f8c44	0.17143351
78	0xbe33f247	-0.1757289
79	0x3d0a5fd8	0.03378281
80	0x3dfe0543	0.12403347
81	0xbe4ec193	-0.2019103
82	0x3e7c530b	0.24641053
83	0x3eb0ad1e	0.34507078
84	0x3da6ca5d	0.081440665
85	0xbefaecc6	-0.4900877
86	0x3f00cc3f	0.50311655
87	0x3ecb5948	0.39716554
88	0x3d70ba8c	0.058771655
89	0x3ccc71d4	0.024956621
90	0xbef2941d	-0.47378626
91	0xbcc8a844	-0.024494298
92	0xbe7b70e8	-0.24554789
93	0xbc52786e	-0.0128460955
94	0x3f0c5e35	0.5483125
95	0x3d956774	0.07295123
96	0x3dff7201	0.124729164
97	0x3d4d3be3	0.05010594
98	0xbe99e4fb	-0.3005751
99	0xbe396303	-0.18104176
100	0xbbb271c3	-0.0054456904
101	0xbd3580c2	-0.044312246
102	0xbc054be2	-0.008135768
103	0x3d0698c0	0.032860518
104	0x3ea9eaa4	0.3318683
105	0x3f26ce01	0.65158087
106	0xbdbda41e	-0.092598185
107	0xbef1bbcd	-0.47213593
108	0x3ce5b98d	0.02804258
109	0x3dbdbd58	0.0926463
110	0xbe4f596c	-0.20248955
111	0xbe6fb7b3	-0.2340992
112	0xbeb5396f	-0.3539538
113	0x3e3bf192	0.1835387
114	0x3de8c777	0.1136617
115	0x3e16841e	0.14698836
116	0xbeb6887b	-0.35651
117	0xbe79e729	-0.24404587
118	0xbd8ceb84	-0.068808585
119	0xbdd83c29	-0.1055835
120	0x3e013ae8	0.12620127
121	0xbf48ad44	-0.7838938
122	0x3e21dffe	0.15808102
123	0xbc21f93c	-0.009886082
124	0xbe8eb762	-0.27874285
125	0xbe7ea352	-0.2486699
126	0xbec26263	-0.37965688
127	0x3ecc2733	0.39873657
128	0x3efa1db3	0.48850784
129	0x3d1e0c32	0.03858585
130	0x3ed3aa55	0.4134089
131	0x3d31f1ac	0.043443367
132	0x3d71212c	0.058869526
133	0x3e8bcccf	0.27304694
134	0xbcab0554	-0.020876564
135	0xbea7985a	-0.32733423
136	0xbdba4765	-0.09095649
137	0xbba512b0	-0.005037628
138	0x3e67012d	0.22559042
139	0x3f201132	0.6252624
140	0xbe385777	-0.18002115
141	0x3dd2c977	0.102923326
142	0x3f06d53d	0.52669126
143	0xbe53aa1d	-0.20670362
144	0x3f592d09	0.84834343
145	0xbf1e4d07	-0.61836284
146	0xbe8e9f9a	-0.2785614
147	0x3e25a31a	0.161755
148	0xbdc6d6f5	-0.097089685
149	0xbcdf943a	-0.02729236
150	0xbe8b701b	-0.27233967
151	0xbd303028	-0.043014675
152	0x3eabf2b0	0.33583593
153	0xbe763365	-0.24043043
154	0xbea4b7d8	-0.32171512
155	0x3ebc0138	0.3671968
156	0xbcd1519b	-0.025551608
157	0x3eb4ba3f	0.35298344
158	0xbe431a11	-0.19052912
159	0xbd3c5c6e	-0.045986585
160	0xbea20c68	-0.3165009
161	0x3e21caf2	0.15800074
162	0x3eeb9d30	0.46018362
163	0x3f8fb03d	1.1225659
164	0x3d8607ad	0.06544433
165	0x3c336c33	0.01095109
166	0xbd6b38a4	-0.057427064
167	0xbe452419	-0.19252051
168	0xbdf4e976	-0.11958592
169	0x3e4747a8	0.19460928
170	0x3f0e4696	0.55576456
171	0xbe82ac5c	-0.25522125
172	0x3e6ff601	0.23433687
173	0xbea187f8	-0.31549048
174	0x3ce92cea	0.0284638
175	0xbe38941d	-0.1802525
176	0x3eaf74d2	0.34268814
177	0xbee6e530	-0.4509673
178	0x3e00f8d4	0.1259492
179	0xbe377c93	-0.17918615
180	0xbe8d1330	-0.275537
181	0x3dc51015	0.09622208
182	0x3d9f7b66	0.07787208
183	0xbf0f8082	-0.5605546
184	0x3db09f6b	0.086241566
185	0xbe999651	-0.29997495
186	0xbe65033e	-0.22364518
187	0x3ed55392	0.41665322
188	0xbe3c6f27	-0.18401776
189	0xbdd2d609	-0.1029473
190	0x3cf5ba93	0.029996192
191	0xbe2a4396	-0.16627344
192	0x3e3c63df	0.18397473
193	0x3f0572ac	0.521281
194	0xbe67d08e	-0.22638151
195	0x3e9b0dfd	0.3028411
196	0xbe7701ee	-0.2412183
197	0xbf1a4fb3	-0.6027786
198	0x3ed861da	0.42262155
199	0xbd14a7b8	-0.03629276
200	0x3ddfa978	0.109209955
201	0xbe2e880b	-0.17044084
202	0xbf049bb0	-0.5180006
203	0xbea099b2	-0.3136726
204	0x3ec2e5c1	0.38065913
205	0xbece2e37	-0.40269634
206	0x3ee1f1f0	0.44129896
207	0xbe5f3d47	-0.21800719
208	0xbdd4574d	-0.10368214
209	0x3d00b501	0.03142262
210	0x3c9ca459	0.019121336
211	0x3e8f7ec2	0.28026396
212	0xbd8385fc	-0.0642204
213	0x3e8d70bc	0.27625072
214	0xbe820549	-0.25394657
215	0xbcd2ed3a	-0.025747884
216	0x3e43bd19	0.19115104
217	0x3e9ebbc2	0.31002623
218	0x3f0c5532	0.548175
219	0xbd07b4a8	-0.03313127
220	0x3e8bf077	0.27331898
221	0xbe88dbd2	-0.2673021
222	0xbec9a307	-0.39382192
223	0xbf114bac	-0.5675609
224	0x3dbf9903	0.093553565
225	0x3e8238fd	0.25434104
226	0xbeb68d49	-0.35654667
227	0x3c51a556	0.012795767
228	0x3da25273	0.07925882
229	0xbe37101e	-0.17877242
230	0x3ec4dc79	0.38449457
231	0xbe66bb46	-0.22532377
232	0xbe9804ae	-0.2969107
233	0xbd983533	-0.07432022
234	0x3dab8790	0.08375466
235	0x3d8fbd24	0.070184976
236	0xbe3a7b90	-0.18211198
237	0x3e9bcb48	0.3042853
238	0x3df9f4ec	0.12204918
239	0xbe59e2fd	-0.21277995
240	0x3da08bfe	0.078392014
241	0xbd848d8f	-0.06472313
242	0xbee6d67c	-0.45085514
243	0x3e8c434c	0.27395093
244	0xbdb10f98	-0.086455524
245	0xbe9dab94	-0.30794966
246	0x3e15b559	0.1461996
247	0xbe3568bc	-0.17715734
248	0xbd55648c	-0.052097842
249	0xbe0af5db	-0.13570349
250	0xbdbcd3ba	-0.09220071
251	0x3e06246f	0.13099836
252	0xbc3e8d1b	-0.011630322
253	0xbeb88c12	-0.36044365
254	0x3e427591	0.1899016
255	0x3f0e5bb0	0.55608654

attention_blocks.0.attention_blocks.0.layer_norm.weight f4 [12]
0	0x3f834114	1.0254235
1	0x3f7dff72	0.99217904
2	0x3f860017	1.0468777
3	0x3f93e719	1.15549
4	0x3f7ec5ea	0.9952074
5	0x3f940ad4	1.1565804
6	0x3f82dae9	1.0223056
7	0x3f9396f4	1.1530442
8	0x3f923146	1.1421287
9	0x3fa1d932	1.2644408
10	0x3f8ea9bf	1.1145552
11	0x3f80f6e1	1.0075341

attention_blocks.0.attention_blocks.0.layer_norm.bias f4 [12]
0	0x3c4089fe	0.01175165
1	0x3d2a4724	0.04157175
2	0x3bc2b868	0.005942393
3	0xbc63c52a	-0.013901988
4	0xbd8ec211	-0.06970609
5	0xbd696fdb	-0.05699144
6	0x3d79e6b9	0.06101105
7	0x3d8a9de0	0.067683935
8	0xba5c0766	-0.00083934364
9	0xbd567d91	-0.052365843
10	0xbd949f8e	-0.07256995
11	0x3c5b80e1	0.013397426

attention_blocks.0.attention_blocks.0.W_k.weight f4 [4, 12]
0	0xbd1f9f21	-0.038970117
1	0xbe9faf3e	-0.31188387
2	0xbe64f7d3	-0.22360162
3	0x3ea4aa42	0.32161146
4	0xbe7cd870	-0.2469194
5	0xbe5cb392	-0.21552876
6	0xbecd290f	-0.40070388
7	0x3f006010	0.5014658
8	0x3f2f270d	0.6841896
9	0x3ddd9791	0.108199246
10	0x3e8e1a91	0.27754644
11	0x3c8da533	0.017290687
12	0x3eb4442a	0.35208255
13	0xbf040670	-0.5157232
14	0xbdc643fc	-0.09680936
15	0xbebd6f97	-0.369992
16	0x3ed8ac09	0.42318752
17	0xbf213ed6	-0.62986505
18	0xbef13d04	-0.47116864
19	0x3e8fa9e3	0.280593
20	0x3e93e6f5	0.28887144
21	0xbef51a97	-0.4787185
22	0x3f36fdfc	0.714813
23	0xbe94a70d	-0.290337
24	0xbe5980d3	-0.21240549
25	0xbca60f1c	-0.020270877
26	0xbea644d5	-0.3247439
27	0x3e5435e9	0.2072369
28	0xbd342318	-0.04397878
29	0x3e2c0fb0	0.1680286
30	0x3db5c5d6	0.08875625
31	0xbd30eb0e	-0.043192916
32	0xbe5aacba	-0.21354952
33	0x3eb52bc2	0.35384947
34	0x3f45640e	0.77105796
35	0xbe7082bd	-0.23487373
36	0xbeb18e17	-0.34678718
37	0xbe55c51d	-0.20875974
38	0x3eeff3a8	0.46865582
39	0xbed11fed	-0.4084467
40	0x3db6fa0e	0.08934413
41	0xbf4bcbf1	-0.79608065
42	0x3dfa8c33	0.12233772
43	0x3db89551	0.09012855
44	0xbe50034f	-0.20313762
45	0xbdab4a27	-0.08363753
46	0xbd3b48f5	-0.045723874
47	0xbda68583	-0.08130934

attention_blocks.0.attention_blocks.0.W_q.weight f4 [4, 12]
0	0xbd018613	-0.031622004
1	0xbe1316e6	-0.14364204
2	0x3deb411a	0.114870265
3	0xbbfb8a69	-0.007676412
4	0x3ea75db4	0.32688677
5	0xbf2ca360	-0.6743679
6	0x3db0b4d2	0.08628239
7	0xbe79a070	-0.24377608
8	0x3f34f1d1	0.7068148
9	0x3e729a6e	0.23691723
10	0xbddd230b	-0.107976995
11	0xbbabe741	-0.0052460735
12	0xbd820b26	-0.06349783
13	0xbea54dcf	-0.32285926
14	0x3ed4978a	0.41521865
15	0xbf00213f	-0.5005073
16	0xbe88930c	-0.26674688
17	0x3c157943	0.009123149
18	0x3ed9bbb3	0.42526016
19	0xbc8ac61a	-0.016940165
20	0x3e548c3c	0.2075662
21	0xbed0fa53	-0.40815982
22	0x3d2597fb	0.040428143
23	0x3e28f198	0.1649841
24	0x3efa0f73	0.48839912
25	0x3ef72fea	0.48278743
26	0x3ee876aa	0.45403033
27	0x3da00001	0.07812501
28	0x3d862538	0.06550068
29	0x3da4881d	0.08033774
30	0xbdbfb429	-0.09360535
31	0xbdeb9f35	-0.11504976
32	0xbee4f1e4	-0.44715798
33	0xbe91d46b	-0.28482375
34	0xbd88c837	-0.06678813
35	0xbecf53ee	-0.4049372
36	0xbe2f3c15	-0.17112763
37	0x3dc37759	0.09544248
38	0xbf2753e8	-0.65362406
39	0xbdb7fe64	-0.08984068
40	0xbf109c07	-0.5648808
41	0xbe0c7740	-0.13717365
42	0x3ec683d2	0.38772446
43	0x3f1abc7a	0.6044384
44	0x3e63bc87	0.22239886
45	0xbe994276	-0.29933518
46	0xbd993b3f	-0.074820034
47	0x3cb75745	0.02238048

attention_blocks.0.attention_blocks.0.W_v.weight f4 [4, 12]
0	0xbf11918f	-0.5686273
1	0xbf120984	-0.5704577
2	0x3e5e5c46	0.21714887
3	0x3e800706	0.25005358
4	0x3da0caa6	0.07851152
5	0xbeacf457	-0.33780167
6	0xbe62757e	-0.22115132
7	0xbebee617	-0.3728492
8	0xbe3b82d5	-0.18311627
9	0xbc8ccf0f	-0.017188577
10	0x3f07e081	0.5307694
11	0xbddda259	-0.10821981
12	0xbd57c67b	-0.05267952
13	0x3e80b629	0.25138977
14	0x3f080d53	0.5314533
15	0xbf1a1e98	-0.6020293
16	0xbd575cfd	-0.052578915
17	0xbe27515a	-0.16339627
18	0xbe701e99	-0.23449172
19	0x3e27a449	0.16371264
20	0xbe119aec	-0.14219254
21	0xbc825a34	-0.015912153
22	0x3e8da2ce	0.27663273
23	0xbeddc60c	-0.4331516
24	0xbdbc813c	-0.09204337
25	0xbe017301	-0.12641527
26	0xbede8e38	-0.4346788
27	0x3da6ae01	0.08138657
28	0xbed7b823	-0.42132673
29	0x3e11380d	0.14181538
30	0x3e46ee87	0.19426928
31	0x3c79cb0d	0.015246165
32	0xbe941523	-0.28922376
33	0x3b13e3a4	0.0022566104
34	0xbd4f2898	-0.050575823
35	0x3def04d2	0.11670841
36	0xbe576bf6	-0.21037278
37	0xbedb4db4	-0.4283272
38	0xbe2bba7c	-0.16770357
39	0xbd019111	-0.031632487
40	0xbcbdd596	-0.023173135
41	0xbed62d7e	-0.41831583
42	0x3e965b44	0.29366505
43	0x3e0d7719	0.13814963
44	0x3d0a05b3	0.03369684
45	0x3e1cd8b5	0.15317042
46	0x3f0e9622	0.55697834
47	0xbe4521d3	-0.19251184

attention_blocks.0.attention_blocks.0.W_o.weight f4 [12, 4]
0	0xbd3372e1	-0.04381073
1	0xbe9b18fe	-0.30292505
2	0x3ea70d17	0.32627174
3	0x3e95503c	0.29162776
4	0xbe8bc610	-0.27299547
5	0xbd64b4cd	-0.055836488
6	0xbe8f9dbc	-0.2805003
7	0xbecb38e4	-0.39691842
8	0x3eece49e	0.4626817
9	0xbe17ca7e	-0.14823338
10	0xbe635eae	-0.22204086
11	0xbe14f7ee	-0.14547703
12	0x3e91e591	0.28495458
13	0x3e909e65	0.28245845
14	0xbeee62c0	-0.46559715
15	0xbe5f5300	-0.21809006
16	0xbc980bf4	-0.018560387
17	0x3e4c88c4	0.19974047
18	0x3e351e7e	0.17687413
19	0x3e7e4975	0.24832709
20	0x3cda088a	0.0266154
21	0x3ebbd3b2	0.36684948
22	0xbc69ad26	-0.014262473
23	0xbce4fc20	-0.027952254
24	0x3d81c9b4	0.063373
25	0xbd2a25f2	-0.041540094
26	0x3e9bccec	0.3042978
27	0xbf14491b	-0.5792405
28	0xbe940f16	-0.2891776
29	0x3e5a5d2d	0.21324606
30	0x3d227816	0.039665304
31	0x3e1049aa	0.140906
32	0x3df0f0fc	0.11764714
33	0xbe89ad92	-0.26890236
34	0x3f102c9c	0.5631807
35	0x3ea57d36	0.3232209
36	0x3eaef7bc	0.3417338
37	0xbea13d2e	-0.3149199
38	0xbd72ca6f	-0.059275087
39	0x3e096776	0.13418373
40	0xbe5a95c3	-0.21346192
41	0x3e20f1dd	0.15717264
42	0xbe2d8aca	-0.16947475
43	0xbe063de2	-0.13109544
44	0xbdff91bf	-0.12478971
45	0xbe2f3252	-0.1710904
46	0xbe6ec8d9	-0.23318805
47	0x3f042699	0.51621395

attention_blocks.0.attention_blocks.1.layer_norm.weight f4 [12]
0	0x3f8ba5e0	1.0909996
1	0x3f87413a	1.056678
2	0x3f6f1019	0.9338394
3	0x3f89a68f	1.0753955
4	0x3f8a7ade	1.0818746
5	0x3f8ea200	1.1143188
6	0x3f972528	1.1808214
7	0x3f8399dd	1.028133
8	0x3f8b80c8	1.0898676
9	0x3f8b9e36	1.0907657
10	0x3f9192e1	1.1372949
11	0x3fa42e32	1.2826598

attention_blocks.0.attention_blocks.1.layer_norm.bias f4 [12]
0	0xbd5ead20	-0.054364324
1	0x3d4fb9a1	0.05071414
2	0x3c951f8b	0.018203517
3	0xbcfa02d4	-0.030518927
4	0xbce222c2	-0.027604464
5	0x3d5ac62e	0.053411655
6	0xbbc49740	-0.0059994757
7	0xbd860229	-0.06543381
8	0x3b7f8a45	0.0038992327
9	0x3e21a45f	0.15785359
10	0x3d9db1f3	0.07699957
11	0x3d1b20cb	0.03787307

attention_blocks.0.attention_blocks.1.W_k.weight f4 [4, 12]
0	0xbeeeefb0	-0.46667242
1	0xbe48a814	-0.19595367
2	0xbe3a2309	-0.18177427
3	0x3d836258	0.06415242
4	0x3f43eaea	0.76530325
5	0x3e8da475	0.27664533
6	0xbf0d3901	-0.55165106
7	0xbee9f289	-0.45692852
8	0xbeec6e12	-0.46177727
9	0xbe282e80	-0.16423988
10	0xbc0a6431	-0.008446739
11	0x3d4c1829	0.04982773
12	0x3f26805e	0.6503962
13	0x3df20cb9	0.11818833
14	0x3d890b35	0.06691591
15	0x3d94e0aa	0.07269414
16	0xbe550641	-0.20803167
17	0x3f36fd10	0.7147989
18	0xbcd5e087	-0.02610804
19	0xbea2bb4c	-0.3178352
20	0xbdf643bf	-0.1202464
21	0xbdfe23fc	-0.12409207
22	0x3f297fc6	0.6621059
23	0x3c149cdb	0.0090706
24	0x3edadd0d	0.42746773
25	0x3e125d3f	0.14293383
26	0x3e9b6d66	0.30356902
27	0x3f0023fa	0.50054896
28	0x3c584197	0.013199232
29	0x3df37585	0.118876494
30	0xbede3122	-0.4339686
31	0x3f0a88a4	0.5411475
32	0xbefa2369	-0.4885514
33	0xbf07d914	-0.5306561
34	0xbcaf5613	-0.021403348
35	0x3e08740e	0.13325521
36	0xbebc44ad	-0.36771145
37	0xbee15a4d	-0.44014207
38	0x3da3f2e2	0.080053106
39	0x3ea2347d	0.3168067
40	0x3eceabe8	0.4036553
41	0xbdf50a9c	-0.11964914
42	0xbf2f658c	-0.68514323
43	0x3df6a4c2	0.12043144
44	0xbd4f8ead	-0.050673176
45	0xbda44156	-0.08020274
46	0xbea7182c	-0.3263563
47	0x3e67874a	0.22610202

attention_blocks.0.attention_blocks.1.W_q.weight f4 [4, 12]
0	0x3d6b22fa	0.057406403
1	0xbd9cc0db	-0.07653972
2	0x3e69fb1c	0.22849697
3	0x3ee1c53a	0.44095784
4	0xbe2839f9	-0.16428365
5	0x3db02220	0.08600259
6	0xbc75e172	-0.015007364
7	0x3d2ad95f	0.041711207
8	0xbedbe149	-0.42945316
9	0xbe617740	-0.22018147
10	0xbe32c3a1	-0.17457439
11	0x3f912163	1.1338314
12	0xbe810e7a	-0.25206357
13	0x3ee554ce	0.44791263
14	0x3ec2a87e	0.38019174
15	0xbe135e3c	-0.14391416
16	0xbe6a9cfd	-0.22911449
17	0xbcf36785	-0.029712448
18	0x3f409d1c	0.7523973
19	0x3d850417	0.06494921
20	0xbd846121	-0.06463838
21	0x3ebf1ad5	0.3732516
22	0xbefb7d2b	-0.49118933
23	0x3dc73ce3	0.0972841
24	0xbdb1608c	-0.08660993
25	0x3f1068a5	0.56409675
26	0x3e959e7f	0.29222485
27	0xbb923fde	-0.00446318
28	0xbebfeeec	-0.3748697
29	0xbed5d210	-0.41761827
30	0xbdd50264	-0.104008466
31	0x3e6f924a	0.23395649
32	0xbf14e353	-0.5815937
33	0x3e3e919c	0.18610233
34	0x3e6ca566	0.2310997
35	0x3c3cf979	0.011534088
36	0xbe4012db	-0.18757193
37	0x3c7df89f	0.01550117
38	0x3e8ba36a	0.27273113
39	0x3f0cc10a	0.54982054
40	0xbe60e57e	-0.21962544
41	0xbeb7246a	-0.3576997
42	0xbef1e651	-0.4724603
43	0x3eb95572	0.36198002
44	0x3cd79174	0.026314475
45	0xbee7e974	-0.45295298
46	0xbe3367a7	-0.17520009
47	0x3f4d315f	0.8015346

attention_blocks.0.attention_blocks.1.W_v.weight f4 [4, 12]
0	0xbef4c59a	-0.47807008
1	0x3eaf4f80	0.3424034
2	0xbe677c46	-0.22606
3	0xbe1e11e1	-0.15436508
4	0xbcc080ec	-0.023498975
5	0x3e8bde34	0.27317965
6	0xbe0ced84	-0.1376248
7	0xbf0f3743	-0.559437
8	0xbd921960	-0.07133746
9	0x3e278541	0.16359426
10	0xbe0a68f3	-0.13516597
11	0x3d45dd0d	0.048306514
12	0x3eafefc0	0.34362602
13	0xbe96b3b7	-0.29433987
14	0xbdad409c	-0.08459589
15	0xbc007a66	-0.007841682
16	0x3db108ed	0.086442806
17	0x3e14d2db	0.1453356
18	0xbdeebad2	-0.11656727
19	0x3d021c0e	0.031765036
20	0xbbc3c6b6	-0.005974616
21	0xbf179ef7	-0.59226936
22	0x3e06db31	0.13169552
23	0xbcd22d58	-0.025656387
24	0x3e25ee1c	0.16204113
25	0xbdbf9872	-0.093552485
26	0x3d80c525	0.06287602
27	0xbde09873	-0.109665774
28	0xbef12034	-0.47094882
29	0xbec42b73	-0.383144
30	0x3ee922b6	0.45534295
31	0xbe779b96	-0.24180445
32	0xbe157f14	-0.14599258
33	0xbe415f58	-0.18884027
34	0xbcd37bc3	-0.02581585
35	0xbd52f55e	-0.05150353
36	0x3ec93a73	0.39302406
37	0xbe1027f5	-0.14077742
38	0xbe899754	-0.26873267
39	0xbecf461b	-0.40483174
40	0xbe95627a	-0.29176694
41	0x3e161bcd	0.14659043
42	0x3d6d8938	0.05799219
43	0x3f249927	0.6429619
44	0x3e590110	0.21191812
45	0xbd368fa1	-0.04457057
46	0x3d81b50a	0.063333586
47	0xbdc7d1bb	-0.097568

attention_blocks.0.attention_blocks.1.W_o.weight f4 [12, 4]
0	0xbef0ab69	-0.47005776
1	0xbdf32d6f	-0.118739
2	0x3e05b381	0.13056757
3	0xbe987289	-0.29774883
4	0x3e55b837	0.20871054
5	0xbe3f868e	-0.18703672
6	0x3ba85c22	0.005137936
7	0xbeab4f19	-0.33458784
8	0xbd2be44a	-0.04196576
9	0x3deb29fa	0.11482616
10	0xbc183c60	-0.009291738
11	0x3e045cf8	0.1292609
12	0xbf28c2e5	-0.65922385
13	0x3dfee5ec	0.12446198
14	0xbcaeabac	-0.021322094
15	0x3f23bc18	0.63958883
16	0x3ed252bc	0.41078746
17	0x3e7a9add	0.24473138
18	0xbec26d55	-0.3797404
19	0xbd41c4ac	-0.0473067
20	0xbe63ca72	-0.22245196
21	0x3e851cbb	0.25998482
22	0x3ea17833	0.31537017
23	0xbe8b3464	-0.27188408
24	0xbf0aaf4b	-0.54173726
25	0x3f0cdab8	0.5502124
26	0x3c2f05f2	0.01068257
27	0xbde74f84	-0.11294463
28	0x3e30e5ac	0.17275113
29	0xbe8247cf	-0.2544541
30	0xbcd89fb0	-0.026443332
31	0xbd9ff7dd	-0.07810948
32	0x3ec85925	0.39130512
33	0xbd539b66	-0.05166187
34	0x3dfa5c10	0.12224591
35	0x3e782982	0.24234584
36	0x3defafd9	0.11703462
37	0xbf0fc48d	-0.5615929
38	0x3e7674d3	0.24068002
39	0x3dc56473	0.096383
40	0xbdcebc97	-0.100945644
41	0x3e332eea	0.17498365
42	0x3e535265	0.206369
43	0xbe2d9707	-0.16952144
44	0x3ecb3437	0.39688274
45	0xbe8f9f0b	-0.28051028
46	0x3d96b9c9	0.073596545
47	0xbd83b5ea	-0.06431182

attention_blocks.0.attention_blocks.2.layer_norm.weight f4 [12]
0	0x3f85bf39	1.0448982
1	0x3f9da668	1.2316408
2	0x3f8c0380	1.0938568
3	0x3f92844d	1.1446625
4	0x3f848cce	1.035547
5	0x3f836495	1.026507
6	0x3f86031b	1.0469698
7	0x3f874faa	1.0571187
8	0x3f80c7c5	1.0060965
9	0x3f8fe459	1.1241561
10	0x3f8031c3	1.0015186
11	0x3f949b1f	1.1609839

attention_blocks.0.attention_blocks.2.layer_norm.bias f4 [12]
0	0x3bedab47	0.007253084
1	0xbd32d7e8	-0.043662935
2	0xbd8e258d	-0.06940756
3	0xbb348f76	-0.002755133
4	0x3df784ca	0.120858744
5	0xbd2fa76b	-0.04288427
6	0xbdd3d6b1	-0.103436835
7	0xbd1d0f3f	-0.038344618
8	0x3d39acbc	0.045330748
9	0x3c95b450	0.018274456
10	0xbe5d400f	-0.21606468
11	0x3cf56d4f	0.029959349

attention_blocks.0.attention_blocks.2.W_k.weight f4 [4, 12]
0	0x3b6e3ec8	0.0036353339
1	0x3d4dd165	0.050248522
2	0xbe619054	-0.22027713
3	0x3e8b0121	0.271493
4	0x3d3cf1f8	0.046129197
5	0x3e643ce4	0.22288853
6	0x3f11acb2	0.5690414
7	0xbef55d70	-0.4792285
8	0xbf0c8c62	-0.5490171
9	0x3e873bb5	0.2641274
10	0x3edbd60a	0.42936736
11	0xbe926163	-0.28589925
12	0x3e65bf69	0.22436298
13	0xbf49501c	-0.7863786
14	0x3d4ac873	0.04950757
15	0xbdbd6a45	-0.09248785
16	0xbe8903ad	-0.26760617
17	0xbe9c27a2	-0.30498987
18	0x3e37da37	0.17954336
19	0x3dfe46c6	0.12415843
20	0xbd9c2df7	-0.076259546
21	0x3e22f5a6	0.1591402
22	0x3edb80b3	0.42871627
23	0xbea9edb0	-0.33189154
24	0x3e38480a	0.1799623
25	0xbe1b0ada	-0.15140858
26	0x3f163086	0.5866779
27	0x3e14bf47	0.14526092
28	0x3e4d1a4a	0.2002956
29	0x3d8e8f79	0.06960959
30	0xbf46969e	-0.77573574
31	0xbeee8efa	-0.46593457
32	0xbed5a20a	-0.41725188
33	0x3eaf876a	0.34283
34	0xbd43fe8d	-0.04785018
35	0x3ee05528	0.4381497
36	0xbdbb9f48	-0.0916124
37	0xbcbbee41	-0.022940757
38	0x3f17039c	0.5898988
39	0xbf05a0ef	-0.5219869
40	0x3db5f198	0.08883971
41	0x3f0521b6	0.52004564
42	0xbe5cbdcf	-0.21556781
43	0x3e39953c	0.18123335
44	0xbd70de77	-0.05880591
45	0xbf1aa9ec	-0.6041553
46	0x3e994ca9	0.299413
47	0xbeb14f51	-0.34630826

attention_blocks.0.attention_blocks.2.W_q.weight f4 [4, 12]
0	0x3da26f85	0.07931427
1	0xbe4a7154	-0.19769794
2	0x3f15ea15	0.58560306
3	0x3ca51f9c	0.020156674
4	0x3e084dd5	0.1331094
5	0xbed0777e	-0.40716165
6	0xbeea6c8d	-0.45785943
7	0xbb293584	-0.0025819251
8	0x3d28899a	0.041146852
9	0x3e314adf	0.17313717
10	0xbcc1bf68	-0.02365084
11	0xbeeccffb	-0.46252427
12	0x3e8a6416	0.27029485
13	0xbe19c711	-0.15017344
14	0xbe827581	-0.25480273
15	0x3b3cd5a5	0.0028813866
16	0xbed0a79a	-0.4075287
17	0x3ed294ce	0.41129154
18	0xbefb7fd2	-0.49120957
19	0x3df6c557	0.12049358
20	0x3e4d7e67	0.2006775
21	0x3ee6ec94	0.4510237
22	0xbef4e3fd	-0.4783019
23	0xbe8eaf51	-0.2786813
24	0xbe43242c	-0.19056767
25	0xbf29a981	-0.6627427
26	0xba8d8573	-0.0010797217
27	0x3e9324a5	0.28738895
28	0xbf0d7ab4	-0.55265355
29	0x3e1102b2	0.14161184
30	0x3e8e598a	0.27802688
31	0x3dd1f1ea	0.102512196
32	0xbe6c1681	-0.2305546
33	0x3ae1e988	0.0017235735
34	0x3f0930a9	0.53589875
35	0x3d9c6528	0.076364815
36	0x3eea383f	0.45746037
37	0x3d843044	0.064545184
38	0xbe799703	-0.24374013
39	0xbf203211	-0.62576395
40	0xbedf1937	-0.43573925
41	0xbc554ddf	-0.013019054
42	0x3f3d691b	0.73988503
43	0xbd975e65	-0.07391051
44	0x3df28bc4	0.118430644
45	0x3def283c	0.11677596
46	0x3e1a99a9	0.15097679
47	0x3f04e363	0.51909465

attention_blocks.0.attention_blocks.2.W_v.weight f4 [4, 12]
0	0x3f1472ab	0.5798747
1	0x3eefc4fb	0.46829972
2	0x3edac40b	0.42727694
3	0xbe39bd1e	-0.18138549
4	0xbe153868	-0.14572299
5	0x3ea775cf	0.32707068
6	0xbe2ebdbd	-0.17064567
7	0x3dd09c22	0.1018603
8	0x3c475b69	0.01216779
9	0xbede3cd6	-0.4340579
10	0x3f18d0c6	0.59693563
11	0xbd38fd6f	-0.045163568
12	0x3e2b1820	0.16708422
13	0x3e1d1257	0.15339027
14	0x3e7c9352	0.24665573
15	0x3d80233b	0.0625672
16	0xbd916638	-0.07099575
17	0xbee48f9f	-0.44640824
18	0x3e8748e6	0.26422805
19	0x3d261ee4	0.040556803
20	0xbe9aa8b2	-0.3020683
21	0x3e9a32b6	0.30116814
22	0x3eb62e64	0.35582268
23	0xbe67e597	-0.22646175
24	0xbdfaad14	-0.12240043
25	0xbd717006	-0.058944725
26	0x3df2fc58	0.11864537
27	0x3ce94a29	0.028477745
28	0x3d815d43	0.063166164
29	0x3d8b114f	0.06790411
30	0xbe1e7bf5	-0.15476973
31	0x3ec09587	0.3761408
32	0x3dce2747	0.10066085
33	0xbda4daf2	-0.08049573
34	0x3dfa8c92	0.12233843
35	0x3e4e92c4	0.20173174
36	0x3f098783	0.537224
37	0xbd27c8d0	-0.040962994
38	0xbe3731b0	-0.17890048
39	0x3e5cb64c	0.21553916
40	0x3e4f080c	0.20217913
41	0xbdf7c2ad	-0.12097678
42	0xbee7b200	-0.4525299
43	0xbf128132	-0.57228386
44	0x3d01a2ed	0.03164952
45	0xbca83944	-0.020535119
46	0xbcdc5c1d	-0.026899392
47	0x3e959374	0.2921406

attention_blocks.0.attention_blocks.2.W_o.weight f4 [12, 4]
0	0x3da3d028	0.07998687
1	0x3e1b2113	0.15149336
2	0x3e033a4d	0.12815209
3	0x3d52020c	0.051271483
4	0xbe9bd87b	-0.304386
5	0xbe09bc2a	-0.13450685
6	0x3f37a572	0.71736825
7	0xbdf9dbad	-0.12200103
8	0xbd41122b	-0.047136467
9	0x3e31e014	0.17370635
10	0x3d8760b1	0.06610239
11	0xbf262693	-0.6490261
12	0x3d9dd874	0.07707301
13	0x3d034cba	0.032055594
14	0x3e49e771	0.19717194
15	0x3e05bc94	0.13060218
16	0xbe264402	-0.1623688
17	0xbd41541e	-0.04719936
18	0xbeebedad	-0.4607977
19	0xbeb5e96b	-0.35529646
20	0x3ee44023	0.44580182
21	0xbe2582b4	-0.1616314
22	0x3ea5bd3a	0.3237093
23	0xbea27a39	-0.31733873
24	0x3da74fc3	0.0816951
25	0x3eb242f5	0.3481671
26	0x3c9de17d	0.01927256
27	0xbea51bf3	-0.32247886
28	0xbea8a67d	-0.3293952
29	0xbe2099b6	-0.15683636
30	0x3debd5d0	0.11515391
31	0x3e151dbe	0.14562127
32	0x3b14eaea	0.0022723028
33	0x3e331f3b	0.17492382
34	0xbe4f3deb	-0.20238464
35	0xbf058831	-0.52160937
36	0x3e43a02e	0.19104072
37	0xbf0e27ad	-0.5552929
38	0xbddd9403	-0.108192466
39	0xbe7a9abc	-0.24473089
40	0xbaccc235	-0.0015621843
41	0xbded6e2c	-0.11593279
42	0x3e6650b4	0.22491723
43	0xbd8871ee	-0.06662355
44	0x3e768308	0.24073422
45	0xbd922160	-0.07135272
46	0xbdba80dd	-0.0910661
47	0x3d7afb93	0.061275076

attention_blocks.1.attention_blocks.0.layer_norm.weight f4 [12]
0	0x3f959e73	1.168898
1	0x3fb13d8f	1.3846911
2	0x3f7d5a80	0.9896622
3	0x3f8cbebe	1.099571
4	0x3f8f69e1	1.1204187
5	0x3f8cdb5f	1.1004447
6	0x3f55b2b1	0.83475786
7	0x3f89e97f	1.0774382
8	0x3f69f700	0.9139252
9	0x3f97def1	1.1864911
10	0x3fa1ae5a	1.2631333
11	0x3f8fafa0	1.1225471

attention_blocks.1.attention_blocks.0.layer_norm.bias f4 [12]
0	0x3dc37902	0.09544565
1	0x3d4ec591	0.050481383
2	0x3d73cfb3	0.05952425
3	0xbcb7c665	-0.02243347
4	0x3cd6dd19	0.026228474
5	0xbe6a7f5d	-0.22900148
6	0x3d985bf0	0.07439411
7	0x3d85b906	0.06529431
8	0x3d86c5cc	0.065806955
9	0xbdc555a2	-0.09635474
10	0x3e43107e	0.1904926
11	0x3c7b8755	0.01535209

attention_blocks.1.attention_blocks.0.W_k.weight f4 [4, 12]
0	0xbf1913fb	-0.5979611
1	0xbf857abe	-1.0428083
2	0x3e4a7ea1	0.19774868
3	0xbed8b402	-0.42324835
4	0x3edab567	0.42716524
5	0x3d161719	0.03664312
6	0x3ecefad1	0.40425733
7	0x3eed9ac7	0.46407148
8	0x3e8395bc	0.25700176
9	0x3d97c455	0.07410494
10	0xbeba255d	-0.3635663
11	0xbf348f93	-0.70531577
12	0xbef6cd5a	-0.48203546
13	0xbc27e7ac	-0.010248106
14	0xbdee2115	-0.11627404
15	0xbe38a2ac	-0.18030804
16	0xbe66becd	-0.22533722
17	0x3f30e632	0.6910125
18	0xbed18284	-0.40919888
19	0xbb8efbdd	-0.0043635205
20	0xbe4c35e6	-0.19942436
21	0x3e92fe7c	0.2870978
22	0xbecc5b2c	-0.3991331
23	0x3d9a9096	0.07547109
24	0x3ce17641	0.027522208
25	0x3ef95165	0.48694912
26	0xbf397175	-0.72438747
27	0xbe0a2dca	-0.1349403
28	0xbe7bcf02	-0.24590686
29	0xbeb11c09	-0.34591702
30	0xbe260d03	-0.16215901
31	0xbe9c5947	-0.30536863
32	0xbe7b3525	-0.24531992
33	0x3e036326	0.12830791
34	0x3e858e89	0.26085308
35	0xbe1dbed0	-0.1540482
36	0x3ec49ff7	0.38403293
37	0xbea2cf5b	-0.31798825
38	0x3d15634a	0.036471643
39	0x3d65d54a	0.05611161
40	0xbe381a42	-0.17978767
41	0xbf014704	-0.50498986
42	0x3e11ada3	0.14226393
43	0xbea99460	-0.33121014
44	0x3e516c66	0.20451507
45	0x3f0e27e3	0.5552961
46	0xbec39dab	-0.3820623
47	0xbe8573d6	-0.26064938

attention_blocks.1.attention_blocks.0.W_q.weight f4 [4, 12]
0	0x3f4d3b4b	0.801686
1	0xbd888bad	-0.06667266
2	0xbed5ca31	-0.41755822
3	0xba40dd0b	-0.0007357157
4	0x3ec4e0e4	0.38452828
5	0xbcc60c4a	-0.024175782
6	0x3e3277d8	0.1742853
7	0x3e9e65d0	0.30937052
8	0x3eb167f7	0.3464963
9	0x3d84f5a5	0.064921655
10	0xbf7297bd	-0.94762784
11	0xbe4eb084	-0.20184523
12	0x3deee1b9	0.11664147
13	0x3f38257a	0.71932185
14	0x3d8fb7b7	0.07017463
15	0xbe2aea63	-0.16690974
16	0xbe2e966f	-0.17049573
17	0xbf19dd84	-0.6010363
18	0xbdee061b	-0.11622258
19	0x3ecf2432	0.40457302
20	0x3eb91883	0.36151513
21	0x3edeeb42	0.43538862
22	0xbe66e46d	-0.22548075
23	0xbe9abca1	-0.30222037
24	0xbecd7170	-0.40125608
25	0x3c5bf9cf	0.013426258
26	0xbe77ddf4	-0.24205762
27	0x3f01625c	0.5054071
28	0xbee35961	-0.44404128
29	0xbe8af97d	-0.2714347
30	0xbdf84490	-0.12122452
31	0xbea65589	-0.32487133
32	0xbeab26ab	-0.3342794
33	0xbe2583fd	-0.16163631
34	0x3edc68b9	0.43048647
35	0xbd9606b2	-0.07325496
36	0xbccb12d4	-0.024789251
37	0xbe1b2b07	-0.15153132
38	0x3e146add	0.1449389
39	0xbe8fdbab	-0.2809728
40	0xbe635a3c	-0.2220239
41	0xbdd9c017	-0.10632341
42	0x3f0d3f57	0.55174774
43	0xbea0d5d9	-0.31413153
44	0x3ed97d24	0.42478287
45	0x3eb5a892	0.3548017
46	0xbe8a8652	-0.27055603
47	0xbd792fa4	-0.06083645

attention_blocks.1.attention_blocks.0.W_v.weight f4 [4, 12]
0	0x3ee75064	0.4517852
1	0x3da5841b	0.08081838
2	0xbd21ad49	-0.0394719
3	0xbe24d5c5	-0.16097172
4	0xbf82c14a	-1.0215237
5	0x3e06dc62	0.13170007
6	0x3e37914f	0.17926525
7	0x3e11766e	0.14205334
8	0xbed0f00c	-0.4080814
9	0x3e1d9e52	0.15392426
10	0x3f07b8a2	0.530161
11	0xbe551e1d	-0.20812269
12	0x3e4d0608	0.20021832
13	0xbf0d49aa	-0.5519053
14	0x3d309753	0.043113064
15	0xbf64a360	-0.8931179
16	0x3e92845f	0.28616616
17	0x3f4ac7a0	0.79210854
18	0x3b226437	0.002477897
19	0xbe8ad23a	-0.27113515
20	0x3f245acf	0.6420106
21	0xbeaac825	-0.33355823
22	0xbd7c83be	-0.061649077
23	0xbeb3a65d	-0.35087863
24	0x3e846c8d	0.25864068
25	0x3e82dce8	0.25559163
26	0x3eea91d2	0.45814377
27	0x3e7ccf4e	0.24688455
28	0xbf47379a	-0.77819216
29	0xbdc995f4	-0.098430544
30	0x3e3eccf9	0.18632878
31	0x3e9682c7	0.2939665
32	0x3ef67c15	0.48141542
33	0x3e3c8275	0.1840914
34	0x3f383c57	0.7196707
35	0x3e8bd41e	0.2731027
36	0xbeb7a2ab	-0.35866293
37	0x3e5bd636	0.21468434
38	0x3e01324d	0.12616844
39	0xbe6560a7	-0.22400151
40	0xbeef4068	-0.46728826
41	0x3e8fdd7f	0.28098676
42	0xbdc4f663	-0.09617307
43	0xbf0c5a37	-0.54825157
44	0x3ef61527	0.48063013
45	0xbeca1d19	-0.39475325
46	0x3e927138	0.28602004
47	0x3f463062	0.77417576

attention_blocks.1.attention_blocks.0.W_o.weight f4 [12, 4]
0	0xbeac8354	-0.33693945
1	0xbde413ba	-0.11136575
2	0xbeb2929b	-0.34877476
3	0x3eaa8695	0.33305803
4	0x3f259402	0.64678967
5	0x3ebe31f2	0.3714748
6	0x3ec3eb33	0.3826538
7	0x3f6868d7	0.9078497
8	0xbcbb4a5d	-0.022862608
9	0xbeeaf107	-0.45887014
10	0x3e486f59	0.19573726
11	0x3f2ddf86	0.67919195
12	0xbe91e837	-0.28497478
13	0xbea61557	-0.32438156
14	0xbed3c3c4	-0.41360295
15	0xbe1dbb27	-0.15403424
16	0x3e652a91	0.22379519
17	0x3f191bd9	0.5980812
18	0x3c175075	0.009235491
19	0x3d75c2f0	0.06000036
20	0x3d611c88	0.05495885
21	0x3efc3a4b	0.49263224
22	0xbe6d9d23	-0.23204474
23	0xbf188f81	-0.5959397
24	0x3e8596dc	0.2609166
25	0xbdd2d8ef	-0.10295283
26	0x3e8bbbfb	0.27291855
27	0x3eaf1433	0.34195098
28	0xbede1a71	-0.43379548
29	0xbeeb61ac	-0.45972955
30	0xbecf4355	-0.40481058
31	0x3d8d861b	0.06910344
32	0xbd4bec02	-0.04978562
33	0x3e4770d8	0.1947664
34	0xbe2d7855	-0.16940434
35	0x3efa5f55	0.48900858
36	0xbda16d50	-0.07882178
37	0xbeffb363	-0.4994155
38	0x3e7f473f	0.24929522
39	0x3d303fe3	0.043029677
40	0x3e1adcfc	0.15123361
41	0xbefc99b8	-0.49336028
42	0xbdc8e67d	-0.09809587
43	0xbeac506a	-0.336551
44	0xbe82cce9	-0.2554696
45	0x3ebbe004	0.36694348
46	0xbe7158ba	-0.23569003
47	0xbdb4d1a2	-0.08829047

attention_blocks.1.attention_blocks.1.layer_norm.weight f4 [12]
0	0x3f8e9dc1	1.1141893
1	0x3f8666cd	1.0500122
2	0x3f837270	1.0269299
3	0x3f493b9c	0.7860658
4	0x3fb3ac25	1.4036909
5	0x3f8107c0	1.008049
6	0x3f9da116	1.2314785
7	0x3f7a832f	0.9785642
8	0x3f953a50	1.165842
9	0x3f8409ac	1.0315452
10	0x3fb4683f	1.4094313
11	0x3f9aaf55	1.2084757

attention_blocks.1.attention_blocks.1.layer_norm.bias f4 [12]
0	0x3dd21ac7	0.102590136
1	0xbe2b20f6	-0.16711792
2	0x3d1476a2	0.03624595
3	0xbd2e3911	-0.04253489
4	0xbe0da1a4	-0.13831192
5	0xbe3ded50	-0.18547559
6	0xbd098db2	-0.033582397
7	0xbdd77b1f	-0.1052153
8	0xbdcb119d	-0.09915469
9	0x3ca325e5	0.01991553
10	0x3e7a62c1	0.24451734
11	0xbe4ed82a	-0.20199648

attention_blocks.1.attention_blocks.1.W_k.weight f4 [4, 12]
0	0x3eca1117	0.39466164
1	0xbe8740cb	-0.2641662
2	0xbc6f396c	-0.014601093
3	0x3d349aae	0.044092827
4	0xbf39869d	-0.7247103
5	0xbebaf5cf	-0.36515662
6	0xbf3d46aa	-0.7393595
7	0xbe2d4b8d	-0.16923352
8	0xbcbf4861	-0.023349943
9	0x3dfa19db	0.12211963
10	0x3ef3ec6c	0.47641313
11	0xbe8e3dd1	-0.27781537
12	0xbf4a5060	-0.7902889
13	0x3ec21f6a	0.37914592
14	0x3ea490cf	0.3214173
15	0x3cd65d70	0.026167601
16	0xbedfe718	-0.43730998
17	0x3e0f86ce	0.14016268
18	0xbe65b5ff	-0.22432707
19	0x3e5a3ab0	0.2131145
20	0xbe03cf7d	-0.12872119
21	0x3e4d7762	0.20065072
22	0x3e501db2	0.20323828
23	0xbe707cac	-0.23485059
24	0x3e59ad14	0.2125743
25	0x3e80196f	0.25019404
26	0xbe6ea605	-0.23305519
27	0x3d54f381	0.051990036
28	0x3e88b041	0.2669697
29	0x3d3354a9	0.04378191
30	0xbf0add4a	-0.5424391
31	0xbeba284f	-0.36358878
32	0xbe966775	-0.29375806
33	0xbe4b3b4a	-0.19846836
34	0xbdca9ee0	-0.09893584
35	0x3e53d60e	0.20687124
36	0x3f1f6eb3	0.6227829
37	0xbe839325	-0.256982
38	0xbda03df4	-0.078243166
39	0xbd9c388e	-0.076279745
40	0x3d1ad921	0.037804727
41	0xbeb96e2e	-0.36216873
42	0x3f61af29	0.881579
43	0xbec2bdc2	-0.380354
44	0xbf316d02	-0.6930696
45	0xbe4a63c6	-0.19764623
46	0x3e8ee70d	0.27910653
47	0xbc28b1a0	-0.010296255

attention_blocks.1.attention_blocks.1.W_q.weight f4 [4, 12]
0	0x3bd9090c	0.006623393
1	0xbd81c48f	-0.06336319
2	0x3f67997f	0.9046859
3	0xbe324dc8	-0.17412484
4	0x3cc1ac9f	0.023641882
5	0x3ec6902e	0.38781875
6	0xbf6c0146	-0.92189443
7	0x3e05b0e7	0.13055764
8	0x3c821f1a	0.015883971
9	0xbdf81999	-0.12114257
10	0xbedd40a3	-0.43213376
11	0x3d2a1972	0.041528173
12	0x3ed43d6e	0.41453117
13	0xbcc8a965	-0.024494836
14	0xbed1d7eb	-0.40985045
15	0xbeda0255	-0.42579904
16	0xbd8d3622	-0.06895091
17	0xbe1b9a2c	-0.1519553
18	0xbe958b73	-0.29207954
19	0xbf1b51d5	-0.6067174
20	0x3e96abeb	0.29428038
21	0x3f462295	0.7739652
22	0xbe6bc7fe	-0.2302551
23	0xbc01af4f	-0.007915332
24	0xbf61c0cc	-0.8818481
25	0x3eb7c4df	0.35892388
26	0x3d95fc6d	0.07323537
27	0xbe950f4e	-0.2911324
28	0x3eaaf6f0	0.33391523
29	0x3b100a08	0.0021978635
30	0x3df83eab	0.12121328
31	0xbeb8bc8a	-0.36081344
32	0xbdc7f004	-0.09762576
33	0xbe8d36c8	-0.27580857
34	0xbec205cf	-0.37895057
35	0x3f52cd11	0.82344157
36	0xbe8dcbe7	-0.27694628
37	0xbe8057d9	-0.25067022
38	0x3d54faac	0.05199687
39	0x3c7026a5	0.014657651
40	0xbf536e52	-0.8259021
41	0x3ee377bf	0.44427297
42	0xbc657821	-0.014005692
43	0xbf01567c	-0.5052259
44	0x3e08611a	0.13318291
45	0xbec8b162	-0.39197832
46	0x3ebfa50b	0.37430605
47	0xbe67f32b	-0.22651355

attention_blocks.1.attention_blocks.1.W_v.weight f4 [4, 12]
0	0x3e43eea6	0.19134006
1	0xbe91de9a	-0.28490144
2	0x3dde4682	0.10853292
3	0xbd735931	-0.05941123
4	0xbe7def20	-0.2479825
5	0x3ee3dc4e	0.44504017
6	0x3e84ab74	0.25912058
7	0xbebef834	-0.3729874
8	0x3ea4218f	0.32056853
9	0x3e75a3e9	0.23988308
10	0xbee7e25a	-0.4528988
11	0x3e615b80	0.2200756
12	0xbdb87a77	-0.09007733
13	0x3f150e50	0.58224964
14	0x3d811cad	0.063042976
15	0x3e7e82be	0.24854562
16	0x3dfca72c	0.12336573
17	0xbe19b4a7	-0.1501032
18	0x3e74a81e	0.23892257
19	0xbe4d4d31	-0.20048977
20	0x3d96c1bc	0.07361171
21	0x3f47701a	0.7790543
22	0x3e7127ee	0.23550388
23	0xbee0ea21	-0.43928626
24	0xbe323153	-0.17401628
25	0xbe190b6c	-0.14945763
26	0x3e1b23b0	0.15150332
27	0x3ceee2dc	0.02916091
28	0xbe88b646	-0.26701564
29	0x3ec6d3ad	0.3883337
30	0x3dfe3509	0.124124594
31	0x3e04701c	0.12933391
32	0xbe872757	-0.263972
33	0xbec2a457	-0.38016006
34	0xbee77a9e	-0.45210737
35	0xbdaa31f3	-0.08310308
36	0xbde8279b	-0.11335679
37	0x3ee5c5cc	0.4487747
38	0xbe6f6af3	-0.23380642
39	0x3dc39b53	0.0955111
40	0x3e5ad0a7	0.21368657
41	0xbd945f6e	-0.07244764
42	0xbf0e0969	-0.5548311
43	0xbf2ce84d	-0.6754196
44	0xbc39e92c	-0.011347096
45	0xbd3d50e9	-0.04621974
46	0x3f6bfeff	0.9218597
47	0x3e713950	0.23557019

attention_blocks.1.attention_blocks.1.W_o.weight f4 [12, 4]
0	0x3e5d29d0	0.21597981
1	0xbdb02960	-0.08601642
2	0x3ce29a6c	0.027661525
3	0xbe36da09	-0.17856611
4	0x3de7ecf0	0.11324489
5	0xbf14dd79	-0.5815044
6	0x3e8142d2	0.25246292
7	0xbe8c7175	-0.2743031
8	0x3f6905f1	0.9102469
9	0x3e3da231	0.18518902
10	0xbe38901d	-0.18023725
11	0x3e7fc1a5	0.24976213
12	0xbe54dd04	-0.20787436
13	0x3ebedc74	0.37277567
14	0xbe9ee07b	-0.3103064
15	0x3e7808b4	0.2422207
16	0x3ed5e317	0.41774818
17	0x3dc54821	0.09632898
18	0x3e992c6d	0.29916707
19	0xbe416321	-0.18885471
20	0x3f01b839	0.50671726
21	0x3e71c228	0.23609221
22	0x3d592832	0.05301685
23	0xbf355ad5	-0.70841724
24	0x3e22ba75	0.1589144
25	0xbf3297e9	-0.69763047
26	0x3e28ffd4	0.1650384
27	0x3b57c742	0.0032925163
28	0xbcb21a8d	-0.021741176
29	0x3caff09e	0.02147704
30	0xbe1f1252	-0.15534332
31	0x3eadeef7	0.33971378
32	0x3ed0a2a4	0.40749085
33	0xbf012873	-0.50452346
34	0x3e71eb2d	0.23624869
35	0x3c88e23b	0.016709438
36	0xbc358a44	-0.011080328
37	0x3e5534ad	0.20820875
38	0xbf05fe44	-0.52341104
39	0x3dbfd8c7	0.09367519
40	0xbdfb9481	-0.12284184
41	0x3e46133b	0.19343273
42	0xbe9293b1	-0.28628305
43	0xbdcbe9a6	-0.09956674
44	0xbe1674c6	-0.14692983
45	0x3c2c987c	0.010534402
46	0x3edabe93	0.42723522
47	0xbea1797b	-0.31537995

attention_blocks.1.attention_blocks.2.layer_norm.weight f4 [12]
0	0x3f7f673d	0.99766904
1	0x3fc44fd9	1.5336868
2	0x3f743f2f	0.9540891
3	0x3fa88fc1	1.316887
4	0x3f987964	1.1912045
5	0x3f78c536	0.9717592
6	0x3f7db78c	0.99108195
7	0x3f976f4d	1.1830841
8	0x3f9353cf	1.1509951
9	0x3f8925cc	1.071466
10	0x3f4be2af	0.79642767
11	0x3f911534	1.1334596

attention_blocks.1.attention_blocks.2.layer_norm.bias f4 [12]
0	0x3dfaa72b	0.12238916
1	0x3d7adf88	0.061248332
2	0xbdbd8b3c	-0.092550725
3	0x3d66f6f1	0.056387845
4	0x3da081f6	0.07837288
5	0xbdb465b5	-0.088084616
6	0x3d8b4f18	0.06802195
7	0xbbb15d1e	-0.0054127118
8	0xbd99370e	-0.07481204
9	0xbd84ef13	-0.06490912
10	0xbdb7e57b	-0.08979317
11	0xbca62a61	-0.02028388

attention_blocks.1.attention_blocks.2.W_k.weight f4 [4, 12]
0	0xbe304e3e	-0.17217347
1	0x3ee78eb0	0.4522605
2	0x3dd3c1d2	0.10339703
3	0xbc839995	-0.016064445
4	0x3e867aa6	0.26265448
5	0xbf01d72e	-0.50718963
6	0x3f01ead2	0.5074893
7	0xbe70764f	-0.23482631
8	0x3d0da8cb	0.0345848
9	0xbf030d73	-0.51192397
10	0xbd974e7a	-0.07388015
11	0x3ea7dbf0	0.32784986
12	0xbef2acab	-0.4739736
13	0xbd1f5d5f	-0.038907405
14	0xbe4989d4	-0.19681484
15	0xbf3f5aaa	-0.7474772
16	0xbdd007ba	-0.10157724
17	0x3e989eb5	0.29808584
18	0xbeaa8ded	-0.33311406
19	0xbeb49fbe	-0.35278124
20	0xbdf9ee69	-0.12203676
21	0x3dec4578	0.115366876
22	0x3e731a4f	0.23740505
23	0x3e6a1332	0.22858885
24	0x3ea62ed0	0.3245759
25	0x3e2eafa5	0.1705919
26	0xbeca5bca	-0.39523154
27	0x3cb7080d	0.022342706
28	0x3e829563	0.25504598
29	0xbebcefdf	-0.36901757
30	0x3eb7a367	0.35866854
31	0xbe6614e1	-0.22468902
32	0xbf261e86	-0.64890325
33	0xbe5c92de	-0.215404
34	0xbe420e7d	-0.1895084
35	0xbeb82827	-0.35968134
36	0x3f0f2c7c	0.5592725
37	0x3e8fa397	0.28054497
38	0x3d6eea6d	0.058329035
39	0xbec19649	-0.3780997
40	0x3cbe493f	0.023228286
41	0x3d6ce74e	0.057837777
42	0xbd18f75f	-0.037345286
43	0xbf2ee96f	-0.6832494
44	0x3ad57aa8	0.0016287165
45	0x3e8058ac	0.2506765
46	0x3ea7f343	0.3280278
47	0x3f2159b8	0.63027525

attention_blocks.1.attention_blocks.2.W_q.weight f4 [4, 12]
0	0x3efe7d27	0.4970486
1	0xbf104ea7	-0.56370014
2	0x3e2e61c0	0.17029476
3	0x3e8e7597	0.2782409
4	0x3f44703d	0.7673376
5	0x3e432393	0.19056539
6	0xbed5fbbf	-0.4179363
7	0x3e34af09	0.17644896
8	0x3e818a63	0.25300893
9	0xbf284bc3	-0.65740603
10	0xbda100b1	-0.0786146
11	0x3ec9be5a	0.3940304
12	0xbe2e3fa1	-0.1701646
13	0xbe68ae3e	-0.22722718
14	0xbf06a462	-0.5259458
15	0x3f1877ef	0.59558004
16	0x3e8c1389	0.27358654
17	0xbd1a94ea	-0.03773967
18	0x3eac9df9	0.33714274
19	0x3ed12184	0.40845883
20	0x3d002fde	0.03129565
21	0x3dc21a77	0.09477704
22	0x3d0a71a7	0.033799794
23	0xbf62aa2d	-0.8854092
24	0xbe107ac0	-0.14109325
25	0x3e989aec	0.29805696
26	0x3e1f976b	0.15585105
27	0xbe855933	-0.26044616
28	0x3ee0c7cc	0.43902433
29	0x3e812ce9	0.25229576
30	0xbef5c473	-0.4800144
31	0x3d2df512	0.042470045
32	0xbeca715c	-0.3953961
33	0xbe22ebe8	-0.15910304
34	0xbe49fa04	-0.1972428
35	0x3f288bec	0.65838504
36	0xbe589f72	-0.21154574
37	0xbe8f635b	-0.2800549
38	0xbe10bb1d	-0.14133878
39	0x3ec9e588	0.3943293
40	0x3ef65919	0.4811485
41	0xbcc5912c	-0.024117075
42	0xbc22c39f	-0.009934335
43	0x3f1adf1e	0.604967
44	0xbedb600b	-0.42846712
45	0x3e8da64b	0.27665934
46	0xbcb9013b	-0.022583595
47	0xbe54a470	-0.20765853

attention_blocks.1.attention_blocks.2.W_v.weight f4 [4, 12]
0	0xbe170807	-0.14749156
1	0x3d56ff4d	0.052489568
2	0x3e1fd55e	0.15608737
3	0xbdf435ed	-0.11924348
4	0x3e86f1a2	0.26356226
5	0x3d98d81c	0.074630946
6	0xbf2327a1	-0.63732344
7	0x3d0a634b	0.0337861
8	0xbee342f5	-0.44387022
9	0x3ef2c174	0.47413218
10	0xbe773dbd	-0.24144645
11	0x3eb7ee7d	0.3592414
12	0x3e2904e0	0.16505766
13	0xbd1981e1	-0.037477378
14	0x3da14581	0.07874585
15	0xbef3a400	-0.4758606
16	0xbda94e1c	-0.08266851
17	0xbe9bb074	-0.3040806
18	0xbe1115ed	-0.1416852
19	0xbe1ed6cf	-0.1551163
20	0x3e59176b	0.2120034
21	0xbca2b4f8	-0.019861683
22	0x3e024c4a	0.12724414
23	0x3edc81ef	0.4306788
24	0xbcd37c0f	-0.025815992
25	0xbf1b9282	-0.6077043
26	0x3ee51459	0.44742087
27	0xbe123208	-0.14276898
28	0xbe990906	-0.29889697
29	0x3c84fb4c	0.016233109
30	0x3df4791a	0.11937161
31	0xbe5bd7cf	-0.21469043
32	0xbe89252a	-0.26786166
33	0x3d3f79df	0.046747085
34	0xbe2403b8	-0.16017044
35	0x3e0c1013	0.13678007
36	0xbe928290	-0.28615236
37	0x3d88b7db	0.06675693
38	0x3d733c76	0.059383832
39	0xbe388501	-0.18019487
40	0xbd3fe5da	-0.046850063
41	0xbece426c	-0.4028505
42	0x3e1e1c9c	0.15440601
43	0x3e386edd	0.18011041
44	0x3e26e684	0.16298872
45	0x3d4690e5	0.048478026
46	0x3eaead24	0.3411647
47	0xbe4ccac3	-0.19999222

attention_blocks.1.attention_blocks.2.W_o.weight f4 [12, 4]
0	0x3ea1d15f	0.3160505
1	0x3e9da062	0.30786425
2	0xbd3dfbaa	-0.046382584
3	0xbd0f3f35	-0.03497239
4	0x3edada84	0.4274484
5	0x3edebc2c	0.4350294
6	0x3db50ec8	0.0884071
7	0xbcb488a3	-0.02203781
8	0xbe84eabb	-0.25960335
9	0x3e17031f	0.14747284
10	0x3e93dc2f	0.28878924
11	0xbd0c5746	-0.034262918
12	0xbcc59319	-0.024117993
13	0xbed83faf	-0.42236087
14	0xbe37ca2e	-0.17948219
15	0x3ed3bbf5	0.41354337
16	0x3e950563	0.29105672
17	0x3f02bfa2	0.5107366
18	0x3e12e601	0.14345552
19	0xbdee63a6	-0.116401
20	0xbb5be727	-0.0033554526
21	0xbebf6226	-0.3737957
22	0x3de376ac	0.11106619
23	0xbe906b95	-0.2820708
24	0x3dc72000	0.097229004
25	0x3eae0cee	0.3399424
26	0x3cea06a3	0.028567618
27	0x3d8d1072	0.06887902
28	0xbe1da7ff	-0.15396117
29	0xbe552dae	-0.20818207
30	0xbdf7e616	-0.12104432
31	0xbdd9f86c	-0.10643086
32	0x3e78200d	0.24230976
33	0x3f1dbd1e	0.61616695
34	0x3e6a19fc	0.22861475
35	0xbeaa1aec	-0.33223665
36	0x3e6f341c	0.23359722
37	0xbdeef679	-0.11668105
38	0xbdce64e7	-0.10077839
39	0xbebfeab5	-0.37483755
40	0xbea68286	-0.32521456
41	0xbdd8a1ed	-0.1057776
42	0xbedde931	-0.43341973
43	0x3df1b344	0.1180177
44	0x3e29c699	0.16579665
45	0xbdb9d82f	-0.09074437
46	0x3da0e7f6	0.07856743
47	0xbc2fd9d3	-0.010733086

feedforward_blocks.0.layer_norm.weight f4 [13]
0	0x3f856799	1.042224
1	0x3f933b3b	1.1502451
2	0x3f84f456	1.0387065
3	0x3f8adbdd	1.0848347
4	0x3f7d985e	0.9906062
5	0x3f7bd70c	0.9837501
6	0x3f97cf40	1.1860123
7	0x3fb15114	1.3852868
8	0x3f807312	1.0035117
9	0x3f8d9ca7	1.1063432
10	0x3f9474fa	1.1598198
11	0x3f923a84	1.1424108
12	0x3f6e2f36	0.9304079

feedforward_blocks.0.layer_norm.bias f4 [13]
0	0x3e0ffe42	0.14061835
1	0xbb8ee4f8	-0.0043607913
2	0x3e0f7c12	0.14012173
3	0xbd962cdd	-0.07332776
4	0x3c490f95	0.012271781
5	0xbd4bc53e	-0.04974865
6	0x3e07f30e	0.13276312
7	0xbdb93b54	-0.09044519
8	0x3b9967c6	0.00468156
9	0xbdd88541	-0.10572291
10	0xbd7f9bf5	-0.06240459
11	0xbd44e723	-0.04807199
12	0xbd4ea786	-0.05045273

feedforward_blocks.0.linear_layer_1.weight f4 [65, 13]
0	0x3bc78b6a	0.0060896175
1	0x3ee9e0c1	0.45679286
2	0xbe7fd71c	-0.24984401
3	0xbe2fc136	-0.17163548
4	0x3e990290	0.29884768
5	0x3f49c2cf	0.7881288
6	0xbc95820f	-0.018250493
7	0x3e4befda	0.19915715
8	0x3cc8524e	0.024453308
9	0xbe09e894	-0.13467628
10	0x3f2f175a	0.68395007
11	0xbd3c6392	-0.045993395
12	0xbed57711	-0.41692403
13	0x3c8965be	0.016772147
14	0x3ec16e02	0.37779242
15	0xbe196b71	-0.14982392
16	0xbe40dbde	-0.18833873
17	0x3c2f701a	0.010707879
18	0xbec76cc9	-0.38950184
19	0x3dd89aef	0.10576426
20	0x3e20e18e	0.15711042
21	0xbe445081	-0.19171335
22	0x3e1b7e12	0.15184811
23	0xbbc52c22	-0.006017224
24	0xbe04539d	-0.12922521
25	0x3e5e462c	0.21706456
26	0x3dd79aa6	0.10527544
27	0xbd04e192	-0.032441683
28	0xbe9df54c	-0.3085121
29	0xbe7fadd5	-0.24968655
30	0xbe2cc339	-0.16871347
31	0xbeccbcea	-0.3998788
32	0x3edd45c1	0.4321728
33	0xbea22ad2	-0.31673294
34	0x3dd7de6a	0.10540469
35	0xbeab57bf	-0.33465382
36	0xbe1f876c	-0.15579003
37	0xbebe53c3	-0.3717328
38	0x3d846b51	0.064657815
39	0x3c862507	0.016375078
40	0xbdfb57a2	-0.12272574
41	0xbe13e8fe	-0.14444348
42	0xbd81bc22	-0.063347116
43	0x3d8f863c	0.07008025
44	0xbd82aa20	-0.06380105
45	0xbd3696b8	-0.04457733
46	0xbd01c837	-0.03168508
47	0xbd527f2d	-0.051390816
48	0xbd85c0a7	-0.06530886
49	0xbdedd522	-0.116129175
50	0x3eab9b44	0.33516896
51	0x3f083fe2	0.5322248
52	0x3e1dae99	0.15398635
53	0xbe9e445f	-0.30911538
54	0x3dd79041	0.10525561
55	0x3ea5c298	0.32375026
56	0x3dee7ff0	0.11645496
57	0xbe6148e8	-0.22000468
58	0xbe385717	-0.18001972
59	0xbdbcc600	-0.09217453
60	0x3d838b0f	0.06423008
61	0xbf00afba	-0.5026814
62	0xbea49e21	-0.32151893
63	0x3e16a94a	0.14713016
64	0x3a95f535	0.0011440875
65	0x3ed43b92	0.414517
66	0x3d93c675	0.07215587
67	0xbe4c3c6c	-0.19944924
68	0xbe60993d	-0.21933456
69	0x3f1e322e	0.6179532
70	0xbdb67146	-0.08908324
71	0x3d22490c	0.039620444
72	0xbf0bee42	-0.5466043
73	0x3e61f491	0.22065951
74	0xbe704215	-0.23462708
75	0x3d93ced5	0.072171845
76	0xbe6f49af	-0.23367952
77	0x3e96ee90	0.29478884
78	0x3e9d378a	0.30706435
79	0xbcd99df1	-0.02656457
80	0xbf1c54cd	-0.61066896
81	0x3e15904d	0.14605828
82	0xbf07219f	-0.52785677
83	0x3ccc4f1b	0.024940064
84	0x3e5d2c71	0.21598984
85	0x3ea8f283	0.32997522
86	0xbd7015ab	-0.058614414
87	0x3c555660	0.013021082
88	0xbf010677	-0.5040049
89	0x3e1a3e04	0.1506272
90	0xbe0c22c5	-0.13685139
91	0x3e45d541	0.19319631
92	0xbebcd6bc	-0.3688258
93	0x3e884830	0.26617575
94	0xbf359f67	-0.70946354
95	0xbde952d9	-0.11392755
96	0x3f27ed0b	0.65596074
97	0xbe7e619e	-0.24841926
98	0xbda7a980	-0.081866264
99	0xbdae41bf	-0.08508634
100	0xbdcbb87b	-0.09947296
101	0xbd8bbb5d	-0.06822846
102	0xbe3c3c40	-0.18382359
103	0x3e8c9115	0.2745444
104	0x3f11e4a6	0.56989515
105	0x3debccbb	0.115136586
106	0xbdf72730	-0.12068021
107	0xbbe491a2	-0.0069753686
108	0x3f0666d6	0.52500665
109	0xbc89c60b	-0.016818067
110	0x3da051ff	0.078281395
111	0x3f0843c8	0.53228426
112	0x3e295b19	0.16538657
113	0xbe849211	-0.2589269
114	0x3e04cfca	0.1296989
115	0x3f98a5ef	1.1925639
116	0xbe8cbf22	-0.27489573
117	0xbe0af801	-0.13571168
118	0xbf7574c4	-0.95881295
119	0xbdff9b45	-0.12480787
120	0xbf254dc8	-0.6457181
121	0x3db30d51	0.08742774
122	0xbdcd4d36	-0.100244924
123	0x3eb06ab8	0.3445642
124	0xbdef83d4	-0.11695066
125	0xbdc4fcfd	-0.09618566
126	0xbe332e7f	-0.17498206
127	0x3e107e52	0.14110687
128	0xbf129fc2	-0.5727502
129	0xbe03b158	-0.1286062
130	0x3f06e8aa	0.5269877
131	0xbef6aa8a	-0.48176986
132	0x3f0d2b81	0.55144507
133	0x3edee745	0.4353582
134	0xbe0c2fe3	-0.13690142
135	0x3d87f055	0.066376366
136	0xbe473bbb	-0.19456379
137	0x3ef0f487	0.4706156
138	0x3f17cb9d	0.59295064
139	0x3d82fea2	0.063962236
140	0xbc19561f	-0.009358912
141	0x3ec12129	0.37720612
142	0x3ecfb9f2	0.40571553
143	0x3c18cd7d	0.009326336
144	0xbeadda85	-0.3395578
145	0x3cfbb9f6	0.030728322
146	0xbdaa942e	-0.08329044
147	0x3ce024d5	0.027361313
148	0x3caea2fd	0.021317953
149	0x3df7c877	0.120987825
150	0x3d339aa8	0.043848664
151	0x3ef8e2c8	0.4861052
152	0xbe1416da	-0.14461842
153	0x3ccbb34e	0.024865773
154	0x3db32c94	0.08748737
155	0x3e27078a	0.1631147
156	0x3e836948	0.2566626
157	0x3e470e8c	0.19439143
158	0xbe2f2451	-0.17103697
159	0x3e6e0e9e	0.23247764
160	0xbec3ab95	-0.38216844
161	0xbc21fe15	-0.009887238
162	0xbec114b3	-0.37711105
163	0x3e54d64f	0.20784877
164	0x3e9bed01	0.30454257
165	0x3f16db3c	0.58928275
166	0xbf1e08b0	-0.61732006
167	0x3d8a6b5c	0.067587584
168	0xbda84485	-0.08216194
169	0x3e2ec3ad	0.17066832
170	0xbf3d6aab	-0.7399089
171	0x3f1c3470	0.61017513
172	0xbf1906bf	-0.5977592
173	0xbf0cc21d	-0.54983693
174	0x3e91e87d	0.28497687
175	0x3e38881d	0.18020673
176	0xbf0f1b03	-0.5590059
177	0x3e8be306	0.27321643
178	0xbe473d14	-0.19456893
179	0xbeaa7b36	-0.33297127
180	0xbe7f072b	-0.24905078
181	0xbeb65b69	-0.35616615
182	0x3f1812d7	0.5940375
183	0x3e1b481e	0.1516423
184	0x3ede8aaa	0.43465167
185	0x3e569201	0.20954134
186	0x3e0aaf83	0.13543515
187	0xbf114925	-0.56752235
188	0x3ecff475	0.40616193
189	0xbe90fb17	-0.28316566
190	0x3f28f27c	0.65995
191	0x3eae04f4	0.33988154
192	0xbeb584d7	-0.3545291
193	0xbee20138	-0.44141555
194	0xbea41cf2	-0.32053334
195	0x3f2725ce	0.6529206
196	0xbeea6ebf	-0.45787618
197	0x3ee88004	0.45410168
198	0xbd897d42	-0.06713344
199	0xbdcec0a3	-0.10095336
200	0xbf0ad2cf	-0.5422792
201	0x3ec0245c	0.3752774
202	0x3db58fc8	0.08865315
203	0x3f2b5020	0.66919136
204	0xbd9af431	-0.07566107
205	0xbec9a164	-0.39380944
206	0x3c5ed44c	0.01360042
207	0xbe967d08	-0.29392266
208	0xbd9ab59a	-0.07554169
209	0x3e94769c	0.28996742
210	0xbecdcb71	-0.40194276
211	0x3e8b048c	0.27151906
212	0x3d1c2931	0.03812522
213	0x3f11419a	0.56740725
214	0xbe6a6d94	-0.22893363
215	0xbe118f2d	-0.14214773
216	0xbe636ae5	-0.22208746
217	0x3ea86acf	0.32893988
218	0x3e29a7e5	0.16567953
219	0xbdaf34a1	-0.0855496
220	0x3cd414d1	0.025888832
221	0xbe9eb02c	-0.30993783
222	0xbe04cb79	-0.12968244
223	0xbdd3fcf2	-0.1035098
224	0xbe837487	-0.2567484
225	0xbe467a90	-0.19382691
226	0xbeb67225	-0.3563396
227	0xbf37751e	-0.7166308
228	0xbd9bc566	-0.0760601
229	0x3d8ffdbc	0.07030818
230	0xbe86cb64	-0.2632705
231	0x3e82dd86	0.25559634
232	0xbd9fdc8c	-0.07805738
233	0x3e6bd183	0.23029141
234	0x3d3aa0c5	0.045563478
235	0xbc4cd588	-0.012502082
236	0xbd485262	-0.04890669
237	0xbc6dcd39	-0.014514261
238	0x3f093d1e	0.5360888
239	0xbdcb0db2	-0.099147215
240	0x3d5a53b5	0.053302485
241	0x3e7d81bf	0.24756525
242	0x3ed4c8ff	0.41559598
243	0xbe362038	-0.17785728
244	0xbe349a92	-0.17637089
245	0x3ef930f7	0.4867017
246	0xbf4a3949	-0.7899366
247	0xbde55cc9	-0.11199338
248	0xbed841d1	-0.42237714
249	0xbe8025b1	-0.25028756
250	0xbe88666a	-0.26640636
251	0x3f00e020	0.5034199
252	0xbed304f7	-0.41214725
253	0x3ed76ab3	0.42073593
254	0x3f0d8c38	0.5529208
255	0xbd75b75a	-0.05998931

feedforward_blocks.0.linear_layer_1.bias f4 [65]
0	0xbe3a6dc9	-0.18205942
1	0x3cf21061	0.029548826
2	0x3d224416	0.039615713
3	0xbd53103d	-0.051529158
4	0x3d9fd3c5	0.07804064
5	0x3ba9f0ed	0.0051861913
6	0x3da1cce0	0.07900405
7	0x3d9e20e7	0.077211194
8	0x3da2958e	0.079386815
9	0x3d7ff984	0.062493816
10	0xbd7fe92d	-0.062478233
11	0xbd2ef778	-0.042716473
12	0xbd978838	-0.073990285
13	0x3e655be1	0.2239833
14	0x3e095eab	0.13415019
15	0x3e63abc7	0.22233497
16	0xbba0012d	-0.0048829527
17	0x3d8e0014	0.06933609
18	0x3cafb065	0.021446416
19	0x3d336b36	0.043803416
20	0x3c5df9b4	0.013548303
21	0x3cebf4de	0.028803285
22	0xbd342579	-0.04398105
23	0xbd45984c	-0.048240945
24	0x3cd54bda	0.026037145
25	0x3c48153f	0.012212097
26	0xbe0b6778	-0.13613689
27	0x3e1da063	0.15393214
28	0xbcfc2859	-0.030780958
29	0xbddb138f	-0.1069709
30	0x3c8d2d1d	0.017233426
31	0xbc9757ee	-0.018474545
32	0xbd2d4593	-0.04230268
33	0x3cdab6f7	0.026698573
34	0x3d01c84b	0.031685155
35	0x3c7c05f8	0.015382282
36	0x3e1c31e8	0.15253413
37	0x3d39d1e3	0.04536618
38	0x3d07e5fe	0.033178322
39	0x3e10e93f	0.14151476
40	0x3e76d0d4	0.24103099
41	0xbdebec03	-0.11519625
42	0x3da9ed54	0.0829722
43	0x3c68c01e	0.014205961
44	0xbcd960a5	-0.026535342
45	0x3d9d18be	0.07670735
46	0x3d16921a	0.036760427
47	0x3d846277	0.06464093
48	0x3cdc5c86	0.026899587
49	0xbd614f3e	-0.055007212
50	0x3ea15dfd	0.3151702
51	0x3d0b8556	0.034062706
52	0xbdb33591	-0.08750451
53	0xbca3c498	-0.019991204
54	0x3c422f6b	0.011852126
55	0xbb69b807	-0.0035662667
56	0x3e03577d	0.12826343
57	0x3d139456	0.036030136
58	0xbd57869f	-0.05261862
59	0xbc73945c	-0.014866915
60	0xbd641695	-0.0556856
61	0xbc9e94f0	-0.019358128
62	0xbd361479	-0.044453118
63	0x3dc4756e	0.095927104
64	0xbd3678d7	-0.044548836
