trained_model_12_3_5_2.pth (torch, 98977 bytes, 51 tensors)

inp_embedding.weight f4 [115, 12]
000000 d0 6f 51 3e 97 ff 2f be 13 46 77 3d c3 3a 8d 3e
       0.2045281 -0.17187344 0.060369562 0.27583894
000010 41 0a d9 bd e6 66 b4 3d d1 ca ba 3c 91 0d 3f be
       -0.10597659 0.08808689 0.022801789 -0.18657519
000020 80 ed 5c 3e 78 84 12 bf 80 3d 4b 3d f3 6c 96 3e
       0.21574974 -0.5723338 0.049619198 0.29379997
000030 f8 a3 d4 3d a0 ae 11 be 47 98 b4 bd 8d 39 01 3f
       0.10382837 -0.1422677 -0.08818107 0.5047844
000040 96 cf 3f 3e 9b 7a bb bd e4 67 24 be 4e a0 22 be
       0.18731532 -0.091542445 -0.16055256 -0.15881464
000050 24 21 23 3d 0c c2 8f be 3a 6f 07 3e d9 71 32 3e
       0.039826527 -0.28077734 0.13226023 0.17426242
000060 fd 26 b1 3e 6a 94 01 3d d0 fd 3c be 59 23 00 3e
       0.34600058 0.03163568 -0.18456197 0.12513484
000070 8e 79 48 3e a9 29 78 be 67 36 2b be 05 76 4c be
       0.1957762 -0.24234642 -0.16719972 -0.19966896
000080 85 c6 9a 3c 11 11 95 be d9 68 4f bd df c4 7f bd
       0.01889349 -0.29114583 -0.0506371 -0.06244361
000090 3a 26 92 3e 88 fd 91 3c 77 a3 47 3d 91 5a 2e 3d
       0.2854479 0.017821088 0.048739877 0.04256684
0000a0 13 4f 24 bd 9d f6 b3 3d 76 a7 4b 3e 8c 69 55 3d
       -0.040114474 0.08787272 0.198881 0.05210261
0000b0 43 9b e8 3e 33 ca ce be e0 12 2d be 12 2f 9e bc
       0.45430955 -0.4038864 -0.16901731 -0.019309554
0000c0 75 2d 8c be a3 f9 9e be 5b f6 9a 3c b6 fc 8a 3e
       -0.2737843 -0.31049833 0.0189163 0.27145928
0000d0 63 ab 24 3e 66 38 ff bd fb 67 27 be 11 90 94 bd
       0.16081004 -0.12461929 -0.16348259 -0.07254041
0000e0 1e 4a 56 3e 1d a2 3a be 13 f0 43 bd ef 4d 84 bd
       0.20926711 -0.18225904 -0.047836374 -0.06460177
0000f0 b4 81 ac be f8 ce 34 be 58 91 9d bd 4d 28 87 3e
       -0.33692706 -0.17657077 -0.07693738 0.26397935
000100 15 b1 12 3e 49 b0 68 be 40 a0 36 be e5 74 4a bd
       0.14325364 -0.22723497 -0.17834568 -0.049427886
000110 bd 7f 2f 3e 6a e3 4e 3d a1 ff 0e 3e c5 f7 d1 ba
       0.17138572 0.050509848 0.13964702 -0.0016019276
000120 18 44 c7 3c 0d be ea bd 90 10 55 bd af 84 0b 3d
       0.024324462 -0.114620306 -0.05201775 0.034062084
000130 08 2d bf 3e 7a bf 19 be 42 0d c8 bc 35 d1 1a 3d
       0.37339044 -0.15014449 -0.024420384 0.03779717
000140 89 33 83 3e 62 22 6b be a1 44 6b bd cb 16 05 be
       0.25625256 -0.22962335 -0.057438497 -0.12996976
000150 a0 19 83 3e da 87 4b 3d 60 6b 00 be 96 72 81 bd
       0.25605488 0.049690105 -0.1254096 -0.06320684
000160 ba a4 db bc 6d 8c 0f be d1 eb 68 3c 8c 50 3e bd
       -0.026811946 -0.14018412 0.014216379 -0.046463534
000170 df af db 3e d8 e2 56 be e3 7c 27 bd f3 2c 82 3c
       0.42907616 -0.20984972 -0.040890586 0.015890574
000180 f8 0e 65 bd 9e b0 b0 3e 20 c2 0a be e4 3f ba 3c
       -0.05592248 0.34509748 -0.13550615 0.022735544
000190 ec 0a 9a be 9a 66 86 be 71 4c ab bc 8b eb 8a 3c
       -0.30086458 -0.26250154 -0.020910474 0.016958019
0001a0 c8 31 1d 3f 69 47 25 be fe eb 0d be 97 b4 36 3f
       0.61404085 -0.16140522 -0.13859555 0.7136931
0001b0 8a 51 e0 3d b2 d8 93 bd f7 c2 a0 be 61 e8 31 bd
       0.10953052 -0.07219066 -0.31398746 -0.043434504
0001c0 d4 cf 6f 3e 10 2a 1c be de 67 20 be 29 fc 80 bd
       0.23419124 -0.1525042 -0.15664622 -0.06298096
0001d0 5f 5f 10 3e 14 c6 d4 bd dd 50 91 3d 39 7e 8f 3d
       0.14098881 -0.10389343 0.070955016 0.07006497
0001e0 f5 0a 44 bd ce d3 d6 bd 56 82 e4 bd 35 58 80 3d
       -0.047862012 -0.10489617 -0.11157672 0.06266824
0001f0 25 66 1f 3d 1d 8f d2 3c 31 7d 25 be 96 a6 0b be
       0.038915772 0.025703007 -0.16161038 -0.13637766
000200 55 3d a4 3e 85 c6 8c be 8c cd 88 3e 85 0c 18 3f
       0.32078043 -0.27495208 0.2671932 0.59394103
000210 aa 23 54 be d6 88 ee bd 17 30 2a bd 5c 4c 67 be
       -0.2071673 -0.11647193 -0.04154977 -0.22587723
000220 1d 5f 18 be aa b8 05 be 35 6d 53 3e f7 42 5d 3d
       -0.14880033 -0.13058725 0.20647128 0.05401894
000230 fa 95 22 3e 9c ee cd bc d1 37 b6 bd f8 28 8a ba
       0.15877524 -0.025138192 -0.08897365 -0.0010540774
000240 3f df 54 be 68 da 86 bd 28 fa 93 be c0 5f 7c 3d
       -0.20788287 -0.065846264 -0.28901792 0.06161475
000250 5b 98 1e 3f 64 76 91 3d 17 dd ef 3c 12 3e 3d bd
       0.61951226 0.07102659 0.029280229 -0.046201773
000260 f3 be 16 bd 60 88 77 3e 16 1c 5d bc 0a 7b 48 be
       -0.036803197 0.24173117 -0.013495466 -0.19578186
000270 d2 cd 5d be 29 2e be bc d3 c2 ff bd d7 05 d0 3e
       -0.21660545 -0.02321537 -0.12488332 0.40629455
000280 7b 86 ce 3e c3 40 4d 3c 4b aa 8c 3d 35 a6 4d be
       0.40336975 0.012527647 0.06868418 -0.20082934
000290 46 55 45 be 8f 2a bf 3d 6e 32 9a bd be 11 23 be
       -0.1927081 0.09334289 -0.0752915 -0.15924737
0002a0 8b 83 f6 bd 98 fe 80 3e 9d 4c 89 3e c1 23 2d 3e
       -0.120368086 0.2519424 0.26816264 0.1690817
0002b0 20 5c d0 bd 78 45 82 be 4e 4c 6e 3e 64 dd 5a be
       -0.101738214 -0.25443625 0.23271295 -0.21373516
0002c0 fa f3 aa be 1e 89 a6 3e 0b e2 26 bd de d2 ec bd
       -0.33389264 0.32526487 -0.040742915 -0.11563657
0002d0 fb 2c d6 bd 84 4f 05 3e b0 49 d1 bd 86 5e 24 3e
       -0.10457798 0.13018614 -0.10219133 0.16051683
0002e0 74 e8 f5 bd 1f c4 24 bd b0 30 4c 3e 25 85 69 3d
       -0.120072275 -0.0402261 0.19940448 0.057011742
0002f0 6e 44 7f 3e 64 c8 8a 3e 8b ee 29 be 1f a2 7a be
       0.24928448 0.2710601 -0.16594903 -0.24475907
000300 d1 97 28 bf 81 0c 2d 3f b8 ae b9 3d 97 19 f9 bd
       -0.65856653 0.67597204 0.09066528 -0.12163084
000310 d3 1c 93 3c 75 51 e6 bc d7 f1 b3 3e 62 d6 3f 3e
       0.01795808 -0.028115014 0.35145447 0.18734124
000320 ff ab 8b be 84 ca 6a 3e 6b 15 b4 be 7a fb ed be
       -0.2727966 0.22928816 -0.3517259 -0.46480924
000330 ee 96 f9 bd 68 a9 31 3d e0 11 9c bd 5e a5 35 bd
       -0.12186991 0.04337445 -0.07620597 -0.04434716
000340 c5 d1 b4 bd 5c 1e fc 3d f8 7f df 3d f3 96 25 be
       -0.08829073 0.12310478 0.1091308 -0.16170864
000350 f0 d6 94 3d 3b 10 be bd ac 42 6a bd 32 53 59 be
       0.072675586 -0.092804395 -0.05719249 -0.21223143
000360 49 11 8f bb 73 de 9b 3e 32 c8 c2 3d 49 24 02 be
       -0.004366074 0.30443153 0.095108405 -0.12709154
000370 7b 25 af be 75 a2 ce 3d f0 5f 1e 3e b1 f9 fa bd
       -0.34208283 0.1008958 0.15466285 -0.12254656
000380 8f 6a 1a bc 91 f4 69 3d 5c c7 4b bd 27 1a 44 3c
       -0.00942482 0.057118002 -0.04975067 0.011969126
000390 60 a3 34 be 31 ae f8 3e 36 0c 88 be 0e 7b 2d be
       -0.17640448 0.48570397 -0.26571816 -0.16941473
0003a0 19 cb 62 3e b9 a4 1a 3e f7 b5 b3 bd 67 14 ec 3b
       0.22147788 0.15101899 -0.087749414 0.0072045806
0003b0 9e d6 e6 bc bd 23 75 3e 91 84 9b 3e 30 bb 0d 3d
       -0.02817851 0.23939414 0.30374578 0.034602344
0003c0 bb 36 d4 3d b0 2b 2e bd 97 d7 f6 3d b3 7f 90 3d
       0.103620015 -0.042522132 0.12052839 0.07055607
0003d0 e9 0c 87 3e 3e 28 14 be a2 50 23 3f dc 0a b0 3d
       0.26377037 -0.14468476 0.6379491 0.08595821
0003e0 7b 90 37 3e 33 d9 86 3d cc a1 d4 3d e6 35 a2 bd
       0.17926209 0.06584396 0.10382423 -0.079204366
0003f0 35 a4 70 3e b1 ba 99 3e e9 7b b3 3d 1f 56 49 3e
       0.2350014 0.30025247 0.08763868 0.19661759

attention_blocks.0.attention_blocks.0.layer_norm.weight f4 [12]
000000 90 76 c9 3f 6e e7 71 3f cf 54 a7 3f 70 c8 86 3f
       1.5739307 0.9449376 1.3072757 1.0529919
000010 ad ba 9c 3f 63 d0 71 3f 1e 78 8e 3f 99 63 12 3f
       1.2244469 0.944586 1.1130407 0.57183224
000020 40 ab 8d 3f 96 85 8b 3f 9f 67 99 3f 43 08 8a 3f
       1.1067886 1.0900142 1.1984748 1.0783771

attention_blocks.0.attention_blocks.0.layer_norm.bias f4 [12]
000000 7e d3 2c be 44 98 58 3e f2 bd be be ed 1e 80 3e
       -0.16877553 0.21151835 -0.37254292 0.25023594
000010 aa 49 4d 3e 89 7a e3 bd 41 59 4b 3e 8f f0 9d bd
       0.20047632 -0.11107356 0.19858266 -0.077118985
000020 5d 33 85 3e 06 80 4a be b6 b7 96 3d 24 d3 84 be
       0.2601575 -0.197754 0.07359259 -0.25942338

attention_blocks.0.attention_blocks.0.W_k.weight f4 [4, 12]
000000 bf 55 59 bf a0 8d 97 be de 17 e0 3e c3 87 bb 3e
       -0.84896463 -0.2960024 0.4376821 0.36627015
000010 83 9a 10 3f f5 d1 07 bf 4e fe 2a 3f d5 2d b1 bd
       0.56485766 -0.53054744 0.6679429 -0.0865132
000020 63 7b 31 3f 74 d0 13 3f bb 57 0e bf 67 52 e8 be
       0.693289 0.5773995 -0.55602616 -0.45375368
000030 de e8 26 be df 30 54 3e 67 ad 7d bf 9e d0 a8 3e
       -0.1629977 0.20721768 -0.99092716 0.32971662
000040 03 a4 9a 3e 58 2e 22 3e 94 54 ae 3d 26 7d 3b 3d
       0.30203256 0.15837991 0.08512226 0.045773648
000050 25 e0 6e 3e cf bc eb be cc 4b aa 3e f9 95 a4 be
       0.23327692 -0.46042487 0.33260953 -0.3214567
000060 25 dd 8f be 28 ab e6 bc 75 82 f2 be b6 32 cb 3e
       -0.28098407 -0.028157786 -0.47365156 0.39687127
000070 e3 bd 2f 3e bd ff 06 3e ab 7e 6b 3e 0a 56 b7 be
       0.1716228 0.13183494 0.22997539 -0.3580783
000080 f3 94 34 3f d1 50 51 3e c3 39 79 3e 9d 72 29 bf
       0.7053978 0.20440985 0.2433844 -0.6619051
000090 42 25 11 3f 9e b1 0c bf cd 38 ae be b4 46 2f be
       0.56697476 -0.5495852 -0.3402771 -0.17116815
0000a0 0b dd ac 3e 6d b1 ff 3e c7 29 08 bf 39 9d 39 bd
       0.33762392 0.49940053 -0.5318875 -0.045315955
0000b0 18 0f 46 be aa 1d cc 3e 2a 39 0a bf 7b 15 91 3e
       -0.19341695 0.39866382 -0.53993475 0.283367

attention_blocks.0.attention_blocks.0.W_q.weight f4 [4, 12]
000000 38 8c 10 bf fe 05 23 bf fa de 14 bf f7 00 bc 3e
       -0.56463957 -0.6368102 -0.58152735 0.36719486
000010 7e 48 8b 3f f9 b0 d4 bd 82 bf f8 bd ba 1c 41 be
       1.0881498 -0.10385317 -0.12145902 -0.18858615
000020 e6 19 05 be ef b2 be 3e e6 6c 6a 3e 89 6f 82 bd
       -0.1299816 0.3724589 0.22893104 -0.0636893
000030 d9 2b 27 3f 04 b9 87 bd d7 f9 2e bf 8c 36 a5 3c
       0.6530128 -0.06627086 -0.68349975 0.020167612
000040 d3 8b 0e 3f a8 18 ba be 7a 9f d3 be d8 6a 91 3e
       0.55682105 -0.36346936 -0.41332608 0.28401828
000050 ff 6e 51 3e 71 49 b3 be a3 fe b0 3e dd 42 df 3d
       0.20452498 -0.3501697 0.34569272 0.10901425
000060 fd 7c b7 3e d9 51 21 be f6 73 06 bf 9e 72 ae 3e
       0.35837546 -0.15753879 -0.5252069 0.3407182
000070 35 ae 7a 3f cb bf 57 be f0 89 05 be 11 fe 89 be
       0.9792207 -0.21069257 -0.130409 -0.2695165
000080 2f da bc be fc e3 61 be 1c 78 b7 3d 84 07 63 3b
       -0.3688521 -0.22059625 0.08958456 0.003464193
000090 5f 74 93 3e 17 0d ea bd 88 11 a3 3e 18 47 99 bf
       0.28799722 -0.11428278 0.31849313 -1.1974821
0000a0 4e 12 fe 3e 28 2f a7 3e 11 e0 3f 3f 8c 92 ac 3e
       0.4962334 0.32653165 0.74951273 0.33705556
0000b0 d8 8b f8 3e 95 5f 48 3e 7a 13 39 bf ed d4 56 bf
       0.48544192 0.19567712 -0.72295344 -0.8391865

attention_blocks.0.attention_blocks.0.W_v.weight f4 [4, 12]
000000 4d cc 13 3c 0f 00 a0 3b 62 9b 3c 3a cc 4d 93 37
       0.009020877 0.0048828195 0.00071947847 1.7559993e-05
000010 e6 88 69 3b d0 58 43 bb f7 bf 2a 3c ff 20 8d 3c
       0.0035634576 -0.0029807575 0.010421745 0.017227648
000020 7e 4e e6 bb 34 17 17 bb 45 ed 92 3b f4 6f 9d 3c
       -0.0070284 -0.0023054602 0.004483851 0.019218422
000030 b7 41 9c b9 f2 71 6e bb ad 60 1a 3c 38 da 59 ba
       -0.000298036 -0.0036383835 0.009422463 -0.000831041
000040 94 7b e8 3b 30 c6 9e 3a 10 55 60 bb 4b 54 b5 bc
       0.00709481 0.0012113508 -0.0034230389 -0.02213492
000050 7a 5c ee ba 5e 96 cc bb a6 b1 ac bb 49 37 c6 b9
       -0.0018185519 -0.006243511 -0.005270201 -0.00037806694
000060 0b 8a f6 bb 2f 36 81 bd 1f 6d 91 3d 19 79 7c bd
       -0.00752378 -0.06309163 0.07100891 -0.061638925
000070 3e b3 88 bd 25 11 d9 3d 50 08 da ba 56 5f c1 3d
       -0.06674813 0.10598973 -0.0016634557 0.09442012
000080 32 22 7d be 80 01 15 3e 28 ce 33 3a 48 87 c3 3d
       -0.24720076 0.14551353 0.0006859028 0.09547287
000090 95 93 82 3b 75 d5 c3 3b 9c 03 10 bc e9 d5 b6 3a
       0.0039848783 0.005976374 -0.008789923 0.0013949248
0000a0 e2 f7 59 bb a0 8b 9e bb 18 a9 26 3c eb 0c 05 3d
       -0.0033259322 -0.004838422 0.010172151 0.032483023
0000b0 0b 26 b5 bb a0 43 a3 3a c9 6d 14 3b df fe 47 3a
       -0.0055282167 0.0012456067 0.0022648445 0.00076292263

attention_blocks.0.attention_blocks.0.W_o.weight f4 [12, 4]
000000 dc 62 95 bc 10 4a 52 ba 56 16 aa bd 13 8b 8e bc
       -0.018235616 -0.00080219004 -0.083050415 -0.0174003
000010 5a 4a db bb a0 e8 cf 3a 29 9e cf 3c 4d ea 2e bb
       -0.006692213 0.0015862174 0.025343971 -0.0026689947
000020 dc 8d e1 3a f6 0b 90 3b f6 46 a5 bc 6b a0 af bb
       0.0017208415 0.004395957 -0.020175438 -0.0053596995
000030 09 44 3a ba c6 2d 00 3c 09 4b 08 be a8 db dd bb
       -0.0007105475 0.007823413 -0.13309874 -0.00677057
000040 fe ca 8d bb ff af 6b bc 3d 70 0b 3c 03 08 54 bc
       -0.004327177 -0.014385222 0.008510646 -0.012941363
000050 cf b4 82 3a f0 be 66 bb 57 ea ba bd 2c 4d 50 3a
       0.0009972098 -0.0035209022 -0.09126728 0.000794607
000060 58 9f bc 3b b4 ca 5f bb 4c 6e ea bd 12 77 2c 3b
       0.0057563 -0.003414792 -0.11446819 0.0026316089
000070 81 0b 08 39 ce 8b 1f 3b af 57 12 be f9 d2 96 39
       0.00012974256 0.0024344805 -0.14291261 0.00028767416
000080 35 a6 4a 3b 5e 7f b6 3a 8a b8 ae bc f8 38 c5 38
       0.003092182 0.0013923456 -0.02132823 9.404303e-05
000090 4f f2 65 3b d4 cd c1 3b 68 af 27 be ee 37 35 3c
       0.0035087054 0.005914429 -0.16375506 0.011060698
0000a0 00 46 12 3c a2 e2 05 bc 81 4a 1c be 3b be ae 3c
       0.008927822 -0.008171709 -0.15262796 0.021330943
0000b0 ce 79 21 3c fa d4 70 3b b2 24 86 be db 07 2f 3c
       0.009855701 0.0036748038 -0.2619987 0.010683025

attention_blocks.0.attention_blocks.1.layer_norm.weight f4 [12]
000000 1b 82 8d 3f 27 1b a1 3f 6b 65 28 3f 7a 73 a0 3f
       1.105533 1.2586411 0.6577975 1.2535241
000010 c5 ca b0 3f 57 73 2a 3f 97 e9 81 3f 32 0e 74 3f
       1.381188 0.66582245 1.0149411 0.9533416
000020 c0 03 a7 3f 30 46 9d 3f c4 13 55 3f 92 cd 84 3f
       1.304802 1.2287045 0.83233285 1.0375235

attention_blocks.0.attention_blocks.1.layer_norm.bias f4 [12]
000000 b3 75 83 3d da d5 82 3e f8 3c 4f be ff df 27 3e
       0.06418934 0.2555378 -0.20238101 0.16394041
000010 cc 9c 59 3e e1 e3 24 be 4a 07 ab 3d af b9 83 be
       0.2125122 -0.16102554 0.08351 -0.25727603
000020 02 a1 64 3e 1f 57 56 be 12 5b 79 be 74 0f a8 bd
       0.22327045 -0.20931672 -0.24351147 -0.082060724

attention_blocks.0.attention_blocks.1.W_k.weight f4 [4, 12]
000000 eb 9f e2 3d be fd eb 3c 45 ba fe 3d ea 25 09 be
       0.11065658 0.028807517 0.12437872 -0.1339337
000010 51 56 42 bf e7 27 9a 3d 62 1f 80 3e fd e6 95 3e
       -0.7591296 0.07527142 0.25023943 0.29277793
000020 24 2a 1d bf 6a 59 8a 3e f6 13 8d bd 02 cf 9d 3e
       -0.61392426 0.27021343 -0.06888573 0.30821997
000030 ce d0 21 3f 23 fe dc 3d bb 32 9f 3e c1 5b c4 3d
       0.63209236 0.1079066 0.31093392 0.09587813
000040 67 41 2f bf ef 75 8a 3e b6 07 1d bf c6 01 80 be
       -0.6845917 0.270431 -0.6133989 -0.25001353
000050 30 8f b1 be f9 57 81 3e ee 4c 11 3f b1 58 3a be
       -0.34679556 0.2526243 0.5675801 -0.18197896
000060 e1 ca a1 bd 47 e9 a3 bd 60 00 c2 3e a5 11 24 3e
       -0.07900024 -0.080034785 0.3789091 0.16022356
000070 d9 3b 62 bf c7 7e 63 bd d3 a8 c0 3e c6 f0 af 3e
       -0.8837257 -0.055540826 0.37628803 0.34363383
000080 4f 81 34 bf a5 c7 19 3e 71 23 4e 3e ac ec 08 be
       -0.7050981 0.15017565 0.20130707 -0.13371533
000090 7f 29 80 be 62 37 5a bf 3a 7e 8c 3d 70 cf 1e bf
       -0.2503166 -0.8524076 0.06860013 -0.62035275
0000a0 c1 24 39 3e c8 dc 6f 3e c1 6a d1 be e1 e4 cc 3e
       0.18080427 0.23424065 -0.4090176 0.4001837
0000b0 d8 cd 8c 3e fe c2 f6 3e ed 49 f0 3e 44 70 61 3c
       0.27500796 0.48195642 0.469314 0.013759676

attention_blocks.0.attention_blocks.1.W_q.weight f4 [4, 12]
000000 12 8d 1e 3e 9a 17 f4 3e a1 ee 83 3e ca 41 0e bf
       0.15483502 0.47674257 0.25767997 -0.55569136
000010 0d f9 48 bf 7d 71 ed bc c6 7b c3 3d 14 bf 61 3e
       -0.7850502 -0.02898478 0.09545092 0.22045547
000020 49 92 a9 bd ac 92 c0 3e 91 a3 f9 bd 5d 94 48 3d
       -0.08279855 0.37611902 -0.12189401 0.048969615
000030 3b c6 b3 be 36 2f 63 bd 12 eb 56 be a4 d5 61 bf
       -0.35112175 -0.055464946 -0.2098811 -0.88216615
000040 78 43 c1 bd 00 b7 12 be da 5d e9 3d 1f 58 0f 3f
       -0.09436697 -0.14327621 0.11394854 0.5599384
000050 20 06 e3 3e 46 d1 5c 3e 3e 88 bb 3d 4d 2f 1a 3e
       0.4434061 0.21564206 0.091568455 0.15057106
000060 99 5e e9 3e 96 dc f4 3e 64 54 04 bc 5a c4 3a bf
       0.45579985 0.47824544 -0.008076761 -0.7295586
000070 8b 14 1e bf dd 5f 10 bd be e0 1a 3e b5 60 90 3e
       -0.61750096 -0.035247672 0.15124795 0.28198782
000080 13 75 bd bd 27 08 6c 3e 4a 86 12 bc 48 3d 86 be
       -0.09250846 0.23049985 -0.00894315 -0.2621863
000090 41 43 3d bf ce 15 68 3e 84 2c b8 be 9e d8 17 3d
       -0.73930746 0.22664568 -0.35971463 0.037071817
0000a0 d5 c7 3e 3f af dc 2e 3e 20 d5 af 3e 14 74 68 bc
       0.7452367 0.17076372 0.3434229 -0.014187831
0000b0 8a d0 dc be 49 36 81 3f 32 43 f4 bd 31 a9 48 bf
       -0.43127853 1.0094692 -0.11926879 -0.78383166

attention_blocks.0.attention_blocks.1.W_v.weight f4 [4, 12]
000000 0f 34 ea 3b 63 34 55 bb e4 c9 1a bc 02 a6 fa 3b
       0.007147319 -0.0032532446 -0.009447549 0.007649184
000010 4f 81 77 bb 90 ae 8d 3c f2 f4 b3 bb 2d ea 8e 3b
       -0.0037766283 0.017295152 -0.0054918462 0.004361412
000020 62 b9 74 3b 3c 5a 84 3b 76 b4 ec bc 5f 14 a7 3b
       0.0037341942 0.004039077 -0.028894644 0.005098864
000030 68 4b 14 be 61 34 ff 3c 4e 56 13 bc 2e ac da 3c
       -0.1448189 0.031152906 -0.008992745 0.02669343
000040 bc 1d 17 bd 6d 15 4f 3e 5c 6a 60 3e ca c8 a9 ba
       -0.03689359 0.20223017 0.21915573 -0.0012953517
000050 28 68 aa 3d 94 5c d7 bd 88 ef 9e 3b f0 d0 b3 3d
       0.083206475 -0.10515705 0.0048503317 0.08780086
000060 13 82 b2 bb a3 45 d6 3b e8 af 18 3c 04 61 16 3b
       -0.005447635 0.006539063 0.009319283 0.002294601
000070 e9 a3 b5 3a ca fa 95 3b 1f 16 39 bb 9a 35 71 3b
       0.0013858053 0.0045770155 -0.0028241945 0.003680563
000080 8a 85 e9 3a ea 4e 93 3a ff ba 6a ba 75 20 d1 3b
       0.0017816287 0.0011238728 -0.0008954256 0.006382043
000090 99 1b 31 be d9 00 23 3e 33 f1 c8 bd 34 3f 7b bc
       -0.17295684 0.15918292 -0.0981163 -0.015334893
0000a0 d4 65 9b 3c c8 5a ec b8 59 bc 96 3d 9e 5b 06 3c
       0.018969454 -0.00011270266 0.07360143 0.008200554
0000b0 29 1b b3 3d 39 88 e2 3c 86 d3 12 3d 66 ec ac bc
       0.08745415 0.027652847 0.035846256 -0.021108817

attention_blocks.0.attention_blocks.1.W_o.weight f4 [12, 4]
000000 84 ce 51 3c 85 2c e1 bd a0 85 f6 bb 27 f2 e6 3c
       0.012805585 -0.109948196 -0.0075232536 0.02819164
000010 32 4c bf bb 7b 9c 01 bd 23 39 46 3b 48 da 44 3e
       -0.0058379406 -0.031643372 0.0030246458 0.19223893
000020 76 ac 2a bc f3 3a 31 3d f9 d0 ec 3b 1e 22 81 3d
       -0.010417094 0.04326911 0.00722706 0.063053355
000030 a9 e9 65 bb 72 12 c3 3b 70 41 19 3b 2c b9 07 bd
       -0.00350819 0.0059531266 0.002338495 -0.033135578
000040 0a 79 21 bb be ac f5 bc 98 4b 10 3a f3 bb bc bd
       -0.0024638795 -0.029989596 0.00055044284 -0.09215536
000050 47 db ad b9 c7 ed ca 3c 30 84 1d 3a e3 6e 67 bd
       -0.00033160506 0.024771584 0.0006008772 -0.056502234
000060 8c 70 bc bb 46 7f 0d 3c 2d 92 60 3b 86 5c 8f 3d
       -0.0057507213 0.008636301 0.0034266815 0.07000069
000070 de a6 15 bb 3e 3c 00 3e ac 65 bc 3a 1a 2c 1b 3d
       -0.0022835056 0.1252298 0.0014373562 0.037883855
000080 47 4b b8 ba 39 60 05 3e e3 7e 48 39 60 32 ab 3d
       -0.001406052 0.13024987 0.00019120755 0.08359218
000090 af 59 17 3c 42 a7 ae 3d ce 6f ed bb b9 92 c2 bd
       0.009237691 0.08527996 -0.007245994 -0.095006414
0000a0 e8 f9 2e 3c 11 22 14 3e 14 07 e1 bb bb da 57 be
       0.0106796995 0.1446612 -0.006867299 -0.21079533
0000b0 f5 75 0b bc ea 67 0d bd 66 b9 c9 3b 94 b8 82 3d
       -0.00851201 -0.03452293 0.0061561344 0.06382862

attention_blocks.0.attention_blocks.2.layer_norm.weight f4 [12]
000000 86 84 4a 3f 11 ac 1e 3f fc 5a 8b 3f a9 42 8b 3f
       0.79108465 0.619813 1.0887141 1.0879718
000010 f0 c3 95 3f 38 19 96 3f 78 89 8d 3f ea 84 51 3f
       1.170042 1.1726446 1.1057577 0.81843436
000020 ce 3e 86 3f af 6d 8e 3f 59 89 4b 3f ca 67 31 3f
       1.0487916 1.1127223 0.7950645 0.69298995

attention_blocks.0.attention_blocks.2.layer_norm.bias f4 [12]
000000 8a d2 e3 bd 16 89 c7 3e 3b 70 be be 79 8a a2 3e
       -0.111241415 0.38971776 -0.37195 0.3174627
000010 12 10 98 3e 10 0e 98 be 35 a1 8b 3e 22 16 a5 be
       0.2969976 -0.2969823 0.2727143 -0.32243448
000020 cc db a8 3e e2 03 ad be fb 34 8a be 0e a0 9d bc
       0.32980192 -0.33792025 -0.26993546 -0.01924136

attention_blocks.0.attention_blocks.2.W_k.weight f4 [4, 12]
000000 22 25 47 bf 49 05 8a 3e fa 32 0d 3d c4 d2 9d 3c
       -0.77791035 0.26957157 0.034472443 0.01926554
000010 19 9c 00 3f bc 10 1a bf 3f e7 30 3f 7c 0d 6c be
       0.50238186 -0.60181785 0.69102854 -0.23052019
000020 f2 f8 ec 3e 9d 9e 98 be ff ef 35 be e6 d0 be be
       0.4628368 -0.29808512 -0.17767332 -0.37268752
000030 d4 da 01 be d1 df 9b 3e f5 af 4a bf ac 79 56 3f
       -0.12681133 0.30444196 -0.7917474 0.83779407
000040 89 e9 6d 3e 92 97 8c be 0a 34 d8 3d ad f8 43 bf
       0.23233618 -0.2745939 0.10556801 -0.76551324
000050 3b ad 18 3f 9a 37 0c be 71 74 96 bd 5c 33 84 bd
       0.5963933 -0.13693085 -0.07346428 -0.064551085
000060 33 04 0c 3e 25 d0 01 be e0 10 37 3f e5 4b 71 be
       0.13673477 -0.12677057 0.71510124 -0.23564108
000070 e8 be 0d bf 7c bc 6d 3e eb f5 91 bc 88 11 23 3e
       -0.55369425 0.23216432 -0.017817458 0.15924656
000080 c9 50 41 bf 8d c4 27 3f 55 9a 3c 3e 19 dc 70 be
       -0.75513893 0.6553429 0.18418248 -0.2352146
000090 ee bc c3 3e a1 73 76 be 3a 87 dc 3e 4f 30 ea bc
       0.3823008 -0.24067546 0.4307192 -0.028587488
0000a0 07 ed 25 bf 12 b7 01 3f 54 3c b0 be b4 a6 0e 3d
       -0.648148 0.5066997 -0.34421027 0.03482695
0000b0 60 90 18 bf 11 18 5e 3f 12 cc 65 3d f9 39 36 3c
       -0.595953 0.8675547 0.05610282 0.01112222

attention_blocks.0.attention_blocks.2.W_q.weight f4 [4, 12]
000000 c7 d5 80 3e 59 59 47 bc af e4 d2 3d 95 c0 42 3f
       0.251631 -0.012167298 0.10297524 0.76075107
000010 b4 5e 88 3e 0d b9 30 bf 1d d3 ee be 4c 60 1b be
       0.26634753 -0.69032365 -0.46645442 -0.15173453
000020 f0 ae 44 bd fd cd d1 be 17 0f 02 3d c3 2a af bd
       -0.048018396 -0.4097747 0.031752672 -0.08553078
000030 d0 20 1e 3e 07 3c 19 3e 6b 70 2d bf b9 f4 97 3e
       0.15442204 0.14964305 -0.6774966 0.29678896
000040 69 3c 94 3f e1 91 09 bf 91 33 f8 3e 79 cc 4f be
       1.1580936 -0.5373822 0.48476842 -0.20292844
000050 79 e1 1b 3d f6 3a 16 bf 48 a9 86 3e 4f fb c5 be
       0.038056824 -0.5868372 0.26301026 -0.38668296
000060 ea 38 86 3d e5 b8 8d 3e b2 34 e1 3e c4 5c f3 be
       0.06553824 0.27680126 0.43985516 -0.47531712
000070 d2 48 51 bf 61 33 33 3f c1 b7 01 3f 97 ec 44 be
       -0.8175174 0.70000273 0.5067101 -0.19230877
000080 50 7c c3 be 36 f1 77 3e f1 b1 12 bf c5 7e da bd
       -0.3818078 0.24213108 -0.5730277 -0.106687106
000090 1c 25 0d be b3 cd c2 3d 4c 01 61 3e 5b ba 1b bf
       -0.13783687 0.0951189 0.21973151 -0.6083123
0000a0 89 35 c5 be cb 99 55 3f 58 8f 57 3f 5c bd bc bd
       -0.38517407 0.83437794 0.842031 -0.09215805
0000b0 d0 c9 81 be 80 6a a0 3e 78 04 dc be 4f 7a 15 be
       -0.25349283 0.31331253 -0.4297216 -0.14597438

attention_blocks.0.attention_blocks.2.W_v.weight f4 [4, 12]
000000 36 41 66 3a 18 ba 21 bc 4f 8c d0 ba 42 66 42 bb
       0.0008783521 -0.009871028 -0.0015910956 -0.0029663001
000010 af 91 79 bb f9 39 bc bb 10 a7 22 bb fd 5e 8e bc
       -0.003808122 -0.0057442156 -0.0024818815 -0.017379278
000020 76 c6 1c 3a ec a9 84 3b cf ad 84 bb c2 28 be 3b
       0.0005980501 0.0040485766 -0.00404904 0.0058031986
000030 82 5b ab bc b1 d7 cb bb ae 71 9f 3b bc e9 34 bb
       -0.020917658 -0.006220781 0.0048658466 -0.0027605137
000040 80 b6 18 3b 07 5d 91 3a a2 bd 20 bc 3c 65 8a bc
       0.0023302138 0.0011090346 -0.009810837 -0.016893975
000050 f6 c5 d6 bb 28 dd 85 bb 2f ec 21 bc ed d7 14 bc
       -0.0065543605 -0.004085202 -0.009882971 -0.009084684
000060 9c 60 25 3b e7 3e 7b bb 98 63 fc bb 9c e1 72 ba
       0.0025234586 -0.0038337053 -0.007702302 -0.0009265186
000070 3f 1f 10 bc 50 07 a6 bb dd 18 f2 3b 69 83 9f 3c
       -0.008796512 -0.0050667897 0.007388218 0.019471841
000080 73 95 93 3b 6d be c0 bb 44 06 65 3c d0 91 c2 bc
       0.0045038997 -0.0058820755 0.013978545 -0.02375117
000090 f1 bd 9f 3c c3 77 e6 3a 39 db 32 3c 68 0e 35 3c
       0.01949975 0.0017583299 0.010916525 0.011050798
0000a0 f5 6c 26 3c 3a 82 99 3b f8 92 a3 3c f8 ae b2 b8
       0.010157813 0.0046847137 0.019967541 -8.520292e-05
0000b0 8e 25 1c bb d3 2f f4 3b f9 e2 35 3b 26 e1 22 3d
       -0.0023826095 0.00745199 0.0027753694 0.0397655

attention_blocks.0.attention_blocks.2.W_o.weight f4 [12, 4]
000000 4e 6d 17 3c ec c5 29 3c 2c 1a 94 bb 77 35 90 bb
       0.009242369 0.01036213 -0.0045197215 -0.0044009048
000010 b4 44 a0 ba 9e df 2a bb d4 25 dd ba a5 78 96 3a
       -0.0012227506 -0.0026073228 -0.0016872236 0.0011480047
000020 0a c1 8a bb 81 e4 76 bb 21 a8 a3 3b 26 b1 66 3b
       -0.004234438 -0.003767282 0.0049944078 0.0035200804
000030 7d 60 94 bb 47 12 58 b9 d8 d3 1e 3b 9e e8 9c 3b
       -0.004528104 -0.00020606174 0.0024235155 0.0047884723
000040 4f c3 2c bb 4a 02 1a bc 28 2a 43 bb 11 6e a9 3b
       -0.002636153 -0.00939996 -0.0029779766 0.0051705916
000050 3a 70 4a bb 4c 6f e5 bb 0d 72 41 ba 62 2f 8c 3b
       -0.0030889646 -0.007001793 -0.00073793606 0.0042781094
000060 d6 c8 d7 bb 24 b9 ee bb 4b 4f c7 3a 04 de e3 3b
       -0.006585221 -0.007285254 0.0015206126 0.0069539566
000070 54 56 48 bb 27 e1 81 bb 32 51 20 3b 9d fe 29 bb
       -0.0030569034 -0.003963608 0.0024462459 -0.0025939115
000080 8c 03 b2 bb 75 88 e5 ba 74 70 1d 3b 3a 25 32 bb
       -0.0054325517 -0.0017511981 0.0024023326 -0.0027182833
000090 e4 9b 29 bb 51 b4 96 3b 70 8b 8e 3b 0f 9b 51 bc
       -0.0025880272 0.004599132 0.0043501183 -0.0127933165
0000a0 6f af 3f bc 03 be e5 bb 1f 31 a2 3a 26 c3 b4 ba
       -0.0116995415 -0.0070111766 0.0012374258 -0.0013791069
0000b0 92 8b 35 3b 38 14 ec ba c1 37 7b 3b 2b c3 d2 bb
       0.0027701599 -0.0018011397 0.0038332792 -0.0064319572

attention_blocks.1.attention_blocks.0.layer_norm.weight f4 [12]
000000 2d f0 62 3f f0 bb 1c 3f 77 d6 74 3f 51 3f 8e 3f
       0.8864773 0.6122427 0.9563975 1.1113073
000010 05 29 a2 3f 44 a9 9f 3f 68 a4 99 3f fe b2 b9 3f
       1.2668768 1.2473531 1.2003298 1.4507749
000020 4c 5c a3 3f 6a 7e 8d 3f b9 69 8f 3f a6 cb a9 3f
       1.2762542 1.1054204 1.1204139 1.3265274

attention_blocks.1.attention_blocks.0.layer_norm.bias f4 [12]
000000 41 44 c6 bc b7 06 bb ba b9 f4 9f be fb 0a 16 3e
       -0.024202468 -0.0014268969 -0.31241396 0.14652626
000010 38 0c 5f be d9 1c 19 be e5 05 94 bd 7e 64 7b bd
       -0.21782005 -0.14952411 -0.07227687 -0.061375134
000020 2d 40 fb 3d 4a ee 44 be f0 d3 ab 3e d0 b0 81 3d
       0.122681 -0.19231525 0.33560133 0.063325524

attention_blocks.1.attention_blocks.0.W_k.weight f4 [4, 12]
000000 57 96 21 3e d0 b7 8c bd f4 e5 8c 3c 9d 9e 7f bc
       0.15780006 -0.06870997 0.017199494 -0.015601781
000010 6a 35 bb be 9a 4c 7d 3e cb 5b 78 bc 70 a4 51 bf
       -0.3656419 0.24736252 -0.015158604 -0.81891537
000020 db 30 17 3f 6d 70 9b 3d 0c 8b 6c be 4a 52 18 3d
       0.5905892 0.07589803 -0.23099917 0.037187852
000030 fb 9c a9 be c3 5f 95 3d 80 7b e8 3e c5 85 b5 be
       -0.3312758 0.07293656 0.45406723 -0.3545362
000040 32 a4 f5 3e da a6 6e 3e fc cd 6c be 59 e7 1a bf
       0.47976834 0.23305836 -0.23125452 -0.6050926
000050 54 d2 96 be 23 35 10 3f f4 2e 61 bf f2 f7 6b bd
       -0.29457343 0.5633108 -0.8796227 -0.057609506
000060 2b 2e 07 3e 33 36 ab bd 4d 6f a0 3e 02 18 c0 be
       0.13201205 -0.08359947 0.31334916 -0.37518317
000070 a6 65 5b be 2b 7c 04 3e 9f 34 72 3d 9e 7f 06 3f
       -0.21425495 0.12937991 0.059132215 0.5253848
000080 48 9f 36 bf 3d 3b 81 be 35 cf 3b bd d1 19 97 3e
       -0.71336794 -0.25240508 -0.045851905 0.29511884
000090 67 00 b0 bd c6 5a 02 be ca 3b 92 3e 71 af 72 be
       -0.08593827 -0.1272994 0.2856124 -0.23699738
0000a0 53 b7 80 3e 6e 2a 9d 3e 19 79 fe bd 6a 66 43 bf
       0.25139865 0.30696434 -0.12425441 -0.76328146
0000b0 c8 d6 32 3d 54 15 a3 3e dc da 43 bf 77 d7 f4 3d
       0.043661863 0.3185221 -0.7650583 0.11955159

attention_blocks.1.attention_blocks.0.W_q.weight f4 [4, 12]
000000 a6 eb 38 be 97 f2 11 be c6 86 85 3e c2 d4 4b 3f
       -0.18058643 -0.14252697 0.26079386 0.7962152
000010 c7 2f 37 3e 55 75 23 bf c0 7a 63 bf 5a 28 e2 bd
       0.1788932 -0.6385091 -0.88859177 -0.11042853
000020 9c 84 db bd 8b 94 3b 3e 83 ed cb be d2 f3 83 3f
       -0.107186526 0.18318383 -0.39829645 1.0308783
000030 bb 8c d0 3e a4 be e1 3d 18 e1 0f bf 37 e2 ce 3e
       0.4073237 0.1102269 -0.5620284 0.40406963
000040 46 12 03 3f 7c 8a 27 bf 97 0f ba 3b a2 34 1f 3e
       0.5119976 -0.65445685 0.005678128 0.15547422
000050 af e2 ae 3b 16 b9 3e 3d ab 30 ce 3d b0 91 c1 be
       0.0053370814 0.04656323 0.100678764 -0.37806463
000060 8e 47 f8 be bb 33 94 be 9a 3c 4c be e2 95 85 3e
       -0.48492092 -0.28945717 -0.19944993 0.26090914
000070 c8 af 0f 3f 23 fa 7f 3f c2 bc 2f 3f 78 4d 77 3f
       0.56127596 0.99991053 0.68647397 0.9660258
000080 c3 e2 29 be 38 8a 4f 3e 9f b0 c7 be b3 76 31 bf
       -0.16590409 0.2026757 -0.3900194 -0.69321746
000090 22 eb d3 3e 0e e3 65 bd 10 3a c6 be 87 58 1d 3f
       0.4139033 -0.05612474 -0.38716173 0.61463207
0000a0 11 61 d2 3e d6 36 1a bf 9e 85 d7 be 33 24 ed 3d
       0.4108968 -0.60239923 -0.4209413 0.1157917
0000b0 13 b3 56 bd cf a7 e4 3d b6 6d 07 be b4 fc 6b be
       -0.052416872 0.111648194 -0.13225445 -0.23045617

attention_blocks.1.attention_blocks.0.W_v.weight f4 [4, 12]
000000 77 19 5c 3d 1b 97 43 3e 7b 46 be 3d 92 66 1d 3e
       0.053735223 0.19100611 0.09290787 0.15371159
000010 e1 b8 83 3e ff d2 16 3e 72 ac dd 3e ce ce 1e 3d
       0.2572699 0.14728926 0.43295628 0.038771443
000020 e0 b3 3f bf b5 fe cd 3e 24 5c f0 be 7f 33 95 be
       -0.7488384 0.4023339 -0.46945298 -0.2914085
000030 ce f0 79 ba 77 e0 90 be 2c c9 28 be 0c 0e a6 3d
       -0.0009534479 -0.28296253 -0.16482991 0.08108148
000040 9f a5 9f 3d 40 83 97 be 55 b7 05 bf 6c e6 94 be
       0.077952616 -0.29592323 -0.5223287 -0.29082048
000050 a6 80 3a 3f 7c 5a b8 be f5 39 96 3e c8 2d a5 3e
       0.7285255 -0.36006534 0.29341093 0.3226149
000060 5b 13 09 3e e0 84 50 3e f6 e1 ff 3d b3 6b 21 3e
       0.1338629 0.20363188 0.124942705 0.1576374
000070 be d5 9a 3e 2d 81 dc 3d 7b 0c cd 3e 15 1f d2 3c
       0.30241197 0.10766826 0.40048584 0.025649587
000080 94 f2 46 bf 05 9d bd 3e 18 aa f9 be 18 fd a1 be
       -0.77713895 0.3703386 -0.48762584 -0.31638408
000090 14 d1 51 3a 37 31 7b be 72 b3 ad bd ae 14 c9 bd
       0.00080038724 -0.24530493 -0.08481492 -0.098183975
0000a0 ec 2c 69 be 58 e9 4b be 5b 14 dd be 73 92 ad bd
       -0.22771043 -0.19913232 -0.43179592 -0.084751986
0000b0 2f f6 40 3f 60 3a d1 be de e0 d4 3e 04 d8 a2 3e
       0.75375646 -0.4086485 0.4157781 0.31805432

attention_blocks.1.attention_blocks.0.W_o.weight f4 [12, 4]
000000 4f 98 2f bf 11 04 d6 3e 68 95 43 bf 4f 4f 25 3f
       -0.6859178 0.41799977 -0.7639985 0.6457414
000010 07 82 8d 3e ce ed e0 be 4a 97 8c 3e 93 f2 96 be
       0.27638265 -0.4393143 0.27459174 -0.29481944
000020 56 15 1e be 97 5a c0 3e 30 c7 32 be b4 66 5d 3e
       -0.15437827 0.37569115 -0.17458797 0.2162121
000030 ff 23 b1 3e ce 95 82 bd 4d 49 db 3e f9 d2 85 be
       0.34597775 -0.06376229 0.42829362 -0.26137522
000040 e0 d2 90 3e 84 54 48 be 50 30 81 3e 81 f7 9f be
       0.28285885 -0.1956349 0.25232172 -0.31243518
000050 dc a9 47 3e 2c c4 66 be 8b bf 82 3e da 50 3b be
       0.1949839 -0.22535771 0.2553676 -0.18292561
000060 b8 35 05 bd 2e a8 25 3e af 16 91 bd 20 12 27 3d
       -0.032521933 0.16177437 -0.07084405 0.04078877
000070 56 de 9a bd 75 72 79 3e 80 ed 8c bd d8 e7 d4 3d
       -0.075619385 0.24360068 -0.06881237 0.10395783
000080 57 4a e6 be 65 ac f2 3e ed a2 d8 be e0 e7 e5 3e
       -0.44978592 0.47397152 -0.42311803 0.4490347
000090 b5 75 55 be f0 80 c4 3e 7c cf 42 be 2c c7 8c 3e
       -0.20845683 0.38379622 -0.19024462 0.27495706
0000a0 29 10 de be 50 c1 05 3f 5c 21 cc be c3 da fc 3e
       -0.43371704 0.52248096 -0.398692 0.49385652
0000b0 39 ea 4b bf 94 27 10 3f 91 6d 59 bf 99 a0 42 3f
       -0.7965427 0.5631039 -0.8493281 0.760263

attention_blocks.1.attention_blocks.1.layer_norm.weight f4 [12]
000000 95 9a 86 3f 7a e5 6f 3f 3e fe b2 3f 50 4f 80 3f
       1.0515925 0.9370953 1.3983839 1.0024204
000010 23 9d 79 3f 5b ee 8d 3f ab bb 97 3f 21 22 a8 3f
       0.97505397 1.1088365 1.1854147 1.3135415
000020 85 84 68 3f 78 5c 40 3f 88 20 57 3f c9 67 5f 3f
       0.9082721 0.75141096 0.84034014 0.8726774

attention_blocks.1.attention_blocks.1.layer_norm.bias f4 [12]
000000 60 d9 8f 3d 74 55 6f bd 3b f8 bb 3d 3b 26 19 be
       0.07023883 -0.058431104 0.091782056 -0.1495599
000010 20 5c 41 bd da 66 0b be cf 60 18 be 7a 2f 2f 3d
       -0.047206998 -0.13613454 -0.1488068 0.042769887
000020 c2 5a 31 be c9 43 11 3c df de da 3d 55 bd 6a 3c
       -0.17319778 0.008866259 0.106870405 0.014327367

attention_blocks.1.attention_blocks.1.W_k.weight f4 [4, 12]
000000 55 f9 58 3f 38 de 0e bf 7b c8 f9 3e 11 9e 8f be
       0.8475545 -0.5580783 0.48785767 -0.28050283
000010 ae 59 05 be 3c 2c 2e bf ae d4 0c bf 1a 2b f5 3e
       -0.13022491 -0.68036246 -0.55012023 0.47884446
000020 e0 ab 13 3d 1d 04 d0 3e a0 ba 44 3f 3f 34 13 3c
       0.036052585 0.40628138 0.7684727 0.008984624
000030 25 e0 2c be 49 cb 26 3e 53 0f 23 bf 07 a0 22 3e
       -0.1688238 0.16288485 -0.6369526 0.15881358
000040 7c a2 66 3e a2 0e b3 3c 81 75 1e 3f 61 04 53 bf
       0.2252292 0.021857563 0.61898047 -0.82428557
000050 df fb 03 3e 83 66 4b 3e a5 8d bd 3d 7e b5 54 be
       0.1288905 0.19863324 0.09255532 -0.20772359
000060 38 a3 02 bf 63 ed b0 3e 98 70 2d bf 94 02 e3 3d
       -0.510303 0.34556112 -0.6774993 0.11084476
000070 46 37 33 3e ba 53 50 3e 9b 52 22 3f c3 4b 2d bf
       0.17501554 0.20344439 0.63407296 -0.6769373
000080 ce 2a c2 3d 33 cb 54 3e 02 1b 3b be b7 a0 ab be
       0.094808206 0.2078064 -0.18272021 -0.33521053
000090 16 00 8f 3e 09 84 16 be 37 15 03 3f a5 95 b6 be
       0.27929753 -0.14698805 0.51204246 -0.35661045
0000a0 c1 b1 38 be 13 9b 79 be 91 19 5b bf c7 ba 6a 3f
       -0.18036558 -0.24375562 -0.85585886 0.9169125
0000b0 8d 41 3d 3d 50 5c e2 3e b0 6b 58 3e c4 b0 73 be
       0.046205092 0.44211054 0.2113483 -0.237979

attention_blocks.1.attention_blocks.1.W_q.weight f4 [4, 12]
000000 6a b1 fa bd ac c1 cb bd 25 fc 0a 3f 15 e0 1b bf
       -0.1224087 -0.09949049 0.5429099 -0.608888
000010 63 73 4e bf 04 da 48 3f 1d df 46 3e 03 5b 94 3e
       -0.80644816 0.78457665 0.19421048 0.28975686
000020 5b c3 10 3f df 72 04 3e 93 75 16 be c2 c0 76 be
       0.5654809 0.12934445 -0.14693289 -0.24096969
000030 4c 25 70 3e 7c 61 9e bb 04 ba 4f 3c 05 f7 b7 3e
       0.23451728 -0.0048333984 0.012678627 0.35930648
000040 12 52 21 3e c2 9b 8c bf 27 31 16 bf 6f 77 40 bf
       0.15753964 -1.0985034 -0.5866875 -0.7518224
000050 16 ef a2 3d 0a 9e 53 be 55 21 d6 3e 72 8a d6 3e
       0.07955758 -0.20665756 0.41822305 0.419025
000060 49 31 2b 3e 7d 50 39 3d e1 4e b3 be 03 35 09 3f
       0.1671802 0.045242775 -0.35021117 0.53596514
000070 af 98 c9 3e a1 47 60 bf 57 86 a6 be e2 6c 0c bf
       0.393743 -0.876093 -0.32524368 -0.5485364
000080 5d 92 36 bd 11 78 5a be 67 50 89 3e 37 ee 8e 3e
       -0.044573177 -0.21334864 0.26819155 0.27916119
000090 50 fd 5e be 54 17 0b bd e9 90 26 bd 02 13 a3 be
       -0.21776319 -0.033957794 -0.04066554 -0.3185044
0000a0 5f c1 23 bf 9f e8 6f 3f 90 06 01 3f 21 ae a4 3e
       -0.63966936 0.93714327 0.5040064 0.321641
0000b0 f1 28 4a 3f d5 84 5e 3d 04 f5 ad be 45 45 be be
       0.7896872 0.054325897 -0.33975995 -0.37162223

attention_blocks.1.attention_blocks.1.W_v.weight f4 [4, 12]
000000 8d 68 a1 bf 57 bf 03 3f 99 30 76 3e b5 15 8d 3d
       -1.2610031 0.51463836 0.24041976 0.06888906
000010 c8 6a 40 3e 71 f6 b5 bd f0 91 7b 3d 19 15 20 3e
       0.18790734 -0.088848956 0.061418474 0.15633048
000020 f4 9e 22 bd c2 ad 1d 3e 90 04 75 be 78 57 2d bf
       -0.03970237 0.15398315 -0.23927522 -0.6771159
000030 27 35 a4 bf e5 d1 e2 3e 8d 8a 96 3e 79 25 7c bd
       -1.2828721 0.44300762 0.2940258 -0.061559174
000040 87 10 0e 3e b8 e4 4c bc 12 04 e9 3d 02 64 60 3e
       0.13873492 -0.012505703 0.113777295 0.2191315
000050 4d 76 2e 3a 26 42 3d 3e cb 30 9f be 59 e2 3a bf
       0.00066552014 0.18482265 -0.31091914 -0.7300163
000060 2f 1b 9a 3f 3f 29 72 bd 0c 59 db 3d fd 98 df be
       1.2039546 -0.059121367 0.10710344 -0.43671408
000070 c3 c0 e6 be 9e 47 e6 3d fe b6 ca be c6 b0 5d bd
       -0.4506894 0.11244129 -0.39592737 -0.054123662
000080 f4 05 fe bc 4e a7 b2 be 58 1a f5 3e 10 e1 2a 3e
       -0.031008698 -0.34893268 0.4787166 0.16687417
000090 0d af 9a 3f 9b 48 1f bf 4a ef c2 be c4 22 d9 3b
       1.2084671 -0.6222016 -0.38073188 0.006626459
0000a0 d0 2b cb bd cd fc 0a 3e d2 50 03 3c 8d 58 09 be
       -0.09920466 0.13572998 0.0080148745 -0.13412686
0000b0 79 b7 00 3e e3 77 9f 3d ff ef 35 3e ad 87 1a 3f
       0.1256999 0.077865385 0.17767332 0.60363275

attention_blocks.1.attention_blocks.1.W_o.weight f4 [12, 4]
000000 99 d0 47 be 49 d1 29 be 7f 32 a6 3f 62 62 a6 bd
       -0.19513167 -0.16583742 1.298416 -0.08124234
000010 01 06 3c 3e 60 df 51 3d 81 eb bd be ac f9 56 be
       0.18361665 0.051238418 -0.37093738 -0.2099368
000020 3e 1f 9d bf ab 0e 8f bf b5 d9 73 3f fc 64 97 3f
       -1.2275159 -1.1176351 0.9525407 1.1827693
000030 55 38 61 3e 94 b2 e4 3e d7 dd b4 be 38 d8 12 3c
       0.21994145 0.44667494 -0.353255 0.008962683
000040 45 eb e5 3d d9 05 be bd 3a da 93 bf 8b 3d 82 3d
       0.11226515 -0.09278459 -1.1550972 0.06359395
000050 39 13 86 bb f4 c3 d2 3c 82 79 e9 be 65 0e d1 3c
       -0.004091647 0.025728203 -0.45600516 0.02551956
000060 d0 c2 42 bf 69 95 3c bf 39 18 2e 3f 5d 31 55 3f
       -0.7607851 -0.7366548 0.6800571 0.8327845
000070 eb 80 af bf f9 a7 a6 bf f9 7e a6 3f 32 7a b0 3f
       -1.3711218 -1.3020011 1.3007499 1.3787291
000080 86 96 3e 3e 6e 47 ef 3d e4 7c 0f 3f 3a c8 2a be
       0.18612108 0.11683546 0.5604994 -0.16677943
000090 50 8d 46 bf 4a 9b 48 bf f5 81 38 3e f3 67 61 3f
       -0.77559376 -0.7836195 0.18018325 0.8804924
0000a0 9a 26 c3 be cc b6 61 be 75 fd c2 3f 33 d6 80 3e
       -0.38115388 -0.22042388 1.5233599 0.2516342
0000b0 76 19 13 bc 78 72 91 ba dd d8 10 3f 8b 95 56 be
       -0.008978238 -0.0011096736 0.5658091 -0.20955484

attention_blocks.1.attention_blocks.2.layer_norm.weight f4 [12]
000000 6a 6d 6c 3f 2e 2c 85 3f 58 e5 7e 3f 6f b7 c0 3f
       0.9235445 1.0404108 0.995687 1.505598
000010 d1 22 70 3f 43 37 fa 3f 72 10 9b 3f 99 7f f7 3f
       0.93803126 1.9548115 1.2114394 1.9335815
000020 4d 42 95 3f 20 7d b6 3f 09 98 85 3f 26 2a a6 3f
       1.1660858 1.4256935 1.0437022 1.2981613

attention_blocks.1.attention_blocks.2.layer_norm.bias f4 [12]
000000 cc b7 58 3c 6f c7 a8 bd 84 a7 b6 bb a5 1e 21 be
       0.013227414 -0.08241164 -0.0055741686 -0.15734346
000010 da 40 8c 3d 3e 7b 52 be e8 f6 9a 3d bb 82 e3 3b
       0.06848307 -0.20554826 0.07566625 0.0069430745
000020 8f 7c 0d 3e c9 e7 47 be 3b 96 c6 bc ff 25 13 3e
       0.13817047 -0.19522013 -0.024241557 0.14369963

attention_blocks.1.attention_blocks.2.W_k.weight f4 [4, 12]
000000 a5 d0 7b 3e 8e 17 4e 3f 8b e0 84 be 0a 7e 06 3c
       0.2459131 0.8050469 -0.25952563 0.008208761
000010 ff e8 ce bd f4 54 07 3f 87 29 04 bf 5b be 84 be
       -0.10103034 0.52864003 -0.51625866 -0.2592648
000020 a1 9c 9a be 67 10 76 3f 96 8d f2 3e c3 47 40 bf
       -0.30197623 0.9611878 0.47373646 -0.751095
000030 15 4d bb bc 09 18 c1 bd 21 8a c6 be a9 14 5e 3e
       -0.022863904 -0.094284125 -0.3877726 0.21687569
000040 72 66 22 3d ab c3 98 3f 5f 0b c5 3d 48 fa b3 be
       0.03964848 1.1934713 0.096213095 -0.35151887
000050 6b 89 fb 3c 59 ae 8e 3f db b5 84 3e fb 22 2f bf
       0.030705174 1.1146957 0.25919995 -0.6841275
000060 74 11 02 3e 0a 8f 07 be c6 2f 52 bd 11 ee c8 be
       0.1270197 -0.13238159 -0.05131509 -0.3924413
000070 3c d3 ad 3e ba 0d 6a bf c5 00 e8 3e f5 2c 69 be
       0.33950222 -0.91427195 0.45313087 -0.22771056
000080 9b 36 eb 3e 80 6b 03 bf a7 67 7b 3d 6d 4a 74 3d
       0.45940098 -0.51335907 0.061378147 0.05964129
000090 8e 9f a1 bd cb 0d b6 3d eb c0 81 3e ad 42 0e be
       -0.07891761 0.088893496 0.25342497 -0.13892622
0000a0 fa f1 13 be b8 9b 08 bf b5 05 3c bf bb 44 9c 3f
       -0.14447775 -0.5336261 -0.7344621 1.2208475
0000b0 f1 ac 0b bf d3 ed 53 bf ce 98 3b be 0a 31 81 3f
       -0.5456076 -0.82784766 -0.18320009 1.009309

attention_blocks.1.attention_blocks.2.W_q.weight f4 [4, 12]
000000 c1 3b c9 3e 33 5d 4b bf e4 b1 ad 3e 45 84 9a be
       0.393034 -0.79439086 0.33924782 -0.3017904
000010 68 7f 49 3e f8 54 c7 be ac 15 62 bf f5 a7 8c bf
       0.19677508 -0.38932014 -0.8831432 -1.0988756
000020 bd bf 81 3e 0b 26 9e 3e be 99 19 3f a4 16 07 3f
       0.25341597 0.308884 0.60000217 0.5276892
000030 9e 9d f7 3e fc 57 a3 be 24 17 28 be 04 e6 55 3d
       0.4836244 -0.31903064 -0.16415077 0.052221313
000040 cc 38 ef bd ad 8b 62 bf 14 c1 21 bf 6e ea c6 be
       -0.11680755 -0.8849438 -0.6318524 -0.3885073
000050 9d 42 d5 be ee 9a 1e 3d 98 1a 11 3f 5b 9c 6e 3f
       -0.41652384 0.03872197 0.56681204 0.9320733
000060 2c f1 60 bf df f7 a3 3e a3 42 37 3e 7e 48 8d 3f
       -0.87868 0.32025048 0.17896514 1.1037748
000070 f5 45 86 3e c7 6e 02 bd e3 18 86 3e 7b 5e d2 3d
       0.26225248 -0.031843927 0.26190862 0.10271927
000080 df dc 4a bf 2e 23 2d 3f 66 42 f7 be 21 17 8b bf
       -0.7924327 0.67631805 -0.48292845 -1.0866433
000090 09 8d 00 be 12 7b 76 3e 7c ef aa 3e ea bb 0a bf
       -0.125538 0.24070385 0.33385837 -0.54192984
0000a0 f2 d6 8b be 2b fe 71 3f 5c 76 dc 3e 63 b6 23 3f
       -0.27312428 0.94528455 0.4305905 0.63950175
0000b0 f0 b3 c3 3e af 3a 68 be 49 27 d0 be b7 f7 06 bf
       0.3822322 -0.22678636 -0.40654972 -0.5272173

attention_blocks.1.attention_blocks.2.W_v.weight f4 [4, 12]
000000 73 f3 8a 3e 79 7e a4 be fe 81 1b 3f 9c 35 55 bd
       0.27138862 -0.3212774 0.6074523 -0.05205308
000010 99 e6 ba be b5 e7 c2 bd 4c c1 91 be db 10 9e bd
       -0.36504057 -0.09516851 -0.28467786 -0.07718059
000020 52 c5 5e be 06 02 df be 8c 67 c6 3e 90 97 8e 3e
       -0.21754959 -0.4355623 0.38750875 0.27850008
000030 fd 77 9a be b0 66 af 3e 42 82 2f bf 09 b6 33 3e
       -0.3016967 0.34258032 -0.6855813 0.1754991
000040 83 96 dd 3e 45 a2 05 bd 7d 49 81 3e de 38 10 3d
       0.43278894 -0.032625455 0.2525138 0.035210483
000050 fa 75 9d 3d 04 8f fd 3e 63 0f cc be 5c e1 96 be
       0.07688518 0.49523175 -0.3985549 -0.2946881
000060 33 93 8a be a9 35 9b 3e 86 a1 15 bf 17 de 68 bc
       -0.2706543 0.30314377 -0.5844959 -0.014213107
000070 35 cc b1 3e b1 3d b6 3e 93 71 91 3e 77 13 bb 3d
       0.3472611 0.35593942 0.28406963 0.09134572
000080 99 9b c8 3e f6 aa d3 3e d4 05 d0 be a5 04 7e be
       0.39181212 0.4134137 -0.40629447 -0.24806459
000090 25 93 80 3e dd b9 97 be e6 c1 1b 3f 97 66 ae bd
       0.25112262 -0.2963399 0.6084274 -0.08515661
0000a0 2d df bc be ec db e4 bc c5 46 91 be af 85 97 bd
       -0.3688902 -0.027936898 -0.28374305 -0.07398545
0000b0 05 17 32 be 41 23 e5 be 11 10 c4 3e a5 4c 8c 3e
       -0.17391594 -0.4475346 0.38293508 0.27402225

attention_blocks.1.attention_blocks.2.W_o.weight f4 [12, 4]
000000 5b 53 7a 3e 2b a1 2f be 47 47 99 be f2 44 53 3e
       0.2444586 -0.17151324 -0.29937193 0.2063177
000010 03 6a 2a bd cf 97 81 3d 1b 5f 93 3d 90 18 5a bd
       -0.041605007 0.06327783 0.07195874 -0.05324608
000020 4d 0d bf 3e 16 b0 d8 be 81 ab 97 be 7c 37 bb 3e
       0.37314835 -0.42321843 -0.29623035 0.3656577
000030 a5 3b f7 be e6 1f cc 3e 45 b1 0c 3f e8 26 ef be
       -0.48287693 0.39868087 0.5495799 -0.4670937
000040 92 20 e4 3d cc 38 a4 bd 49 6b 03 be 11 7e b7 3d
       0.11139025 -0.08018646 -0.12833895 0.08959592
000050 88 5c 47 be 98 6d 3f 3e ab 41 4a 3e 47 1f 43 be
       -0.19468892 0.1869415 0.19751613 -0.190549
000060 f9 51 cc 3e ab 2a e8 be 7e aa ba be 53 bd d9 3e
       0.3990629 -0.45345053 -0.364582 0.42527255
000070 d5 f6 da 3e 3e 85 08 bf d2 bc c5 be 4f de f1 3e
       0.42766443 -0.5332831 -0.3862062 0.4723992
000080 74 e5 73 3e c5 d5 77 be 25 7d 96 be 4a d3 68 3e
       0.23817998 -0.2420264 -0.29392353 0.2273685
000090 02 86 c6 3e 38 da c6 be 02 d4 c1 be 2c 48 c5 3e
       0.38774115 -0.38838363 -0.37857062 0.38531625
0000a0 d2 d1 a1 3d 5c 24 d4 bd 8d 76 6c bd 31 0b c1 3d
       0.07901348 -0.103584975 -0.057730246 0.09425963
0000b0 9e cf 10 3e 8f ab 00 bd 30 3f 9e be cf c6 d9 3d
       0.141417 -0.03141361 -0.30907583 0.10633623

feedforward_blocks.0.layer_norm.weight f4 [13]
000000 56 2a 65 3f 9c 0d 81 3f 49 b7 a9 3f ee 3f 82 3f
       0.89517725 1.0082278 1.3259059 1.017576
000010 e9 43 2b 3f 30 8a 8b 3f 3d d4 a4 3f d9 13 8d 3f
       0.669005 1.0901546 1.287727 1.1021682
000020 c6 d5 88 3f cf 53 7b 3f 5d 8a 42 3f 31 3d 31 3f
       1.0690238 0.98174757 0.75992376 0.69233996
000030 f9 61 54 3f
       0.82961994

feedforward_blocks.0.layer_norm.bias f4 [13]
000000 84 b9 c2 3d 7b 37 a2 3d 98 32 11 3d 57 09 a3 bd
       0.095080405 0.07920738 0.03544864 -0.07960766
000010 7f f6 70 bc fb 95 77 3d 40 4b b4 3d c0 cc 1c 3d
       -0.014707207 0.060445767 0.08803415 0.038281202
000020 d3 1e a7 bd e2 f0 68 3d 2b 9d ee 3d 50 ab 1e 3e
       -0.08160176 0.05687035 0.11651071 0.15495038
000030 b5 8e b1 be
       -0.3467919

feedforward_blocks.0.linear_layer_1.weight f4 [65, 13]
000000 cc 95 4e be 5a 98 e0 bd 89 bb 9e be 7a ee 9d 3e
       -0.2017433 -0.10966559 -0.31002453 0.30846006
000010 0b 1c 93 3e 9d b4 2c bd d5 8a c7 be 1a ba 6b bd
       0.28732333 -0.042164434 -0.38973108 -0.057550527
000020 de 35 64 3e 1b db 02 be 1f 3a 8c bc b5 5f d5 3d
       0.22286174 -0.12778895 -0.017117558 0.10418645
000030 05 9a 08 3d c9 d4 4a 3f 15 c1 65 3e 52 6a 61 3f
       0.03335001 0.79230934 0.22436936 0.88052857
000040 4d 70 4d be 97 06 7a bd 54 10 b3 3e c6 b1 fd bd
       -0.2006237 -0.06104144 0.34973395 -0.12387423
000050 a9 a0 13 3e 21 00 76 be 8b 90 91 3e 3c 5c 45 3d
       0.14416756 -0.24023487 0.2843059 0.048183665
000060 12 7a 15 3f 0f 3f 6b bf e3 44 0a 3e 0e 23 4f bd
       0.5838939 -0.91893095 0.1350284 -0.05057054
000070 68 93 27 be 47 27 87 3e 93 69 29 3d 82 f4 f1 3c
       -0.16364825 0.26397154 0.04136045 0.029535536
000080 32 23 df be e4 94 57 be 97 49 9d 3e 5a 6c 5c be
       -0.4358154 -0.21052891 0.30720207 -0.21525708
000090 76 fb 16 be 2b 2a da bd ca cb 00 3d 50 0d 43 3d
       -0.14744362 -0.10652574 0.03144435 0.047620118
0000a0 c6 53 9a 3c b0 d7 04 3f 25 1c c9 bd f7 9e 22 be
       0.018838774 0.51891613 -0.09819821 -0.15880953
0000b0 6d e3 da 3e e8 0b 81 3e be 0b a2 bd fe cf 53 be
       0.42751637 0.25204396 -0.07912396 -0.20684811
0000c0 3d c3 ea 3e 7a d7 14 be 4a a3 1b 3e f0 ea 56 bf
       0.4585208 -0.14535323 0.15199009 -0.83952236
0000d0 2b bf ad 3e 7a 64 d9 3d c0 b9 b2 be 32 98 1c 3e
       0.33934912 0.106148675 -0.3490734 0.15292433
0000e0 6b 07 c5 3c 5c bc 4d 3c 61 3b a3 be 50 fa 8a 3d
       0.024051389 0.012557115 -0.3188124 0.067860246
0000f0 35 47 c7 bd 49 aa 52 be 3b ee 7c 3e 32 af 60 be
       -0.097303785 -0.20572771 0.24700253 -0.21941832
000100 db 8f 3a 3c 21 95 1c bd d0 bc 9d bd 61 7d 13 bc
       0.011386837 -0.038228158 -0.07702029 -0.009002061
000110 9b 9f d3 bd ee 49 91 3e 84 5c 48 3e 13 47 ec bd
       -0.10333177 0.28376716 0.19566542 -0.11536994
000120 6f f1 2f be ef 46 c6 bd 45 0b 9b bc 14 aa eb 3e
       -0.17181943 -0.09681498 -0.018926272 0.46028197
000130 56 f4 b8 bb 72 85 3c be c5 40 81 bd 2c 12 0e 3c
       -0.0056443615 -0.1841028 -0.06311182 0.008671325
000140 50 04 d8 bd af 12 19 3e 15 59 91 3c 96 b6 17 3e
       -0.105476975 0.14948533 0.017742673 0.14815745
000150 a8 fa 51 be 1c 52 96 be ab 33 1d 3d 8d 74 ed bd
       -0.20505774 -0.2935952 0.038379353 -0.11594496
000160 60 ed ce bd 7b cf b5 bd 4d 2b 1a 3d c9 ea ca bc
       -0.101038694 -0.088774644 0.03763895 -0.024770157
000170 5a 76 fc 3e d1 e5 ab 3d c0 46 a7 3e e6 b3 80 be
       0.49309045 0.083934434 0.32671165 -0.25137252
000180 cd aa 43 3e 01 e8 70 be e8 b4 f6 3d 6b 56 d7 3e
       0.19108124 -0.23526002 0.12046224 0.4205812
000190 60 bc 92 3d cd 69 12 be 00 3e 79 bd 78 8b 79 bf
       0.07164836 -0.14298172 -0.060850143 -0.9747844
0001a0 dc 69 f6 3c fc ba a8 3c 63 31 08 3d 94 23 92 bb
       0.030079775 0.020596974 0.033250224 -0.0044598076
0001b0 8f a0 73 3a 62 69 1a 3d e2 82 18 bb 29 af c4 3c
       0.00092936395 0.037698157 -0.0023271372 0.024009304
0001c0 79 7e 0e 3c 87 d9 e4 3c 89 fd 94 3c 97 f6 3e 3d
       0.008697146 0.027935756 0.018187301 0.046621885
0001d0 8c 44 0b bc 68 7b 7e bd 8d 39 cf bd 00 42 84 be
       -0.00850023 -0.062129408 -0.10118399 -0.25831604
0001e0 47 bd 40 3e 0c 8e 59 3e 57 d2 23 be 96 6f 66 bc
       0.18822204 0.21245593 -0.15998207 -0.01406469
0001f0 10 fd 3f be 44 0e 59 3e af 98 0f be 5e 4a cd bb
       -0.1874888 0.21196848 -0.14023088 -0.006264969
000200 42 25 b9 bd df 4d 1e 3d 54 20 22 bd 77 cf e6 3e
       -0.090403095 0.038648482 -0.03958161 0.45080158
000210 b1 5f 02 3e a9 10 2e be 8e f6 86 bd 9f 6d c2 3e
       0.12731816 -0.16998543 -0.06589995 0.3797426
000220 20 6e b8 3d 18 12 0f be a7 04 2c be 9f e4 db 3e
       0.0900538 -0.13971746 -0.1679865 0.42947862
000230 b9 a8 ad 3e 4f a3 8d 3e d5 4b 12 bf 77 69 8c 3e
       0.33917788 0.27663657 -0.5714696 0.27424213
000240 da 3f 10 3d 38 2e 37 3e b8 ce 7a 3e a4 18 03 be
       0.035217144 0.17888725 0.2449292 -0.12802368
000250 f5 dc 51 3c 63 5c 30 3c 8a 6d c6 be 72 e8 2c be
       0.012809028 0.010764214 -0.38755447 -0.16885546
000260 b6 17 cf 3c a4 22 b7 3e 66 2f 6c 3e b0 12 b0 be
       0.025279861 0.35768616 0.23064956 -0.34389257
000270 06 47 ac 3e d1 de 82 be 96 a0 a4 3e ea db 04 be
       0.33647937 -0.2556062 0.32153767 -0.12974516
000280 d2 fd 76 3e 11 8f d4 3d f0 82 7f 3e 70 c0 5f 3e
       0.24120262 0.1037885 0.24952292 0.21850753
000290 98 85 4a 3e 49 2c 85 bd 05 f9 62 bc fb 95 b8 3b
       0.19777524 -0.06502587 -0.013853316 0.0056331134
0002a0 de d7 f6 bd 87 d6 83 3c 31 b2 ee bc c0 cb 8b bd
       -0.12052892 0.016093506 -0.029137703 -0.068259716
0002b0 4f 6b 7e 3e 23 4f 98 3d f4 43 af bd 16 af d6 be
       0.24845622 0.07436969 -0.08557883 -0.41930455
0002c0 22 7c 51 be 3a fd ac 3e 49 34 b5 bd 2c 12 94 bd
       -0.20457509 0.33786947 -0.08847863 -0.072300285
0002d0 9f ee 2a be 6e 88 8b 3d 6b 35 33 3e 40 bc 59 3d
       -0.16692589 0.06813131 0.17500846 0.053158045
0002e0 23 d2 7d 3e b7 f6 e8 bd 92 83 ce bd 61 6b 0a 3f
       0.24787192 -0.11375182 -0.10083689 0.540701
0002f0 aa 0f 69 be 90 54 ce bd ed 66 81 bc a7 61 2a 3e
       -0.22759882 -0.10074723 -0.01579615 0.16638814
000300 6e b3 ac 3c 12 4d 76 3e 2c 74 32 bf 15 3e 64 3d
       0.021081652 0.24052837 -0.69708514 0.05572327
000310 e3 a8 8a be 7f 48 a4 bd db fe 0a 3f 3a 63 e0 bc
       -0.27081975 -0.0802164 0.5429513 -0.027391065
000320 d9 35 77 3d fc 84 55 3e 8c d0 7a be 99 4c 0c 3f
       0.060354088 0.20851511 -0.24493617 0.5480438
000330 4a 22 90 bc f3 91 e2 bd 6d 26 11 3f 67 57 99 bf
       -0.017594475 -0.11062994 0.5669926 -1.1979798
000340 34 40 ec be a9 a3 64 be d0 35 52 be 98 ea 10 3f
       -0.46142733 -0.22328056 -0.2052834 0.5660796
000350 c7 33 80 3e d6 d0 6a bc 96 3e e8 be 75 4c 03 3e
       0.25039503 -0.014332017 -0.4536025 0.12822135
000360 04 8f f4 3c 0f 56 2d be 34 12 a5 3d 01 a3 5b be
       0.029853351 -0.1692736 0.080601126 -0.214489
000370 21 78 1b 3d 99 89 f0 3e 10 70 3a 3f a7 10 d0 3e
       0.03795636 0.4697998 0.72827244 0.40637705
000380 b2 b3 e8 be 6c 05 11 bf 26 18 01 3f d9 6f 95 3d
       -0.45449597 -0.566489 0.5042747 0.07296724
000390 b5 9d 26 3f 54 c5 06 bf 3b ba c6 3e 0d 25 50 be
       0.6508439 -0.5264485 0.38813958 -0.20326634
0003a0 2d c2 0c 3f 08 60 bf bd 5e ce 32 be 47 6f 17 3f
       0.5498379 -0.093444884 -0.17461535 0.5915417
0003b0 22 f7 23 be d8 c4 ef 3d ff df 0b 3e 8d c4 16 3e
       -0.16012242 0.11707467 0.13659666 0.14723416
0003c0 16 22 92 be 0d 9d 9c bd 1c 26 0f 3e 9e 60 95 3e
       -0.2854163 -0.076471426 0.13979381 0.29175276
0003d0 07 2a 94 3b d8 00 58 bd a0 3b 90 bc 57 a8 9a 3d
       0.0045216116 -0.05273518 -0.017606556 0.075516395
0003e0 90 09 d3 3d 02 3f 0e 3e e6 d9 4b 3e 88 0f 49 3e
       0.10304558 0.13891223 0.1990734 0.19634831
0003f0 3d 36 a3 bd 93 fa 9a bd ab a1 a6 3e a3 3e a6 bd
       -0.079693295 -0.075673245 0.32545218 -0.08117416
