trained_model_16_4_3_2.pth (torch, 110385 bytes, 63 tensors)

inp_embedding.weight f4 [115, 16]
0	0xbc9f950f	-0.019480256
1	0x3d5ebedb	0.054381233
2	0x3e5a6be6	0.21330222
3	0xbd2c955a	-0.04213462
4	0xbda520f5	-0.08062927
5	0xbd6703a6	-0.056399964
6	0xbe80f414	-0.25186217
7	0xbe40e5fc	-0.18837732
8	0x3d9d6c18	0.07686633
9	0x3c447075	0.0119897025
10	0xbc943124	-0.018089838
11	0xbce77843	-0.028255587
12	0x3ccee558	0.025255844
13	0x3e805da3	0.2507144
14	0x3e5aac8d	0.21354885
15	0x3e6cae67	0.23113404
16	0xbcb55c60	-0.022138774
17	0x3da1b0b3	0.07895031
18	0x3dfbe837	0.12300151
19	0xbd8bbf63	-0.068236135
20	0xbca01e4b	-0.019545695
21	0xbd5cd806	-0.053916954
22	0xbdae043e	-0.08496903
23	0xbe9734d8	-0.29532504
24	0x3e145c0a	0.14488235
25	0xbd573aff	-0.052546497
26	0xbdf9d42a	-0.1219867
27	0xbd29cf9b	-0.041457754
28	0xbd7c3586	-0.06157448
29	0x3e534f5f	0.20635746
30	0x3e486477	0.19569574
31	0x3e63ca35	0.22245105
32	0xbd89f481	-0.067360885
33	0xbd0c2a8c	-0.034220263
34	0x3e11ef08	0.1425134
35	0x3d5e815a	0.054322578
36	0x3d1360d7	0.035981026
37	0xbdf18c22	-0.11794306
38	0xbe166f5d	-0.14690919
39	0xbe1c389f	-0.15255974
40	0x3dba0d61	0.09084583
41	0x3d83e625	0.06440381
42	0xbcf42a8a	-0.02980544
43	0x3c800d1e	0.015631255
44	0x3cffb4ff	0.031214235
45	0x3da9c52a	0.08289559
46	0x3e1347c1	0.1438284
47	0x3e0e69c9	0.13907541
48	0x3c63c179	0.013901108
49	0xbd9095ac	-0.07059798
50	0xbc33bcf5	-0.010970344
51	0x3c987b04	0.018613346
52	0xbbdbf1ac	-0.006712159
53	0xbe408bdc	-0.18803352
54	0xbde785bc	-0.11304805
55	0xbde17523	-0.1100867
56	0xbc584da5	-0.013202106
57	0x3d0ee5b9	0.03488705
58	0xbc7af80e	-0.01531793
59	0xbcd2275b	-0.025653532
60	0x3d7e6132	0.06210441
61	0x3cf23f08	0.029571071
62	0x3d95d3ba	0.07315774
63	0x3c3503dd	0.011048284
64	0xbdba7452	-0.091042176
65	0xbdff190b	-0.124559484
66	0x3d529e18	0.0514203
67	0x3d2ce12d	0.04220693
68	0xbc8b496e	-0.017002787
69	0xbe07a37e	-0.13245961
70	0xbd7cba91	-0.06170136
71	0xbdaf9bf6	-0.08574669
72	0x3b954f00	0.0045565367
73	0x3dd00c75	0.10158626
74	0x3c95e0d6	0.018295687
75	0xbd6926aa	-0.05692164
76	0x3d4c50ae	0.04988163
77	0x3c9c55db	0.019083908
78	0x3da8f124	0.08249119
79	0x3d9b7392	0.07590403
80	0xbd9c8e1e	-0.07644294
81	0xbbca52a3	-0.006174402
82	0x3d69f709	0.057120357
83	0x3d9d6e21	0.07687021
84	0x3a3fafd3	0.00073122716
85	0xbe84c813	-0.25933895
86	0xbdec0acb	-0.11525496
87	0xbca0ff94	-0.01965312
88	0x3bc47f0f	0.005996592
89	0x3cb0ce73	0.021582818
90	0xbdc1efe8	-0.094695866
91	0x3dd1df8c	0.10247716
92	0xbd48793a	-0.048943736
93	0x3cd011e2	0.025399152
94	0x3d6516c3	0.05592991
95	0x3d4db5f1	0.05022234
96	0x3d57f013	0.052719187
97	0x3beecd04	0.0072876234
98	0x3d945fb0	0.072448134
99	0x3bc87f02	0.006118656
100	0x3d459fda	0.04824815
101	0xbe4a57c7	-0.19760047
102	0xbdedc7e7	-0.11610394
103	0xbdd46125	-0.10370091
104	0x3d76eb2d	0.060282875
105	0xbdba87f0	-0.09107959
106	0xbda40755	-0.08009211
107	0x3d5b468b	0.053534072
108	0x3df30e1a	0.11867924
109	0x3d961f07	0.07330137
110	0x3cf2e2b7	0.029649122
111	0x3db9fe5e	0.0908172
112	0x3cc2c74e	0.023776677
113	0xbd680b3d	-0.056651343
114	0x3da5cea7	0.080960564
115	0x3cfde6a9	0.030993776
116	0xbb82a6e0	-0.003987178
117	0xbe1efbc1	-0.15525724
118	0xbe4d8654	-0.20070773
119	0xbdb72810	-0.08943188
120	0x3c88a421	0.016679825
121	0x3ce20cec	0.027594052
122	0xbde3ac9d	-0.11116908
123	0x3d94377f	0.072371475
124	0x3d08a609	0.03336147
125	0xbbbe5390	-0.0058083013
126	0x3d8a9ea1	0.06768537
127	0x3d815e17	0.06316774
128	0x3c9b8ce2	0.018988077
129	0xbcac58d3	-0.021038448
130	0x3ddb3c3c	0.10704848
131	0xbd222e87	-0.039595153
132	0x3d91a632	0.07111777
133	0xbe0d7327	-0.13813458
134	0xbe98dc44	-0.2985555
135	0xbe14415b	-0.14478056
136	0xbbc050c2	-0.005869002
137	0x3d8a143f	0.06742143
138	0xbe0792d0	-0.13239598
139	0x3e0eff71	0.1396463
140	0xbc1e3054	-0.009655077
141	0x3cd6b302	0.026208404
142	0x3da6b8fc	0.08140752
143	0x3dd20291	0.10254396
144	0xbc5d0080	-0.013488889
145	0xbcb5ee08	-0.022208229
146	0x3ddb6027	0.10711699
147	0x3bcf58a2	0.0063277045
148	0xbce7f82a	-0.028316576
149	0xbe104fb1	-0.140929
150	0xbdf96ea8	-0.12179309
151	0xbe4808f4	-0.19534665
152	0x3dad8039	0.08471722
153	0x3c875f1f	0.01652485
154	0xbd3d2262	-0.046175368
155	0x3da116cb	0.078656755
156	0x3c49e34f	0.012322261
157	0x3e42356c	0.18965691
158	0x3cc2869e	0.023745831
159	0x3d983557	0.07432049
160	0x3d6c2589	0.057652984
161	0xbda63709	-0.08115966
162	0x3cc6bdbd	0.024260396
163	0x3d6a28f7	0.057167973
164	0xbcd4cfb4	-0.025977947
165	0xbdeba1c8	-0.11505467
166	0xbe25e479	-0.16200437
167	0xbdb0b3c5	-0.08628038
168	0xbc7576ff	-0.014981984
169	0x3c93d1e0	0.018044412
170	0xbc46ed45	-0.01214153
171	0xbc8938de	-0.01675075
172	0x3da890ad	0.0823072
173	0x3c4b033b	0.012390907
174	0x3d1cbb52	0.03826458
175	0x3c93a759	0.018024134
176	0xbe29c4a8	-0.16578925
177	0xbe2f9c7e	-0.17149541
178	0x3d93355b	0.07187911
179	0x3dc53155	0.0962855
180	0xbc94cb56	-0.018163364
181	0xbcd44df4	-0.025916077
182	0x3e051143	0.12994866
183	0x3d44c9a4	0.048043862
184	0x3d98fe7b	0.07470413
185	0xbbd741e6	-0.006569135
186	0xbd725ea8	-0.059172302
187	0xbc99e0d5	-0.018783966
188	0xbddd361c	-0.10801336
189	0x3dc9222e	0.098209724
190	0xbcf0622a	-0.029343683
191	0x3dce02fb	0.10059162
192	0x3e37508a	0.17901817
193	0x3da01c79	0.07817931
194	0x3def09b4	0.116717726
195	0x3cc3ca6a	0.02390023
196	0x3d9b8de0	0.0759542
197	0xbd318dfb	-0.043348294
198	0xbc2e4799	-0.010637187
199	0xbc24813b	-0.010040577
200	0xbcb5e0de	-0.022201952
201	0x3d0c36c5	0.03423192
202	0xbe267171	-0.16254212
203	0x3e1f9b46	0.15586576
204	0xbb9d7fd3	-0.0048064976
205	0xbd5c6e7d	-0.053816307
206	0xbc57121f	-0.013126879
207	0x3cb9a9c5	0.02266396
208	0x3e2d3b0e	0.16917059
209	0x3e24e1e4	0.16101795
210	0x3d186898	0.037209123
211	0x3c7e4b18	0.015520833
212	0x3de1ca2c	0.11024889
213	0xbd78938e	-0.060687594
214	0xbd0fb98f	-0.03508907
215	0x3c8bc14c	0.017059945
216	0x3aa8bb72	0.0012873246
217	0xbcb5b554	-0.02218119
218	0xbd996169	-0.07489283
219	0x3da9e6ac	0.0829595
220	0xbd8f0591	-0.069834836
221	0x3d0a52fe	0.033770554
222	0xbb448497	-0.0029986256
223	0x3c8307e8	0.01599498
224	0xbe9750a9	-0.29553726
225	0xbe07c174	-0.1325739
226	0xbdab3860	-0.08360362
227	0x3e878bf7	0.26473972
228	0x3e4746c5	0.1946059
229	0x3d2294b7	0.039692607
230	0xbbe22a4e	-0.006902016
231	0x3e1740a2	0.14770749
232	0xbd9742de	-0.07385801
233	0x3e53cdf5	0.20684035
234	0xbd3fbac9	-0.04680899
235	0x3e55edab	0.20891444
236	0x3c9be41c	0.01902967
237	0xbdbe3389	-0.09287173
238	0xbc8e7eda	-0.017394472
239	0xbe166a07	-0.14688884
240	0xbe9815ef	-0.29704234
241	0xbe0c7956	-0.13718161
242	0xbdae7138	-0.085176885
243	0x3e85a67a	0.26103574
244	0x3e41886c	0.18899697
245	0x3d121123	0.035660874
246	0xbc12b475	-0.008954157
247	0x3e12d2ba	0.14338198
248	0xbd9a8d40	-0.075464725
249	0x3e51473e	0.20437333
250	0xbd3ff3a0	-0.0468632
251	0x3e501ad6	0.20322737
252	0x3c8e85e8	0.017397836
253	0xbdc38d1e	-0.095484
254	0xbcad4124	-0.021149226
255	0xbe18c1b2	-0.14917639

attention_blocks.0.attention_blocks.0.layer_norm.weight f4 [16]
0	0x3fa3bcbe	1.2791975
1	0x3f8a4cd3	1.0804695
2	0x3f7c1887	0.98474926
3	0x3f9b5f59	1.2138473
4	0x3f91ca79	1.1389915
5	0x3f95db0f	1.1707476
6	0x3f8d562c	1.1041923
7	0x3fa9eb9a	1.3275025
8	0x3f907200	1.128479
9	0x3fa2f82c	1.2731986
10	0x3f83e852	1.0305274
11	0x3f903e70	1.1269054
12	0x3f8c85f8	1.0978384
13	0x3f920929	1.1409045
14	0x3f8f1a70	1.1179943
15	0x3f9a0a32	1.2034361

attention_blocks.0.attention_blocks.0.layer_norm.bias f4 [16]
0	0xbe047b7d	-0.12937732
1	0xbabcb45c	-0.0014397013
2	0xbc9c31a8	-0.019066647
3	0x3e0d0206	0.13770303
4	0x3e08838f	0.13331436
5	0xbe056ec3	-0.13030533
6	0xbe162c28	-0.14665282
7	0xbe16b607	-0.14717875
8	0x3dd63336	0.104589865
9	0x3e0bd4fb	0.13655464
10	0xbdc41aec	-0.095754474
11	0x3dd734c3	0.105081104
12	0xbe09ceb6	-0.1345776
13	0xbe741554	-0.23836261
14	0x3e01eebe	0.12688729
15	0x3dfe1ce6	0.12407856

attention_blocks.0.attention_blocks.0.W_k.weight f4 [4, 16]
0	0xbdee8af7	-0.11647599
1	0x3d5f7e8e	0.05456405
2	0x3bade46e	0.005306772
3	0x3e3a1b6f	0.18174528
4	0x3e4cc11f	0.19995545
5	0xbe59a751	-0.21255232
6	0xbe29b5f7	-0.1657332
7	0xbe6ad593	-0.22933035
8	0x3de487d5	0.111587204
9	0x3e8ff8c0	0.2811947
10	0xbd76b260	-0.060228705
11	0x3da8ea59	0.08247823
12	0xbe46e7ca	-0.19424358
13	0xbde0524a	-0.109531954
14	0x3e1ddcf2	0.15416315
15	0x3e84dc6f	0.25949427
16	0xbd175624	-0.036947384
17	0x3e2d93c4	0.169509
18	0xbd1e6a17	-0.038675394
19	0x3c297eea	0.0103452
20	0x3e033ab4	0.12815362
21	0xbe6ddc65	-0.23228605
22	0xbe93ad89	-0.28843334
23	0xbea3cad8	-0.31990695
24	0x3e87d2d5	0.2652804
25	0x3e57f80d	0.21090718
26	0xbdcc358d	-0.099711515
27	0x3d26f643	0.040762197
28	0xbe7651fd	-0.24054714
29	0xbd9d7a70	-0.07689369
30	0x3e70ae42	0.23503974
31	0x3e6c2495	0.2306083
32	0xbdde851a	-0.10865231
33	0x3df9ab78	0.12190908
34	0xbb386d73	-0.0028141409
35	0x3dc13aa2	0.094350114
36	0x3e09cf62	0.13458017
37	0xbe62ff2b	-0.22167651
38	0xbe36ec8a	-0.1786367
39	0xbe8c64a7	-0.27420542
40	0x3e44dd4c	0.19225043
41	0x3e41192b	0.18857257
42	0xbdd164a4	-0.10224274
43	0x3ce97030	0.028495878
44	0xbe4e1c07	-0.20127879
45	0xbd63fc40	-0.055660486
46	0x3e23fe64	0.16015011
47	0x3e5bdfba	0.21472064
48	0xbea02bbd	-0.3128337
49	0xbd0bb6a8	-0.03410974
50	0x3caf7e6c	0.021422587
51	0x3eaf4375	0.34231153
52	0x3e44eb99	0.19230498
53	0xbe1e6161	-0.15466835
54	0xbc25e9b7	-0.010126523
55	0xbe54137d	-0.20710559
56	0x3d1caa9e	0.03824865
57	0x3ece92cc	0.40346372
58	0x3d6842ec	0.056704447
59	0xbd5604a3	-0.052250516
60	0xbd90a0a4	-0.0706189
61	0xbe7b13ba	-0.24519244
62	0x3dc6b6e4	0.09702852
63	0x3e984714	0.29741728

attention_blocks.0.attention_blocks.0.W_q.weight f4 [4, 16]
0	0x3e545bfd	0.20738216
1	0x3dd3cdd9	0.10341997
2	0x3d568590	0.05237347
3	0xbe6d97a4	-0.23202378
4	0xbdccbe1b	-0.09997197
5	0xbe274b5e	-0.16337344
6	0xbe454579	-0.19264783
7	0xbeb77ae8	-0.35835958
8	0x3e3392aa	0.17536417
9	0xbdd27975	-0.10277072
10	0xbd7ac406	-0.0612221
11	0xbe146ad9	-0.14493884
12	0xbd2f4309	-0.04278854
13	0x3e3aeba3	0.18253951
14	0x3e2890d9	0.16461505
15	0x3e7fb3dc	0.24970955
16	0x3eb611d9	0.35560492
17	0x3e61c74e	0.22048685
18	0x3d43caba	0.047800757
19	0xbe8236de	-0.25432485
20	0xbd3db7c0	-0.046317816
21	0xbeb3d8a0	-0.3512621
22	0xbdfcce61	-0.12344051
23	0xbeb4881f	-0.35260102
24	0x3db3e61e	0.08784126
25	0xbda52b9e	-0.0806496
26	0xbdb75986	-0.08952622
27	0xbdbc0d5c	-0.091822356
28	0xbdbbf23e	-0.091770634
29	0x3dd70664	0.10499266
30	0x3dfed90f	0.124437444
31	0x3e54c752	0.2077916
32	0x3e9ea5e3	0.30985937
33	0x3e0fa6c6	0.14028463
34	0x3d85eb40	0.06539011
35	0xbe37fdf8	-0.17967975
36	0xbe07d8f5	-0.13266356
37	0xbe8be7ec	-0.2732538
38	0xbe21f6c2	-0.15816787
39	0xbeac36c9	-0.33635548
40	0x3ddbdd29	0.10735542
41	0xbd81c749	-0.06336839
42	0xbdc0dc89	-0.09417064
43	0xbe16a763	-0.1471229
44	0xbdba7f89	-0.09106357
45	0x3e27e772	0.16396883
46	0x3e25a25f	0.16175221
47	0x3e6f8810	0.23391747
48	0x3b5aaf12	0.003336851
49	0x3c27031b	0.0101936115
50	0x3d26648d	0.040623236
51	0xbe51e1c5	-0.2049628
52	0xbe4ac3fd	-0.19801326
53	0x3e1a8b53	0.1509221
54	0xbd21535b	-0.039386135
55	0xbeefd582	-0.4684258
56	0x3e890ed5	0.26769128
57	0xbdd9d1f2	-0.10635747
58	0xbd8640ec	-0.065553516
59	0xbe9b4281	-0.30324176
60	0xbde77ad4	-0.113027245
61	0x3e911e8c	0.28343618
62	0x3e9c3b6e	0.3051409
63	0x3e8b9d2e	0.27268356

attention_blocks.0.attention_blocks.0.W_v.weight f4 [4, 16]
0	0x3c093214	0.008373756
1	0x3c4222ee	0.011849148
2	0xbc5912f1	-0.013249145
3	0x3b56f0e8	0.00327974
4	0x3cc51b81	0.024060966
5	0x3c1a89d3	0.009432274
6	0xbc33a576	-0.010964742
7	0x3b61a06d	0.0034427897
8	0x3cc33719	0.023829984
9	0xbad35756	-0.0016124051
10	0xbc22d51e	-0.009938506
11	0xbc287f87	-0.010284311
12	0x3cddad4e	0.027060177
13	0x3b731549	0.0037091544
14	0x3cd9de7e	0.02659535
15	0xbc3a189e	-0.011358408
16	0x3e353b5a	0.17698422
17	0xbcdd1675	-0.026988247
18	0x3cbc5a8a	0.022992391
19	0xbda4bcd0	-0.080438256
20	0xbda7800d	-0.081787206
21	0x3c92323b	0.017846217
22	0x3d0dee05	0.03465082
23	0x3cfb63af	0.030687181
24	0xbce25b80	-0.027631521
25	0xbd344710	-0.044013083
26	0x3c5a27b4	0.01331513
27	0xbd8d1c21	-0.06890131
28	0x3bcade80	0.006191075
29	0xbb8e04c9	-0.0043340665
30	0xbc88c2cc	-0.016694449
31	0xbd50d27e	-0.05098199
32	0x3cd21f4c	0.02564969
33	0xbc8ec323	-0.017427033
34	0xbca6a4ca	-0.02034225
35	0x3d6e3f10	0.05816561
36	0xbc2ec73b	-0.010667617
37	0x3ac1682a	0.0014755775
38	0xbb88229a	-0.0041545155
39	0xbc95cc01	-0.018285753
40	0xbcbcdc90	-0.023054391
41	0x3a883884	0.001039282
42	0xb95230fe	-0.00020045412
43	0xbceff1fb	-0.02929019
44	0x3ba0bae1	0.00490509
45	0x3d106e0b	0.035261195
46	0x3b22b99a	0.0024829865
47	0xbc1e1a5e	-0.009649841
48	0xbd8cf1f9	-0.0688209
49	0x3c418706	0.011811977
50	0xbc9cfcb9	-0.019163476
51	0x3d3793d9	0.044818733
52	0x3d6d42c8	0.057925016
53	0x3c4aad87	0.012370474
54	0xbc0ddbb7	-0.008658341
55	0x3b56d0e3	0.0032778315
56	0xbc9e7342	-0.019342069
57	0x3c538490	0.012910023
58	0xbd1ccebf	-0.038283106
59	0x3cc370b8	0.02385746
60	0xbd08ce4d	-0.03339987
61	0xba4c8356	-0.0007801553
62	0x3cf0add0	0.029379755
63	0xbc141fa0	-0.009040743

attention_blocks.0.attention_blocks.0.W_o.weight f4 [16, 4]
0	0x3bf86b80	0.0075811744
1	0xbbd8d0a7	-0.00661667
2	0xbb649691	-0.0034879784
3	0xbc2c00c1	-0.010498227
4	0xbbedf162	-0.007261441
5	0xbc4e87d3	-0.012605625
6	0xbba5019b	-0.005035592
7	0x3ced976c	0.029002868
8	0xbc0f3f27	-0.008743084
9	0xbc1c2637	-0.0095305955
10	0xba9debfe	-0.001204848
11	0x3d354fc6	0.04426553
12	0x3a6fa904	0.0009142312
13	0xbd4f1abc	-0.050562605
14	0xbc4ae6ab	-0.012384097
15	0x3c841160	0.016121566
16	0xbb589745	-0.0033049148
17	0xbcef937f	-0.029245136
18	0x3ad9aac5	0.001660668
19	0x3c8313f1	0.01600072
20	0xbc337950	-0.010954216
21	0xbb30e741	-0.0026993307
22	0x3a62a383	0.0008645581
23	0x3cd1c5c9	0.025607007
24	0x3b965222	0.0045874277
25	0xbdd33778	-0.10313314
26	0xbc052010	-0.00812532
27	0x3c8468d5	0.016163269
28	0xba061a8c	-0.000511565
29	0x3a69ecec	0.0008923549
30	0xbbc2b1e1	-0.005941615
31	0x3d0a1743	0.03371359
32	0x3a7f5b97	0.0009741126
33	0x3ce060ee	0.02738997
34	0x39d05c81	0.00039741772
35	0xbbd2a6c9	-0.0064285737
36	0x3987eae8	0.00025924225
37	0xbdf99ab8	-0.121877134
38	0x3b72d87b	0.0037055302
39	0x3d071d09	0.032986674
40	0xbbbc472a	-0.005745788
41	0xbd6f85fd	-0.05847739
42	0x3b59ccc5	0.0033233624
43	0x3d41d5df	0.047323104
44	0xba3229b4	-0.00067963754
45	0x3c0e44f9	0.008683437
46	0x3ba9f9b4	0.0051872376
47	0xbbc95f0d	-0.006145364
48	0xbb15127d	-0.0022746616
49	0xbdc6f7b5	-0.09715215
50	0x3b0b860d	0.0021289617
51	0x3b2eb181	0.0026656094
52	0x3af01cac	0.0018319092
53	0xbb74450e	-0.0037272605
54	0x3ac3a69a	0.001492697
55	0xb85c0b43	-5.2462576e-05
56	0x388831aa	6.494236e-05
57	0x3d28139a	0.04103432
58	0xbaf987d3	-0.0019037671
59	0x3c522fee	0.01282881
60	0xba0d9686	-0.0005401153
61	0x3b8cc3b5	0.004295791
62	0xbba80273	-0.005127245
63	0x3d608f7b	0.054824334

attention_blocks.0.attention_blocks.1.layer_norm.weight f4 [16]
0	0x3fa7451e	1.3067968
1	0x3fc3929e	1.5279119
2	0x3f8bdd17	1.0926846
3	0x3fc0f699	1.5075256
4	0x3f8f59a8	1.1199236
5	0x3fa1d3a5	1.2642714
6	0x3fa39d6a	1.2782414
7	0x3f991ca0	1.1961861
8	0x3f9a280d	1.2043473
9	0x3fa888fe	1.3166807
10	0x3f9505b8	1.164237
11	0x3f96e3f8	1.178832
12	0x3f9a7477	1.2066792
13	0x3fabb1ab	1.3413595
14	0x3f9b350b	1.2125562
15	0x3f9636ec	1.1735511

attention_blocks.0.attention_blocks.1.layer_norm.bias f4 [16]
0	0xbdcd0ce6	-0.10012226
1	0x3d5be1a0	0.05368197
2	0x3b6058c2	0.0034232591
3	0x3dfb263b	0.12263151
4	0x3dc16b0b	0.09444245
5	0xbd88b085	-0.066742934
6	0xbd933b2c	-0.071890205
7	0xbd9149a9	-0.07094128
8	0x3ca8e300	0.020616055
9	0x3d9f778d	0.077864744
10	0xbdac5b20	-0.08415818
11	0x3dee9555	0.116495766
12	0xbd93f7c1	-0.0722499
13	0x3c2f3968	0.010694839
14	0x3db9775b	0.090559684
15	0x3d9cfbb3	0.07665195

attention_blocks.0.attention_blocks.1.W_k.weight f4 [4, 16]
0	0x3ea01546	0.3126623
1	0x3e6c0ffc	0.23052973
2	0xbda81f2a	-0.08209069
3	0xbf02a09a	-0.5102631
4	0xbe09ae48	-0.1344539
5	0x3d4428f3	0.047890615
6	0x3df2b989	0.11851794
7	0x3db2b0ab	0.08725103
8	0xbda7b34a	-0.081884935
9	0xbe83c78d	-0.25738183
10	0x3e5558ce	0.20834658
11	0xbe2f5c33	-0.17125015
12	0x3e12a7aa	0.14321771
13	0xbda0d1f7	-0.078525476
14	0xbe1d4bf8	-0.15361011
15	0xbd7a014b	-0.06103639
16	0x3e48f902	0.19626239
17	0x3ce176bc	0.027522437
18	0xbdf67a09	-0.12034995
19	0xbe834a3b	-0.2564257
20	0xbe056bde	-0.1302943
21	0x3e140cf1	0.14458062
22	0x3e752d0e	0.23942968
23	0x3e2a4e33	0.16631393
24	0xbe1cf7fd	-0.15328975
25	0xbe176b4e	-0.14787027
26	0x3e15dd27	0.14635144
27	0xbe301817	-0.1719669
28	0x3e1b72dc	0.15180534
29	0xbcb8b118	-0.022545382
30	0xbe7669ad	-0.2406375
31	0xbdfe1736	-0.12406771
32	0xbd3cc740	-0.046088457
33	0x3eebf607	0.4608614
34	0x3d7276f5	0.059195478
35	0xbec007bb	-0.37505898
36	0x3e2399e6	0.15976676
37	0xbe839aa5	-0.25703922
38	0xbe82b713	-0.255303
39	0xbe9258dd	-0.28583422
40	0x3d8e1508	0.06937605
41	0x3e927b95	0.2860991
42	0xbd659bc9	-0.05605677
43	0x3cafa2d0	0.02143994
44	0xbe16e60a	-0.1473619
45	0xbeec4fd1	-0.46154645
46	0x3e87805b	0.26465115
47	0x3e96ead4	0.29476035
48	0xbe4e20bc	-0.20129675
49	0x3d9ded8a	0.077113226
50	0x3da7cdf6	0.08193581
51	0x3e43730b	0.19086854
52	0x3d98f768	0.07469064
53	0xbe1e40f8	-0.15454471
54	0xbe130e33	-0.14360885
55	0xbe582778	-0.21108806
56	0x3de9d224	0.11417034
57	0x3e867edb	0.26268658
58	0xbdce91b9	-0.10086388
59	0x3dfea88b	0.12434491
60	0xbdedb5f1	-0.11606968
61	0xbe49230b	-0.19642274
62	0x3e6bdbe4	0.230331
63	0x3e415d2a	0.18883196

attention_blocks.0.attention_blocks.1.W_q.weight f4 [4, 16]
0	0x3e338133	0.17529754
1	0x3e3990ba	0.18121615
2	0xbe6c9da3	-0.23107009
3	0xbe55c778	-0.20876873
4	0x3d4e6480	0.050388813
5	0x3ec1959e	0.3780946
6	0x3f0ece8b	0.5578391
7	0x3e810da8	0.2520573
8	0xbeb217f3	-0.34783897
9	0x3ebea491	0.3723493
10	0x3e31f2c8	0.1737777
11	0x3e0044ae	0.12526199
12	0xbd4ba625	-0.049718995
13	0xbeac7514	-0.33683074
14	0xbeb1a3a7	-0.3469517
15	0xbe9d41c8	-0.3071425
16	0xbe422da5	-0.18962725
17	0xbcd257cb	-0.025676629
18	0xbe1a3617	-0.15059696
19	0xbdaa7734	-0.083235174
20	0x3d0d4243	0.03448702
21	0x3eddbc06	0.43307513
22	0x3ee78705	0.452202
23	0x3e418b6f	0.18900846
24	0xbe2d65e4	-0.169334
25	0x3ed4c503	0.41556558
26	0x3e7d12c5	0.24714191
27	0x3d5af7fe	0.05345916
28	0x3d8e3f75	0.06945697
29	0xbe6e8a9b	-0.23295061
30	0xbe0131ab	-0.12616603
31	0xbe47a4cb	-0.19496457
32	0x3edd34cc	0.43204343
33	0x3efe373e	0.4965152
34	0x3d88ebd6	0.06685607
35	0xbed67688	-0.41887307
36	0xbd2c753c	-0.04210399
37	0xbd6347ac	-0.055488274
38	0x3e16a502	0.14711383
39	0xbdc23bc1	-0.094840534
40	0xbd50cbcd	-0.05097561
41	0xbe74335a	-0.23847714
42	0xbe560374	-0.20899755
43	0xbe163965	-0.14670332
44	0xbec77678	-0.38957572
45	0x3de6e52b	0.11274179
46	0xbd91318c	-0.070895284
47	0x3dc24a8a	0.094868734
48	0x3e645f40	0.2230196
49	0x3e1b379c	0.15157932
50	0x3de3bf59	0.11120481
51	0xbe22e787	-0.15908633
52	0xbdd3228e	-0.10309325
53	0xbeab8f8e	-0.3350796
54	0xbe34b9a0	-0.17648935
55	0xbe40eb89	-0.1883985
56	0x3dc32660	0.09528804
57	0xbe80b4d8	-0.25137973
58	0xbda561e9	-0.080753155
59	0xbe430092	-0.19043186
60	0xbe3adf18	-0.18249166
61	0x3e49bfdf	0.197021
62	0x3dd615cf	0.104533784
63	0x3e3d0fbd	0.18463035

attention_blocks.0.attention_blocks.1.W_v.weight f4 [4, 16]
0	0xbd92bfc6	-0.07165484
1	0x3c5651c8	0.013081022
2	0xbc09cd93	-0.008410829
3	0x3b8b7837	0.004256274
4	0x3d81c99d	0.06337283
5	0x3c3c15e7	0.011479831
6	0xbc9bf8d5	-0.01903955
7	0x3c63ef51	0.013912038
8	0x3cb0eb22	0.021596495
9	0x3d400010	0.04687506
10	0xbd20ae43	-0.03922869
11	0x3d6b2163	0.057404887
12	0xbc879164	-0.01654882
13	0x3bd45f92	0.0064811194
14	0x3b85311a	0.0040646913
15	0xbc8263db	-0.015916755
16	0xbd1267a7	-0.03574338
17	0x3a290a84	0.00064484053
18	0xbcfb5659	-0.030680822
19	0x3d15aac7	0.03653982
20	0x3d4e2b9c	0.050334558
21	0xbcff6a8a	-0.031178731
22	0xbbb095f5	-0.00538897
23	0x38fe14d8	0.00012115546
24	0xbb98717f	-0.0046522017
25	0x3d5b71c0	0.053575277
26	0x3c173658	0.009229265
27	0x3d4e2524	0.05032839
28	0xbd1773f8	-0.03697583
29	0x3ba00f8c	0.004884666
30	0xbc9714f8	-0.018442616
31	0xbac7407e	-0.0015201715
32	0x3e15ad5b	0.14616911
33	0xbbf99a8c	-0.0076173004
34	0x3c9ac77d	0.018893952
35	0xbdaec514	-0.085336834
36	0xbde677e6	-0.112533376
37	0x3c8f6415	0.017503778
38	0x3a04f0cb	0.00050712813
39	0x3ce90fe3	0.028449958
40	0x3d2923d9	0.041293953
41	0xbdf679d2	-0.12034954
42	0xba637adc	-0.000867767
43	0xbe1a381d	-0.15060468
44	0x3b41d938	0.0029578935
45	0x3d1da125	0.038483758
46	0xbcd47074	-0.025932528
47	0xbca166a8	-0.01970227
48	0x3c8694a0	0.016428292
49	0xbc0fffd8	-0.008789025
50	0xbbe8c75c	-0.0071038436
51	0xbca139b3	-0.019680833
52	0xbb97629b	-0.004619909
53	0xbc1365ae	-0.00899641
54	0x3c55159a	0.0130056385
55	0x3b6418dd	0.0034804859
56	0xbb5c8a0e	-0.0033651623
57	0x3c2b4a77	0.0104547655
58	0xbac567bc	-0.0015060822
59	0x3d259c8e	0.040432505
60	0xbad1482b	-0.0015966942
61	0x3bc4a580	0.0060011744
62	0x3beab734	0.007162953
63	0x3b8b65db	0.0042540855

attention_blocks.0.attention_blocks.1.W_o.weight f4 [16, 4]
0	0xbbea37b1	-0.007147752
1	0x3c9a57e1	0.018840732
2	0x3c9e1ca1	0.01930076
3	0xba52c150	-0.000803967
4	0x3c8d6448	0.017259732
5	0x3b842dfd	0.0040338025
6	0x3d172f9c	0.03691064
7	0xbbcc0dda	-0.006227237
8	0x3cca4370	0.02469036
9	0x3c8c1e75	0.017104367
10	0xbba0e7ea	-0.004910459
11	0x3b09cedd	0.002102784
12	0x3cb0ed92	0.021597657
13	0x3d42b55f	0.04753625
14	0xbd06e8f3	-0.032937
15	0xbbabee35	-0.0052469024
16	0xbc2e1c4c	-0.010626864
17	0xbce837e5	-0.028346965
18	0x3d5368f3	0.05161376
19	0x3bf40a1f	0.0074474956
20	0x3cd29e0b	0.025710126
21	0x3c078cab	0.008273284
22	0x3c175890	0.009237424
23	0xbb369e44	-0.002786533
24	0xbcf5dacf	-0.030011563
25	0xbc6fcf31	-0.014636801
26	0x3cd19daf	0.025587885
27	0x3a8ddf5c	0.0010824013
28	0xbc964f9c	-0.018348508
29	0xbba76db0	-0.0051095113
30	0x3d84166b	0.064495884
31	0xbae0881b	-0.0017130406
32	0x3c596236	0.013268044
33	0x3d436434	0.047702983
34	0x3c70d995	0.014700313
35	0x3b0402a4	0.0020143175
36	0x3c921784	0.017833479
37	0x3d5d2bd4	0.053996876
38	0xbe02c1c7	-0.12769233
39	0x3b54cf61	0.003247224
40	0x3cb26473	0.021776414
41	0x3cc86504	0.02446223
42	0xbd4633a9	-0.04838911
43	0xba2cfedb	-0.0006599256
44	0xbbf0071b	-0.007325066
45	0xbc6d541e	-0.014485387
46	0x3dd9a4e9	0.10627157
47	0xbbb2763a	-0.0054462226
48	0x3c7819ad	0.01514284
49	0x3cf34af8	0.029698834
50	0xbd8b344e	-0.06797086
51	0xbb0616ec	-0.002046044
52	0xbc0ac3c2	-0.008469524
53	0xbb9e63b6	-0.004833664
54	0x3d004f73	0.03132577
55	0x3b404a52	0.0029341173
56	0xbb95c3fd	-0.0045704828
57	0x3b545f3e	0.0032405402
58	0x3ccdd0b0	0.025123924
59	0xbbc8a4b5	-0.0061231502
60	0x3ca8c036	0.020599466
61	0x3c49e6a0	0.012323052
62	0xbc81cf19	-0.015845822
63	0xbbf56ce8	-0.0074897893

attention_blocks.0.attention_blocks.2.layer_norm.weight f4 [16]
0	0x3f9ee338	1.2413092
1	0x3f82cfc0	1.021965
2	0x3f89f4ec	1.0777869
3	0x3f988bb4	1.1917634
4	0x3f8e7afb	1.1131281
5	0x3f9ac073	1.2089981
6	0x3f8accf9	1.0843803
7	0x3fa0fff5	1.2578112
8	0x3f94136c	1.1568427
9	0x3f9c2992	1.2200186
10	0x3f87c762	1.0607722
11	0x3f8be371	1.0928785
12	0x3f8e8840	1.113533
13	0x3f8ec707	1.1154488
14	0x3f8cb772	1.0993483
15	0x3f9475d7	1.1598462

attention_blocks.0.attention_blocks.2.layer_norm.bias f4 [16]
0	0xbded2f49	-0.115812846
1	0xbd84119c	-0.06448671
2	0x3d891225	0.06692914
3	0x3e1677a5	0.14694078
4	0x3e04b00f	0.12957786
5	0xbdef0477	-0.116707735
6	0xbde1b906	-0.110216185
7	0xbdff70bc	-0.12472674
8	0x3de2dcca	0.110772684
9	0x3e0ee444	0.13954264
10	0xbdc7e6bb	-0.09760805
11	0x3dd1d37d	0.10245416
12	0xbdd78546	-0.10523467
13	0xbe73df3d	-0.23815627
14	0x3d2726b5	0.0408084
15	0x3de963e1	0.113960035

attention_blocks.0.attention_blocks.2.W_k.weight f4 [4, 16]
0	0x3e4d3021	0.20037891
1	0xbd480a5d	-0.04883801
2	0x3d156f08	0.03648284
3	0xbe5a902e	-0.21344063
4	0xbdff61e5	-0.12469844
5	0x3e178666	0.14797363
6	0x3dce3df2	0.10070409
7	0x3e6db1d0	0.23212361
8	0xbe13393e	-0.14377305
9	0xbed12011	-0.40844777
10	0x3d0aa172	0.033845372
11	0xbcad8811	-0.021183046
12	0x3e1c00b1	0.15234639
13	0x3e1bead3	0.15226297
14	0xbe0ab077	-0.13543878
15	0xbe89f8ee	-0.2694773
16	0xbe1cdd01	-0.15318681
17	0x3d866385	0.065619506
18	0x3c527654	0.012845594
19	0x3e8f7b26	0.28023642
20	0x3e05ba15	0.13059266
21	0xbe4ec0da	-0.20190755
22	0xbd980746	-0.07423262
23	0xbe5c3999	-0.21506347
24	0x3e28ac59	0.16471995
25	0x3ec55f2f	0.38549182
26	0xbdf31fa6	-0.11871271
27	0x3d4292e2	0.04750336
28	0xbdfc32e0	-0.12314391
29	0xbe33c8da	-0.17557088
30	0x3db9a8e0	0.090654135
31	0x3e8635ad	0.26212826
32	0x3ddc4b69	0.10756571
33	0xbd908b90	-0.070578694
34	0xbd7eeb8d	-0.062236357
35	0xbe87b7e2	-0.2650748
36	0xbe1a536a	-0.15070882
37	0x3e83102d	0.2559828
38	0x3e1c93bf	0.15290736
39	0x3e85cf52	0.26134735
40	0xbe0a5ff9	-0.13513173
41	0xbe96c0bb	-0.29443917
42	0x3e09ea1c	0.13468212
43	0xbd95d7e0	-0.073165655
44	0x3e3866a4	0.18007904
45	0x3e032b68	0.12809527
46	0xbda85e2b	-0.08221086
47	0xbe569941	-0.20956899
48	0xbdb21175	-0.08694736
49	0x3e4a4c7d	0.1975574
50	0xbda09314	-0.07840553
51	0xbde3cf95	-0.111235775
52	0x3dc42bfd	0.095787026
53	0xbe198831	-0.14993359
54	0xbe854bdf	-0.26034448
55	0xbe9ec0a9	-0.31006363
56	0x3eb5461b	0.3540505
57	0x3e69282e	0.22769234
58	0xbd9e090a	-0.07716568
59	0x3d6be88c	0.05759482
60	0xbe70d078	-0.23517025
61	0x3c7c4f34	0.015399743
62	0x3e5d59fe	0.2161636
63	0x3e8231b1	0.25428537

attention_blocks.0.attention_blocks.2.W_q.weight f4 [4, 16]
0	0xbe04f63d	-0.12984557
1	0xbdc69c51	-0.09697784
2	0xbdd4dd22	-0.1039374
3	0x3e53ad79	0.20671643
4	0x3e36b235	0.17841418
5	0x3dffb5ac	0.12485823
6	0x3db356de	0.08756803
7	0x3ee837c9	0.4535506
8	0xbe35182e	-0.17685005
9	0x3d6592cf	0.05604821
10	0x3d3be179	0.045869324
11	0x3e4e35e9	0.20137753
12	0x3de87090	0.113495946
13	0xbe52b1bd	-0.20575614
14	0xbe5ea2f8	-0.21741855
15	0xbe65d3b1	-0.22444035
16	0x3e15463b	0.14577572
17	0x3bdf3c6c	0.006812623
18	0x3e08ee7b	0.13372223
19	0xbe408864	-0.18802029
20	0xbe1cf44c	-0.15327567
21	0xbe4abf8d	-0.19799633
22	0xbe217d3a	-0.15770426
23	0xbeb845cd	-0.35990754
24	0x3e5a0a14	0.21292907
25	0xbc2d6441	-0.010582984
26	0xbcf9cec2	-0.030494098
27	0xbe532660	-0.20620108
28	0xbd936d8e	-0.0719863
29	0x3e450fc6	0.19244298
30	0x3e6f577e	0.2337322
31	0x3e666870	0.22500777
32	0xbe30de94	-0.17272407
33	0xbc905b43	-0.017621642
34	0xbdf80df2	-0.12112035
35	0x3e221c78	0.15831172
36	0x3dd020c0	0.101624966
37	0x3e99cb5e	0.3003797
38	0x3e63683d	0.22207732
39	0x3ea4af72	0.32165104
40	0xbe093c85	-0.13401993
41	0x3c8fcc01	0.017553331
42	0x3cd53003	0.02602387
43	0x3e41a133	0.18909149
44	0x3cb9f379	0.022699105
45	0xbe26c3bd	-0.16285606
46	0xbe58549f	-0.2112603
47	0xbe4d6d1e	-0.20061156
48	0x3edf95b6	0.43668908
49	0x3e80d96f	0.2516589
50	0x3e1647d4	0.14675838
51	0xbe72267e	-0.23647496
52	0xbda74d83	-0.08169081
53	0xbea6a530	-0.32547903
54	0xbdb6dda5	-0.08928994
55	0xbec07545	-0.3758947
56	0x3d5657cd	0.052329827
57	0xbd8b142b	-0.06790956
58	0xbe053d8f	-0.13011764
59	0xbd6e37a1	-0.05815852
60	0xbe4b6414	-0.19862396
61	0x3e0cbe08	0.13744366
62	0x3d11c25c	0.035585746
63	0x3e0929b8	0.1339482

attention_blocks.0.attention_blocks.2.W_v.weight f4 [4, 16]
0	0x3bd3a3a2	0.0064587155
1	0x3d196e44	0.037458673
2	0x3c3c8204	0.0115056075
3	0xbb91a455	-0.0044446387
4	0x3c866bdf	0.016408859
5	0x39dd5880	0.00042218342
6	0x3b84903a	0.0040455135
7	0xbbfd7d81	-0.0077359085
8	0xbb81dea3	-0.003963308
9	0xbce331b8	-0.027733669
10	0xbb4f8493	-0.0031664714
11	0xbc3a46b1	-0.011369393
12	0x3c4afddf	0.012389629
13	0xbcfe1dee	-0.031020131
14	0xbc2f3b8b	-0.0106953485
15	0xbb77cad4	-0.0037810104
16	0xbc7d2edd	-0.015453068
17	0xbb0c5e70	-0.0021418594
18	0x3b0d91a6	0.0021601706
19	0x3beb9c7b	0.007190285
20	0x3c05d3d3	0.008168179
21	0x3c6d008f	0.014465465
22	0xbc4d1ce2	-0.012519093
23	0x3c9697cf	0.018382935
24	0x3c0b8fed	0.008518201
25	0xbc715554	-0.0147298165
26	0x3c4d91a4	0.01254693
27	0x3c29edb9	0.010371619
28	0x3c619c70	0.013770208
29	0x3cc8d211	0.02451423
30	0x3ce040b3	0.027374601
31	0x3cb73c2a	0.022367556
32	0x3d4f544c	0.0506175
33	0x3cf49513	0.02985624
34	0x3aad865a	0.0013238892
35	0xbd6c123f	-0.05763459
36	0xbd0cdabb	-0.034388285
37	0x3b9e2350	0.004825987
38	0x3d08b841	0.033378843
39	0xbc40593a	-0.011740023
40	0x3c77b335	0.01511841
41	0xbd37500c	-0.044754073
42	0x3c1d9850	0.009618834
43	0xbbd77cd0	-0.006576158
44	0x3b741a73	0.003724721
45	0x3c7c5b07	0.015402562
46	0xbc27774c	-0.010221314
47	0xbce80e8f	-0.028327255
48	0xbe0f3f94	-0.13989097
49	0xbc63f6ec	-0.013913851
50	0x3d50ce3d	0.050977934
51	0x3d6f7b39	0.058467124
52	0x3d83ba9e	0.06432079
53	0xbd61c453	-0.05511887
54	0xbd2a3b86	-0.041560672
55	0xbd2f701b	-0.04283152
56	0x3cc11c4a	0.02357306
57	0x3d4085ab	0.047002476
58	0xbd44e9d3	-0.048074555
59	0x3dd58baf	0.10427033
60	0xbd3a8160	-0.045533538
61	0xb998b022	-0.00029122928
62	0xbbcbef22	-0.006223575
63	0x3cd72e6e	0.026267257

attention_blocks.0.attention_blocks.2.W_o.weight f4 [16, 4]
0	0xbc11d6fa	-0.008901352
1	0x3c13fd66	0.009032583
2	0x3c43e017	0.011955283
3	0x3d12f988	0.035882503
4	0xbc82989e	-0.015941914
5	0x3c02fc88	0.007994778
6	0xbccff0e2	-0.025383417
7	0x3b8ef096	0.004362176
8	0xbc532189	-0.012886413
9	0xb5680800	-8.6438376e-07
10	0xbd014c60	-0.031566978
11	0x3ba88b4f	0.00514356
12	0xbc3d7cd2	-0.011565404
13	0x3cbd90b6	0.023140293
14	0x3a074bb6	0.0005161123
15	0x3c61ce34	0.013782073
16	0xbc89e09e	-0.016830739
17	0x3bea444f	0.0071492563
18	0x3a41b200	0.000738889
19	0x3ca57b76	0.020200472
20	0xbc6122c0	-0.013741195
21	0x3bd703ae	0.006561718
22	0x3bac8a66	0.005265522
23	0x3d05b2be	0.032641165
24	0x3c29012e	0.010315223
25	0x3c418a2d	0.011812729
26	0xbc9ccdf7	-0.01914118
27	0x3dea6cbb	0.1144652
28	0xbcb32207	-0.021866811
29	0x3c172e98	0.009227417
30	0xbb05710a	-0.0020361566
31	0x3d655d4a	0.05599717
32	0xbc2c4dd5	-0.0105166035
33	0x3c1c8310	0.009552732
34	0x3cc35fb5	0.023849348
35	0xbd5e6394	-0.054294184
36	0xbbe159bd	-0.0068771527
37	0x3abc361b	0.0014359386
38	0xbd106d7e	-0.03526067
39	0x3dff1e22	0.12456919
40	0xbc6d4c51	-0.014483527
41	0xb8740e06	-5.8187194e-05
42	0xbd241cc1	-0.040066484
43	0x3d73c068	0.059509665
44	0x3c36b23b	0.011150892
45	0xbb13d29b	-0.002255595
46	0x3ba396b9	0.004992333
47	0x3cdee9b7	0.027211053
48	0xbb9d7f1c	-0.0048064124
49	0x3bd05113	0.006357321
50	0xbc0bf2e6	-0.008541798
51	0x3d7e8495	0.06213816
52	0xba1f344f	-0.0006073163
53	0xb9e7a87b	-0.0004418528
54	0x3c38ca70	0.011278734
55	0x3c6a2188	0.014290221
56	0xb9bd515d	-0.0003610951
57	0x3c833eb2	0.016021106
58	0xbcdbdd82	-0.026839022
59	0xbd18b678	-0.03728339
60	0xbc79e08c	-0.01525129
61	0x3c4dae7b	0.012553806
62	0xbc97463f	-0.018466113
63	0xbcde126b	-0.027108392

attention_blocks.0.attention_blocks.3.layer_norm.weight f4 [16]
0	0x3f9e4276	1.2364032
1	0x3f8ae3b4	1.085074
2	0x3f957cf5	1.1678759
3	0x3fad1369	1.3521549
4	0x3f8ebc64	1.1151242
5	0x3fadec27	1.3587693
6	0x3fa623f3	1.2979721
7	0x3f9ea3c1	1.2393724
8	0x3f92bef6	1.1464527
9	0x3fb5a943	1.419228
10	0x3f8cc325	1.0997053
11	0x3f979169	1.1841251
12	0x3f8ede0d	1.1161515
13	0x3f9f8110	1.2461262
14	0x3f970f25	1.1801497
15	0x3f9bf6fa	1.2184746

attention_blocks.0.attention_blocks.3.layer_norm.bias f4 [16]
0	0xbdea46f0	-0.114393115
1	0x3d4e502c	0.050369427
2	0x3d78630d	0.060641337
3	0x3df98872	0.12184228
4	0x3deb900f	0.11502086
5	0xbdb9bc2a	-0.090690926
6	0xbde2bbc0	-0.11070967
7	0xbdd647d4	-0.10462919
8	0x3dcdef66	0.10055427
9	0x3e059f16	0.13048968
10	0xbdccc1e7	-0.099979214
11	0x3d887085	0.066620864
12	0xbde818e5	-0.11332873
13	0xbdb3e097	-0.087830715
14	0x3d894735	0.06703035
15	0x3deb2869	0.11482317

attention_blocks.0.attention_blocks.3.W_k.weight f4 [4, 16]
0	0xbdd47ff8	-0.103759706
1	0xbde3499a	-0.11098023
2	0xbdd72384	-0.10504821
3	0xbe8b2b62	-0.27181536
4	0xbdcefe9d	-0.101071574
5	0x3ec07e08	0.37596154
6	0x3e977374	0.2958027
7	0x3e419008	0.189026
8	0xbe3c11fb	-0.18366234
9	0xbd3dc93f	-0.0463345
10	0x3e2dbfb2	0.16967657
11	0xbe1970aa	-0.14984384
12	0x3d89d562	0.06730153
13	0x3c755d32	0.014975833
14	0xbe2e31dc	-0.17011207
15	0xbe1d879d	-0.15383764
16	0x3e881f16	0.26586217
17	0x3dc1960e	0.09452449
18	0xbdd72eec	-0.105069965
19	0xbf0282d6	-0.5098089
20	0xbcd5d282	-0.026101355
21	0x3db8b019	0.09017963
22	0x3e27e8d1	0.16397406
23	0x3d9f13a3	0.07767417
24	0xbdac4648	-0.084118426
25	0xbf244c52	-0.64178956
26	0x3d747eda	0.059691288
27	0x3d090c5c	0.033459052
28	0x3dfa8121	0.12231661
29	0x3e6d6216	0.23181948
30	0xbdcb6fbb	-0.0993342
31	0xbdfaac9b	-0.12239953
32	0xbe166b3c	-0.14689344
33	0xbe948da1	-0.29014304
34	0x3d296e02	0.041364677
35	0x3e346563	0.17616801
36	0xbd0cb23a	-0.034349658
37	0x3eacb0fa	0.33728772
38	0x3e87ffda	0.26562387
39	0x3eb25ace	0.34834903
40	0xbeb5f4a3	-0.35538206
41	0x3c174b7a	0.009234304
42	0x3df4a77c	0.119460076
43	0xbdf8fadb	-0.12157222
44	0x3dee4657	0.1163451
45	0xbb4e1a69	-0.0031448847
46	0xbe6f900c	-0.23394793
47	0xbe4b7a92	-0.19870976
48	0x3e700e38	0.23442924
49	0x3cc04ce0	0.023474157
50	0xbe089166	-0.13336715
51	0xbe6c388a	-0.23068443
52	0xbc387fe4	-0.01126096
53	0xbb5ebf73	-0.0033988624
54	0x3e0d1051	0.13775755
55	0x3e1e8c30	0.15483165
56	0xbe1171ab	-0.14203517
57	0xbf02aa55	-0.51041156
58	0x3ce5fc55	0.028074423
59	0x3d707dc7	0.0587137
60	0x3e190d15	0.14946397
61	0x3e4d6898	0.2005943
62	0xbdf0e8c8	-0.117631495
63	0xbe2e582f	-0.17025827

attention_blocks.0.attention_blocks.3.W_q.weight f4 [4, 16]
0	0xbe7e3eb1	-0.24828602
1	0x3d3b81ab	0.045777958
2	0xbe2626b1	-0.16225697
3	0x3df68628	0.12037307
4	0x3db15241	0.08658267
5	0x3ec315dc	0.38102615
6	0x3ecab540	0.39591408
7	0x3e6f3727	0.23360883
8	0x3c81cd99	0.015845107
9	0xbcc38c8b	-0.023870727
10	0x3e20c7a1	0.15701152
11	0xbc1c0b8e	-0.009524239
12	0xbdd52c3d	-0.104088284
13	0xbd6c25e8	-0.057653338
14	0xbe49676e	-0.19668362
15	0xbe1df105	-0.15423973
16	0x3d4c9079	0.049942467
17	0xbd1769d4	-0.03696616
18	0xbdf8f1b7	-0.121554784
19	0x3eaf5fed	0.34252873
20	0x3e8dab9b	0.27669987
21	0xbe8dcc65	-0.27695003
22	0x3e4fff4c	0.20312232
23	0x3e181947	0.14853393
24	0xbe3c62b1	-0.18397023
25	0x3da8242b	0.082100235
26	0xbe214786	-0.1574994
27	0x3eb937da	0.36175424
28	0x3cad38ed	0.021145308
29	0xbebfc386	-0.3745386
30	0xbe7d7116	-0.2475017
31	0xbe78230c	-0.2423212
32	0xbed698d4	-0.41913474
33	0xbdf0c66f	-0.11756598
34	0xbe6e6bbe	-0.23283288
35	0x3d8b6cd4	0.06807867
36	0x3db3517f	0.087557785
37	0x3ec20b49	0.37899235
38	0x3eb1efec	0.34753358
39	0x3e824bb4	0.25448382
40	0x3d765d3b	0.060147505
41	0xbd9523ae	-0.07282196
42	0x3e8dd3f8	0.27700782
43	0xbe02eb3f	-0.12785052
44	0x3cdaeb6f	0.026723592
45	0x3d0ec771	0.03485817
46	0xbd8f1e26	-0.06988172
47	0xbdd1b39a	-0.102393344
48	0xbdde8a80	-0.108662605
49	0xbe126d72	-0.14299563
50	0xbe4dd7cb	-0.2010185
51	0x3e93d7e2	0.28875643
52	0x3e75fc2e	0.2402198
53	0xbe631f0f	-0.22179817
54	0x3e1e7763	0.1547523
55	0x3e689560	0.22713232
56	0xbdc35933	-0.09538498
57	0x3dc43d2a	0.095819786
58	0x3d7f0ec6	0.06226995
59	0x3e628472	0.22120836
60	0x3e22669b	0.15859453
61	0xbe729938	-0.23691261
62	0xbe3222fb	-0.17396156
63	0xbe47fdb4	-0.19530374

attention_blocks.0.attention_blocks.3.W_v.weight f4 [4, 16]
0	0x3d88af55	0.06674067
1	0x3d02befd	0.031920422
2	0x3b9810b7	0.0046406644
3	0xba44a090	-0.00075007323
4	0xbc5c043a	-0.013428742
5	0xbb722a88	-0.003695162
6	0x3c0aaf23	0.008464607
7	0x3bf4993e	0.007464557
8	0xbb7b8c8d	-0.0038383335
9	0xbb1b2758	-0.0023674574
10	0xbaa9a25d	-0.0012942065
11	0xbd193fb5	-0.03741427
12	0x3a9fa20c	0.0012179031
13	0xbc658982	-0.014009835
14	0xbb8f5fbe	-0.004375427
15	0x381655e0	3.5842764e-05
16	0xbc2debdf	-0.010615318
17	0x3ae43ba7	0.0017412797
18	0x3c06cc65	0.008227442
19	0xbc82ff44	-0.01599086
20	0x3c6eee3c	0.014583167
21	0xbc0b59c5	-0.008505289
22	0x3ce9f8df	0.028561054
23	0xbc92947f	-0.017893074
24	0x3c84003c	0.016113393
25	0x3c6b7650	0.01437147
26	0x3c349e9e	0.011024145
27	0xb906f23c	-0.00012869475
28	0x3d08d73c	0.03340839
29	0x3b8cd142	0.0042974064
30	0x3c9ef352	0.019403134
31	0xbc81dfaf	-0.015853731
32	0x3ce637ad	0.02810272
33	0xbbb884d4	-0.0056310687
34	0x3add3376	0.0016876298
35	0x3cd46e54	0.025931515
36	0xbb08ad8b	-0.0020855393
37	0x3ca200fb	0.019775858
38	0xbb6ecc93	-0.0036437854
39	0xbc340c02	-0.010989191
40	0x3c8ab9d4	0.016934313
41	0x3c8925b2	0.016741607
42	0x3c995d5c	0.018721275
43	0x3c44ad5d	0.012004224
44	0x3c92fe9a	0.01794367
45	0x3c3b929f	0.011448531
46	0x3c0a8cf5	0.008456458
47	0x3b317aaa	0.002708117
48	0xbb8f0415	-0.0043645003
49	0x3cc6dbfb	0.024274817
50	0x3c6ba8a5	0.01438347
51	0xbbbba2b6	-0.0057261838
52	0x3c43f1f8	0.011959545
53	0x3c3ee917	0.011652253
54	0x3c010d09	0.007876643
55	0xbc8c9c17	-0.017164273
56	0x3b6e2c74	0.0036342414
57	0x3ca0fd52	0.019652043
58	0x3d1c5260	0.038164496
59	0x3c8ec62e	0.017428484
60	0x3c9bde67	0.019026948
61	0x3ac387ec	0.0014917827
62	0x3bd37990	0.0064537004
63	0x3af21c20	0.0018471517

attention_blocks.0.attention_blocks.3.W_o.weight f4 [16, 4]
0	0xbc493322	-0.012280257
1	0x3aad2e46	0.0013212643
2	0x3b3f995f	0.0029235703
3	0x3b18a2ea	0.0023290464
4	0xbccf3362	-0.025293056
5	0x3bfd7235	0.007734562
6	0xbaa9ac31	-0.0012944994
7	0xbbdb07ee	-0.006684295
8	0xbccf1005	-0.025276193
9	0x3bc00e99	0.005861115
10	0xbb91bab2	-0.0044473046
11	0xbbb2ed62	-0.005460427
12	0xbd2f68d4	-0.04282458
13	0x3c49c4a7	0.012314952
14	0x3badee1d	0.0053079263
15	0xbba4958a	-0.0050227093
16	0xbccc2d0c	-0.024923824
17	0xbb583d0f	-0.0032995378
18	0x3af94a58	0.0019019349
19	0x3b86f35f	0.0041183676
20	0xbd3f63a5	-0.046725888
21	0x3b9ac398	0.0047230236
22	0xb8885670	-6.5010856e-05
23	0xbb878fe7	-0.0041370275
24	0x3be14f42	0.0068759033
25	0x3b97ce09	0.0046327156
26	0xba0e06e6	-0.0005417898
27	0xbb1a15f2	-0.0023511616
28	0x3bc98a19	0.0061504957
29	0x3bd8a630	0.006611608
30	0x3afdb7c7	0.0019357138
31	0xbb8b8601	-0.004257918
32	0xbca27a0f	-0.019833593
33	0x3b4288d0	0.0029683597
34	0x3b04ddce	0.0020273807
35	0x39820ca2	0.00024804944
36	0xbc1477e4	-0.009061787
37	0xba1b00d0	-0.0005912902
38	0x3ade3e17	0.001695576
39	0x3af768dd	0.0018875856
40	0xbc65bf55	-0.014022668
41	0xbb202728	-0.0024437401
42	0xbaf1bf83	-0.0018443916
43	0x3aeeb09d	0.0018210594
44	0x3bd4f991	0.006499477
45	0xbbb550b3	-0.0055333017
46	0xbab91cba	-0.0014122941
47	0x3a82fdb9	0.0009993828
48	0xbc9507d6	-0.018192213
49	0xbb7a80c9	-0.0038223735
50	0xba3ceb9e	-0.00072067406
51	0x3bab896f	0.005234889
52	0x3c6cd556	0.01445516
53	0x396b7290	0.00022454024
54	0x3ab91435	0.0014120402
55	0xbad22983	-0.00160341
56	0xbcbadf5b	-0.022811582
57	0x3acf4c54	0.0015815594
58	0x3a8688cd	0.0010264158
59	0xbab7c018	-0.001401904
60	0xbd0fff9c	-0.035155877
61	0x3b2b17ad	0.002610664
62	0x3b0515b9	0.0020307137
63	0x3aed6baa	0.0018113751

attention_blocks.1.attention_blocks.0.layer_norm.weight f4 [16]
0	0x3f9d6ae2	1.2298243
1	0x3f8ea3a3	1.1143688
2	0x3f95e7d1	1.171137
3	0x3fa86b3e	1.3157728
4	0x3fa2be5e	1.2714345
5	0x3f90d1ea	1.1314061
6	0x3f9ed18b	1.2407697
7	0x3fa1c632	1.263861
8	0x3fab9a8a	1.3406537
9	0x3f92a026	1.1455123
10	0x3fb58543	1.4181293
11	0x3fa90f10	1.3207722
12	0x3fa45146	1.2837303
13	0x3f94170d	1.1569535
14	0x3fa65bf7	1.2996815
15	0x3f98e182	1.194382

attention_blocks.1.attention_blocks.0.layer_norm.bias f4 [16]
0	0xbd945d1a	-0.0724432
1	0xbd579b3f	-0.05263829
2	0x3cdb384b	0.026760241
3	0x3db7d5d7	0.089763336
4	0x3dc4129c	0.09573862
5	0xbd533836	-0.05156728
6	0xbdb7174d	-0.08939991
7	0x3d65e98f	0.056130942
8	0xbc53152c	-0.012883466
9	0xbd50e58c	-0.051000163
10	0xbdcb9223	-0.09939983
11	0x3dab75d2	0.08372082
12	0xbd9bbba1	-0.07604147
13	0x3dbcc97f	0.0921812
14	0x3d8eeede	0.06979154
15	0xbd8799da	-0.06621142

attention_blocks.1.attention_blocks.0.W_k.weight f4 [4, 16]
0	0xbe2a9564	-0.1665855
1	0xbd9746fc	-0.07386586
2	0x3d6477e4	0.0557784
3	0x3d1541d5	0.036439735
4	0x3ebc9983	0.3683587
5	0xbd8c3293	-0.06845584
6	0xbe2e5bd4	-0.17027217
7	0x3d8ec784	0.06971648
8	0xbc31947f	-0.010838627
9	0x3e1ba481	0.15199472
10	0xbed7fe38	-0.4218614
11	0x3e8103e2	0.25198275
12	0xbe6d9c93	-0.2320426
13	0x3b86abf2	0.004109853
14	0x3e433fd2	0.19067314
15	0xbb5cf35f	-0.0033714396
16	0xbe59cbbc	-0.21269125
17	0xbe2443ef	-0.1604154
18	0xbe36128b	-0.17780511
19	0xbd4a2b33	-0.049357604
20	0x3d2d8fcc	0.042373464
21	0x3dc37db2	0.09545459
22	0xbdb45a1f	-0.08806252
23	0x3e6ecf16	0.23321185
24	0x3e8b8183	0.27247247
25	0xbd68c514	-0.056828573
26	0xbdd1eaa0	-0.10249829
27	0x3e91d4fa	0.284828
28	0xbdbd2f48	-0.09237534
29	0xbd8387b6	-0.06422369
30	0x3e483cfe	0.19554517
31	0xbcca30d8	-0.024681494
32	0xbe28a6f2	-0.16469935
33	0xbdbae63b	-0.09125944
34	0xbb57d2f6	-0.003293214
35	0xb92acada	-0.00016288031
36	0x3ea36531	0.3191314
37	0xbac03729	-0.0014664877
38	0xbe0808dd	-0.13284631
39	0x3e183c30	0.1486671
40	0x3d8a7155	0.067598976
41	0x3d4383f6	0.04773327
42	0xbecc9653	-0.39958438
43	0x3e93ac75	0.28842512
44	0xbe051610	-0.12996697
45	0xbcbcadbd	-0.023032064
46	0x3e14d675	0.14534934
47	0xbcc77fbb	-0.024352899
48	0xbe284259	-0.1643156
49	0xbe3d7922	-0.1850324
50	0xbe714572	-0.23561648
51	0xbdbce0f9	-0.09222598
52	0xbc9173cc	-0.017755412
53	0x3d85b09d	0.06527827
54	0xbde20075	-0.110352434
55	0x3e504d87	0.20342074
56	0x3eb57490	0.35440493
57	0xbc2b3637	-0.010449938
58	0xbda45b7b	-0.08025261
59	0x3e7d49a8	0.24735129
60	0xbdbdae9f	-0.09261822
61	0xbde21917	-0.11039942
62	0x3e4377ec	0.19088715
63	0xbc306c8a	-0.010768065

attention_blocks.1.attention_blocks.0.W_q.weight f4 [4, 16]
0	0x3dea0b06	0.11427884
1	0x3db4eff3	0.08834829
2	0x3e8006c1	0.25005153
3	0xbe4b1af4	-0.198345
4	0xbe34ae60	-0.17644644
5	0xbe86b946	-0.26313227
6	0xbe8bc3b8	-0.2729776
7	0xbdcac222	-0.09900309
8	0x3e8964de	0.26834768
9	0xbe5db94a	-0.21652713
10	0xbe1ef6a2	-0.1552377
11	0xbe07e168	-0.1326958
12	0xbeb2ee2f	-0.34947345
13	0x3ea40631	0.32035974
14	0x3ee03ca9	0.4379628
15	0x3df642c9	0.12024457
16	0x3e87de52	0.26536804
17	0xbd1557a3	-0.03646053
18	0x3e892c33	0.26791534
19	0xbe9bb363	-0.304103
20	0xbe6a8200	-0.22901154
21	0xbe847721	-0.25872138
22	0xbcd228a8	-0.025654152
23	0xbeaebcde	-0.3412847
24	0x3df65cb7	0.12029403
25	0x3c048dbe	0.008090435
26	0x3d932079	0.07183928
27	0xbe760190	-0.24024034
28	0xbd1cb252	-0.038255997
29	0x3d4d3318	0.050097555
30	0x3dcfb912	0.10142721
31	0x3e9fdeb7	0.31224605
32	0x3df1944a	0.11795862
33	0x3c005c0e	0.007834448
34	0x3e75eef3	0.24016933
35	0xbe854816	-0.2603156
36	0xbe0ad4ad	-0.13557692
37	0xbe56a993	-0.20963125
38	0xbe64338a	-0.22285286
39	0xbe2e7793	-0.17037801
40	0x3e942199	0.28931883
41	0xbe0e9481	-0.13923837
42	0xbd99c935	-0.0750908
43	0xbe267b1a	-0.16257897
44	0xbe8dc1c0	-0.27686882
45	0x3e69a226	0.22815761
46	0x3ea105c8	0.31449723
47	0x3e480b2c	0.19535512
48	0x3e98cd43	0.29844102
49	0x3c47aa74	0.012186635
50	0x3e788f7e	0.24273488
51	0xbe914a35	-0.28376928
52	0xbe81173c	-0.2521304
53	0xbeb338b5	-0.35004202
54	0x3ce29428	0.027658537
55	0xbecd1be7	-0.4006035
56	0x3d4b11c3	0.049577486
57	0x3ce2dbb7	0.027692659
58	0x3dac160d	0.08402643
59	0xbe8ba17d	-0.27271643
60	0xbcbe3553	-0.023218786
61	0x3ca4d27e	0.020119902
62	0x3d836f69	0.06417734
63	0x3ec16627	0.3777325

attention_blocks.1.attention_blocks.0.W_v.weight f4 [4, 16]
0	0x3e991869	0.29901436
1	0x3db33fe1	0.08752418
2	0xbdbb141f	-0.09134697
3	0xbe33c985	-0.17557342
4	0xbea5835b	-0.3232678
5	0x3df628bd	0.12019489
6	0x3e92a053	0.28637943
7	0xbe5eb531	-0.21748807
8	0x3db49588	0.08817583
9	0xbd616daa	-0.055036224
10	0x3ee04f7d	0.43810645
11	0xbeca172e	-0.3947081
12	0x3eb180ab	0.34668478
13	0xbd8cd24b	-0.06876048
14	0xbeb14610	-0.34623766
15	0x3e4a8fee	0.19781467
16	0x3eb5cb00	0.3550644
17	0x3dcf88af	0.10133492
18	0xbd08e068	-0.033417135
19	0xbe5e9e76	-0.21740136
20	0xbea5575c	-0.32293212
21	0x3ddc09d4	0.10744062
22	0x3e98f570	0.29874754
23	0xbe33412b	-0.17505328
24	0x3d150c2d	0.036388565
25	0xbd9c0528	-0.07618171
26	0x3ed37e34	0.41307223
27	0xbedfe8d9	-0.43732336
28	0x3ec28445	0.3799154
29	0xbd304583	-0.04303504
30	0xbea18691	-0.3154798
31	0x3e3e75f0	0.18599677
32	0x3eb7c5b0	0.3589301
33	0x3db114c4	0.08646539
34	0xbd3edc59	-0.04659686
35	0xbe565722	-0.20931676
36	0xbeb7c20a	-0.35890228
37	0x3e131bfa	0.14366141
38	0x3eaa14b5	0.33218923
39	0xbe7751f9	-0.24152364
40	0x3d4fa51d	0.050694574
41	0xbe0ec29b	-0.13941424
42	0x3ee18440	0.4404621
43	0xbedd2416	-0.43191594
44	0x3ec5d1cf	0.38636634
45	0xbd43cab8	-0.04780075
46	0xbe9e6e2f	-0.30943438
47	0x3e561ccb	0.20909421
48	0xbe9f0fe7	-0.3106682
49	0xbdd44b1d	-0.10365889
50	0x3d20e74b	0.03928308
51	0x3e5517ed	0.20809908
52	0x3e977080	0.29578018
53	0xbe1b6ea8	-0.15178931
54	0xbea63bdf	-0.32467553
55	0x3e670006	0.22558603
56	0x3d19e8c7	0.03757551
57	0x3dd70b6b	0.10500225
58	0xbed5df54	-0.41771948
59	0x3eb9d0d4	0.36292136
60	0xbeb7ee06	-0.35923785
61	0x3d3f3a9f	0.046686765
62	0x3ea6dbcf	0.32589576
63	0xbe62fb61	-0.22166206

attention_blocks.1.attention_blocks.0.W_o.weight f4 [16, 4]
0	0xbe3f47fa	-0.186798
1	0xbe921c86	-0.28537387
2	0xbe661165	-0.22467573
3	0x3e7b5b51	0.24546553
4	0x3e12341a	0.14277688
5	0x3e818b72	0.253017
6	0x3e912c4b	0.28354105
7	0xbe39f1aa	-0.18158594
8	0x3f04ddc6	0.519009
9	0x3f23397b	0.63759583
10	0x3f3148a8	0.6925149
11	0xbf13ee1a	-0.5778519
12	0xbe9bdca0	-0.3044176
13	0xbeaf3376	-0.3421895
14	0xbe936dda	-0.28794748
15	0x3eafcd1f	0.34336182
16	0xbeea449a	-0.45755464
17	0xbed5e3ef	-0.41775462
18	0xbee03304	-0.43788922
19	0x3ee2223b	0.4416674
20	0x3ebe7090	0.37195253
21	0x3ec76218	0.38942027
22	0x3eb69a2d	0.35664502
23	0xbec91618	-0.3927467
24	0x3eba7e39	0.36424425
25	0x3eeee16b	0.46656355
26	0x3ed2b491	0.41153386
27	0xbee38582	-0.44437796
28	0xbee598de	-0.4484319
29	0xbeda4e6c	-0.42637956
30	0xbea516fb	-0.32244095
31	0x3ecd38aa	0.40082294
32	0xbdf1fc32	-0.118156806
33	0xbe11d560	-0.14241552
34	0xbdae0792	-0.08497538
35	0x3dfe785f	0.12425303
36	0xbeb2a462	-0.3489104
37	0xbec9dfed	-0.39428654
38	0xbeb42101	-0.3518143
39	0x3ec96809	0.39337185
40	0x3ec80d10	0.39072466
41	0x3eea0df1	0.4571376
42	0x3edb21b9	0.42799166
43	0xbec8cc3a	-0.39218313
44	0x3ec42310	0.38308
45	0x3ec3fba3	0.3827792
46	0x3ec943f9	0.39309672
47	0xbebc4634	-0.3677231
48	0xbe8a0a09	-0.2696078
49	0xbea39dc7	-0.31956312
50	0xbe97c0ad	-0.29639187
51	0x3e9a7fd2	0.30175644
52	0xbe236c47	-0.15959273
53	0xbe190dff	-0.14946745
54	0xbe08dcbc	-0.13365453
55	0x3e218d00	0.15776443
56	0x3ef28b96	0.4737212
57	0x3f07bdd1	0.5302401
58	0x3f0fbde6	0.5614914
59	0xbf070898	-0.5274749
60	0xbe5bc392	-0.21461323
61	0xbe8a6cbe	-0.2703609
62	0xbe9749f5	-0.29548612
63	0x3e8eed5c	0.27915466

attention_blocks.1.attention_blocks.1.layer_norm.weight f4 [16]
0	0x3f9713d1	1.1802922
1	0x3f8e5303	1.1119083
2	0x3f92b493	1.1461357
3	0x3fb2c351	1.3965856
4	0x3fa54967	1.2913026
5	0x3facb8a9	1.3493854
6	0x3f989565	1.1920592
7	0x3f996016	1.1982448
8	0x3fab5558	1.338542
9	0x3fae1e4e	1.3602998
10	0x3fa54461	1.2911493
11	0x3fa6069f	1.2970771
12	0x3fabde36	1.3427188
13	0x3f92018c	1.1406722
14	0x3fc35f2b	1.5263418
15	0x3f97c328	1.1856432

attention_blocks.1.attention_blocks.1.layer_norm.bias f4 [16]
0	0xbd673b15	-0.05645283
1	0xbdac3aeb	-0.08409675
2	0x3c1958b3	0.009359526
3	0x3d922351	0.07135642
4	0x3d87bf80	0.066283226
5	0xbd6add94	-0.05734022
6	0xbd97838a	-0.07398136
7	0x3d54051b	0.05176268
8	0xbd492b9c	-0.049113855
9	0xbd1b5918	-0.037926763
10	0xbdaf19b1	-0.08549822
11	0x3d55da72	0.05221028
12	0xbda279e4	-0.07933405
13	0xbca22009	-0.019790666
14	0x3dd95063	0.10611036
15	0xbd910c05	-0.07082371

attention_blocks.1.attention_blocks.1.W_k.weight f4 [4, 16]
0	0xbdae05a2	-0.08497168
1	0x3cac7e7a	0.021056402
2	0x3e4dd16e	0.20099422
3	0x3e4efa24	0.20212609
4	0xbdafe8d2	-0.08589329
5	0xbee5250a	-0.4475482
6	0x3dfcfe4f	0.12353193
7	0x3d27c742	0.04096151
8	0xbe473cef	-0.19456838
9	0xbdb69fb8	-0.08917183
10	0x3dcaca34	0.099018484
11	0xbca2a306	-0.019853126
12	0x3e67942f	0.22615121
13	0x3d666aef	0.056254324
14	0xbe8c2f90	-0.27380037
15	0x3e1f7f45	0.15575893
16	0xbe04acd6	-0.12956557
17	0xbe1e836a	-0.15479818
18	0xbe5f6842	-0.21817115
19	0xbe2b1c66	-0.16710052
20	0xbe0bcaac	-0.13651532
21	0x3eb72c9f	0.3577623
22	0xbdc50399	-0.09619827
23	0x3e13a5e6	0.14418754
24	0x3ec490f7	0.3839185
25	0x3d30a7e8	0.043128878
26	0xbd863d10	-0.065546155
27	0xbd8d2833	-0.06892433
28	0xbe29681e	-0.16543624
29	0x3c1a884b	0.009431909
30	0x3e819310	0.25307512
31	0xbdb28948	-0.087175906
32	0xbd2edb9f	-0.042689916
33	0x3c40d8a7	0.011770404
34	0x3e312c8c	0.1730215
35	0x3e5c0275	0.21485312
36	0xbe063a88	-0.13108265
37	0xbe8cc96d	-0.27497426
38	0x3e156278	0.14588344
39	0x3e0f8780	0.14016533
40	0xbe7ccdbb	-0.24687855
41	0xbe035f0d	-0.12829228
42	0x3dddc6b3	0.108289145
43	0xbd992dd9	-0.07479448
44	0x3e8af327	0.27138636
45	0x3d85ddc9	0.06536443
46	0xbe9b0963	-0.302806
47	0x3deacc1c	0.11464712
48	0x3b6207a0	0.0034489408
49	0xbd37b36e	-0.04484885
50	0x3d918195	0.07104794
51	0x3e4b1eae	0.19835922
52	0xbf0e8d22	-0.556841
53	0xbde9cf6e	-0.11416517
54	0x3e00b677	0.12569605
55	0x3e7ecf6c	0.24883813
56	0x3cd39104	0.025825985
57	0xbd8036f2	-0.0626048
58	0x3e66cdf0	0.22539496
59	0xbe9b19ef	-0.30293223
60	0x3e8e997a	0.27851468
61	0x3e05306e	0.13006756
62	0xbe7248a2	-0.2366052
63	0x3e761384	0.24030882

attention_blocks.1.attention_blocks.1.W_q.weight f4 [4, 16]
0	0xbda68493	-0.08130755
1	0xbe27fa06	-0.1640397
2	0xbd641635	-0.05568524
3	0xbababac9	-0.001424634
4	0x3ea1ce09	0.31602505
5	0x3ea6d44a	0.3258384
6	0x3d85eff4	0.06539908
7	0x3e2ee1d9	0.17078342
8	0xbdf58e48	-0.119900286
9	0xbdc0209e	-0.09381221
10	0xbd4d6bba	-0.050151564
11	0x3e9867c5	0.2976667
12	0x3e020e0b	0.1270067
13	0xbe64b0bb	-0.22333042
14	0xbe09107a	-0.13385192
15	0xbe5afd93	-0.21385793
16	0x3e1106e6	0.14162788
17	0x3e29cdfd	0.16582485
18	0xbbb8188e	-0.0056181615
19	0x3de0a463	0.10968854
20	0xbed18776	-0.4092366
21	0xbe9b8ca9	-0.30380753
22	0x3d2685ae	0.04065483
23	0xbe776f23	-0.24163489
24	0xbd77e856	-0.060524307
25	0x3e684baa	0.22685114
26	0x3e49b3e7	0.19697534
27	0xbedcec92	-0.4314924
28	0xbd0db0f6	-0.03459259
29	0x3e04273a	0.12905589
30	0x3cd1c2bf	0.025605557
31	0x3e92a484	0.2864114
32	0xbddba839	-0.10725445
33	0xbe39e19b	-0.18152468
34	0xbe427773	-0.18990879
35	0x3d316cb9	0.043316577
36	0x3ea22bc5	0.31674019
37	0x3eb379c1	0.35053828
38	0x3d09ce32	0.03364391
39	0x3e7f3dd3	0.24925928
40	0xbe2985af	-0.16554902
41	0xbcfc8ad2	-0.030827913
42	0xbd2b4782	-0.041816242
43	0x3eb1ce80	0.3472786
44	0x3e1395bc	0.14412588
45	0xbe395f12	-0.18102673
46	0xbe40a4ea	-0.1881291
47	0xbe90d094	-0.28284132
48	0xbe34b948	-0.17648804
49	0xbe097530	-0.1342361
50	0xbe71e700	-0.23623276
51	0x3e620ee4	0.22075993
52	0x3ea5bd7b	0.32371125
53	0x3e3a59bd	0.18198295
54	0x3dcd3792	0.10020365
55	0x3e33c385	0.17555054
56	0xbea3b75a	-0.31975824
57	0x3e2d1796	0.16903529
58	0x3cb70747	0.022342337
59	0x3e74c6cf	0.23903964
60	0x3e32eb45	0.1747256
61	0xbe6cafd2	-0.23113945
62	0xbe816310	-0.2527089
63	0xbe52e90f	-0.20596717

attention_blocks.1.attention_blocks.1.W_v.weight f4 [4, 16]
0	0xbebd9ff8	-0.3703611
1	0xbe1f35b9	-0.15547837
2	0x3bef9951	0.007311978
3	0x3e89ac4c	0.26889265
4	0x3eac9ca3	0.33713254
5	0xbe4fc4e5	-0.20289953
6	0xbea1fb6b	-0.3163713
7	0x3ea0592f	0.31318042
8	0xbdacfe4b	-0.0844694
9	0x3e843f73	0.25829658
10	0xbecd7b0f	-0.4013295
11	0x3ebaed11	0.36508992
12	0xbecd0716	-0.4004447
13	0xbcdb3585	-0.026758919
14	0x3ea5471f	0.32280824
15	0xbe85f0fb	-0.26160416
16	0xbebc1330	-0.3673339
17	0xbe1befc5	-0.15228184
18	0x3c760b53	0.015017348
19	0x3e7c0148	0.24609864
20	0x3eae157e	0.34000772
21	0xbe4ae3d4	-0.19813472
22	0xbea2ce9f	-0.31798264
23	0x3ea64e04	0.32481396
24	0xbd7f273c	-0.062293276
25	0x3e23635e	0.15955874
26	0xbed11f48	-0.40844178
27	0x3ebb9358	0.36635852
28	0xbeda6c22	-0.42660624
29	0x3c306d5c	0.010768261
30	0x3ea6d010	0.32580614
31	0xbe42dcc5	-0.1902953
32	0x3edbc934	0.42926943
33	0x3e3a63db	0.18202154
34	0x3c1302e1	0.008972854
35	0xbe88699f	-0.26643082
36	0xbeabc4d3	-0.33548602
37	0x3e3dab46	0.18522367
38	0x3eb23c45	0.34811607
39	0xbe9ace20	-0.30235386
40	0x3dc4f639	0.09617276
41	0xbe81c57e	-0.25345987
42	0x3ee17904	0.4403764
43	0xbec7f910	-0.39057207
44	0x3ecc834e	0.39943928
45	0x3cf93413	0.030420339
46	0xbeb9823d	-0.36232176
47	0x3e883190	0.26600313
48	0xbec456d3	-0.38347492
49	0xbe26fbc4	-0.16306978
50	0xbc60e88c	-0.0137273185
51	0x3e8c4874	0.27399027
52	0x3e9d0f63	0.30675802
53	0xbe20c999	-0.15701903
54	0xbea614b9	-0.32437685
55	0x3ea54c5b	0.32284817
56	0xbcae52a9	-0.02127965
57	0x3e50b7fb	0.20382683
58	0xbecb1011	-0.39660695
59	0x3ebea106	0.37232226
60	0xbec60a1f	-0.38679597
61	0xbc708c41	-0.014681877
62	0x3eaaf5f8	0.33390784
63	0xbe6a497c	-0.22879595
