trained_model_16_4_3_2.pth (torch, 110385 bytes, 63 tensors)

inp_embedding.weight f4 [115, 16]
000000 51 83 1e bf 52 c9 a1 be 4c af 7a be 2e 1f 1f bc
       -0.6191912 -0.31598908 -0.24480933 -0.009712024
000010 f8 a6 14 3e a2 61 78 be 10 6c 39 3e ec 72 06 3e
       0.14516819 -0.24255994 0.18107629 0.13129777
000020 53 8a ed 3c 7e 08 bf 3d 89 63 95 bd 27 8e 0c 3e
       0.028996622 0.09327792 -0.072943754 0.13726102
000030 f8 14 41 3e 48 80 98 3e 1e 93 bf be ab c9 c7 3e
       0.18855655 0.2978537 -0.3741693 0.39021048
000040 0c ca 39 3e 19 58 91 3e 3c 14 ea be 5a 52 ad 3d
       0.18143481 0.28387526 -0.45718563 0.08462973
000050 9a 12 88 3d 61 ad 35 be 16 f7 18 bd ec 54 14 bd
       0.06644173 -0.1774192 -0.037345015 -0.0362138
000060 70 8e d5 3d d0 f0 72 be fb 74 e5 3d b2 bc c8 3c
       0.104275584 -0.23724675 0.11203953 0.02450404
000070 6b fb 91 3e 52 19 fb 3d 38 7f aa 3e 74 80 91 3c
       0.2851213 0.12260689 0.33300185 0.017761447
000080 da 54 83 be 3b af c9 3d 3e 22 43 3e 82 ac 6b be
       -0.25650674 0.09847876 0.19056031 -0.23015025
000090 77 71 aa 3d 1e dd 83 be 2b 4e 3a 3e 33 1b 64 bd
       0.08322423 -0.25754637 0.18193881 -0.05569
0000a0 e9 ec b2 bc f4 07 51 be 0f e1 83 be f1 04 48 3e
       -0.021841483 -0.2041319 -0.25757644 0.19533135
0000b0 a8 c7 bc 3e e3 a8 2b 3e cd b5 4b 3e 77 ad 77 be
       0.36871076 0.16763644 0.1989357 -0.24187265
0000c0 9b 8d e7 3d 5c 18 02 3c 82 2e b9 3e 42 01 2c bf
       0.11306306 0.007940378 0.36168295 -0.6718942
0000d0 13 4c f5 bd f8 d0 48 bd 5c c1 13 3e 7c 80 05 3f
       -0.11977401 -0.049027413 0.1442923 0.52149177
0000e0 41 bb c7 be 91 0a a1 bd 48 bd 4a be 5f da f6 3d
       -0.3901005 -0.078633435 -0.19798768 0.1205337
0000f0 a7 93 c2 3e 46 e0 34 3f da bc cd be 0c 6b b8 3e
       0.38003275 0.70654714 -0.40183145 0.3601917
000100 cb d3 13 3f c6 25 b7 3c f7 c0 d6 3e 71 48 5a 3e
       0.57745045 0.022356879 0.41944095 0.21316697
000110 ef 01 a5 be 66 4f f5 be 2d 08 92 bc 53 2f 94 bc
       -0.32228038 -0.4791214 -0.017826164 -0.018088972
000120 e1 de ae bc 07 43 eb 3d 54 bc 8e be 46 e0 13 3c
       -0.021346511 0.11487394 -0.27878058 0.009025639
000130 e7 4c fd bd 50 c4 1c 3f 44 66 16 bd 01 bf 6c 3e
       -0.123681836 0.6123705 -0.03671862 0.23119737
000140 60 7b af be 16 30 4b 3e bc 91 85 be b0 b1 ba 3d
       -0.34273815 0.19842562 -0.2608775 0.091159225
000150 b3 b7 4b 3e e0 81 39 3e d0 14 12 be d2 15 68 3d
       0.19894294 0.1811595 -0.14265752 0.056661434
000160 df 74 58 3d 42 6b 9b be 97 7d 5b 3e 1d 52 83 3e
       0.052845832 -0.3035527 0.21434627 0.25648585
000170 c3 bc 44 bb b0 e5 00 bf 0f a8 b4 3d 4e 77 d2 3e
       -0.0030019737 -0.50350475 0.08821117 0.41106647
000180 60 21 f0 3e 54 41 06 be f6 f3 14 39 c4 de 5a 3d
       0.46900463 -0.13110858 0.00014205262 0.053435102
000190 cb 74 99 3e b8 25 18 bf 36 32 04 bd 66 71 d6 3e
       0.29971918 -0.59432554 -0.032274447 0.4188339
0001a0 62 e5 e0 3c 89 aa 0c bf 86 29 31 be 87 ef 02 3e
       0.027453128 -0.54947716 -0.17300996 0.12786685
0001b0 6b fb 60 be 33 60 b1 bd 56 1e 9e 3d c8 9a 8a be
       -0.21970908 -0.08660927 0.0772063 -0.27071214
0001c0 cf c9 9a bd 7e 0a 2c 3e 1c 4b 0b 3f 7f 80 ac be
       -0.07558023 0.16800877 0.5441148 -0.33691785
0001d0 58 0e 73 3e 4a b9 9e bd f0 d1 08 3e cf ba be 3d
       0.2373594 -0.07750185 0.13361335 0.09312975
0001e0 0c a3 ed bb 49 92 0b bf 6a 9b 0f 3e b9 fd 96 3e
       -0.0072521027 -0.5452009 0.1402413 0.2949045
0001f0 be 4c 38 3e 8b 52 6e 3e 79 f4 de bd 28 8f a8 be
       0.17998025 0.23273675 -0.10886473 -0.3292172
000200 29 0f 64 be b2 ee b0 3d 14 4b a3 3e 26 ce a3 3e
       -0.22271408 0.086392775 0.31893218 0.31993216
000210 01 ee df bd 15 e3 01 bd 6e 39 ac 3d 56 8e 9d 3c
       -0.109340675 -0.031710703 0.08409391 0.01923291
000220 50 db 2a 3d 02 47 0d be 5a b9 bc 3e dd f9 90 3e
       0.04171306 -0.13796619 0.36860162 0.2831563
000230 48 06 9b be 9a e6 64 bd 7f 94 06 3e 2f e0 7f 3e
       -0.3027823 -0.05588398 0.13142584 0.24987863
000240 dd 30 f2 3e 25 31 c1 3e dd 81 88 bd 0c f6 72 3b
       0.47302905 0.37732807 -0.066653945 0.0037072925
000250 a2 91 fe ba c5 0e a2 3d b9 57 be be 7c a1 81 bd
       -0.0019422064 0.07912973 -0.37176302 -0.06329629
000260 f5 39 a5 3e 54 c0 3c be 1c f6 7d 3e bd 13 e3 3c
       0.3227078 -0.18432742 0.24800915 0.027719373
000270 2b e1 c6 be 72 34 ae 3d ac 4e e8 3d 9a 63 9b be
       -0.38843665 0.08506097 0.113431305 -0.30349427
000280 af c2 64 3f 1b 23 d4 3c b9 c7 cf 3e b8 89 21 bf
       0.89359564 0.025895646 0.40582064 -0.6310077
000290 08 9c 3a 3f f4 0f 31 be 92 04 1a bf 4a 07 10 3e
       0.72894335 -0.17291242 -0.60163224 0.1406528
0002a0 66 b8 59 3d 3c 28 a2 3d 6c a1 09 bd 00 62 1c bc
       0.05315437 0.0791783 -0.03360121 -0.009544849
0002b0 ec 65 bf 3e 3d 0c 31 3d e1 97 10 3e 0b a0 b6 3e
       0.37382448 0.043224562 0.14120437 0.35668978
0002c0 c0 d5 62 be c7 46 9a be a3 25 36 3e e9 0b 6f ba
       -0.22151852 -0.30132124 0.17787795 -0.0009118901
0002d0 f7 29 2e 3f fb 3d cd 3c 03 a4 07 be 63 f8 fc be
       0.68032783 0.025053969 -0.1324616 -0.49408254
0002e0 01 a5 2f be dc fc 06 3f dc 0f c0 be 05 0f fe bd
       -0.17152788 0.5272958 -0.375121 -0.124052085
0002f0 d8 ec 3e 3d 9f b7 1c bd 7c e7 1b be 70 62 4c 3e
       0.04661259 -0.038261052 -0.15225023 0.19959426
000300 ef 10 e8 3d a5 1e 93 bc 1c d5 8f be eb 0d 5b 3e
       0.11331355 -0.017958948 -0.28092277 0.21392028
000310 49 c9 82 3e 57 f7 13 bf d1 fe 94 be f6 c6 54 3f
       0.25544193 -0.57799286 -0.2910066 0.8311609
000320 26 3e 98 3e 7a 66 18 bd 74 42 e4 3d 7e 68 e5 bd
       0.29734915 -0.037207104 0.111454874 -0.11201571
000330 c7 dc 23 bd 02 8b 93 be 2a c2 d3 3d f0 ef 31 be
       -0.04000547 -0.28816992 0.10339768 -0.17376685
000340 28 34 2a 3e e0 1d e1 3d fb 55 96 be a7 dc 34 be
       0.16621459 0.10992026 -0.29362473 -0.17662297
000350 92 3e 2d 3f c5 ac 9a bd 7e 78 7f 3e 67 6b 49 3c
       0.676736 -0.075524844 0.24948308 0.012293673
000360 b9 2c 71 be 48 5a 46 3e d2 7f ee be c8 ab 9f be
       -0.23552217 0.19370377 -0.46581894 -0.31185746
000370 e8 09 2f be 6e e2 a9 3d 36 49 23 be f9 34 90 3e
       -0.17093623 0.08295141 -0.15945897 0.28165415
000380 2f 90 f9 3c 01 43 64 3e bb e9 cf 3c 69 36 7a be
       0.03046426 0.22291185 0.025380006 -0.24434818
000390 5b 54 af be ea 9f f3 bc d7 4d b2 bd f5 0a 07 3e
       -0.34244046 -0.029739339 -0.08706253 0.13187774
0003a0 e5 57 4c be d3 bb ac 3e 37 8c e9 bc 23 cf a2 3d
       -0.19955404 0.33737049 -0.028509242 0.079496644
0003b0 02 ff e4 3e 86 6e bd bd 24 10 68 be bc 2b 98 be
       0.44725806 -0.09249596 -0.22662407 -0.29720867
0003c0 5c 25 30 3e 7e ae e3 3e 56 e1 3f be bf 10 ab 3c
       0.17201751 0.44469064 -0.18738303 0.020882009
0003d0 bf 9e bb be 63 e5 31 3d 57 70 be be 39 e7 81 3e
       -0.3664455 0.04343165 -0.37195083 0.2537172
0003e0 67 4d 53 be e6 57 85 3e b6 0f de bd ca 7a 10 be
       -0.20634995 0.26043624 -0.108428404 -0.1410934
0003f0 97 15 a6 be c5 ed 12 3b 2c fd b7 3e 14 c8 80 3d
       -0.32438347 0.0022419554 0.35935342 0.06288162

attention_blocks.0.attention_blocks.0.layer_norm.weight f4 [16]
000000 9a 27 7e 3f 1d 4d 7c 3f c6 1e 88 3f eb b0 81 3f
       0.9927918 0.98555166 1.0634391 1.0132116
000010 33 30 86 3f 55 82 8c 3f 1d 0e 6d 3f 71 47 98 3f
       1.0483459 1.0977274 0.9259966 1.1896802
000020 2d f4 8b 3f b5 91 98 3f 5e e6 6c 3f 95 bb 89 3f
       1.0933892 1.1919466 0.9253901 1.076037
000030 8a 56 84 3f d1 37 7e 3f 42 9b 82 3f de a7 8f 3f
       1.033891 0.9930392 1.0203631 1.1223104

attention_blocks.0.attention_blocks.0.layer_norm.bias f4 [16]
000000 30 00 2d 3d 2e 4d c2 3b c0 f5 b8 3c 68 47 12 3d
       0.042236507 0.0059296107 0.02257812 0.03571263
000010 bb 57 a4 3d f1 4a 09 bc 44 e3 ab 3c ac 76 32 bd
       0.08024546 -0.008379684 0.020982392 -0.043570206
000020 86 fe e8 bc 3d a6 f6 3c 7b 48 a6 3c f2 d1 59 3c
       -0.028441679 0.030108565 0.020298233 0.013294684
000030 67 f7 d9 bc ef 79 4f bb 2d 7f d0 bc 24 a5 34 3b
       -0.026607228 -0.0031658371 -0.025451267 0.0027564252

attention_blocks.0.attention_blocks.0.W_k.weight f4 [4, 16]
000000 c7 7a 16 be 75 e5 28 bf ee da a0 3e 2c 2b b0 3e
       -0.14695273 -0.65975124 0.3141703 0.34407938
000010 b1 26 53 3e 30 53 f0 be b4 85 e8 3d d2 ad a2 be
       0.20620228 -0.46938467 0.11353627 -0.3177324
000020 99 97 dc 3e 22 0c 1f bf df ca 35 3e 75 5c 11 3f
       0.4308441 -0.6212789 0.1775317 0.56781703
000030 1a b3 10 3e c2 74 85 3d d7 b6 a2 3e dc 89 2b bf
       0.14130822 0.065164104 0.3178012 -0.6700723
000040 5c 54 6a bb 07 d7 fc bd 85 21 ad be 7e e5 3d 3f
       -0.0035755849 -0.12345701 -0.33814636 0.741783
000050 22 44 96 bd 46 e7 01 bf db 1d 46 3e b5 f4 25 3f
       -0.07337214 -0.5074352 0.19347326 0.6482652
000060 47 ed 21 3f 1e 64 b5 3e ea 76 70 3d 82 66 1c be
       0.6325268 0.35427946 0.058707155 -0.15273479
000070 c4 67 62 3e 0b 93 d4 be fa b9 68 be 4b 42 a1 be
       0.22109896 -0.41518435 -0.22727194 -0.3149589
000080 86 09 fe 3e 6d b1 7e 3e 1a ea c6 be ac a7 a7 bd
       0.4961664 0.2487237 -0.3885048 -0.08186278
000090 b3 8d 0c bf c1 d5 3a 3e a8 5c b4 3e 39 01 cf 3e
       -0.54903716 0.18245603 0.3522694 0.4043062
0000a0 ca d4 f4 3e f5 65 cb be f8 56 4a be cb 77 4b 3e
       0.47818595 -0.39726225 -0.19759738 0.19869916
0000b0 6b fe 2d 3d 5e 27 9f be ef c0 23 bf d4 dc 55 be
       0.04247896 -0.31084722 -0.6396627 -0.2088502
0000c0 54 ca c2 bc 19 23 bb 3d ce f8 64 3e a5 55 26 3e
       -0.023778118 0.09137554 0.22360536 0.16243608
0000d0 ab 7d a3 3e 69 97 54 be 1c 64 39 bf 4a 7a 09 3f
       0.31931815 -0.20760883 -0.7241838 0.53702223
0000e0 5a 94 93 be 2c 72 90 bd 93 cb ec be c9 2a de 3b
       -0.2882412 -0.070530266 -0.46249065 0.0067800027
0000f0 86 9e 55 bf 12 53 1f bd 2c 42 99 3e 82 7a 14 be
       -0.8344501 -0.03889758 0.29933298 -0.14499858

attention_blocks.0.attention_blocks.0.W_q.weight f4 [4, 16]
000000 d1 ea d6 3c 87 f8 97 be c6 ed 2e bf a5 e2 e9 bd
       0.026235016 -0.296818 -0.68331563 -0.11420182
000010 f7 aa d5 3e 17 ef 2c 3f 57 d5 e5 bc b1 9b 05 3f
       0.41731998 0.6755232 -0.02805583 0.5219069
000020 27 39 f5 3e 19 f4 0d 3f 06 46 04 be b8 34 56 be
       0.47895166 0.5545059 -0.12917337 -0.20918548
000030 95 e3 dd bd 1c 72 23 bf da db b5 be d2 2e a7 bd
       -0.108344235 -0.6384599 -0.35519296 -0.08163227
000040 3a 47 85 bf 12 27 ca be 71 be f1 3e 72 df c5 3e
       -1.0412362 -0.39482933 0.47215608 0.38647038
000050 74 e9 c7 be 13 05 ea 3e 8c 38 0f be dc 97 18 bd
       -0.39045298 0.45706996 -0.13986415 -0.0372542
000060 14 74 3d be 9f 9c d4 3e 51 1f a6 be eb 0c ac 3e
       -0.18501312 0.41525742 -0.32445768 0.33603606
000070 00 2f 1b be 19 38 a6 bc a7 f2 fb be 6d a1 1b 3d
       -0.15154648 -0.020290421 -0.49208567 0.037995744
000080 3b ac db bd a4 59 e4 bd 2f 1b 94 bd 28 b8 c1 bd
       -0.1072621 -0.1114991 -0.07231747 -0.09458953
000090 0a 03 02 bf ef 36 84 3e 15 a3 cc be ef f0 63 3e
       -0.5078589 0.2582316 -0.39968172 0.22259878
0000a0 d1 19 0a bf d6 87 41 be 9c ed f6 bd 5a 91 19 3f
       -0.5394564 -0.18899474 -0.12057039 0.59987414
0000b0 80 b9 fa 3e bc 41 87 3e 73 e3 a8 be 9e fd 10 3e
       0.4896965 0.2641734 -0.3298603 0.14159247
0000c0 de 4b b0 3e 0a f8 ed 3d bc e0 a7 bd 53 2f b1 3e
       0.34432882 0.11619575 -0.081971616 0.34606418
0000d0 99 98 ef be e2 25 e0 3e 77 34 34 be 8b 25 c7 be
       -0.4679611 0.43778902 -0.17598139 -0.3889583
0000e0 c7 92 67 3e a4 11 b0 3e cc 76 a9 be a6 33 ba bd
       0.22614585 0.3438846 -0.33098447 -0.090918824
0000f0 f2 9c 1f 3f 47 59 17 3c 03 6f 93 3d d9 d4 d7 be
       0.62348855 0.009237594 0.07198908 -0.42154577

attention_blocks.0.attention_blocks.0.W_v.weight f4 [4, 16]
000000 49 ba dc 3d 89 d2 2f be 05 91 f6 be ec 3c a9 be
       0.107777186 -0.17170157 -0.48157516 -0.33054292
000010 8c 7f 66 3e bb fb 68 3d b4 75 b0 3e 0f d6 10 bd
       0.22509593 0.056880694 0.344648 -0.035360392
000020 29 12 20 3c 73 eb 33 bd de aa cb 3d d6 35 bc 3e
       0.009769955 -0.043925714 0.099447 0.36759824
000030 d7 41 44 bd 54 e7 fd be 48 d8 62 be 41 70 3d bd
       -0.047914352 -0.49590552 -0.22152817 -0.04624963
000040 97 18 67 3e 60 84 34 3a 21 1b 97 3d df ce b8 3e
       0.22567974 0.00068861805 0.07378221 0.3609533
000050 dc e8 84 3e b2 a4 1d 3e 7e cc ac bd 21 8e 8c be
       0.25958908 0.15394858 -0.08437441 -0.27452186
000060 f3 c1 23 be bf 6e e8 bd 90 e8 13 3e a3 d9 8b bb
       -0.15991955 -0.11349248 0.14444184 -0.0042678877
000070 d8 7f 5f be fd 93 97 3d 58 0d 2a be 6b 36 83 3c
       -0.21826112 0.074012734 -0.16606653 0.01601716
000080 f8 08 f9 3d ac 03 c3 bb 10 b3 81 3e 70 6e 88 be
       0.12159914 -0.0059513655 0.25331926 -0.26646757
000090 5b 3d bb 3a bc b0 ce 3e 6e 5f f3 be e1 ef e8 3d
       0.0014285253 0.40369213 -0.47533745 0.11373878
0000a0 7c a7 4d be 75 ce aa 3d 87 95 a9 bb 2b 8b 02 3e
       -0.20083421 0.0834016 -0.0051752958 0.12748401
0000b0 e8 fa 6c be c5 f3 88 bc 7b 98 2a be bd 55 87 be
       -0.23142588 -0.0167178 -0.16659729 -0.264326
0000c0 66 09 6d be c1 ee be be db b5 10 3d 75 97 3f be
       -0.23148116 -0.3729153 0.03532968 -0.1871012
0000d0 e6 79 11 3d 60 f8 0a 3e 2b 90 9b 3d ae f5 20 3e
       0.035516642 0.1357131 0.07595857 0.1571872
0000e0 06 30 10 bd a1 9d c0 be d8 ac bd bd 59 d7 aa bc
       -0.03520205 -0.3762026 -0.09261483 -0.020854639
0000f0 8a e8 98 bd f9 db 68 bd 19 7c 9d 3d 36 b4 72 3d
       -0.07466228 -0.056850407 0.076896854 0.059253894

attention_blocks.0.attention_blocks.0.W_o.weight f4 [16, 4]
000000 30 2f 94 be 18 98 96 be 3d 54 a2 bd 8f 04 1a be
       -0.2894225 -0.29412913 -0.079262234 -0.15040801
000010 b6 2d f2 3d 02 4e 98 bd 56 74 d0 be d8 29 e8 bd
       0.11825125 -0.07436754 -0.40713757 -0.11336106
000020 00 0f bc be 9b 85 a4 3d 23 11 7a be 02 a7 34 bd
       -0.36730194 0.08033296 -0.244206 -0.044104584
000030 a2 71 bc bc 8b 69 7a bd 43 04 06 3e 34 1f 7b 3e
       -0.023003403 -0.06113581 0.13087563 0.24523622
000040 5c 40 b7 3b e0 cc e6 bd 41 30 2c be 76 1f dc 3d
       0.005592389 -0.112695456 -0.16815282 0.10748188
000050 43 05 94 3d 3e fe 41 bd 22 f5 a0 bd 24 ea 89 3e
       0.07227566 -0.047361605 -0.078592554 0.26936448
000060 ca a0 02 3d e8 4b 8f be a6 88 e0 3a d6 74 1f 3c
       0.03189162 -0.279876 0.0017130568 0.009732446
000070 5a 8a 7c 3e 02 4e b8 bd 4c 02 96 3e b0 17 52 be
       0.24662152 -0.08999254 0.29298627 -0.20516849
000080 e2 74 53 3e 14 cd 7f 3e 72 35 e8 3d b5 58 d3 be
       0.20650056 0.24980575 0.11338319 -0.41278616
000090 dd 79 c3 3e 5d 98 de bd b7 aa 04 bd a9 79 b0 bd
       0.38178912 -0.10868905 -0.03238937 -0.08616955
0000a0 ab 84 a8 be 91 41 b6 3e 22 c4 b9 be fc 62 3d be
       -0.32913718 0.35596898 -0.3628245 -0.18494791
0000b0 7f 60 c9 be 85 90 71 3d 40 4b 27 be 7c e3 53 be
       -0.39331433 0.058975715 -0.163373 -0.20692247
0000c0 82 75 db bd f3 ed 66 3e 3c c2 b0 3d 8d 18 5f be
       -0.10715772 0.22551708 0.08630797 -0.21786709
0000d0 30 97 4d be 91 0f 00 3e 75 e0 97 3e c2 bf 6a bc
       -0.20077205 0.12505938 0.29663435 -0.014327945
0000e0 34 f6 48 be 37 a2 08 be 01 64 1b be 27 eb 90 3e
       -0.19625169 -0.1334313 -0.15174867 0.28304407
0000f0 da 2e ad 3c bf a1 63 3e 88 5a d7 3d 6f f0 9d bc
       0.021140505 0.2222967 0.10515314 -0.019279687

attention_blocks.0.attention_blocks.1.layer_norm.weight f4 [16]
000000 c6 1a 8d 3f cc bc 75 3f 72 54 8a 3f 6a 36 78 3f
       1.1023796 0.95991206 1.0807021 0.9695803
000010 6e d4 83 3f 83 75 6d 3f 9d 8d 73 3f bc bd 79 3f
       1.0299203 0.92757434 0.9513796 0.97555137
000020 bd 3f 67 3f cc 9c 7e 3f 0a ef 41 3f 87 66 7f 3f
       0.9033163 0.99458003 0.7575537 0.9976582
000030 d2 03 6f 3f 22 a6 90 3f 30 75 70 3f f0 4d 6e 3f
       0.93365204 1.13007 0.93928814 0.93087673

attention_blocks.0.attention_blocks.1.layer_norm.bias f4 [16]
000000 d0 b8 9a 3d 0b 96 40 3e c0 3c 3b be 4e bf 94 bc
       0.075547814 0.18807237 -0.18284893 -0.018157627
000010 e8 d8 0e be 2c 29 5b bd 15 ee 78 bd 31 80 1c bc
       -0.1394993 -0.05350606 -0.060773928 -0.009552048
000020 c4 a8 95 3d 6b 24 a2 3d d2 4c a7 bb 61 e0 d2 bc
       0.0730758 0.079171024 -0.0051055932 -0.025741758
000030 5f 1d d2 3c 62 c9 35 3c 86 ad d9 bd b7 01 3b 3c
       0.02564877 0.011095377 -0.106288 0.011413983

attention_blocks.0.attention_blocks.1.W_k.weight f4 [4, 16]
000000 85 87 a0 be e4 42 6f 3e 4b d8 31 3e a3 ff f0 3e
       -0.31353393 0.2336536 0.17367665 0.47070035
000010 67 e9 35 be a4 3c 1f 3e dc 25 8c bd fc de 26 bf
       -0.17764817 0.15550476 -0.068431586 -0.65184
000020 32 fb 55 bc 8c 22 e9 be e7 0a 1e 3f 72 9e a5 3e
       -0.013060378 -0.4553417 0.61735386 0.32347447
000030 14 c3 b1 bc f6 8a 33 bd 3c b1 f3 3e 6f 7f 9b 3d
       -0.021699466 -0.043833695 0.47596157 0.075926654
000040 34 34 89 bd f5 71 10 bf a1 d9 dd 3e c8 fc 41 3e
       -0.0669941 -0.56423885 0.433301 0.18944085
000050 00 ef 3a 3f d9 d1 01 3e a4 09 69 be c8 06 33 bd
       0.73020935 0.12677707 -0.22757584 -0.04370764
000060 8f 45 e3 bd f4 52 70 be 9c 74 90 be 04 c9 a1 3d
       -0.110972516 -0.23469144 -0.28213966 0.07899669
000070 be 18 0b be 47 73 47 be 50 18 c6 3e 0b 90 78 3c
       -0.13583657 -0.19477569 0.38690424 0.015171061
000080 b3 bb c0 3d b0 35 4a 3e 2f a0 4f 3f e0 44 e2 3e
       0.09410801 0.19747043 0.81103796 0.44193172
000090 39 30 95 be e6 99 95 be 3a 49 08 bf cb 7a a0 be
       -0.29138353 -0.29218978 -0.53236735 -0.31343684
0000a0 32 16 b9 be a7 6b 4c 3e 83 62 c7 3d 83 4e c6 3e
       -0.36149746 0.19962941 0.097355865 0.38731775
0000b0 0e bc 39 3e 8a cd 31 bf a5 70 87 be 3c 1d d6 bd
       0.18138143 -0.6945425 -0.26453128 -0.10454795
0000c0 02 20 46 bf fb 47 e6 be bb 6b 51 3e 81 f2 86 3d
       -0.7739259 -0.44976792 0.20451252 0.06589223
0000d0 e0 e6 b9 3d 82 f5 11 3f b3 c7 2e 3f b5 e2 9c 3e
       0.09077239 0.5701524 0.68273467 0.30641714
0000e0 82 e4 6a be a7 56 e8 3d 65 5d 8b 3e 38 63 d8 3e
       -0.22938731 0.113446526 0.27219692 0.42263198
0000f0 f1 05 e4 be 1c 8e a1 be 5a db 92 3d 27 34 ec bd
       -0.44535783 -0.31553733 0.07170744 -0.11533385

attention_blocks.0.attention_blocks.1.W_q.weight f4 [4, 16]
000000 74 08 1b bc 3a c5 a7 3e 6e a8 ac bd 33 e5 07 be
       -0.009462465 0.3276766 -0.08430563 -0.13271026
000010 f4 ec c9 3d de 10 c4 bd f9 78 35 3c 7c 46 04 be
       0.09859648 -0.0957353 0.011076205 -0.12917513
000020 87 88 b8 bd a0 4a 89 3e a4 91 66 3d 7a 35 ef be
       -0.090104155 0.26814747 0.056291237 -0.46720487
000030 1f 29 ef 3e 5c 22 a9 3d de 39 a1 3e af 9b 14 bf
       0.4671106 0.08258507 0.31489462 -0.58050054
000040 a7 3b 86 3e 84 61 2a 3e a7 b0 79 be 70 ed 27 3e
       0.26217386 0.16638762 -0.24383794 0.16399169
000050 42 90 f8 be 33 4d c5 bd ed 10 6f bd 73 17 5e 3e
       -0.4854756 -0.09633865 -0.05836575 0.21688633
000060 3c 84 23 be 6c d6 b6 3c 20 4e c8 3d 0b 61 53 3e
       -0.15968412 0.022319041 0.09780526 0.20642488
000070 59 29 d6 be 3b d4 f7 3d 44 45 af bd ac a0 28 bf
       -0.4182842 0.121010266 -0.08558133 -0.65870166
000080 a0 a9 b0 3d dc 09 5c 3e f0 31 d0 3e f1 b7 45 3f
       0.086261034 0.21488136 0.406631 0.772338
000090 3c aa 86 be d0 da 2b 3f 19 f4 e9 be 74 7a 7e be
       -0.26301754 0.67130756 -0.45694044 -0.248514
0000a0 6b 04 02 be 06 2d cd bd 5c cc 7b 3e 4c 22 f7 be
       -0.12696998 -0.10018353 0.24589676 -0.48268354
0000b0 7e e5 03 bd d6 36 23 bf 09 d3 95 bd 42 ae 2c bd
       -0.032201283 -0.6375555 -0.073156424 -0.042158373
0000c0 fa 3e c9 bd 27 7b 81 3e 44 9a 0b bf 9e 50 0e 3f
       -0.09826465 0.2528927 -0.54532266 0.5559176
0000d0 26 99 99 3d 37 f1 09 bd 18 97 5f 3f d2 d8 70 3e
       0.07499914 -0.033677306 0.87339926 0.2352021
0000e0 4a ed 48 bf 1d c2 6d 3f 87 1c 99 bc 06 c2 26 be
       -0.78487074 0.9287432 -0.01869036 -0.16284952
0000f0 4d 6d f1 bb 97 aa 08 bf d0 67 0a be 95 dc 49 3e
       -0.007367766 -0.533853 -0.13516164 0.19713052

attention_blocks.0.attention_blocks.1.W_v.weight f4 [4, 16]
000000 e6 fc fa 3d c5 85 c5 3e 87 da 4f 3d 6e dc 71 be
       0.12255268 0.3857862 0.050745513 -0.23619244
000010 a6 a2 46 be 57 16 3e be cf a9 24 3e a8 c4 d6 3e
       -0.19397983 -0.1856321 0.16080402 0.41946912
000020 f1 db 02 3d 70 e9 b1 be 91 5c 06 bd f9 1d 1b 3e
       0.031948034 -0.3474841 -0.032803122 0.15148152
000030 20 ed 9a 3e be b3 0b 3d 41 9a 97 bc ac bf 19 3e
       0.30259037 0.034106962 -0.018506171 0.15014523
000040 63 8a 81 be f4 2e ec bd 04 b2 71 3e fc f0 9c bd
       -0.25300893 -0.11532393 0.23603064 -0.076631516
000050 9f 47 90 3d 8b 91 04 bf a7 67 93 be 7a b7 0f 3e
       0.07044911 -0.5178458 -0.28790018 0.14034835
000060 a9 64 72 3e ff f2 79 3d 49 eb 96 bd 5b 30 b4 3d
       0.23671211 0.061022755 -0.07369096 0.087982856
000070 e8 f7 7d bd eb ee 7c bd f5 df a1 bc 2e 11 13 be
       -0.062004 -0.061751287 -0.019760111 -0.14362022
000080 6d 10 cb 3d 52 7f a2 bc 7f 26 c2 3c d8 68 dd 3d
       0.09915242 -0.019836102 0.023699997 0.10811013
000090 12 48 b5 3e d3 e0 15 be ea 78 ac be 65 f2 b8 bd
       0.35406548 -0.14636545 -0.33686 -0.09030608
0000a0 cc 1f 2b 3f 66 d8 d1 3d 0c 05 14 3e 9d 62 a4 3d
       0.66845393 0.10246353 0.1445505 0.080266215
0000b0 cc 1a 8b 3d 50 7f 86 be 12 8b 67 bd 1d c0 18 3c
       0.067922205 -0.26269007 -0.056529112 0.009323147
0000c0 17 cd 85 bd 33 13 ab 3b fe 93 4b 3e 9f 34 06 be
       -0.065332584 0.0052207946 0.19880673 -0.13106011
0000d0 90 56 e1 3e ac 27 b8 be 96 55 ae 3e 7b fc 91 bc
       0.44011354 -0.35967767 0.34049672 -0.017820587
0000e0 ff 96 aa 3d 5e 8a 3e be a4 b1 c0 3e 27 ae 03 bf
       0.083295815 -0.1860747 0.3763553 -0.5143761
0000f0 b1 a6 04 3e 3e f5 3b 3d b4 ee ef 3d 25 a1 19 be
       0.12954213 0.045888178 0.11715451 -0.15002878

attention_blocks.0.attention_blocks.1.W_o.weight f4 [16, 4]
000000 0f a9 04 be 15 00 5a be 09 b5 f3 3e aa de 2e be
       -0.12955116 -0.21289094 0.47599056 -0.17077127
000010 3e f7 e7 3d 29 60 e7 3d b3 41 f6 3d f0 01 8e be
       0.113264546 0.11297638 0.1202425 -0.27735853
000020 1d a0 c9 3e 86 54 f8 3d c0 36 a0 be b7 a9 e2 3e
       0.3937997 0.121254966 -0.3129177 0.44270107
000030 99 a5 21 be ee 68 0a bd 9a a6 6d 3e 3a e5 95 bd
       -0.15785827 -0.033791475 0.23208085 -0.07319112
000040 f5 24 16 3b 08 0b 94 bc 64 6e 8b be fe f3 5e bd
       0.0022910212 -0.018071666 -0.2723266 -0.054431908
000050 ef 70 f2 bc 3b 1e fa 3d cd 93 31 3e bc 7f a7 3e
       -0.029594867 0.12212797 0.17341538 0.3271464
000060 57 48 f6 be f4 2e 87 be 76 f9 6d be f6 30 82 be
       -0.48102066 -0.2640301 -0.23239693 -0.2542798
000070 54 e8 09 3f 84 a8 30 be a1 fb 6f bd 51 36 f5 be
       0.5387013 -0.17251784 -0.05858958 -0.47893003
000080 6b 56 41 be ea 9e ac 3e 0a b0 3e 3e a9 83 3c 3d
       -0.18880622 0.33714992 0.18621841 0.046024
000090 a1 49 47 3d d8 c7 47 3e 95 fa c6 3d 3f f9 1b bc
       0.048654202 0.19509828 0.097157635 -0.009519874
0000a0 f6 f1 fa bd aa ad 3c 3e da 22 59 3e e6 d6 0c 3e
       -0.12253182 0.18425623 0.21204701 0.13753852
0000b0 e8 3f fa 3c 4e e1 c5 3e 78 10 8c be f3 e6 d0 bd
       0.030548051 0.38648456 -0.27356315 -0.102003
0000c0 33 84 8e be a8 aa cc 3e 37 da 78 3e 17 a4 db 3e
       -0.27835235 0.3997395 0.24301992 0.42898628
0000d0 04 e7 1d 3d 2d 25 ba be 0e 2a 46 3d 36 07 33 bc
       0.03855039 -0.36356488 0.04837995 -0.010927012
0000e0 cf 50 02 3e 4c db 3e bb 04 36 f8 3e 78 b6 9d be
       0.12726139 -0.002912241 0.4847871 -0.30803275
0000f0 c2 e9 06 bf c8 ee 93 3c e9 e1 d5 3d d2 78 1e bf
       -0.52700436 0.018058196 0.104434796 -0.6190311

attention_blocks.0.attention_blocks.2.layer_norm.weight f4 [16]
000000 1f b2 82 3f d3 a0 9c 3f 2f 99 7b 3f 4f 54 94 3f
       1.0210608 1.223658 0.98280615 1.1588229
000010 f5 39 85 3f 9a a6 8d 3f d6 1d 52 3f ba 8e 47 3f
       1.0408312 1.1066468 0.82076776 0.7795216
000020 8a 12 69 3f 28 09 8b 3f 93 f8 92 3f fa 0a 86 3f
       0.91043913 1.0862169 1.1482109 1.04721
000030 f6 76 85 3f c1 da 63 3f 1b ed 61 3f 01 95 78 3f
       1.0426929 0.89005667 0.8825242 0.9710236

attention_blocks.0.attention_blocks.2.layer_norm.bias f4 [16]
000000 04 40 96 3d a0 a5 9f bd 69 25 bd 3c f5 a5 af bd
       0.07336429 -0.07795262 0.023089128 -0.08576576
000010 82 0b 28 3d ee fc 7d 39 7a ec 1b 3d 31 c5 21 be
       0.0410266 0.00024222184 0.03806732 -0.15797879
000020 6c a2 e0 3c 1d ea 51 3e 9c 96 03 3d 9c bb e2 3d
       0.027421199 0.20499463 0.032126054 0.1107094
000030 0d cb 3f bd 52 3c e6 3d 8b 3f 1a bd 07 30 07 bd
       -0.046824504 0.11241974 -0.037658256 -0.033004787

attention_blocks.0.attention_blocks.2.W_k.weight f4 [4, 16]
000000 7e 56 a2 bd 6e 49 1b 3d 77 9c c4 3c d9 eb 3b 3f
       -0.07926653 0.037911825 0.02400039 0.7340675
000010 96 d3 0e be 66 ad 37 bf 85 9d f8 be 93 ef af bc
       -0.13947901 -0.7174896 -0.48557678 -0.021476543
000020 61 97 cd 3d 58 4d 85 3e 66 93 b1 3e f2 f5 40 be
       0.10038639 0.2603557 0.3468277 -0.1884382
000030 dd 9b b3 3c 81 a5 b4 bc aa 4b 9b 3e 57 7c 1d 3e
       0.021924907 -0.022051575 0.30331165 0.15379463
000040 d9 4e 68 3d 67 20 b8 3e 1a 90 b6 be 72 07 ac be
       0.05671582 0.3596222 -0.35656816 -0.3359943
000050 42 94 af be 62 0e 99 3e 4d f0 83 bd ae 66 16 3e
       -0.342928 0.29893786 -0.06442318 0.14687607
000060 45 16 ba 3e 29 82 71 be 23 ec 34 3f 66 40 18 bd
       0.36345115 -0.23584808 0.70672816 -0.03717079
000070 73 e6 02 bf 4f 20 81 be e8 08 0a 3f 23 aa 10 3f
       -0.5113289 -0.25219962 0.5391984 0.5650961
000080 ef 1f bf be 61 76 89 bd 9d 07 ab 3d f1 0c 84 3e
       -0.3732905 -0.06712032 0.083510615 0.25791124
000090 b2 9b 80 bc de 74 53 3e db dc de 3d 0c 61 b2 3e
       -0.015699241 0.2065005 0.108819686 0.34839666
0000a0 c4 22 04 be 60 4a 80 bf 1b 9c dd be 7e af 9c be
       -0.12903887 -1.0022697 -0.43283162 -0.3060264
0000b0 60 3c 05 3f 73 15 94 be c0 a0 b2 bc 9d d3 81 be
       0.5204525 -0.28922614 -0.021805167 -0.2535676
0000c0 79 89 ac 3e c7 79 16 bf 55 7f 05 bf b4 64 58 bf
       0.33698633 -0.5877957 -0.5214742 -0.8452866
0000d0 c3 ed e8 be 34 5d 41 3e 87 2e 7a 3d b8 4c 09 3e
       -0.45493898 0.1888321 0.06107953 0.13408172
0000e0 d6 5a 73 3d cd 82 f6 3d 0e 7c 10 3f 3d 7c 10 3f
       0.0594128 0.12036667 0.5643929 0.5643957
0000f0 e2 97 02 3f 57 de d0 bd a4 d9 78 3e 19 d5 fd 3d
       0.51013005 -0.10198658 0.24301773 0.12394161

attention_blocks.0.attention_blocks.2.W_q.weight f4 [4, 16]
000000 67 86 39 3f 34 d6 c3 bc ce 41 ee be cc 02 9f be
       0.72470707 -0.023905851 -0.4653458 -0.3105682
000010 42 b5 94 3e 88 f5 4b bd 8c 8c 5e be 65 06 fc 3d
       0.2904454 -0.049794704 -0.21733302 0.12305907
000020 7d 6d 08 bd 01 c9 9e 3d 58 39 15 bf 3f d9 38 bf
       -0.03330754 0.07753182 -0.58290625 -0.7220649
000030 05 cb d9 be b2 d7 40 3e 1b 3d 3a 3e dc 19 d3 bd
       -0.42537704 0.18832281 0.18187372 -0.10307667
000040 69 07 08 be 16 23 ca be 61 2e 8c bd b3 8b ef 3e
       -0.13284077 -0.39479893 -0.068447836 0.4678627
000050 77 b9 bd be 70 fa 04 3f e5 5b c2 bc 92 2a 9c be
       -0.3705556 0.5194464 -0.02372546 -0.3050123
000060 9d 13 9b 3e 2d 64 b0 3e e7 13 92 3e 9f 33 be be
       0.302884 0.34451428 0.2853081 -0.3714876
000070 2f 39 99 bd 39 5e 7b be 53 a1 25 3f 86 88 86 3f
       -0.0748161 -0.24547662 0.64699286 1.0510414
000080 19 0a aa bd 17 58 47 3f 42 9f d3 bd b2 27 b4 bb
       -0.08302707 0.7786879 -0.103331104 -0.005497896
000090 32 60 b9 be 01 b4 ad 3d dd 43 02 be 62 bb 6f be
       -0.36206204 0.08481599 -0.127212 -0.23411325
0000a0 13 82 c2 be 7a 15 fd 3e cf ee 12 be c0 ca 13 3f
       -0.37989864 0.49430448 -0.14348911 0.57731247
0000b0 d2 13 b3 be cc 39 98 bd 18 e8 b5 3d 30 91 83 be
       -0.3497606 -0.07432899 0.08882159 -0.25696707
0000c0 2e 73 32 bf f7 44 c6 3e a1 66 a7 3e 31 14 92 bd
       -0.69707 0.3872449 0.32695487 -0.071327575
0000d0 f6 1d 87 bd 3a 1f 3a 3e 27 27 ad be 43 09 3c 3a
       -0.065975115 0.18175974 -0.33818933 0.0007173011
0000e0 c2 3e af bd fd 61 08 bf bf 47 ff be fa 27 0c bf
       -0.08556892 -0.5327452 -0.49859425 -0.547485
0000f0 5a 46 04 3f a6 ae c6 3e 20 f2 c8 3d 2c 38 09 3f
       0.5166985 0.3880512 0.09811807 0.53601336

attention_blocks.0.attention_blocks.2.W_v.weight f4 [4, 16]
000000 73 41 93 bd b3 4d ae 3d 47 93 4a bf 91 16 e2 be
       -0.07190218 0.08510914 -0.7913098 -0.44157842
000010 e4 3a 71 be 6f f8 4d bd aa 7c ea bd 29 27 f2 3e
       -0.23557621 -0.050285753 -0.11449559 0.47295502
000020 6e e0 06 3b fa 7e 85 3e 9f 8e 17 3e 13 47 e2 3d
       0.0020580548 0.26073438 0.148005 0.110487126
000030 6b 10 1e be 13 00 e5 be 52 4e 1a be f3 c3 32 3e
       -0.1543595 -0.4472662 -0.1506894 0.17457561
000040 f9 55 f0 3d 62 c5 2b be db c8 8d 3d 9a a4 aa be
       0.11735148 -0.16774514 0.06923076 -0.33328706
000050 c4 7c a2 3e 61 ac 1f be a0 f5 8f bc bc 09 af 3e
       0.31735814 -0.15593101 -0.017573178 0.34187114
000060 dd 21 11 be ee 0c f5 bc fa 4c 65 3e 6a 91 ec 3e
       -0.14173074 -0.029913392 0.22392645 0.46204692
000070 17 ec 9a 3e be 4d 00 3e 64 af bb be 4c f0 12 bd
       0.30258247 0.12529656 -0.3665725 -0.035873696
000080 13 63 ab 3e a1 58 52 3d 6d 72 dc 3d c1 d3 79 3e
       0.33474025 0.051354054 0.107640125 0.24397184
000090 fc 37 83 3d 37 74 14 bc 64 15 1e 3d 4b a6 92 3e
       0.064071625 -0.009060911 0.03859462 0.28642496
0000a0 cd 67 cd bd 92 52 c1 3b 8a 2c 4e bd cc a1 92 3d
       -0.10029564 0.0058997357 -0.050335445 0.071597666
0000b0 a1 6e 9e b9 fb e4 b1 be 5d b2 f1 bd 21 b5 90 3e
       -0.00030218533 -0.3474501 -0.11801598 0.2826319
0000c0 e6 86 a2 3d 94 f5 7b bd 31 94 86 3d 76 b9 fa 3d
       0.07935886 -0.0615135 0.06571234 0.12242405
0000d0 e9 51 b6 be 46 b4 e5 3a bd a6 c6 bd 5d 4a a0 3e
       -0.35609367 0.0017525039 -0.096997716 0.31306735
0000e0 96 bb 0f 3c 80 6d a7 3e e2 4f aa bd f6 0f 01 3d
       0.008772751 0.3270073 -0.08316018 0.031509362
0000f0 54 3c d7 3e e5 27 28 3e db 8f 20 3e 6d b5 31 be
       0.42038214 0.16421469 0.15679877 -0.17354365

attention_blocks.0.attention_blocks.2.W_o.weight f4 [16, 4]
000000 8b 6f a8 be d1 7c dd bd 41 a3 98 be 24 94 42 3e
       -0.328976 -0.108148225 -0.29812053 0.19001824
000010 a3 41 b4 be 89 20 fa 39 af 29 07 bd 86 b0 85 3d
       -0.35206327 0.00047707956 -0.032998737 0.0652781
000020 cb 78 31 3b f3 c1 3b 3e 50 2e 49 3e 26 8b c2 be
       0.0027080055 0.18335705 0.19646573 -0.37996787
000030 25 6e 6b 3e a8 87 f0 3d 0e 87 32 be 4e 0a 1a 3f
       0.22991236 0.117446244 -0.17434332 0.60171974
000040 92 0f 80 3e d0 af 86 be fd d6 45 3e 6c 9e e6 bd
       0.2501188 -0.2630601 0.19320293 -0.11260685
000050 25 80 18 3c e6 3c 9f be c0 ae 6d be d9 9d 2e be
       0.009307896 -0.3110115 -0.23211193 -0.17052402
000060 f5 0b 3a be da 9e 96 bd 28 20 3a be 34 53 1c be
       -0.18168624 -0.07354517 -0.18176329 -0.15266114
000070 8a 0d c6 be c1 73 d4 3e 6a 3e 01 be 2a 0c 13 3e
       -0.38682204 0.41494563 -0.12621465 0.14360109
000080 ff 5b 5b bd 96 6e 55 3d fa 0e 18 be 28 3f a7 be
       -0.05355453 0.052107416 -0.14849463 -0.32665372
000090 94 66 22 be a7 1b c3 3d da 6e 8f be ab f3 27 3d
       -0.15859443 0.09526759 -0.2801426 0.041003864
0000a0 56 c7 0f 3d c3 62 b4 be 8f 2c 46 bb b1 34 61 3d
       0.03510221 -0.352316 -0.0030238961 0.05498189
0000b0 52 99 21 3e f8 38 ba bd 7b 83 44 bf da 07 73 3e
       0.15781143 -0.09092897 -0.76763123 0.23733464
0000c0 dd 8d 97 be 1d 35 2e be ab 1b 38 be 45 2d ff 3c
       -0.2960042 -0.17012449 -0.17979304 0.031149516
0000d0 a9 e5 1f bf b2 65 9e be 45 7c ee 3d 26 96 ae 3d
       -0.6245981 -0.30936962 0.11644796 0.08524732
0000e0 88 75 63 3d 6f 2c dc be d8 9a 16 3e 38 d5 e3 3d
       0.05553201 -0.4300265 0.14707506 0.111246526
0000f0 56 52 60 be 78 ec 8d 3e 6c c3 f3 bd 6f e7 3f bd
       -0.21906409 0.27719474 -0.11902508 -0.04685157

attention_blocks.0.attention_blocks.3.layer_norm.weight f4 [16]
000000 ad 8d 8c 3f 0b 51 77 3f e5 c7 90 3f 99 11 72 3f
       1.0980736 0.96608037 1.1311003 0.945581
000010 21 43 66 3f f2 a5 7a 3f fb 67 7a 3f 1e fd 65 3f
       0.8994618 0.9790946 0.9781491 0.8983935
000020 c2 f4 87 3f 14 2d 83 3f 7b a8 72 3f 73 fb 75 3f
       1.0621569 1.0248132 0.9478833 0.96086806
000030 2f a9 70 3f 32 18 9a 3f 58 2b 76 3f 50 7f 72 3f
       0.94008154 1.2038634 0.9615989 0.94725513

attention_blocks.0.attention_blocks.3.layer_norm.bias f4 [16]
000000 1f 23 26 be aa c0 f3 3c 00 07 da 3d a9 ab 7c bd
       -0.16224335 0.029754955 0.106458664 -0.061687145
000010 b6 c3 4f bd a5 c1 8e bd a6 d1 0b bd 17 b1 ac 3d
       -0.050723754 -0.069705285 -0.034135483 0.08432215
000020 ca 94 9f bc 4b 0d 77 bc bd bc b0 bd 99 33 e7 3d
       -0.019480128 -0.015078853 -0.08629749 0.11289138
000030 81 96 95 3d 15 ca 9e bd 14 9d ec 3c 31 e9 f4 3c
       0.07304097 -0.07753388 0.028883494 0.02989635

attention_blocks.0.attention_blocks.3.W_k.weight f4 [4, 16]
000000 cb 1d 3a bf 6a ca dd 3e 3d 39 0b 3f 82 2f 2e be
       -0.7270171 0.43318492 0.54384214 -0.1701031
000010 b1 ab 6f 3e f3 d1 15 be 40 94 83 be 7d e1 40 3d
       0.23405339 -0.1463087 -0.25699043 0.047090042
000020 83 66 c2 be 6f 2d 52 be d7 32 aa be 6a 95 2a 3f
       -0.37968835 -0.20525144 -0.33241913 0.6663424
000030 a3 78 5c 3e 3b eb 29 bf 1e f3 da 3e 3a e3 93 3e
       0.21530394 -0.6637456 0.4276361 0.28884298
000040 f4 96 59 be cc b7 47 3f 5e 97 b7 be da 9d b9 3e
       -0.2124899 0.78014827 -0.35857671 0.36253244
000050 2e 45 32 3e b4 79 cd bd 20 f5 98 3d 66 1e 65 bd
       0.17409202 -0.10032979 0.07468629 -0.055937193
000060 00 e3 b7 3e 24 32 bf be be 58 2d 3d bd 7f 03 3f
       0.35915375 -0.37342942 0.04232096 0.5136679
000070 db 7a f5 bd 5c 12 5f be d0 e5 fe 3e e1 05 ba be
       -0.119863234 -0.21784347 0.49784708 -0.3633261
000080 4e e9 8f bd 90 d6 3b 3e f1 20 da 3e 96 e7 2d be
       -0.07026921 0.18343568 0.42603257 -0.16982874
000090 20 c6 f4 3d ab 74 ad 3e 3d 9e 87 3d 61 dd dd 3e
       0.11951852 0.33878073 0.066219784 0.4333296
0000a0 77 0c f6 be a4 2e 0f be 56 88 05 3f b0 69 b1 be
       -0.48056385 -0.13982636 0.5216116 -0.34650946
0000b0 80 76 0f be 8f b6 ac 3e e2 95 df 3d 55 99 11 bf
       -0.14010048 0.3373303 0.1091726 -0.5687459
0000c0 92 57 35 bf 5c a8 68 be b5 78 58 3d 95 f2 9d be
       -0.70836747 -0.22720474 0.05284949 -0.30849138
0000d0 90 5c 11 bf 22 6d 9f be 72 4a 0a be e4 8a 13 3f
       -0.56781864 -0.3113795 -0.13504961 0.57633805
0000e0 0f a9 d6 3d ae 5e 81 3e 25 93 10 bf 9a a7 e2 3e
       0.10481464 0.25267547 -0.56474525 0.44268495
0000f0 41 5f 7e 3d bd 05 ea 3e f0 eb 5e 3e bb 2a c8 bd
       0.06210256 0.45707503 0.2176969 -0.09773775

attention_blocks.0.attention_blocks.3.W_q.weight f4 [4, 16]
000000 54 dc b3 be b2 fc b0 3d ba e2 f8 3d 83 d2 de be
       -0.35129035 0.08641948 0.1215262 -0.43519983
000010 30 fe 2e 3a c0 4a 04 3e 4a 95 1f bf c3 7e 9d be
       0.000667545 0.1291914 -0.6233717 -0.30760774
000020 11 d5 3d bd 08 84 97 be 6b 6b 67 be 25 cd 09 3d
       -0.046345774 -0.2959292 -0.2259957 0.033642907
000030 72 4a 5a 3d 4f 6d 0d 3f 08 3c d4 bd 7f d6 fe 3d
       0.053293653 0.55244917 -0.103630126 0.12443256
000040 d0 7f cf bd 78 42 e3 3e ae 39 c6 bd 8d eb 38 bf
       -0.101318 0.4438665 -0.0967897 -0.7223442
000050 df b9 7a be 41 24 e3 be b3 82 5d be 74 24 5d 3c
       -0.24484967 -0.44363597 -0.21631889 0.013497461
000060 5e 23 90 be ff 29 34 bf 22 c5 3e 3e ff d3 05 bd
       -0.28151983 -0.7037658 0.18629888 -0.03267288
000070 0c 5b cf 3d 88 bb d6 3d e7 ec 10 3f 8d 73 cb 3e
       0.10124788 0.104849875 0.56611484 0.39736596
000080 96 2b 0c 3f a3 dc 2e 3e 45 10 b0 3e 78 90 a2 be
       0.54754007 0.17076354 0.34387413 -0.31750846
000090 1a 84 fe 3d cc 3f 0f 3f 4a 46 ef be 29 fa ac bd
       0.1242754 0.5595672 -0.46733314 -0.08446152
0000a0 f6 1e 35 be 96 fa 51 bd 5e ce df 3d c4 2d b7 be
       -0.17687592 -0.051264368 0.10928033 -0.35777104
0000b0 7c 4d 05 bf a3 6c 1c bf ac 2e 27 be 6e 09 ad 3c
       -0.52071357 -0.61103266 -0.16326398 0.02112266
0000c0 d6 09 65 be b6 98 0f bd cb 5d 40 bf 35 a8 a2 bd
       -0.22367033 -0.035057746 -0.75143117 -0.07942239
0000d0 63 da af 3e c5 4b ab 3d d6 72 00 bf 60 b7 b9 3d
       0.34346303 0.08364061 -0.50175226 0.09068179
0000e0 a6 39 07 3f 6a 76 ba be 87 f5 71 3e dc 32 c3 3e
       0.5282234 -0.36418468 0.23628817 0.3812474
0000f0 30 b1 be bc cd bc 2b be a6 d3 2c 3d 47 47 34 3e
       -0.023277849 -0.1677124 0.04219403 0.17605315

attention_blocks.0.attention_blocks.3.W_v.weight f4 [4, 16]
000000 59 15 14 bd ce 7b 94 3e 80 bb 02 be 2f 63 79 3d
       -0.03615317 0.29000705 -0.12766838 0.060885604
000010 dc 64 65 3d 13 61 3b be 0e 5d 39 bc 7e 6a d5 3d
       0.05600439 -0.1829875 -0.01131369 0.104207024
000020 0a 58 62 be a3 cb 33 be eb e9 49 bd 92 4f c9 3d
       -0.22103897 -0.1755815 -0.049295347 0.0982963
000030 f7 bc 63 3e 8f 44 87 3e 0f dd 07 bf 74 1c f4 be
       0.22240053 0.26419494 -0.53071684 -0.47677958
000040 91 b1 90 be 4a d1 c4 3e 1d b5 0f be 55 6b d3 3d
       -0.28260472 0.38440925 -0.14033933 0.10323206
000050 5e 99 3a 3e 71 de ba 3e 26 da 92 bd 32 58 23 3d
       0.18222567 0.36497834 -0.07170515 0.03987903
000060 37 8c 03 3f 54 71 8f 3e fe 44 96 3e e3 22 00 3f
       0.51385826 0.2801615 0.29349512 0.5005323
000070 0b 28 b1 3e ea 1b ae be 32 0b 20 3d a5 70 d4 bb
       0.34600863 -0.34005672 0.039073177 -0.006483155
000080 5e e1 da bd e4 6c bd 3e 5c 3e 2d 3e a4 b3 22 bc
       -0.10687517 0.3699714 0.1691832 -0.009930525
000090 20 cb f6 bd 2e 46 87 be e1 29 36 3e 46 a9 3d be
       -0.12050462 -0.2642073 0.17789413 -0.18521604
0000a0 03 2c 9a 3e 06 7b 50 be 18 75 05 3d 59 f3 af 3d
       0.30111703 -0.2035943 0.032582372 0.08591337
0000b0 5c c9 dc 3e 93 aa 92 bd d2 ca 21 be 5d b7 20 3e
       0.43122375 -0.07161441 -0.15800026 0.15694948
0000c0 c2 45 75 bd e0 80 e5 3d 59 b5 a2 3e 06 41 57 3e
       -0.05988098 0.112062216 0.31778982 0.21020898
0000d0 4a 7c 47 3d a7 b1 8a bc fd 46 5c be c7 ce 75 3d
       0.048702516 -0.016930414 -0.21511455 0.06001165
0000e0 bc 62 24 bd c1 28 48 be 22 3d 5e 3e 67 d9 ea bd
       -0.040133223 -0.19546796 0.21703008 -0.114672475
0000f0 b3 83 0c bf ce f0 dc 3d 3f c9 9b 3e aa 54 a4 3d
       -0.5488846 0.10788117 0.30426976 0.08023961

attention_blocks.0.attention_blocks.3.W_o.weight f4 [16, 4]
000000 1c 44 5e be b9 9d e9 3d a7 5f c5 3e 07 24 74 be
       -0.21705669 0.11407036 0.3854954 -0.23841868
000010 95 bd c4 3d 30 95 72 bd a9 3d 99 3e 39 87 9c 3e
       0.096064724 -0.059224308 0.29929855 0.30571917
000020 9f 34 eb 3e 45 91 fe 3e 25 78 7d 3e a0 30 1e bf
       0.45938584 0.49720207 0.24752863 -0.61792946
000030 88 6d 8b bd 1d 17 60 3e 51 98 b7 bd d2 af 04 bf
       -0.06808001 0.21883817 -0.08964599 -0.5183078
000040 c2 5b 09 3e 5c 2d 83 3c 71 d0 50 be 82 13 27 bd
       0.13413909 0.01601284 -0.20392014 -0.04079009
000050 4b 6e 7e 3e 09 eb 33 bd e8 fa e5 3e 3f ee 11 3d
       0.24846761 -0.04392532 0.4491799 0.0356276
000060 f7 9e 7d 3e 5a d2 3f be 79 ef 0f bd 34 ec cb 3c
       0.24767672 -0.18732587 -0.03514049 0.024892904
000070 50 77 1e be 58 3b de 3d fb 33 d7 3e 57 da 0b 3d
       -0.15475202 0.10851163 0.42031845 0.034143772
000080 2e 67 47 3e 57 1e 50 be a2 be 06 3d 87 2f 32 3e
       0.19472954 -0.20324074 0.032896645 0.17400943
000090 de 0f df 3d 6d e6 17 3e ed 70 5e be 31 20 11 be
       0.10891698 0.14833994 -0.21722765 -0.14172436
0000a0 0a 00 51 3e 0f 09 3c be 00 de de be 5f 03 91 be
       0.20410171 -0.1836283 -0.43528748 -0.28322884
0000b0 62 1e 82 3d 42 8f 55 3e cc 05 e3 be 19 85 2b 3e
       0.06353451 0.2085543 -0.4434036 0.16749991
0000c0 4f 58 21 3e c4 b6 bf 3d ce 2a 44 be f7 a5 0e be
       0.15756343 0.09361032 -0.19156954 -0.13930498
0000d0 3a 59 16 3e 6b b0 a1 bd 97 dd 84 bc 2c 79 43 3e
       0.14682475 -0.07894977 -0.016218944 0.19089192
0000e0 cd dc 82 be e3 ae 11 3d 71 7d 0d bd 00 e9 81 3c
       -0.25559083 0.035567176 -0.03454346 0.015858173
0000f0 ed 72 a4 3e 5a ad d4 3e 2a af 94 be a0 f7 cb be
       0.3211893 0.41538507 -0.2903989 -0.3983736

attention_blocks.1.attention_blocks.0.layer_norm.weight f4 [16]
000000 bf 9a 8a 3f 8f 0c b9 3f 78 e6 97 3f d6 1e 9c 3f
       1.0828475 1.4456958 1.1867208 1.219691
000010 12 0d 7c 3f ce 3a c3 3f 60 02 b9 3f 2c 53 8c 3f
       0.98457444 1.5252321 1.445385 1.0962882
000020 2a 53 c0 3f 1d 39 ae 3f d3 9d 90 3f e3 2b 7e 3f
       1.502538 1.361118 1.1298164 0.99285716
000030 52 b3 ac 3f b2 b8 94 3f ac 46 9f 3f 03 e6 99 3f
       1.3492224 1.1618865 1.2443442 1.2023319

attention_blocks.1.attention_blocks.0.layer_norm.bias f4 [16]
000000 d4 a4 91 3d 67 7c f4 3c 47 e7 03 3e 11 d9 b4 bd
       0.071115166 0.029844476 0.12881194 -0.08830465
000010 a9 ee c6 bd c3 ff 31 bd e4 94 97 3d 19 0e 29 3e
       -0.097134896 -0.043456804 0.074014455 0.16509284
000020 0f ef 4b ba e6 92 85 bd 18 10 2f bd f3 fc ab bb
       -0.0007779458 -0.06522159 -0.042739958 -0.0052486598
000030 e9 79 bb bd e4 8e 0c be c1 75 d6 3c f2 ac 6b 3d
       -0.09154112 -0.13726383 0.026179196 0.05753798

attention_blocks.1.attention_blocks.0.W_k.weight f4 [4, 16]
000000 e9 65 b1 bd 44 fb 8a bd e0 e1 b8 be 7a 10 8d bb
       -0.08662016 -0.06786206 -0.3610983 -0.0043049427
000010 e0 41 90 bd 54 c3 4a be 7f 1f 44 be 74 73 80 be
       -0.07043815 -0.19801074 -0.1915264 -0.25088084
000020 30 82 5a be 1c ea 24 3f 4f 31 00 3f 83 59 97 3e
       -0.21338725 0.6441972 0.5007524 0.2956048
000030 6b 01 59 be 0b 03 0c 3e 62 92 59 3e 05 dd 81 3e
       -0.21191947 0.13673036 0.21247247 0.25363937
000040 c2 b7 07 3f b1 64 76 3e 00 e2 9f be d8 4e 1f bf
       0.5301477 0.24061848 -0.31227112 -0.6222968
000050 e9 6f 36 be c3 3e 3a 3f 2d c0 3d be 6e 44 fc bd
       -0.17816128 0.72752017 -0.1853034 -0.123177394
000060 aa 83 da 3d d5 53 b0 bc 77 34 c1 3e 59 44 ae be
       0.10669644 -0.02152435 0.3773534 -0.3403652
000070 00 2e fd 3e ff a8 b4 bd b9 be 50 be 64 b6 66 bf
       0.49449158 -0.08821296 -0.20385255 -0.90122056
000080 60 65 e3 bd 81 dd 0f bf 55 76 f6 bd 56 d1 2b 3f
       -0.1110332 -0.56197363 -0.12034289 0.67116296
000090 60 c4 d4 3e e2 cd d9 be a4 78 37 bf d5 be 7b 3d
       0.41556072 -0.4253989 -0.7166846 0.06146129
0000a0 cf 9a 8c 3d ca 54 9e 3e 0f ae 6b be 3c 0f 36 3e
       0.06865465 0.30924064 -0.23015617 0.17779249
0000b0 f7 b0 ce 3e c5 36 5a 3e 57 7f 9a be 03 04 b4 bd
       0.40369388 0.21309955 -0.30175278 -0.08789828
0000c0 81 c2 03 be 56 94 28 3f db 46 9b be 49 85 2b bf
       -0.12867166 0.6585134 -0.30327496 -0.6700025
0000d0 1a 83 b7 3e 2a 8a b3 be 6b ef 19 3f a9 d3 fb 3e
       0.3584221 -0.35066348 0.6013095 0.4918492
0000e0 b6 c5 94 bf a2 3c 20 3f 76 18 12 bf 1a b4 2a 3e
       -1.1622837 0.6259252 -0.57068574 0.16670266
0000f0 22 b1 39 3f 38 bd 3f 3f be 87 45 bd 8d 11 ff be
       0.7253591 0.748981 -0.048225157 -0.49818078

attention_blocks.1.attention_blocks.0.W_q.weight f4 [4, 16]
000000 6f 57 06 bf c5 52 aa 3d 81 4c 0c 3f 7a 8a c2 3e
       -0.52477163 0.08316568 0.54804236 0.37996274
000010 ef 72 c1 be f7 fc 8e be 9c 0c 24 bf 65 4e e4 3d
       -0.37783 -0.27927372 -0.6408174 0.11147765
000020 8f 92 1a be b4 c7 85 3f 83 bf 66 be 33 5c 5a 3e
       -0.1509497 1.045157 -0.22533993 0.21324234
000030 49 9b 97 bd 7d 6c 5c be 20 d8 1e bf 45 39 68 3e
       -0.07402665 -0.2152576 -0.6204853 0.22678097
000040 15 6a ea 3e d5 c2 2e bf 67 65 f4 be de c0 88 3b
       0.4578406 -0.6826604 -0.47733614 0.004173382
000050 8a 93 46 be 32 d2 14 bf 9d 81 2c bd 03 04 ea 3e
       -0.19392219 -0.5813323 -0.042115796 0.45706186
000060 fe 46 2f bf d0 88 0a bd 9c 9b e7 3e d2 ef d1 be
       -0.684677 -0.03382188 0.45235908 -0.4100328
000070 b2 e6 9d bc 72 82 2a 3f f3 7d 0d 3f 6d e7 93 3c
       -0.019275043 0.66605294 0.5527031 0.018054688
000080 64 5a 61 3e c7 0c 74 3f 21 2f d8 bb 45 a2 8b be
       0.22007138 0.95331997 -0.006597415 -0.2727224
000090 47 b4 a8 be 82 64 56 be 45 6b 07 bf 99 87 1d bf
       -0.3295004 -0.20936778 -0.52898055 -0.6153503
0000a0 98 d5 b8 3e 8f e4 76 be 46 d5 31 bf 4f cc b8 3e
       0.3610046 -0.24110626 -0.69466054 0.36093375
0000b0 4e 62 5a 3d eb a0 6b 3b 94 df 16 3e fd d9 a5 3e
       0.053316407 0.003595407 0.14733726 0.32392874
0000c0 c2 25 3c bf c3 ef 73 3e e9 1c 9e bd d3 89 68 be
       -0.73495114 0.2382193 -0.07720358 -0.22708826
0000d0 ae 3f 07 bf d8 99 5d 3e ac 7a c5 bd 64 03 88 3d
       -0.5283154 0.21640718 -0.096425384 0.06641272
0000e0 a1 c9 8e 3d 2d 30 71 3d 62 cf 87 bd 7a 2d 66 be
       0.069720514 0.058883835 -0.06631352 -0.22478285
0000f0 a7 f3 5f bf 1c 6c 0d 3e 3b f9 41 3f 30 bb 01 bd
       -0.8748116 0.13810772 0.7577092 -0.031672657

attention_blocks.1.attention_blocks.0.W_v.weight f4 [4, 16]
000000 15 da fa be 47 29 27 3f da 46 a0 3e 32 41 69 bf
       -0.48994508 0.6529736 0.31304055 -0.91115105
000010 ff 08 89 3c 56 3d b5 3d c5 dc cf be c4 c2 e5 bc
       0.016727922 0.088495895 -0.4059812 -0.028046973
000020 e9 4f a4 be bb 97 38 be f2 ab 5e 3c 77 18 4c 3e
       -0.32092217 -0.1802663 0.0135908 0.19931208
000030 b6 03 83 3d af 67 2b bf f6 76 09 3d 64 8f 97 bd
       0.06397192 -0.66955084 0.033560716 -0.074003965
000040 04 13 8a 3e 6a ea 59 be b3 15 a3 be 20 8b 00 be
       0.26967633 -0.21280828 -0.31852493 -0.12553072
000050 a4 31 91 be ae bc 17 bf 74 32 03 bf 5a 59 01 be
       -0.28358185 -0.5927228 -0.5124886 -0.12631741
000060 50 62 63 3e 2e 61 f2 3b 39 9c 9c 3e 43 0e e3 bd
       0.22205472 0.0073968386 0.30587938 -0.110867046
000070 15 34 ce be 49 b8 b6 bc 17 39 2a 3e 32 fa 72 3e
       -0.4027411 -0.02230467 0.1662334 0.23728254
000080 1e f9 ad 3e 9c 0d 22 bd 3a 99 a0 bd 2c a1 cc be
       0.33979124 -0.03956376 -0.07841726 -0.39966714
000090 2d 38 03 be 5a 2f 85 3e 41 89 04 be 91 d6 3f 3e
       -0.12814398 0.2601269 -0.12942983 0.18734194
0000a0 db ed fe bd d0 99 40 bf cb 09 34 be 3d e5 d4 3e
       -0.12447711 -0.752347 -0.1758186 0.41581145
0000b0 f7 90 e2 3e 91 dd 41 be 7c a8 57 be 65 2c 2c 3f
       0.44251224 -0.18932177 -0.21060365 0.6725524
0000c0 2f 6f 9a be c4 53 95 be 5d 6b 32 3e 6d 36 99 3e
       -0.3016295 -0.2916547 0.17423768 0.29924336
0000d0 10 4e f0 bb fd b9 0b 3f 0f 68 1b 3e 17 a7 86 be
       -0.0073335245 0.5458067 0.15176414 -0.26299354
0000e0 5e f6 b3 3c 3e 31 c8 bd 21 da c5 bd 9c ed 81 bd
       0.021968063 -0.09775017 -0.096607454 -0.063441485
0000f0 f5 39 d9 be 73 94 4d 3f 92 a7 1c 3e 32 de 74 3d
       -0.4242703 0.8030464 0.15298298 0.059782214

attention_blocks.1.attention_blocks.0.W_o.weight f4 [16, 4]
000000 dc 41 b6 be 27 4b fb 3d 75 30 2a 3c 0e d3 a5 3e
       -0.35597122 0.122701935 0.01038753 0.32387584
000010 99 b7 65 be 21 bb c8 3e 7a a7 87 bd a5 57 36 be
       -0.22433318 0.39205268 -0.066237405 -0.17806871
000020 96 32 e5 be a4 62 35 3d 78 d1 0c 3d 55 30 c8 3c
       -0.44765157 0.044283524 0.034379452 0.024437109
000030 17 32 65 3e fd 36 5b bf 1e c9 d6 bc 08 3a b5 be
       0.22382389 -0.8563078 -0.026218947 -0.35395837
000040 2f e6 7f 3e e5 69 93 3c 7d ba f2 be 45 e6 fc 3d
       0.24990152 0.01799483 -0.47407904 0.12348608
000050 d1 68 ee 3e 66 a1 f5 be ef 4d 92 bd bf db 69 3c
       0.46564344 -0.479747 -0.07143771 0.014273583
000060 0e ed 90 bd b5 88 2d be 14 63 90 3d e7 1c 5a 3d
       -0.070764646 -0.16946681 0.07050148 0.05325022
000070 70 31 c2 be 66 c2 ae bd 1e db e8 39 72 c4 0f 3e
       -0.37928343 -0.08533172 0.00044413743 0.14039782
000080 b2 b7 9f 3e ef 2a f2 bd ee 06 18 be 2b b6 20 bf
       0.31194836 -0.11824595 -0.14846393 -0.62777966
000090 3c 68 a2 be cf ae 10 bf 67 ec 07 3e d5 2f 60 3e
       -0.3172015 -0.56516737 0.13273774 0.21893246
0000a0 3e a8 62 3e 7a 75 3b be 86 ef ee be 96 10 b6 be
       0.22134492 -0.18306533 -0.46667117 -0.3555953
0000b0 3b 16 84 be 9b 51 8f 3c ee d3 55 bf be 4c 3a 3f
       -0.2579821 0.017494967 -0.83526504 0.7277335
0000c0 b5 d9 aa be 6f 3f 14 3f 57 1f 53 3d 83 79 8e 3e
       -0.33369222 0.5790929 0.05154356 0.2782708
0000d0 62 f6 01 be 09 09 2a 3f 7d 1f ce 3e f3 8e 93 bd
       -0.12691644 0.66420037 0.402584 -0.07205
0000e0 bd f0 ab 3e f5 2b e3 3e 83 24 c1 3e 9f 28 95 3d
       0.33582106 0.44369474 0.3772317 0.072831385
0000f0 24 50 87 bc b9 e4 a3 be 1e 2b ee be ca ab ab 3e
       -0.016517706 -0.3201044 -0.4651727 0.33529502

attention_blocks.1.attention_blocks.1.layer_norm.weight f4 [16]
000000 97 34 8a 3f df e5 a8 3f 26 38 90 3f cb 64 94 3f
       1.0797299 1.3195151 1.1267135 1.159326
000010 4a e1 bb 3f 24 a7 b0 3f 01 cf b2 3f 6d ab 9d 3f
       1.4678128 1.3801007 1.3969423 1.231794
000020 c3 b3 20 3f ea 37 8c 3f 1a ca 81 3f ba 1b 8f 3f
       0.62774295 1.0954564 1.0139802 1.1180336
000030 2c ff c4 3f e4 f2 71 3f 1c 53 af 3f 16 bd a5 3f
       1.5390372 0.94511247 1.3697238 1.294833

attention_blocks.1.attention_blocks.1.layer_norm.bias f4 [16]
000000 cb eb 33 bc 9c 19 8f bd 43 15 29 3d 42 08 ec 3d
       -0.01098151 -0.069873065 0.041280042 0.115250126
000010 02 44 6d bd 9b bf 2f bd 0d b7 26 bd e1 96 ee 3d
       -0.057926185 -0.04290734 -0.040701915 0.116498716
000020 8c b8 a4 bd 06 36 02 3d b8 8e 0d 3e 77 6a cb bd
       -0.08043012 0.031789802 0.13823974 -0.09932416
000030 e5 ba 1f 3d 0c 54 e9 3d 16 b6 3d be be cf 1a bc
       0.038996596 0.11392984 -0.18526492 -0.009448944

attention_blocks.1.attention_blocks.1.W_k.weight f4 [4, 16]
000000 26 30 c4 be cd 89 e8 3e 9d 1f b7 3e 21 c1 b0 3e
       -0.38317984 0.45417634 0.35766307 0.34522346
000010 d9 50 c1 bd 96 17 97 3c 5f c3 b4 3e 62 0e af 3e
       -0.094392486 0.018443864 0.35305306 0.3419066
000020 9b 21 d4 3e d8 eb c2 3e ef 0c 0b be 69 b9 c8 bd
       0.4143189 0.3807056 -0.13579153 -0.09800989
000030 fd 20 05 bf 34 db b5 3e 2b e0 5a be dd df 47 bf
       -0.5200346 0.355188 -0.21374576 -0.78075963
000040 e8 d3 83 be 26 00 f1 3d f4 cb 9c 3c 82 88 0f 3f
       -0.2574761 0.117676064 0.019140221 0.5606767
000050 05 a2 fc 3e 68 85 37 3f e1 27 bb 3e 42 bc 31 be
       0.4934236 0.71687937 0.36553863 -0.17356971
000060 ba d9 9f 3e 25 67 8a 3d b8 59 8d bf 33 46 32 bd
       0.312208 0.067579545 -1.1043005 -0.04352398
000070 9a d4 38 bf 6a 67 d7 be 50 0c ae bc 98 42 1d 3f
       -0.72199404 -0.42071086 -0.021246105 0.6142974
000080 9f b1 60 3f 9a 1e 50 bf 8c 67 02 bf 30 7c d4 3c
       0.8777103 -0.81296694 -0.5093925 0.025938123
000090 fd 40 e3 be a2 89 92 be b4 91 ae 3e c9 9c 37 3e
       -0.4438552 -0.2862063 0.34095538 0.17930903
0000a0 28 f8 f0 3d 9f de 29 3f da da af bd 51 d5 18 bf
       0.11766082 0.6635532 -0.085866645 -0.59700495
0000b0 8e 5f 48 bf bf b4 a7 bc 9e c9 0b 3f f1 3e 96 be
       -0.78270805 -0.020471929 0.5460452 -0.29344895
0000c0 d8 b7 67 bb ea c4 0e be d3 60 5b 3f de f5 82 be
       -0.0035357382 -0.13942304 0.8569462 -0.25578207
0000d0 e9 ff 60 bc af 28 ee bb 95 71 43 bf d7 f1 08 3e
       -0.013732889 -0.0072680335 -0.7634519 0.13373505
0000e0 b4 0b 6b 3e 26 da fb bd 65 03 3c 3e dc 48 8c be
       0.22953683 -0.12297468 0.1836067 -0.27399337
0000f0 4b d4 46 bd dc d8 93 3e 7d 9b 29 3e a1 ba ac 3e
       -0.048542302 0.28876388 0.1656322 0.33736137

attention_blocks.1.attention_blocks.1.W_q.weight f4 [4, 16]
000000 22 20 1a 3e c9 5a c3 3e 8c 58 1a 3d 05 fe 64 3e
       0.1505132 0.381552 0.0376821 0.22362526
000010 af ea 47 3f 61 3d 5f bf 6f cd b6 be 32 d5 02 bf
       0.78092474 -0.8720303 -0.35703608 -0.5110656
000020 15 60 96 be 33 ea dc be 7b ed 3f 3e 64 2c 49 3e
       -0.2937018 -0.4314743 0.18742935 0.1964584
000030 06 73 9e be 6b bf 85 bd d7 e3 85 3d 26 bb 1f 3e
       -0.3094713 -0.06530651 0.065375976 0.15598735
000040 44 85 37 be 21 f4 81 bf 96 cb 1a bd 9e 1c d9 3c
       -0.1792193 -1.0152627 -0.03779181 0.026502904
000050 d9 e4 4b 3f a4 12 72 3e 26 55 cc 3e 48 94 ec be
       0.7964607 0.23639923 0.39908713 -0.4620688
000060 da 7c 6e be 15 38 b5 be 19 0c 07 3e 8b d0 1e be
       -0.23289815 -0.3539435 0.13188209 -0.1550924
000070 01 78 af 3e 67 98 87 3e 68 c8 19 bf bb 8b ea 3d
       0.34271243 0.2648346 -0.6007142 0.11452433
000080 2f 4b 21 bf c1 38 85 bd 74 6d 66 3e 21 9a 04 3e
       -0.63005346 -0.065049656 0.2250269 0.1294942
000090 eb c4 0d 3e 68 46 86 bf e7 cc 9a 3d 15 e1 cf 3e
       0.1384465 -1.0490236 0.07558613 0.4060141
0000a0 a1 d3 5c be 06 17 06 3f ac 02 96 bd 19 a4 77 3e
       -0.21565105 0.5237888 -0.07324728 0.24183692
0000b0 1c 0c 0b 3e 2e 39 0f bd d8 e3 06 bf 39 73 0f 3e
       0.13578838 -0.03496664 -0.5269141 0.14008798
0000c0 34 93 3e 3f 47 28 17 be cd 6c f5 3d 0e a7 b6 3d
       0.74443364 -0.14761458 0.11983643 0.08918582
0000d0 a8 e3 39 bf ba e0 88 bd 30 5a ce 3e 5e c8 09 3f
       -0.72613 -0.06683488 0.40303183 0.5382136
0000e0 fb bd 96 be d9 e0 d1 be 2f c3 34 be 3e 09 c2 be
       -0.2944182 -0.40991858 -0.17652582 -0.37897676
0000f0 9a 47 02 bf 6c 1a 5c 3e 7e 54 04 3e de 63 84 3c
       -0.50890505 0.21494454 0.12922856 0.016160902
