trained_model.pth (torch, 76924 bytes, 39 tensors)

inp_embedding.weight f4 [115, 6]
0.12789442 -0.2762006 -0.056699038 -0.12073164 0.23150872 -0.022816371 -0.010347711 -0.11186566
0.03397492 -0.037118755 0.2518734 0.090501204 0.12400726 -0.13663647 -0.10190789 -0.19652978
0.06759686 0.16297142 -0.021835899 -0.06638388 -0.25999168 -0.20676811 0.16207062 0.08662325
-0.025665728 -0.022299282 -0.08157924 -0.12528174 0.103161305 0.2792968 0.10549859 0.0027798458
-0.14079838 -0.16174132 0.0042324555 0.29296365 0.122961804 0.0024596134 -0.18725197 -0.19618677
0.10439113 -0.15831342 0.060527675 -0.002832712 -0.30428818 -0.18887702 0.14676481 0.14596029
0.12820582 0.09657226 -0.32852 -0.20888625 0.12935722 -0.041861486 0.033174854 -0.23692109
-0.091925874 -0.17663293 0.085032724 0.15872663 0.21307342 -0.044124365 -0.22616225 -0.16955854
0.21669139 -0.030375654 -0.33339253 0.104783244 -0.13099933 -0.057290368 0.0050760913 0.81310976
0.21366458 0.21363653 -0.14705761 -0.021040706 -0.11877434 0.059302427 0.2625297 0.03641559
-0.17615479 0.027226703 -0.05680146 0.15086262 -0.09689082 0.32416353 -0.06811645 0.33485273
0.2200981 -0.67913795 -0.093055226 0.3300468 -0.067471474 0.3322735 0.21939318 -0.6748776
-0.099124745 0.3226184 -0.07061084 0.3324047 0.21772681 -0.6813222 0.08838046 0.43613225
-0.02979881 -0.080166966 -0.2484476 -0.024370357 -0.6017358 -0.0050152238 0.27516013 0.44123742
-0.30984038 -0.313334 0.10317659 0.15524913 0.07281827 0.07436069 0.061540432 -0.31236225
-0.8980876 0.5391553 -0.054272715 -0.27612182 0.35924792 0.44176975 -0.11481907 0.022767453
-0.15624495 -0.29625434 -0.090687975 -0.2029069 -0.114280656 0.22833559 -0.4113557 0.22470567
0.15938874 0.33374462 0.017539863 0.1736045 -0.021086738 0.001995636 0.3462322 0.10551236
0.017539948 0.17360464 -0.021087103 0.001995602 0.34623227 0.10551268 -0.114273004 0.22833972
-0.41134772 0.22471406 0.1593936 0.33375064 0.11242093 -0.10750933 -0.02194765 -0.088986374
0.22605133 0.019656656 0.5186911 -0.00510909 -0.03898218 -0.43644705 0.19484347 0.16317818
0.14838623 0.3232619 0.012924417 -0.067654856 0.19050679 0.021133967 -0.07249357 0.46098843
-0.16004297 -0.15798175 0.20410022 0.22755867 1.8271148 0.10928215 0.34950694 -0.44444475
-0.8463259 0.89481413 -0.3764044 -0.16287516 0.5529795 -0.053211197 0.06086788 0.13003455
0.38794342 -0.032359485 -0.13467236 -0.22274214 -0.09961243 0.40698335 -0.24098977 0.18763585
-0.285444 0.5079942 0.16803773 -0.25162736 0.01753989 0.17360461 -0.021087132 0.0019955924
0.34623224 0.105512634 -0.057062138 -0.5253652 0.8634159 -1.0083479 0.10012883 0.6248483
0.19008993 0.0985052 -0.0027145685 -0.10963126 0.025270136 -0.004885324 0.090275586 0.30129507
0.096752174 -0.20985201 -0.39067906 -0.03114071 -0.072355226 0.46103033 -0.15999602 -0.15846431
0.20403177 0.22755685 -0.03925618 -0.04979355 0.003265795 -0.18769865 0.0065621915 -0.13211754
0.17286164 -0.6233926 -0.03417692 0.020028919 0.3589689 0.2235657 0.12311174 -0.63642234
-0.14391102 -0.008360999 0.43437698 0.31571805 0.020392936 -0.039788857 0.16430241 -0.12917295
00000000: c1f6 023e 2a6a 8dbe 403d 68bd 2642 f7bd
00000010: 9f10 6d3e 66e9 babc 7289 29bc d319 e5bd
00000020: 4929 0b3d d609 18bd 8df5 803e b258 b93d
00000030: 85f7 fd3d 6eea 0bbe 15b5 d0bd 1a3f 49be
00000040: 3970 8a3d fbe1 263e 33e1 b2bc 46f4 87bd
00000050: a11d 85be 05bb 53be d7f5 253e 8867 b13d
00000060: ef40 d2bc fcac b6bc 0413 a7bd db49 00be
00000070: 3c46 d33d fdff 8e3e a50f d83d 132e 363b
00000080: 732d 10be 849f 25be 69b0 8a3b 55ff 953e
00000090: 66d3 fb3d 7731 213b fbbe 3fbe 2fe5 48be
000000a0: 04cb d53d ea1c 22be deeb 773d 05a5 39bb
000000b0: a9cb 9bbe fa68 41be 8449 163e 9d76 153e
000000c0: 6348 033e adc7 c53d c633 a8be 47e6 55be
000000d0: 3876 043e f376 2bbd 5be2 073d 719b 72be
000000e0: a243 bcbd 43df 34be a325 ae3d 3c89 223e
000000f0: eb2f 5a3e c0bb 34bd 1497 67be c1a0 2dbe
00000100: 59e4 5d3e 5dd6 f8bc 6db2 aabe 9998 d63d
00000110: b024 06be 4ea9 6abd 5755 a63b f627 503f
00000120: e3ca 5a3e 89c3 5a3e 4596 16be 8f5d acbc
00000130: f63f f3bd 1ae7 723d 4b6a 863e 8428 153d
00000140: ec61 34be 890a df3c a6a8 68bd bb7b 1a3e
00000150: b26e c6bd c3f8 a53e a380 8bbd d171 ab3e
00000160: 6561 613e fcdb 2dbf bd93 bebd e5fb a83e
00000170: 7c2e 8abd c11f aa3e 9ba8 603e c7c4 2cbf
00000180: ea01 cbbd 3d2e a53e 6b9c 90bd f330 aa3e
00000190: c7f3 5e3e 226b 2ebf d100 b53d ba4c df3e
000001a0: a21c f4bc 942e a4bd 0c69 7ebe 58a4 c7bc
000001b0: 5b0b 1abf bf56 a4bb cae1 8c3e dfe9 e13e
000001c0: 66a3 9ebe 506d a0be 3f4e d33d a1f9 1e3e
000001d0: bf21 953d 6b4a 983d d211 7c3d f2ed 9fbe
000001e0: 12e9 65bf 1506 0a3f 114d 5ebd d75f 8dbe
000001f0: 58ef b73e a52f e23e 4326 ebbd cf82 ba3c
00000200: adfe 1fbe a6ae 97be 9eba b9bd d4c6 4fbe
00000210: fa0b eabd ced0 693e 379d d2be 3e19 663e
00000220: cd36 233e 93e0 aa3e c2af 8f3c 61c5 313e
00000230: 18be acbc 37c9 023b 5945 b13e dd16 d83d
00000240: f0af 8f3c 6ac5 313e dcbe acbc a5c8 023b
00000250: 5b45 b13e 0817 d83d f707 eabd e3d1 693e
00000260: 2b9c d2be 711b 663e 1338 233e 5de1 aa3e
00000270: f23c e63d da2d dcbd 8fcb b3bc 7d3e b6bd
00000280: 007a 673e ff06 a13c f1c8 043f 276a a7bb
00000290: c7ab 1fbd fd75 dfbe 0c85 473e 2e18 273e
000002a0: 8ff2 173e 9582 a53e efc0 533c a18e 8abd
000002b0: 3614 433e 2421 ad3c 8277 94bd ad06 ec3e
000002c0: 4ee2 23be f8c5 21be a6ff 503e 2405 693e
000002d0: e6de e93f 52cf df3d 93f2 b23e 438e e3be
000002e0: d0a8 58bf 8a12 653f 14b8 c0be bfc8 26be
000002f0: 1190 0d3f fcf3 59bd 9950 793d c727 053e
00000300: 85a0 c63e 618b 04bd 8de7 09be 8416 64be
00000310: 9a01 ccbd 1f60 d03e 06c6 76be 9d23 403e
00000320: b725 92be e80b 023f 1512 2c3e 4dd5 80be
00000330: d1af 8f3c 68c5 313e ecbe acbc 7cc8 023b
00000340: 5a45 b13e 0217 d83d fdb9 69bd 557e 06bf
00000350: d308 5d3f 8b11 81bf 5810 cd3d 0ff6 1f3f
00000360: efa6 423e 18bd c93d e7e6 31bb 5b86 e0bd
00000370: 5103 cf3c 1115 a0bb 68e2 b83d 5943 9a3e
00000380: 0126 c63d 72e3 56be 1607 c8be cd1a ffbc
00000390: fa2e 94bd 2b0c ec3e ffd5 23be 7844 22be
000003a0: b4ed 503e aa04 693e 17cb 20bd 52f4 4bbd
000003b0: f306 563b 1334 40be a707 d73b d249 07be
000003c0: a402 313e a896 1fbf 19fd 0bbd b013 a43c
000003d0: c6ca b73e 68ee 643e 0222 fc3d 93ec 22bf
000003e0: 695d 13be 92fc 08bc a966 de3e cca5 a13e
000003f0: 160f a73c a4f9 22bd e43e 283e ea45 04be

attention_blocks.0.attention_blocks.0.layer_norm.weight f4 [6]
1.269398 1.5043159 1.2827775 0.9413545 1.7518599 1.1513435
00000000: a27b a23f 6c8d c03f 0e32 a43f 9cfc 703f
00000010: f23c e03f 395f 933f

attention_blocks.0.attention_blocks.0.layer_norm.bias f4 [6]
-0.26892236 0.19695723 0.062045325 -0.035446428 -0.142331 -0.12029855
00000000: 31b0 89be 28af 493e 3d23 7e3d 4630 11bd
00000010: 38bf 11be 165f f6bd

attention_blocks.0.attention_blocks.0.W_k.weight f4 [3, 6]
0.37681833 1.0089598 -0.09173037 -0.17360574 -0.5390039 -0.3087548 -0.07140308 -0.6683365
0.045619506 0.19176762 -0.7686981 0.83380103 -0.2689131 -0.5053389 0.7725806 0.12418495
-0.7604465 0.50889254
00000000: 55ee c03e 9825 813f 22dd bbbd b4c5 31be
00000010: 29fc 09bf 1c15 9ebe c73b 92bd 1a18 2bbf
00000020: 85db 3a3d bb5e 443e 66c9 44bf fc73 553f
00000030: faae 89be e45d 01bf d8c7 453f ae54 fe3d
00000040: 9fac 42bf c846 023f

attention_blocks.0.attention_blocks.0.W_q.weight f4 [3, 6]
0.7987584 -1.1597177 0.44296846 -0.35762012 0.99802357 -0.09499241 -1.2369231 0.058891464
0.93130416 0.46418238 0.22081919 -0.3733682 -0.8022614 -0.27395916 1.1453152 0.7457642
-0.2623389 -0.16942221
00000000: 6e7b 4c3f a171 94bf c3cc e23e fc19 b7be
00000010: 797e 7f3f 618b c2bd 7f53 9ebf 2d38 713d
00000020: f369 6e3f 50a9 ed3e 6d1e 623e 1e2a bfbe
00000030: 0161 4dbf 6044 8cbe b099 923f 67ea 3e3f
00000040: 4951 86be 047d 2dbe

attention_blocks.0.attention_blocks.0.W_v.weight f4 [3, 6]
-0.10269617 0.27858242 -0.00787317 -0.15966329 0.029290847 0.035723664 0.095443934 -0.1490871
0.030728737 0.046150297 -0.08972505 0.12091524 0.14700928 -0.056464437 -0.04814756 -0.23346637
0.020187885 0.38014132
00000000: 5f52 d2bd 5ba2 8e3e 78fe 00bc c67e 23be
00000010: 5cf3 ef3c fa52 123d 1c78 c33d 4aaa 18be
00000020: d5ba fb3c 1808 3d3d c4c1 b7bd 69a2 f73d
00000030: 9a89 163e 4147 67bd 6036 45bd cf11 6fbe
00000040: 1061 a53c e2a1 c23e

attention_blocks.0.attention_blocks.0.W_o.weight f4 [6, 3]
0.17920062 -0.07981716 -0.010035054 0.25803694 -0.113596305 -0.25801575 -0.07950609 0.07866028
0.06078827 -0.006672305 -0.015715865 0.035827793 -0.19800474 0.017037636 -0.24001102 -0.07884873
0.053966064 0.104417205
00000000: 5e80 373e 2e77 a3bd 116a 24bc 6b1d 843e
00000010: 2ea5 e8bd a41a 84be 17d4 a2bd a418 a13d
00000020: 1ffd 783d 5aa3 dabb 8fbe 80bc 2ac0 123d
00000030: c1c1 4abe 8392 8b3c 73c5 75be 717b a1bd
00000040: 850b 5d3d b0d8 d53d

attention_blocks.0.attention_blocks.1.layer_norm.weight f4 [6]
1.7415136 1.6612428 1.4617888 1.2371709 1.7154623 1.3103389
00000000: ebe9 de3f 9ba3 d43f e51b bb3f 9e5b 9e3f
00000010: 4594 db3f 2fb9 a73f

attention_blocks.0.attention_blocks.1.layer_norm.bias f4 [6]
0.010006819 0.071293026 -0.023767477 0.014374555 -0.06685272 -0.11982864
00000000: a4f3 233c 1402 923d 03b4 c2bc 4183 6b3c
00000010: 14ea 88bd b868 f5bd

attention_blocks.0.attention_blocks.1.W_k.weight f4 [3, 6]
1.302042 -0.08643088 -0.86635435 0.057947386 0.31388572 -0.5939841 0.26131696 -1.4118096
0.08658325 0.5499668 -0.14800936 0.0055627422 -0.40651622 -0.91842973 0.27629003 0.525704
-0.15882163 0.20168571
00000000: 50a9 a63f ac02 b1bd 66c9 5dbf 3d5a 6d3d
00000010: a1b5 a03e 580f 18bf 56cb 853e 2db6 b4bf
00000020: 8f52 b13d a0ca 0c3f c48f 17be aa47 b63b
00000030: e522 d0be 361e 6bbf e375 8d3e 8a94 063f
00000040: 23a2 22be b386 4e3e

attention_blocks.0.attention_blocks.1.W_q.weight f4 [3, 6]
0.97076046 0.10994089 -0.9484844 -0.6337797 -0.64077 1.01434 0.00547689 0.9109285
-0.10222425 0.8802962 -1.6679065 -0.21090527 -0.4561402 0.7053712 0.79342717 0.47946525
-0.7211377 -0.5825765
00000000: c283 783f b028 e13d e0cf 72bf 633f 22bf
00000010: 8109 24bf e5d5 813f 7c77 b33b 9c32 693f
00000020: f35a d1bd 175b 613f f67d d5bf 8df7 57be
00000030: 358b e9be 3593 343f 0b1e 4b3f 787c f53e
00000040: 7b9c 38bf bc23 15bf

attention_blocks.0.attention_blocks.1.W_v.weight f4 [3, 6]
-0.0019942878 -0.0049900403 -0.0039970335 -0.0046278443 0.00094512344 0.0034242475 -0.0013210118 -0.0015427772
-0.0021809873 -0.0009343711 -0.00096749305 0.0003021001 0.007226511 -0.052761145 -0.08114256 0.0642744
-0.07655354 0.16040048
00000000: 99b2 02bb 7e83 a3bb 8cf9 82bb 2ca5 97bb
00000010: 29c2 773a 5769 603b cd25 adba 0337 caba
00000020: e5ee 0ebb 95f0 74ba 5c9f 7dba 3063 9e39
00000030: 5ecc ec3b 121c 58bd 122e a6bd 4ca2 833d
00000040: 1ac8 9cbd 0640 243e

attention_blocks.0.attention_blocks.1.W_o.weight f4 [6, 3]
-0.0043985173 0.0033622608 -0.06813464 0.0019159026 0.0016282139 0.19000432 0.001102498 0.002264171
-0.019911008 0.0055096555 0.0022191575 -0.033466592 0.004515753 0.0009088986 -0.046428505 0.004263802
0.0023234182 0.021520043
00000000: 7021 90bb 6059 5c3b 2d8a 8bbd 061f fb3a
00000010: cb69 d53a 7e90 423e b281 903a 7c62 143b
00000020: 691c a3bc 578a b43b 496f 113b 4414 09bd
00000030: e2f8 933b 2743 6e3a d12b 3ebd 5db7 8b3b
00000040: 7d44 183b cd4a b03c

attention_blocks.1.attention_blocks.0.layer_norm.weight f4 [6]
0.9558211 1.1483207 2.0140636 1.9712293 1.6610266 1.5286669
00000000: b1b0 743f 2cfc 923f 6be6 0040 3e51 fc3f
00000010: 859c d43f 5bab c33f

attention_blocks.1.attention_blocks.0.layer_norm.bias f4 [6]
-0.6825554 -0.060001414 0.20738757 0.0020158256 -0.06343593 0.21826386
00000000: f3bb 2ebf 0bc4 75bd 685d 543e f11b 043b
00000010: b2ea 81bd 9080 5f3e

attention_blocks.1.attention_blocks.0.W_k.weight f4 [3, 6]
-0.33824924 0.28060725 -1.0620933 1.1418766 -0.91655535 0.9164761 0.065595515 -0.21541646
0.2650163 -0.98494554 0.3520399 0.4574221 -0.106322244 0.084142745 0.097570375 0.923011
-0.5051071 -0.18721268
00000000: 012f adbe c1ab 8f3e acf2 87bf 0329 923f
00000010: 5fa3 6abf 2d9e 6a3f f156 863d 2296 5cbe
00000020: 37b0 873e 6425 7cbf 933e b43e 3b33 ea3e
00000030: 7abf d9bd 0853 ac3d fad2 c73d 734a 6c3f
00000040: b34e 01bf aeb4 3fbe

attention_blocks.1.attention_blocks.0.W_q.weight f4 [3, 6]
0.009255474 -0.85251445 -1.5035717 0.20800272 0.6208572 0.4305466 0.1105735 1.1482707
0.08921277 0.07303037 -1.2312709 -0.9006232 0.108683355 -0.8913688 -0.32957152 -0.3002609
0.5246514 1.1293187
00000000: 46a4 173c 633e 5abf 0a75 c0bf aafe 543e
00000010: 7ff0 1e3f 9b70 dc3e 5c74 e23d 89fa 923f
00000020: 2fb5 b63d f290 953d 499a 9dbf 3e8f 66bf
00000030: 6195 de3d bf30 64bf 99bd a8be ccbb 99be
00000040: 8e4f 063f 848d 903f

attention_blocks.1.attention_blocks.0.W_v.weight f4 [3, 6]
1.6695712 -0.18094091 -0.89134955 -1.9742088 0.80110323 0.7331145 -1.3878108 -0.160587
0.90482074 1.7046163 -0.7951397 -0.5629409 0.92627305 -0.047255397 -0.9624999 -1.7514926
0.9119482 0.95987034
00000000: 82b4 d53f 9348 39be 7c2f 64bf e0b2 fcbf
00000010: 1a15 4d3f 64ad 3b3f c9a3 b1bf eb70 24be
00000020: 55a2 673f de30 da3f 468e 4bbf e51c 10bf
00000030: 3b20 6d3f e08e 41bd 6566 76bf e930 e0bf
00000040: 7075 693f 10ba 753f

attention_blocks.1.attention_blocks.0.W_o.weight f4 [6, 3]
0.090336956 -0.12538439 -0.35885674 2.0591855 -1.9885486 2.1126435 -0.006269501 0.14337425
-0.108114414 -1.2127249 1.2983606 -1.0458143 0.5176907 -0.55864036 0.61330223 -1.0377443
0.89523035 -0.8458285
00000000: 9502 b93d c464 00be 12bc b7be b2c9 0340
00000010: c388 febf 8d35 0740 6370 cdbb b3d0 123e
00000020: 176b ddbd 923a 9bbf ae30 a63f 3edd 85bf
00000030: 6187 043f 0e03 0fbf 6001 1d3f ced4 84bf
00000040: d12d 653f 3788 58bf

attention_blocks.1.attention_blocks.1.layer_norm.weight f4 [6]
0.7056687 1.264951 1.7372129 1.3980237 1.1534691 1.1982393
00000000: b4a6 343f eae9 a13f fe5c de3f 71f2 b23f
00000010: e0a4 933f e85f 993f

attention_blocks.1.attention_blocks.1.layer_norm.bias f4 [6]
0.03587904 0.12698442 -0.08318581 -0.012942793 -0.27334037 0.0073915366
00000000: e6f5 123d 3408 023e 525d aabd 020e 54bc
00000010: 45f3 8bbe b434 f23b

attention_blocks.1.attention_blocks.1.W_k.weight f4 [3, 6]
0.039929125 -0.16616212 0.89811033 -0.90526897 0.59395915 -0.1528825 -0.19419259 0.3466515
-0.7957047 0.2967225 0.26947317 -0.14802586 0.073935464 -0.34130076 0.47583678 -0.4118792
-0.13968475 0.6183915
00000000: b98c 233d 6726 2abe 8fea 653f b5bf 67bf
00000010: b50d 183f 3b8d 1cbe 6cda 46be 4e7c b13e
00000020: 4eb3 4bbf 03ec 973e 63f8 893e 1794 17be
00000030: 7a6b 973d f9be aebe e1a0 f33e d5e1 d2be
00000040: 8509 0fbe e84e 1e3f

attention_blocks.1.attention_blocks.1.W_q.weight f4 [3, 6]
-0.25958627 1.0751308 1.8416841 -0.0014663844 -0.86976725 -0.4271145 0.35009363 -1.4971637
-0.181865 -0.10816795 -0.09170241 0.68198556 -0.28348672 1.2240779 0.009049602 0.28682595
-0.8742471 -0.68745416
00000000: 7ee8 84be e39d 893f 4ebc eb3f b233 c0ba
00000010: 11a9 5ebf c0ae dabe 793f b33e 0fa3 bfbf
00000020: d23a 3abe 2887 ddbd 79ce bbbd 9b96 2e3f
00000030: 2c25 91be 96ae 9c3f c844 143c dada 923e
00000040: a8ce 5fbf fffc 2fbf

attention_blocks.1.attention_blocks.1.W_v.weight f4 [3, 6]
0.14278077 -0.17840886 0.20010974 -1.7123574 0.30348265 0.38442183 0.12438713 -0.12471678
0.19919571 -1.7525004 0.29055983 0.36014172 0.56453544 0.19270468 0.11912884 -1.8591226
-0.058399037 -0.21020134
00000000: 1f35 123e d0b0 36be 91e9 4c3e 872e dbbf
00000010: 1462 9b3e f0d2 c43e aebe fe3d 836b ffbd
00000020: f6f9 4b3e ef51 e0bf 42c4 943e 7f64 b83e
00000030: 6585 103f 6054 453e d2f9 f33d bbf7 edbf
00000040: d433 6fbd 053f 57be

attention_blocks.1.attention_blocks.1.W_o.weight f4 [6, 3]
0.4230882 0.45392835 2.1027527 -0.49936974 -0.47290596 -0.26856652 -0.8740529 -0.9658492
-0.8820421 0.84209204 0.7926227 -0.37925825 0.45705986 0.48008493 0.4365668 0.6094076
0.64310026 0.35815287
00000000: 049f d83e 4c69 e83e 8093 0640 64ad ffbe
00000010: bb20 f2be 8d81 89be eec1 5fbf e541 77bf
00000020: 83cd 61bf 5893 573f 52e9 4a3f 232e c2be
00000030: c003 ea3e b1cd f53e af85 df3e 2302 1c3f
00000040: 38a2 243f d05f b73e

feedforward_blocks.0.layer_norm.weight f4 [7]
1.6398363 0.9785737 1.6798121 0.92060196 1.0353289 1.3258628 0.7884463
00000000: 28e6 d13f ce83 7a3f 1504 d73f 92ac 6b3f
00000010: a885 843f dfb5 a93f 9ed7 493f

feedforward_blocks.0.layer_norm.bias f4 [7]
-0.06542025 -0.045902926 -0.12750109 -0.18230595 -0.18618232 -0.11667602 -0.029791558
00000000: 0dfb 85bd b504 3cbd a58f 02be 69ae 3abe
00000010: 94a6 3ebe d6f3 eebd 6d0d f4bc

feedforward_blocks.0.linear_layer_1.weight f4 [35, 7]
-0.0356698 -0.20618469 -0.18321231 -0.28016695 0.030246405 0.18233167 0.13654612 0.19592254
-0.268926 -0.11435585 0.1833295 0.18122894 0.27546436 -0.992364 -0.20127632 0.08219151
-0.3930187 0.20956825 -0.08051456 0.10831888 0.04565973 -0.16456324 0.46384737 -0.09866199
0.2702307 0.36166665 0.30571353 -0.2996018 0.12030212 0.1203695 0.570619 -0.24177216
-0.063807435 -0.002992699 0.0343465 0.110437356 -0.07809629 0.26502123 0.21015309 0.16118945
-0.031190215 -0.9033891 -0.87571406 0.532746 -0.12781711 -0.06539519 0.07846627 -0.14019188
0.047979444 -0.43766654 -0.022901058 -0.64237964 -0.1892769 0.31314757 0.75889647 0.07664616
-0.1327215 0.13025442 0.15253627 -0.0013336933 -0.010605579 0.46697792 -0.38384113 -0.10033081
0.13783185 0.17457043 0.112698585 0.27969265 0.28372243 -0.5169064 -0.0045145187 -0.007016091
0.007654944 0.0139454985 -0.0031503122 -0.00499984 -0.045098566 -0.326919 -0.34808758 -0.21697803
-0.16362256 -0.19158685 0.5154601 0.15702218 0.015209503 -0.10705832 0.22506145 0.3010635
-0.20071214 -0.42014718 0.042940564 -0.046566937 -0.17757131 -0.13933358 -0.23222591 0.033142123
0.13996398 0.10701632 0.22814131 0.07853169 0.05350991 -0.007375026 0.03554378 -0.005879655
-0.6695539 0.00774295 -0.001536375 0.04006966 0.03219644 0.020995706 0.010386443 -0.029874602
-0.20557758 0.031057045 -0.2606585 -0.18900652 -0.013558466 0.11371225 0.102186754 0.021642303
0.04933627 0.046272762 0.09930486 0.025273487 -0.01334276 -0.10307205 -0.16661054 0.06929647
0.33992198 0.16394407 0.17815043 -0.12918353 -0.54326063 0.054287385 -0.29342145 -0.024913264
0.43210468 0.19783849 0.2587216 -1.0752428 0.14833881 0.004668219 -0.27564135 -0.09081421
-0.19744432 0.3660846 0.025028294 0.043995924 0.031774156 0.04154679 0.11861221 0.028503787
-0.013604002 -0.094201475 -0.25644547 -0.09723363 -0.22077154 0.025119497 -0.14883502 -0.045326654
0.124885626 -0.5195505 -0.07218565 -0.3033524 0.078267865 0.39884317 -0.026274582 0.039869435
0.020513415 0.008767353 0.034595955 0.0678173 0.029631032 0.0350554 -0.050998855 -0.06564733
0.023133185 -0.13032354 0.2511583 0.6212451 0.035645183 -0.29306835 -0.5955575 0.047379483
-0.13871706 -0.14939506 -0.090823784 -0.009218572 0.123580486 0.019219138 0.0048691584 0.03861454
0.018415919 0.020876087 0.00048246328 -0.04808842 0.14214039 -0.108767636 0.44598207 0.16777498
-0.08189203 -0.083035044 -0.035191186 0.012221869 -0.07240738 -0.20883316 -0.0052423957 -0.19506617
0.33742315 0.073865406 0.002830616 0.033296805 0.034207527 0.04133091 0.015769092 0.014263311
-0.0486709 -0.28897953 0.14246275 -0.010938829 -0.34625 0.112214535 -0.2209787 0.093329385
-0.015086319 0.010926474 0.07618246 0.07926773 0.019709723 -0.027548008 -0.02976836 0.007920565
0.070757866 -0.08227867 -0.14683568 0.21872586 0.47846594 -0.20302849 -0.012501344 0.014896672
0.018245135 0.04432577 0.02335997 -0.003986286 -0.031383824
00000000: 7f1a 12bd 1422 53be 029c 3bbe 0b72 8fbe
00000010: 4fc7 f73c 27b5 3a3e bfd2 0b3e eb9f 483e
00000020: abb0 89be 6633 eabd baba 3b3e 1494 393e
00000030: aa09 8d3e 910b 7ebf 611b 4ebe 0654 a83d
00000040: bf39 c9be 0f99 563e d1e4 a4bd 4ad6 dd3d
00000050: b205 3b3d 4483 28be 677d ed3e 4c0f cabd
00000060: ae5b 8a3e 5f2c b93e 7c86 9c3e 6865 99be
00000070: f560 f63d 4984 f63d 1614 123f 1f93 77be
00000080: 79ad 82bd 2821 44bb eaae 0c3d fb2c e23d
00000090: f3f0 9fbd ddb0 873e 5f32 573e d90e 253e
000000a0: 9f82 ffbc 8244 67bf cc2e 60bf 0b62 083f
000000b0: 7de2 02be eaed 85bd ecb2 a03d 768e 0fbe
000000c0: 1886 443d d415 e0be 009b bbbc fe72 24bf
000000d0: ced1 41be e154 a03e 0a47 423f a9f8 9c3d
000000e0: 25e8 07be 6a61 053e 7832 1c3e 52cf aeba
000000f0: 06c3 2dbc bb17 ef3e d386 c4be 3d7a cdbd
00000100: cb23 0d3e 97c2 323e 84ce e63d e033 8f3e
00000110: 1144 913e fa53 04bf 87ee 93bb 3de7 e5bb
00000120: 53d6 fa3b a97b 643c 7875 4ebb b3d5 a3bb
00000130: 46b9 38bd ed61 a7be 8938 b2be 7d2f 5ebe
00000140: ac8c 27be 582f 44be 31f5 033f 6cca 203e
00000150: 4731 793c 6441 dbbd 8276 663e ff24 9a3e
00000160: 7c87 4dbe 881d d7be 72e2 2f3d f9bc 3ebd
00000170: 41d5 35be 76ad 0ebe a1cc 6dbe 09c0 073d
00000180: b852 0f3e 5f2b db3d e09d 693e 39d5 a03d
00000190: 352d 5b3d 34aa f1bb 5b96 113d 1faa c0bb
000001a0: e267 2bbf 93b8 fd3b 3160 c9ba 1520 243d
000001b0: 6ae0 033d 30ff ab3c e62b 2a3c 95bb f4bc
000001c0: ee82 52be 586b fe3c 0875 85be ed8a 41be
000001d0: 5424 5ebc f8e1 e83d 4a47 d13d 334b b13c
000001e0: d414 4a3d 8288 3d3d 5960 cb3d 580a cf3c
000001f0: 979b 5abc 7017 d3bd f49b 2abe 4feb 8d3d
00000200: 410a ae3e f4e0 273e 116d 363e b048 04be
00000210: 2113 0bbf 735c 5e3d 563b 96be e716 ccbc
00000220: d33c dd3e 2c96 4a3e 2877 843e 8ea1 89bf
00000230: 21e6 173e dcf7 983b dd20 8dbe cdfc b9bd
00000240: d82e 4abe 716f bb3e 2308 cd3c 1235 343d
00000250: 9e25 023d f82c 2a3d f5ea f23d c680 e93c
00000260: 52e3 5ebc b4ec c0bd d24c 83be 6d22 c7bd
00000270: ef11 62be 67c7 cd3c 3568 18be 71a8 39bd
00000280: 09c4 ff3d 4301 05bf 12d6 93bd 0151 9bbe
00000290: e74a a03d 2c35 cc3e cb3d d7bc 224e 233d
000002a0: c00b a83c f2a4 0f3c 7db4 0d3d cce3 8a3d
000002b0: c7bc f23c 4096 0f3d 2de4 50bd 1b72 86bd
000002c0: ce81 bd3c 8973 05be d297 803e eb09 1f3f
000002d0: af00 123d 0e0d 96be 7576 18bf fd10 423d
000002e0: d80b 0ebe 05fb 18be d201 babd 7e09 17bc
000002f0: c417 fd3d 7471 9d3c 768d 9f3b 482a 1e3d
00000300: fbdc 963c 5404 ab3c 20f3 fc39 5df8 44bd
00000310: 408d 113e 91c1 debd c357 e43e 34cd 2b3e
00000320: 02b7 a7bd 470e aabd a224 10bd 3c3e 483c
00000330: 524a 94bd 5cd8 55be 67c8 abbb 6dbf 47be
00000340: bac2 ac3e bf46 973d db81 393b 3b62 083d
00000350: 311d 0c3d 9a4a 293d 2f2e 813c aab0 693c
00000360: 235b 47bd 20f5 93be c1e1 113e c638 33bc
00000370: ae47 b1be bcd0 e53d 3e48 62be 7a23 bf3d
00000380: 9c2c 77bc f404 333c 8d05 9c3d 1f57 a23d
00000390: 4976 a13c 5cac e1bc c7dc f3bc 42c5 013c
000003a0: 80e9 903d b881 a8bd 185c 16be acf9 5f3e
000003b0: 7df9 f43e b3e6 4fbe 70d2 4cbc 2c11 743c
000003c0: d276 953c f08e 353d 685d bf3c 649f 82bb
000003d0: 538c 00bd

feedforward_blocks.0.linear_layer_1.bias f4 [35]
0.05933307 -0.056045186 0.03465919 -0.16942425 -0.06700835 -0.12610093 0.07601732 -0.025646718
-0.050837606 -0.10116614 -0.04212711 0.1049522 -0.0418045 0.060079504 -0.07681193 -0.06179323
0.072926655 -0.0876588 -0.11653433 0.05807447 0.005120185 -0.13166648 0.14286721 0.01676478
-0.07043475 -0.060554862 0.14617424 -0.1060497 -0.07691739 -0.035630424 -0.07291311 0.0920037
-0.12214566 -0.15489458 -0.078841776
00000000: 3c07 733d a38f 65bd cbf6 0d3d 8d7d 2dbe
00000010: ac3b 89bd 9a20 01be f8ae 9b3d 1119 d2bc
00000020: 183b 50bd 3130 cfbd 7a8d 2cbd 2ef1 d63d
00000030: 323b 2bbd ed15 763d 934f 9dbd e61a 7dbd
00000040: 925a 953d 7586 b3bd 8da9 eebd 7fdf 6d3d
00000050: 3ac7 a73b 94d3 06be c84b 123e 4b56 893c
00000060: 1840 90bd 6008 78bd b3ae 153e 9630 d9bd
00000070: dd86 9dbd 35f1 11bd 7853 95bd 706c bc3d
00000080: 8127 fabd af9c 1ebe cc77 a1bd

feedforward_blocks.0.linear_layer_2.weight f4 [7, 35]
0.17596139 -0.4820238 0.08736867 0.26381078 0.6853037 -0.71867585 -0.08096338 0.14108644
-0.39315748 1.4767579 0.03501622 0.04578668 -0.06673143 0.14167833 -0.3782592 0.0117697
0.10782478 0.06628071 -0.7149335 -0.65865713 0.3641912 -0.046078168 -0.021924319 0.0030533262
0.025541274 -0.1952403 -0.14349884 0.04028455 0.729017 0.13320768 -0.027639542 0.04526263
0.12415836 -0.116765834 0.018725196 -0.13408868 0.15027559 -0.17420584 -0.39248616 0.13220842
0.88544184 0.08866737 -0.4071422 0.53450537 -1.3371191 -0.013405686 -0.13772361 0.28933892
-0.080962 0.120749116 -0.0652263 0.11519468 0.028750854 -0.6604863 0.772304 -0.3400867
0.047704462 0.07507585 0.047943044 -0.05479908 0.27453604 0.071261056 -0.012170724 0.0011269038
-0.11623286 0.003357346 0.08601188 0.032411043 -0.4467705 -0.071834356 0.0063710175 -0.51227075
0.036307115 0.23003796 -0.028072383 0.84337354 -0.02195516 0.058845844 -0.094048895 -0.17969866
-0.015011889 -0.081039265 0.3682247 0.020402633 0.21115926 0.029847043 -0.0621861 -0.0008777716
0.7326374 -0.0048599555 -0.076798536 -0.022810744 -0.00025059743 -0.05498475 -0.014936631 0.47718945
0.055180594 -0.006767918 -0.061946083 -0.05960882 0.026429122 0.040565062 0.004012983 -0.10585351
-0.0061531034 0.031219741 0.25771967 -0.07847176 -0.27576357 -0.102586046 -0.36153203 0.0019962383
-0.00043636054 0.0347401 0.40339097 -0.013669383 0.06303389 -0.19195266 0.022297373 -0.12467872
0.0040096533 0.016522186 -0.052661855 0.37872118 -0.24577104 -0.048368894 0.046585914 -0.045713414
0.06611307 -0.007088045 -0.522978 -0.03122181 -0.00959098 0.004645448 -0.0100965 0.045068063
-0.014171695 -0.051658064 0.1792163 -0.011539138 -0.053259652 0.29456115 0.035526626 0.008510927
-0.022040626 0.77402157 0.07459251 0.095928445 0.21815433 -0.031418934 0.022297308 0.07826682
-0.36499754 -0.036597278 0.08091887 -0.019611595 -0.032206565 0.09246623 -0.35529283 0.18653563
0.26277086 -0.023390366 0.038236484 -0.16082947 0.029564945 -0.52716076 0.0022284032 -0.032240804
-0.108497515 0.26721787 0.01868757 -0.10848575 0.04113549 -0.041063443 0.07173993 -0.031125557
0.2573512 0.099509604 1.312454 -0.12570237 -0.8752832 0.015010812 -0.18143001 0.16314508
-0.4441628 0.00050918455 -0.095943704 0.015964499 -0.036238525 0.11166621 0.010946811 0.07185414
0.034763157 -0.18170716 -0.18044332 0.19513118 -0.03338818 0.122764066 0.043130204 0.05391094
-0.37852365 0.071603745 -0.0317846 -0.08555773 0.06906687 -0.018214172 0.028222583 -0.0278432
0.42031428 -0.03758697 -1.1756141 4.769253 -1.3094804 -4.022686 -0.7814492 1.6428772
-1.9197226 -2.1032963 0.617365 1.1457481 -0.026993077 -1.5885876 -1.39679 -1.2462757
0.030355047 -0.0076542804 -1.328883 0.06560115 4.260237 3.59274 -0.59964377 0.032461595
-1.4215688 -1.6821826 -0.052704986 -2.2342672 -1.5428888 0.016167374 0.39177698 -0.9773337
-0.02652047 -1.6076336 0.007747364 -2.9484189 0.0353964
00000000: 392f 343e d3cb f6be 58ee b23d 3512 873e
00000010: 1070 2f3f 24fb 37bf 21d0 a5bd f778 103e
00000020: f04b c9be 6706 bd3f 2b6d 0f3d d08a 3b3d
00000030: 7daa 88bd 2014 113e 31ab c1be b3d5 403c
00000040: 3dd3 dc3d 2ebe 873d e205 37bf c19d 28bf
00000050: 4577 ba3e 76bc 3cbd a19a b3bc 501a 483b
00000060: ef3b d13c 13ed 47be 5cf1 12be 6a01 253d
00000070: dca0 3a3f 9867 083e 526c e2bc 4f65 393d
00000080: bd46 fe3d ed22 efbd 9565 993c 8b4e 09be
00000090: d8e1 193e 0463 32be f2f3 c8be a561 073e
000000a0: 51ac 623f 3d97 b53d f174 d0be 58d5 083f
000000b0: b826 abbf 86a3 5bbc 6b07 0dbe 3b24 943e
000000c0: 68cf a5bd 504b f73d 5e95 85bd 30eb eb3d
000000d0: e986 eb3c a115 29bf b7b5 453f d81f aebe
000000e0: c165 433d 5ec1 993d ed5f 443d 0075 60bd
000000f0: fd8f 8c3e 51f1 913d b767 47bc 9eb4 933a
00000100: 7e0b eebd eb06 5c3b ff26 b03d 71c1 043d
00000110: 1abf e4be e41d 93bd f8c3 d03b 2d24 03bf
00000120: c5b6 143d 128f 6b3e 0ef8 e5bc 54e7 573f
00000130: 4fdb b3bc 5708 713d b59c c0bd ed02 38be
00000140: 6df4 75bc eaf7 a5bd f387 bc3e 6c23 a73c
00000150: 223a 583e c981 f43c dab6 7ebd 411a 66ba
00000160: 208e 3b3f 4340 9fbb 8d48 9dbd 99dd babc
00000170: 9e62 83b9 b037 61bd c5b8 74bc 2d52 f43e
00000180: 0c05 623d 69c5 ddbb 2dbb 7dbd 6128 74bd
00000190: e381 d83c 8d27 263d 577f 833b bac9 d8bd
000001a0: f99f c9bb 8bc0 ff3c d5f3 833e cdb5 a0bd
000001b0: e230 8dbe a218 d2bd ba1a b9be 52d3 023b
000001c0: 52c7 e4b9 a34b 0e3d 4389 ce3e 8cf5 5fbc
000001d0: ea17 813d 3d8f 44be fba8 b63c 8f57 ffbd
000001e0: 6963 833b 8959 873c f5b3 57bd bee7 c13e
000001f0: 67ab 7bbe 761e 46bd dfd0 3e3d fd3d 3bbd
00000200: 4a66 873d d542 e8bb e3e1 05bf e2c4 ffbc
00000210: 7c23 1dbc d838 983b ca6b 25bc 4a99 383d
00000220: 6630 68bc 6897 53bd 7a84 373e a70e 3dbc
00000230: cb26 5abd b8d0 963e 5e84 113d 6a71 0b3c
00000240: 8b8e b4bc 4726 463f f5c3 983d 2276 c43d
00000250: d963 5f3e 24b1 00bd d8a8 b63c 5b4a a03d
00000260: f5e0 babe 07e7 15bd cbb8 a53d 7fa8 a0bc
00000270: 08eb 03bd ef5e bd3d f1e8 b5be 3203 3f3e
00000280: e789 863e 279d bfbc dc9d 1c3d 7bb0 24be
00000290: 2f32 f23c 02f4 06bf 670a 123b ef0e 04bd
000002a0: f233 debd c8d0 883e ad16 993c c72d debd
000002b0: b07d 283d 2432 28bd 62ec 923d 06fb febc
000002c0: 89c3 833e b1cb cb3d 7efe a73f 1fb8 00be
000002d0: 8f12 60bf e9ef 753c cac8 39be 810f 273e
000002e0: 4e69 e3be cc7a 053a 227e c4bd fbc7 823c
000002f0: d96e 14bd 41b1 e43d 415a 333c 4328 933d
00000300: d063 0e3d 7111 3abe 22c6 38be 78d0 473e
00000310: 0bc2 08bd ba6b fb3d 4ca9 303d b8d1 5c3d
00000320: dacd c1be fca4 923d 9230 02bd e438 afbd
00000330: ee72 8d3d e335 95bc 0c33 e73c 6c17 e4bc
00000340: 6f33 d73e cbf4 19bd 867a 96bf b89d 9840
00000350: 0e9d a7bf d8b9 80c0 0e0d 48bf cd49 d23f
00000360: 78b9 f5bf 689c 06c0 a20b 1e3f e0a7 923f
00000370: 9620 ddbc d756 cbbf 04ca b2bf f685 9fbf
00000380: 26ab f83c c2d0 fabb d718 aabf e559 863d
00000390: dd53 8840 74ef 6540 4182 19bf 73f6 043d
000003a0: f7f5 b5bf c251 d7bf 2fe1 57bd 3cfe 0ec0
000003b0: 617d c5bf 7171 843c fe96 c83e 8b32 7abf
000003c0: 7541 d9bc f0c6 cdbf 9add fd3b e5b2 3cc0
000003d0: d1fb 103d

feedforward_blocks.0.linear_layer_2.bias f4 [7]
0.16308 0.10834548 -0.014947012 0.00033034032 -0.084335215 -0.104859516 -0.5742584
00000000: 72fe 263e 3ce4 dd3d 50e4 74bc 8731 ad39
00000010: f1b7 acbd 96c0 d6bd 9902 13bf

feedforward_blocks.1.layer_norm.weight f4 [7]
1.7593086 1.8011674 3.027234 1.9055429 2.0898333 1.6358253 2.37052
00000000: 0631 e13f a78c e63f 34be 4140 d4e8 f33f
00000010: d4bf 0540 b962 d13f 9ab6 1740

feedforward_blocks.1.layer_norm.bias f4 [7]
-0.82220936 -0.48101288 -0.17610446 -0.6135805 -0.76218206 -0.83516484 0.2669843
00000000: 507c 52bf 5247 f6be ba54 34be 9d13 1dbf
00000010: 5d1e 43bf 5dcd 55bf 2bb2 883e

feedforward_blocks.1.linear_layer_1.weight f4 [35, 7]
1.4028049 -0.35279435 -0.9307503 0.6406683 0.051094234 0.89502853 -0.6909652 1.0176325
0.056727275 0.6708322 0.7152389 0.48366418 0.80648047 -0.454985 -0.13180465 -0.14449313
-0.8751688 -0.22931595 -0.16408668 -0.27927712 0.5444358 0.057344954 0.684341 -0.15782283
0.034355678 0.13192263 -0.3994365 -0.91440547 0.65407914 1.4082922 -2.0521796 -1.525925
1.6058543 -1.2200158 0.051976092 -0.0022762062 0.6674614 -0.1811708 0.05540522 0.10688465
-0.3536928 -0.8819082 0.49849886 -0.001832506 0.54566056 0.63613325 0.4731517 0.77087605
-0.42728135 -0.33000767 -0.3411796 1.3389913 -0.037777726 -0.61578697 -0.23327363 0.20982225
-0.13938175 -0.16141711 -0.8772251 -0.2575345 -0.15272892 -0.2740687 0.54481596 -0.12564923
-0.19448674 -0.97070664 -0.32424107 -0.22632161 -0.32098806 0.5978676 0.04106368 -0.22952566
0.31578174 1.0632652 -0.013159775 0.72666115 -0.1077749 0.43144897 -0.014507581 0.49602968
0.6368702 0.48309752 0.77856106 -0.42491755 -0.14202453 -0.25637665 -1.431083 -0.1932227
-0.10407315 -0.13168727 0.4302211 1.4115361 1.24921 -2.463783 -1.4989064 1.4960217
-1.0370047 0.0999744 1.7163143 0.31938997 -1.4954046 0.19778815 0.685973 -0.025873246
-0.7274776 -0.32856467 -0.33687198 1.3469961 -0.044801336 -0.63824666 -0.23971106 0.20537801
-0.3348208 -0.34196734 1.3408217 -0.033867605 -0.6193371 -0.23681939 0.20985042 -0.2033104
-0.25067058 -1.4683636 -0.17424767 -0.09393973 -0.124302454 0.42925638 1.3782595 -0.042779762
-0.6929766 -0.75574076 -0.14977446 -0.36932617 0.63285106 1.2716756 0.058894925 0.8716331
0.40960032 0.41384107 0.663245 -0.367924 1.589328 -0.13404945 0.60662353 0.622496
0.16555886 0.85815483 -0.5771567 0.620568 0.55742973 -0.5971977 -0.8516731 0.46338463
-0.36010706 1.183706 -0.44679174 -0.2629257 1.4233221 -0.06532733 -0.5691272 -0.33518842
0.122095466 -0.42315295 -0.26075643 1.4919202 -0.07850436 -0.5663382 -0.32266143 0.122693494
1.2031038 0.46423072 -0.9050534 0.2541092 0.5522452 -0.05520967 -0.84501326 -0.2629021
-0.23587647 -0.9925124 -0.13802436 -0.2007811 -0.22654729 0.41597486 0.31489107 -0.36091304
0.6669401 1.5135909 -0.03383134 1.3463868 -0.1210273 -0.04258209 -0.21724758 -1.298683
-0.1780126 -0.13692865 -0.13594708 0.4084136 2.031649 0.23790096 1.1772592 0.4102933
0.37667653 0.81737286 -0.38716692 2.720098 0.1814724 0.7843639 0.7734035 0.12966569
0.18546437 -1.2331762 -0.3378373 -0.30471855 1.3480875 -0.0402147 -0.6170364 -0.25160402
0.1870371 1.3307725 -0.06386211 -1.3493673 0.5952023 0.74384964 0.8337437 -0.59228146
0.5664667 0.6490362 -0.50207525 -0.9287745 0.5051371 -0.40603384 1.2863169 -0.100933984
-0.1617061 -0.84952 -0.2294567 -0.15932873 -0.32292944 0.54209083 -0.11787515 -0.15998134
-0.87606055 -0.25773618 -0.17216712 -0.2820842 0.54836583
00000000: 1c8f b33f 76a1 b4be a745 6ebf d602 243f
00000010: 3048 513d 9720 653f 18e3 30bf c841 823f
00000020: dc5a 683d a9bb 2b3f e619 373f d5a2 f73e
00000030: 8175 4e3f cbf3 e8be ccf7 06be 02f6 13be
00000040: 100b 60bf cdd1 6abe 5706 28be 69fd 8ebe
00000050: 2560 0b3f 8be2 6a3d f930 2f3f 4f9c 21be
00000060: 8ab8 0c3d ba16 073e f182 ccbe 7a16 6abf
00000070: bb71 273f eb42 b43f e956 03c0 8351 c3bf
00000080: a28c cd3f 7a29 9cbf e2e4 543d 672c 15bb
00000090: c0de 2a3f d784 39be 95f0 623d 57e6 da3d
000000a0: 3917 b5be bcc4 61bf 3e3b ff3e b330 f0ba
000000b0: 69b0 0b3f a1d9 223f f140 f23e 2258 453f
000000c0: 9fc4 dabe c4f6 a8be 18af aebe 1164 ab3f
000000d0: d1bc 1abd 37a4 1dbf 48df 6ebe a5db 563e
000000e0: 17ba 0ebe 874a 25be d391 60bf 90db 83be
000000f0: f864 1cbe bc52 8cbe 0f79 0b3f 31aa 00be
00000100: 8827 47be 3b80 78bf ed02 a6be dac0 67be
00000110: 8c58 a4be da0d 193f 6432 283d c608 6bbe
00000120: 25ae a13e 1319 883f 199c 57bc 7706 3a3f
00000130: 16b9 dcbd e1e6 dc3e 34b1 6dbc 9af7 fd3e
00000140: ed09 233f 8f58 f73e c74f 473f cb8e d9be
00000150: e16e 11be cd43 83be ba2d b7bf 2cdc 45be
00000160: 4e24 d5bd 07d9 06be f145 dc3e 37ad b43f
00000170: 1de6 9f3f 9fae 1dc0 2adc bfbf a47d bf3f
00000180: 92bc 84bf 61bf cc3d 30b0 db3f 1587 a33e
00000190: 6b69 bfbf fa88 4a3e ed9b 2f3f 21f4 d3bc
000001a0: f93b 3abf a139 a8be 7c7a acbe 5e6a ac3f
000001b0: 9b81 37bd 2264 23bf d176 75be 9d4e 523e
000001c0: a26d abbe 5816 afbe 0ca0 ab3f c2b8 0abd
000001d0: e08c 1ebf c880 72be 07e3 563e 9a30 50be
000001e0: e557 80be 57f3 bbbf fb6d 32be 7963 c0bd
000001f0: 4992 febd 7ec7 db3e cf6a b03f d539 2fbd
00000200: ea66 31bf 3a78 41bf 7a5e 19be 5218 bdbe
00000210: 8702 223f 44c6 a23f ce3b 713d 5923 5f3f
00000220: 22b7 d13e fae2 d33e 6dca 293f 8960 bcbe
00000230: 1a6f cb3f 4244 09be ae4b 1b3f e65b 1f3f
00000240: 4388 293e 09b0 5b3f 8bc0 13bf 8bdd 1e3f
00000250: b7b3 0e3f f3e1 18bf 4007 5abf c040 ed3e
00000260: f45f b8be ae83 973f e3c1 e4be 339e 86be
00000270: 6b2f b63f 56ca 85bd 52b2 11bf d19d abbe
00000280: 300d fa3d 81a7 d8be de81 85be 3ef7 be3f
00000290: e5c6 a0bd 8afb 10bf e133 a5be ba46 fb3d
000002a0: 4eff 993f a6af ed3e 94b1 67bf 9a1a 823e
000002b0: f15f 0d3f 8923 62bd ca52 58bf 1b9b 86be
000002c0: 9a89 71be 4b15 7ebf 4256 0dbe 9099 4dbe
000002d0: 03fc 67be a8fa d43e 6739 a13e 98c9 b8be
000002e0: 96bc 2a3f 59bd c13f bb92 0abd 6756 ac3f
000002f0: 29dd f7bd 8f6a 2ebd 2676 5ebe 3f3b a6bf
00000300: ef48 36be 0637 0cbe b635 0bbe 961b d13e
00000310: 8a06 0240 4f9c 733e 6eb0 963f f711 d23e
00000320: bfdb c03e 593f 513f be3a c6be 1616 2e40
00000330: e7d3 393e 13cc 483f c6fd 453f 15c7 043e
00000340: 5fea 3d3e b8d8 9dbf 03f9 acbe 1204 9cbe
00000350: 228e ac3f 2bb8 24bd 19f6 1dbf 3ed2 80be
00000360: a786 3f3e c156 aa3f 23ca 82bd 11b8 acbf
00000370: 2e5f 183f ee6c 3e3f 3a70 553f c29f 17bf
00000380: f603 113f 3d27 263f 0188 00bf 2ac4 6dbf
00000390: aa50 013f abe3 cfbe 08a6 a43f 7ab6 cebd
000003a0: 4996 25be 257a 59bf b2f6 6abe 1227 23be
000003b0: 0257 a5be 77c6 0a3f 8768 f1bd 26d2 23be
000003c0: 8145 60bf fff5 83be 944c 30be 576d 90be
000003d0: b461 0c3f

feedforward_blocks.1.linear_layer_1.bias f4 [35]
0.12756765 -0.55675954 0.16832891 0.591379 -0.025398746 0.5567184 -0.57807976 0.43043017
0.16819386 0.12522624 -0.2581683 -0.54157555 0.15702082 -0.009153988 0.3362515 0.4275893
0.42973155 0.15357429 -0.52527386 -0.63272494 -0.360908 -1.4231458 0.4086757 0.39357853
0.31888592 0.3250592 -0.2507283 0.13676651 -0.7312256 0.14291936 0.42920774 -0.37446892
-1.6258422 0.15996778 0.15939619
00000000: 18a1 023e cb87 0ebf 6a5e 2c3e 9d64 173f
00000010: 0811 d0bc 1985 0e3f 09fd 13bf 5861 dc3e
00000020: 033b 2c3e 4f3b 003e a32e 84be b2a4 0abf
00000030: 11ca 203e 9cfa 15bc 2829 ac3e fcec da3e
00000040: c605 dc3e 9442 1d3e 5978 06bf 43fa 21bf
00000050: efc8 b8be a429 b6bf f13d d13e 2083 c93e
00000060: 0445 a33e 296e a63e 765f 80be 850c 0c3e
00000070: 9a31 3bbf 7459 123e 1ec1 db3e 64ba bfbe
00000080: 991b d0bf 98ce 233e c138 233e

feedforward_blocks.1.linear_layer_2.weight f4 [7, 35]
-0.008126169 -0.001454599 0.0120635545 0.010993523 -0.011515741 -0.0012429043 0.011435849 0.0059041427
0.0017068496 -0.006575811 -0.002811276 0.008493044 0.006946593 -0.023291953 -0.015066899 -0.0077617844
-0.0056956923 -0.017211162 0.009614565 -0.002421182 -0.0097617125 0.0044485657 -0.0012037165 -0.011780594
-0.00079683325 0.00059956516 0.0057031987 0.005691654 0.018814541 -0.0015581342 -0.0009174046 -0.00947797
0.0073188823 -0.002744198 0.010315264 0.007134646 -0.0012994242 -0.0008400187 -0.013455526 -0.017553873
-0.008161974 0.009832875 0.009889066 -0.0146598 0.0005181942 0.001949382 0.0015963388 -0.013952545
0.0033222688 0.0031982525 0.0037616726 -0.00040018157 0.0051950314 0.004217915 0.019712044 0.002941293
-0.015382813 0.005636427 -0.005187015 -0.0044183177 -0.008812229 0.0009764574 -0.011254908 -0.0057427227
-0.0004817081 0.0029932493 0.0061570955 0.025419595 -0.018135652 0.016552236 0.015310645 0.007243083
-0.0039295466 0.009191856 -0.020279758 0.009963437 -0.0062873554 0.00045275176 -0.008903764 0.0031919007
0.014852996 -0.008101067 0.0011119773 0.00453163 0.012697102 0.010693361 0.009233548 -0.011229678
0.0059067747 -0.015921852 0.0005329251 0.0012144718 -0.010140542 0.0069596614 -0.001829877 -0.016393285
-0.0114411 0.022427227 6.4340866e-06 0.018902807 -0.005261801 -0.010436366 -0.0014150466 0.0073377965
0.010804323 -0.012513117 0.0010619407 -0.0031079163 -0.003908434 0.012733634 0.0021999674 -0.0007372974
-0.00749668 0.00055206893 -0.00047263972 0.002263435 -0.010468568 0.0050714053 0.0027790947 -0.015619742
0.006137227 0.0075831492 0.008447205 0.0073153684 -0.010798523 -0.011273093 -0.01314823 0.0008902258
0.0069730813 -0.013122187 -0.0006934179 -0.0019336266 0.0107431505 -0.002500279 -0.011536248 0.019798592
0.0061863535 -0.010278275 0.0033221995 0.002871636 0.01582842 0.0065319426 0.0047316896 0.00031998486
-0.009045489 0.009763755 0.005185232 0.008335664 -0.0098408125 0.0019478211 0.0017972915 -0.011241129
0.011203547 -0.0016609388 0.003558686 -0.0028158838 -0.012340002 -0.015179715 -0.0025265526 0.0016423973
0.0027958262 0.001167524 -0.0073545333 -0.0051104184 0.007822935 -0.0109762885 -0.003051782 -0.009001287
0.006796291 -0.01052919 -0.01266098 -0.0007551898 -0.00847188 -0.010846806 0.0076148347 -0.0012921789
0.014592784 -0.02466745 -0.0061645173 -0.03222108 0.012088616 -0.0010021637 0.006805343 -0.0037846041
0.00454498 0.0030749727 -0.005051371 -0.011627399 0.0026889502 0.0024028092 -0.033305362 0.004916365
-0.0048765326 -0.016904518 0.005704427 0.0031581814 0.001614461 0.004479955 -0.007978746 -0.0029300977
0.0023314538 -0.009060512 -0.0004606613 0.00924644 0.018094374 -0.013918806 0.008558565 -8.294426e-05
-0.014321652 -0.0025154895 1.2365146 2.1897695 -0.5619479 -0.8764663 1.6006873 -0.838102
1.6316651 0.6526155 -0.5411523 -0.54387623 -0.61317986 1.4425641 -0.61313254 1.6166459
-1.0753318 0.6574709 0.6544923 -0.62811357 -1.522156 2.2153027 1.4910271 -2.0247464
0.6715175 0.6943496 -0.95484287 -0.5638303 -0.8658265 -0.56107605 3.580811 -2.0525086
0.67163527 1.7130505 -2.3285618 -0.5497875 -0.55854625
00000000: a023 05bc 3ea8 beba 37a6 453c 2d1e 343c
00000010: 85ac 3cbc f3e8 a2ba 6d5d 3b3c 8a77 c13b
00000020: 5eb8 df3a e779 d7bb 623d 38bb 6926 0b3c
00000030: 3fa0 e33b c4ce bebc 28db 76bc 9156 febb
00000040: eea2 babb 6cfe 8cbc 6986 1d3c b2ac 1ebb
00000050: 97ef 1fbc 46c5 913b 06c6 9dba 6403 41bc
00000060: 93e2 50ba 232c 1d3a e6e1 ba3b 0e81 ba3b
00000070: f420 9a3c 4f3a ccba fb7d 70ba 7d49 1bbc
00000080: 3cd3 ef3b 01d8 33bb 5a01 293c c0c9 e93b
00000090: 7151 aaba b334 5cba 9174 5cbc 24cd 8fbc
000000a0: cdb9 05bc 111a 213c c005 223c a82f 70bc
000000b0: 6dd7 073a 6882 ff3a 3e3c d13a 3799 64bc
000000c0: 6cba 593b c699 513b 6586 763b 76cf d1b9
000000d0: 153b aa3b 6f36 8a3b 277b a13c b5c2 403b
000000e0: 3208 7cbc c7b1 b83b d6f7 a9bb 89c7 90bb
000000f0: 2b61 10bc f2f8 7f3a 8166 38bc 732d bcbb
00000100: c48d fcb9 642a 443b 76c1 c93b c13c d03c
00000110: 3891 94bc 8e98 873c 80d9 7a3c 6257 ed3b
00000120: 6dc3 80bb 7099 163c bc21 a6bc af3d 233c
00000130: 2906 cebb 505f ed39 18e1 11bc 352f 513b
00000140: fb59 733c 56ba 04bc c4bf 913a 117e 943b
00000150: 8107 503c 3533 2f3c 4f48 173c affc 37bc
00000160: 9e8d c13b 8b6e 82bc 00b4 0b3a e92e 9f3a
00000170: 8424 26bc df0d e43b 7cd8 efba 364b 86bc
00000180: 7473 3bbc 4eb9 b73c 62e4 d736 0fda 9a3c
00000190: 306b acbb 4bfd 2abc 1679 b9ba e671 f03b
000001a0: 9d04 313c d103 4dbc d130 8b3a 2fae 4bbb
000001b0: 5212 80bb bba0 503c 542d 103b 3147 41ba
000001c0: b6a6 f5bb b8b8 103a a1cc f7b9 2356 143b
000001d0: 5b84 2bbc 082e a63b 7921 363b f2e9 7fbc
000001e0: cb1a c93b 117c f83b 2566 0a3c c2b5 ef3b
000001f0: 4aec 30bc c7b2 38bc ac6b 57bc 0b5e 693a
00000200: 727e e43b 71fe 56bc 7dc6 35ba be71 fdba
00000210: 0a04 303c b9db 23bb 8802 3dbc a830 a23c
00000220: e5b6 ca3b 3666 28bc 42b9 593b 0f32 3c3b
00000230: 9aaa 813c e809 d63b 4a0c 9b3b a4c3 a739
00000240: 8833 14bc 28f8 1f3c e1e8 a93b 4f92 083c
00000250: 5c3b 21bc 084e ff3a 1893 eb3a b62c 38bc
00000260: 158f 373c dcb3 d9ba d838 693b b18a 38bb
00000270: b82d 4abc 57b4 78bc 8594 25bb b545 d73a
00000280: 2e3a 373b 9b07 993a 4cfe f0bb 4c75 a7bb
00000290: c42b 003c e4d5 33bc 6800 48bb 227a 13bc
000002a0: 6cb3 de3b a082 2cbc 0070 4fbc eef7 45ba
000002b0: a4cd 0abc cdb6 31bc dd85 f93b 545e a9ba
000002c0: 9316 6f3c 6413 cabc b8ff c9bb 40fa 03bd
000002d0: 550f 463c 095b 83ba 5bff de3b 1f07 78bb
000002e0: 0eee 943b 7b85 493b f985 a5bb d980 3ebc
000002f0: 1939 303b 7378 1d3b 346b 08bd 7519 a13b
00000300: 52cb 9fbb 587b 8abc 34ec ba3b 7ef9 4e3b
00000310: 529c d33a 96cc 923b 49b9 02bc e206 40bb
00000320: 4ecb 183b 8b72 14bc ea84 f1b9 617e 173c
00000330: a73a 943c b40b 64bc 3939 0c3c 5cf2 adb8
00000340: 5da5 6abc e9da 24bb 1c46 9e3f 2f25 0c40
00000350: d1db 0fbf 1860 60bf 52e3 cc3f da8d 56bf
00000360: 67da d03f cf11 273f f588 0abf 793b 0bbf
00000370: 5bf9 1cbf f1a5 b83f 41f6 1cbf 41ee ce3f
00000380: 79a4 89bf 0350 283f cf8c 273f 0dcc 20bf
00000390: 02d6 c2bf 85c7 0d40 fad9 be3f 7295 01c0
000003a0: 92e8 2b3f e5c0 313f 9570 74bf 2f57 10bf
000003b0: cea6 5dbf aea2 0fbf 022c 6540 4d5c 03c0
000003c0: 4af0 2b3f 3d45 db3f 2807 15c0 e0be 0cbf
000003d0: e3fc 0ebf

feedforward_blocks.1.linear_layer_2.bias f4 [7]
0.0 0.0 0.0 0.0 0.0 0.0 0.041317873
00000000: 0000 0000 0000 0000 0000 0000 0000 0000
00000010: 0000 0000 0000 0000 ee3c 293d

linear_layer_1.weight f4 [115, 115]
-0.008336561 0.023708936 -0.0192284 0.024841415 -0.01486192 -0.03218482 -0.011001383 -0.040724054
-0.0057998747 -0.019207554 -0.031053359 -0.025621913 -0.0231498 -0.017824836 0.00040501077 0.020265445
0.021828523 0.008074635 -0.02022821 0.014230243 -0.040442184 -0.011475462 0.0025723323 0.015328084
0.008218309 0.0073606907 0.049356833 0.0009519869 0.004037032 -0.003749649 0.00051282556 -0.011456461
0.02826453 -0.036724765 -0.006868243 0.017992686 -0.034702826 -0.00026390064 0.0075615398 -0.02877177
-0.013744768 0.013763202 0.001889477 0.033183474 0.014606587 -0.008368982 0.021808354 -0.044337954
0.017295334 -0.052111 -0.011757056 -0.0023061559 0.04227647 0.005022209 0.0070010256 0.019940795
0.034426615 0.0023429058 -0.0052253967 0.009195321 -0.014689463 0.020473504 -0.058221154 -0.02692197
0.0016045225 -0.026790103 0.022817716 0.0064766584 0.008081413 -0.0067528705 -0.0066458504 0.0020010637
-0.0046498715 0.014805989 -0.004102131 -0.03521089 -0.023687575 0.004957709 -0.0047586793 0.022142576
0.0021206348 0.015261254 -0.042341735 0.027817436 -0.039750047 0.015024858 0.008222475 0.032774296
-0.025243945 0.01505958 -0.0012107206 -0.0062433807 0.013932841 0.0074356864 -0.026460249 -0.0011597632
-0.024006318 -0.03791888 0.011439129 0.035954926 0.02731889 -0.00027446685 -0.016112082 0.028791036
0.013845369 -0.009116941 0.019356677 0.013341423 -0.01188404 -0.0066847443 0.015634838 0.023359014
-0.00040832383 0.015620059 0.027220532 -0.016800111 -0.004630686 -0.015581975 0.0020089073 -0.0073043
0.00805409 -0.024527682 -0.003990287 -0.01258734 0.0047826017 0.019742852 -0.004892461 -0.033282805
-0.006446226 -0.0032020481 0.016330183 -0.043183994 0.055379774 0.005047037 -0.024148023 0.0376076
-0.054087542 -0.0009706561 -0.03827243 -0.033798657 0.0106110275 0.008829934 -0.02418598 0.009400157
-0.02235365 -0.00012653464 -0.0020391042 -0.023916809 0.01933994 0.016105924 0.0183185 -0.034146465
0.0027774766 0.019468943 -0.015511486 0.016507668 -0.017742885 0.003214316 0.004960747 0.023799641
-0.0013815755 0.009428939 0.008818668 0.002393368 -0.015735993 -0.04560806 -0.0008523189 0.017047398
-0.012570752 0.020674232 -0.012166667 -0.025130382 -0.0129415095 0.040755834 0.012062933 -0.030059699
0.024931073 -0.036151912 0.024017986 -0.008324294 0.031839915 -0.01037458 0.00790205 -0.017626237
-0.013197372 0.022757284 0.02509333 -0.010192867 0.047336876 0.015176128 -0.0074716965 0.016108563
0.0049339905 -0.029102687 -0.009337816 -0.002187882 0.012061955 0.008874505 0.01415182 0.009799395
0.034354504 0.020312442 -0.0033370524 -0.026508385 -0.041496824 -0.023632765 -0.01335061 -0.03209575
0.00047629725 -0.049947083 -0.017709676 -0.012104551 -0.018360607 -0.026463436 -0.017512888 0.007518034
-0.0020583482 0.03885334 0.0025139335 -0.02573538 -0.01621511 0.004982705 -0.0076277503 -0.034672048
0.01800002 -0.019437723 -0.0054908716 0.03377876 -0.017233033 -0.061637305 -0.004957612 -0.020205498
0.029236473 0.0015183197 -0.019040968 -0.038951874 0.030955603 0.010282353 0.04916544 -0.026441084
0.008626903 0.02051178 -0.0016263927 0.0084301755 0.006921504 0.0046131522 0.02154467 -0.019634979
0.020282004 -0.02816185 0.024200456 -0.023352096 -0.002224933 0.037262894 0.008969181 0.03674174
00000000: 1296 08bc 3e39 c23c e184 9dbc 3980 cb3c
00000010: 697f 73bc 3bd4 03bd 253f 34bc 44ce 26bd
00000020: e00c bebb 2959 9dbc 9d63 febc 0ce5 d1bc
00000030: a6a4 bdbc 6405 92bc a057 d439 b803 a63c
00000040: bbd1 b23c 794b 043c a2b5 a5bc f725 693c
00000050: b4a6 25bd 9303 3cbc 9394 283b a522 7b3c
00000060: 16a6 063c f331 f13b 642a 4a3d c28e 793a
00000070: 1449 843b acbc 75bb 246f 063a e1b3 3bbc
00000080: 048b e73c b56c 16bd 000f e1bb 6665 933c
00000090: 8d24 0ebd 255c 8ab9 cbc6 f73b c6b2 ebbc
000000a0: bc31 61bc 0e7f 613c 54a8 f73a 65eb 073d
000000b0: 7750 6f3c 0e1e 09bc 6fa7 b23c b79b 35bd
000000c0: f2ae 8d3c 5872 55bd aba0 40bc e022 17bb
000000d0: 182a 2d3d 5891 a43b dc68 e53b e15a a33c
000000e0: ec02 0d3d 708b 193b ce39 abbb f9a7 163c
000000f0: 13ac 70bc 0db8 a73c 4e79 6ebd 778b dcbc
00000100: d74e d23a eb76 dbbc 38ec ba3c 263a d43b
00000110: e767 043c 2f47 ddbb 6fc5 d9bb 4724 033b
00000120: f35d 98bb d294 723c 2b6b 86bb 4b39 10bd
00000130: 720c c2bc 4774 a23b b2ee 9bbb 5964 b53c
00000140: 59fa 0a3b 570a 7a3c 876e 2dbd 64e1 e33c
00000150: f2d0 22bd d22a 763c 8fb7 063c 573e 063d
00000160: 64cc cebc 75bc 763c 0bb1 9eba 4695 ccbb
00000170: 9246 643c 0fa7 f33b 2ac3 d8bc 3203 98ba
00000180: e6a8 c4bc d450 1bbd 2f6b 3b3c 7945 133d
00000190: ddcb df3c 51e6 8fb9 7cfd 83bc 2edb eb3c
000001a0: b0d7 623c 395f 15bc e591 9e3c fc95 5a3c
000001b0: 47b5 42bc b30b dbbb a214 803c 675b bf3c
000001c0: 4c14 d6b9 47eb 7f3c 98fd de3c 63a0 89bc
000001d0: 02bd 97bb 8a4b 7fbc dfa7 033b e958 efbb
000001e0: 4df5 033c 47ee c8bc f4c0 82bb 213b 4ebc
000001f0: 5fb7 9c3b c3bb a13c f050 a0bb 8d53 08bd
00000200: dd3a d3bb 74d9 51bb e0c6 853c b3e1 30bd
00000210: e7d5 623d 9d61 a53b 13d2 c5bc 6d0a 1a3d
00000220: e68a 5dbd a173 7eba 8dc3 1cbd 7670 0abd
00000230: e0d9 2d3c 6dab 103c ad21 c6bc 1e03 1a3c
00000240: 001f b7bc 62ae 04b9 7ea2 05bb 2fed c3bc
00000250: cb6e 9e3c 92f0 833c ae10 963c 2add 0bbd
00000260: 5306 363b 557d 9f3c e323 7ebc 173b 873c
00000270: 8759 91bc 46a7 523b c38d a23b 77f7 c23c
00000280: fb15 b5ba d67b 1a3c 2d7c 103c 0dda 1c3b
00000290: c5e8 80bc 84cf 3abd 276e 5fba fca6 8b3c
000002a0: 8ef5 4dbc 025d a93c b356 47bc 3bde cdbc
000002b0: a008 54bc 97ef 263d 9ca3 453c c23f f6bc
000002c0: 403c cc3c 0714 14bd 5ec1 c43c 9f62 08bc
000002d0: 926a 023d 24fa 29bc 9a77 013c e664 90bc
000002e0: ca39 58bc 7c6d ba3c 8790 cd3c fcff 26bc
000002f0: 50e4 413d 4ba5 783c 22d5 f4bb 1bf6 833c
00000300: 50ad a13b c268 eebc a4fd 18bc 9262 0fbb
00000310: 829f 453c 5f66 113c 09dd 673c a48d 203c
00000320: 4fb7 0c3d 4766 a63c 73b2 5abb 1d28 d9bc
00000330: 93f8 29bd 8099 c1bc 84bc 5abc d576 03bd
00000340: 89b7 f939 5095 4cbd e213 91bc 2b52 46bc
00000350: fc68 96bc d9c9 d8bc 3077 8fbc d759 f63b
00000360: 5ae5 06bb ae24 1f3d cec0 243b 01d3 d2bc
00000370: 8dd5 84bc f645 a33b 35f2 f9bb 4704 0ebd
00000380: c774 933c dc3b 9fbc c5ec b3bb 995b 0a3d
00000390: 4a2c 8dbc 6677 7cbd 7773 a2bb 0086 a5bc
000003a0: 5481 ef3c 5b02 c73a cefb 9bbc 008c 1fbd
000003b0: 9b96 fd3c 5077 283c b361 493d f99a d8bc
000003c0: db57 0d3c 5208 a83c af2c d5ba b81e 0a3c
000003d0: c9cd e23b ed29 973b 737e b03c 89d9 a0bc
000003e0: 7226 a63c aeb3 e6bc 0940 c63c e54c bfbc
000003f0: 2ed0 11bb faa0 183d 79f3 123c 827e 163d

linear_layer_1.bias f4 [115]
0.0 0.0 0.0 0.0 0.0 0.0 0.0 0.0
0.0 0.0 0.0 0.0 0.0 0.0 0.0 0.0
0.0 0.0 0.0 0.0 0.0 0.0 0.0 0.0
0.0 0.0 0.0 0.0 0.0 0.0 0.0 0.0
0.0 0.0 0.0 0.0 0.0 0.0 0.0 0.0
0.0 0.0 0.0 0.0 0.0 0.0 0.0 0.0
0.0 0.0 0.0 0.0 0.0 0.0 0.0 0.0
0.0 0.0 0.0 0.0 0.0 0.0 0.0 0.0
0.0 0.0 0.0 0.0 0.0 0.0 0.0 0.0
0.0 0.0 0.0 0.0 0.0 0.0 0.0 0.0
0.0 0.0 0.0 0.0 0.0 0.0 0.0 0.0
0.0 0.0 0.0 0.0 0.0 0.0 0.0 0.0
0.0 0.0 0.0 0.0 0.0 0.0 0.0 0.0
0.0 0.0 0.0 0.0 0.0 0.0 0.0 0.0
0.0 0.0 0.0
00000000: 0000 0000 0000 0000 0000 0000 0000 0000
00000010: 0000 0000 0000 0000 0000 0000 0000 0000
00000020: 0000 0000 0000 0000 0000 0000 0000 0000
00000030: 0000 0000 0000 0000 0000 0000 0000 0000
00000040: 0000 0000 0000 0000 0000 0000 0000 0000
00000050: 0000 0000 0000 0000 0000 0000 0000 0000
00000060: 0000 0000 0000 0000 0000 0000 0000 0000
00000070: 0000 0000 0000 0000 0000 0000 0000 0000
00000080: 0000 0000 0000 0000 0000 0000 0000 0000
00000090: 0000 0000 0000 0000 0000 0000 0000 0000
000000a0: 0000 0000 0000 0000 0000 0000 0000 0000
000000b0: 0000 0000 0000 0000 0000 0000 0000 0000
000000c0: 0000 0000 0000 0000 0000 0000 0000 0000
000000d0: 0000 0000 0000 0000 0000 0000 0000 0000
000000e0: 0000 0000 0000 0000 0000 0000 0000 0000
000000f0: 0000 0000 0000 0000 0000 0000 0000 0000
00000100: 0000 0000 0000 0000 0000 0000 0000 0000
00000110: 0000 0000 0000 0000 0000 0000 0000 0000
00000120: 0000 0000 0000 0000 0000 0000 0000 0000
00000130: 0000 0000 0000 0000 0000 0000 0000 0000
00000140: 0000 0000 0000 0000 0000 0000 0000 0000
00000150: 0000 0000 0000 0000 0000 0000 0000 0000
00000160: 0000 0000 0000 0000 0000 0000 0000 0000
00000170: 0000 0000 0000 0000 0000 0000 0000 0000
00000180: 0000 0000 0000 0000 0000 0000 0000 0000
00000190: 0000 0000 0000 0000 0000 0000 0000 0000
000001a0: 0000 0000 0000 0000 0000 0000 0000 0000
000001b0: 0000 0000 0000 0000 0000 0000 0000 0000
000001c0: 0000 0000 0000 0000 0000 0000
