trained_model_6_1_1.pth (torch, 119117 bytes, 18 tensors)

inp_embedding.weight f4 [115, 6]
000000 50 10 24 be 5d 07 3f bd a1 1e ee 3e 3d e3 fe 3e
       -0.16021848 -0.04663788 0.46507743 0.49782744
000010 48 6c f2 bf ee 82 a6 be 3c 64 c1 be ef 64 fa be
       -1.8939295 -0.32521766 -0.37771785 -0.4890513
000020 0e 72 0f 3f fd 85 7b bf 09 07 a5 3f 4f 79 b4 be
       0.5603341 -0.98251325 1.2892772 -0.352488
000030 d2 c5 23 3f f2 78 66 bf 47 65 0e 3f b2 8e 88 bf
       0.63973725 -0.900283 0.55623287 -1.0668547
000040 a1 89 81 3e 9e 7b 0d 3f c5 79 8c 3e 1b 7e c8 be
       0.25300315 0.5526675 0.27436653 -0.3915871
000050 ea e1 b5 3f a2 4b 6e bf d7 fe 44 3e e7 97 df be
       1.4209569 -0.93084157 0.19237839 -0.4367058
000060 0b e7 d4 be ac e7 d3 be 30 e4 07 3f 68 88 6a bf
       -0.41582522 -0.4138769 0.5308256 -0.9161439
000070 eb 18 a5 3f 09 47 9a be b8 90 20 be bc 66 aa bd
       1.2898229 -0.3013232 -0.15680206 -0.08320376
000080 f0 b5 e4 3e b4 08 da 3e 04 c6 f0 bf 96 71 d2 be
       0.44670057 0.42584765 -1.881043 -0.41102284
000090 c0 7a 2a be aa 96 b9 bd f3 32 fb 3e a7 93 09 3f
       -0.16648388 -0.0906194 0.4906231 0.53740925
0000a0 47 bc 00 c0 72 23 22 bd 3e 86 18 be 5b 93 0e bc
       -2.0114915 -0.039584585 -0.1489496 -0.0087021245
0000b0 aa 8e f6 3e a5 89 06 3f 42 fc 02 c0 15 ea 83 be
       0.4815572 0.5255378 -2.0466466 -0.25764528
0000c0 1c f8 50 be 48 bc 29 be a1 fc 02 3f ce b2 cc 3e
       -0.20407146 -0.1657573 0.5116673 0.39980167
0000d0 af 0d ea bf 1d 73 94 be be 42 e8 be 0e 3b d3 be
       -1.8285426 -0.28994074 -0.4536342 -0.41255993
0000e0 06 f4 e4 3e 8e 40 da 3d 47 41 8b 3f f8 b0 4e bb
       0.44717425 0.10656844 1.0879296 -0.0031538587
0000f0 7f 20 4a be 3e 01 2f be 5a 8c ee 3e 7b 88 af 3e
       -0.19738959 -0.17090318 0.46591455 0.34283814
000100 76 58 de bf bd ab 79 be 1a 29 7d 3e f2 7b 16 bf
       -1.7370746 -0.24381919 0.2472271 -0.58782876
000110 93 88 b2 3f 82 c2 28 bf 86 2a 59 3e 45 d1 17 bf
       1.3947929 -0.65921795 0.21207628 -0.59303695
000120 7e a8 b2 be 0d b2 3e be e5 7e 54 3e cf 48 4d be
       -0.34894174 -0.18622608 0.20751531 -0.20047306
000130 81 c8 2f bf df 13 2b 3f 85 3c 56 bd bf bc ef 3d
       -0.6866532 0.66827196 -0.05230381 0.11705922
000140 36 bd f6 3f cf 12 9a 3d 37 14 6d bf 7d b0 0d bf
       1.9276493 0.07523119 -0.9260897 -0.55347425
000150 93 27 6b bf a9 5d 96 3e 00 ef 11 3f 5e d4 a4 3e
       -0.9185726 0.29368332 0.5700531 0.32193273
000160 be 15 e3 3e 5a ad 1f bf 4b 6a 16 bf 04 e5 14 3f
       0.44352525 -0.6237389 -0.5875594 0.5816195
000170 cc 27 78 3e 04 71 ba be 30 4a 46 3e ba bd f1 3e
       0.24233931 -0.3641435 0.19364238 0.47215062
000180 7b ed f8 be de 02 f2 3d da 11 98 3f 89 dc 8b 3e
       -0.48618683 0.11816953 1.1880448 0.27316692
000190 37 b5 13 be 5e cd 8c bf 68 67 4c bf 98 02 a7 3e
       -0.14424597 -1.1000173 -0.79845285 0.32619166
0001a0 6d 95 9e 3e 55 1e 27 bd 5f 2a 3e 3f 5d 9c 9a 3f
       0.30973378 -0.04080041 0.74283403 1.2078968
0001b0 1a 4f 2c bf 6c 55 6e 3d 5b fc 24 3f 77 5a 86 bc
       -0.673082 0.058186933 0.64447564 -0.016400559
0001c0 3d f6 b3 3e 7c d0 19 3f 70 cf 2a bf e0 cc e1 3e
       0.35148802 0.60083747 -0.66722775 0.4410162
0001d0 5a 64 c8 3e 98 e3 16 be 8a ef 29 3f 0e 29 9c 3f
       0.39139062 -0.14735258 0.6638113 1.2200029
0001e0 aa bb 0e bf 56 0c 0b 40 ed 17 83 bf ca 57 03 bd
       -0.557551 2.172628 -1.0241677 -0.032066144
0001f0 39 c8 83 be 2e 9d 80 3f c5 ba ba 3f 0e 58 d3 3e
       -0.25738695 1.0047967 1.4588248 0.41278118
000200 e9 d1 cb be 1a 8b 3f bf 5c c3 f0 3e d3 8d 62 bf
       -0.39808586 -0.7482163 0.47024047 -0.88497657
000210 a8 55 12 3e f2 7c 8d 3e f4 db cd bc e6 6e b2 bf
       0.14290488 0.27634388 -0.025129296 -1.3940094
000220 89 32 45 bd 38 9f ce 3e b8 17 0e be ce df 44 3f
       -0.048143897 0.4035585 -0.13876235 0.76904
000230 48 74 18 bf 27 96 dc 3e de 5e da be 94 6e 7f be
       -0.5955243 0.43083307 -0.42650503 -0.24944526
000240 9a 95 1a bf 99 c7 df 3e 58 1b 95 bf 6b e7 67 3e
       -0.60384524 0.43706968 -1.164897 0.22646873
000250 a1 2e 14 3f 09 d7 e2 3e 5d 78 12 3e 62 8c 8d 3e
       0.5788365 0.44304684 0.14303727 0.27646166
000260 65 a8 cc bc 04 69 b2 bf 99 a8 44 bd ed ab ce 3e
       -0.02498264 -1.3938298 -0.04801235 0.40365544
000270 70 c0 b3 be 0a 73 f8 be df ad 0f 3f ea b3 6d bf
       -0.35107756 -0.48525268 0.5612468 -0.9285265
000280 d6 16 ac 3f 02 90 8b be 82 5c e3 be 04 ee 78 3e
       1.3444469 -0.27258307 -0.44406515 0.24309546
000290 7c 88 53 be 68 63 a6 3f 36 ee f0 3e e9 f2 42 bf
       -0.20657533 1.2999086 0.4705674 -0.761519
0002a0 e6 32 35 3f 4e 50 9e 3e e5 9d 19 be f9 45 a5 bd
       0.7078079 0.30920643 -0.15001638 -0.08069987
0002b0 78 f4 43 3f 6f af 04 bf 12 88 03 c0 8c c6 dc be
       0.76544905 -0.5183019 -2.05518 -0.4312023
0002c0 3f 18 79 be 9e e3 96 3e 44 fb df c0 f6 c7 86 40
       -0.24325655 0.29470533 -6.999422 4.2119093
0002d0 84 27 96 3f 28 59 ae 3e c9 d0 85 3d 14 8e 3a be
       1.1730809 0.34052396 0.06533963 -0.18218261
0002e0 9f 8c 11 c0 c7 8c 4d be c0 cf c2 bd 52 c6 b8 bf
       -2.2742078 -0.20073234 -0.095122814 -1.4435523
0002f0 45 0a 6f 3e cc 0e 1b 3f 26 0b 45 3e 39 ab a0 3d
       0.23343761 0.60569453 0.19242534 0.07845158
000300 27 32 d8 3f 76 6c 17 3e 84 09 78 be eb f5 1c 3e
       1.6890305 0.14787468 -0.2422238 0.15328185
000310 d1 40 b5 bd 52 cf 79 3f 1a ba a7 be 83 b4 3b 3f
       -0.088502534 0.9758197 -0.32759172 0.73322314
000320 a1 6d 97 3e fc a5 d6 be 13 40 2f be ec aa 81 be
       0.29575828 -0.4192351 -0.17114286 -0.25325716
000330 35 13 83 be d7 c8 eb 3e a4 a1 84 bf 40 51 73 3c
       -0.2560059 0.46051666 -1.0361829 0.0148509145
000340 fb 38 78 3e 05 e7 77 3f c9 d5 0c 3f bc ba 71 bf
       0.24240486 0.9683688 0.5501371 -0.9442556
000350 23 f6 66 be cd 9d 9f 3e 19 d3 1f bf cf 9f 7d 3f
       -0.22554831 0.3117508 -0.62431484 0.99071974
000360 b3 d0 54 3f 1a 08 eb 3f d1 33 be 3e 3e e7 f2 be
       0.8313095 1.8361847 0.37148908 -0.4744205
000370 11 b6 a7 bd 27 bb 17 be 6a a0 24 3f 02 34 50 bf
       -0.08189023 -0.14817487 0.6430727 -0.8132936
000380 0e 35 a1 3e c8 6c 8c be db c2 9c be 48 60 50 3e
       0.3148579 -0.27426744 -0.30617413 0.20349228
000390 89 90 03 c0 07 b1 dc be d5 b7 7b be 7b 10 98 3e
       -2.0556967 -0.4310381 -0.24581845 0.29700074
0003a0 24 f3 df c0 d4 c3 86 40 f4 c1 ff 3d 7f 18 44 3e
       -6.9984303 4.211405 0.124881655 0.1914997
0003b0 ea d0 06 3f 09 ad ae 3e d2 a0 26 bf 4a 30 01 c0
       0.5266253 0.3411639 -0.6508914 -2.0185723
0003c0 25 5a 42 c0 e7 f8 de bf ee c1 93 be ba 7b 0e 3f
       -3.036752 -1.7419709 -0.28858894 0.5565754
0003d0 4c e2 05 bf eb a0 0d 40 d0 8e 2f 3e 57 e9 93 bf
       -0.52298427 2.2129467 0.17144322 -1.1555585
0003e0 2a ed 92 3e 41 96 13 bf 99 da 1b bf 93 df 96 3f
       0.28696567 -0.57651144 -0.6088043 1.178698
0003f0 19 41 38 40 91 50 a8 bf e4 67 b3 bf 47 0e 09 40
       2.8789732 -1.3149587 -1.401608 2.1414964

attention_block.layer_norm.weight f4 [6]
000000 af 2f a6 3f 6e 91 bf 3f e7 60 b2 3f 1b e7 af 3f
       1.2983302 1.4966257 1.3935822 1.3742403
000010 80 74 3b 3f 82 f6 af 3f
       0.7322464 1.3747103

attention_block.layer_norm.bias f4 [6]
000000 54 5b ba bd 4d 59 01 be b2 a5 33 be b8 05 62 be
       -0.09099451 -0.12631722 -0.17543676 -0.22072494
000010 c6 4f c8 3e 30 8a c0 3e
       0.39123362 0.3760543

attention_block.W_k.weight f4 [6, 6]
000000 32 3e 18 bf 7e f7 2f 3f cf 05 17 3e d1 3d b6 be
       -0.594699 0.6873702 0.1474831 -0.35594037
000010 83 33 39 bf e4 3c 80 3f 59 6f 00 3f 09 fa 91 3e
       -0.72344226 1.0018582 0.50169903 0.28511074
000020 42 47 16 c0 5d 55 46 3f 91 99 62 bf 88 db fd 3e
       -2.3480992 0.77474004 -0.88515574 0.49581552
000030 e8 3d 9b 3f e9 85 cb 3e e1 30 13 3f 62 08 0f c0
       1.2128267 0.39750603 0.5749646 -2.2348866
000040 05 51 32 bf b5 18 24 3d de bd 7b bf 9e 01 0f 3f
       -0.69654876 0.040062625 -0.9833659 0.5586184
000050 39 c0 30 3f f7 96 d4 be 39 82 0e be 82 fb 2c 3f
       0.6904331 -0.41521427 -0.13916864 0.6757127
000060 9a 1e 88 3e be 6f df bf 20 a6 45 3f 75 e3 1e 3f
       0.26585847 -1.7455976 0.7720661 0.6206582
000070 5e ee f5 be ad 69 86 3f 29 23 87 3f 4a b1 17 bf
       -0.48033422 1.0501 1.0557605 -0.59254897
000080 ad 8e 11 bf 77 1a 99 3e 29 6b 9e 3e 4d 06 65 bf
       -0.5685833 0.29903004 0.30941132 -0.8946274

attention_block.W_q.weight f4 [6, 6]
000000 86 94 81 3f 66 45 a2 3d 94 69 ee be 54 d4 2b bf
       1.0123451 0.07923393 -0.46564925 -0.6712086
000010 60 57 05 bf c4 1a 81 3f 6d a2 88 bf c4 14 e5 bd
       -0.5208645 1.0086293 -1.0674568 -0.11185601
000020 ad b2 2c 3f 6d 6e 89 bf 48 5a f2 bc c4 90 df 3f
       0.6746014 -1.0736824 -0.029584065 1.7466054
000030 19 2f 41 bc cb e6 12 40 34 99 13 bf 73 e7 2c be
       -0.011791014 2.2953365 -0.57655644 -0.16885166
000040 52 7f 6d be 65 27 4f bf ac 9d 93 3f 4f de 2e be
       -0.231931 -0.80919486 1.1532493 -0.17076991
000050 21 b1 27 bf e5 bf 4e bc 32 07 1a bf e4 d0 1b 3f
       -0.6550465 -0.012618993 -0.6016723 0.60865617
000060 7b d8 83 3f 65 97 67 be b1 65 9d 3f 37 19 62 bf
       1.030044 -0.22616346 1.2296659 -0.88319725
000070 19 94 1f 3d 1d 3f b8 bf 0b 4d 9d bf f7 5e 7c 3e
       0.038959596 -1.4394261 -1.2289137 0.24645601
000080 e8 6e 1a 3f 60 ff 69 3e 89 7c 1b 3f 8c d6 4a bf
       0.6032548 0.22851324 0.607369 -0.7923362

attention_block.W_v.weight f4 [6, 6]
000000 e4 01 95 bc a0 65 55 bd e6 ef 5d 3c 84 1d 2f bd
       -0.018189378 -0.05209887 0.013545966 -0.042752758
000010 6a 3a 5d 3c 4b 36 37 3c 6d b8 b1 3e b7 9f 80 be
       0.0135026965 0.011182378 0.34711018 -0.25121853
000020 c2 99 0a bf 8e 43 25 bf 4c e8 f2 3e a6 97 d0 3e
       -0.54140866 -0.64556205 0.47442853 0.407407
000030 ab 46 c7 be e2 96 03 bd 11 e8 1e 3f a8 a4 9a 3e
       -0.38921103 -0.032126315 0.62072855 0.30203748
000040 0f e3 9b bf 1c d5 52 3e ba 6d c4 bc 63 e7 5e be
       -1.2178668 0.20589107 -0.023978103 -0.21767955
000050 9e 91 81 3f a9 02 02 3f e5 20 e4 bf 7d 03 04 be
       1.0122564 0.5078531 -1.7822539 -0.12891956
000060 15 d4 ef 3b c1 29 0b 3d 22 ac 19 bd 89 41 cb 3d
       0.0073189833 0.033975367 -0.037517674 0.09924609
000070 85 33 f8 3c 43 ed 5f bd 24 85 09 3d 00 07 90 3d
       0.030298004 -0.05466963 0.03357424 0.07032585
000080 f6 c7 2a bc d7 6c ae 3d e3 07 f9 ba fe 84 e9 bc
       -0.010423651 0.08516853 -0.0018999543 -0.028505798

attention_block.W_o.weight f4 [6, 6]
000000 e1 ab 6b 3d e0 81 cf 3e b5 1d 11 be ad a2 16 3e
       0.057536963 0.40528774 -0.14171489 0.14710493
000010 c7 ba 0f bd c4 8e 62 bd ee 56 eb 3b 2e 45 16 bf
       -0.035090234 -0.055311933 0.0071819937 -0.5869931
000020 c8 a1 ba 3d c2 10 32 3f f9 f3 a0 3b 72 18 bb bb
       0.091128886 0.6955682 0.0049118963 -0.005709701
000030 4c e5 e3 bd 3b d6 e4 3e e1 0f 6f bf 01 58 30 be
       -0.11127719 0.44694695 -0.93383604 -0.17221071
000040 12 9d 08 3e 3b ff 67 3e 7a 17 b9 bb 18 c0 90 3e
       0.13341168 0.22655956 -0.0056485506 0.28271556
000050 5c f2 a9 3e dc 8e 21 bb ac f2 7e 3d 98 82 9e 3c
       0.33192718 -0.0024651801 0.06224315 0.019349381
000060 04 52 d7 3b e7 f8 39 be 42 ba 78 bf d9 ea 41 bf
       0.0065710563 -0.18161355 -0.97159207 -0.75748974
000070 57 54 f8 3b 12 cb 0d bd 6d e8 4a 3d 2c 7f 39 bd
       0.0075784135 -0.03461749 0.049538065 -0.045287296
000080 06 6f ee be 6c 39 95 bf a3 69 c7 3c f9 8c 8c bd
       -0.4656908 -1.1658149 0.024342364 -0.06862826

attention_block.W_o.bias f4 [6]
000000 87 ca c1 3f fd a7 d9 bf 7d 10 a5 bf 2b 81 6a 3f
       1.5139931 -1.7004391 -1.2895657 0.91603345
000010 4b e7 90 3f 22 6d ab bf
       1.1320585 -1.339268

attention_block.W_c.weight f4 [115, 115]
000000 ff a8 59 40 bd 54 74 40 a4 91 f1 bd 7f 08 8e 3e
       3.4009397 3.817672 -0.11795357 0.27740857
000010 e7 55 e2 3d 08 bd 31 bd 28 a2 36 3f 42 af 1c be
       0.11051541 -0.043393165 0.7134118 -0.1530123
000020 14 ad 0e 3f 11 45 d7 3f b9 2b 8f bf b4 43 1a 3f
       0.55732846 1.6817952 -1.1185218 0.60259557
000030 3e cf 31 3f c7 cd c2 be bf 5d 4a 3f c5 5e 4a 3f
       0.6945685 -0.3804762 0.79049295 0.79050857
000040 24 5d 4a 3f 28 d6 73 3f ee c8 df bf 06 29 26 bd
       0.7904837 0.9524865 -1.7483194 -0.040566467
000050 dd 01 1e b8 6d 8f 0d 37 29 e9 4f b7 82 ea 51 38
       -3.767187e-05 8.437649e-06 -1.2392448e-05 5.0047885e-05
000060 78 11 61 38 6b 07 cd b7 82 35 95 36 60 24 6c b7
       5.366045e-05 -2.4441359e-05 4.446775e-06 -1.4075165e-05
000070 46 b1 a1 35 6a 2d 43 b7 10 fd 0f b8 ac f9 b6 37
       1.2047028e-06 -1.16334795e-05 -3.432954e-05 2.1812353e-05
000080 60 d6 05 36 66 b8 33 b8 0e f0 74 b8 84 b0 16 b8
       1.9943327e-06 -4.284866e-05 -5.83977e-05 -3.592718e-05
000090 b5 29 46 38 c0 87 85 38 7a eb 45 b7 09 fd a4 b5
       4.724572e-05 6.3672196e-05 -1.1796941e-05 -1.2292595e-06
0000a0 9a 6b aa b7 82 c4 41 b8 a8 ec 27 b7 af 55 19 38
       -2.0315685e-05 -4.6197798e-05 -1.00090765e-05 3.655784e-05
0000b0 cb 95 2e 37 48 d7 04 b8 1e 53 75 b7 c8 ad a7 b7
       1.0406085e-05 -3.167175e-05 -1.462249e-05 -1.9988875e-05
0000c0 a0 db 18 b7 b3 39 15 b7 b7 a8 14 b5 f7 4f a8 35
       -9.111041e-06 -8.894526e-06 -5.537981e-07 1.2540248e-06
0000d0 36 5b ab b7 c9 3a 0f b8 43 55 0f b8 4c 82 ac 38
       -2.0427262e-05 -3.4148605e-05 -3.4173263e-05 8.225869e-05
0000e0 b5 a6 4d b6 be b8 25 38 b3 38 14 b7 73 fe 21 38
       -3.0644417e-06 3.951112e-05 -8.834689e-06 3.8622366e-05
0000f0 ec 1a 1e 37 a9 23 85 b7 2e 81 5e b7 6d 45 50 37
       9.423802e-06 -1.5871441e-05 -1.3262308e-05 1.2413931e-05
000100 52 d4 01 b6 55 09 8e b7 92 bb 76 37 82 aa 1b b8
       -1.9346085e-06 -1.6932065e-05 1.4706415e-05 -3.7113678e-05
000110 4f 2d c6 37 b1 62 0a b7 ab f0 d1 37 65 54 02 38
       2.3624538e-05 -8.248419e-06 2.5026811e-05 3.1073014e-05
000120 0b 2f 06 38 02 f1 3b b7 f1 05 01 b8 85 d6 2f b7
       3.19919e-05 -1.1202183e-05 -3.076153e-05 -1.048076e-05
000130 5c 0e 6a b8 50 22 aa b7 26 42 ed b7 37 f3 c1 37
       -5.580332e-05 -2.0281557e-05 -2.8283404e-05 2.3120649e-05
000140 36 ca 36 b7 18 d2 84 36 88 c8 4b 36 4b 09 d1 36
       -1.0895126e-05 3.9583647e-06 3.0366082e-06 6.229767e-06
000150 3d 12 74 b5 d6 2e da 37 d1 1b 46 b8 20 0b 13 37
       -9.0923623e-07 2.6009435e-05 -4.7232785e-05 8.764473e-06
000160 2f cd dc 36 18 79 7d 37 39 8d 77 37 81 ae 47 37
       6.5803974e-06 1.51081695e-05 1.4755228e-05 1.1901954e-05
000170 0c 1f 16 b8 10 bf dd 37 85 fb dc b7 a2 3f 12 b8
       -3.57917e-05 2.6434223e-05 -2.6343167e-05 -3.4868375e-05
000180 6f 74 53 38 80 a6 02 37 12 1d ec 36 ce 24 40 37
       5.0414757e-05 7.78737e-06 7.0367323e-06 1.1452661e-05
000190 07 13 65 37 de 1a 2f b5 45 46 6d b7 81 56 9e b7
       1.3653894e-05 -6.5231677e-07 -1.4142662e-05 -1.887535e-05
0001a0 86 14 92 b6 87 54 a8 35 70 b4 df 36 2e 95 39 b8
       -4.3535283e-06 1.2541576e-06 6.6669236e-06 -4.424637e-05
0001b0 86 b8 54 b7 cf 9b df 37 65 f2 1b 36 ae 56 6c 37
       -1.2679147e-05 2.6656226e-05 2.3237892e-06 1.4086878e-05
0001c0 60 52 2a b7 da f2 14 38 a3 2a a7 b5 52 7d 9f 3e
       -1.0151969e-05 3.5512123e-05 -1.2454879e-06 0.311503
0001d0 51 e8 38 be 70 ec 72 bd 7d 95 a8 bd a5 e5 24 3d
       -0.18057372 -0.059307516 -0.082316376 0.04025807
0001e0 30 16 00 3f 12 8b 17 be f3 f7 08 3f 33 8a cf 3e
       0.50033855 -0.14799145 0.5350334 0.40535125
0001f0 e3 76 8e 3e e3 15 5b 3e ee d2 b8 3d 64 17 c9 3e
       0.27825078 0.21395068 0.09024607 0.39275658
000200 c7 54 a6 3d 9e 9c 63 3e 1e 94 63 3e e6 9e 63 3e
       0.08121639 0.22227713 0.22224471 0.22228584
000210 b3 3c 4e be c6 a3 a2 3f 0e fd 85 3e 36 03 93 35
       -0.20140342 1.270623 0.26169628 1.0953288e-06
000220 60 7c 90 37 ad 7d b4 b7 3d dd 21 b8 1d 25 20 37
       1.7224054e-05 -2.1516194e-05 -3.8591435e-05 9.545384e-06
000230 61 9d a6 b6 b8 48 2b 38 f2 fd 2e 37 82 38 46 37
       -4.965507e-06 4.08373e-05 1.0430334e-05 1.1814876e-05
000240 e3 df 26 38 06 0b d7 b7 f1 6b ac b8 58 32 97 36
       3.9785995e-05 -2.563513e-05 -8.221705e-05 4.5060115e-06
000250 55 b1 12 37 2d 9a 81 b7 53 31 2f b8 fb 1d ea 37
       8.7435665e-06 -1.5449792e-05 -4.1769188e-05 2.7908934e-05
000260 f5 47 a9 37 a1 12 8c 34 47 ab f1 b7 9c dd 6c 38
       2.0179878e-05 2.6090586e-07 -2.8809196e-05 5.6473174e-05
000270 29 97 b5 35 77 bb af b7 1c 37 d7 b7 d7 7f 6b b8
       1.3529544e-06 -2.094892e-05 -2.565566e-05 -5.6147426e-05
000280 a3 ce 94 b7 06 24 7b 37 17 d7 ec b7 fa be 07 b8
       -1.7739198e-05 1.4969153e-05 -2.8233551e-05 -3.236437e-05
000290 f0 86 dc 37 a4 72 88 38 49 b9 b5 36 aa 81 22 b8
       2.6288879e-05 6.506339e-05 5.4157904e-06 -3.874457e-05
0002a0 86 cc 84 38 d7 55 2d b8 5a 1c ea 36 f0 70 27 b8
       6.332346e-05 -4.132636e-05 6.977044e-06 -3.9921084e-05
0002b0 b6 4f 9d 37 d8 03 27 37 e6 99 4e b7 a7 4e 23 b7
       1.8752977e-05 9.954871e-06 -1.2314389e-05 -9.73387e-06
0002c0 48 d7 fa b7 a5 64 2d b6 95 9e 1a 37 10 b9 e2 36
       -2.990257e-05 -2.5837592e-06 9.216038e-06 6.756869e-06
0002d0 27 1e 94 37 b4 0a 0f b8 41 49 a5 37 25 25 f1 b6
       1.7657016e-05 -3.4103825e-05 1.9703644e-05 -7.186684e-06
0002e0 e6 1b 44 b7 c6 b2 cc 37 a2 3a 99 37 0e e6 fd b6
       -1.1689006e-05 2.4401943e-05 1.8266324e-05 -7.5667695e-06
0002f0 49 a0 15 b7 f0 d9 54 b7 e2 db c3 37 06 00 44 38
       -8.918411e-06 -1.2686927e-05 2.3348202e-05 4.6730063e-05
000300 9a ed e4 b6 be dc 27 36 2d 94 ff b7 c2 8b 09 b8
       -6.82259e-06 2.5013428e-06 -3.0467369e-05 -3.2793505e-05
000310 c2 49 05 38 08 d2 3e b8 4c 73 8f 34 e9 d9 9e 36
       3.1778363e-05 -4.5495137e-05 2.6719715e-07 4.734135e-06
000320 13 ff 9c b7 7a 1e 77 38 fb 3b 06 37 da ae 74 b7
       -1.8715427e-05 5.8917773e-05 8.000988e-06 -1.4584244e-05
000330 ad 67 59 36 05 cf 10 b8 3f 9d 0e 37 f6 e4 f0 37
       3.2395867e-06 -3.4525077e-05 8.500471e-06 2.8716848e-05
000340 6c 9d ad 34 6d 4c 89 37 00 82 56 b7 91 32 6d b7
       3.23383e-07 1.6367261e-05 -1.2785662e-05 -1.4138074e-05
000350 9b 66 06 b7 82 6d 91 b7 5d a5 0d 38 8b 30 72 36
       -8.010912e-06 -1.733634e-05 3.3771026e-05 3.6089066e-06
000360 b1 a6 fa b7 b3 d8 2a b7 ac 44 fa b7 42 fe 42 38
       -2.9879944e-05 -1.0183244e-05 -2.98343e-05 4.649e-05
000370 33 1d cb 37 b7 dc 63 38 e9 f7 ec 37 ed 8c 4c 37
       2.4213083e-05 5.4326574e-05 2.8248834e-05 1.2192159e-05
000380 88 16 cb 36 f6 5f 38 37 e8 78 3b 38 67 03 b8 b6
       6.0524944e-06 1.0989597e-05 4.4696877e-05 -5.4840234e-06
000390 f8 8b 9d b7 47 13 89 37 54 37 58 bf 7d 1b b5 bf
       -1.8781036e-05 1.634065e-05 -0.84459424 -1.4149014
0003a0 6e ab c3 bb 54 83 1d 3d 10 9a d6 bd 90 f7 7d bd
       -0.0059713637 0.038455322 -0.10478604 -0.062003672
0003b0 bf 9a 08 bf 41 6d dc 3e 3a 55 21 bd b2 81 c0 be
       -0.53361124 0.43052104 -0.03938792 -0.3759895
0003c0 d0 fc 35 be 11 1e 75 3e 61 e0 93 bd 60 ba 14 bd
       -0.17772222 0.2393725 -0.07220531 -0.036310554
0003d0 e6 14 b1 3d 78 21 b1 3d 8e 16 b1 3d 1a 4e 27 3d
       0.08646564 0.08648962 0.0864688 0.040845968
0003e0 7f 1d dd 3e 13 4c 8d 3d a7 35 0d 36 61 4a d4 37
       0.43186566 0.06899276 2.1041867e-06 2.5307005e-05
0003f0 fa 12 33 b7 de 72 6a b8 89 57 9e b6 82 ee 07 38
       -1.067365e-05 -5.5896926e-05 -4.7189574e-06 3.2408636e-05

attention_block.W_c.bias f4 [115]
000000 49 87 49 3f d0 82 63 3e 86 21 b1 3d 76 72 cd 3d
       0.78722054 0.2221787 0.08648972 0.10031597
000010 77 9b 3e 3e 59 a8 6c 3f 9d 20 f7 3e d4 c7 3e 3f
       0.18613993 0.9244438 0.4826707 0.74523664
000020 b6 47 39 3f c9 4a ab 3d f1 1e 67 3f df 17 70 3d
       0.7237505 0.083638735 0.9028159 0.058616515
000030 a6 e8 71 3d e8 c5 20 3e 96 e7 da 3d 63 d8 c9 bc
       0.05905976 0.15700495 0.10688703 -0.024639314
000040 d2 0f ff 3d 73 2f bd 3c 12 7a 93 3d 44 38 17 3c
       0.12454189 0.023093915 0.072010174 0.009229723
000050 ac 5f e8 3c 99 99 78 3d 75 6e 2a bd ee cb 9e be
       0.028365932 0.060693357 -0.041609246 -0.3101496
000060 48 5b a5 3e 6e 59 2a bd b5 6c 48 3e a2 b6 e3 3d
       0.32296205 -0.041589193 0.19572718 0.11118819
000070 37 20 0e 3e 64 f7 bb 3e ac 8f 9e be ec b7 e1 3d
       0.13879476 0.36712182 -0.30968988 0.110214084
000080 69 50 fe bc 84 b5 5a 3d 1e d4 ba 3d 63 1e 14 3e
       -0.031044202 0.053395763 0.091224894 0.14464717
000090 8c 43 55 3e 73 c5 ae bd fe ef bb 3e 81 cb 06 3e
       0.20826548 -0.08533754 0.36706537 0.13163568
0000a0 24 68 f3 3d 29 6b 19 bd ce 6a f1 be df 65 67 be
       0.118850976 -0.03745571 -0.47151798 -0.22597454
0000b0 fc 47 95 3d 67 d8 d6 3d 60 25 e3 3d 17 cc 2d 3e
       0.072891206 0.10490494 0.11091113 0.16972385
0000c0 fd 25 d7 3c da 37 bf 3d b7 1e 29 3d 08 0b 41 3c
       0.026263231 0.09336825 0.041289058 0.011782415
0000d0 ae bf f0 3d ae 88 d4 3d fb 4f c7 bd 78 1c 3e bd
       0.1175531 0.10377632 -0.09732052 -0.04641387
0000e0 51 f7 bf 3d e9 ca cb bc 2e 75 40 3e 15 14 fa 3d
       0.09373344 -0.024877029 0.187947 0.122108616
0000f0 00 a7 8a 3f 52 39 10 bd 44 85 03 be b9 b1 c9 bd
       1.0832214 -0.035210915 -0.12843806 -0.09848351
000100 e8 f1 d0 bd d2 f4 f1 3d 78 4f 84 be 7f 7b 80 bd
       -0.1020239 0.11814274 -0.2584188 -0.06273555
000110 17 d9 08 3d 65 c0 f6 3d 41 d9 45 3e ce 98 2e 3d
       0.033410158 0.12048415 0.19321157 0.042626195
000120 b7 c3 b9 bd 1c bf 1f be bf 68 c5 3d 8e 90 e0 bd
       -0.09070533 -0.15600246 0.09639119 -0.109650716
000130 6b ee f2 bc 9a 4b 87 bb 16 48 95 3e c4 1d 52 3e
       -0.029654702 -0.0041288855 0.2915656 0.20519167
000140 94 06 34 be bb 35 41 3e 67 5a 7b bc 52 16 f2 bc
       -0.17580634 0.18868153 -0.015341378 -0.029551659
000150 a2 62 21 3d 33 db 1b be b0 39 d5 3d 2a 95 99 3d
       0.039400704 -0.15220337 0.10411394 0.07499154
000160 78 54 10 3d c4 79 80 be 66 c7 b8 3d 4a 5b 13 3f
       0.035236806 -0.250929 0.09022407 0.5756117
000170 11 70 87 bd 76 69 cb 3e d2 6a b4 bc 14 22 87 bd
       -0.06613172 0.39728898 -0.022023592 -0.06598297
000180 8e 33 6f bd 5a 6d 01 be 42 7b 0e 3f 7d 0c bb 3b
       -0.058398776 -0.1263937 0.55656826 0.005708276
000190 fc ad 3a bd 75 74 0c 3e 9e 30 dd 3e a3 62 9a bd
       -0.04557608 0.137163 0.43201154 -0.07538345
0001a0 7b 69 90 3f b5 51 65 3f 9f 9b f3 bc aa 5f c8 3e
       1.128219 0.895778 -0.029737292 0.39135486
0001b0 84 46 d3 3d 6a 40 00 bd 46 9c 7f 3d 77 33 96 bd
       0.10316184 -0.03131143 0.062404893 -0.07334035
0001c0 37 2d d6 3d b0 87 6b 3e f1 4c fb 3d
       0.10457843 0.2300098 0.12270535

feedforward_block.layer_norm.weight f4 [7]
000000 ed 47 e5 3f 95 1e 25 40 33 9c 92 3f 5d af ab 3f
       1.7912575 2.5799916 1.1453918 1.3412892
000010 e3 74 ce 3f b7 26 ae 3f 69 bc c7 3d
       1.6129421 1.3605565 0.09752733

feedforward_block.layer_norm.bias f4 [7]
000000 56 56 b1 be b0 50 07 3f 9a b3 fd 3e 78 91 d1 be
       -0.34636182 0.52857494 0.49551088 -0.40931296
000010 67 17 88 be 4f c3 21 3f d8 af 80 be
       -0.26580355 0.6318864 -0.25134158

feedforward_block.linear_layer_1.weight f4 [35, 7]
000000 c3 f4 9a 36 4c 93 d6 38 2f 96 04 38 59 a5 e5 b7
       4.6180517e-06 0.000102317514 3.161112e-05 -2.7375923e-05
000010 7e 75 91 37 f0 14 21 38 62 8d 4a 38 b2 ac 71 3e
       1.7340059e-05 3.840489e-05 4.8292226e-05 0.23601034
000020 37 74 15 3f ca 47 58 3f aa 5d 12 3f 76 74 6a 3f
       0.58380455 0.8448454 0.5717417 0.91583955
000030 4a 5e 32 3f b8 ce c3 be 60 40 75 3e 1a 3b d7 3f
       0.69675124 -0.3824365 0.23950338 1.6814911
000040 5c 41 95 3f 32 5b 29 bf 3e 0f 1c 3f a8 17 09 3f
       1.1660571 -0.6615478 0.6096076 0.5355172
000050 9a 44 54 be 19 9a 66 3e 30 8f 17 40 53 07 3c 3f
       -0.20729294 0.22519721 2.3681145 0.73448676
000060 a2 fd 7b 3f f1 37 e3 be 93 df a6 3e e7 3d 81 3d
       0.9843389 -0.44378617 0.3259245 0.06310635
000070 bf 73 a2 bf 15 72 dd 3e ea 92 4e 3d c8 9d 0c bf
       -1.2691573 0.432511 0.050433077 -0.54928255
000080 a3 eb 26 bf f0 07 c1 3a 46 d9 2c 3e cc 6f a0 bf
       -0.65203303 0.0014727097 0.16879758 -1.2534118
000090 0b 72 e6 3d f3 c2 8d be 6f 99 2a bf 6d 5d 88 bf
       0.11252221 -0.27687797 -0.6664037 -1.0653511
0000a0 54 ed 54 3f 47 89 d4 3e 88 43 a5 3e 4c d3 60 3f
       0.83174634 0.41510984 0.32278085 0.87822413
0000b0 36 63 8b 3f da 52 7d bd 0c 7c bb 3e ad 10 7b 3f
       1.0889652 -0.06184659 0.36618078 0.9807232
0000c0 18 f1 9b be 8a ec 52 bf c4 3c 25 be 80 39 97 be
       -0.30457377 -0.8239218 -0.16136461 -0.29536057
0000d0 21 4c 98 bf 3c fa ba bd 83 92 ae be a2 52 2d bf
       -1.1898233 -0.0912976 -0.34096155 -0.6770421
0000e0 2b a1 e3 ba 39 8d 2a 3a f0 32 9b 3a b3 02 cb 39
       -0.0017366757 0.0006506029 0.0011840742 0.00038721188
0000f0 1f 29 4a ba 5f fe e4 ba a3 6c 5b b9 c7 ab 62 3f
       -0.0007711816 -0.0017470828 -0.00020925938 0.8854336
000100 e1 80 aa 3f 6f f4 cb be 41 dd fc 3e 58 e4 2d bf
       1.3320581 -0.39834926 0.49387553 -0.6792655
000110 d8 63 34 bf 46 32 3a 3e 56 ca b6 3e 0a a2 9f 3f
       -0.7046485 0.1818324 0.35701245 1.2471325
000120 b8 66 95 3f 6c b3 d8 be 37 4f 08 3f 6c 4c 25 3f
       1.1671972 -0.42324388 0.5324587 0.64569736
000130 28 20 7b be 03 9a 94 bf ef b5 c6 3e 31 74 84 bd
       -0.24523985 -1.1609501 0.3881068 -0.06467474
000140 38 88 03 bf 17 75 98 bf d9 75 4f 3f ac 60 2d 3f
       -0.5137973 -1.1910733 0.81039196 0.67725635
000150 83 f8 07 39 e4 26 a6 38 6e 29 83 39 2b 98 1f ba
       0.00012967181 7.922741e-05 0.00025017135 -0.00060880434
000160 cc b7 73 b9 ae a8 0e 39 7f f3 1f 38 56 b5 19 bf
       -0.00023242756 0.00013605013 3.8135327e-05 -0.6004232
000170 19 10 9c 3d de dc b1 3e 94 81 49 bf 11 a2 1f bf
       0.07620258 0.3473882 -0.78713346 -0.6235667
000180 82 f3 58 bf 12 b7 6f bf 74 b3 23 3e 60 2d 06 40
       -0.84746563 -0.9363872 0.15986425 2.0965195
000190 c6 c8 7e 3f 39 be 1d bf 83 18 0c 3f bc 21 21 3f
       0.99525106 -0.6161838 0.547249 0.629421
0001a0 94 8b 1e be 2a 71 1b 3e 62 bb 4b 3e e3 47 c4 3f
       -0.15482932 0.15179887 0.198957 1.5334438
0001b0 3a 11 fa 3e 2e 55 53 3f c2 d9 5c 3f 3a aa e0 be
       0.48841268 0.8255185 0.8626977 -0.43879873
0001c0 8c 6f 8f b7 29 95 d9 37 6d bb 0f 37 f2 11 95 b7
       -1.7098871e-05 2.5937874e-05 8.567103e-06 -1.777054e-05
0001d0 d2 df 32 37 e6 74 49 b8 a5 07 7d 37 b5 8c d9 be
       1.0661739e-05 -4.8031005e-05 1.5081755e-05 -0.42490163
0001e0 a2 5f 27 40 b6 63 97 bf 1f bf d9 3d 1c bb 71 be
       2.615212 -1.1827304 0.106321566 -0.23606533
0001f0 f9 03 08 c0 48 2b a5 3e e5 fa f3 3e 14 75 d9 3e
       -2.1252425 0.32259583 0.47652355 0.42472136
000200 ff 2e 24 be 19 fc 95 3f 43 e0 ca 3d 08 44 05 3f
       -0.16033553 1.1717559 0.09906056 0.5205693
000210 cf 60 e1 bd 6a 8e 83 3e 42 df 1a 40 7f 9c 25 3f
       -0.11004793 0.2569459 2.4198766 0.6469192
000220 33 4a 5a 3f 75 87 85 be 80 55 c6 3e 75 63 cf 3c
       0.8526947 -0.26079908 0.38737106 0.02531598
000230 2e ce 9d bf f5 46 53 3e 4f e4 47 be e1 07 03 bf
       -1.2328546 0.20632537 -0.19520687 -0.511839
000240 91 4e 97 bf 42 13 64 3f ad 5a fe 3e de 48 ae bb
       -1.1820852 0.89091885 0.49678555 -0.005318745
000250 0f 33 30 3e 99 51 23 3d 9b 48 4d bc fb a4 b2 bc
       0.17206977 0.03987274 -0.0125295175 -0.021807184
000260 33 2b 9e bc 77 e1 74 3d aa ad b2 bf e7 f7 5f 3f
       -0.019307708 0.059785333 -1.3959248 0.87487644
000270 b1 8b 17 3f 88 37 f9 3f 74 12 0b 40 fd 06 d6 bf
       0.5919753 1.9470072 2.1730013 -1.6720883
000280 3e 64 ee 3c c7 fc 91 3e 29 19 17 40 7c 1a 67 3f
       0.029100534 0.28513166 2.3609107 0.90274787
000290 21 16 e3 3d e3 f9 51 3e fe 01 f2 3e 13 6f a9 bd
       0.11088205 0.2050548 0.47267145 -0.08273139
0002a0 50 e6 e5 b9 cb 1d 38 39 d4 48 91 38 2b 87 2f 39
       -0.0004384988 0.00017558706 6.927704e-05 0.00016739655
0002b0 03 5f e1 38 60 96 92 39 a0 27 14 b9 ce 9f 44 bf
       0.000107465334 0.00027959328 -0.00014129141 -0.7680634
0002c0 9a 55 f2 be f0 05 c2 be f0 54 30 bf b6 f4 4f be
       -0.47330934 -0.37895155 -0.68879604 -0.20308194
0002d0 0e 17 28 bf aa 29 6b bf 24 42 94 bf 21 20 11 bc
       -0.6566018 -0.9186045 -1.1582685 -0.008857758
0002e0 4c b8 8e be 59 fb 42 bf fa 9b 86 bf 92 45 16 3f
       -0.27874982 -0.76164776 -1.051635 0.58699906
0002f0 5b e7 f8 3c cc 31 a3 bf e0 40 bf 3e 85 8d 6e be
       0.030383756 -1.2749572 0.37354183 -0.23296173
000300 30 02 2d bf 0d b4 f9 be 13 11 8c 3e 8d 22 a7 3e
       -0.6758146 -0.4877018 0.27356777 0.32643548
000310 f4 6b 9d bf 06 00 b7 be 52 ed d7 be 8b 5a 86 be
       -1.229857 -0.35742205 -0.4217325 -0.26240954
000320 53 78 36 bf cb 4b b3 be a0 b8 3e bf b7 1b da 3e
       -0.7127735 -0.35018763 -0.74500465 0.4259927
000330 da c2 ab 3f fe b1 af be 89 a8 8f 3e b2 2f 74 bf
       1.3418839 -0.34315485 0.2805827 -0.9538528
000340 a0 83 04 c0 f4 d3 a3 3e dc d4 7b 36 cd 36 60 37
       -2.0705338 0.31997645 3.7525815e-06 1.33642e-05
000350 a7 33 1b 38 e6 6b 75 b7 41 ba 2a b6 c4 41 0b b8
       3.7002985e-05 -1.462826e-05 -2.5440388e-06 -3.320143e-05
000360 0f 3b 93 36 45 48 5f b9 a5 a2 1a 3a ff ba a1 39
       4.3878167e-06 -0.0002129386 0.000589887 0.00030847636
000370 c6 c1 9f b9 2e 87 0a ba 53 17 7d 38 eb 13 64 b8
       -0.00030471216 -0.00052844256 6.0341623e-05 -5.4377986e-05
000380 34 8d ab 35 9c d3 15 38 5e 3d 6d 38 0d 62 9a 36
       1.2781588e-06 3.5721445e-05 5.6562356e-05 4.6009723e-06
000390 66 6f ab b7 1f 33 99 b7 db 4e 6f b7 73 30 9e bf
       -2.0436662e-05 -1.8262826e-05 -1.426387e-05 -1.2358536
0003a0 9b 38 d4 3e 0e 3b 2b 3e f5 67 00 bf af b0 45 bf
       0.41449437 0.16721746 -0.50158626 -0.7722272
0003b0 f1 05 a9 bd 64 53 5a 3e 0a 73 26 3f 60 60 3e 3f
       -0.08253086 0.21320873 0.65019286 0.74365807
0003c0 cd 31 c4 be 7e 10 af 3f 6d 7d 11 bf 04 e1 94 be
       -0.38319245 1.3676908 -0.5683201 -0.29077923
0003d0 7f ed 00 3e
       0.12590598

feedforward_block.linear_layer_1.bias f4 [35]
000000 78 3e 62 b9 0c 8f 38 3f 3c 0c 1e 3f 8c 0d fb 3d
       -0.00021576311 0.7209327 0.6173742 0.12258443
000010 b3 4f ed 3e b3 3e f7 3e 1f 4f 23 3f bc a0 66 3f
       0.46349868 0.48290023 0.63792604 0.9008901
000020 4a 5c 67 bb 62 c2 0a 3f 17 ea 26 3f 93 6c 50 3e
       -0.0035302811 0.54202855 0.6520094 0.20353918
000030 37 d9 25 bb 08 04 1d 3f cb d6 f7 3e d8 34 fd 3e
       -0.0025306472 0.61334276 0.48406062 0.4945438
000040 4c bc 4a b9 92 8c c7 bd 29 ee 7b 3f 42 66 77 3e
       -0.00019334367 -0.097436085 0.9841028 0.24160102
000050 0f 74 b0 3e f6 ef 74 be b4 57 98 bf 8a 15 b8 3e
       0.34463546 -0.23919663 -1.1901765 0.35953933
000060 33 d8 16 bb 7d 1b 78 3f 53 ff 2d 3f ba b3 fb 3e
       -0.0023017048 0.96916944 0.6796772 0.49160558
000070 c6 7b 54 3f 24 39 37 be f2 52 33 b9 0d 7d d1 ba
       0.83001363 -0.17892891 -0.0001710167 -0.0015982703
000080 7d 4b 34 b9 56 eb e6 3e 2c 72 a9 bf
       -0.00017194259 0.45101422 -1.3237967

feedforward_block.linear_layer_2.weight f4 [7, 35]
000000 3a a2 fc b6 da 5d a5 37 37 86 de b7 d1 81 a6 b6
       -7.529071e-06 1.9713236e-05 -2.6526961e-05 -4.962298e-06
000010 47 9a db 36 41 5e 6d b8 d2 af 92 38 86 e7 46 37
       6.544669e-06 -5.6592984e-05 6.9945716e-05 1.1855625e-05
000020 83 e8 35 b7 cd 6d b9 b6 44 fb a9 b6 bf d9 10 38
       -1.0842577e-05 -5.526212e-06 -5.0658437e-06 3.4535067e-05
000030 56 00 2e b7 40 52 c1 b7 d9 2f 3a b7 f8 66 af 37
       -1.0371286e-05 -2.3045694e-05 -1.1097604e-05 2.0909574e-05
000040 fa 55 bf b7 7b ee d9 b7 bd 73 28 37 e0 67 2d 38
       -2.280901e-05 -2.5979467e-05 1.0040528e-05 4.1343155e-05
000050 12 d2 8a b7 fe ec c0 37 e0 7d c8 b7 ab e3 c9 35
       -1.6548704e-05 2.2998542e-05 -2.3900473e-05 1.5041927e-06
000060 34 10 2b b7 5e bf 5c 37 b3 2a 6a b8 80 26 cc 37
       -1.0196167e-05 1.3157578e-05 -5.5829714e-05 2.4336623e-05
000070 94 7a 37 b8 25 7e a3 37 d4 3f e1 b7 48 2c 92 37
       -4.374476e-05 1.9489855e-05 -2.6851812e-05 1.7425176e-05
000080 02 af 17 b8 34 23 2e b8 0c 23 1b b6 6f ef a1 37
       -3.6164194e-05 -4.151762e-05 -2.31172e-06 1.930419e-05
000090 5c 9e b7 b7 02 a2 5a b7 a4 3a ec b7 95 8b af 35
       -2.1889042e-05 -1.3031533e-05 -2.8160699e-05 1.307914e-06
0000a0 b0 4d 4a 38 0b d9 1d 38 83 97 b8 b7 01 e9 b9 36
       4.8232905e-05 3.7633854e-05 -2.2005062e-05 5.540555e-06
0000b0 a0 28 8e 37 3f d7 2d b8 dc d7 0c b8 89 59 e5 b7
       1.6946637e-05 -4.1446878e-05 -3.3579636e-05 -2.734062e-05
0000c0 33 6e a1 b7 f9 ae 2f b8 72 1e ae 37 38 8b 09 37
       -1.9244011e-05 -4.1886207e-05 2.0756594e-05 8.198251e-06
0000d0 3d b5 5a b8 84 d8 8d 37 9b fb d6 b7 23 61 f4 37
       -5.214404e-05 1.6909333e-05 -2.562795e-05 2.91323e-05
0000e0 77 38 8a 36 14 8e cf b6 b5 d3 e2 36 d1 fc 22 b8
       4.119294e-06 -6.185621e-06 6.759971e-06 -3.8859263e-05
0000f0 d4 a3 94 b6 74 2c 06 b7 66 50 12 37 2d 82 4f b6
       -4.429816e-06 -7.997372e-06 8.720997e-06 -3.0921176e-06
000100 f0 8a 6f 37 ff 41 65 b7 76 9b d1 36 bc c0 21 b8
       1.4277859e-05 -1.366483e-05 6.2467834e-06 -3.856489e-05
000110 77 7a b9 b7 3f 82 87 38 1f 0b 21 37 4b 30 03 b8
       -2.2110746e-05 6.461562e-05 9.598937e-06 -3.127781e-05
000120 2c 97 20 38 26 2d 30 b8 1b e8 05 b7 fe a9 5d 37
       3.8287762e-05 -4.2003718e-05 -7.981459e-06 1.3212206e-05
000130 94 90 a1 38 a8 12 5f 37 da df 48 b7 02 38 5e 38
       7.704008e-05 1.32961795e-05 -1.19730485e-05 5.2981086e-05
000140 69 36 4c b7 71 c0 29 38 49 ae b7 36 44 ef 15 38
       -1.2172016e-05 4.0471965e-05 5.4741145e-06 3.57472e-05
000150 98 f9 3d b8 20 38 43 b7 ee 10 81 36 57 80 7a b6
       -4.5293564e-05 -1.1635973e-05 3.8464705e-06 -3.7327607e-06
000160 59 a8 2c 37 0a cf d2 37 f5 0f 4c b8 0a e0 30 37
       1.0291195e-05 2.513036e-05 -4.865225e-05 1.0542581e-05
000170 67 22 22 37 18 09 ab b6 35 ec 71 35 4a bc 0a b7
       9.663962e-06 -5.097256e-06 9.012322e-07 -8.26928e-06
000180 88 5d 08 37 ec b4 40 b8 a2 81 97 37 a9 70 b2 b7
       8.128009e-06 -4.5944864e-05 1.8060968e-05 -2.1271715e-05
000190 d0 86 87 b6 9c e8 8b 37 67 b4 d5 37 5b 6f 64 38
       -4.0390078e-06 1.6678408e-05 2.5475585e-05 5.4463144e-05
0001a0 3d 7c b9 b7 47 64 69 38 a6 81 61 b8 da 9f c0 b7
       -2.2111572e-05 5.564492e-05 -5.3764925e-05 -2.296262e-05
0001b0 50 68 6c b7 20 d8 2b 38 d0 04 9e b7 f5 4c 5c 38
       -1.4090983e-05 4.097086e-05 -1.8837309e-05 5.252376e-05
0001c0 a0 97 19 b8 65 de 2e 38 9c 2d 0e b8 d6 03 07 b7
       -3.6619254e-05 4.1691954e-05 -3.3897915e-05 -8.04752e-06
0001d0 73 12 88 b7 81 2f 2d 37 95 78 3e b7 16 0d 45 b8
       -1.6221054e-05 1.0322664e-05 -1.1352958e-05 -4.6980647e-05
0001e0 4c 6d 15 b8 ca 5e e4 37 a8 31 95 b5 82 9a 52 b8
       -3.562616e-05 2.7223858e-05 -1.1115817e-06 -5.02118e-05
0001f0 25 d8 aa b7 e7 86 2b 38 c6 85 e7 b7 b8 31 b1 37
       -2.036623e-05 4.0895215e-05 -2.7599639e-05 2.1123196e-05
000200 f6 8f 06 38 80 29 95 b7 b2 77 4a b7 19 ba 11 38
       3.2082164e-05 -1.7781509e-05 -1.2068007e-05 3.474401e-05
000210 ee 8b 9e b6 57 28 dc 37 ef 73 c8 b6 0b 65 16 b8
       -4.725057e-06 2.6244828e-05 -5.973961e-06 -3.585689e-05
000220 1d d4 f3 37 13 de e6 b7 fe 44 52 b5 5f 4e 40 38
       2.906663e-05 -2.7521548e-05 -7.8331493e-07 4.5849356e-05
000230 e2 6d b4 37 b5 a9 04 b8 79 22 3a b5 53 87 db 37
       2.150884e-05 -3.1629304e-05 -6.9340564e-07 2.616985e-05
000240 c7 97 41 37 48 1e 25 37 da ac 3e b8 2c f0 83 38
       1.1539035e-05 9.841817e-06 -4.546051e-05 6.291302e-05
000250 67 69 ad 37 a6 8d 3b 36 40 d0 a9 37 25 49 03 36
       2.0672289e-05 2.7947622e-06 2.0243344e-05 1.9563097e-06
000260 94 3b 13 38 2f bc 4a b7 fe 39 06 b8 b4 44 22 b8
       3.5103018e-05 -1.2083953e-05 -3.20021e-05 -3.8687795e-05
000270 a9 bc fc b5 fd 49 41 b8 2b a5 13 38 76 c5 28 b8
       -1.883037e-06 -4.6083693e-05 3.5201356e-05 -4.023822e-05
000280 4a ea 6e 37 50 52 04 37 b6 87 df b6 7e 8d 3f 35
       1.4240455e-05 7.886978e-06 -6.6617167e-06 7.1358943e-07
000290 6f c9 8c 37 5d 61 31 37 54 21 28 b6 8d e0 64 37
       1.67831e-05 1.0572691e-05 -2.505335e-06 1.3642141e-05
0002a0 23 29 f2 37 2b c9 6a 38 8e 9f f5 b7 13 52 11 b7
       2.8867804e-05 5.59773e-05 -2.9280574e-05 -8.661783e-06
0002b0 71 21 fd 37 9a d6 4b b7 9c a4 71 37 19 e4 97 b7
       3.0175523e-05 -1.2149709e-05 1.44030455e-05 -1.8106819e-05
0002c0 93 b0 86 b7 64 c6 21 37 95 67 f8 b6 08 bd 06 37
       -1.6056269e-05 9.642539e-06 -7.4030345e-06 8.031035e-06
0002d0 f0 3d f4 b7 de 0f 94 37 c5 07 37 36 e8 5b a0 b7
       -2.9115909e-05 1.7650364e-05 2.7273647e-06 -1.9116284e-05
0002e0 42 3d 58 b8 06 40 03 b8 07 98 45 b7 31 5e 1c b8
       -5.1555464e-05 -3.129246e-05 -1.1777512e-05 -3.728102e-05
0002f0 26 94 e3 b6 9e 9e 61 37 20 2a 7b 35 ba 65 e1 b7
       -6.782374e-06 1.3447976e-05 9.3566086e-07 -2.686946e-05
000300 5e 1f 17 38 d7 a9 7a 36 30 61 1a 38 8c e9 7c b7
       3.603042e-05 3.7351763e-06 3.6806974e-05 -1.5074747e-05
000310 a7 57 54 37 f8 59 82 36 95 af cb b7 02 62 78 b6
       1.2656593e-05 3.8847757e-06 -2.4281248e-05 -3.7011928e-06
000320 c2 bb 14 38 42 cd e8 b7 02 07 66 37 6b 6d 32 38
       3.5460813e-05 -2.7752136e-05 1.37107e-05 4.254041e-05
000330 6f ae 63 36 2b 81 a6 37 54 98 b3 b7 06 03 be b6
       3.392717e-06 1.984889e-05 -2.1409396e-05 -5.6627932e-06
000340 1f 11 a6 37 7d 04 48 38 5b 5c 4d 38 b0 83 2a 3f
       1.9796715e-05 4.7687896e-05 4.896182e-05 0.6660719
000350 fe ed 74 3f 43 e8 cd 3f 11 5e 51 bf a5 d6 5d bf
       0.9567565 1.6086506 -0.8178416 -0.86655647
000360 98 f7 4a 3f c9 da 33 bf 43 c1 d4 37 a1 b1 25 40
       0.7928405 -0.70255715 2.5362364e-05 2.5889666
000370 ac 9c 55 3f 5f a2 7b bf 12 28 a0 39 0a 31 0f bf
       0.8344219 -0.98294634 0.00030547433 -0.559342
000380 77 7e 89 3f c8 ab 3d 3f 3b 75 4c 37 bd 95 46 c0
       1.0741719 0.7409024 1.2186642e-05 -3.1028893
000390 b0 5b 0d 3f 30 06 bc 3f 77 7b 6e bf 98 7d b2 3d
       0.5521803 1.4689388 -0.9315714 0.08715361
0003a0 f2 19 9c c0 cd 73 9c 3f f6 a7 96 39 ad ff 22 bf
       -4.878167 1.222284 0.0002873537 -0.6367138
0003b0 64 15 4b bf c3 09 4c bf c1 08 2b bf 73 b1 db bf
       -0.79329515 -0.79702395 -0.6681023 -1.7163528
0003c0 b3 3a 85 38 02 1f 04 3a bb f5 64 38 58 17 53 bf
       6.352868e-05 0.0005040021 5.458829e-05 -0.82457495
0003d0 a0 46 2b c0
       -2.6761856

feedforward_block.linear_layer_2.bias f4 [7]
000000 00 00 00 00 00 00 00 00 00 00 00 00 00 00 00 00
       0.0 0.0 0.0 0.0
000010 00 00 00 00 00 00 00 00 ea cb 54 bf
       0.0 0.0 -0.8312365

linear_layer_1.weight f4 [115, 115]
000000 61 d7 4b 3c 34 9e 38 3c 12 70 c2 bc ac b3 60 bc
       0.012441487 0.011268187 -0.02373508 -0.013714712
000010 70 65 a5 bc b8 24 ad ba 7e 15 47 3c f0 31 76 3c
       -0.02018997 -0.0013209796 0.01215112 0.015026554
000020 7f c2 94 bc d7 9b d8 3c 00 f6 8b 3c f2 47 28 bd
       -0.01815915 0.026441498 0.017085075 -0.041084237
000030 93 67 8f bb 39 ea 2a 3c 96 7f 2a bb ae ea 43 3c
       -0.0043763607 0.01043182 -0.0026015989 0.0119578075
000040 fb 57 7b 3c 9b 59 a0 3c fe f4 9f bc a1 49 ee 3c
       0.0153408 0.019573977 -0.019526001 0.029087843
000050 e1 b8 32 bd 54 21 e8 bc b9 8e 6c bc f8 08 f9 bb
       -0.043633346 -0.028336205 -0.014438325 -0.007599946
000060 33 19 82 3c 2f 23 71 3c 05 63 4f 3b 1b 03 bc bc
       0.015881157 0.014717861 0.0031644714 -0.0229507
000070 b7 c6 ba 3b ca 82 5b bc 5d 2a 77 bc dc b6 30 3a
       0.005699958 -0.013397882 -0.015085784 0.00067411154
000080 bc bc f0 bc e9 1a 35 bb db 27 15 3c 8b 20 41 3b
       -0.02938687 -0.0027634448 0.009103741 0.002946886
000090 ea 47 93 bc c3 fe 84 3c 64 f3 bd bb 5e b7 6f bc
       -0.017978627 0.016234761 -0.0057968367 -0.0146311205
0000a0 af 2a 2d 3a 7c 14 ac 3b 0b 86 03 bb f9 7d 1e bb
       0.00066057866 0.0052514654 -0.002006891 -0.0024183972
0000b0 0b f8 7b bc 2f ae 24 bb 7c bc ea bc f7 b4 6d bb
       -0.015378962 -0.0025128236 -0.02865433 -0.0036271194
0000c0 1e f5 b8 3c 81 bf 22 3d 80 bf e8 3c f7 bb 62 bb
       0.022577818 0.039733414 0.028411627 -0.00345969
0000d0 06 44 c0 3a a6 34 93 3b 1e 08 ab bc d0 56 f8 bc
       0.001466871 0.00449236 -0.020877894 -0.030314833
0000e0 b4 94 a1 3c 7f cd 99 bb 40 35 fa b7 b0 08 b7 3c
       0.019724227 -0.0046936865 -2.9827119e-05 0.02234301
0000f0 40 b3 03 bd 32 b9 4d bb 19 be 50 3c 42 99 e9 3a
       -0.032153368 -0.0031390903 0.012740635 0.0017822164
000100 fc d0 9b bc 57 03 d3 3b 22 ee c2 bc de 42 ba bc
       -0.01902055 0.006439607 -0.023795191 -0.022736963
000110 66 f8 a7 3c b7 97 97 3b f9 af 24 3c ec 95 fa bb
       0.020504188 0.00462624 0.010051721 -0.0076472666
000120 c5 ae 05 bd a9 50 e4 bb 17 2b fc 3b d1 83 9c bb
       -0.032637376 -0.0069676233 0.0076955664 -0.004776456
000130 87 ac 95 3c 1c 77 ce bc 91 58 07 bd b6 2a 0d bc
       0.018270744 -0.02520328 -0.033043448 -0.00861614
000140 20 b4 75 bc 9b ac 85 3c e6 ac 10 bd 7c 03 12 bc
       -0.014996558 0.016317656 -0.03532114 -0.008911964
000150 5b ce 6e bc 40 9d 05 bd aa 80 ca bb 29 ce a4 bc
       -0.014575566 -0.03262067 -0.0061798887 -0.020117836
000160 12 3b 53 bd d2 39 84 3a ff 6a 1f bb 5b 80 28 bc
       -0.051570006 0.0010088033 -0.002432525 -0.010284509
000170 18 84 39 bd 1c 92 bf 3c fd 30 d7 bc d9 1e 14 3c
       -0.04529199 0.0233851 -0.026268477 0.009040558
000180 f3 34 5e 3c 95 e4 63 bc 20 4f 19 bd 00 4a a9 3a
       0.013562429 -0.013909479 -0.037428975 0.001291573
000190 26 19 50 bc e1 64 f6 3c 73 64 20 bd dc 8b 38 3c
       -0.012701308 0.0300774 -0.039158296 0.011263814
0001a0 b5 7a 5c bc ad 1c 0e 3c be d9 c4 3b f3 3a d2 39
       -0.01345699 0.008673829 0.006007402 0.00040098242
0001b0 e7 8d e1 bb 89 c7 14 3d 80 69 a3 3c b5 43 e2 3c
       -0.006883371 0.036323104 0.019947767 0.027620176
0001c0 99 6c 88 3c e0 23 04 3d 0c a2 dc bb d4 3a 5a bc
       0.016653346 0.032260776 -0.0067331847 -0.01331969
0001d0 8c dd 18 bd 7d 10 51 bc 26 b5 1b bc 0f 88 87 3c
       -0.03732066 -0.012760279 -0.009503638 0.01654437
0001e0 28 88 03 bc 6f 73 a3 bc bd 77 bc 3c e3 74 ea 3c
       -0.008028068 -0.019952504 0.023006314 0.028620189
0001f0 59 eb 4d 3b 1d f6 56 3c 30 f9 01 3c 12 a9 39 3c
       0.0031420796 0.013120201 0.007932946 0.011331813
000200 90 05 1c 3c 06 b7 72 3d e5 ee 7b 3b 40 1e 81 3c
       0.009522811 0.059256576 0.0038441953 0.015761495
000210 3b ae 8e 3c 87 0e f0 3c 43 34 76 bc ef 1d 8d bc
       0.017417064 0.029303802 -0.015027109 -0.017226188
000220 61 32 be 3c 44 73 89 bc ab e1 67 bc d3 5d 28 bb
       0.023217382 -0.016778596 -0.0141529245 -0.002569069
000230 94 f1 5f 3b c3 6e ee 3c 6e 47 ad bc 24 13 19 bc
       0.0034171091 0.02910555 -0.021152224 -0.009342942
000240 54 6c 81 bc 8f d0 c1 bc 96 d3 95 3c 1b 7d 68 bb
       -0.015798725 -0.023659019 0.018289369 -0.003547496
000250 c7 76 da 3b de af 03 bb e5 b6 d7 bc 9d 24 07 bc
       0.0066669914 -0.0020093839 -0.026332328 -0.008248475
000260 d4 10 08 3d c7 17 d7 3c 5e d1 30 3d 9e 4c 33 3b
       0.033219174 0.026256455 0.043168418 0.00273589
000270 9c b1 ad bb a7 cb 29 bd 67 2c 03 3d ef d8 c0 bb
       -0.0053007137 -0.041453984 0.032024767 -0.0058852355
000280 32 c7 c6 ba 0b 50 a0 3b 93 49 b9 bc b9 19 e4 bc
       -0.0015165566 0.0048923544 -0.02261809 -0.027844297
000290 89 ee cd bc d1 81 83 bc 60 4f 38 bc 62 06 eb bc
       -0.025138156 -0.016053112 -0.011249393 -0.028689567
0002a0 85 ed f0 3c d4 49 3c 3c 6c 87 74 3c 0e c1 de 3c
       0.029410133 0.011492211 0.014924865 0.027191665
0002b0 d8 26 ca bc 38 e3 9d 3b 8d f9 0d bd 11 44 02 3c
       -0.024676725 0.0048183464 -0.03466182 0.007950799
0002c0 58 be 52 bc 76 25 26 bb 2a 6c d5 3c 47 7d 83 3c
       -0.012862764 -0.0025351918 0.026052553 0.016050948
0002d0 24 15 0b bd e5 a3 75 3c 8f 97 be 3c 32 49 f2 3c
       -0.03395571 0.014992689 0.023265628 0.029575918
0002e0 54 1c 4f bb 0e f4 ee 3c 09 1c 8f b9 42 17 02 bd
       -0.0031602578 0.029169109 -0.00027295973 -0.03176046
0002f0 8b 84 6c 3c 5d c4 ba 3b fc bb 25 3d 15 5c c1 bc
       0.014435898 0.005699678 0.04046248 -0.023603478
000300 fb 7f 97 bc e7 61 09 3d f3 d4 fd 3c d8 6f b9 3c
       -0.018493643 0.033540633 0.030985331 0.022636339
000310 7d 7c a7 bc 8e d6 c0 3a 26 2f ed bc d7 4b 45 3c
       -0.020445103 0.001471238 -0.028953146 0.012042007
000320 cc fc 9f 3b 29 14 91 3c e7 d2 1d 3c a5 0c 02 3d
       0.0048824307 0.017709808 0.009632803 0.03175034
000330 1f c2 82 bb 19 c2 a5 3b b2 d0 bc bc fe e1 26 bc
       -0.003990426 0.0050585386 -0.023048732 -0.010185717
000340 ed 22 a8 3b 56 fa 07 3c 02 a4 54 3c 1d 98 8e bc
       0.0051311166 0.008299431 0.012978556 -0.017406518
000350 05 1d c6 bc ed 20 0d 3c 32 bf 3f 3c b4 5b ac bc
       -0.02418376 0.008613807 0.011703299 -0.021039821
000360 3e 55 96 3b 3b 29 87 3c f3 9e bb bc 05 2b 3e 3b
       0.0045877984 0.016499152 -0.022902941 0.002901734
000370 a1 dc 66 3c 32 4d 91 bc d8 e5 40 bc 4f 4d 0e bd
       0.014090688 -0.017737005 -0.011773549 -0.034741696
000380 46 5c d2 bb 6d ee 1e 3c cf e3 c8 3c 2f 2c 4d bb
       -0.0064196913 0.0097004 0.02452269 -0.0031306853
000390 18 d1 ba 3c 17 c5 cf bc d2 fb 0b bb 6e 3f 35 3c
       0.022804782 -0.025362534 -0.0021359813 0.011062486
0003a0 b5 ae 0c 3c 76 fc a0 bc 6d 33 82 3c 2a 4f c3 bc
       0.008586575 -0.019651633 0.015893662 -0.02384146
0003b0 42 1e 54 ba de c4 ee 3c 3c 96 71 3c 5b 5e 86 bc
       -0.0008091667 0.029146608 0.014745291 -0.016402414
0003c0 82 bc b2 bc f0 5b 3e 3c 05 71 77 bc 6c 24 cd bc
       -0.021818403 0.011618599 -0.01510263 -0.025041781
0003d0 56 c4 ad 3b 45 12 39 bd a3 6b 22 bd e0 ec 05 3d
       0.005302946 -0.04518344 -0.03965343 0.032696605
0003e0 de 8a d2 bc 45 66 a5 bc 1b 7c 24 3d be c3 f8 3b
       -0.025700983 -0.020190367 0.04015742 0.0075916937
0003f0 37 80 c2 bc f0 98 1f 3c 07 8b a4 3b 2f 6f 39 3c
       -0.023742778 0.009741053 0.005021456 0.011318012

linear_layer_1.bias f4 [115]
000000 00 00 00 00 00 00 00 00 00 00 00 00 00 00 00 00
       0.0 0.0 0.0 0.0
000010 00 00 00 00 00 00 00 00 00 00 00 00 00 00 00 00
       0.0 0.0 0.0 0.0
000020 00 00 00 00 00 00 00 00 00 00 00 00 00 00 00 00
       0.0 0.0 0.0 0.0
000030 00 00 00 00 00 00 00 00 00 00 00 00 00 00 00 00
       0.0 0.0 0.0 0.0
000040 00 00 00 00 00 00 00 00 00 00 00 00 00 00 00 00
       0.0 0.0 0.0 0.0
000050 00 00 00 00 00 00 00 00 00 00 00 00 00 00 00 00
       0.0 0.0 0.0 0.0
000060 00 00 00 00 00 00 00 00 00 00 00 00 00 00 00 00
       0.0 0.0 0.0 0.0
000070 00 00 00 00 00 00 00 00 00 00 00 00 00 00 00 00
       0.0 0.0 0.0 0.0
000080 00 00 00 00 00 00 00 00 00 00 00 00 00 00 00 00
       0.0 0.0 0.0 0.0
000090 00 00 00 00 00 00 00 00 00 00 00 00 00 00 00 00
       0.0 0.0 0.0 0.0
0000a0 00 00 00 00 00 00 00 00 00 00 00 00 00 00 00 00
       0.0 0.0 0.0 0.0
0000b0 00 00 00 00 00 00 00 00 00 00 00 00 00 00 00 00
       0.0 0.0 0.0 0.0
0000c0 00 00 00 00 00 00 00 00 00 00 00 00 00 00 00 00
       0.0 0.0 0.0 0.0
0000d0 00 00 00 00 00 00 00 00 00 00 00 00 00 00 00 00
       0.0 0.0 0.0 0.0
0000e0 00 00 00 00 00 00 00 00 00 00 00 00 00 00 00 00
       0.0 0.0 0.0 0.0
0000f0 00 00 00 00 00 00 00 00 00 00 00 00 00 00 00 00
       0.0 0.0 0.0 0.0
000100 00 00 00 00 00 00 00 00 00 00 00 00 00 00 00 00
       0.0 0.0 0.0 0.0
000110 00 00 00 00 00 00 00 00 00 00 00 00 00 00 00 00
       0.0 0.0 0.0 0.0
000120 00 00 00 00 00 00 00 00 00 00 00 00 00 00 00 00
       0.0 0.0 0.0 0.0
000130 00 00 00 00 00 00 00 00 00 00 00 00 00 00 00 00
       0.0 0.0 0.0 0.0
000140 00 00 00 00 00 00 00 00 00 00 00 00 00 00 00 00
       0.0 0.0 0.0 0.0
000150 00 00 00 00 00 00 00 00 00 00 00 00 00 00 00 00
       0.0 0.0 0.0 0.0
000160 00 00 00 00 00 00 00 00 00 00 00 00 00 00 00 00
       0.0 0.0 0.0 0.0
000170 00 00 00 00 00 00 00 00 00 00 00 00 00 00 00 00
       0.0 0.0 0.0 0.0
000180 00 00 00 00 00 00 00 00 00 00 00 00 00 00 00 00
       0.0 0.0 0.0 0.0
000190 00 00 00 00 00 00 00 00 00 00 00 00 00 00 00 00
       0.0 0.0 0.0 0.0
0001a0 00 00 00 00 00 00 00 00 00 00 00 00 00 00 00 00
       0.0 0.0 0.0 0.0
0001b0 00 00 00 00 00 00 00 00 00 00 00 00 00 00 00 00
       0.0 0.0 0.0 0.0
0001c0 00 00 00 00 00 00 00 00 00 00 00 00
       0.0 0.0 0.0
