models-1/trained_model_W.pth (torch, 73942 bytes, 39 tensors)

inp_embedding.weight f4 [115, 6]
-0.43835086 0.35897362 -0.76480126 0.13721393 0.096834034 0.18744045 -0.01774858 0.20780453
0.217037 0.41233292 0.2422152 0.24047638 -0.27455324 0.042540375 -0.7947855 0.25092092
0.43022716 -0.05058171 0.15425132 -0.18744963 -0.52118295 -0.109164946 0.46959278 -0.32093757
0.40458688 -0.17388898 0.04280048 -0.08934798 -0.25566578 -0.35587606 -0.38023797 0.612828
-1.2555346 0.26691583 -0.08514917 0.13332002 0.17239293 -0.104996905 -0.13483669 0.35785446
-0.017311724 -0.50315773 0.28325936 -0.069190495 -0.024086976 0.49649155 0.32353172 -0.24662657
-0.18862215 0.5138771 -0.7711071 -0.2112232 -0.2872356 0.35865748 -0.06494081 0.2963434
-0.5101025 0.3579057 -0.92070395 0.1759338 -0.5305217 0.31906453 -1.1919454 0.06815614
-0.36187565 0.14076768 -0.48186418 -0.22444575 -0.18515521 0.42229983 0.508214 0.36605364
-0.10862078 0.2751111 -0.23516367 0.08175601 0.44330433 0.62238353 0.1980271 0.16600253
0.28604048 -0.25709134 -0.5248164 0.22983345 0.3280343 0.11369226 0.14384082 -0.15529269
-0.5049789 0.8970227 -0.0617339 -0.08014323 -0.0076948716 0.12508774 -0.56723446 0.5259482
0.12471979 0.26707646 -0.15873468 -0.10322464 -0.68316036 0.15369827 -0.21050002 0.21477473
-0.5908449 0.23777206 -0.6283129 -0.10807408 0.07192647 0.23151691 -0.03873336 -0.057284504
0.08169117 0.20146078 -0.48127845 -0.18817915 -0.25430444 0.08387088 -0.46355686 1.1311586
0.059544854 -0.07338342 -0.03711783 -0.25496408 -0.45908546 -0.38622442 0.6503513 0.11820947
-0.3477411 0.11884195 -0.12727349 0.05600344 0.23134734 -0.3086567 -0.060620606 0.88926774
-0.547917 0.050809905 0.43356246 -0.4488536 0.054709792 -0.20746222 0.07289709 -0.2563696
-0.06890366 0.039269652 0.28225422 0.54848456 -0.28391522 0.043816637 0.13322695 -0.67827696
-0.03316677 -0.38638157 0.00061991415 0.33198118 0.65527153 0.33984232 0.008839884 -0.025538238
-0.24585976 -0.3612889 -0.6840279 -0.049542475 -0.02524588 0.8986935 0.5426698 0.06865665
0.5666422 0.42020682 -0.5703447 0.34521383 -0.41006067 0.016596206 0.23226964 0.10854136
-0.3497306 0.011826993 -0.24554357 0.0066910805 -0.5620938 0.6768374 -0.038121983 0.5760678
0.15843675 -0.07169672 -0.13280691 -0.106098555 -0.038724486 -0.19776042 0.029755987 -0.15815246
0.023205478 -0.44645712 -0.1978456 -0.18832314 -0.13308021 -0.26160875 0.49979573 -0.5712945
-0.34586912 0.70311236 -0.08582416 0.08289731 0.5739045 -0.0519416 0.550703 -0.03663988
-0.15835924 -0.015825493 -0.01872616 -0.10720032 0.14653987 -0.1275856 0.20434776 -0.104738064
0.64807254 0.4054433 0.05059872 0.33619097 0.11413484 0.26659036 0.7151251 0.16302393
-0.009498341 -0.013362722 -0.10613544 0.20224869 0.40780953 0.10561628 0.11954178 0.047071844
-0.2132033 -0.18284976 0.18292092 0.58788466 0.27022877 -0.1272125 -0.5996891 0.07875644
0.32001048 0.21865672 -0.097992845 -0.17652635 0.07291992 -0.054701086 0.2198481 0.098944485
-0.2120381 -0.27812567 -0.110786766 -0.2022245 -0.25221527 0.10888044 0.14042443 0.16582304
00000000: 866f e0be 64cb b73e 04ca 43bf cf81 0c3e
00000010: ec50 c63d 64f0 3f3e 7865 91bc b6ca 543e
00000020: f33e 5e3e 4d1d d33e 4307 783e 713f 763e
00000030: 3e92 8cbe d13e 2e3d 1077 4bbf b578 803e
00000040: bc46 dc3e c42e 4fbd 0ff4 1d3e ccf2 3fbe
00000050: 3f6c 05bf df91 dfbd 776e f03e ee51 a4be
00000060: 0326 cf3e f40f 32be 8e4f 2f3d 13fc b6bd
00000070: a0e6 82be 6335 b6be 8dae c2be 4ce2 1c3f
00000080: 5cb5 a0bf 31a9 883e b062 aebd 0b85 083e
00000090: c687 303e 9e08 d7bd a112 0abe b338 b73e
000000a0: 51d1 8dbc f2ce 00bf 5f07 913e bfb3 8dbd
000000b0: 0d52 c5bc 2434 fe3e f3a5 a53e ad8b 7cbe
000000c0: 2a26 41be 738d 033f 4667 45bf e54a 58be
000000d0: 8b10 93be f4a1 b73e b0ff 84bd 52ba 973e
000000e0: 1496 02bf 6a3f b73e 41b3 6bbf fd27 343e
000000f0: 45d0 07bf 6d5c a33e ab91 98bf 7295 8b3d
00000100: c447 b9be 6725 103e e7b6 f6be 1bd5 65be
00000110: 5499 3dbe af37 d83e 501a 023f 626b bb3e
00000120: 9274 debd 5ddb 8c3e bfce 70be b26f a73d
00000130: c9f8 e23e 8754 1f3f 9ec7 4a3e 91fc 293e
00000140: e673 923e 7aa1 83be 5e5a 06bf 7659 6b3e
00000150: 1df4 a73e 7dd7 e83d 024b 133e 0c05 1fbe
00000160: 4c46 01bf 48a3 653f b0dc 7cbd 2222 a4bd
00000170: 4325 fcbb 0017 003e 4736 11bf 8ba4 063f
00000180: 176d ff3d 3fbe 883e 588b 22be 7167 d3bd
00000190: 99e3 2ebf 1463 1d3e 518d 57be e8ed 5b3e
000001a0: 9d41 17bf 857a 733e 1dd9 20bf f155 ddbd
000001b0: 2f4e 933d c512 6d3e dfa6 1ebd 28a3 6abd
000001c0: b34d a73d bc4b 4e3e 216a f6be 09b2 40be
000001d0: 3134 82be 7fc4 ab3d 5357 edbe cec9 903f
000001e0: 4ee5 733d 0c4a 96bd de08 18bd a78a 82be
000001f0: 400d ebbe 35bf c5be 6c7d 263f ce17 f23d
00000200: 1f0b b2be 6963 f33d fb53 02be dd63 653d
00000210: 51e6 6c3e 4008 9ebe 504d 78bd 0da7 633f
00000220: 4a44 0cbf 0c1e 503d e6fb dd3e 24d0 e5be
00000230: 6017 603d fa70 54be 124b 953d e042 83be
00000240: 5d1d 8dbd 37d9 203d a083 903e 7c69 0c3f
00000250: 565d 91be 1379 333d a56c 083e 8fa3 2dbf
00000260: e1d9 07bd ced3 c5be bc81 223a 70f9 a93e
00000270: e0bf 273f d0ff ad3e 29d5 103c 9135 d1bc
00000280: a9c2 7bbe dcfa b8be 741c 2fbf 0ded 4abd
00000290: 73d0 cebc c710 663f 68ec 0a3f dc9b 8c3d
000002a0: 770f 113f 5925 d73e 1c02 12bf debf b03e
000002b0: 79f3 d1be c4f4 873c 18d8 6d3e ef4a de3d
000002c0: e40f b3be 01c6 413c c66f 7bbe da40 db3b
000002d0: 61e5 0fbf 3745 2d3f cc25 1cbd 2e79 133f
000002e0: 3e3d 223e bbd5 92bd 89fe 07be 334a d9bd
000002f0: 919d 1ebd b581 4abe d4c2 f33c b8f2 21be
00000300: 6a19 be3c 0796 e4be 0998 4abe c8d7 40be
00000310: 2e46 08be 95f1 85be 3ae5 ff3e 5b40 12bf
00000320: c215 b1be 2cff 333f 94c4 afbd 11c6 a93d
00000330: 68eb 123f b7c0 54bd dffa 0c3f b313 16bd
00000340: ed28 22be 77a4 81bc 9b67 99bc d78b dbbd
00000350: 8c0e 163e cda5 02be 8a40 513e e980 d6bd
00000360: 15e8 253f 4496 cf3e 9a40 4f3d 3921 ac3e
00000370: 87bf e93d 887e 883e 7012 373f bfef 263e
00000380: ee9e 1bbc 51ef 5abc 8a5d d9bd 481a 4f3e
00000390: 69cc d03e 594d d83d 52d2 f43d 68ce 403d
000003a0: f751 5abe f83c 3bbe 9f4f 3b3e 9c7f 163f
000003b0: 6d5b 8a3e fe43 02be 3a85 19bf 0e4b a13d
000003c0: 6ad8 a33e 8ce7 5f3e 79b0 c8bd 53c3 34be
000003d0: 0a57 953d 3f0e 60bd dc1f 613e 68a3 ca3d
000003e0: 8420 59be 7d66 8ebe 2ce4 e2bd f013 4fbe
000003f0: 5c22 81be b5fc de3d 6ccb 0f3e 84cd 293e

attention_blocks.0.attention_blocks.0.layer_norm.weight f4 [6]
0.9210537 1.060957 1.1765047 1.2474887 1.5396245 1.2511908
00000000: 2dca 6b3f 70cd 873f b597 963f b6ad 9f3f
00000010: 6a12 c53f 0527 a03f

attention_blocks.0.attention_blocks.0.layer_norm.bias f4 [6]
0.28379944 0.022293111 0.103221685 0.09597171 0.17862229 0.027813798
00000000: 294e 913e 0ba0 b63c e465 d33d d18c c43d
00000010: c3e8 363e c3d9 e33c

attention_blocks.0.attention_blocks.0.W_k.weight f4 [3, 6]
0.07170566 -0.16957071 0.13780658 0.83748806 0.6488331 -0.60991704 -0.09088132 0.1476181
-0.73738086 0.027960097 0.4390182 0.73475075 -0.4146538 -0.46297824 0.2604291 0.1280826
0.58315015 -0.26133218
00000000: 6bda 923d f2a3 2dbe 2b1d 0d3e 9e65 563f
00000010: ed19 263f 8623 1cbf fc1f babd 3329 173e
00000020: fec4 3cbf 930c e53c fec6 e03e a018 3c3f
00000030: 814d d4be 7c0b edbe f756 853e 1628 033e
00000040: 5449 153f 55cd 85be

attention_blocks.0.attention_blocks.0.W_q.weight f4 [3, 6]
0.2981493 0.6394463 -0.12737365 -0.9263076 -0.301918 0.30568054 0.15442902 -0.082156666
-0.9397817 0.015514342 0.79242706 -0.23528858 -0.018185748 0.52568674 -0.11166837 -0.25706297
-0.04115425 0.65437555
00000000: 06a7 983e c1b2 233f 3d6e 02be 7f22 6dbf
00000010: ff94 9abe 2982 9c3e a422 1e3e c141 a8bd
00000020: 8995 70bf de2f 7e3c 80dc 4a3f 7def 70be
00000030: 47fa 94bc 6893 063f 63b2 e4bd c29d 83be
00000040: 5c91 28bd 2885 273f

attention_blocks.0.attention_blocks.0.W_v.weight f4 [3, 6]
-0.19786862 0.1306864 -0.19518256 0.03474134 -0.23540089 -0.58254874 -0.95091 0.16979271
0.21284717 -0.01396034 -0.002377718 -0.048898682 -0.37627724 -0.21218531 -0.21550715 0.18855135
0.122427605 -0.34330356
00000000: 129e 4abe a8d2 053e f0dd 47be ef4c 0e3d
00000010: ee0c 71be ea21 15bf d66e 73bf 24de 2d3e
00000020: 9cf4 593e e9b9 64bc 7dd3 1bbb fc49 48bd
00000030: 69a7 c0be 1b47 59be e8ad 5cbe 9b13 413e
00000040: 53bb fa3d 7cc5 afbe

attention_blocks.0.attention_blocks.0.W_o.weight f4 [6, 3]
-0.2521272 -0.18230388 -0.08556135 -0.28253853 -0.07255981 -0.14118622 -0.3807331 0.42568016
0.3997453 0.10031798 -0.18814035 0.55685586 -0.10137138 -0.32812905 0.4224328 -0.38644445
0.21319248 -0.029664207
00000000: d116 81be dead 3abe ca3a afbd e4a8 90be
00000010: 3d9a 94bd 1f93 10be 73ef c2be c0f2 d93e
00000020: 6aab cc3e 8373 cd3d dda7 40be 1b8e 0e3f
00000030: cc9b cfbd 8800 a8be 1d49 d83e 0cdc c5be
00000040: 214f 5a3e 5a02 f3bc

attention_blocks.0.attention_blocks.1.layer_norm.weight f4 [6]
1.100518 1.2264371 1.2270437 1.2914525 1.2947009 1.171108
00000000: c6dd 8c3f e4fb 9c3f c50f 9d3f 514e a53f
00000010: c2b8 a53f dee6 953f

attention_blocks.0.attention_blocks.1.layer_norm.bias f4 [6]
-0.009482208 0.012377779 -0.13794245 0.091285825 -0.065414265 0.1042375
00000000: 435b 1bbc 2bcc 4a3c c940 0dbe 10f4 ba3d
00000010: eaf7 85bd 787a d53d

attention_blocks.0.attention_blocks.1.W_k.weight f4 [3, 6]
0.11417012 -0.26006564 -0.13487323 -0.47204292 -0.064448096 -0.74974334 -0.2700272 0.05644019
0.14515293 1.0696745 -0.3098822 0.23108214 -0.08082556 0.028147735 0.8938332 -0.2729521
0.51771647 -0.5810789
00000000: 06d2 e93d 5327 85be 351c 0abe 9caf f1be
00000010: 5dfd 83bd 2eef 3fbf 0141 8abe d42d 673d
00000020: f8a2 143e 18eb 883f e1a8 9ebe cca0 6c3e
00000030: df87 a5bd 1496 e63c 41d2 643f 61c0 8bbe
00000040: 1189 043f 96c1 14bf

attention_blocks.0.attention_blocks.1.W_q.weight f4 [3, 6]
-0.10677433 0.4019769 0.22734492 -0.44482273 -0.14150077 0.8306912 0.051649477 -0.18718943
-0.08031979 0.9440085 0.37267336 -0.20714143 -0.5109709 0.7460216 -0.41611764 0.007661152
-0.114544794 0.8241925
00000000: 80ac dabd ebcf cd3e 1bcd 683e cebf e3be
00000010: 94e5 10be 2ea8 543f 678e 533d 96ae 3fbe
00000020: b47e a4bd 8baa 713f 0bcf be3e e21c 54be
00000030: fdce 02bf 46fb 3e3f 5f0d d5be 670a fb3b
00000040: 7696 eabd 48fe 523f

attention_blocks.0.attention_blocks.1.W_v.weight f4 [3, 6]
0.115459375 -0.22640839 -0.08022168 -0.060080905 0.66956186 0.13132082 0.2959084 0.21007825
-0.5394557 -0.10274375 0.26858535 0.023051204 -0.2990644 0.38358694 -0.15012302 -0.008505569
0.23578028 0.22711965
00000000: f775 ec3d 9ad7 67be 444b a4bd 6517 76bd
00000010: 6868 2b3f f778 063e 4e81 973e c11e 573e
00000020: c519 0abf 516b d2bd 0584 893e e1d5 bc3c
00000030: f81e 99be 8265 c43e d9b9 19be f15a 0bbc
00000040: 6370 713e 0e92 683e

attention_blocks.0.attention_blocks.1.W_o.weight f4 [6, 3]
0.039881494 -0.019890914 -0.20913675 -0.043834668 0.022910155 0.4075838 0.14892037 -0.49688688
0.17740366 0.22868717 0.19153684 0.0132412035 0.11127224 0.120289624 -0.109887324 0.63588965
0.1238128 0.56741256
00000000: c75a 233d 45f2 a2bc f227 56be fb8b 33bd
00000010: 14ae bb3c d3ae d03e 957e 183e f567 febe
00000020: 4ea9 353e f82c 6a3e 3c22 443e a2f1 583c
00000030: b3e2 e33d 685a f63d 9b0c e1bd aac9 223f
00000040: 9191 fd3d f341 113f

attention_blocks.1.attention_blocks.0.layer_norm.weight f4 [6]
1.5015261 1.2014185 0.9705997 1.2861507 1.1705692 1.0717939
00000000: 0232 c03f 15c8 993f 3979 783f 96a0 a43f
00000010: 36d5 953f 8b30 893f

attention_blocks.1.attention_blocks.0.layer_norm.bias f4 [6]
-0.40864226 0.30351263 0.2181048 -0.2665613 -0.06847671 -0.5295711
00000000: 8f39 d1be 0266 9b3e dd56 5f3e b97a 88be
00000010: 843d 8cbd f991 07bf

attention_blocks.1.attention_blocks.0.W_k.weight f4 [3, 6]
-0.37862623 0.6863905 -0.13458656 -0.16860622 -0.14462923 0.0011201821 0.4656028 -0.6914803
-0.12788089 0.0715405 -0.07861815 0.19762784 0.26672438 -0.15529199 -0.24930836 -0.5517195
-0.26385766 0.1483735
00000000: 4cdb c1be 4ab7 2f3f 0fd1 09be 1ca7 2cbe
00000010: af19 14be 13d3 923a 7d63 ee3e da04 31bf
00000020: 35f3 02be d383 923d 8d02 a1bd f45e 4a3e
00000030: 1990 883e dd04 1fbe b14a 7fbe 7d3d 0dbf
00000040: 5a18 87be 39ef 173e

attention_blocks.1.attention_blocks.0.W_q.weight f4 [3, 6]
0.58323663 -0.71259665 0.553597 -0.0597474 -0.0073016468 -0.089021765 -0.87947905 0.4410283
-0.018850746 0.28737956 -0.0009356532 -0.024435766 0.14311603 0.19203866 0.3821457 0.6075522
-0.6663525 -0.09495253
00000000: ff4e 153f bc6c 36bf 88b8 0d3f b1b9 74bd
00000010: a742 efbb 0b51 b6bd 8a25 61bf 76ce e13e
00000020: e16c 9abc 6a23 933e a046 75ba 842d c8bc
00000030: 028d 123e c8a5 443e 9aa8 c33e 8a88 1b3f
00000040: 1496 2abf 7976 c2bd

attention_blocks.1.attention_blocks.0.W_v.weight f4 [3, 6]
0.4545603 0.9103808 -0.79761 -0.91164875 0.16098486 -1.0942751 1.3605039 0.60278493
-0.21790035 -1.261068 0.62163764 0.73689324 0.25156012 1.9270115 -0.15209089 -0.20460048
0.278026 -1.1591394
00000000: 21bc e83e b70e 693f 2b30 4cbf d061 69bf
00000010: 37d9 243e 3511 8cbf fe24 ae3f 1d50 1a3f
00000020: 4521 5fbe ad6a a1bf a523 1f3f 09a5 3c3f
00000030: 7dcc 803e 50a8 f63f b7bd 1bbe ca82 51be
00000040: 6d59 8e3e ae5e 94bf

attention_blocks.1.attention_blocks.0.W_o.weight f4 [6, 3]
0.30933258 0.5204432 -0.6690383 1.226327 2.1009321 0.5484085 0.007113277 -0.5337145
0.21582888 -0.8349385 -0.07558325 -1.5464989 1.2373173 0.57408375 1.721284 -0.11652431
-0.2536371 -0.27076948
00000000: d760 9e3e c43b 053f 1846 2bbf 48f8 9c3f
00000010: ac75 0640 8064 0c3f 7e16 e93b 83a1 08bf
00000020: 3f02 5d3e 88be 55bf 64cb 9abd adf3 c5bf
00000030: 6a60 9e3f 27f7 123f 0953 dc3f 4ca4 eebd
00000040: b9dc 81be 4ca2 8abe

attention_blocks.1.attention_blocks.1.layer_norm.weight f4 [6]
1.4040217 1.0886787 2.237352 1.3859663 1.4368407 1.5035175
00000000: fcb6 b33f d359 8b3f c630 0f40 5867 b13f
00000010: 65ea b73f 4373 c03f

attention_blocks.1.attention_blocks.1.layer_norm.bias f4 [6]
0.18221696 -0.26869637 -0.6307675 -0.33109936 0.07801956 0.025301177
00000000: 1597 3a3e 9292 89be fb79 21bf db85 a9be
00000010: b8c8 9f3d 6a44 cf3c

attention_blocks.1.attention_blocks.1.W_k.weight f4 [3, 6]
0.9741371 -0.2504453 -0.43231568 -0.21550132 -0.27527645 -0.24365173 0.7424081 -0.46117702
-0.41760686 0.24743742 -0.39747864 -0.0068290546 -0.73736006 0.17976554 0.9838886 0.8535527
0.59112316 -1.0698985
00000000: 0d61 793f 5e3a 80be 7b58 ddbe 61ac 5cbe
00000010: 09f1 8cbe d77f 79be 750e 3e3f 651f ecbe
00000020: 91d0 d5be 3c60 7d3e 5282 cbbe 43c6 dfbb
00000030: a1c3 3cbf 7514 383e 20e0 7b3f 6e82 5a3f
00000040: d953 173f 6ff2 88bf

attention_blocks.1.attention_blocks.1.W_q.weight f4 [3, 6]
-0.7331419 0.5917376 0.19276813 0.0025955257 0.6451244 -0.31059158 -0.67619145 0.5561527
0.44405577 0.41033003 -0.52504724 0.039063767 0.18290345 0.8226612 -0.50147915 -0.10008592
-0.39322615 1.2149347
00000000: 30af 3bbf 1e7c 173f 0265 453e b219 2a3b
00000010: df26 253f dc05 9fbe e21a 2dbf 0660 0e3f
00000020: 475b e33e c716 d23e 7f69 06bf 5401 203d
00000030: 0b4b 3b3e ed99 523f f060 00bf d9f9 ccbd
00000040: f054 c9be fb82 9b3f

attention_blocks.1.attention_blocks.1.W_v.weight f4 [3, 6]
-0.55765444 0.10753848 -1.6820258 0.8025475 0.21969707 -0.533872 0.90401673 0.8932619
-0.24504007 -0.8507136 -0.4171217 1.3617308 -0.220567 0.78955865 1.2117183 -0.5656746
-0.52604216 0.5015448
00000000: 71c2 0ebf 223d dc3d 9f4c d7bf c173 4d3f
00000010: 45f8 603e d6ab 08bf a46d 673f d0ac 643f
00000020: c9eb 7abe 5ec8 59bf fa90 d5be 324d ae3f
00000030: 51dc 61be 8420 4a3f 9619 9b3f 0dd0 10bf
00000040: b3aa 06bf 3d65 003f

attention_blocks.1.attention_blocks.1.W_o.weight f4 [6, 3]
0.29240575 0.7381709 -0.054487802 -1.2941066 0.14489943 1.0753107 -0.0008021593 0.9616034
0.26156488 -0.45617104 1.0764748 0.7464086 -0.23162349 0.46592346 -0.34577304 0.48853064
-0.62039524 0.07617415
00000000: 35b6 953e c5f8 3c3f 9a2e 5fbd 49a5 a5bf
00000010: 8460 143e c8a3 893f 0048 52ba a42b 763f
00000020: d5eb 853e 408f e9be edc9 893f a214 3f3f
00000030: b52e 6dbe 858d ee3e 2a09 b1be b020 fa3e
00000040: 39d2 1ebf 3101 9c3d

feedforward_blocks.0.layer_norm.weight f4 [7]
1.3187791 1.8598955 1.2780234 1.52764 0.88788056 1.677304 0.88272125
00000000: c1cd a83f 0e11 ee3f 4596 a33f b589 c33f
00000010: 244c 633f e6b1 d63f 05fa 613f

feedforward_blocks.0.layer_norm.bias f4 [7]
0.17948197 -0.20387873 -0.21651459 0.029587101 0.20653595 -0.27850723 0.14236957
00000000: 1fca 373e 96c5 50be 00b6 5dbe a660 f23c
00000010: 297e 533e 8098 8ebe 54c9 113e

feedforward_blocks.0.linear_layer_1.weight f4 [10, 7]
-0.00084226194 0.03582005 -0.01019972 -0.3159186 -0.5950955 -0.084652305 0.059922386 0.6717075
-0.23443541 0.04557099 0.83307374 -0.023733508 -0.28564423 0.13255118 0.22141911 0.2001503
0.095066175 0.24326651 0.30120975 -0.044604458 0.22283944 -0.32653272 -0.69863343 -0.39056358
0.40087065 -0.31912658 -0.45691055 0.33995935 0.42423734 -0.2325487 -0.22871463 -0.13600688
0.07155439 -0.40245602 0.42451015 0.5909696 -0.65288585 -0.5913634 0.6117192 0.25540516
-0.7846742 0.35955617 -0.31926462 0.24748233 0.14785352 0.15596949 0.23236167 -0.12440754
-0.64969265 -0.085994355 -0.42249015 -0.29395667 -0.32406253 -0.060154583 -0.51082224 0.34009036
0.74475163 -0.5167294 -0.48810914 1.5334911 0.311942 -0.76771545 0.21213163 -0.78683716
-0.11484035 0.014986915 0.013127997 0.47192818 0.24661438 0.41255817
00000000: 3ecb 5cba 0bb8 123d ba1c 27bc 15c0 a1be
00000010: 2e58 18bf 305e adbd 2d71 753d 06f5 2b3f
00000020: d60f 70be a5a8 3a3d 5244 553f c66c c2bc
00000030: f63f 92be 7fbb 073e b1bb 623e 33f4 4c3e
00000040: 0eb2 c23d db1a 793e 2a38 9a3e 2ab3 36bd
00000050: 0630 643e 4c2f a7be a4d9 32bf f3f7 c7be
00000060: eb3e cd3e 8f64 a3be 2ef0 e9be 270f ae3e
00000070: a335 d93e 3f21 6ebe 2b34 6abe 6345 0bbe
00000080: 1c8b 923d b70e cebe 6559 d93e c949 173f
00000090: 8723 27bf 9763 17bf a199 1c3f 77c4 823e
000000a0: 69e0 48bf bf17 b83e a776 a3be 026c 7d3e
000000b0: ea66 173e 77b6 1f3e 38f0 6d3e 61c9 febd
000000c0: 4252 26bf cf1d b0bd a150 d8be 7d81 96be
000000d0: 86eb a5be a764 76bd 3fc5 02bf 5320 ae3e
000000e0: 0ba8 3e3f 6148 04bf 71e9 f9be 7049 c43f
000000f0: ddb6 9f3e 0089 44bf 0939 593e 296e 49bf
00000100: 6b31 ebbd ad8b 753c cf16 573c 92a0 f13e
00000110: 7b88 7c3e d33a d33e

feedforward_blocks.0.linear_layer_1.bias f4 [10]
-0.14937632 0.17231576 0.011402028 0.13961613 0.23521979 0.10409221 -0.17639375 0.079176806
0.40124357 0.066558786
00000000: 1bf6 18be 8b73 303e 92cf 3a3c 88f7 0e3e
00000010: 75dd 703e 4c2e d53d 90a0 34be 7327 a23d
00000020: cc6f cd3e f94f 883d

feedforward_blocks.0.linear_layer_2.weight f4 [7, 10]
0.3059459 -0.14772141 -0.3267478 -0.07042086 0.3350824 -0.357127 0.03554608 0.021676699
0.015906455 0.13065109 -0.051016722 0.13470404 0.13920505 0.10763892 0.59778124 -0.34859875
-0.5669738 -0.36527202 0.23415826 -0.3389381 -0.2525862 0.22772874 -0.58857864 0.32622242
-0.36989483 0.15001722 -0.58744013 -0.070632726 -0.07853518 0.17049256 0.0987416 -0.09436065
0.17116843 -0.21048115 -0.32338372 -0.11262375 -0.33435398 -0.025560763 0.47059652 -0.25545746
0.43314448 -0.26929033 -0.06260711 0.065917306 -0.20097677 -0.15503442 -0.26047906 -0.13538653
0.2589266 0.21296722 -0.62862766 0.45761406 -0.33047986 -0.45234984 0.9787211 -0.20269383
-0.3422139 0.01485707 -0.101689555 -0.4311922 0.7068766 -1.3866105 -0.46602663 -0.64535946
-0.5836191 -1.0818379 0.20625682 -0.22500212 -1.5134186 0.07477775
00000000: f1a4 9c3e 4844 17be 7d4b a7be d038 90bd
00000010: ec8f ab3e 5ad9 b6be c498 113d 5593 b13c
00000020: 414e 823c 66c9 053e e9f6 50bd dbef 093e
00000030: c58b 0e3e cb71 dc3d 3108 193f 897b b2be
00000040: 3225 11bf ef04 bbbe 2fc7 6f3e 4b89 adbe
00000050: fa52 81be b931 693e 17ad 16bf a006 a73e
00000060: db62 bdbe 1d9e 193e 7a62 16bf e4a7 90bd
00000070: 0dd7 a0bd 9a95 2e3e 0939 ca3d 2840 c1bd
00000080: c746 2f3e 5f88 57be 8d92 a5be 48a7 e6bd
00000090: 7230 abbe ce64 d1bc 07f2 f03e 52cb 82be
000000a0: 1dc5 dd3e 6ce0 89be 2838 80bd a7ff 863d
000000b0: dbcc 4dbe 58c1 1ebe 835d 85be c4a2 0abe
000000c0: 0792 843e 1414 5a3e beed 20bf 644c ea3e
000000d0: a834 a9be 669a e7be 778d 7a3f f98e 4fbe
000000e0: a936 afbe 116b 733c 9d42 d0bd 39c5 dcbe
000000f0: ddf5 343f 747c b1bf 0b9b eebe 4736 25bf
00000100: 1068 15bf aa79 8abf fd34 533e f566 66be
00000110: b3b7 c1bf 1425 993d

feedforward_blocks.0.linear_layer_2.bias f4 [7]
0.055878352 0.058691856 -0.1306301 0.02432106 -0.08988064 0.05976798 -0.25519145
00000000: b3e0 643d df66 703d e6c3 05be f63c c73c
00000010: 5713 b8bd 45cf 743d 74a8 82be

feedforward_blocks.1.layer_norm.weight f4 [7]
2.2106836 1.1906054 1.624963 2.7384627 1.2971581 2.0252035 1.7165337
00000000: d77b 0d40 c265 983f cafe cf3f f942 2f40
00000010: 4709 a63f ef9c 0140 60b7 db3f

feedforward_blocks.1.layer_norm.bias f4 [7]
-0.43569583 -0.09686893 -0.27652574 -0.08215191 -0.18901153 -0.3145874 0.4772167
00000000: 8613 dfbe 3863 c6bd c894 8dbe 433f a8bd
00000010: 3d8c 41be 9a11 a1be bf55 f43e

feedforward_blocks.1.linear_layer_1.weight f4 [10, 7]
-0.06269365 0.17592694 -0.030329846 0.30367786 0.14689286 0.21623823 0.1325233 -0.64179224
-0.26060608 -0.55726016 -0.47083616 -0.15372333 0.45693997 0.91254556 -0.5162492 1.2021422
0.021158664 0.29520836 0.36820897 -1.2058959 -0.8524201 -0.8233353 -0.20593598 -0.83587986
-0.84508985 0.28949803 -0.6025327 1.0249037 -2.026581 0.78178287 0.63737446 0.11963259
0.7018938 -0.5313352 -0.5561894 0.083366096 0.46613693 -0.42030343 -0.1476804 -0.40304774
0.32523355 0.39798865 -1.02947 -0.37162334 -0.65919834 -0.8244389 0.40556782 -0.62793744
0.8872282 -0.016756611 0.21703343 -0.075926825 -0.39823213 0.3123089 0.90507853 -0.008519669
-0.29684997 0.4868811 -0.19746071 -0.98486865 0.74009943 1.5574901 -0.5635737 0.6605359
0.5131696 0.13264419 0.41900393 0.9391928 0.88089985 -0.72500485
00000000: 8765 80bd 3126 343e 4c76 f8bc aa7b 9b3e
00000010: 156b 163e 8e6d 5d3e 30b4 073e 7f4c 24bf
00000020: 296e 85be 9aa8 0ebf 7011 f1be a669 1dbe
00000030: 09f4 e93e 969c 693f e828 04bf ccdf 993f
00000040: ef54 ad3c 8d25 973e e385 bc3e cc5a 9abf
00000050: 3438 5abf 1ac6 52bf e2e0 52be 39fc 55bf
00000060: cf57 58bf 1639 943e 953f 1abf 0b30 833f
00000070: 81b3 01c0 ec22 483f f92a 233f ee01 f53d
00000080: 50af 333f 9505 08bf 6e62 0ebf d8bb aa3d
00000090: 80a9 ee3e 0332 d7be 8839 17be 465c cebe
000000a0: 0385 a63e 2bc5 cb3e acc5 83bf 6a45 bebe
000000b0: 39c1 28bf 6e0e 53bf 96a6 cf3e 82c0 20bf
000000c0: 6321 633f 2945 89bc 033e 5e3e 867f 9bbd
000000d0: 15e5 cbbe f4e6 9f3e 3ab3 673f 1596 0bbc
000000e0: b8fc 97be 7b48 f93e 2433 4abe 5a20 7cbf
000000f0: 2877 3d3f d65b c73f 5e46 10bf e118 293f
00000100: 155f 033f e1d3 073e af87 d63e f06e 703f
00000110: a782 613f eb99 39bf

feedforward_blocks.1.linear_layer_1.bias f4 [10]
-0.08211692 0.18591698 0.18261875 0.5322439 0.11079897 -0.08523132 0.45727223 -0.4877388
0.20685542 -0.40573746
00000000: ea2c a8bd 0561 3e3e 6900 3b3e 2341 083f
00000010: 92ea e23d c28d aebd 961f ea3e e6b8 f9be
00000020: e8d1 533e d2bc cfbe

feedforward_blocks.1.linear_layer_2.weight f4 [7, 10]
0.5514537 0.22603334 -0.376492 0.13239557 0.21460107 0.048329208 0.112083726 0.3648695
0.22177644 0.32973316 0.09136905 0.30951348 -0.13115402 0.07871444 -0.39669847 -0.1472041
0.075472996 0.30319464 -0.07238297 0.29969132 -0.13261051 -0.26001832 -0.11033993 0.41016626
-0.46811086 -0.05649938 -0.052469086 -0.0024772438 -0.16469309 -0.09708003 -0.20079133 0.12393867
0.14978819 -0.18757191 0.24555375 -0.028929185 -0.26578534 -0.32861352 0.12524252 -0.4584589
-0.37863123 -0.48875389 -0.21805778 -0.00818494 -0.017592495 -0.0046809926 -0.20628402 0.386978
0.0011514592 -0.35782486 -0.0015238444 0.017321544 0.4519033 0.35022366 -0.16241793 -0.50697124
-0.1244844 -0.2473959 0.09330655 0.1883113 0.2641106 -0.61161256 0.89666986 -0.8130911
0.5645882 -0.23573467 -0.7537417 1.220558 1.3262683 0.5366121
00000000: 122c 0d3f 4975 673e 8fc3 c0be b492 073e
00000010: 62c0 5b3e d9f4 453d 278c e53d 2dd0 ba3e
00000020: 5d19 633e c9d2 a83e b21f bb3d 8d78 9e3e
00000030: 3d4d 06be 0935 a13d 101c cbbe acbc 16be
00000040: 9691 9a3d 543c 9b3e 863d 94bd 2471 993e
00000050: 0dcb 07be 1f21 85be e7f9 e1bd 5001 d23e
00000060: 3aac efbe e56b 67bd d3e9 56bd 4159 22bb
00000070: 4ea5 28be e5d1 c6bd 3e9c 4dbe 8fd3 fd3d
00000080: 1362 193e da12 40be 7172 7b3e e6fc ecbc
00000090: 0415 88be 0840 a8be 933f 003e 20bb eabe
000000a0: f4db c1be f33d fabe 8a4a 5fbe 201a 06bc
000000b0: 231e 90bc 0363 99bb 1e3c 53be fb21 c63e
000000c0: 8fec 963a d234 b7be bcbb c7ba e9e5 8d3c
000000d0: df5f e73e 8450 b33e e350 26be dec8 01bf
000000e0: adf1 febd 5a55 7dbe 8117 bf3d add4 403e
000000f0: 8139 873e a492 1cbf 288c 653f bd26 50bf
00000100: da88 103f 6e64 71be 37f5 40bf 3f3b 9c3f
00000110: 29c3 a93f 695f 093f

feedforward_blocks.1.linear_layer_2.bias f4 [7]
0.0 0.0 0.0 0.0 0.0 0.0 -0.1607729
00000000: 0000 0000 0000 0000 0000 0000 0000 0000
00000010: 0000 0000 0000 0000 a7a1 24be

linear_layer_1.weight f4 [115, 115]
-0.2095954 -0.19524144 -0.29252675 -0.4234527 0.057050828 0.012758655 0.52143764 0.36321265
-0.021763692 -0.61011463 -0.36147374 0.048984352 -0.39163694 0.13879417 0.19561774 0.018967634
-0.19111487 0.18955918 -0.0883931 -0.08022365 -0.23471828 0.24855669 0.45790732 -0.33034712
0.23636332 -0.19917105 -0.14801607 0.48018545 -0.023209132 0.58703095 0.27820826 -0.40199453
0.12024702 -0.38596666 -0.05071344 0.2257268 0.036585316 0.53318685 -0.7090239 0.27664188
0.17321323 -0.26989496 0.22051424 -0.3009337 0.09267755 0.22386327 0.92000836 -0.073785976
0.008474583 0.02135636 0.22142643 -0.062824 0.19640481 0.08835026 -0.5791827 -0.13528253
0.11782228 0.5681155 0.10693125 0.39963937 -0.073250316 0.17533833 -0.12831496 -0.47234666
-0.18372324 -0.3619286 0.2164772 -0.15833351 -0.17772672 0.099289246 0.37982574 0.2607557
0.35502443 -0.81888986 -0.2021368 0.13284332 -0.2520497 0.45081145 -0.35922068 -0.18432154
0.37389913 0.40969738 0.15408763 0.10557266 -0.15856251 0.0012519399 -0.34717575 0.45806667
0.17755413 -0.30015796 -0.15794492 -0.4272472 0.3455247 0.19916874 -0.21957141 -0.101948604
0.24307582 -0.07200287 0.21279278 -0.009439057 -0.20851786 0.20452589 -0.23827823 0.07967522
-0.06274704 0.016881645 0.07964578 0.108052514 -0.03952232 0.115761444 -0.18722686 0.47770292
0.03925192 -0.15497811 -0.1405085 0.3574568 -0.04490753 0.2054885 0.19579811 0.39887315
-0.10414799 0.07139027 -0.509227 -0.09629079 -0.2330956 0.27821618 -0.13065669 -0.10824667
-0.12836434 0.12649718 -0.13145888 -0.19872683 0.54117507 0.20235065 -0.4309194 0.06379152
-0.08158421 0.48760107 0.093080185 -0.15229477 -0.4996283 0.6225688 0.4258583 -0.46839872
-0.06325413 0.35673356 -0.3838336 -0.054840762 0.34214482 -0.17391895 -0.16913435 -0.026187422
0.14348708 -0.15135393 -0.02917714 -0.02677817 -0.48628953 0.14002544 0.1141307 -0.34985343
-0.3678414 -0.061818767 0.17358975 0.5263109 -0.23571436 -0.24618456 0.20990512 -0.25915474
0.3613725 0.02983664 -0.06423593 -0.12243372 0.14478585 -0.0012481221 0.22035918 -0.3234601
0.25467902 -0.069884054 0.08581221 -0.045015 -0.32290483 0.52652293 -0.15730838 -0.34880427
-0.2054878 -0.44476143 -0.33370036 0.13115913 -0.15160638 -0.11222221 -0.09961359 -0.16351485
-0.26257616 0.068393715 0.34460548 0.2336433 0.12176669 -0.46577686 0.018204637 -0.10055097
0.050292898 0.039820492 0.1967918 0.22418171 -0.2009145 0.17404534 0.45434952 -0.08405857
0.1626055 0.02167025 0.22231095 0.6830325 0.6020942 0.06698815 -0.64187866 -0.3297116
-0.064487636 0.2811783 -0.55041385 -0.13362725 0.073737755 0.23134865 0.3436049 0.200571
0.10563035 0.08719869 0.20326014 -0.19195752 -0.019379351 -0.12834817 0.0994199 -0.19681065
-0.27248612 -0.29386908 0.25308228 0.0831125 -0.08983065 0.09837907 0.5185291 0.012879674
-0.042145602 -0.00835959 0.017696014 0.32264587 0.22693582 0.20913391 -0.22237222 0.21225686
0.64909816 -0.19273257 0.09407913 0.35932052 -0.021349207 0.009975612 -0.12976463 0.15789087
00000000: 2da0 56be 5fed 47be 11c6 95be cbce d8be
00000010: 21ae 693d ad09 513c f07c 053f 02f7 b93e
00000020: c549 b2bc 7930 1cbf 1613 b9be d1a3 483d
00000030: a384 c8be 0f20 0e3e 0450 483e 0362 9b3c
00000040: 9eb3 43be cd1b 423e 7107 b5bd 4c4c a4bd
00000050: fd59 70be a585 7e3e d472 ea3e 4223 a9be
00000060: 3a09 723e 7ff3 4bbe 8691 17be deda f53e
00000070: 1421 bebc a947 163f 5071 8e3e 3ad2 cdbe
00000080: 1244 f63d 6c9d c5be e5b8 4fbd ed24 673e
00000090: 7cda 153d ef7e 083f 9782 35bf 01a4 8d3e
000000a0: cf5e 313e ac2f 8abe 7cce 613e fb13 9abe
000000b0: bacd bd3d 6a3c 653e ab85 6b3f 1a1d 97bd
000000c0: fad8 0a3c 88f3 ae3c 9cbd 623e dfa9 80bd
000000d0: 581e 493e fbf0 b43d 5145 14bf 8187 0abe
000000e0: cf4c f13d 0470 113f c5fe da3d 889d cc3e
000000f0: 4304 96bd e48b 333e ff64 03be 6cd7 f1be
00000100: f221 3cbe b54e b9be 33ac 5d3e 2e22 22be
00000110: fefd 35be 2958 cb3d 8578 c23e c581 853e
00000120: c3c5 b53e c4a2 51bf f3fc 4ebe 1408 083e
00000130: a90c 81be c2d0 e63e c6eb b7be c9be 3cbe
00000140: b56f bf3e dbc3 d13e 26c9 1d3e 7b36 d83d
00000150: 365e 22be 2218 a43a 05c1 b1be b787 ea3e
00000160: c0d0 353e 4eae 99be 50bc 21be 25c0 dabe
00000170: 9de8 b03e e4f2 4b3e 54d7 60be 6eca d0bd
00000180: dee8 783e 3e76 93bd 5ae6 593e 46a6 1abc
00000190: b585 55be 3c6f 513e 35ff 73be c32c a33d
000001a0: 8581 80bd 604b 8a3c 541d a33d a34a dd3d
000001b0: 28e2 21bd 5614 ed3d 66b8 3fbe 7a95 f43e
000001c0: 9fc6 203d 95b2 1ebe 76e1 0fbe 9404 b73e
000001d0: f5f0 37bd 946b 523e 4d7f 483e 1a39 cc3e
000001e0: 8b4b d5bd 1035 923d b35c 02bf 1b34 c5bd
000001f0: 9db0 6ebe 5a72 8e3e deca 05be 6eb0 ddbd
00000200: f171 03be 7a88 013e 289d 06be 0c7f 4bbe
00000210: 738a 0a3f 0235 4f3e 78a1 dcbe 21a5 823d
00000220: 9f15 a7bd d9a6 f93e d3a0 be3d 29f3 1bbe
00000230: 48cf ffbe ab60 1f3f 190a da3e f5d1 efbe
00000240: 628b 81bd c8a5 b63e d685 c4be b5a0 60bd
00000250: 9b2d af3e cf17 32be 8e31 2dbe 0187 d6bc
00000260: 47ee 123e 86fc 1abe e604 efbc e55d dbbc
00000270: f1fa f8be d462 0f3e 5bbd e93d fd1f b3be
00000280: b555 bcbe ad35 7dbd 83c1 313e 50bc 063f
00000290: 1b5f 71be ce17 7cbe 5ef1 563e eeaf 84be
000002a0: d105 b93e f86b f43c 218e 83bd 88be fabd
000002b0: be42 143e 0798 a3ba d6a5 613e 909c a5be
000002c0: 4a65 823e 5f1f 8fbd 50be af3d a661 38bd
000002d0: c853 a5be 35ca 063f 7315 21be 7996 b2be
000002e0: 656b 52be c5b7 e3be c6da aabe 944e 063e
000002f0: b43e 1bbe c2d4 e5bd 3602 ccbd 7070 27be
00000300: 6270 86be 0112 8c3d 2170 b03e 3040 6f3e
00000310: d060 f93d 4e7a eebe e421 953c abed cdbd
00000320: edff 4d3d d01a 233d ca83 493e e48f 653e
00000330: 88bc 4dbe f138 323e 80a0 e83e e626 acbd
00000340: 0e82 263e cf85 b13c 7ba5 633e 38db 2e3f
00000350: d822 1a3f 1531 893d 2952 24bf f5cf a8be
00000360: 1812 84bd 9af6 8f3e ece7 0cbf 95d5 08be
00000370: d203 973d a9e6 6c3e fbec af3e 7c62 4d3e
00000380: ba54 d83d 3a95 b23d 6d23 503e 8390 44be
00000390: 72c1 9ebc b46d 03be a99c cb3d bb88 49be
000003a0: 4d83 8bbe 0276 96be 0094 813e e336 aa3d
000003b0: 22f9 b7bd f77a c93d 53be 043f 4505 533c
000003c0: dea0 2cbd a9f6 08bc 3bf7 903c d731 a53e
000003d0: dd61 683e 3327 563e 8bb5 63be dd59 593e
000003e0: 4c2b 263f b05b 45be 8fac c03d dcf8 b73e
000003f0: 88e4 aebc c070 233c 05e1 04be 25ae 213e

linear_layer_1.bias f4 [115]
0.0 0.0 0.0 0.0 0.0 0.0 0.0 0.0
0.0 0.0 0.0 0.0 0.0 0.0 0.0 0.0
0.0 0.0 0.0 0.0 0.0 0.0 0.0 0.0
0.0 0.0 0.0 0.0 0.0 0.0 0.0 0.0
0.0 0.0 0.0 0.0 0.0 0.0 0.0 0.0
0.0 0.0 0.0 0.0 0.0 0.0 0.0 0.0
0.0 0.0 0.0 0.0 0.0 0.0 0.0 0.0
0.0 0.0 0.0 0.0 0.0 0.0 0.0 0.0
0.0 0.0 0.0 0.0 0.0 0.0 0.0 0.0
0.0 0.0 0.0 0.0 0.0 0.0 0.0 0.0
0.0 0.0 0.0 0.0 0.0 0.0 0.0 0.0
0.0 0.0 0.0 0.0 0.0 0.0 0.0 0.0
0.0 0.0 0.0 0.0 0.0 0.0 0.0 0.0
0.0 0.0 0.0 0.0 0.0 0.0 0.0 0.0
0.0 0.0 0.0
00000000: 0000 0000 0000 0000 0000 0000 0000 0000
00000010: 0000 0000 0000 0000 0000 0000 0000 0000
00000020: 0000 0000 0000 0000 0000 0000 0000 0000
00000030: 0000 0000 0000 0000 0000 0000 0000 0000
00000040: 0000 0000 0000 0000 0000 0000 0000 0000
00000050: 0000 0000 0000 0000 0000 0000 0000 0000
00000060: 0000 0000 0000 0000 0000 0000 0000 0000
00000070: 0000 0000 0000 0000 0000 0000 0000 0000
00000080: 0000 0000 0000 0000 0000 0000 0000 0000
00000090: 0000 0000 0000 0000 0000 0000 0000 0000
000000a0: 0000 0000 0000 0000 0000 0000 0000 0000
000000b0: 0000 0000 0000 0000 0000 0000 0000 0000
000000c0: 0000 0000 0000 0000 0000 0000 0000 0000
000000d0: 0000 0000 0000 0000 0000 0000 0000 0000
000000e0: 0000 0000 0000 0000 0000 0000 0000 0000
000000f0: 0000 0000 0000 0000 0000 0000 0000 0000
00000100: 0000 0000 0000 0000 0000 0000 0000 0000
00000110: 0000 0000 0000 0000 0000 0000 0000 0000
00000120: 0000 0000 0000 0000 0000 0000 0000 0000
00000130: 0000 0000 0000 0000 0000 0000 0000 0000
00000140: 0000 0000 0000 0000 0000 0000 0000 0000
00000150: 0000 0000 0000 0000 0000 0000 0000 0000
00000160: 0000 0000 0000 0000 0000 0000 0000 0000
00000170: 0000 0000 0000 0000 0000 0000 0000 0000
00000180: 0000 0000 0000 0000 0000 0000 0000 0000
00000190: 0000 0000 0000 0000 0000 0000 0000 0000
000001a0: 0000 0000 0000 0000 0000 0000 0000 0000
000001b0: 0000 0000 0000 0000 0000 0000 0000 0000
000001c0: 0000 0000 0000 0000 0000 0000
