models/ecoli_core_v5_metabolic_nn.pth (torch, 378489 bytes, 6 tensors)

model.0.weight f4 [256, 20]
000000 82 3d 45 3d 49 75 8d bd 3f fe ba be fe 75 85 3e
       0.04815436 -0.06907136 -0.365221 0.26066583
000010 bb 03 94 bd c6 5f 56 bd e1 08 af 3e 49 cb 5f 3d
       -0.07227274 -0.05233743 0.34186462 0.054637227
000020 40 08 7c 3e 9e 3c 57 3d 04 57 23 3e d4 f4 c6 3c
       0.24612522 0.052548043 0.15951163 0.024286665
000030 45 d9 0e 3e 2c 9c 24 3e 92 8e ac bd 2e ca 3d 3b
       0.13950069 0.160752 -0.08425631 0.002895962
000040 3f ab f0 bd f6 89 eb 3d b5 e7 4e 3e c9 be f0 bc
       -0.117514126 0.11500923 0.20205577 -0.029387848
000050 28 47 53 be 59 2f 59 be 7c fa 28 be 15 b4 5b be
       -0.20632613 -0.21209468 -0.16501802 -0.21455415
000060 a4 8a 36 be a1 0e 86 bd 36 9f d5 3c 5a 20 69 be
       -0.17826325 -0.06545759 0.026076894 -0.22766247
000070 8c 0f 70 3e 3a e6 5c 3d 2c 4a 6f 3d 34 1a b2 bb
       0.2344343 0.0539305 0.058420345 -0.0054352526
000080 52 ed 86 3e 53 0a 01 3e f8 8f 07 3d 4a 66 21 bd
       0.26352936 0.12601595 0.033096284 -0.03940419
000090 92 3d 0e be 4a 15 e7 3d ce 51 14 3d 43 46 d2 3c
       -0.13890675 0.112833574 0.036210828 0.025668269
0000a0 2d b9 a6 3e 06 7f c4 3e e0 c8 af be 02 95 59 be
       0.32563153 0.3837816 -0.34332943 -0.21248248
0000b0 d6 a0 59 bb b2 bb 71 3c e4 92 39 3e d6 6e 26 3e
       -0.0033207438 0.014754223 0.1812244 0.16253218
0000c0 78 52 99 3d 61 b1 8f be cf 67 a7 be b8 97 88 bc
       0.07486433 -0.28065017 -0.32696387 -0.016673908
0000d0 dd 98 5a 3e 09 86 02 3e cd 01 04 3e 1e a6 1b 3d
       0.21347375 0.12746443 0.12891312 0.03800022
0000e0 e8 ae 0b be b1 89 e9 bd bd 5f 12 be 41 e5 0e 3e
       -0.1364094 -0.11403216 -0.14294334 0.13954641
0000f0 61 22 54 bd db a8 63 be 12 2b 7f bd de 76 3e be
       -0.0517906 -0.22232382 -0.062296934 -0.18600032
000100 aa 39 f9 bd b0 76 2b 3e 46 2e 83 bd 0f d6 4a be
       -0.12169202 0.16744494 -0.0640531 -0.1980822
000110 2b 0b 9b 3e a0 ad f7 3d 1c 04 e5 bd 11 09 ea bd
       0.30281958 0.12093663 -0.111824244 -0.114275105
000120 d8 3b cf 3e 96 c6 55 be 51 18 98 3d b4 1f 8e 3d
       0.40475345 -0.20876536 0.07426513 0.06939641
000130 53 b3 70 bc df 0f 87 bd e9 7a 3d bc 84 00 64 3e
       -0.014691192 -0.06594824 -0.011564949 0.22265822
000140 59 cf 3d 3e 78 34 72 3d 32 63 04 37 0f 7a f5 3d
       0.18536128 0.05913207 7.890909e-06 0.119861715
000150 58 25 56 bb ef 0b 7b 3b 5e ad 76 bc 1d 80 75 ba
       -0.0032676067 0.0038306674 -0.015055982 -0.00093650987
000160 bb f6 a3 39 5a 42 a4 3e 1a c8 02 ba c7 5c 78 3c
       0.0003127361 0.32081872 -0.0004988924 0.015158839
000170 f9 e0 ca 3e 42 89 de 3b f3 5b 5c 3e 6f eb 9b 3d
       0.39624766 0.0067912648 0.21519451 0.07613265
000180 b7 67 41 bd 01 f4 05 3c 69 c9 f2 3d cb 7b 36 3d
       -0.04721805 0.008175851 0.11854822 0.044551652
000190 05 46 4e be d4 75 7e be 54 da 1e 3e 5e cb 97 3e
       -0.20143898 -0.24849635 0.15512973 0.29647344
0001a0 84 be 87 3d 20 ee 19 3b a6 1c ed bd 4a 36 73 be
       0.06628135 0.002348788 -0.1157773 -0.23751178
0001b0 59 49 87 be 01 95 be be 44 3d 66 be c4 66 22 3d
       -0.26423147 -0.37223056 -0.22484308 0.039648786
0001c0 75 37 b8 be 7d d9 2b 3d d0 a2 64 3e a3 90 61 be
       -0.3597981 0.04195546 0.22327733 -0.22027831
0001d0 af da d4 bd 57 41 e8 bd bd ed cf bd bf ec 67 3d
       -0.10393273 -0.113405876 -0.10152767 0.056622263
0001e0 08 14 1d bf cc 52 1a bf 19 80 21 be ae d7 d6 bd
       -0.6135869 -0.6028259 -0.15771522 -0.104903564
0001f0 db 7d 06 3e 7e 2d 01 be 86 0c 87 3d 02 a5 16 3d
       0.13133948 -0.1261501 0.065941855 0.036778457
000200 7c a0 79 bb 05 16 c3 3c ff a3 48 3d 95 3a 72 3b
       -0.003809004 0.02381421 0.048984524 0.0036961187
000210 74 70 c9 3b 5d 1f c5 3d b7 38 63 be 3b 5b 0d 3e
       0.0061474387 0.09625123 -0.22189604 0.13804333
000220 4d 55 b4 3c 0a cf 19 3e c0 00 47 3e 1b 44 84 bc
       0.02201333 0.15020385 0.1943388 -0.016145756
000230 7f 19 35 bf b6 a4 25 bf eb d3 ea 3d a6 24 83 3d
       -0.7074203 -0.64704454 0.114662014 0.064034745
000240 aa 97 cc bb be 49 42 3e 8e 17 8d 3d a0 b6 48 3d
       -0.0062436657 0.18973443 0.06889258 0.04900229
000250 f4 e0 7d 3d f3 b5 a0 3d b1 40 53 3d ce 6a a6 ba
       0.06198211 0.07847204 0.051575366 -0.0012696625
000260 38 58 25 3d 5a fc 34 3c 2b 5f 39 be 79 10 50 3e
       0.040367335 0.011046493 -0.1810271 0.20318784
000270 64 f4 04 bd fa 5f 52 3d 8c 53 f5 3c 4c cf 3a be
       -0.03245963 0.05136106 0.029947065 -0.1824314
000280 b0 ee 53 bd 0d 5c 5e be fb 3f 7b 3e c0 d3 b7 3e
       -0.051741302 -0.21714802 0.24536125 0.3590374
000290 7a db 4d bd 7d 63 06 3e f2 60 2a 3e 54 33 bb 3d
       -0.050258137 0.1312389 0.16638544 0.091406494
0002a0 a2 d8 60 3d 31 22 b3 bd 41 8e 8c bd bd ec 90 3c
       0.054894097 -0.08746756 -0.0686307 0.01769101
0002b0 14 13 d1 3d 22 ed 82 3d 9e 6b ab 3c dd b6 4b 3e
       0.10208717 0.06392886 0.02092534 0.19893976
0002c0 e9 14 39 3e ec d4 05 bd 12 65 28 be 85 eb 37 3e
       0.18074383 -0.03267376 -0.16444805 0.17960937
0002d0 09 5d 03 bf 68 b4 cf be a0 ee bf 3c 33 a3 17 3e
       -0.51313835 -0.40567327 0.023429215 0.1480835
0002e0 aa 3b b3 bd 5f af 5d 3d a1 f3 ac 3e d3 a9 59 3e
       -0.087516144 0.054122325 0.33779624 0.21256189
0002f0 01 eb 92 3e 0f 56 c8 bb 5f 75 0e 3e f7 e1 34 3d
       0.2869492 -0.0061137746 0.13911961 0.04416081
000300 b4 31 5c bc 6c 78 08 3d ad 78 b7 bd 10 2c 41 be
       -0.0134395845 0.03331797 -0.08958564 -0.18864465
000310 da cf 00 bc 01 94 5d be 81 3a 32 3e fe df 0b be
       -0.007862056 -0.2163849 0.1740513 -0.13659665
000320 5d a2 11 bf 43 48 a9 be a5 77 82 bc 25 e8 a1 be
       -0.5688837 -0.33062944 -0.015926192 -0.31622425
000330 e6 89 fa 3d 16 e9 78 3e 93 ec ff bd 97 7a 1d be
       0.12233333 0.24307665 -0.12496295 -0.15378796
000340 3d 32 1b be 39 d7 31 3e b9 f5 25 3e 29 23 c1 bb
       -0.15155883 0.17367257 0.16207017 -0.005894084
000350 13 fa 77 3e 30 f3 01 be c1 dd 32 bc d3 20 5c bc
       0.2421649 -0.12690425 -0.010917128 -0.01343556
000360 f1 f9 9c 3d c6 7e 03 bc bb 61 a8 3d 44 43 a9 bd
       0.0766486 -0.008025831 0.082217656 -0.08264783
000370 b5 71 cc 3e 45 ed 4e be 06 03 05 3e 59 21 83 3d
       0.39930502 -0.20207699 0.12989435 0.06402845
000380 a2 1f 59 3e 41 73 90 3e 30 5b 75 be f0 6b 19 be
       0.21203473 0.28212932 -0.23960567 -0.14982581
000390 85 f9 0b bb c5 dd 5b 3e 88 71 2f 3e 20 94 1e bd
       -0.0021358442 0.21471317 0.17133152 -0.03871548
0003a0 38 6a 3c 3e b5 65 55 3e cb 87 f1 3d 19 a0 34 3c
       0.18399894 0.2083958 0.117934786 0.011024498
0003b0 38 c7 b6 3d 0e 2d 10 be b2 35 4b be 44 42 57 3e
       0.08924717 -0.14079687 -0.19844702 0.21021372
0003c0 38 cc 8a 3d 36 68 02 3e 20 c5 45 3d ac fe dc 3d
       0.06777233 0.12735066 0.048283696 0.10790762
0003d0 a9 be 57 3e 33 5d 04 bd c1 5a ef bc 3f 59 12 3e
       0.21068825 -0.032315444 -0.02921808 0.14291857
0003e0 87 aa e6 bd 86 7f b4 bb bf 37 2a 3d 8f 6f 37 37
       -0.11262994 -0.005508366 0.04155707 1.0933624e-05
0003f0 5e 26 a1 bb 90 a5 25 be 34 ce db bb b1 65 1c 3d
       -0.004917904 -0.16176438 -0.006707931 0.038182918

model.0.bias f4 [256]
000000 56 39 38 be d1 4f d4 bc 9e d5 1f 3e 9e a2 ac bd
       -0.17990622 -0.025916966 0.15608832 -0.08429454
000010 4a bf 14 3f 5f 0b 83 be 02 46 d6 be 9a 12 de be
       0.58104384 -0.25594613 -0.41850287 -0.43373567
000020 91 e3 d6 3e 14 e0 7a 3e 99 4c e5 be c0 17 8f 3d
       0.41970494 0.24499542 -0.44785002 0.06986952
000030 da eb 56 3e 5f d6 02 3f 67 be d6 bd d5 da b8 3e
       0.20988408 0.51108354 -0.10485535 0.36104456
000040 9a 2c 75 bd f0 2a bb 3e 2c 4a 3b be 0f c3 37 3e
       -0.05985699 0.36556196 -0.18290013 0.17945503
000050 0d 45 4c be 67 6a c6 3e cf a1 63 3c ff 6f 40 3e
       -0.19948216 0.38753054 0.013893559 0.18792723
000060 47 3e d8 bc 06 f8 93 bd e6 37 5e bc b6 a3 8f 3e
       -0.026396884 -0.07225041 -0.013563132 0.2805459
000070 ec b4 07 be 49 da ba 3e 23 e9 6a 3e f3 3a 9c 3e
       -0.1325261 0.36494663 0.22940497 0.30513725
000080 c2 42 0d 3d 6a 31 00 be 2e a1 d6 be 98 83 6a 3e
       0.034487493 -0.1251885 -0.41919845 0.22901762
000090 11 25 5c be ed 76 e7 3c b7 d1 6e 3e 49 2f d1 be
       -0.21498515 0.02825495 0.23322187 -0.40856388
0000a0 7e a2 0a 3d db 9a 10 be f8 8f 05 3f 61 e2 c4 3e
       0.03384637 -0.14121573 0.52172804 0.38453963
0000b0 a0 4b 0c 3f c1 df 2e 3d 2b e7 16 3e c4 23 e7 3d
       0.54802895 0.042693857 0.14736621 0.112861186
0000c0 93 b2 65 be 7a 7e 64 bc f2 c1 00 3f bc e7 f5 3e
       -0.22431402 -0.01394617 0.5029594 0.48028362
0000d0 62 10 85 3e 37 e4 17 3c fc 67 e8 3e fb c4 da 3e
       0.25989062 0.009270719 0.45391834 0.4272841
0000e0 72 41 c6 be 6a 36 00 3e 4a 5f c1 3c 78 ef d9 bd
       -0.38721806 0.12520757 0.023605008 -0.10641378
0000f0 b8 c4 a2 bd d2 c0 8d 3e de 6f d1 3d cd 0e e0 3d
       -0.079476774 0.27686173 0.10226415 0.10940323
000100 7b 8c 0f 3f ba 90 86 be 25 95 ac 3d 1d 18 48 bf
       0.5607373 -0.26282293 0.084268846 -0.78161794
000110 71 52 d5 bd aa e6 4a be fe 12 08 3e a5 a1 21 be
       -0.10416115 -0.19814554 0.13288495 -0.15784319
000120 51 5f 38 3e e5 0f 15 be fd dc 1c bb dc 30 0d be
       0.1800511 -0.14556845 -0.002393543 -0.1378817
000130 7b 58 9d 3e be 31 f0 bb 6b e4 98 be 27 bf 86 3e
       0.30731568 -0.0073301485 -0.2986177 0.26317713
000140 ef 08 95 3e df e1 54 3e 86 76 16 bf 3a 92 e5 3c
       0.29108378 0.20789288 -0.587746 0.028023828
000150 13 6f 6e 3e f7 67 16 be 72 b0 2b 3c 55 98 c7 bd
       0.23284559 -0.14688097 0.01047908 -0.09745852
000160 85 7d 12 3d 22 7f c0 3e d1 7d 10 3f 20 28 11 3d
       0.035764236 0.37596995 0.5644198 0.035438657
000170 13 7f 7e 3e ea e9 88 3e fc f7 05 3f bb 94 12 be
       0.24853162 0.26740962 0.5233152 -0.14314549
000180 ef 4c a6 3e 00 80 69 3e b9 91 a4 be 68 f3 e5 3e
       0.3248057 0.22802734 -0.32142428 0.44912267
000190 62 21 65 bb 05 fb be bc 2e 57 a4 be 85 ac 0b bc
       -0.0034962525 -0.023313055 -0.32097763 -0.008525019
0001a0 c8 1f 63 3e 9d 66 86 3b 96 b1 c3 bd 59 82 f8 bd
       0.22180092 0.004101588 -0.09555356 -0.12134237
0001b0 95 e5 c0 3e 6a 8f ce be 10 b3 dc be fc 1f f9 3c
       0.37675157 -0.4034379 -0.43105364 0.03041076
0001c0 be 02 a9 be 88 31 6f 3e 0b 39 04 3f 06 7d 9a be
       -0.33009905 0.23358738 0.5164954 -0.3017351
0001d0 d5 f4 fc 3d 02 a0 49 3c 72 90 6f 3e b7 5c 4c 3e
       0.123513855 0.012306215 0.23394945 0.19957243
0001e0 ce 16 9d 3e 96 f7 09 3f 40 e3 8a 3d 60 70 ee 3d
       0.3068146 0.5389341 0.06781626 0.116425276
0001f0 1f 81 96 be c2 e6 9d 3e f6 67 0c bf 3e 9e 61 3e
       -0.29395387 0.30840117 -0.5484613 0.22033021
000200 ca 2b e3 3d 1d 4e 02 3f 10 10 33 be 65 7c 8d be
       0.110923365 0.5090044 -0.17486596 -0.27633968
000210 37 5a b8 3e e0 56 a8 bd 48 b7 6c bd 2f bf 07 be
       0.36006328 -0.08219695 -0.057791978 -0.13256525
000220 1c f5 6d be cc 67 62 bd 4c f3 89 3d a5 2a 8e 3e
       -0.23238033 -0.05527477 0.06735858 0.2776691
000230 a4 18 1b 3d 7a c8 09 3f 9f f3 90 3e e7 a9 8a 3e
       0.037865296 0.5382153 0.28310868 0.2708275
000240 36 06 c1 3e 80 55 f4 be e1 21 50 3e 97 4d 3a 3e
       0.3770005 -0.4772148 0.20325424 0.1819366
000250 38 bd c5 3e c3 0b 03 3f e9 b9 03 3d cb 13 f8 3d
       0.38620925 0.5118982 0.03215972 0.1211315
000260 c6 1a 33 be 29 c2 1e bf 32 26 e0 3e 5a c5 b4 be
       -0.17490682 -0.62015015 0.4377914 -0.35306817
000270 07 5b 4d 3e 21 68 f7 3e 16 98 b8 bd 6f f8 07 bd
       0.20054255 0.48321632 -0.09013383 -0.03319591
000280 eb 64 35 bd 50 5a 65 bd f9 cd 9a 3e ea 4e ee 3d
       -0.044285696 -0.05599433 0.3023527 0.116361454
000290 46 c0 d3 3e 28 5e 53 3e af 01 79 3e e5 66 91 bd
       0.4135763 0.20641387 0.24317048 -0.07099704
0002a0 9f ac b0 3d 3c be 34 3e 85 a6 61 3e ad 2b 5a 3e
       0.08626675 0.17650694 0.22036178 0.21305723
0002b0 b4 99 b5 be 94 df 92 be 28 5a 99 3e 61 5c ec be
       -0.3546883 -0.28686202 0.29951596 -0.4616423
0002c0 10 05 5b be 55 c6 cd bd b7 46 58 be ad d0 01 bf
       -0.2138865 -0.100475945 -0.21120726 -0.5070904
0002d0 94 8d 66 3e b4 0d 32 bd 14 c3 e3 be 98 53 df 3e
       0.22514945 -0.0434701 -0.4448477 0.43618464
0002e0 ff b6 cb 3c c0 df 1c 3e b1 4c e4 3e ee a8 9b bd
       0.024867533 0.15319729 0.4458976 -0.0760058
0002f0 8a 57 e0 3e d2 6c 23 be e2 c6 0c be f9 e1 08 3f
       0.43816787 -0.1595948 -0.13747743 0.53469807
000300 d1 0f a1 3e bb 6b 7d 3e b1 fa 11 3e cd e8 15 3e
       0.3145738 0.24748127 0.14255787 0.14639588
000310 9f cf 86 bf a9 67 05 3e cd 98 74 3e 01 cf 71 bd
       -1.0532111 0.13027824 0.23886414 -0.059035305
000320 6e e9 f5 bd 22 90 4f 3e fa 7c 35 3e 00 17 b5 3d
       -0.12007414 0.20269826 0.17723456 0.088422775
000330 9f 72 67 3d 13 c5 82 3d f2 17 f4 3e 05 1a 1d 3e
       0.056505796 0.06385245 0.4767452 0.15341957
000340 3d b3 5b 3c 8c 9e 38 bc f1 6c 6b be b1 d9 92 bd
       0.013409433 -0.011268269 -0.22990777 -0.071704276
000350 e6 8d 6c bf 6b cc 8c 3e 3d 98 5d 3e df fa 8c be
       -0.9240402 0.2749971 0.21640106 -0.2753515
000360 6c 0e fa be 3c c7 7e be 2d 99 38 3d 8d c7 67 bc
       -0.48839128 -0.2488069 0.045067955 -0.014146698
000370 32 ac 0e 3e dc c7 5c be 0d e7 ce 3e 4a 14 37 3e
       0.13932875 -0.21560615 0.40410653 0.17878833
000380 ea 04 8c 3e 4a b9 c0 3c e1 cf c2 3d 86 dd 9b bd
       0.273475 0.023525853 0.09512306 -0.076106116
000390 ea ac 83 be 17 da 51 be b8 c7 d3 3d b8 6b 1e 3f
       -0.2571786 -0.20493351 0.10340828 0.61883116
0003a0 87 09 b3 3d ae 82 35 bf ee 87 67 3d 1b 3f 37 3e
       0.087420516 -0.70902526 0.056526117 0.17895167
0003b0 ed ec f3 bd fa 88 81 3e 54 29 ff 3d 02 94 7c 3c
       -0.119104244 0.25299817 0.124590546 0.015416147
0003c0 33 64 27 3e 22 4c 90 3e 89 de dd bd 5a 94 dc 3c
       0.16346817 0.28183085 -0.10833461 0.026926208
0003d0 68 ff e9 3d 33 b8 75 3e c8 10 06 3e 09 73 e5 be
       0.11425668 0.23996048 0.13092339 -0.44814327
0003e0 1b ed f6 3d 74 91 83 3e 83 1d 1b be 6a 22 59 3e
       0.12056943 0.2569691 -0.15147977 0.21204534
0003f0 a2 d8 7e 3e 3f e3 2d 3e e0 74 0e bf 3d 6b e8 bd
       0.24887326 0.16981219 -0.5564709 -0.11348579

model.2.weight f4 [256, 256]
000000 de ec 37 bd c6 1f 4d 3d 40 a3 8e bb 28 ff 15 bd
       -0.04490363 0.05007913 -0.004352957 -0.03662029
000010 4d 2a 7a bc ff d1 82 bc df c5 d7 3c 0e 29 af 3d
       -0.015268874 -0.015969275 0.02633947 0.085527524
000020 be ae 54 bc df 0d 29 3d 7b 6e d0 3d a4 bf 3a bd
       -0.012981115 0.041272994 0.101773225 -0.04559292
000030 5d be 03 bd 8e 26 3b 3d 2f 35 b1 bc 7c 6a 11 3d
       -0.032163966 0.045691065 -0.021631805 0.035501942
000040 36 cf 8a 3c 10 56 cc 3d 9f 58 88 bc 08 e0 f9 3b
       0.016944509 0.099773526 -0.01664382 0.0076255836
000050 6e 0c 68 3d 01 70 95 3d 3d 75 10 3d 88 90 1f 3d
       0.05665248 0.07296754 0.035268057 0.038956195
000060 fd 1e 7d 3c 2f 4b 01 3a 3b 2f 4d bb a5 c3 a2 3d
       0.015449283 0.00049321627 -0.003130867 0.079474725
000070 6f e9 59 bc 03 f5 48 3d 53 de 08 3d 78 2c b0 3c
       -0.013300284 0.049061786 0.03341515 0.02150558
000080 f1 85 b3 3b d3 99 42 3e a9 e6 79 3e 56 ae 61 3d
       0.0054786135 0.19003992 0.24404396 0.0550979
000090 e4 d7 b5 3c a8 be 8f 3d c9 5f 2f 3d fb 86 fe 3c
       0.022197671 0.07018787 0.042815957 0.031070223
0000a0 90 e2 b6 3d 41 d2 04 bc 49 d6 a8 bd 16 da 9e 3c
       0.08929932 -0.008106769 -0.08243997 0.0193911
0000b0 04 a9 f0 3b 11 4a 96 3d 03 70 b5 3d f1 6f d2 3c
       0.007344367 0.07338346 0.08859255 0.025688143
0000c0 9c 39 92 3c 10 c3 1a 3e 34 7f 70 3d da e2 12 3d
       0.017849736 0.15113473 0.05871506 0.035860874
0000d0 b9 32 ad bb 4f 8a 9b bd d6 74 90 3d 45 3b a9 3b
       -0.0052855876 -0.0759474 0.07053535 0.005164536
0000e0 ac a7 0d bd d7 fe 9c 3d 81 ff 8b 3d 59 21 e7 3c
       -0.034583732 0.07665794 0.06835843 0.028214144
0000f0 39 e5 3e 3c 3a 88 32 3c 43 78 78 3d 0d ec 17 bd
       0.011651331 0.010896737 0.060661566 -0.03709035
000100 02 3d 43 3d 3d 80 ae 3d 8c 41 87 3c a7 40 b7 3d
       0.047665603 0.08520553 0.016510747 0.08947878
000110 86 d8 b9 3c a0 d9 40 bd 8f 89 38 3d 8f cf a6 3d
       0.022686254 -0.047082543 0.04505306 0.081450574
000120 f3 62 71 3d ac cb 18 3d a9 a1 4e bc 0d be 86 3d
       0.058932256 0.03730361 -0.012611785 0.06579218
000130 81 06 0d 3e 2a bd 2e 3c 88 45 86 bb 17 9c 65 3d
       0.13772012 0.010665217 -0.0040976442 0.056057062
000140 30 c1 eb bb 65 fb 80 3d e9 f7 b1 bd af dc 37 3c
       -0.0071946606 0.0629795 -0.08689863 0.011222049
000150 48 46 09 3c 61 47 f8 bb fd a5 14 3c 8e 80 b2 bd
       0.008378573 -0.0075768684 0.009072778 -0.08715926
000160 02 75 96 bd 48 4b f7 bc 75 ed c2 bd 8a ef 8e ba
       -0.07346536 -0.030187264 -0.095179476 -0.0010905128
000170 b5 c5 3f 3d 7c bd 78 bd 0d b6 ae 3d 71 b6 b8 3d
       0.046819407 -0.06072758 0.08530817 0.09019173
000180 34 3e e2 3a 22 2d cd bc 7d 12 a3 3c 6d 10 e9 bc
       0.001726097 -0.025045935 0.019906277 -0.028450215
000190 41 ff 7e 3d 29 7d 38 3d 77 cb 0f be 2e 5d 53 bb
       0.062255148 0.045041237 -0.1404246 -0.0032251584
0001a0 d8 dd 25 bc 01 06 7c 3c fd 10 cb bc af c7 e3 bc
       -0.010123692 0.015382291 -0.024788374 -0.027805177
0001b0 df 3f 5e bb 2b 54 7c 3d 7b 06 ae 3e 0d 34 9e bb
       -0.0033912582 0.061603706 0.3398932 -0.0048279823
0001c0 52 53 a5 3b 26 d1 59 bc 89 d3 2a 3d d4 53 0a 3c
       0.005045333 -0.013294494 0.041705642 0.008442838
0001d0 ea 87 8d 3d 9e 0b a1 bc e0 7f a0 3d cd a1 8c 3c
       0.06910689 -0.01965886 0.0783689 0.017166996
0001e0 80 5f 41 3c 84 1a 31 bc f3 94 12 3d 4a 03 91 3c
       0.011802554 -0.0108095445 0.03578658 0.017701764
0001f0 26 b6 b2 bc db 00 42 3d 2c 4f 91 bd e9 99 e3 3c
       -0.02181537 0.047364097 -0.07095179 0.027783351
000200 c0 74 51 3d 72 81 0c 3a fd 91 0a bc a1 cf a5 bd
       0.051136732 0.0005359865 -0.008457658 -0.08096243
000210 87 a1 3c 3d 0a f8 6c bc 90 e4 24 bc e4 8e 2c 3b
       0.046052482 -0.014463434 -0.010064259 0.0026330287
000220 90 c7 a1 3d 14 94 f1 bb e7 8d 24 bc a6 31 23 bd
       0.07899392 -0.0073723886 -0.010043598 -0.03984227
000230 c3 41 71 3d 1f 26 11 bd de 7b 39 bc d4 c6 ce bb
       0.058900606 -0.035436746 -0.011321036 -0.0063103233
000240 28 37 1f bd 86 3e 93 3d c7 e2 51 bb 6c dd ab bd
       -0.03887096 0.0718966 -0.003202604 -0.08391842
000250 e5 34 4c 3d fe 56 0e bd 2f ae 42 3c 48 1e d9 bd
       0.04985513 -0.03475093 0.011882349 -0.10601479
000260 be d3 5e 3c 9a d5 3f 3d cf 39 7c bb b8 ac a8 3c
       0.013600288 0.046834566 -0.0038486605 0.020590171
000270 f0 c6 91 b9 fb a7 8b 3d e5 81 3c 3d 75 19 f0 3c
       -0.00027804775 0.06819149 0.046022315 0.029309014
000280 76 16 23 bd bb db bf bc 2f 66 8a 3d 5d 02 9f 3d
       -0.039816342 -0.023420205 0.06757771 0.07764123
000290 86 8a 21 3d 33 01 98 3d b8 1d e7 3c 21 84 ae bc
       0.039438747 0.07422104 0.028212413 -0.021303238
0002a0 fd 7e 86 3d 17 ec 23 3d 05 25 35 3c d7 7a a7 3d
       0.0656719 0.040020075 0.011056189 0.08177727
0002b0 78 1b db 3c d3 78 40 3c f3 3e b0 3d 49 0f 0f bd
       0.026746497 0.011747557 0.086057566 -0.034926686
0002c0 1d 31 44 3d 9a 02 ca bc 9d 62 e8 ba 73 5e 59 3e
       0.0478984 -0.024659444 -0.0017729584 0.21227436
0002d0 cc de aa 3b 90 9b 89 3c 57 59 98 3d b3 42 c6 bd
       0.0052145477 0.01679781 0.07438915 -0.096806906
0002e0 80 f1 7a 3d 1b a9 7c ba 4b 41 ba 3c e7 14 48 3d
       0.06126547 -0.0009638236 0.022736212 0.04884806
0002f0 61 72 79 3d f4 44 bc 3d d8 2b 80 bd 9b c2 14 bd
       0.060900096 0.09192839 -0.062583625 -0.036318403
000300 da a3 b6 bd fe 34 e8 bd 2f af d9 bb 04 2c 88 3c
       -0.08917971 -0.113382325 -0.006643198 0.01662255
000310 ba e7 9c 3c c9 af 04 3e 67 ac 62 3d db a3 73 3d
       0.019153465 0.12957682 0.055340197 0.059482437
000320 92 b7 f6 bc 60 12 e2 bc b2 7f b9 bc aa 9b 17 3d
       -0.03011683 -0.027596653 -0.022643898 0.037013687
000330 c7 51 45 bd 83 46 9c 3c dc 29 01 bd 13 05 86 bc
       -0.048173692 0.019076591 -0.03153406 -0.016359841
000340 f8 8e 4e bd 06 f1 c8 3d 24 54 32 3d b6 86 e9 3d
       -0.050429314 0.098115966 0.043537274 0.11402647
000350 71 82 a5 3c 89 c0 cd 3d 8b 5f a2 bc 05 43 98 3d
       0.0202038 0.10046489 -0.019820949 0.07434658
000360 20 d1 27 3d 79 57 fe 3c 17 3d d3 3d 5a 9b 8d 3d
       0.04097092 0.03104757 0.10314386 0.069143966
000370 82 1f ec 3a 51 17 a3 3d a8 89 75 bc 1e 56 45 3d
       0.0018014761 0.079634316 -0.014986433 0.04817783
000380 24 27 39 3c 86 1f 50 3d df 7b 16 bc a7 87 c1 bc
       0.011300836 0.050811313 -0.009184807 -0.023624254
000390 f4 0d 40 bd 91 fc d5 3d c5 2b 20 3d fb 81 97 3c
       -0.046888307 0.10448564 0.039104242 0.018494597
0003a0 9c c3 d1 bc 6e ce 37 bd 7e 0b bb 3d 64 e8 38 bd
       -0.02560597 -0.0448746 0.09133051 -0.0451435
0003b0 ca 6f 2b 3d 83 7d 3c bd ca 1a 15 bd 4f 0f 07 b8
       0.041854657 -0.046018135 -0.0364025 -3.2200765e-05
0003c0 57 8d 97 bc 5f df 49 3d ba e5 56 3c 0b 2e 2c 3d
       -0.018500013 0.04928529 0.0131162945 0.042036097
0003d0 f9 71 56 3d 4a d0 d3 bc 26 e9 7a bd 54 b0 3a bd
       0.052354787 -0.025856156 -0.061257504 -0.045578316
0003e0 07 6d 75 bb 4c 91 c7 bc c6 f7 41 3e 91 e1 1f bd
       -0.0037449019 -0.024361275 0.18942174 -0.039033476
0003f0 fb ad 48 bd 73 a8 8f 3b 00 ee 21 3d 87 67 02 3d
       -0.048994046 0.0043840944 0.039533615 0.031837013

model.2.bias f4 [256]
000000 15 60 07 bd fc dd cc 3d 28 c6 9f 3d 82 f5 37 bc
       -0.033050615 0.10003278 0.07801467 -0.011227967
000010 b0 c9 28 3d be bd cf 3c df 34 a4 3d a9 77 bd 3d
       0.04120797 0.02535903 0.08017897 0.09251339
000020 06 4b 21 bc f3 91 1c 3e 88 d2 54 bd 8d 13 9f 3c
       -0.009844547 0.1529005 -0.05195859 0.019418502
000030 96 7b a4 bc 74 5d 20 3d e1 04 c8 3d 5f d4 b1 bd
       -0.020078462 0.039151624 0.097665556 -0.08683085
000040 bd 82 5c bb c2 e5 04 be ae a0 bc 39 db 67 9d bd
       -0.0033647262 -0.1297827 0.0003597787 -0.076858245
000050 24 7f b4 3d c2 11 01 be ee d2 01 bd 4a 31 d0 3d
       0.08813313 -0.1260443 -0.0316953 0.10165651
000060 f0 16 10 3c 6f 01 29 3a 2a e0 cb bc 18 21 83 bc
       0.008794531 0.0006447052 -0.024887163 -0.016006991
000070 78 69 0a 3d 10 9b c9 3d fd 79 85 3c 88 12 91 bc
       0.03379199 0.09844029 0.01629352 -0.017709032
000080 e8 7a 6c bc 47 f0 4c bd 26 86 e8 3d 88 26 09 3d
       -0.0144336 -0.050033834 0.11353712 0.033484012
000090 fc 40 03 3e 68 e4 dc bc d6 c3 61 3d 22 9a ad 3d
       0.12817758 -0.026964381 0.055118404 0.08476664
0000a0 7c 84 9e 3d 3a 95 31 bd 85 96 2e be 24 20 ad bd
       0.07740113 -0.043355204 -0.17049606 -0.08453396
0000b0 f5 64 33 be 34 e9 c4 3d 50 e1 03 bd 96 1c 8f 3d
       -0.17518981 0.096147925 -0.032197297 0.06987874
0000c0 fe ac 98 3d a1 39 04 3e fb 6c 04 3e 10 e6 40 3d
       0.07454871 0.12912609 0.12932198 0.047094405
0000d0 1f 2a 95 bc 44 5f cc 3d 41 31 6a 3d 14 10 76 bd
       -0.018208561 0.09979108 0.05717588 -0.060073927
0000e0 29 49 1f 3d 8a 61 ea 3c 9b 22 c6 bc d4 ee 24 bd
       0.03888813 0.028610963 -0.024186423 -0.040266827
0000f0 3e db 8d 3c 93 67 8f 3b 60 2b 1e 3e e9 d3 66 bd
       0.017316457 0.0043763607 0.15446234 -0.056354437
000100 75 e2 cc bd 92 31 cd bb 5d 93 cc 3d 8a 59 e2 3b
       -0.10004131 -0.0062620128 0.09989045 0.0069076465
000110 a2 4a b5 3b e6 07 6b 3c 0c ff 4f 3e 3e cf b6 3d
       0.0055325786 0.014345145 0.20312136 0.08926247
000120 0e de ee bd a7 4f 0c 3e 2b 9b 87 3d c6 50 e5 3d
       -0.11663447 0.1370226 0.06621393 0.11197047
000130 12 fe 9b 39 70 3d 19 3c 87 74 f4 3c af b6 75 3d
       0.000297532 0.009353027 0.02984072 0.059988674
000140 a3 a8 ce 3d 3d e4 59 3d 06 2b 54 bc 89 fc 3e bd
       0.10090759 0.05319618 -0.012949711 -0.046627555
000150 d0 43 af 3c b6 50 8a 3d b9 24 34 3e 80 aa 68 3d
       0.02139464 0.06753676 0.17592134 0.056803226
000160 e4 46 8d 3d 18 7f 91 bd 98 9e ac 3d 3a f8 80 bd
       0.06898287 -0.07104319 0.08428687 -0.062973455
000170 5d d8 b0 3d 60 78 ef 3d 41 d3 29 3d 0e e7 c3 bd
       0.08635018 0.116928816 0.041461233 -0.095655546
000180 f5 d9 18 bc 25 3d c3 bd ac b6 4f bd 47 9d fd bd
       -0.009329309 -0.09533147 -0.05071132 -0.12383514
000190 fb e3 01 3e a0 1d 78 bb 99 be 9c 3b b7 63 27 3d
       0.12684624 -0.0037859455 0.004783463 0.04086658
0001a0 f6 64 fc bc 59 f6 b1 3d bb 43 f0 3c 30 a3 55 3e
       -0.03080986 0.08689565 0.029329171 0.20863032
0001b0 00 57 a5 3d 7b 28 8f 3c 88 ac 84 bc 38 34 11 be
       0.080732346 0.017475357 -0.01619555 -0.14180076
0001c0 86 35 fe 3d af f2 d5 3d 73 a0 84 3d a1 c1 f7 3c
       0.124125525 0.10446679 0.06475916 0.030243697
0001d0 4f 72 cf 3d dc d0 c8 3d 27 c4 5f be 45 f6 9f bc
       0.101292245 0.09805462 -0.2185217 -0.01952661
0001e0 c3 26 c6 3d 74 15 0b ba aa 5c 44 3d 87 47 01 3c
       0.09675362 -0.0005305626 0.047939934 0.007890589
0001f0 4c 1f 2b bd 87 cf 96 3d b8 f5 ac 3d dd 9f 8a 3c
       -0.041777894 0.073638014 0.08445305 0.016921932
000200 05 bd 32 3d ad 86 8d 3d 41 fa 15 3d 15 6f b3 3d
       0.043637294 0.06910453 0.036615614 0.087614216
000210 62 db 8d bd 57 f4 85 bd a6 5c f8 3d 50 55 b6 bd
       -0.069266096 -0.06540745 0.12127046 -0.08902991
000220 59 ea 20 3e e5 c0 87 bc d1 74 d4 3d e4 f9 14 3e
       0.15714397 -0.016571471 0.103738435 0.1454845
000230 e7 bb fd 3c 48 fe 07 bd 0f ef 92 3d cc 21 30 bd
       0.030973388 -0.033201486 0.07174503 -0.04300098
000240 3e 35 b1 bd 9b b6 ec 3d 87 07 a1 bc 5f ec bc bc
       -0.08652733 0.11558267 -0.01965691 -0.02306193
000250 03 97 8c 3d c8 da 8d 3d 25 9b c5 bc 41 17 7b bd
       0.06864741 0.06926495 -0.02412183 -0.061301474
000260 ad f1 d1 3d 7e 2b 8b 3d e8 40 f7 3c d7 10 ab 3d
       0.10251174 0.06795405 0.030182317 0.08352821
000270 0b d1 81 3c aa 2f fb 3d e8 d3 be bb b3 54 50 3b
       0.01584675 0.122649506 -0.005823601 0.0031788766
000280 e0 b4 2b bc fc 61 6c 3b 28 fc 1a 3a 74 44 5d bd
       -0.010480136 0.0036069145 0.0005912208 -0.05402036
000290 59 4c 6d bc 2c cd 8a bd fe f0 c7 bc 08 d6 d2 3d
       -0.014483535 -0.06777415 -0.024406906 0.102947295
0002a0 a2 13 60 bd 69 51 2e 3d 12 95 ae bd 19 92 41 bd
       -0.054706223 0.042558108 -0.08524527 -0.04725847
0002b0 83 30 33 bc ec d8 91 3d 80 df c9 3d d7 2a b2 3c
       -0.010936859 0.07121453 0.09857082 0.021748943
0002c0 52 c8 7a bd 57 cd b3 3c 76 90 d6 3c 5c ff da 3d
       -0.061226197 0.0219485 0.026191931 0.10693237
0002d0 c2 76 b6 3d 24 73 7a 3d e9 18 8d 3d 68 1b 14 bd
       0.0890937 0.061144963 0.06889517 -0.03615895
0002e0 cb 21 cc 3d 80 d1 a9 3d 56 30 0a ba 39 34 b3 bd
       0.09967383 0.08291912 -0.0005271485 -0.08750195
0002f0 78 e0 1a bd db e4 52 bd 84 19 9f be 3c 91 2e be
       -0.037811726 -0.051487785 -0.31074154 -0.1704759
000300 70 a4 3e 3d ca fb 07 3e e7 ec e6 bd 92 ef a7 3d
       0.04654354 0.13279644 -0.11275654 0.08199991
000310 9f 59 f3 bc 5e c3 80 3d 56 d7 38 3d c2 4a 36 bd
       -0.02970582 0.06287263 0.045127235 -0.04450489
000320 08 29 49 be 93 f8 4e bc 7b a4 08 be 99 24 fb bd
       -0.19644558 -0.012632507 -0.13343994 -0.1226284
000330 f1 b5 89 bc 7e 08 f7 3d e6 24 61 bd a3 ce 00 bd
       -0.01681039 0.12062167 -0.05496683 -0.031447064
000340 c5 29 e2 3d 0d 8f 7a 3d 7f 60 be bd e9 00 83 bd
       0.11043123 0.06117158 -0.09295749 -0.06396658
000350 59 b3 fc 3d e3 0f 97 bc 73 49 89 3d 15 0a 1f 3b
       0.12338895 -0.018440193 0.067034625 0.0024267484
000360 a1 9f f8 3c b1 e5 18 3e ab 8b 86 bb 52 55 26 3e
       0.030349554 0.1493137 -0.004106005 0.16243485
000370 5e 29 b7 bb 51 38 b2 3d ac 2d 16 bd 8c d6 68 3d
       -0.005589648 0.08702148 -0.03666465 0.056845233
000380 3c ba e5 3d 5b 1a 9b bd bf 5d 8c bd 1d 07 08 be
       0.11217162 -0.07573386 -0.06853818 -0.13283964
000390 10 d8 2c bd 52 aa a5 3d 3a 0e ae bc 8f ee 4e bd
       -0.04219824 0.08089127 -0.021247018 -0.050520476
0003a0 6c ac 02 be 4f 0d e4 bd 19 fc 6c 3e ba 4a 87 3c
       -0.12761086 -0.11135351 0.23143043 0.016515125
0003b0 d1 75 d1 bc a0 70 93 bc c0 b8 ad 3d 9a 8a 02 3e
       -0.025568875 -0.01799804 0.08482504 0.12748185
0003c0 a0 6c 2b bd 7b 04 89 bd 17 54 66 3d 50 0c c3 3d
       -0.04185164 -0.06690308 0.056232538 0.09523833
0003d0 eb 60 59 bc f5 68 e4 3d 7c fa e7 3d 13 02 72 bd
       -0.013267736 0.111528315 0.11327073 -0.05908401
0003e0 bf 55 bb bd 3d e0 d9 3c e4 88 0c be bd c5 b6 3d
       -0.09147214 0.026596183 -0.13724095 0.08924434
0003f0 8e 88 e1 3d c3 8c 2e 3d e5 da db bd 0b 43 e7 3d
       0.11012374 0.04261471 -0.1073511 0.11292084

model.4.weight f4 [88, 256]
000000 fb 37 26 3c 9d 5b aa bd 85 d8 c0 bd fa 13 01 3d
       0.010145183 -0.08318255 -0.09416298 0.03151319
000010 87 1b b4 3a 8a 99 d7 bc 83 59 c2 bd 58 6e b4 3d
       0.0013741114 -0.02631833 -0.09489729 0.08810109
000020 2b f6 85 3c 14 10 60 bc e0 66 43 bd 70 f5 20 bd
       0.016352734 -0.013675708 -0.04770553 -0.039296567
000030 52 af 0d bd 89 f4 fc 3b 73 3b 66 bd 99 af 9d 3d
       -0.034591027 0.0077195805 -0.05620904 0.07699508
000040 16 ad 6d 3d d2 c5 65 3b de 92 86 3c 6e d4 15 bd
       0.058026396 0.0035060537 0.016427454 -0.03657954
000050 22 12 c2 bd 13 04 5d bb c6 ef c3 3c 37 c1 95 bc
       -0.09476115 -0.0033724352 0.023918044 -0.018280609
000060 a3 1d f8 3c 35 aa 44 3b bd 4e 6d 3c c7 1f 90 bb
       0.03028757 0.0030008678 0.014484105 -0.0043983194
000070 b3 fd 70 bc 39 0e 20 3c a4 68 81 bd 4a c0 dc 3a
       -0.014708924 0.009769016 -0.06318787 0.0016841975
000080 c1 88 d3 3c d9 24 10 bd 13 90 d8 3c e2 10 b5 3d
       0.025822045 -0.03519139 0.026435887 0.08841111
000090 27 59 88 bd d2 44 a1 bd 25 f2 3e bb 48 8f 0c 3c
       -0.066576295 -0.078744546 -0.0029136029 0.008579083
0000a0 c9 23 1e 3d e2 54 db 3b c3 0f 64 ba d2 ac 92 bc
       0.038608346 0.0066934684 -0.00086998584 -0.017904673
0000b0 f8 b1 94 3c ce d7 2d bc 0e 85 a5 3d c8 08 03 3b
       0.018151268 -0.010610534 0.08082019 0.0019994248
0000c0 92 49 32 bd 19 bf 7b 3c b5 01 21 3d 01 00 be bd
       -0.043527193 0.015365385 0.03930827 -0.092773445
0000d0 2d 09 1f bd 1e 52 0e 3d 44 85 bf 3d f8 11 e1 ba
       -0.03882711 0.03474628 0.0935159 -0.0017171493
0000e0 39 18 25 3c 19 e9 c7 bb f5 d8 50 bd 2e 6d ad bc
       0.010076576 -0.0061007855 -0.050988156 -0.021170225
0000f0 54 e9 2d 3b 26 60 3a 3d a1 98 08 bd 9d eb a4 3c
       0.002653678 0.04550185 -0.033348683 0.02013188
000100 bc b7 9e 3c db b3 44 bd f4 19 8d 3c 80 3d 98 bc
       0.01937472 -0.048023086 0.01722429 -0.018584013
000110 d3 10 68 3d 96 09 85 3c 00 91 54 3c c1 c3 32 3d
       0.05665667 0.016239922 0.012974024 0.043643717
000120 d3 bb 04 bc 73 71 3a 3d d0 92 35 bc e3 1f 87 bd
       -0.008101421 0.04551835 -0.011082366 -0.06597879
000130 eb 00 48 bd 5e b8 85 bd 69 d2 5e 3c 35 4a 84 3c
       -0.048829 -0.06529306 0.01359997 0.016148666
000140 c3 42 c5 3c d7 b5 dd 3b d8 3c 9b 3c 02 ef 21 3b
       0.024079686 0.0067660618 0.018949911 0.002470911
000150 28 15 f3 3b 1e 53 36 bd f4 b7 96 bc 43 bf b4 3c
       0.0074182935 -0.04451286 -0.018398263 0.022063857
000160 95 b7 b6 3d 62 e7 ac bb 79 d4 84 3c 8f 1c e6 3c
       0.08921734 -0.0052766064 0.016214596 0.02808979
000170 78 e0 b9 3d ff 4e 7d bd 37 8a 52 3d 85 53 44 bd
       0.09076017 -0.061842915 0.051401343 -0.047931213
000180 dc 8a 94 bd c7 8f a0 bd 2b 0e 9a 3d bb 93 e8 3a
       -0.07253048 -0.07839923 0.075222336 0.0017744222
000190 e8 c5 86 bd 7f ce df bc 95 cf 4e bd 06 47 ee 3c
       -0.06580716 -0.027320145 -0.050490934 0.029086601
0001a0 00 44 3f bc a8 25 1e bc ee a0 b9 3d 0c 3d 89 bc
       -0.011673927 -0.009652533 0.09063898 -0.016752742
0001b0 43 5f d0 3c 88 91 b5 bb 78 3d 0c 3c 18 d0 0b 3a
       0.02543605 -0.0055410303 0.008559577 0.00053334376
0001c0 6e c8 92 3d 3d 51 0a 3b 4a f9 fc bc 5b af 84 bd
       0.07167135 0.002110555 -0.030880589 -0.06478759
0001d0 69 29 98 bd 8b fd f7 bc 4c 69 ea bb 65 08 c5 3c
       -0.07429773 -0.030272266 -0.0071536656 0.024051854
0001e0 23 7a b2 3d cf 76 28 3b f8 9d 24 3c 85 c3 5d 3d
       0.08714702 0.002570558 0.010047428 0.05414154
0001f0 6e 69 d6 3c e1 97 1e bd 41 f3 b5 bc c1 ac 8e bd
       0.02617332 -0.03871906 -0.022210719 -0.06966544
000200 6f e6 12 bc 49 2c 79 3c cf 60 fe bb f7 70 d1 bc
       -0.008966072 0.015208312 -0.0077630053 -0.025566561
000210 0f 74 eb 3c 99 e0 2e bd b9 c0 2d 3d b7 ab dd 3c
       0.028741864 -0.04269466 0.042420123 0.02705942
000220 e6 ed 75 bd 03 41 01 bd a9 10 dd 3c 51 51 3c bd
       -0.06004133 -0.03155614 0.026985483 -0.045975987
000230 88 4e 1e 3c 64 85 43 3d f0 1d 12 3d 0e ec 34 3d
       0.009662278 0.047734633 0.035673082 0.04417043
000240 0c 09 19 bc 5e d0 6e 3d fa d2 55 bc 6b 81 ad ba
       -0.009340536 0.058304183 -0.013050789 -0.0013237422
000250 42 8d ac bd b4 fa 6a bc f5 bd 35 bc f9 d9 cb 3b
       -0.0842538 -0.014341999 -0.011092653 0.0062210527
000260 8b be 56 bd c7 6b 3c bd 9a d6 aa 3d ce d1 bc 3c
       -0.05242781 -0.046001222 0.08341713 0.023049261
000270 c8 4d 18 bd 7c ba 01 bd aa b9 2b 3b 63 53 02 3d
       -0.037183553 -0.031671986 0.0026203194 0.031817805
000280 c9 f9 16 3c d2 66 e4 b9 b8 47 6e bd a6 49 0c bd
       0.009214827 -0.00043564156 -0.058173865 -0.034249924
000290 09 8b 72 bc 48 13 27 bd 6d 42 9c bd 18 1f b7 3d
       -0.014803656 -0.040789872 -0.07629857 0.089414775
0002a0 ed 8f 81 bd 44 aa 5f 3b 90 70 ca ba 20 c2 91 bd
       -0.0632628 0.0034128586 -0.0015444923 -0.071171045
0002b0 f9 6d 5a 3c fb e4 03 3d 0a b9 b8 bb 65 a4 95 bc
       0.013331884 0.032200795 -0.0056372928 -0.018266866
0002c0 70 b4 09 3d 7c 14 02 bd 63 d7 17 3d f3 f3 a4 3d
       0.033619344 -0.031757817 0.037070643 0.08054342
0002d0 8f 42 e9 3c b7 35 88 bd 38 f9 e1 3c 92 a2 1e 3d
       0.02847412 -0.0665087 0.027584657 0.038729258
0002e0 44 40 0a 3b 13 c1 e2 3d 7c b3 02 bd 62 4c c7 3c
       0.0021095434 0.11071982 -0.03190945 0.024328414
0002f0 c2 42 a3 3c 7c fb 9e bd 52 1a 70 3c 22 19 9f bc
       0.019929294 -0.077628106 0.014654713 -0.019421164
000300 84 db 67 bb 1a 7a 8f 3c 6c 8e e2 bc d0 a2 24 3b
       -0.0035378644 0.017514277 -0.027655803 0.0025121458
000310 ac 34 07 bc 92 aa a6 bc 12 aa 04 bd 85 56 f6 bd
       -0.008252304 -0.020345006 -0.032388754 -0.12028221
000320 94 03 18 3c 78 2f 8e bc b0 4c 7a 3b 6b 82 87 3d
       0.009278197 -0.01735662 0.0038192682 0.06616672
000330 99 07 30 bb 74 59 96 bc 77 32 3f 3d 29 31 31 3d
       -0.0026859997 -0.018353201 0.046678986 0.043259773
000340 2a eb 13 3b 15 b2 d5 bd d8 6e a7 bd 0d 72 b0 bc
       0.0022570589 -0.10434357 -0.08175439 -0.021538759
000350 5c 52 e7 b9 15 f6 0f 3c dd 7e a4 3a 49 80 43 3d
       -0.00044121116 0.008786698 0.0012550015 0.047729764
000360 3e a0 c0 bc 22 71 82 bb ab ec 6d 3c e7 f4 c4 3c
       -0.02351391 -0.0039807716 0.014521758 0.02404256
000370 1a e7 f1 3a 3a b8 85 bd 5f 4e f7 bc 77 56 99 3d
       0.0018455714 -0.06529279 -0.030188737 0.07487195
000380 87 9c cf 3d ba 8f 00 3d fa bf ce 3c 00 37 d0 3d
       0.10137277 0.03138707 0.025238026 0.101667404
000390 3e 99 92 3d 4f 03 b4 3c 94 51 00 bd 92 57 1b 3d
       0.07158135 0.021974234 -0.0313278 0.03792531
0003a0 81 a4 1c 3c cd de a4 bb c9 3c d6 ba 79 48 a5 3c
       0.009560705 -0.0050314427 -0.001634502 0.02017616
0003b0 26 e4 05 3d 4c 40 2b 3d 71 72 a6 3a d5 b9 5d 39
       0.032688282 0.041809365 0.0012698901 0.0002114543
0003c0 d0 63 15 3d 55 d4 91 3c bd 9f 0f bd cf ea 5b 3d
       0.03647214 0.017801443 -0.035064448 0.053690728
0003d0 d8 08 68 3c 3e 33 e7 bb 1d 4a 30 3d a6 50 4e bd
       0.014162265 -0.007055669 0.04303943 -0.05036988
0003e0 04 7e 43 bb 9e ff 83 3d 1a c7 94 3b 59 d0 7d 3c
       -0.002982975 0.064452395 0.0045403363 0.0154915685
0003f0 ba 63 90 bb 6f 7e b1 3d bc 9b 4c 3c 48 2f 03 3d
       -0.0044064196 0.086666934 0.012488302 0.032027513

model.4.bias f4 [88]
000000 33 ad 21 3d 7c 0f 68 bd 3f 55 12 bd c5 ab 05 bd
       0.039471816 -0.056655392 -0.03572583 -0.032634515
000010 60 d4 63 bc 1f 9b 2b 3c 3b 43 a6 bd b9 2d 5f bb
       -0.013905615 0.0104739955 -0.08118292 -0.0034054352
000020 2a cb a2 bb a9 a5 72 bd 54 ce 9d bd bc 43 08 bd
       -0.0049680667 -0.059240017 -0.077053696 -0.03326772
000030 c5 83 bf 3c 42 71 a5 3b 98 f5 c1 bd ca e6 19 bd
       0.023378262 0.005048902 -0.094706714 -0.037573613
000040 2d 5f 3f ba a0 f8 30 bc 49 6c 8a 3c 41 df 36 bd
       -0.0007300254 -0.010801464 0.016897338 -0.044646505
000050 b6 2b bf bc f3 d6 0c bd 16 7b 8f 3c b0 76 fb 3c
       -0.023336273 -0.03438468 0.017514747 0.030696243
000060 a7 29 32 3c a0 9a 87 bc 0b c4 5e 3d ce 01 86 3d
       0.0108741885 -0.016553223 0.05438618 0.06543313
000070 09 6b 38 3d ce f7 c9 bd 5b 65 a3 bc 5f ff 67 3d
       0.04502395 -0.09861718 -0.019945791 0.056640025
000080 75 60 08 bd 2c e7 b0 3d 0c 8d 2f 3d 0e 9d ae bc
       -0.033295114 0.086378425 0.042859122 -0.021315124
000090 13 75 f2 3c 5b 7b 8c bd 9e 6a 18 be 86 73 f7 39
       0.029596841 -0.06859466 -0.14884421 0.00047197583
0000a0 0e b2 f1 bd 63 e1 f6 3b 90 33 f6 bc 17 a6 1e bd
       -0.11801539 0.0075341924 -0.030053884 -0.038732614
0000b0 2c 5c 45 bd c8 6b d8 bd cf dc e4 bb 33 bc 2a 3d
       -0.048183605 -0.10567433 -0.0069843302 0.041683387
0000c0 3d 7e 3d bc b1 35 36 bd bc da 23 3c 60 bd 19 bd
       -0.011565742 -0.044484798 0.010000881 -0.037534118
0000d0 9c be ff 3c ca 59 50 bd fd 6d 82 bc ec 60 40 bd
       0.03121882 -0.05086688 -0.015921587 -0.046967432
0000e0 37 80 ee bd 7b 04 aa 3c a2 09 26 bb 4c b6 91 bd
       -0.11645549 0.02075409 -0.0025335331 -0.071148485
0000f0 ac 17 30 bd 5c 8d 77 bd 09 e8 0d bd f4 11 5c 3d
       -0.042991325 -0.060437545 -0.034645114 0.05372806
000100 8b 74 8f bd 1f e3 dd bd bd 46 bd bd c0 53 66 3d
       -0.07004651 -0.108343355 -0.09242008 0.056232214
000110 2b 88 97 3d dc 74 6a bd bd b7 5f 3d b7 d4 b9 bd
       0.07399019 -0.057240352 0.054618586 -0.09073775
000120 82 90 fa bc e6 4f 29 bd bd 94 8b bd 72 d5 65 3d
       -0.030586485 -0.041335963 -0.06815479 0.05611176
000130 36 34 93 3b 38 a5 07 3c 93 55 ac 3b d0 24 13 3b
       0.004492308 0.008279137 0.0052592247 0.0022452362
000140 ab ae 9f bc cc c5 23 bd 4e 04 e6 3d ce ec 2a bd
       -0.019492468 -0.039983556 0.1123129 -0.04172974
000150 2e b1 9c bd d2 bd 79 ba 9c cf 6e 3c 94 48 c7 bb
       -0.07650982 -0.00095268816 0.014575865 -0.00608165
