models/ecoli_core_v5_metabolic_nn.pth (torch, 389589 bytes, 14 tensors)

model.0.weight f4 [256, 20]
00000000: ad59 25be faa6 5bbd 4b38 433e 251e 3c3e
00000010: f97e 8e3d b8ff 64bd 30d8 383e f370 60be
00000020: 13b2 8abd d619 17be a92e 433e 5fa7 dd3d
00000030: 95bf bf3d 9ddf 2abd 4f3d b7bd ccfd 57be
00000040: 1ffb 4d3d 5109 1e3d 3da3 2c3e 1579 0d3e
00000050: dc0d 2b3e 5120 943d 68a3 0b3e 6870 ac3d
00000060: e2e0 bf3d 0984 fcbd 2222 79bd c236 4d3e
00000070: b0d1 44be 860e 3b3e a2bf 5a3e 9da9 023e
00000080: 9683 683e 2948 e53d 3b3e 203c 1bc1 0d3e
00000090: de16 63be 684b 5b3e 4623 c63d 1073 833d
000000a0: 4c7d b83d 8aa4 e73c d46b bdbd a995 44bd
000000b0: 4b92 72be 0d6e 6fbd 1638 a1bd 8564 f03d
000000c0: ff9b d3bd 4fa2 87be 62bf 023e ff14 373d
000000d0: 6e48 9cbd a046 383e 8f8a 27be b5e2 be3d
000000e0: f6b5 203e 9175 e93d 46ec 523e b266 48bd
000000f0: 6c2e 143e 6370 5e3e 6c81 4fbd 00d1 f2bd
00000100: f3b5 20be 3ff4 65be 46c7 5bbd 2374 22be
00000110: 0a24 bd3c 60bd f43c da1d 2dbe e4ee 88bd
00000120: cc4e 413e 0261 46be e8cf 5f3e 0a8c 953d
00000130: bd6d 043e e924 ce3d 92e3 153d 89fa 81bd
00000140: fa00 64bd e470 1dbe ae7a 293c 9f97 1d3d
00000150: 661a 4e3d 69c8 39be ca32 823d dc18 d1bd
00000160: 4cf8 9abd 4b0e dbbd b741 e3bd c885 b2bc
00000170: 07fd 87be 9d77 3d3d 22fb f13d c88c bb3d
00000180: 84fc 0a3e 6071 78bc 37c1 39be 2e03 3c3e
00000190: 7910 123c ca0a 61bc 0dd4 473e 4344 2dbd
000001a0: 584f 9c3d 4801 05bd 8a2c 1c3e ad84 c4bd
000001b0: d6f4 ed3c 2b72 7cbd 5138 143e 6650 3ebc
000001c0: 8603 bdbe b9cd 943d dfab 663d 1d97 2e3e
000001d0: 6c8e 5dbc 3359 2c3e f965 4abd 6cd2 b4bd
000001e0: a47b 5abe 108b c8bd 4835 093e a300 263e
000001f0: 6ec0 543d 7f52 afbd 853e 16be 68f5 003e
00000200: ce74 50be 5c06 113e b44a cb3c 2712 1fbd
00000210: 88e3 3fbd 85e9 d5bd 5881 523e 9381 443e
00000220: 8328 2f3e 283e 203e 26bb 50be 7940 2a3e
00000230: b670 e5bc 1046 423e 0368 32bd d47d 813c
00000240: 0bc2 933d 1c62 633d 2989 ce3d f05e 36be
00000250: 4751 39bd ee7e c93d 2df5 003c edd9 2d3d
00000260: 0647 3cbd 2597 0d3d 7942 02be bab5 5f3c
00000270: c919 5d3e e805 193e 74f6 3dbc a67b 35bd
00000280: 1dda 863d e924 1abe 9b1c 9c3d 9993 25be
00000290: 6b5b 7b3e c969 983d dec4 57be 5b47 1abe
000002a0: 50f2 50bd a80c d13c 7531 25bd b967 31be
000002b0: 9f45 6c3e 33c5 633e 8e99 e13c 767c 573e
000002c0: 8328 dbbd af50 17be 309e 4fbe 41c6 903d
000002d0: 8287 79be 970c 7e3d b224 933d 2fc9 babd
000002e0: f359 cebd 805a ea3d dbaf 0ebe ea2f 163d
000002f0: 136b e23d 601b 85be e6bf 60be 219b a0bd
00000300: 234b 833d 1be2 fd3d 4c62 70bd 4dae 42be
00000310: aa7f 603e ca93 e53d 5074 f93c 43b1 00be
00000320: f31a 1ebe 3280 f63d 9ce2 4a3e 9249 fa3d
00000330: 5cd8 fd3d 64ee 763e b2da a83d 2120 f73d
00000340: bf8b 083e 8b21 2d3e cd41 463e e289 103e
00000350: 477a 8bbd df98 373e bebe 233e b9fb f4bd
00000360: f3bb a5bd d588 153e e0b6 b33b db69 f7bc
00000370: 5abd e8bd c10c cd3c 7ca4 f53d 567f 9fbd
00000380: b6cc 583e 017a 2e3c eb6b 4d3e 7d10 153e
00000390: 6a4b abbd 1353 ce3c 2708 5f3e b99b 29be
000003a0: 1221 5a3d 3df0 403e a13d 3dbe 9b33 db3d
000003b0: 6eaa a13c 5ae7 aa3c 2fb1 033e ed29 203e
000003c0: 75a9 4bbc c1c6 353d ab2b 7fbe 5219 2d3e
000003d0: 824b 57be 5dce 283e 8ce8 4abe 7a5a c93d
000003e0: e70c 4ebe 08d3 943c a909 94bc 24d3 b9bc
000003f0: 9547 c73d e6bd 54bd 2a85 2bbe a835 d9bd
-0.1614749 -0.053626038 0.19064443 0.18370874 0.06957812 -0.055907935 0.18051219 -0.21918087
-0.06772246 -0.1475595 0.19060768 0.10822939 0.09362713 -0.04171716 -0.089472406 -0.2109291
0.050288316 0.038583104 0.16859145 0.1381572 0.16704506 0.07232726 0.13636553 0.08419877
0.09369065 -0.12329871 -0.060823567 0.2004042 -0.19220614 0.18267259 0.21362165 0.12760015
0.22706446 0.11195404 0.009780462 0.13843195 -0.22176692 0.21415484 0.096746966 0.06418431
0.090082735 0.0282767 -0.09249082 -0.04799429 -0.23688619 -0.058454562 -0.07872026 0.117379226
-0.10332488 -0.2649102 0.12768319 0.044697758 -0.07631002 0.17995691 -0.1636145 0.09320585
0.15694413 0.11399377 0.20597944 -0.048926063 0.14470834 0.2172256 -0.050660536 -0.1185627
-0.15694408 -0.22456454 -0.05365684 -0.15864615 0.023088474 0.029875457 -0.16905919 -0.0668619
0.18877715 -0.19372943 0.21856654 0.07302101 0.12932487 0.10065634 0.03659398 -0.06346614
-0.055664994 -0.15375096 0.0103441905 0.038474675 0.050318144 -0.18142857 0.063573435 -0.1020982
-0.0756689 -0.106960855 -0.110965185 -0.021792307 -0.26560232 0.04625665 0.11815478 0.09157711
0.1357289 -0.015163749 -0.18140112 0.18360588 0.00891506 -0.0137354825 0.19514485 -0.042301428
0.07632321 -0.032471925 0.15251365 -0.095956184 0.029047411 -0.061632317 0.14474608 -0.011615848
-0.3691675 0.07265801 0.056316253 0.17049833 -0.013522726 0.16830902 -0.049413655 -0.08829197
-0.21336228 -0.09792149 0.13399231 0.1621118 0.051941328 -0.08560657 -0.14672287 0.12593615
-0.20357057 0.14162582 0.024815895 -0.03883567 -0.04684785 -0.10444931 0.20557153 0.19190054
0.17105298 0.1564871 -0.20383891 0.16626157 -0.028007846 0.18972039 -0.043556225 0.01580707
0.07214745 0.055513486 0.10084755 -0.17809653 -0.045243528 0.09838663 0.007870954 0.04244416
-0.04596617 0.03456797 -0.1272067 0.013654167 0.21591868 0.1494366 -0.011594404 -0.044307373
0.065845706 -0.15053143 0.076226436 -0.16169585 0.24546592 0.07442052 -0.21071193 -0.15066282
-0.051012337 0.02551873 -0.04033037 -0.17324723 0.23073433 0.22243194 0.02753904 0.21043572
-0.10701086 -0.14776872 -0.20275187 0.07069064 -0.24368098 0.062023725 0.071847335 -0.09120404
-0.1007575 0.11443043 -0.13934271 0.03666679 0.11055579 -0.25997448 -0.21948203 -0.078420885
0.064108156 0.12396642 -0.058687493 -0.19011803 0.219237 0.11209829 0.03045097 -0.1256762
-0.15439968 0.1203617 0.19813007 0.12221064 0.12394783 0.24114376 0.08244838 0.12066675
0.13334559 0.16907327 0.19361039 0.14115098 -0.06810432 0.1792941 0.15990731 -0.11962075
-0.08092489 0.14602979 0.005484447 -0.030201843 -0.11364241 0.025030496 0.119942635 -0.07787959
0.21171841 0.010649205 0.20060699 0.14557071 -0.083639935 0.025186097 0.21780454 -0.1656331
0.053254195 0.18841644 -0.18480541 0.10703202 0.019734588 0.02086227 0.12860559 0.15640993
-0.012430538 0.044379 -0.24919002 0.1690419 -0.21024898 0.16484971 -0.19815272 0.0983171
-0.2012211 0.018167034 -0.018071013 -0.022683688 0.0973045 -0.051938914 -0.16750017 -0.10605937

model.0.bias f4 [256]
00000000: a51e 05be 5a07 aebd d8c4 a73d 0128 1abe
00000010: db71 20bd e3ca 473e dfc9 55be c9c1 d5bd
00000020: da42 c93d 4a3c 1ebe 06e3 44be bbcb ebbd
00000030: 806c 393e 8304 213e 10b6 25be 4fcc 433d
00000040: 56c8 2f3e 65f6 df3d 3172 44be db86 09be
00000050: 5c60 28be bba9 0bbe 23dc eebd 85d5 c3bd
00000060: 60e8 01bd 348f a43b 6735 893d cd97 02bd
00000070: 14f0 5fbd 515f 1b3e ea81 89bc eeb2 ce3d
00000080: c18a 493e 4e9f 933d 4664 41be 986a 103e
00000090: 7e4a c2bd b002 c43d f5cd 983d e1ad 783d
000000a0: 0788 61bd 9d42 013e e510 c33d 739c 993c
000000b0: c2c2 843c 2b8c 2bbe 692b a0bd 7f62 ba3d
000000c0: 166f 5a3e ec1e 9c3c aaac 3a3e 2a22 a6bd
000000d0: bd0c 66bd d6df 2fbe 2315 3abe 447a 3c3c
000000e0: 8cef 213e dd13 86bd ae0e 4d3e 28cd c43d
000000f0: 9be6 0e3d 1274 293e 5e75 27bd 9717 2fbe
00000100: 331d fabd e59d 0e3d feb0 453e 2d60 213e
00000110: 3eeb 48be 641b 9d3d 0224 1c3e 3cd8 9dbc
00000120: 5bfe 1a3e 7743 34be afeb c2bc 94eb 493e
00000130: 54ed 3bbe 6329 d23d 398a 493e ade8 ddbd
00000140: 7920 ea3d 6c6d 9b3d e63d 953d bebf 4a3d
00000150: 2dce 4dbe e9fe 9ebd 8cec 453e 5258 51be
00000160: 6151 283e c2e4 9a3d 39c3 97bd 5b51 623e
00000170: 1e5e 303d 0549 d6bd 7d04 e3bd ec19 34be
00000180: 0b29 3abe 8424 973d 0523 8f3d ae92 98bd
00000190: db2b e8bd dfd4 fb3d db0c 323e 4b6d 953d
000001a0: fefc a1bd 228a 42be 7c98 ea3a f819 53be
000001b0: ee81 5e3e 552f 103e e194 31be 2c80 fa3d
000001c0: bc5c 0bbe 4d54 4a3e 9bbb a03d 0aca 223e
000001d0: af05 083e e42a 4abe 143e 40be 857f 453e
000001e0: f650 1c3e 7609 84bd ea19 18be 8c9b 4fbe
000001f0: 72e5 19be ffa7 473d 0e5b d93d c8ac 243e
00000200: 67c0 29be 6890 98bd 3e4a 073e 8529 03be
00000210: 8fa0 0b3e 02a8 57be 4872 4ebe 63d1 c03c
00000220: a0de 253e a1f3 40bd db31 9dbc 6bfa ea3d
00000230: 271e 26be e73b 34be 1442 46bd b62e 4cbe
00000240: 08f2 0ebe 6248 293e ffd0 8cbd 6ea4 563e
00000250: 25e9 4bbe 6e44 1d3e fd5a 04be 5336 bebd
00000260: 4e6a 333d ddce 3a3e db46 173e 33a3 e7bc
00000270: b407 b1bd f222 a0bd b174 7dbd 21ef da3d
00000280: 6fa2 46be 5b98 7fbd dea3 a3bd 9028 103e
00000290: 5ff2 93bd d90b 79bd e8c2 523e 06be fabd
000002a0: 60e4 babd 0b32 23be c635 363d edce 003d
000002b0: b417 2e3d 7204 ddbc 971a 58be e13c 243e
000002c0: 814a a23d 1e71 223d 003f a13d 084d 213d
000002d0: 3b8a a13d aea0 333e 4496 5abe 4c21 433d
000002e0: 24fe 14be f7a3 3e3e 2b58 78bd 7a9d 21be
000002f0: fcfa 82bd 1139 3bbe a129 27be 0a33 5c3e
00000300: 9cb2 d5bd d1f9 163d 9ff2 263e c68c 463e
00000310: 1dd0 ee3d 279e 58bc 9b39 b03d 5c07 bcbd
00000320: 3c31 193e eeaf 09be 6a0f dfbd 0239 cd3d
00000330: e169 023e f9b2 90bd 7102 46be d497 5a3e
00000340: 5590 093e 703f 11be 2e5a 3abe 4d4a 8a3d
00000350: 7c00 8dbd 048d 393e aa38 ba3d 3284 9ebc
00000360: adc7 cc3d 4098 a5bd b051 4cbe af56 3a3e
00000370: 1dd1 9b3d 73e5 573e c676 143e c776 223e
00000380: b90f a03c fec5 b5bd 19b4 513d fcc6 dabd
00000390: 05e4 033e 1847 1dbe 8b8d cdbd 2b8d 2b3e
000003a0: fac4 053e 713d 3dbe 70e8 1abe 3121 a7bd
000003b0: ac88 293e 5cf5 8abd dce0 07be 5279 2e3e
000003c0: bdf5 153e 3e02 3abe 49d5 3e3e 75d0 8abd
000003d0: bfc2 49be 174a 3c3b 9eb1 993c d42f 2e3e
000003e0: 095e 6f3d afd2 053d 85c1 a1bd fc51 56be
000003f0: ef60 3fbe 4f37 3e3e fdea 48be fe68 1d3e
-0.12999971 -0.08497496 0.08191842 -0.15054323 -0.03917108 0.19510989 -0.20877789 -0.10437352
0.09827204 -0.15452686 -0.19227228 -0.11513468 0.18107796 0.15724377 -0.16182733 0.047802266
0.17166266 0.10935668 -0.19184186 -0.1343035 -0.16443008 -0.13638966 -0.116630815 -0.0956221
-0.03171575 0.005021954 0.06699639 -0.03188305 -0.054672316 0.15173079 -0.01678558 0.10092722
0.19681837 0.07208119 -0.18885908 0.14103162 -0.094868645 0.09570825 0.07461158 0.0607127
-0.055061366 0.12623067 0.09524707 0.018751359 0.016206149 -0.16752689 -0.0782078 0.09100818
0.21331438 0.019057713 0.18229929 -0.08111985 -0.056164492 -0.1717523 -0.18172126 0.01150376
0.15814036 -0.06546757 0.20025131 0.09609443 0.03488789 0.16548184 -0.040883414 -0.17098843
-0.122126006 0.03481855 0.19305798 0.15759344 -0.19620988 0.0767124 0.15248111 -0.019268148
0.15136091 -0.17603861 -0.023794023 0.19718772 -0.18352252 0.102618 0.19681634 -0.10835395
0.11431975 0.0758923 0.07287197 0.049499266 -0.20098181 -0.07763464 0.19328517 -0.20443848
0.16437294 0.07563163 -0.07410283 0.22101347 0.043058507 -0.10463146 -0.110848404 -0.17588013
-0.18179719 0.07380012 0.06989101 -0.07449852 -0.1133649 0.12296461 0.17387716 0.072962366
-0.079095826 -0.18998006 0.0017898227 -0.20615375 0.21729252 0.14080556 -0.17341949 0.12231478
-0.13609594 0.1975872 0.07848283 0.15897384 0.13283418 -0.19742924 -0.18773681 0.19286926
0.15265259 -0.06447117 -0.14853635 -0.2027418 -0.15028933 0.048744198 0.106130704 0.16081536
-0.16577302 -0.07449418 0.13211915 -0.12808807 0.13635467 -0.21060184 -0.20160782 0.023537343
0.16198206 -0.047107343 -0.019188812 0.11473545 -0.1622244 -0.17600976 -0.04840286 -0.19939694
-0.13959515 0.16531518 -0.068758 0.20961162 -0.19913156 0.15358135 -0.12925334 -0.09287705
0.043802552 0.18242975 0.14773123 -0.028276062 -0.086440474 -0.07819165 -0.061878864 0.106901415
-0.19397901 -0.062401157 -0.079902396 0.14077973 -0.07223963 -0.060802314 0.20582163 -0.12243275
-0.0912559 -0.15937059 0.044484876 0.03144734 0.042503074 -0.026979659 -0.21103893 0.16038848
0.07924367 0.03965866 0.078733444 0.039380103 0.078876935 0.17541763 -0.21346384 0.047639176
-0.14550072 0.18617235 -0.06063096 -0.15782729 -0.06395528 -0.18283488 -0.16324474 0.21503845
-0.10434458 0.036859337 0.1630349 0.19389638 0.11660788 -0.0132213 0.08604737 -0.09181091
0.14960188 -0.13446018 -0.10891612 0.10020639 0.12735702 -0.07065386 -0.19336869 0.2134698
0.13433965 -0.14184356 -0.18198463 0.06752453 -0.06884858 0.181202 0.09092839 -0.019350145
0.09999023 -0.0808568 -0.19953036 0.1819713 0.076082446 0.21083622 0.14498433 0.15865622
0.019538747 -0.08875655 0.051197145 -0.106824845 0.12879951 -0.15359151 -0.10036763 0.1675307
0.13063422 -0.1848047 -0.1512773 -0.08160628 0.16556042 -0.0678508 -0.13269371 0.17038468
0.14644523 -0.18164918 0.1863605 -0.06778041 -0.19703196 0.0028730684 0.018761452 0.17010432
0.05843929 0.032671627 -0.07898239 -0.20929712 -0.18689321 0.18575786 -0.19620891 0.15372083

model.1.weight f4 [256]
00000000: 8af1 773f c9f3 7f3f b951 803f 54d7 843f
00000010: d55f 7e3f 18b3 823f 5861 803f f51e 7d3f
00000020: 1b73 7e3f cb72 793f f2da 783f 7b63 753f
00000030: 2727 783f d74b 823f be7d 823f bc0b 813f
00000040: 9d79 7a3f 401d 803f 570c 853f 1baf 7a3f
00000050: 73b6 763f 5c15 7a3f 33f7 783f ae3f 763f
00000060: 3520 763f 7cea 803f e1ae 753f 7fd2 803f
00000070: e6f7 6e3f f296 7d3f 28ed 783f b962 7c3f
00000080: 9940 723f deff 7a3f 0a95 763f 106a 7c3f
00000090: b37c 873f dce2 853f 199a 7a3f f1af 7f3f
000000a0: 515d 813f cada 7d3f 5b3e 7e3f f82b 753f
000000b0: e126 7d3f 8f5b 813f 8bc6 7f3f a23e 7e3f
000000c0: fa7d 803f 13b0 703f e083 753f 046b 7a3f
000000d0: c16f 883f 2974 723f 8ec5 6c3f 8175 8d3f
000000e0: 4949 813f 3fda 893f da3b 773f db86 883f
000000f0: caf6 7a3f 1f2a 7d3f 6a37 7c3f 0068 803f
00000100: 4419 7b3f 9bf1 853f 890b 883f 5268 7c3f
00000110: 86ee 773f 6898 723f cc1e 7d3f a95a 803f
00000120: 6e58 783f 5895 7e3f 3565 803f 041c 7b3f
00000130: 7f6a 8a3f 880f 703f 75c7 783f 7487 6b3f
00000140: 580e 813f 168e 913f e7a6 733f 9f67 6b3f
00000150: 2aea 813f 7932 803f d08d 713f 20c4 813f
00000160: cc86 833f 1cbc 793f 81a9 6c3f e577 7a3f
00000170: 59e0 7f3f 046b 743f eb1f 803f d0bf 763f
00000180: 879f 773f 216f 843f aca4 823f 1ff4 6b3f
00000190: 0d89 803f 890b 833f 261f 7c3f 07c6 833f
000001a0: 42dc 7f3f a59c 733f c3f3 7f3f 8153 943f
000001b0: 0d24 7c3f 4d5e 7d3f 6001 803f 899b 7b3f
000001c0: 064d 8e3f 0d80 7f3f f3d5 8c3f cc39 733f
000001d0: eee9 7e3f 670b 863f 4d27 6e3f 8839 7d3f
000001e0: 5373 7b3f 2ec2 843f e339 823f 66c1 793f
000001f0: cd4d 763f 8ac1 753f b409 823f 6c30 783f
00000200: 6361 733f caa0 803f f624 7e3f 6c15 7c3f
00000210: 361e 833f 5bb9 743f 827e 803f 7a8e 793f
00000220: deb9 803f 0745 743f 51fb 713f 6387 7d3f
00000230: a1ea 7e3f eaf0 7e3f 2e5a 7e3f 8e7c 7b3f
00000240: 28f5 803f 6259 833f 5d80 753f 8793 7f3f
00000250: b483 703f 8a14 833f cd05 7b3f f1a2 6f3f
00000260: 4077 833f 1e82 7f3f 654b 7d3f 95a9 803f
00000270: aa80 7f3f 5b25 783f 48a1 753f 3163 773f
00000280: 80be 7a3f d5ce 813f cbba 743f e027 793f
00000290: 8707 833f a721 7f3f 4868 713f 9575 833f
000002a0: 2e24 7f3f c776 7a3f e055 823f 4349 783f
000002b0: f110 803f a179 923f 4ded 8c3f c79f 863f
000002c0: 7921 803f 39a4 813f 23ee 7d3f 8848 7a3f
000002d0: 7ecb 823f 3ba1 7f3f 45eb 7d3f 40d0 7a3f
000002e0: 2af7 813f effb 783f 7100 823f 28d6 813f
000002f0: 8148 813f b258 8b3f 93dc 833f 754f 793f
00000300: 2191 7d3f c327 7b3f 7476 823f 1c8f 7c3f
00000310: adc7 733f e68b 723f a782 813f a451 823f
00000320: b88e 7f3f d562 843f 0bfa 753f 5173 7d3f
00000330: d2ae 803f 7289 7a3f d476 803f 5ee9 7d3f
00000340: ed5a 7d3f d601 803f 1bac 803f 43f9 7e3f
00000350: 0270 7c3f 5d16 853f 4e75 743f 0bab 803f
00000360: 3677 6c3f 23ae 873f 36a5 753f 519d 783f
00000370: b4bc 7f3f aa0b 773f 0588 803f 1400 7d3f
00000380: 09af 823f a3e7 803f 5608 7d3f 0f72 7a3f
00000390: 28ae 793f f1e2 873f 7ad8 833f a17e 743f
000003a0: 12f4 7d3f 1714 7b3f e3fb 723f 3a8e 773f
000003b0: 045a 823f 6e54 8c3f c112 803f 8050 823f
000003c0: 4799 803f 430f 703f 5ca9 723f 3e0f 7a3f
000003d0: ca56 7b3f 4aa3 783f dead 7d3f 36ad 793f
000003e0: 0ffb 8b3f 5a8c 7d3f f48e 813f 52e7 813f
000003f0: 8844 853f fa7a 7b3f 6dd2 7d3f 516c 813f
0.96852934 0.9998136 1.002494 1.0378213 0.9936498 1.0210905 1.0029707 0.9887536
0.99394387 0.97440785 0.97209084 0.9585492 0.9693474 1.0179394 1.0194623 1.0081706
0.9784182 1.0008926 1.0394391 0.9792344 0.96372145 0.9768884 0.97252196 0.9619092
0.96142894 1.0071559 0.9596997 1.0064238 0.93347013 0.9905845 0.9723687 0.9858814
0.9462982 0.9804667 0.96321166 0.9859934 1.058493 1.0459857 0.97891384 0.9987784
1.0106603 0.9916197 0.99313897 0.95770216 0.9888745 1.0106066 0.9991233 0.9931432
1.0038445 0.9401867 0.9590435 0.9781954 1.0659105 0.94708496 0.92488945 1.1051484
1.010049 1.0769728 0.965757 1.0666155 0.9803282 0.98892397 0.98522055 1.0031738
0.9808543 1.0464357 1.062852 0.9859668 0.9684833 0.94763803 0.9887512 1.0027667
0.97009933 0.9944663 1.0030886 0.98089623 1.081375 0.937737 0.9717935 0.9200356
1.0082502 1.1371486 0.9517655 0.9195499 1.0149586 1.0015403 0.94357014 1.0137978
1.0275512 0.9755266 0.9244614 0.97839195 0.999517 0.9547579 1.000974 0.9638643
0.96727794 1.0346414 1.0206504 0.92169374 1.0041825 1.0237895 0.9848503 1.0294808
0.9994546 0.95160896 0.99981326 1.1587983 0.9849251 0.98972017 1.000042 0.982842
1.1117256 0.99804765 1.1002792 0.95010066 0.995757 1.047223 0.9302872 0.9891591
0.98222846 1.0371759 1.0173916 0.9756073 0.96212465 0.9599844 1.0159211 0.96948886
0.95070475 1.0049069 0.9927515 0.9847019 1.0243595 0.9559533 1.0038607 0.97483027
1.0056722 0.9541783 0.94524103 0.9903471 0.99576765 0.99586356 0.99356353 0.9823693
1.0074816 1.0261652 0.9589899 0.99834484 0.93950963 1.0240643 0.98055726 0.93608004
1.0270767 0.9980792 0.9894317 1.0051752 0.998057 0.96932 0.9594922 0.9663573
0.9794693 1.0141245 0.95597523 0.9732647 1.0236672 0.99660724 0.94299746 1.0270258
0.9966458 0.9783749 1.0182457 0.9698679 1.000517 1.1443368 1.1009918 1.051751
1.0010215 1.0128242 0.9919149 0.97766924 1.0218351 0.99855393 0.9918712 0.97974014
1.0153553 0.9725942 1.0156385 1.014348 1.0100251 1.0886443 1.0301689 0.97386867
0.99049574 0.98107547 1.0192399 0.9865587 0.95226556 0.9474472 1.0117997 1.0181165
0.99827147 1.0342661 0.9608466 0.99004084 1.0053351 0.97865975 1.0036263 0.99184215
0.98966867 1.000056 1.0052522 0.99599093 0.9860841 1.039745 0.9549149 1.0052198
0.923694 1.0600017 0.95955217 0.97115046 0.99897313 0.9650217 1.004151 0.98828244
1.0209666 1.007069 0.98840845 0.9783029 0.97531366 1.0616132 1.0300438 0.9550572
0.99200547 0.9807753 0.949156 0.96701396 1.018372 1.0963266 1.0005723 1.0180817
1.0046777 0.9377329 0.9478967 0.9767951 0.98179305 0.9712416 0.99093425 0.97529924
1.0935992 0.99042284 1.0121751 1.0148718 1.0411539 0.9823452 0.9914921 1.011118

model.1.bias f4 [256]
00000000: e43c 313d c010 9c3d a318 5d3d 5fb8 533d
00000010: 190d 143d c440 4f3d 5dd7 88bd 1e85 273d
00000020: a781 d93c 3358 923d a938 a43d 95c5 4a3d
00000030: aa08 5f3d 9fe3 7e3d 4b97 383d 676a 333d
00000040: 042c d83b cc48 c6bd bfac e53b 301a d93c
00000050: 193b 393d ef68 513d e40e 5c3d 2e5c 5c3c
00000060: 188b 663d de02 0a3d 3a91 8c3d cdc6 e73c
00000070: 4ed4 853d 16e1 523d 762c 753d 69e1 023d
00000080: b751 6d3d 3ce6 9a3d b3ce 4fbb 81e1 033d
00000090: 873e ed3c e86a a23d e9cb 833d ae9b 703d
000000a0: 7848 c43c cb73 3b3d 37d3 123d f85e 6d3d
000000b0: f5b5 aa3d 4093 833b e98f 843d 73f0 073d
000000c0: 41d3 433d d710 333d 02b0 843d 30a6 3d3d
000000d0: 7329 df3a 4436 0e3d 796d 9e3d c2e1 333e
000000e0: a380 533d 686e aa3d b20e 523d 40e2 5dbd
000000f0: 94ac 393d ae43 e1bc 03f6 5aba 51bd 203d
00000100: 841e 1d3d ddaa c73c 1bd0 9d3c 4fea 1a3d
00000110: 405d 433d 6f14 743b c68f f93c 306f 8a3c
00000120: 49b8 e83c 555b 003d 07a6 bf3d 5803 953d
00000130: 79c8 1ebd 7f7f 983d 4b94 5f3d 6e52 793d
00000140: 2cfe 3c3d 0c4c 483d b2e4 023d c50f 793d
00000150: 44a1 d73d 4643 2e3d 83fe 593d 2e14 d53c
00000160: 8ff8 ed3c 1ba2 f43c bbf2 383d 7982 133d
00000170: df98 cd3c 24b5 863d f3a9 343d 0e1a d93c
00000180: b5e5 493d 11c4 613d 0f2d b63d 5f3a 3a3d
00000190: 7845 593d 91a8 403d 0c6a 3b3d 54ac 623d
000001a0: 587c b33c aafe 523d 6582 1e3d 4a9f 1fbd
000001b0: 5ed4 433d 15d1 683d b5ef 2a3d 6504 fa3a
000001c0: b11d 5a3d f6fb b83c 6623 2b3c 6001 533d
000001d0: 40b7 1c3d 6cd9 5d3e 9091 fb3c 27d0 483d
000001e0: b93a 643d 798c fabd 0059 9d3d 01ef 6c3d
000001f0: ce88 083d aac6 1e3d ab93 203d 440f 323c
00000200: 0826 083d 5678 323d 2498 053d 4195 553d
00000210: f69a 5a3d 6da4 5d3d fdb2 1dbd 85f9 0a3c
00000220: 56ca 0d3d 7b48 803d 9d65 1b3d 5a27 873d
00000230: 57dc 173d 9bd8 753d 4599 093d 45b4 133d
00000240: 787a 343d f1a9 993c 9617 2f3d 5c52 4c3d
00000250: fdbe 0e3d 6cf4 a33d cd75 2b3b 9158 6d3d
00000260: fd8e 1e3d a020 fb3c 5957 df3c 4beb 483d
00000270: 06c0 333d 5dc4 d13a ac50 973d 9dab 9e3d
00000280: 7f65 343d da7f 8fb9 33b6 da3c 4ec5 1a3d
00000290: bbe1 c33d 6453 323d 09a5 8d3b a23f ec3c
000002a0: 02e8 4c3d 3726 193c c1e6 8a3d 9fce 7d3d
000002b0: 98aa 303e b33a 06be f5a6 2cbd 38d8 0c3e
000002c0: c911 903d e70e 6b3d 396a 023d b5a2 36bb
000002d0: 56b8 393d d5a0 103d 2d68 903d 6b40 693d
000002e0: 93d1 e43c 7cdb efbb 8b29 4f3d 6154 993d
000002f0: 9b6e e33c 4dce bb3c efd4 5d3d 3324 a33d
00000300: 314b 083d ec43 a63c 9491 453d 6669 2e3d
00000310: 4712 393d ff36 da3d 3ac0 f43c 601c 763d
00000320: e56e 64bc 3a51 5c3d e190 3c39 7294 8e3d
00000330: 3699 543d c945 9d3d 0a35 3a3d 92c5 983c
00000340: 42a6 c5bc 4b57 9c3d 14b0 643d 907a 643d
00000350: 83f4 e0bc 61a8 4d3c 9f9b 0f3d dd43 c6bd
00000360: 1030 5c3d 33a8 4f3c db7d 543d 157c 563c
00000370: 5d41 873d 9651 173d 94c6 133d 32e3 423d
00000380: b3c8 ab3c 3568 323d 7dda a73c c6d1 c43c
00000390: db40 333c 1e14 ed3b 193e 243d 1a32 4a3d
000003a0: a8dd 4a3d 749e 2638 5a17 213d ffee 063c
000003b0: 6345 1f3d 0f94 0abd bb8b 213d f2dd 12be
000003c0: c57d 4f3d b287 a33d 7923 a73d b8bb 9a3c
000003d0: 8219 e13c 701f 823d 9f46 883d 8bb8 083d
000003e0: d164 413d 85a3 6f3d f9c4 333d e8f1 573d
000003f0: b922 e03c c2e6 98b9 c4d3 f5bc 6b83 0f3d
0.04327096 0.07620382 0.053978574 0.0516895 0.036145303 0.050598875 -0.06681702 0.040898435
0.02655108 0.07145729 0.080186196 0.049504835 0.054451622 0.062228795 0.04506616 0.043802645
0.006597044 -0.09681854 0.0070091183 0.026501745 0.045222376 0.051125463 0.05372514 0.013449712
0.056284994 0.03369414 0.06863637 0.028293038 0.065346345 0.05148419 0.059856854 0.03195325
0.057939257 0.07563445 -0.0031708896 0.03219748 0.02896048 0.07930547 0.06435377 0.058742218
0.023960337 0.045764726 0.03584596 0.057951897 0.08335487 0.0040153563 0.06472761 0.033188295
0.04780889 0.04371723 0.06478883 0.046301067 0.0017025903 0.03471972 0.07735724 0.17566589
0.05163635 0.083218396 0.051283546 -0.054170847 0.0453306 -0.027498093 -0.00083526986 0.039243046
0.03835918 0.024373466 0.019264271 0.03782111 0.047696352 0.0037243625 0.030464064 0.016898721
0.028408187 0.0313371 0.09357839 0.072760284 -0.038765404 0.07446193 0.054584783 0.060869627
0.046140835 0.04890065 0.031956382 0.060806055 0.10528806 0.042544626 0.053221237 0.026010599
0.029049186 0.029862454 0.04515336 0.0360131 0.025097309 0.065775186 0.04410739 0.026501682
0.04929133 0.055118624 0.08895313 0.045465823 0.053044766 0.047035757 0.04575543 0.055340126
0.021909878 0.051512398 0.038698573 -0.03897027 0.04780995 0.05684002 0.04173251 0.0019074796
0.053250972 0.022581082 0.010445451 0.051514983 0.0382607 0.21664971 0.030709058 0.049026635
0.055720065 -0.12233824 0.07682991 0.05784512 0.033333592 0.03876368 0.039203327 0.010867897
0.033239394 0.043571793 0.032615796 0.052144293 0.05337044 0.054111887 -0.038500775 0.008482342
0.03461679 0.062638246 0.037938703 0.065993026 0.037075367 0.060021024 0.033593435 0.03606059
0.044062108 0.018757792 0.042747103 0.04988323 0.03485011 0.08005604 0.0026162744 0.05794579
0.038710583 0.030655205 0.02726333 0.049052518 0.0438843 0.0016003955 0.07388434 0.077475764
0.044042107 -0.00027370342 0.026698207 0.03778582 0.09564539 0.04353656 0.0043226522 0.028838936
0.050025947 0.00934749 0.06782294 0.061964627 0.17252576 -0.1310833 -0.04215141 0.13754356
0.07034642 0.05738726 0.031839583 -0.0027867977 0.045341812 0.03530963 0.0705112 0.0569462
0.027931964 -0.0073198657 0.050576728 0.07486797 0.027762702 0.02292552 0.054158147 0.07965889
0.033274833 0.02029606 0.048234537 0.042580985 0.045183446 0.10655021 0.029876817 0.060085654
-0.013942455 0.0537884 0.00017983049 0.069619074 0.051903926 0.07679326 0.04546074 0.018648896
-0.02412713 0.07633837 0.055831984 0.055780947 -0.027460342 0.012552352 0.03506052 -0.09680913
0.053756773 0.012674379 0.051877838 0.013091107 0.06604264 0.03694304 0.03607805 0.04757995
0.020969724 0.04355641 0.020489926 0.024025809 0.010940756 0.007235064 0.040098283 0.049364187
0.049527794 3.9725055e-05 0.03932891 0.008235692 0.03888453 -0.033832606 0.039439898 -0.14342478
0.050657053 0.07984866 0.08161063 0.01888834 0.027477983 0.063536525 0.06654095 0.03337912
0.047215287 0.058505554 0.04388902 0.052720934 0.027360307 -0.00029163627 -0.030008204 0.03503744

model.1.running_mean f4 [256]
00000000: 951e 05be ce05 aebd 47c5 a73d 4528 1abe
00000010: 0473 20bd 73ca 473e a4cb 55be 2dc1 d5bd
00000020: e543 c93d f33b 1ebe f0e2 44be ebcb ebbd
00000030: 5d6c 393e f703 213e f7b5 25be a4cb 433d
00000040: 8dc8 2f3e 06f7 df3d e271 44be e686 09be
00000050: 4e60 28be 5ea9 0bbe 5bdc eebd a8d5 c3bd
00000060: 32e8 01bd 0c84 a43b 8b35 893d 2397 02bd
00000070: 24ef 5fbd ff5e 1b3e 5482 89bc aab2 ce3d
00000080: 5c8a 493e 959f 933d 2f64 41be 2d6a 103e
00000090: cc49 c2bd c802 c43d 5cce 983d 71ac 783d
000000a0: 0189 61bd 8c42 013e 8c11 c33d 4496 993c
000000b0: d0c0 843c 1e8c 2bbe 802b a0bd 2b62 ba3d
000000c0: c16e 5a3e ea1e 9c3c 9aac 3a3e bc21 a6bd
000000d0: f10c 66bd 83df 2fbe 3414 3abe 4878 3c3c
000000e0: aaef 213e 4416 86bd f50e 4d3e 71cd c43d
000000f0: a8e5 0e3d 7b74 293e 6674 27bd bc17 2fbe
00000100: 2d1d fabd 969d 0e3d 86b1 453e 4460 213e
00000110: 3eeb 48be 151b 9d3d c823 1c3e 7cdd 9dbc
00000120: 0cfe 1a3e 6443 34be cbe3 c2bc f9eb 493e
00000130: 48ea 3bbe 782a d23d 028a 493e 07e9 ddbd
00000140: e920 ea3d 8f6c 9b3d e63d 953d 6bbf 4a3d
00000150: e2ce 4dbe 43fe 9ebd 3fec 453e 5958 51be
00000160: c851 283e 96e5 9a3d 51c3 97bd 4f51 623e
00000170: f05e 303d db48 d6bd 1b05 e3bd ea19 34be
00000180: 4329 3abe a524 973d 5823 8f3d ce92 98bd
00000190: d42a e8bd 58d5 fb3d 010d 323e dc6d 953d
000001a0: 2afd a1bd 5c8a 42be 1da5 ea3a fe15 53be
000001b0: 3682 5e3e b52f 103e dd94 31be fb7f fa3d
000001c0: 3d5c 0bbe 5854 4a3e c5bb a03d 61c9 223e
000001d0: 1e06 083e 5c2d 4abe 503e 40be 717f 453e
000001e0: dc50 1c3e 2f0a 84bd 4b19 18be dd9b 4fbe
000001f0: 5ce5 19be a1a7 473d e05a d93d e4ac 243e
00000200: 48c0 29be 1691 98bd 404a 073e 8729 03be
00000210: 29a0 0b3e 21a8 57be 7b72 4ebe 74d1 c03c
00000220: 8ade 253e c5f3 40bd 7334 9dbc abfa ea3d
00000230: 121e 26be 1d3c 34be 9843 46bd 952e 4cbe
00000240: b3f1 0ebe 2d48 293e f3cf 8cbd faa4 563e
00000250: 09e9 4bbe f544 1d3e 0b5b 04be 4436 bebd
00000260: 316a 333d 0fcf 3a3e 6c46 173e 4a93 e7bc
00000270: ec07 b1bd 8023 a0bd 6474 7dbd 35ef da3d
00000280: 13a2 46be 6e96 7fbd 6da4 a3bd a828 103e
00000290: 74f2 93bd 060d 79bd dec2 523e d6bc fabd
000002a0: 8ae3 babd d931 23be 7a35 363d 36ce 003d
000002b0: 331b 2e3d 8732 ddbc ee1a 58be 713f 243e
000002c0: c349 a23d 2970 223d 673f a13d 144d 213d
000002d0: 538b a13d f7a0 333e 0996 5abe c71f 433d
000002e0: 20fe 14be fda3 3e3e 5a58 78bd a19d 21be
000002f0: f5fb 82bd f036 3bbe 182a 27be 2933 5c3e
00000300: adb2 d5bd 31fa 163d 92f2 263e f78c 463e
00000310: b5d0 ee3d 80a5 58bc ff38 b03d 4e07 bcbd
00000320: 3b32 193e a6af 09be a80f dfbd ad38 cd3d
00000330: 076a 023e e9b2 90bd 6502 46be 9697 5a3e
00000340: 0391 093e 8c3f 11be 465a 3abe 044a 8a3d
00000350: a5ff 8cbd 418d 393e e738 ba3d 5898 9ebc
00000360: 0dc8 cc3d d196 a5bd cb51 4cbe c956 3a3e
00000370: 8ecf 9b3d 3be5 573e 7c76 143e 0977 223e
00000380: d40a a03c d5c4 b5bd 93b7 513d acc7 dabd
00000390: 2fe4 033e 4947 1dbe 658c cdbd 538d 2b3e
000003a0: 74c5 053e da3d 3dbe 47e8 1abe 8421 a7bd
000003b0: f188 293e ebf5 8abd 17e1 07be 5b78 2e3e
000003c0: c0f5 153e d302 3abe 30d5 3e3e 37d0 8abd
000003d0: e1c2 49be 684d 3c3b 6cae 993c 1f30 2e3e
000003e0: 4260 6f3d c2cd 053d 86c0 a1bd 7e51 56be
000003f0: 0e60 3fbe 3537 3e3e a2eb 48be e669 1d3e
-0.12999947 -0.08497201 0.081919245 -0.15054424 -0.039172187 0.19510822 -0.20878464 -0.10437236
0.09827403 -0.15452556 -0.19227195 -0.11513504 0.18107744 0.15724169 -0.16182695 0.04780163
0.17166348 0.10935788 -0.19184068 -0.13430366 -0.16442987 -0.13638827 -0.11663123 -0.09562236
-0.03171558 0.005020624 0.06699666 -0.031882416 -0.05467142 0.15172957 -0.016785778 0.10092671
0.19681686 0.07208172 -0.18885873 0.14103003 -0.09486732 0.09570843 0.07461235 0.060711328
-0.055062298 0.12623042 0.09524831 0.01874841 0.016205221 -0.16752669 -0.07820797 0.09100755
0.21331312 0.01905771 0.18229905 -0.08111903 -0.056164686 -0.17175107 -0.1817177 0.011503287
0.15814081 -0.065472156 0.20025237 0.09609497 0.034886986 0.1654834 -0.04088249 -0.17098898
-0.12212596 0.034818254 0.19306001 0.15759379 -0.19620988 0.07671181 0.15248024 -0.019270651
0.15135974 -0.17603832 -0.02379026 0.19718923 -0.1835109 0.102620065 0.19681552 -0.10835462
0.11432058 0.07589065 0.07287197 0.049498957 -0.20098451 -0.0776334 0.19328402 -0.20443858
0.16437447 0.07563321 -0.074103005 0.2210133 0.04305929 -0.10463115 -0.11084958 -0.1758801
-0.18179803 0.07380036 0.06989163 -0.07449876 -0.11336294 0.122965515 0.17387773 0.07296345
-0.07909615 -0.18998092 0.0017901991 -0.20613858 0.21729359 0.14080699 -0.17341943 0.122314416
-0.13609405 0.19758737 0.07848314 0.15897132 0.13283584 -0.19743866 -0.1877377 0.19286896
0.1526522 -0.06447255 -0.14853399 -0.20274301 -0.150289 0.048743848 0.10613036 0.16081578
-0.16577256 -0.07449548 0.13211918 -0.1280881 0.13635315 -0.2106023 -0.20160858 0.023537375
0.16198173 -0.047107477 -0.019190049 0.11473592 -0.16222408 -0.17601056 -0.048404306 -0.19939645
-0.13959388 0.16531439 -0.06875601 0.20961371 -0.19913115 0.15358336 -0.12925355 -0.09287694
0.043802444 0.18243049 0.14772958 -0.028268475 -0.08644089 -0.07819271 -0.061878577 0.10690156
-0.19397764 -0.06239932 -0.07990346 0.14078009 -0.07223979 -0.060803436 0.20582148 -0.12243049
-0.09125431 -0.15936984 0.044484593 0.031446658 0.042506408 -0.027001632 -0.21104023 0.16039826
0.07924225 0.039657746 0.07873421 0.039380148 0.07887902 0.17541872 -0.21346296 0.047637727
-0.14550066 0.18617244 -0.060631134 -0.15782787 -0.06395713 -0.18282676 -0.16324651 0.21503891
-0.1043447 0.036859695 0.1630347 0.19389711 0.116609015 -0.013223052 0.08604621 -0.09181081
0.14960568 -0.13445911 -0.10891658 0.10020576 0.12735759 -0.070653744 -0.19336851 0.21346888
0.13434224 -0.14184397 -0.18198499 0.067523986 -0.06884698 0.1812029 0.090928845 -0.019359753
0.09999094 -0.080854066 -0.19953077 0.18197168 0.07607947 0.21083538 0.14498323 0.15865721
0.019536413 -0.08875433 0.05120046 -0.10682616 0.12880014 -0.15359224 -0.10036544 0.1675313
0.13063604 -0.18480626 -0.1512767 -0.081606895 0.16556145 -0.067851864 -0.13269459 0.170381
0.14644527 -0.1816514 0.18636012 -0.06777995 -0.19703247 0.002873266 0.018759929 0.17010544
0.058441408 0.03266693 -0.07898049 -0.20929524 -0.18688986 0.18575747 -0.19621137 0.15372428

model.1.running_var f4 [256]
00000000: 82b2 8a3e a3f3 a53e 39a7 723e d694 963e
00000010: 0196 383e a798 7d3e fde7 653e 5f4c d93d
00000020: 02c5 a83e 9458 8c3e d235 a73e affd 853e
00000030: 0801 893e 9eac 643e 6203 593e ef3c 2a3e
00000040: e663 613e b409 713e 37c8 733e 2456 953e
00000050: 21e4 993e ea22 443e 4e25 a13e 1a19 373e
00000060: c6a1 7b3e 1c7f a13e 8dca 6e3e 0f23 973e
00000070: c9df 783e 08b2 933e 213a 6d3e abe3 6b3e
00000080: dd21 323e 6f3a 7e3e 478a 8a3e ad42 483e
00000090: 6dba 553e 9e72 8e3e 8a8c 153e 1ea1 283e
000000a0: 791f 833e 5ec1 8d3e d585 3b3e aa83 363e
000000b0: 2b42 8c3e 45ac 603e 9fc6 763e b8b0 253e
000000c0: 6e45 2f3e 150f 803e c922 8e3e d619 2a3e
000000d0: 0d54 6a3e deaa 643e 29d3 993e 3a76 873e
000000e0: 6c86 963e e12f 8d3e 313d 5b3e 3acc 883e
000000f0: 18ca e33d ec8a 943e 95f0 463e 1b99 543e
00000100: c603 8c3e db4d 1e3e e6a6 6c3e 27cc 733e
00000110: ce8b 1a3e 38d7 663e c952 9b3e 0879 e23d
00000120: 548c 693e f683 833e d071 a03e d48c 8d3e
00000130: b190 373e 9987 3f3e 10af 833e 4782 6c3e
00000140: d1eb a93e 7462 703e 216b 873e 09c6 963e
00000150: 1b38 8a3e 596d a63e cdc8 3b3e 22ca 6c3e
00000160: 6b74 a13e 8152 8c3e 0f47 873e e830 593e
00000170: 2eb9 7f3e e626 713e 3989 483e ab9e 673e
00000180: e1b6 913e ca87 7f3e cf6b 9d3e 6f88 983e
00000190: d221 793e 34c3 303e bdbb a33e 7671 503e
000001a0: 8676 783e bf2b 6f3e 56a0 603e 5c93 593d
000001b0: c97b 5a3e 38c7 053e e275 263e 3808 873e
000001c0: fb9f 5b3e 65e9 933e 988e 5f3e 086b 0f3e
000001d0: ab3c 6d3e 27b9 ee3d ab1d 953e 92b1 5f3e
000001e0: b2a1 963e 10be 933e f96f 1d3e dc44 623e
000001f0: 466d 753e 2c16 3a3e 6ccb 9d3e a452 823e
00000200: 3db3 a63e ac8e 883e b4a0 923e bf33 753e
00000210: 56c1 6e3e 0c52 973e eeed b03e 4274 953e
00000220: 4432 5c3e a831 583e 540d 733e 359a 8b3e
00000230: f9fd 8c3e 1f4f 1e3e 90c1 8d3e 059d 893e
00000240: 309f 5e3e 540c 6d3e fef0 5e3e 08a6 1e3e
00000250: 4db1 153e fdcf 613e fb70 8d3e 2354 3a3e
00000260: 2e5e 4a3e b469 b83e 0e36 9c3e fa3d 3a3e
00000270: bf83 9c3e 6714 553e 0211 333e a79f 543e
00000280: bd35 c13e 3d8a 093e dedf 7a3e 795d c43e
00000290: 54a1 3a3e 6389 4d3e b4c9 633e a099 793e
000002a0: 0f01 853e 4f76 473e c466 863e b092 9c3e
000002b0: 62b4 9f3e 28fb 353e 52dc 763e c7b2 233e
000002c0: 06ba 1f3e 5cd5 373e bd64 723e 8713 6d3e
000002d0: 0f16 833e 8f81 6c3e 89c6 ac3e f3b2 583e
000002e0: 8bb5 853e 64af 823e 6fe8 463e e02a 5f3e
000002f0: 7716 563e 14c9 4f3e 70df 983e 33bd 493e
00000300: 2521 8b3e 669d 7d3e 50fa 6e3e 675d 633e
00000310: a07f 213e 739e 803e 6ab3 793e c5cc 0a3e
00000320: d9e9 143e 601f 783e 60f9 9a3e 1a04 563e
00000330: a781 313e b3b7 113e 1ee7 703e 13b4 093e
00000340: 5485 5f3e 6976 963e 7625 b33e ec07 123e
00000350: 3315 553e 5b5f 9b3e 16c0 933e 7720 3b3e
00000360: 1457 543e 01a4 593e e338 943e 64cc 643e
00000370: 9c61 a53e 3e57 b13e 5927 943e badb 493e
00000380: 285c 4f3e a48f 3f3e 3a68 6b3e 6ad2 753e
00000390: f48d 7f3e 160d 733e ca1d 603e c86d 663e
000003a0: 0b3a eb3d 0b95 9b3e 24bd 6a3e c06c 863e
000003b0: 2f43 603e a807 8c3e f434 243e aaa9 8a3e
000003c0: b09e 783e 4dc4 863e 6912 9a3e 0d9a 913e
000003d0: 601a 443e 2591 563e bd60 593e 15b0 823e
000003e0: 3583 643e 4d3c 713e e945 593e 9981 cc3d
000003f0: 84f8 083e da1d 4b3e 2ed0 6f3e 9594 513e
0.27089316 0.32412443 0.23696603 0.29410428 0.18025972 0.24765263 0.22451778 0.1061027
0.32962805 0.2741133 0.3265825 0.26170108 0.267586 0.22331473 0.21192697 0.16624807
0.22010764 0.23538858 0.23806845 0.29167283 0.3005686 0.19153944 0.31473774 0.17880669
0.2457343 0.3154229 0.23319454 0.29518935 0.24304117 0.28846765 0.23166706 0.23036067
0.1739573 0.24826978 0.27058622 0.19556685 0.20871897 0.2782182 0.14604393 0.16467711
0.2560995 0.2768659 0.18312772 0.17823663 0.27394232 0.21940716 0.24099205 0.16180694
0.17116329 0.25011507 0.27760914 0.16611418 0.22883625 0.22330806 0.30043915 0.26457387
0.2939943 0.2757559 0.21410061 0.26718313 0.11122531 0.2901224 0.19427712 0.2076153
0.2734663 0.15459387 0.23110542 0.23808347 0.15092394 0.22543037 0.30336598 0.11058241
0.22807437 0.25686616 0.31336832 0.27646506 0.17926289 0.1870407 0.257195 0.23096572
0.33187726 0.23475057 0.2644892 0.29447964 0.2699593 0.325053 0.18338318 0.23123983
0.31534132 0.27406695 0.264214 0.21210063 0.24972984 0.23549995 0.19583596 0.22619121
0.28459838 0.24954143 0.30746314 0.2979159 0.24329308 0.17261964 0.3197917 0.20355782
0.24263963 0.23356532 0.21936163 0.05311905 0.21336283 0.13064277 0.16255906 0.26373458
0.21447746 0.28889003 0.21831739 0.14005673 0.23167674 0.11656409 0.29124197 0.21845081
0.2942024 0.28855944 0.15374745 0.2209658 0.23967466 0.1817252 0.3081926 0.25453675
0.32558623 0.2667135 0.28638232 0.23945521 0.2331594 0.29554784 0.34556526 0.2919026
0.2150355 0.21112692 0.23735553 0.27266088 0.27537516 0.1545987 0.2768674 0.2687761
0.21740413 0.23149234 0.21771619 0.15493023 0.14618416 0.22051997 0.2762526 0.18196158
0.19762489 0.36018145 0.3050999 0.18187705 0.30569264 0.20808564 0.17486957 0.20764028
0.37736312 0.1343164 0.24499461 0.38352564 0.18225604 0.2007194 0.22244912 0.2437501
0.2597737 0.19478725 0.2625028 0.30580664 0.3119231 0.1777159 0.24107483 0.15986167
0.15598306 0.17952484 0.23671241 0.2315198 0.25602767 0.23096298 0.3374522 0.21162014
0.2611507 0.25524437 0.19424604 0.217937 0.20907007 0.20291549 0.2985797 0.1970108
0.27173725 0.24767074 0.23337674 0.22203599 0.15771341 0.25120887 0.24384847 0.13554676
0.14542331 0.24230719 0.30268383 0.20900002 0.17334615 0.14230232 0.23525664 0.13447599
0.21828204 0.29387215 0.34989518 0.14260834 0.20808868 0.30346188 0.28857487 0.18274103
0.20736343 0.21253969 0.2894965 0.22343594 0.32301033 0.34636873 0.2893627 0.19712725
0.20249999 0.18707138 0.22988978 0.24006048 0.24956495 0.2373546 0.21886364 0.22502816
0.1148568 0.30387148 0.22923714 0.26254845 0.21900629 0.2734959 0.16035825 0.27082568
0.24279284 0.2632164 0.3009217 0.28437844 0.19150686 0.20953806 0.21228309 0.25524965
0.22315677 0.23558159 0.21218075 0.09985656 0.13376051 0.19835606 0.23419258 0.20466836

model.3.weight f4 [256, 256]
00000000: 467a 9abd f24b 0cbc 75df fc3b 5ec4 b0bd
00000010: 6a0b 8f3d 329f 203d 4ac8 a3bc a718 543c
00000020: 7c8c c23c e2ec 13bd 05d2 9bba a474 4d3d
00000030: ad33 98bb a9c8 8abd fe41 683c e0f2 7c3d
00000040: a2c6 df3c 95a7 ffbc 5cd6 5e3d ffb2 2c3d
00000050: d264 07bd 9988 52bc af45 843d 0fcf 6bbc
00000060: d749 33bd d7f9 c93c 5502 433c 6acc b03b
00000070: 4779 203c d05c 6ebd 582c aebd e747 6d3d
00000080: 636e 333d 4d40 84bc 9832 d53c d3f9 71bc
00000090: a052 a03c f59b 7f3c 3127 8e3d 741a a7bb
000000a0: fc2d 083d 4a1c 843c ebb4 773c 4ed7 34bd
000000b0: 01bf 2a3c 27fa 89bd 7670 0c3c 0d98 d43c
000000c0: 201c 9f3c a1bd 973c 77cc 01bd 83ce 24bc
000000d0: d59a 6f3d b7e9 833b 1ad2 21bc edc0 de3b
000000e0: 40b1 0e3d ac61 f3bc 9cab 0b3c b2ca 28bc
000000f0: 9b81 233d b53c 35bd 43e4 28bd 894f 5fbd
00000100: 1ee3 71bc 8bd5 c83c 8ae9 2fbd debb 693d
00000110: c9bf a9ba 8c78 743c 84b3 77bd 05cb 4d3d
00000120: 449f 26bd a8a5 08bb 7fb1 25bd c299 35bd
00000130: 8edc 2abc 773f cf3c 25c1 edbb 5e06 0ebd
00000140: ca11 a3bc eceb 363d 5285 84bb 9b45 80bc
00000150: e429 adbb 10a1 bf3b dc7b 973b 7936 173d
00000160: 1a3c 823d edd2 2f3d b0f8 233c a2b5 2c3d
00000170: fe3f 013d b41f 08bc 7ac8 c53c 8c1f 2abd
00000180: 4363 a13d f2e5 de3b fda6 24bd c6d1 3cbd
00000190: 37f6 27bd 2d61 9f3c 6f35 463a bb31 7bbc
000001a0: 9197 3f3c be64 2bbd 7add 90bd 6af4 a03c
000001b0: 9aa8 d93c 04d0 f7bc f9b2 24bd 0ca5 c03d
000001c0: 1c4a 5dbd 5c60 373c f141 533d 89ab 97bc
000001d0: cfcf 4f3c fb60 12bc d38c 52bd 06fe 19bd
000001e0: 00f5 f4bc 863b 8abb dbf4 103d 3b8e 2b3d
000001f0: 810d 123c 5512 05bc 1396 1c3d 28ae 73bd
00000200: afa7 683c afa3 0cbd 4c71 8abc 7515 7ebc
00000210: ddf0 34bc 0c8f 75bd a0a9 8b3c 8df7 553d
00000220: a336 f2bc c721 0abb bb70 65bd e6fc e7bc
00000230: b0b6 4b3d e479 d137 6e87 b73d 26d9 b6bb
00000240: 1c36 80bc 112e 853d af2e 05bd 8fd8 133d
00000250: 519e 1bbd 48cb 04bd 52ba a83c ec72 863d
00000260: b71c 473d 9920 af3c 8d7f 88bc 61ea 8e3d
00000270: a66a 2c3d 7480 37bc 8033 c83b 396d 793d
00000280: 5f70 1abd 8133 a2bc 4687 55bc 3596 96bc
00000290: 8a9b 803c 1c4f 7d3d 175f 6b3c 37d1 673d
000002a0: 86db a93c 0079 9dbc 9e01 983c 6607 433d
000002b0: 6cb9 0abd 163f 103d 23ab 07bd 885e 233d
000002c0: 79e2 a93c cb97 473d c69e 43bc 0fa4 293d
000002d0: c9e5 7b3d ab89 983d 2a7b 803d 5c47 13bc
000002e0: 03eb 9f3b 960e c93c 53c1 e4bd a430 74bd
000002f0: 69d1 91bd 9949 953d 92c3 1a3d 648b 71bd
00000300: 596f ffbc a09b 2cbc 7825 803d 5cac bcbd
00000310: 8a68 07b8 68a2 84bc 413e ffbc 54b2 18bd
00000320: 32d2 933d 71ce 8dbd 17cb dc3b 1afc 053d
00000330: 2058 8c3c 76f9 b8bd b8db d63b 3bf4 f53c
00000340: 8723 6c3c 3dc1 f73c 8f2b 48bd 32d7 f2bc
00000350: 04e9 4d3d 13b8 9c3c eeab 543d 92d3 df3b
00000360: 2f6a 23bd 866f c63d 4b2f 2abd 74e7 3e3d
00000370: 3f79 ddbc 4e9c 55bd 323b ac3d ab2d 333b
00000380: d785 433d 031b 14bd 3ca8 a5bc e7ea b8bc
00000390: 8c85 fe3c 1b72 923d e8de 343d 5673 053c
000003a0: db68 75bc c72d cf3c 9066 2a3c 0fe7 543c
000003b0: f3de 253d be7f dbbc 5e78 553d c881 0cbc
000003c0: dd03 00bc 9a61 253d b09d 9c3c b38c 7bbc
000003d0: fbb3 253c 4b60 a4bd 8eb8 9d39 92a4 53bc
000003e0: 5f5b d2bc 8c37 603b 14d8 883d b020 d5bc
000003f0: 0df6 69bc d536 b6bc 6722 82bc b517 ebbc
-0.07542853 -0.008563029 0.007717068 -0.08631204 0.06984599 0.03921432 -0.019992966 0.012945331
0.023748629 -0.03611458 -0.0011888152 0.050160065 -0.004644832 -0.06776554 0.01417589 0.06175506
0.027316395 -0.031207839 0.054403648 0.04216289 -0.033055134 -0.01284995 0.064586036 -0.014392628
-0.04377159 0.024655266 0.0119024115 0.005395462 0.00979454 -0.05819398 -0.08504552 0.0579299
0.043806445 -0.016143942 0.026025102 -0.014769035 0.019570649 0.015601148 0.06941069 -0.005099589
0.03324698 0.01612677 0.015118818 -0.044150643 0.010421515 -0.06737166 0.008571735 0.02595141
0.01942259 0.01852304 -0.031689133 -0.010059002 0.05849727 0.0040256637 -0.009876752 0.006797901
0.034837008 -0.02970966 0.008524802 -0.010302233 0.039918523 -0.044247348 -0.041233312 -0.05451921
-0.014763622 0.024515888 -0.04294733 0.05706393 -0.0012950833 0.014921319 -0.060473934 0.050242443
-0.04067923 -0.0020850692 -0.040452477 -0.044336088 -0.010428561 0.025298817 -0.0072556906 -0.03467404
-0.019905943 0.044658586 -0.0040442133 -0.01565819 -0.005284535 0.0058480576 0.0046229195 0.036917184
0.0635912 0.042925764 0.010008022 0.042165406 0.03155517 -0.00830834 0.024143446 -0.04153399
0.07880261 0.006802314 -0.040198315 -0.046098493 -0.041006293 0.019455517 0.0007561063 -0.015331681
0.011693851 -0.041844122 -0.07073493 0.019647796 0.026569653 -0.030250557 -0.040209744 0.0940648
-0.054025754 0.011192407 0.05157656 -0.018514412 0.012683823 -0.008934255 -0.05140383 -0.03759577
-0.029901981 -0.0042185215 0.035389762 0.04188369 0.008914352 -0.0081220465 0.03822906 -0.05949226
0.014200135 -0.03433579 -0.016899727 -0.015508045 -0.011043754 -0.059950873 0.017048657 0.052238036
-0.029567068 -0.0021077262 -0.05601571 -0.028318834 0.04973477 2.4971501e-05 0.08961378 -0.0055800853
-0.015650801 0.06502927 -0.032515224 0.0360952 -0.03799278 -0.032420427 0.020596657 0.06564888
0.04861137 0.021377848 -0.016662383 0.06978298 0.042093895 -0.011200059 0.006109655 0.06089518
-0.03770482 -0.01979995 -0.01303274 -0.018382171 0.015699167 0.061843023 0.014365933 0.056596007
0.02073456 -0.019222736 0.018555459 0.047614478 -0.03386824 0.035216413 -0.033122193 0.039885074
0.020737873 0.048728745 -0.01193971 0.041416224 0.061498437 0.07448133 0.06273492 -0.008989181
0.0048803105 0.024543088 -0.11169686 -0.0596167 -0.0712002 0.07289428 0.037784167 -0.058970824
-0.031181024 -0.010535151 0.062571466 -0.092125624 -3.2283868e-05 -0.016190723 -0.031157615 -0.037279442
0.07217826 -0.06924141 0.0067380774 0.032711126 0.017131865 -0.09031956 0.0065569542 0.030023685
0.014412767 0.03024351 -0.048869666 -0.029643629 0.05027105 0.019130742 0.051921777 0.006830641
-0.039896186 0.0968924 -0.04154901 0.04660745 -0.027035354 -0.052151017 0.08409728 0.0027340453
0.04773506 -0.036158573 -0.020221822 -0.022572948 0.03106954 0.0715067 0.044157892 0.008145174
-0.014978613 0.025290383 0.010400429 0.012994542 0.040495824 -0.02679431 0.052116744 -0.008575864
-0.007813421 0.040376283 0.01911816 -0.0153533695 0.0101137115 -0.08026179 0.00030082877 -0.012917655
-0.025678335 0.0034212796 0.06681839 -0.026016563 -0.0142798545 -0.022242943 -0.015885545 -0.028697828

model.3.bias f4 [256]
00000000: c856 a4bb ead3 c73c 0f4f 1dbd 8398 0abd
00000010: d2be 4d3d c860 5cbc 0007 663c d483 9e3c
00000020: 896a ab3c 58ff 29bc d22b 87bc b295 473d
00000030: 9d1c eebc 5cb7 713d 0280 30bd b427 953a
00000040: 1cf5 403d d8cf 2fbc aaa0 633d f6a3 0ebd
00000050: 1166 f63c 1dff 42bd ba26 6d3d 4856 b4bc
00000060: baf7 17bc 0895 0f3c 1e15 dbbc 31a7 243d
00000070: f61b 04bd e8a8 e63a 62ee 0abd 878a 2abd
00000080: f506 81bc 73be 91bb 994a bd39 ee43 363d
00000090: ab59 863c b518 993c 06f0 67bc d242 cdbc
000000a0: 48ee 6b3d 5d8e 6a3c 1f90 6f3d 1fa8 343d
000000b0: f6aa 62bc 06c1 e73c d622 7abd 0efb fe3c
000000c0: c4ed d1bc d11a 29bd a9a0 0fbd e8e8 4d3d
000000d0: cea3 15bd 0d7e cb3c 6ecf 323c 85c1 dabc
000000e0: cc9d cbbc db8a 213d 76e9 3d3d b918 acbc
000000f0: a9ca 673d 5bb2 03bd c949 463d f5ee c1bb
00000100: 39de a53a 6ff7 0ebd 59bf 603b 5ced 513d
00000110: 0dba fbbc 9e24 ccbc 60e0 b0bc bee8 4dbd
00000120: 6272 69bd 45b1 633d 92d1 803c e8b4 353d
00000130: a6a1 66bc 91bd df3c 1653 463d 5dbb 453d
00000140: a508 573d 03d9 bdba a557 64bd 46f5 5cbd
00000150: 3824 003d 49b9 d23c 8b34 f639 cea7 1c3d
00000160: 1247 373d 998a 293d b914 7e3d 87b4 6cbc
00000170: 9579 0abd f068 f9bb b5ef 153d 756a 653d
00000180: f796 92bc 0184 bc3c 3381 19bd a9fe 63bc
00000190: ba6e 313b b8ae 33bd bd9d 8dbc 1824 7d39
000001a0: a838 493c c5f1 26bd 5eb6 1e3d 848c fcba
000001b0: 41d4 2cbc 0fd6 04bd 0f42 a53c da34 5b3d
000001c0: 8b81 dd3c c9c7 173d 5df1 0f3d 40e9 6c3d
000001d0: 626d 273c 5116 b93b e118 223d 0b95 e13c
000001e0: 252e af3b 7630 30bd 8576 b0bc fc58 75bd
000001f0: 60a1 923c 1032 6fbd 8b04 1b3d 8faa 45bd
00000200: 2413 033d 6566 3fbd 9eee fabc 129d 4dba
00000210: bc88 573d ce59 303d ab7a 1e3c 3d3b 673d
00000220: 7ace 733a 2612 16bd c6b9 ef3c ece7 a23c
00000230: 8525 483d 7b68 503c 39e2 61bb a458 57bd
00000240: 405c 253d 0094 19bc 4325 8ebb 91c4 7c3d
00000250: 50fd 72bd 253f 263d f42a b0bc 422e f8bc
00000260: 7eb0 703d 8e6c 283d 6c68 75bc 0429 093d
00000270: c6de d9bc 33f6 993c 8670 40bd ac3d 6ebd
00000280: aab7 053d e281 d43b 9b8f 50bd baba 72bc
00000290: ac3d 663c 6b8e 1dbd 5cec 223c 1130 99bc
000002a0: 0339 76bd f719 87bc 9bf4 613d 336f 0bbd
000002b0: d692 0c3d 0142 4ebc d9ac e4bc d72c 3d3d
000002c0: 7c6c a03b 5b8e 6a3c 02c3 31bd 1883 4cbd
000002d0: 6cb1 d93a 4f88 193d f5d9 09bd ecfb e8bb
000002e0: 8cd0 073b 2ac9 c6bc 95a0 eebc 5a44 7e3d
000002f0: 90bf 5f3d b636 7d3d 2b42 4a3b be13 94bc
00000300: 6d14 1dbb 2cea 2e3d b687 703d 332f be3c
00000310: cc6d 7d3d 6024 92ba b3bf 693d 2da4 6c3d
00000320: def8 f23c eebd 0bbd 90bd 94bb 3e54 143d
00000330: 20f4 2f3c 2059 173c 5a1b 7cbd 05aa 5e3d
00000340: 699c 03bd 04f6 c3bc da6a 1c3c cae6 943c
00000350: f593 43bd e581 49bd f76e 58bd d629 6abd
00000360: 4703 19bd 8f72 a83c 2eeb 22bd bf32 b0bb
00000370: 1ee3 133d 8417 32bd 0266 1b3c 4e5f 30bd
00000380: 918a 6c3c 6085 a43a 8b05 49bc b6b5 ea3c
00000390: d789 e03c bfc4 d1bc ceff b33c f748 373d
000003a0: d84e 733d 8613 373c 6cfa 6cbd 4033 6dbd
000003b0: 4801 44bd 1615 2cbd db9a fe3a cb56 ab3c
000003c0: 673c 383d 70ca 7cbd 81f5 d4bc 6c29 573d
000003d0: 490a 96bc 0009 133c 381f 66bd c12e febc
000003e0: 2398 203d bfdc 3bbd 8f0a 43bb 8caa f23c
000003f0: 056c d8ba b5cf 8ebc 00b5 8d3c 795d f33c
-0.005015228 0.02439304 -0.038405474 -0.033836853 0.05023081 -0.013450809 0.014039755 0.01934997
0.020924823 -0.01037582 -0.016500387 0.048726745 -0.029066378 0.059012756 -0.043090828 0.001137963
0.047108755 -0.010730706 0.055573143 -0.034824334 0.030077966 -0.047606576 0.05789826 -0.022013798
-0.009275371 0.008763559 -0.026743468 0.04019851 -0.032253228 0.0017597945 -0.033918746 -0.041636016
-0.015750388 -0.004447752 0.0003610447 0.044498377 0.016400179 0.018688539 -0.014156347 -0.025056276
0.05760029 0.014316169 0.058487054 0.044105645 -0.013834706 0.028290283 -0.06106838 0.031125572
-0.02562607 -0.04128534 -0.035065327 0.050270945 -0.03653317 0.02484038 0.010913713 -0.026703605
-0.024855517 0.039439064 0.046365224 -0.021007882 0.056589756 -0.032152515 0.04841021 -0.0059183785
0.0012654728 -0.03490394 0.003429374 0.051251754 -0.030728364 -0.024919804 -0.021591365 -0.05027079
-0.05699385 0.05558898 0.01572493 0.04436198 -0.014076626 0.027312072 0.04841908 0.048274387
0.05249848 -0.001448423 -0.055747647 -0.05394485 0.03128454 0.025723116 0.00046959924 0.03824597
0.044745512 0.041391943 0.06203148 -0.014447338 -0.033807356 -0.0076113865 0.036605556 0.05600973
-0.017894251 0.023012163 -0.03747673 -0.013915696 0.0027074055 -0.043867797 -0.01728713 0.00024141406
0.012281574 -0.040757913 0.038748138 -0.0019267951 -0.010548652 -0.032430705 0.0201731 0.0535172
0.02703931 0.037055764 0.03514229 0.057839632 0.01021895 0.0056484123 0.039574508 0.02753689
0.005346077 -0.043014966 -0.02154089 -0.059899315 0.017899215 -0.058397353 0.03784613 -0.04825836
0.032000676 -0.04672851 -0.03063136 -0.00078435347 0.052620634 0.043054394 0.009672801 0.05645298
0.0009300482 -0.0366384 0.029263388 0.01988598 0.048863906 0.012720223 -0.0034467115 -0.05257477
0.04037118 -0.009373665 -0.004337938 0.061710898 -0.05932361 0.040587563 -0.021504857 -0.030295495
0.058762066 0.04111915 -0.014978509 0.03348638 -0.026595484 0.018794155 -0.04698231 -0.058164284
0.03264586 0.00648521 -0.050918203 -0.014815027 0.01405279 -0.0384659 0.009944048 -0.018699678
-0.060112964 -0.016491873 0.055164915 -0.034041595 0.03431972 -0.012588979 -0.027914451 0.04618534
0.004895745 0.014316167 -0.043398865 -0.04992971 0.0016608662 0.03748351 -0.033655126 -0.0071101096
0.002072367 -0.024265844 -0.029129306 0.062076904 0.054626048 0.061819755 0.0030862193 -0.01807582
-0.0023968474 0.042703792 0.058723174 0.023215866 0.06187229 -0.0011149757 0.057067584 0.057773758
0.029659685 -0.034116678 -0.004539199 0.036213152 0.010739356 0.009237558 -0.061549522 0.054361362
-0.032131586 -0.02392102 0.00954696 0.018176455 -0.047748525 -0.049196143 -0.0528402 -0.057168804
-0.03735664 0.020562438 -0.039775066 -0.005377143 0.036105268 -0.043479457 0.00948477 -0.04305964
0.014437334 0.0012551956 -0.012269388 0.0286511 0.027409477 -0.025606511 0.021972563 0.04474732
0.059401363 0.011174088 -0.05785601 -0.057910204 -0.047852784 -0.042012297 0.0019424813 0.02091541
0.04497948 -0.061716497 -0.025995972 0.052529737 -0.018315451 0.008974314 -0.056182116 -0.031028153
0.03920759 -0.045864817 -0.0029760932 0.029622339 -0.0016511685 -0.017433027 0.017298222 0.029707657
