models/ecoli_core_v3_metabolic_nn.pth (torch, 83769 bytes, 6 tensors)

model.0.weight f4 [128, 20]
00000000: 092c 3f3e 407e 893d 5280 f63d b4d1 8dbd
00000010: ff2c d0bc 4f0c f63c fa03 e73d 86f6 15be
00000020: 1120 b03b 5fad 9fbd 868a 3b3e 761b 5a3e
00000030: d7be 1ebe aaf7 c03b 8a29 05be 5616 173e
00000040: ca6f 023d 6c6e df3d 02c1 113e 86b0 06be
00000050: a7b5 f43d b664 36be acc4 3a3e fb72 27bc
00000060: 98a3 723e 8925 7e3e 47e2 663e 0535 ab3d
00000070: 47a7 e7bc 2480 533e 3954 373e cacf c13c
00000080: 68f5 5abd b6ce 2bbe 5a5c 353e e003 10be
00000090: db86 4abe 82b1 1c3e e613 33be 8a97 32ba
000000a0: 85a7 b93d 50e9 5c3e 7c63 b1bd 2620 633e
000000b0: 0dc2 09bc 48e2 203c 37f6 46be bd66 b7bc
000000c0: b979 e1bd f69f 123e ebd1 133e 2b9b af3c
000000d0: f914 e33d acaa 093e af07 dd3d 6530 a63d
000000e0: e290 813d ccf9 193d 81a7 03be d491 5abe
000000f0: 6e06 ec3d 71e6 323e 3235 bdbc f8fb eb3d
00000100: 332f 863e 45f0 ff3c 2821 203d 71fc 093e
00000110: cc9c 023e 9f8e 9c3d 4692 50be 3fb4 04bd
00000120: 5510 183e 9486 803d 7511 50be 5d3d 4cbe
00000130: e0be 97bd bd0f d0bd 4b91 f63d d196 f0bc
00000140: 1666 773d 72a4 22be 463f 2d3e 79b4 03bd
00000150: 0360 a53d 25d6 ba3d ae03 6c3c 8a21 223e
00000160: 81f6 bcbd 6144 1abd fae1 e83d 11f1 55bd
00000170: 16e5 753e 70c8 30bd 2ec7 d63d cd43 323c
00000180: 369d a23c 91d9 07be 04d1 4bbe ab14 2e3d
00000190: 8595 df3d 658e 213e 5d2d 22be f42c 16be
000001a0: 4357 91bd 76be 4a3e 9241 a1bd 228f ac3d
000001b0: 07c1 97bd e8a1 bb3b 9384 373d 044f d03d
000001c0: 0c71 91be 4624 fcbc 3a74 343e 01ff 3b3e
000001d0: 363d d53d 0774 843d dcf4 5b3e ab62 0b3d
000001e0: 4a08 f8bd 1d96 e43d 98d6 2d3e 14b7 d73d
000001f0: 2b71 6a3e 2ae2 533e d835 1fbe 4458 9b3c
00000200: bc03 a63b 4e46 3c3c 2319 703e 03ef 56be
00000210: cfb6 893d 95ad febc 4830 40be ba3d 0fbd
00000220: 86c9 633c 0afb e53d 9ce5 b3bb d358 16be
00000230: 61bf 393e 6ea4 f1bd 1c13 7e3d 7f2b 95bd
00000240: 1f8d 6f3b 7a6b 193e d992 2c3e ba1c 623e
00000250: 4111 653e 121f 0f3e cef9 093e 66c3 503e
00000260: ef46 aebd 5fc4 183e 1f66 313e 5c6b 433e
00000270: af9c 37be a22a ac3d 6eca fa3b 9cff ddbd
00000280: dce9 603d f7ae 2dbe 5d7b 4b3e 3531 393e
00000290: 020d b9bc ceda 13be c601 98bd 85ab bf3d
000002a0: a61c 8b3d 0892 1dbe a707 b83d 2bab 00be
000002b0: 3fd0 603e ba34 133d e712 d23d 4538 5c3e
000002c0: 5768 82bd 6d04 fabd 34b0 eebd 53f3 d4bd
000002d0: 3a2b 08bd 78d2 9abd cce4 93bc 5078 18ba
000002e0: 465a a13c d102 2dbe d9cd 5b3d e702 50bd
000002f0: 9fec 743e fb96 51be c7fa d0bd abbd 2a3d
00000300: 354c 593e 3647 63bd d2a0 b23c f1b4 92bd
00000310: 6e01 003e 2c35 d43d 62c0 553c d02b 5e3d
00000320: b5ad 093e 2780 273e 1ec3 213d 81bb 813d
00000330: 98f1 423e 2046 823e f3fd 763d 5876 41be
00000340: 9f41 093e 88aa 193e 734f 113d 363d ba3d
00000350: d7fa 1dbe c4c6 43bd 556b 443e 6d34 93bd
00000360: aaa6 013e 6277 aa3d d6e2 9abd a275 d73d
00000370: c16e 85bd 76f7 76be c666 35be 1307 72be
00000380: 94b7 86be eefb 7a3d a266 18be effc 63be
00000390: e583 6c3e ebca 743c 08b1 123e 0ee8 6ebe
000003a0: a357 953d 9e08 0d3e 96ef 1cbe 227a d63d
000003b0: 814a ddbc c433 38bd 8770 17bd f112 94bb
000003c0: 3f51 d93b 6722 c73c 48ee a1bd 17c3 d03a
000003d0: 4b72 a0bd 0fca 5d3e 340e 56bd b1d7 bd3d
000003e0: 1d16 3a3d d81f 14be b918 f03d e298 08be
000003f0: 650b e53d a979 2ebe 8604 5ebe a5fb c93d
0.18669142 0.067135334 0.12036194 -0.06924763 -0.02541208 0.030035166 0.11280055 -0.14644822
0.0053749164 -0.0779674 0.18314561 0.21299538 -0.15502487 0.005888899 -0.13004127 0.14754614
0.03184489 0.10909733 0.14233783 -0.13153276 0.1194871 -0.17811856 0.18239087 -0.010220285
0.23695219 0.24819006 0.22547255 0.08359722 -0.028278006 0.2065435 0.17903222 0.023658652
-0.053456694 -0.16778073 0.1771101 -0.14063978 -0.19778006 0.15302089 -0.1748806 -0.0006812742
0.09065155 0.21573377 -0.08661553 0.22180232 -0.008408082 0.009819575 -0.19429861 -0.022387857
-0.11009545 0.14318833 0.14435546 0.021436295 0.110879846 0.13444012 0.10792481 0.08114699
0.06326462 0.03759174 -0.12856866 -0.21344692 0.11524664 0.17470719 -0.023096655 0.115226686
0.26207885 0.0312425 0.03909412 0.13475205 0.12755126 0.0764439 -0.20368299 -0.03239846
0.1484998 0.06275669 -0.2031916 -0.19945283 -0.074094534 -0.10159252 0.12039431 -0.02936879
0.06040009 -0.15883043 0.16918668 -0.032154534 0.080749534 0.09122876 0.014405174 0.15833107
-0.092267044 -0.037662867 0.113712266 -0.052231852 0.2401317 -0.043159902 0.10487209 0.010880423
0.019850355 -0.13266589 -0.19903952 0.04250018 0.109171905 0.15776975 -0.15837617 -0.14665586
-0.07096722 0.19799218 -0.07873835 0.08425738 -0.07409864 0.005726088 0.044804167 0.10171321
-0.2840656 -0.030779015 0.17622462 0.18358995 0.10412066 0.06467443 0.21480125 0.034029644
-0.12110956 0.11161444 0.16976392 0.10532966 0.22894733 0.20691743 -0.15547884 0.018962987
0.005066363 0.011491371 0.23447089 -0.20989613 0.06724321 -0.03108863 -0.18768418 -0.034970976
0.013903027 0.112295225 -0.005490018 -0.14682321 0.18139412 -0.117989406 0.062029943 -0.07283687
0.003655262 0.14982405 0.16852893 0.22081271 0.22369863 0.13976696 0.13474199 0.20387039
-0.08509623 0.1491866 0.17324112 0.19083923 -0.17930864 0.08406569 0.007653526 -0.10839769
0.054910526 -0.16961275 0.19871278 0.18085177 -0.02258921 -0.14438936 -0.07422213 0.09358887
0.06792574 -0.15387738 0.089858346 -0.12565295 0.2195444 0.035938956 0.102575116 0.2150584
-0.063675575 -0.122078754 -0.11654702 -0.10397973 -0.03324435 -0.07559675 -0.018053435 -0.0005816268
0.019696366 -0.16895606 0.05366311 -0.050784018 0.23918389 -0.2046775 -0.10204082 0.041684788
0.21220477 -0.055487834 0.0218052 -0.07163418 0.12500545 0.10361704 0.013046356 0.054241
0.1344517 0.1635748 0.03949272 0.06334592 0.19037473 0.25444126 0.06030078 -0.18892801
0.13403939 0.15006459 0.03547616 0.09093706 -0.15427719 -0.04779698 0.19181569 -0.07187734
0.12661234 0.08323552 -0.07562797 0.105204836 -0.06515265 -0.24117836 -0.17714986 -0.23635511
-0.26311934 0.061275415 -0.14882901 -0.22264455 0.23097189 0.014940958 0.14325345 -0.2333071
0.07292106 0.13772818 -0.1532577 0.10472514 -0.027013065 -0.044971243 -0.03697255 -0.0045188596
0.0066319997 0.024308397 -0.07906777 0.0015927282 -0.078343 0.2165911 -0.05225964 0.092696555
0.045431245 -0.14465272 0.117234655 -0.1333957 0.11183814 -0.17038597 -0.21681413 0.098624505

model.0.bias f4 [128]
00000000: cc6a 12bd f191 0cbe 25ac 2fbe c8fe 92bd
00000010: 0f8a 0e3e 6ed4 fabd affc 113d 9053 10bd
00000020: 13ef 32be 17ae 463e 101e 38be 3604 b63c
00000030: 6d6a f8bc 65da 0b3d f35c 1a3e d930 8abd
00000040: 9ae1 c6bd 8735 5a3e ce50 213e 16b5 a93c
00000050: 0177 24be 5ad1 b6bc b9f8 4e3d bd44 e93d
00000060: 2195 0dbe 6647 bbbc fbd0 473d 5f3f cbbd
00000070: 030d 453d f9ca 653e e6b9 143d 400e aebd
00000080: c92c 0ebe 66c5 853e 677f 2fbe cb6e b8bd
00000090: dcad e9bd d09b e3bc 8587 a93c 3776 e9bd
000000a0: 0d82 ebbd 0b2b 5fbe 59f3 053d 7c05 253e
000000b0: 9b48 b93d 3191 13bd 0ada 51be e7f1 ac3d
000000c0: 5824 7c3b ddc6 51bd 91f4 9abc 1b4e ee3d
000000d0: a5de 623e 5711 cb3c d1bc 12be 1ded 423d
000000e0: 6841 e93d 5bfd 20be 3855 6b3e 2e43 443d
000000f0: 9473 1bbe 9dcb 3b3e 2bac 1b3e 3f7c 043d
00000100: 6687 c9bd 67a4 743c ebae 1c3e c7a2 ea3d
00000110: c8a9 1bbe e0a3 423e cd22 133e 4ad2 643e
00000120: f85d 0c3e 1daf 11bc 15a2 acbd bad6 67bd
00000130: c562 4d3e 5689 e33c 7d99 c0bd cca4 dcbd
00000140: e0c9 863e 846a 993d fa8c 833e 1060 743e
00000150: 905b fe3d 750a 6b3e b68e d9bd aa5c 7a3e
00000160: 9523 5f3d 30c3 4c3e 8138 333d c1b3 3f3d
00000170: 93ae 243e 2db7 19be 0b39 1b3d a7c6 113d
00000180: 3596 2abe 7e10 823c 0486 a03d 1e89 2b3e
00000190: 3757 10bd 0afa d13d 323f 91b9 dabf 38be
000001a0: 4991 ff3c f5d1 a43d 8799 05bd 79e2 493e
000001b0: 9273 a33d e0a3 673e aab8 3fbd 1964 673e
000001c0: e769 173e 1a4d 02be db6a 173d c75f 243d
000001d0: 7864 4abd 5167 ac3c 1cf9 d0bd 36b3 533e
000001e0: 76d3 1ebd f375 6a3d 9f74 6e3d 7278 e7bd
000001f0: e25d b8bd ce7c 52bd 6694 7cbd b978 49be
-0.03574638 -0.13727547 -0.17155512 -0.07177502 0.13919853 -0.12247549 0.03564137 -0.03523594
-0.17474012 0.19402348 -0.17980218 0.022218805 -0.030324185 0.034143824 0.1507452 -0.06747598
-0.09710999 0.21309482 0.15753481 0.020716231 -0.16061021 -0.022316623 0.05053017 0.11390064
-0.1382642 -0.022861194 0.048783284 -0.099241965 0.048108112 0.22440709 0.0363101 -0.08498812
-0.13884272 0.26127166 -0.17138444 -0.09005507 -0.11410114 -0.027784258 0.020694504 -0.11399501
-0.114994146 -0.21793763 0.032702778 0.16115373 0.090470515 -0.036027137 -0.20493332 0.08444577
0.003847381 -0.05121504 -0.018915446 0.11635991 0.22155245 0.024788542 -0.1432984 0.04758941
0.113894284 -0.15721647 0.22981727 0.04791563 -0.15180808 0.18339391 0.15202396 0.032345053
-0.09840278 0.014931775 0.15301101 0.114568286 -0.15201485 0.19007826 0.14368744 0.22345844
0.13707721 -0.008891848 -0.08429352 -0.056601264 0.20057209 0.027775448 -0.094042756 -0.1077362
0.26325893 0.07491019 0.25693494 0.2386477 0.12419808 0.22953208 -0.10622923 0.24449411
0.054477293 0.19996333 0.04375506 0.046802286 0.1608222 -0.15011282 0.037896197 0.03558984
-0.16658862 0.015877005 0.078380615 0.16751525 -0.035239425 0.10252769 -0.0002770364 -0.18041936
0.031197207 0.080478586 -0.03261712 0.19715299 0.07981028 0.22621107 -0.04680697 0.22596778
0.14786492 -0.12724724 0.03696714 0.040130403 -0.04941222 0.021045359 -0.10203764 0.20673832
-0.038775884 0.05724139 0.058216687 -0.1130227 -0.09002282 -0.051388554 -0.06166496 -0.19674958

model.2.weight f4 [128, 128]
00000000: 4a64 c13d bc2b aa3d c87e e73d b09d 4e3d
00000010: dde0 553c 849f 663d 637d 7d3d ebc4 9fbc
00000020: 83da fc3c 92ec e0bc 0549 3b3d 311a 54bd
00000030: 2bae d23d 9868 1b3d 03f2 513c 2351 a73d
00000040: 2a4f 0cbd dfe6 cf3d 955a b73d eada c13d
00000050: bcaf e2bc ce17 f6bb 02a6 26bd 4df1 22bd
00000060: 846f adba 4230 53bd 2fee 973d f886 3abd
00000070: b0a0 a5bb 4afd ab3d 5ab0 25bd d6bd 0ebd
00000080: ea55 1abd 2e75 b33d 5eeb 083c 4bd0 a9bd
00000090: cc2a 1bbd bfac d03d 8450 d33d c2fd ef3d
000000a0: 41f2 ae3d 3079 94bc 4f9e aa3c 3390 64bd
000000b0: 38e5 fb3d ed6b 58bc e4f5 5f3d b83f 883c
000000c0: 8bb6 c63d ed16 e83c d44e e7bc 676e cebd
000000d0: d845 b73c fcc0 dcbc d96f 34bd a902 1e3d
000000e0: c2c4 803d 808c 183d a6e7 dbbd 13a6 48bd
000000f0: f901 debc d105 a2bd 3c33 b03d 0e7d b63d
00000100: ba0f c33d 22e5 6fbd eb9c 15bd c38d 1a3d
00000110: 8aac 9dbc 835f e23d 95d0 76bd a77e 0d3d
00000120: 2052 123d 72d7 acbc 9d88 cf3d 52ce 233d
00000130: 9048 bf3d 111a d03c 2ff7 da3d 263a c93d
00000140: ff40 abbd 4853 b43a b369 2d3c 2a7f b93d
00000150: 0355 c53b 13a5 803c 6b35 a8bd 4e13 843b
00000160: 6d21 f73c 656a 4c3c 865f b3bb 3dea 983d
00000170: 1f3d 3cbc a27a ad3d 4eff df3d 16c5 dcbb
00000180: 89ef 813c 337f 8fbc 39aa 97bd c145 163d
00000190: 3371 8dbd 3e1a 03bd 0c52 e93c f204 c73c
000001a0: 97fc 663d 046b 9abd 2a28 f0bc ec56 f43d
000001b0: e4bf c0bb e002 2d3d 9743 013e 32bd cb3c
000001c0: e714 b3bb daac dd3b f59a c2bc 42bb 86bd
000001d0: a38d c8bc a849 15bd b8ec 88bb aa17 1f3d
000001e0: f591 47bd a25a 553d 7316 793d 1953 a1bd
000001f0: 8adb 5cbd ee0e 0b3d 6f26 e2bb 6001 11bd
00000200: 14f4 863d 00a5 533d ac83 8e3c 23cf 333d
00000210: 7777 8f3b 7efd 433d c98f 993c dfb9 a9bd
00000220: 2743 e03c 47f6 2a3d ee53 46bc ae36 ea3d
00000230: d0db 7a3d f8cd 103c 588f f8bc 7632 f23d
00000240: cab3 38bd e1d3 113d 7854 a43d 278b c2bc
00000250: 81e5 303c 0137 a8bd 0bbf 113d 181e b53d
00000260: b0ad 8e3d 9de0 e63c 857b 51bd 92ad c7bb
00000270: 97ec 213d f738 b53d 3ac0 c5bc 422a 853d
00000280: ee0a 713d 034d 323d 9f76 a93d 8fb6 d7bc
00000290: 87a3 273d fe23 7dbd b362 c13c 87bd bdbc
000002a0: 2b31 71bd 6bfc fb3b c369 a43c f543 b93d
000002b0: ad12 653d bac1 8abc 6c10 b5bd f4c4 42bc
000002c0: 60bd 48bd cc10 a03d 9147 0f3c e56f 47bc
000002d0: 2d90 503d 0242 e83c 95f9 353d 15c7 c83c
000002e0: 4250 b0bb 3410 c0bd a971 613d ef07 8dbd
000002f0: ddf6 10bd 0261 b33d 3f7d c83d 3f92 323d
00000300: e9f9 2ebd 2591 193d 0420 063d ed91 093d
00000310: eda1 4abd b2bb 87bc 0c9d c7bd 0a96 bd3d
00000320: 82d6 50bc f031 fdbc bd51 9abc 17ad 893d
00000330: e27c ce3d a3a2 383d a6e9 eb3b 432c 9a3d
00000340: c0c2 98ba 34ce 273d dfde ab3d f391 90bd
00000350: 5987 3cbd 58fd ac3d a736 35bd 2044 4d3d
00000360: e71b 5d3d 0b5e 1cba 1705 38bb b3ca 1bbb
00000370: 4db0 06bd 0ab5 2c3c 7e4e 8cbc 7ecd 63bd
00000380: 9ae0 fdbb f3c4 85bc a543 5cbd e117 a23d
00000390: 1f92 a3bc 4185 f63d 0179 0f3d c711 4ebd
000003a0: b4da 99bb 62ec b73d ff33 8bbc 9f8d 413b
000003b0: 298e e23d 8ff2 f43d b01b 913d 9685 3c3d
000003c0: 4c7f aa3d 0bf2 fe3d 8286 01be e7f3 ce3c
000003d0: 51be c13d b5eb 3c3d 62a8 bdbd bafa 5cbb
000003e0: bca3 a8bb f77e 2fbd 6f42 7d3d 563d 9e3d
000003f0: 7d6d d0bc 6d4f fd3d c3bd 1ebc 9d7f b73d
0.09442957 0.08309123 0.113034785 0.05044335 0.0130541 0.05630447 0.061887156 -0.019503077
0.030865913 -0.027456556 0.045723934 -0.05178279 0.10287126 0.037941545 0.012814048 0.081697725
-0.034255184 0.10151457 0.08952824 0.09465583 -0.027671687 -0.007510162 -0.04068566 -0.039780904
-0.0013232087 -0.051559694 0.07418477 -0.045538872 -0.005054556 0.083979204 -0.040451385 -0.03484901
-0.03767959 0.087625846 0.008356897 -0.08291682 -0.03788261 0.10189199 0.103180915 0.11718322
0.085423 -0.018124193 0.02082744 -0.05580158 0.122995794 -0.013209325 0.05467786 0.016631946
0.09702786 0.028331244 -0.02823583 -0.10079651 0.022372171 -0.02694749 -0.04405198 0.038576756
0.062875286 0.037243366 -0.10737543 -0.048986506 -0.02710055 -0.07911266 0.08603522 0.08910571
0.09524484 -0.058568127 -0.0365266 0.03773285 -0.019247312 0.11053374 -0.060257513 0.034544613
0.03572285 -0.021098826 0.10133479 0.039991684 0.09340012 0.025403054 0.10691678 0.09825544
-0.083620064 0.001375773 0.010584283 0.09057458 0.006022097 0.015703714 -0.08213314 0.0040306216
0.030167306 0.012476538 -0.0054740338 0.074665524 -0.011489182 0.08470656 0.109373674 -0.0067373617
0.01586129 -0.017516708 -0.07405514 0.036687616 -0.06906357 -0.03200745 0.028481506 0.02429435
0.056393232 -0.07539943 -0.029316027 0.119306415 -0.00588225 0.04223907 0.1262344 0.024870489
-0.0054651382 0.0067649903 -0.02375553 -0.06578685 -0.0244816 -0.036447197 -0.0041786097 0.038840927
-0.04872318 0.052088387 0.060812425 -0.07877178 -0.053920306 0.033949785 -0.0069015543 -0.035401702
0.06589523 0.051671028 0.01739677 0.043898713 0.004378255 0.04784917 0.01874532 -0.08287405
0.02737577 0.041738775 -0.012104971 0.114362106 0.061244786 0.008838169 -0.03034179 0.11826031
-0.045093335 0.035602454 0.08023924 -0.023747994 0.0107969055 -0.08213616 0.035582583 0.088436306
0.06966722 0.028183276 -0.051143188 -0.0060936892 0.03953227 0.08848756 -0.024139512 0.06502201
0.058848314 0.043530475 0.08274578 -0.026332168 0.040927436 -0.061801903 0.023606634 -0.023161663
-0.05888478 0.0076900027 0.020069962 0.09046165 0.055926014 -0.01693808 -0.08841023 -0.011887778
-0.049008727 0.07815704 0.00874509 -0.012172674 0.050918747 0.028351787 0.044427473 0.024508992
-0.005380661 -0.093780905 0.055040035 -0.06886279 -0.035391677 0.08758737 0.09789514 0.043596502
-0.0427188 0.037491936 0.032745376 0.03358643 -0.04947083 -0.016568992 -0.09746751 0.09257133
-0.012746455 -0.030907601 -0.018837804 0.067224674 0.10082413 0.045076977 0.007199484 0.075279735
-0.001165472 0.040968135 0.08392119 -0.070590876 -0.046027515 0.08446759 -0.044241574 0.050113797
0.053981688 -0.0005964941 -0.0028079206 -0.0023771941 -0.032882977 0.01054121 -0.017127272 -0.055615894
-0.007747722 -0.016329264 -0.05377545 0.07914711 -0.019967137 0.12037135 0.035027508 -0.050309923
-0.004695261 0.08980633 -0.016992567 0.0029533876 0.11062271 0.11960327 0.07085359 0.046025835
0.08325061 0.1244851 -0.12648967 0.025262786 0.09460128 0.046123225 -0.09260632 -0.003371878
-0.005146472 -0.042845692 0.061830934 0.07726543 -0.025442833 0.12368665 -0.009688797 0.08959887

model.2.bias f4 [128]
00000000: d3c2 e1bc 7c97 bb3c c322 8dbb b68b 233c
00000010: cb29 893c 0042 263d e2f7 763a f07d bdbb
00000020: 4758 703c e81f da3d a1e8 f33d 9c91 c0bc
00000030: 4150 813d 8b88 633d b335 6ebd dbe4 ecbb
00000040: c36a 213c b95c c63c 0bce 9f3d ed65 bd3d
00000050: e28d 02bd ab62 af3d c2c3 14bd f90e 33bc
00000060: e995 31bd 87b7 20bd 2a14 80bd b3a9 a1bc
00000070: d2a4 0ebd 53a0 163d e223 c13d f01a e13c
00000080: 28e3 283c 395e 833c 716b d63c ba50 723d
00000090: 2ce5 4d3c 193e a53c 3713 5bba 7b07 10bc
000000a0: c19d 23bd 34ec bb3c f302 063d 907c 533d
000000b0: 478b 62bc 5061 093d 095e 7dbd 7535 dc3d
000000c0: eaf3 33bd 2abf 3cbd 15f0 983c 7022 343d
000000d0: 3af1 8fba 5baf 86bd cc8e 22bc 622d 61bd
000000e0: 37ba fbbc 987b 513d 2900 9a3d 5fd1 403d
000000f0: dbf8 2fbd dd61 70bd 386c 5a3d ab44 c13c
00000100: a376 c2ba fcd1 c7bc c886 64bd 998e 0239
00000110: 00e7 863d 9ed3 68bd ad12 e23a f1aa 263d
00000120: 731f 9abd dc0e 243d d6c5 8b3d d8a5 8abd
00000130: fbf1 58bc 75d8 103d a291 d7bc d887 093a
00000140: da6f b63d 0592 373c 033e efbc da69 673d
00000150: afc5 c23c 7d7f 493c 591f d43a 4072 1e3c
00000160: e303 cd3c cfce 363d d91a a53d fce8 843c
00000170: 56b5 32bc 54e6 8c3d a953 d63d a2aa 89bd
00000180: 3ebc 4bbc 1343 743c a992 803d 9942 20bc
00000190: 1142 dcbc c8f9 b7bc 0901 263d 74df 993b
000001a0: 10b7 e43c e46b 893d abc3 d83d 911d 56bd
000001b0: 7b2f 103d 20d4 9cbd 796a aa3d 1b4d e03c
000001c0: 8956 df3c 2a75 8c3d 7abc b13d ecee d33d
000001d0: 4821 8c3d b1ab 9cbd ea16 fb3c 331c 8c3d
000001e0: 81e7 483d f9c1 14bd a6a4 663d ec1a 73bc
000001f0: 0790 96bd 5ac5 8fbc 4060 883d bb4f 4fbd
-0.02755872 0.022899382 -0.0043071224 0.00998204 0.016743561 0.040590286 0.00094210927 -0.005782835
0.014669484 0.10650617 0.11909605 -0.023506932 0.06314135 0.05555014 -0.05815668 -0.00722943
0.009852114 0.024214135 0.078029715 0.092479564 -0.03187359 0.08563741 -0.0363195 -0.010928863
-0.043355856 -0.039237525 -0.06253846 -0.01973424 -0.034825154 0.03677399 0.09430672 0.027478665
0.0103080645 0.01603614 0.026174279 0.059159018 0.012566846 0.020171212 -0.000835705 -0.008790846
-0.039945368 0.022939779 0.032717656 0.051632464 -0.013827152 0.03354007 -0.061857257 0.107523836
-0.043933786 -0.046080746 0.018669168 0.043978155 -0.0010981925 -0.06576415 -0.009921741 -0.05497492
-0.030728443 0.05114326 0.07519562 0.04707467 -0.042961936 -0.05868708 0.05332586 0.023592314
-0.0014836382 -0.02439212 -0.0557926 0.00012450888 0.065870285 -0.05684244 0.0017247997 0.040690366
-0.0752553 0.040053234 0.068248436 -0.067699134 -0.013241286 0.03536268 -0.02631456 0.00052463776
0.08908053 0.011204247 -0.029204374 0.056497432 0.023775904 0.012298462 0.0016183659 0.009670794
0.025026267 0.04463082 0.080617614 0.016224377 -0.010907492 0.06879869 0.10465176 -0.06721999
-0.012435017 0.01490857 0.06277973 -0.009781503 -0.026886972 -0.022457972 0.04052833 0.004695827
0.027919322 0.06710032 0.10584196 -0.05227429 0.03520153 -0.07657647 0.08321089 0.027380517
0.027262943 0.06858285 0.08678527 0.10348305 0.068422854 -0.07649935 0.030650575 0.06841316
0.049048904 -0.0363178 0.056309365 -0.014837962 -0.0735169 -0.01755016 0.06658983 -0.050613146

model.4.weight f4 [7, 128]
00000000: f7da a13d 7633 bcbd d4cf e83d 34cf 56bd
00000010: a5ee a83d b171 85bd a3b3 2dbd fe44 fc3c
00000020: 39ed a7ba 7a87 32bd 1502 623d 76da c43d
00000030: f49b 51bd 96db a73d c64c be3d f0da 373d
00000040: bef9 913d dffb 8abd ad42 e9bd b3f6 d0bd
00000050: 007c 9c3c 4da1 bfbc 14a2 5abd bcb7 913d
00000060: db49 a53d c222 ef3d 0eef 903d a09b 9ebd
00000070: 944b 3cbd db42 c53c a0c1 71bc f51e 63bd
00000080: 5adb 81bc b044 e8bc 9524 c5bd 028d c2bc
00000090: c0cf ccbd 0b6c db3d e393 90bd bbf4 a9bd
000000a0: aa2a 90bd c800 10bd 945c f13c fa82 1ebb
000000b0: 79d1 38bc 23e1 a1bd 167d 37bc 3e08 f83c
000000c0: a1c0 e83d 47ea 9f3a cc70 26bd 4146 debc
000000d0: 5ca1 563d acb2 c63d 75ac b6bd 4804 b33d
000000e0: f9a4 d83d fef2 8d3d 9f6d 8abd ad14 9cbd
000000f0: 4d36 f63c 36b5 f33c 076a e83d 47ae 073d
00000100: 3151 ec3d 658a 76bc 7cc1 c03c 344f a5bd
00000110: 193c c4bd 06dc 7bbc f814 d4bc bed3 0abb
00000120: 17c6 93bd 77a5 c13d 9600 ccbd 228e 8b3d
00000130: 65d5 1fbd d91f 303b 3faa 36bd d1d0 afbd
00000140: 959c 483d 2e8b e23d 45cc d43d a130 9f3d
00000150: 184a 613b 074c 1c3d cee0 c43d 96bf ed3d
00000160: b9da c8bc 4e68 96bd d518 b93d b372 37bd
00000170: 1107 283d 8e7f bc3d 0a17 37bc c909 863c
00000180: 3048 81bd fb10 ad3d 5a8c d5bc 64f4 80bc
00000190: d2ae 8fbd 4e51 cb3d 45d7 34bd f648 bd3c
000001a0: afe6 abbc f7ff 27bd 2111 c43d be5f cb3d
000001b0: ec56 513d c9a8 cebc 1003 b33d 840e 1b3d
000001c0: 5adc d3bb 9e55 8fbd f3f7 d63d 1cee edbd
000001d0: 3cdd 473b 6d82 91bd 74ac 36bc e5d2 81bd
000001e0: 3982 62bd 2cd1 133d cd78 c93d b971 84bd
000001f0: 1ee7 5c3d 7346 c4bd bcf5 b13d 9c5b bdbd
00000200: 4752 c63d efc4 243d ecca 6fbc 45e1 e8bd
00000210: 1dbe 9cbc d520 7e3c 6c00 21bd f23e 3cbd
00000220: ff52 c03d 3609 3bbc 9ca3 d3bd 7832 9e3c
00000230: 04a3 483c a6f3 53bd aa22 d93d e532 b1bd
00000240: 6241 ecbd 1a4c 11bd 1c8e 813c 7cba 823d
00000250: 162b 69bd 1822 a3bd 3af1 1d3c fd66 a1bd
00000260: 06a1 3abd 925f 04bd 65d4 9f3c 46d1 e8bd
00000270: 74e7 40bd 13ff 993d c64c 96bd 26ab 6f3d
00000280: e954 4bbd d754 cebc 7dbc c43d 5d16 a13d
00000290: a8a2 7b3d 819c 8bbd ee13 ad3d 45a3 cabd
000002a0: d523 2abd 619f e2bc ac3c 91bd 52b9 463d
000002b0: 5878 27bc 723e 9f3d ab77 623b fc49 f83d
000002c0: ff8b b23d fa1a 39bd 502a af3b 3bcb d7bc
000002d0: ef42 4f3d cfde babd 3226 be3d e1de b33b
000002e0: aaf1 a83d c89c ce3c 9eec 62bd bcb2 b8bd
000002f0: a6ec f7bd 3560 d9bd 0e91 c13d dc1c 943b
00000300: 315a 813d d029 ce3d 401b dfbd f7cc c73d
00000310: c710 8d3d 29c8 8cbc 600f 243d 386e 843d
00000320: 659b 413c c0c4 1d3d 30d4 da3d 48e6 103d
00000330: b067 f43d baf3 e8bb b264 3d3c 5cf1 4c3d
00000340: 39b2 f8bc 1b6e 91bc 9e9c 283d 3d29 3abd
00000350: 394d e93d d8d2 6c3d 934e ca3d 6551 083d
00000360: f95e 15bb 5622 8cbd 1cea 79bc 3c24 dfbd
00000370: e0c4 f1bd e655 6ebd fdbb 6bbd 5d6b f03b
00000380: db0d 963d 9582 f0bd d97a c33d df58 dbbd
00000390: e29a cd3d 58c2 a43d 0096 d9bd f793 bb3c
000003a0: 1439 b3bd fd29 83bd bc84 bdbd 523b 9cbc
000003b0: 1eb5 063d f6a3 ad3d 52c0 8ebd 8c25 103c
000003c0: 5f56 f4bd 6a5e d7bd 2b24 36bd 9a28 e03d
000003d0: 379c ef3d f1a9 d2bd f267 913d e7fb 0abd
000003e0: 6603 5c3d 29d4 5abd 80fc 5ebc 4a6b fa3d
000003f0: c199 b33c 6c0d 4abd 07d9 c6bd a8dc 32bc
0.07903092 -0.09189503 0.11367765 -0.052443698 0.08248643 -0.065158255 -0.042407643 0.030794617
-0.0012811787 -0.04358623 0.055177767 0.096119806 -0.05117412 0.081961796 0.09291987 0.04488653
0.07127713 -0.06786322 -0.113896705 -0.10203304 0.019102097 -0.023392344 -0.053377226 0.07115123
0.080707274 0.116765514 0.07076846 -0.07744527 -0.045970514 0.02407973 -0.014755636 -0.055449445
-0.015851665 -0.028353065 -0.09626118 -0.023748878 -0.10000563 0.10713967 -0.07059457 -0.08298632
-0.070393875 -0.035156995 0.02946309 -0.0024186955 -0.011280411 -0.079042695 -0.011199256 0.030277368
0.11364866 0.0012200557 -0.040634915 -0.027133109 0.052399978 0.09702048 -0.08919612 0.08741051
0.10578341 0.06931113 -0.0675919 -0.07621131 0.03005519 0.029749494 0.11348348 0.03312519
0.115389235 -0.015047644 0.02352976 -0.080717474 -0.09581775 -0.015372282 -0.025888905 -0.0021183337
-0.07215517 0.09455388 -0.09961049 0.06814219 -0.03902187 0.0026874451 -0.044595953 -0.085847504
0.048977453 0.11061703 0.10390524 0.07772947 0.0034376439 0.038158443 0.096131906 0.11608808
-0.024518358 -0.07344113 0.090379395 -0.04478712 0.041022364 0.092040166 -0.0111749265 0.016362088
-0.06312597 0.084505044 -0.026067901 -0.015741535 -0.07015766 0.09927617 -0.04415061 0.02310608
-0.020984022 -0.04101559 0.095735796 0.09930371 0.051108286 -0.025226967 0.087408185 0.03785564
-0.006465477 -0.06998752 0.10496511 -0.116176814 0.0030496856 -0.07104955 -0.0111495145 -0.06339053
-0.05529997 0.036088154 0.09837494 -0.064670034 0.053931348 -0.095837496 0.08689448 -0.09245989
0.09683662 0.040226873 -0.014635783 -0.11371092 -0.019133622 0.015510757 -0.039307043 -0.045958467
0.0939083 -0.01141577 -0.103339404 0.019311175 0.012245897 -0.051746033 0.10602315 -0.086522855
-0.11535908 -0.035472967 0.015814833 0.06383225 -0.056925856 -0.07965487 0.009640032 -0.078809716
-0.04556372 -0.032317705 0.019510457 -0.11368041 -0.04709573 0.07519355 -0.07338862 0.05851283
-0.049641524 -0.02518694 0.09606264 0.078655936 0.061434418 -0.0681696 0.08451067 -0.098944224
-0.04153808 -0.027663888 -0.0709165 0.04851658 -0.010221563 0.077755824 0.003455619 0.121234864
0.087181084 -0.045191742 0.00534562 -0.026342025 0.050600942 -0.091245286 0.09284629 0.0054892157
0.08249219 0.025221244 -0.055401437 -0.09018466 -0.12105684 -0.10614053 0.09451495 0.004520042
0.06316031 0.10066569 -0.108938694 0.09755891 0.06887966 -0.017185288 0.040053725 0.06466335
0.011816834 0.038517714 0.10685003 0.035375863 0.11933839 -0.0071091326 0.011559652 0.050034866
-0.03035842 -0.017752698 0.041164987 -0.045449484 0.11391682 0.057818264 0.09878268 0.03328075
-0.0022792204 -0.068424866 -0.01525357 -0.10895583 -0.11805129 -0.058187388 -0.057552326 0.0073370175
0.073268615 -0.117436565 0.09544916 -0.1071031 0.10039307 0.08044881 -0.10624313 0.022897704
-0.08751121 -0.06404493 -0.09253833 -0.019071255 0.03288757 0.08478539 -0.06970276 0.008798014
-0.119305365 -0.10516055 -0.044468086 0.10945244 0.116997175 -0.1028632 0.07099904 -0.03393164
0.05371418 -0.053424988 -0.013610005 0.12227495 0.021923902 -0.049329206 -0.097093634 -0.010916866

model.4.bias f4 [7]
00000000: ef18 86bd 3a03 b83d 5465 d9bc 1db2 503d
00000010: 3543 c33d 9b0c a83b 8d7c b53c
-0.065477245 0.089849904 -0.026537575 0.050951112 0.09534303 0.005128456 0.022154117
