models/ecoli_core_v1_metabolic_nn.pth (torch, 80697 bytes, 5 tensors)

model.0.weight f4 [128, 20]
00000000: 808d 3c3e db34 273e af4e 833e f727 0ebd
00000010: 156e 3abd 0acb db3d 0485 30bc f2e6 01be
00000020: 3a81 753c 8810 4fbe f5a0 213e 6608 16be
00000030: 5311 cbbd 1012 da3d 3b39 02be 3df1 133e
00000040: 08b0 55be 86b2 443e bc46 b3bc 4ebd f13d
00000050: 14cf 40be 7869 26be cb3d 5fbe 2416 3c3a
00000060: 9d6e 053c 9062 ab3d fdb7 bcbd e5af febd
00000070: f4e9 b33d 19d3 ddbc b9f0 f93d 3083 413e
00000080: e070 403e f13d 85bd 9218 913d ffee 2ebe
00000090: bfe3 48be 1bda 543e 1fbe dd3d 4353 403e
000000a0: 93da ac3d 2262 523e 5199 433e 41ff f23d
000000b0: cd26 7abd 6c29 6d3e 7d86 31be 7ce5 8a3d
000000c0: a270 fdbd 2539 8fbd 38dc 2bbd 0c6a 053e
000000d0: 4e65 ee3d 442f 38be 5db9 4ebe c040 023d
000000e0: 71c9 46be 0a21 483e 4c45 3bbc 01de 13bd
000000f0: da68 23be 4d3a 113e 9736 b2bd c22f b5bd
00000100: 34fc 19be 965b 25be 2d14 053e 8f6d 15be
00000110: c81c 5abe d813 8abe 79f5 2fbe 88af 4a3e
00000120: f28a 063e a424 ac3d 00bc a93c 37a2 8b3d
00000130: 7ec3 073e 0f14 48be 756a 0dbe 049a 2b3d
00000140: efaf 033e 3b83 e9bc 25ad 513e 1dc5 29be
00000150: 83a3 3b3e c5e7 1cbb a2fe 443e 1e28 2fbe
00000160: 231f 1abe 6334 e73c 3488 f83c 8869 3bbe
00000170: 08a0 ab3d 7b97 8abd 8bbe e6bc 0c96 793d
00000180: acbe e0bd 28ac 623e a988 fabd d60a 04be
00000190: b05c 103e 46f0 4f3e 3b26 103e 0315 f43d
000001a0: d711 693d 0c48 fbbb 8742 abbd ca89 133c
000001b0: 8822 2dbe 540f ddbd 2e20 423e 265a eabd
000001c0: 1ea9 3b3e bb7d 74bd c30a 753d ea2b 2abe
000001d0: 8f26 6dbd cafc 113e 4d05 18be 9407 68bc
000001e0: 6bf2 093e 0424 30bd 0059 5ebe 8838 1dbe
000001f0: 0be7 203e 8b63 8d3d e2df 963d a828 bb3d
00000200: f305 3cbe ea1f c7bd 4a90 3b3e 3aa8 bd3d
00000210: 6180 abbd 9852 1dbe 592f 983c 5317 493e
00000220: b6ba 89bc a0a5 073e ea47 dbbd 3276 09be
00000230: cae3 b93d 0c98 4c3c 713a 5b3e 9890 073e
00000240: 4ce7 273e 08df 713e de9a 11be 9456 3b3d
00000250: 78ff 5b3e 887a 4c3e a91d 213e b538 063d
00000260: c91c d5bd 20c9 fabd 71c3 0f3e 9484 8d3d
00000270: 8d8c 533e ddaf 363e 8462 603d d003 4dbe
00000280: 5cbf 213e dce4 bdbd d9f2 d83d 8815 343e
00000290: 5801 6f3c bdf9 273e 7128 113e fa09 553e
000002a0: 0ad2 403e 2750 fb3d 347d c23d a4dc 123e
000002b0: 4c2b 693e 9dae 9d3d 89b5 033e 1321 bb3d
000002c0: 00fb a93d 0b47 46be 0a45 07be 3ab1 423d
000002d0: 5e1a 613e e1b7 803d 4bfb 7c3d fc78 0dbe
000002e0: a325 623e 30f6 ed3d ec87 3c3b add1 973d
000002f0: d31c 00be 410f e1bc ee5f 6dbc 96af a2bd
00000300: c76f 043e 1821 e6bd a60a a8bc 02aa 81bd
00000310: c10f c2bd 7a88 43be 4d10 cabd 8322 4dbe
00000320: 8824 3abd 4a9e 2bbe 8540 d9bd 9a0c 3e3e
00000330: 1038 7fbd 4a09 3abe 0db6 d83d 1e5c 26be
00000340: 40b5 adbd dfe9 f3bd 5a1a c4bd 4470 f4bd
00000350: 22e5 803d 48b1 1f3e afd5 2c3e 6a6e 0e3d
00000360: 3054 2bbe 88b2 6a3d 10c5 bd3d 2709 083e
00000370: 40a5 3a3e 5f7e 043e 000f 6a3e f303 2ebc
00000380: d77b d93c 68e3 0a3e 40d5 703e 94f2 043e
00000390: a41f 1bbd 3192 8e3d 3907 04be 8131 74bd
000003a0: fba1 c9bd ffe7 723e 02f2 d33d 634a 4b3e
000003b0: 6c24 06be b9e9 a73d 9999 563e d231 32be
000003c0: 7de7 d63d c53c bbbd b301 243e 0f73 e0bd
000003d0: ab77 ff3d 8b69 08be 2cb6 e63d bb59 43be
000003e0: dfde babd 7142 eabc 1491 e8bd 2122 cbbd
000003f0: 1f6e 4abd 73be 303e f3ed 313e b561 09be
0.18413353 0.16328757 0.25645968 -0.034706082 -0.04551514 0.10732086 -0.010773901 -0.12685755
0.014984423 -0.2022115 0.15784056 -0.14651641 -0.09915414 0.106479764 -0.12717144 0.14447494
-0.20867932 0.19208726 -0.021884315 0.11803685 -0.18828994 -0.1625117 -0.21800916 0.000717493
0.008144048 0.08368409 -0.092147805 -0.12435893 0.087848574 -0.027078198 0.12204117 0.188977
0.18793058 -0.06505955 0.070847645 -0.17083357 -0.19618128 0.20786326 0.10827278 0.18781762
0.08440127 0.20545247 0.19101454 0.11865092 -0.06107216 0.23160332 -0.1733646 0.06782052
-0.12374999 -0.06993321 -0.041958064 0.13028735 0.11640416 -0.1798678 -0.20187898 0.03180003
-0.19412781 0.19543853 -0.011430096 -0.03610039 -0.15957966 0.14182396 -0.087018184 -0.08847
-0.15037614 -0.16148219 0.12995978 -0.14592575 -0.21300042 -0.26968265 -0.17183484 0.19793522
0.13138941 0.08405426 0.020719528 0.068180494 0.13258168 -0.19538902 -0.13810141 0.041894928
0.12860082 -0.028504958 0.20476206 -0.16579099 0.18324094 -0.0023941856 0.1923776 -0.17105147
-0.1505094 0.028223222 0.030338384 -0.18301976 0.08380133 -0.06767174 -0.02816703 0.06093411
-0.10973868 0.22135985 -0.12233097 -0.12894759 0.14097857 0.20306501 0.14077084 0.1191807
0.05690178 -0.0076685008 -0.083622985 0.009005019 -0.16907704 -0.10793939 0.18957588 -0.11442976
0.18326232 -0.05969022 0.059824716 -0.16618314 -0.0578981 0.14256588 -0.14845772 -0.014161963
0.13471381 -0.043003097 -0.21713638 -0.15353596 0.15713136 0.06903752 0.07366921 0.09138614
-0.18361644 -0.09722884 0.1831676 0.09260602 -0.08374096 -0.15363538 0.018577265 0.19637804
-0.016812664 0.13246775 -0.10707076 -0.13423994 0.090766504 0.012487423 0.21409012 0.13238752
0.16396827 0.23620236 -0.14219233 0.045736864 0.21484172 0.19968617 0.1573397 0.032768924
-0.10405881 -0.12245393 0.14039399 0.06910053 0.20659085 0.17840524 0.05478145 -0.20020986
0.15795654 -0.09272167 0.105931945 0.17586339 0.014587723 0.16403861 0.14175583 0.20804587
0.18830124 0.12271147 0.09496537 0.1434198 0.22770423 0.076993205 0.12862219 0.09137168
0.082998276 -0.19363038 -0.1320993 0.047532298 0.21982715 0.06285072 0.06176309 -0.13815683
0.2208467 0.11619222 0.002876754 0.07413039 -0.12510996 -0.027473094 -0.014488203 -0.079436466
0.12933265 -0.11236781 -0.02051289 -0.063312545 -0.09475661 -0.1909503 -0.098663904 -0.20032696
-0.045444995 -0.16759601 -0.10608009 0.18559495 -0.062309325 -0.18167606 0.105815984 -0.16246077
-0.08481836 -0.11909842 -0.09575339 -0.119354755 0.062937036 0.15594971 0.16878389 0.034773268
-0.16731334 0.057299167 0.09266102 0.13284741 0.182271 0.12938832 0.22857285 -0.010621059
0.02654831 0.13563311 0.23518848 0.12983161 -0.03787197 0.069614775 -0.1289338 -0.059617523
-0.098453484 0.23721312 0.10348894 0.19852595 -0.13099831 0.08198876 0.2095703 -0.17401817
0.10493372 -0.0914245 0.16016273 -0.10959446 0.12473997 -0.13321511 0.11265215 -0.19077198
-0.091245405 -0.028596135 -0.113557965 -0.09918619 -0.049421426 0.1726015 0.17375927 -0.13416179

model.0.bias f4 [128]
00000000: 2b5e 02be 07fd 86bd 28dc f33d 9e07 1ebd
00000010: 23df 21be 6add a33d c58b 7b3d 5bdf 933e
00000020: 5a95 c93d 2181 c73b 411b 103e a9d6 293e
00000030: 78ce 3ebe f946 b33c 9c3f 11be b272 45bd
00000040: f80f 3dbe ad8d 9e3d c479 de3d c481 453d
00000050: 1352 183d adb6 44be 4765 a1bd 96a4 07be
00000060: dff4 a1bc 4c6e dfbc a3a7 45be 3ffb 253e
00000070: 79bc 3e3e fd2c c8bd 9c9b dcbd f7b3 043e
00000080: d658 3b3e 6842 373e 0a4e 2a3e 10ac 1abd
00000090: be69 173e 8ae7 1d3e 071c e2bc 602c 593e
000000a0: e29d 713e 8572 a03d 16bc 47be 5da3 14bd
000000b0: 0236 9cbd 0a1a 86bd d71b 6abd 8dce eabd
000000c0: 3f57 743e 5b0d 07be 0d98 253e a21b 9bbd
000000d0: 1135 0a3e 4b8e 013e 629e c6bc 7aa8 d639
000000e0: 2045 1bbe e3cd c2bd ccb3 18be fc19 d6bd
000000f0: 1745 ebbd 6ec5 3ebd 0e88 a4bc 363d 6dbc
00000100: d39c 13be 23e8 c9bd 0184 e93d abd2 563e
00000110: f2fa b8bd f9e2 38bd 8e11 1b3e b7d7 8dbd
00000120: 22f3 1c3e 9330 d33c e902 383e e450 b23d
00000130: 8844 233e 7fdf a7bc 7d23 b63d 1c0f e9bd
00000140: 1759 273e c458 803d ba9c a23d 4863 473e
00000150: 8a00 51be 3bf4 72be ed86 84bc 3e38 753e
00000160: 4677 32bd 4345 c2bc acc3 84bd 2fc4 2ebe
00000170: 67bf 95bd 3c89 ed3d c59f 07bb 6ecd 233e
00000180: ad45 5c3e d9f3 cfbd e560 a6bd 1456 943d
00000190: 2c43 d43d 651a 0b3e d7fd c1bd 7187 453e
000001a0: 1c31 3e3e d0cb 64bc dd0b f1bd adb4 14be
000001b0: 734f 06bd 5708 de3d 2715 04bc 51da 453e
000001c0: bb21 19be 4801 673d 503c 0dba c082 5b3d
000001d0: 710e 403e dc79 dcbd 32ab 8c3c b416 463e
000001e0: da23 9cbd fb42 303e a8c8 be3d e43f be3d
000001f0: 15f4 f03d 7807 16bc 3388 90bd b0b8 c53d
-0.12731235 -0.0659123 0.11907226 -0.038581483 -0.15807776 0.08001216 0.06141259 0.28881344
0.0984294 0.0060883914 0.14072897 0.16585793 -0.18633449 0.021884428 -0.14184421 -0.048205085
-0.18463123 0.07741866 0.10863069 0.048219457 0.037187647 -0.1921031 -0.07880645 -0.13246378
-0.019770084 -0.027274273 -0.1930223 0.16209124 0.18626584 -0.09774206 -0.10771868 0.12959276
0.18295607 0.17896426 0.16631332 -0.037761748 0.14786431 0.15420356 -0.027601255 0.21208334
0.23595384 0.07834343 -0.19505343 -0.036288608 -0.07627489 -0.06547935 -0.057155456 -0.11465178
0.23861407 -0.13188688 0.16171284 -0.0757363 0.13496806 0.12651937 -0.024245445 0.00040942786
-0.15163088 -0.09511926 -0.14912337 -0.10454175 -0.11487787 -0.046575002 -0.020084407 -0.014479926
-0.14415292 -0.0985873 0.11402131 0.20978801 -0.09032239 -0.045138333 0.15143415 -0.0692591
0.15327123 0.025779998 0.1796986 0.08706835 0.15944111 -0.020492313 0.088934876 -0.11379835
0.16342579 0.06266931 0.079400495 0.19471467 -0.20410362 -0.23725979 -0.016177619 0.23947236
-0.04357078 -0.023714667 -0.06482634 -0.17067026 -0.07311898 0.11598441 -0.0020694595 0.15996334
0.21510954 -0.10153932 -0.0812395 0.072429806 0.103643745 0.13584287 -0.09472244 0.19289948
0.18573421 -0.013964608 -0.11769841 -0.14522047 -0.032790612 0.108414344 -0.008061684 0.19321562
-0.14954273 0.056397706 -0.00053877104 0.05359149 0.18755509 -0.1076543 0.017171476 0.19344598
-0.07624026 0.17213051 0.09315616 0.0928953 0.11765305 -0.009157054 -0.07057228 0.09654367

model.2.weight f4 [128, 128]
00000000: f421 aebc 9d4b 49bc 13ff d5bd c74b 89bd
00000010: 4824 413c 8cc2 113d a657 483c c70f 683c
00000020: 6ed3 9abd 69e0 a5bd e64e b53d d873 ccbd
00000030: 6671 30ba c725 623d e030 cebd f55a 483d
00000040: 2d0b db3c aeb3 7d3d 7e32 12bd 0c2b ddbc
00000050: 017e 96bd fa99 203d bb2d b83d ca30 b6bd
00000060: eade 903d c71b 81bd 4525 3ebd dee9 d93c
00000070: cfbb 163d 3e5f ce3c 762d 563d 911e 913d
00000080: 6b24 973d f12b 573c 5cff ae3c df7e 2d3c
00000090: ff0d f13c 94e1 b1bc 9da3 e23b c81f fc3b
000000a0: 1004 213d 2687 65bd af5d 38bc dd2a aabc
000000b0: b8bd 14bd 59d2 94bd 72fa 9d3d ccc7 86bd
000000c0: 0ffc 7e3d 3d83 39bd efcf 703b 3916 dc3d
000000d0: db7b 863b 4db5 773b 680a f6bc 48b1 95bc
000000e0: a3ec c23c aa21 173d 7b28 1b3d f57e 173d
000000f0: 7f42 4cbd da87 40bd 3137 6dbb 8e5b 3cbd
00000100: 3082 99bd e06c 41bd 578e 723d b07c 39bc
00000110: 08fa 5a3d 57d8 613d 0fd1 62bd b2ad 763d
00000120: ffd0 00bd fb41 cfbd 0489 0fbc 3c00 633d
00000130: af4f 1cbd d507 50bd 39b3 b53d ac15 8fbd
00000140: 8578 d7bd f3f8 2bbd aaa4 2bbd 0beb 2e3d
00000150: 183f d9bd 705d dd3c 4995 2abd cd4c 5f3d
00000160: ab7e babb f293 22bd 23a0 cbbd 9717 9dbc
00000170: f1cc bcbc 63bd c6bd b79c 8dbc a292 35bd
00000180: 1d33 bbbd 7f4f 413c f4c8 60bd af81 b7bd
00000190: 9388 213d 8516 2dbd 9767 9dbd 2ce7 c63c
000001a0: af1f adbd 1a45 14bc ec16 59bd 0dfd 043d
000001b0: 0034 c5bd 16d7 ba3c c580 853d 8b6b b9bc
000001c0: cfaa b5bd cead f93c 8365 5e3d e41d 90bd
000001d0: 6bfe 9fba a2a4 6abd bfe6 b13c def9 4a3d
000001e0: 94dd bd3d 7b2f 5cbd e97f fabb 32e1 fabc
000001f0: 95a3 143c 6753 8fbc 6cfc 803d c395 9e3d
00000200: 64de 04bd 4b12 5c3d 7d3c 17bd 15a9 683d
00000210: 3ea3 b63c 8d5f 6cbd 9dd9 cd3d 387b 843d
00000220: 9d94 7f3d ac67 103d c9fe ab3d d4b1 533a
00000230: 1347 bf3c 98b0 b8bc 7d62 a93d 08e2 923d
00000240: 6a1a b0bc 1c91 a33c 953e b93b 60b8 97bc
00000250: 46a2 1fbd 8eb0 c83c 195b cdbb 3e53 953d
00000260: ed60 9b3d ffba 693d 210e a6ba 25fa 2abd
00000270: 518a b3bc 0326 bf3d 5ac4 10bc 050f 5abd
00000280: 98e6 973d 866e 3b3d 4d8a 7bbd f82c a13c
00000290: a9ac 4bbd d357 713d 79e5 bb3b 18f2 353c
000002a0: 25f3 8ebd 5a52 41bd 5b8e 27bd dc6d 20bd
000002b0: 43ea bd3d 4150 003c 9214 fa3b a14c 81bc
000002c0: c26d 0cbd 85e5 983d 2e8b 883c 6c1f 01bc
000002d0: 0f59 4abd 9148 873d 9234 21bd f8a7 a4bd
000002e0: 551b 04bd 49eb b2bb 1ba4 923d 58d2 c9ba
000002f0: d4a7 63bb 868b 81bd 7cdd 4fbd e080 6ebd
00000300: 37e7 0fbc 0bd1 a7bb 4602 083d b66f 9a3c
00000310: 253c 9cbc 9ecc 27bd f1e5 6f3c 1c42 8c3d
00000320: c29c d13d 6b57 553d b10a 54bd 60be 63bd
00000330: 7f0c d1ba b9e3 d83d d496 97bd a00f 5f3d
00000340: 79d0 4a3d d7f8 6a3d 34a6 1f3d c6b8 f13c
00000350: 7f8b 5dbc 7bc6 c938 8b78 77bb 421d b43d
00000360: ed27 8b3d 957e 163d 1ce9 5cbd 7b9b 01bc
00000370: 4d97 34bd 3724 a1bd d12d a53d 06e2 4e3c
00000380: 6db8 bd3d 70b6 68bd fac5 713d 60bc b3bd
00000390: 1de0 6abd 075e c63d bc81 b73c b1e5 2a3d
000003a0: 8c35 8a3c 62cd bb3c 1e67 d83b 26cd 77bd
000003b0: bbdf 923d 4eb6 a7bc ba98 2ebc 7c2d 813d
000003c0: 9dff 5dbd b690 c43d ca78 83bc d8f9 1cbd
000003d0: 744c a83c 0b93 b7bd 2ccf 10bd f9df 0cbd
000003e0: 0524 a53c 8273 373d 32f7 72bc 9e1f 8f3c
000003f0: af7c b43d a4b2 893d c7c6 4cbd 7778 ad3d
-0.021256424 -0.012286094 -0.10449042 -0.067039065 0.011788435 0.035585925 0.012227928 0.014163918
-0.07559858 -0.080994435 0.08852939 -0.09983033 -0.0006730765 0.05521181 -0.10067916 0.04891487
0.026738727 0.061938934 -0.035692684 -0.026998065 -0.07348252 0.039209343 0.089930974 -0.088960245
0.070737675 -0.06304126 -0.04642226 0.026600774 0.036800202 0.0251919 0.05228945 0.07085908
0.07379993 0.013133035 0.021362 0.01058933 0.02942562 -0.02171401 0.006916477 0.0076942183
0.039310515 -0.05603709 -0.011252805 -0.020772392 -0.036313742 -0.07266683 0.07713784 -0.06581077
0.0622521 -0.045291174 0.0036745032 0.10746426 0.00410412 0.0037797273 -0.030034259 -0.01827301
0.023794478 0.03689734 0.037880402 0.03698631 -0.049868103 -0.04700456 -0.0036196227 -0.04598575
-0.074955344 -0.047222972 0.059217777 -0.011321232 0.053461105 0.05513796 -0.055375155 0.060224243
-0.031449314 -0.10120007 -0.008760694 0.055420145 -0.03816193 -0.05078872 0.08872075 -0.069865555
-0.10521034 -0.041985463 -0.041905083 0.042704623 -0.10607737 0.027022094 -0.041646276 0.054516602
-0.0056913695 -0.039691873 -0.09942653 -0.019176288 -0.023046942 -0.097040914 -0.017286642 -0.044329293
-0.091406085 0.0117987385 -0.054879144 -0.08960282 0.039436888 -0.042257804 -0.07685774 0.024280153
-0.08453309 -0.009049678 -0.053000376 0.03246789 -0.09629059 0.02280764 0.065187015 -0.022634288
-0.0887047 0.030478384 0.054296028 -0.07036951 -0.001220656 -0.057285912 0.021716474 0.0495547
0.09270778 -0.05375622 -0.0076446426 -0.03062496 0.009072204 -0.017495824 0.06298146 0.077434085
-0.03243865 0.053728383 -0.03692292 0.056801874 0.022294637 -0.05770831 0.10051272 0.064688146
0.062397588 0.03525512 0.08398206 0.00080755097 0.02334932 -0.022545144 0.08270738 0.07172018
-0.02149697 0.019966654 0.0056532123 -0.018520534 -0.038973115 0.02449825 -0.006266963 0.07291268
0.075868465 0.0570631 -0.0012669006 -0.041742463 -0.02191654 0.09333422 -0.008835876 -0.05323698
0.07417029 0.0457597 -0.06141119 0.019674763 -0.04972521 0.058921646 0.0057341424 0.011105083
-0.0697997 -0.047197677 -0.040907245 -0.03916727 0.092731975 0.007831634 0.0076318467 -0.01578361
-0.03428436 0.074656524 0.016667929 -0.007881027 -0.04940134 0.06605638 -0.039356776 -0.0803985
-0.03225263 -0.005460177 0.07160207 -0.001539777 -0.0034737485 -0.0632544 -0.050748333 -0.058228374
-0.008783153 -0.0051213554 0.033205293 0.018852096 -0.019071648 -0.040966623 0.014642225 0.06848547
0.10234977 0.05208532 -0.05176801 -0.055601478 -0.0015949159 0.1059031 -0.07401815 0.05445826
0.04951522 0.05736622 0.038976863 0.029507052 -0.013522028 9.621397e-05 -0.0037761058 0.08794643
0.067947246 0.03674181 -0.053933248 -0.007910605 -0.044089604 -0.078682356 0.080653794 0.01262713
0.09263692 -0.05681461 0.059026696 -0.08776164 -0.057342637 0.09685903 0.02240073 0.041722957
0.016871236 0.022925083 0.0066040894 -0.06049838 0.071715795 -0.020472672 -0.01065653 0.063075036
-0.05419885 0.09597914 -0.016048808 -0.038324207 0.020544268 -0.08963593 -0.035353824 -0.034393284
0.020158777 0.04478789 -0.014829444 0.017471131 0.08812844 0.06723526 -0.049994256 0.084702425

model.2.bias f4 [128]
00000000: d703 c63d 907d d53d 515a d0bd f9ee 55bd
00000010: 1887 d93d 53a8 1c3d 9e43 953d a4a2 b63d
00000020: dddb b03c cf1b 283d 295a 573d aa42 da3c
00000030: 558a ca3c 169a d13d 2059 cb3d 6b7e d9bc
00000040: b012 a53d 8209 753b 59fa f8bc dc8a a73d
00000050: 79d4 a63c c59f ac3d e878 a43c 3397 3ebd
00000060: cba5 b13a 9ffb ae3c c397 39bd 7335 2c3e
00000070: 2e87 a3bb 93ed e03d 1312 b8bc 94c2 bc3d
00000080: c24e 323c 9218 6ebd f86c cfbd 7885 bd3c
00000090: 711c 403c 9765 5cbd 5ec0 763d 07b5 07b9
000000a0: f96a 383a bea9 98bc d838 1c3d 83ab 303d
000000b0: 140c bc3c 1f4e 043d 2150 89bc da9d 353d
000000c0: bf9b f2bc 73fb 72bc 947d 363d b9da ac3d
000000d0: 8fe1 99bd d30e b73d 2090 10bd c2c6 60bd
000000e0: 4f20 3b3d bf59 e0bc f4db 92bd 61f3 5f3b
000000f0: e1b1 df3d 2984 6fbd d786 543d e43f 1f3d
00000100: d379 da3c 01e7 813d 7438 713d 4009 113d
00000110: 8fba 95bd 9278 4f3d 5424 4c3d 062e 07bd
00000120: 31cb 01bd 8b5d 3d3d 65f6 323d a424 143d
00000130: 1701 303d b90b cc3d c752 8dbd dab6 57bd
00000140: 2bec 6e3d 524a be3d 75ff 6c3d fcc4 54bd
00000150: 193d d63d c510 d93d d4af 6c3d ee4a 43bc
00000160: 4e18 293d 0441 793d 02ef 6c3d 1d21 29bd
00000170: e9ab a5bd 2bec 14bc 08e4 593d 0c34 41bd
00000180: 1553 8e3d ae75 043d f006 2cbd 6a2e b53d
00000190: 5ffc 1d3c 7c27 3bbd ce99 34bd c86f 7dbc
000001a0: f09d 173d c7bb c83d 47b2 8c3d f76e 09bd
000001b0: 086d 443d a9f6 183d 7fc2 23bb 02bd 85bc
000001c0: f92b 973c 0001 4b3d 0401 d8bc 4253 c1bb
000001d0: 5f69 d2bd 8bea 853c e4ff 50bd 194d dfbc
000001e0: 6f48 2cbd 6e43 c13d 932e 34bd c904 d73d
000001f0: a1eb 25bd d154 3ebd 414d 6e3d 5373 bbbc
0.09668701 0.1042434 -0.101734765 -0.052229855 0.1062147 0.038246464 0.072882876 0.0891774
0.021589214 0.041042145 0.052576218 0.026643116 0.024724165 0.10234468 0.099291086 -0.026549539
0.08060205 0.00373897 -0.030392813 0.08180782 0.020364987 0.08428911 0.020077184 -0.046530914
0.0013553438 0.021360217 -0.045310747 0.16817264 -0.00499048 0.10982814 -0.022469556 0.092168
0.010883035 -0.0581289 -0.10128206 0.023134932 0.011725531 -0.05380782 0.06024205 -0.00012942041
0.0007034983 -0.018635627 0.038140148 0.043132316 0.022954978 0.032301065 -0.016761841 0.044339992
-0.029615281 -0.014830458 0.044553354 0.084401555 -0.07513725 0.08938374 -0.0352937 -0.05487705
0.04568511 -0.027386544 -0.07170859 0.0034172165 0.109225996 -0.058475647 0.051886406 0.03887929
0.026669418 0.063428886 0.05889173 0.035409212 -0.07310974 0.050652094 0.049839333 -0.033002876
-0.03168792 0.046231788 0.04369201 0.036167756 0.04296979 0.099631734 -0.06900554 -0.052664615
0.058330696 0.09291519 0.05786081 -0.05194567 0.10460872 0.10598902 0.05778487 -0.01191972
0.041282944 0.06085302 0.057845123 -0.041291345 -0.0808943 -0.00908951 0.053195983 -0.047168776
0.069494404 0.03233879 -0.041998804 0.088467434 0.0096426895 -0.045691952 -0.044091992 -0.015468545
0.037015855 0.09801441 0.06869941 -0.03355309 0.047955543 0.03734461 -0.0024987755 -0.016325478
0.018453585 0.0495615 -0.026367672 -0.0058998177 -0.10274004 0.01634719 -0.051025286 -0.027258443
-0.042061266 0.09436689 -0.04398973 0.104989596 -0.040507916 -0.046467606 0.058179144 -0.02288214

model.4.weight f4 [1, 128]
00000000: 80be 77bd 512c b8bd 84a6 81bc 87bd bf3d
00000010: b086 1dbd cfce 00bd d5fe 56bd f831 41bd
00000020: 3cec 103d f607 37bd 3277 113d 88f6 093c
00000030: 717a 1fbd cb2c a6bd c846 c4bc 6b0b 5cbd
00000040: 09da c23d 49ee b13d 2969 d63a 02b5 a33d
00000050: 0615 a3bd af78 9bbd e658 923d 5f47 7e3d
00000060: ecbc a2bd 6970 78bd 30c6 1cbd f2aa d63d
00000070: 92de 183d f3ab aebd d094 103d 9231 c2bd
00000080: 4e4f a73c d31c 37bc 8a6c 1ebd 2269 e6bc
00000090: 4139 963d 9fb7 6ebd f5ac 813c 427d d03d
000000a0: 635e 5dbc 8c64 b8bc 3263 133d 7230 8abd
000000b0: f6b4 883d fa95 783c 4e44 843d 532e c53d
000000c0: 13bd f4bc b54e cf3c 7c58 f63c 6701 92bc
000000d0: 130e 583c 5bf9 6b3d bf74 2f3d fbd2 8abd
000000e0: 30fc 81bd 3de3 4fbd bd94 e6bc 3eda 8e3d
000000f0: 9f98 b8bd f29c 413d 1d3e e83b b278 6bbd
00000100: 5794 9cbd af25 3e3d 2a15 f6bc d36b b23d
00000110: 48bb f7bc f29d 3a3d ae22 dabc ba51 393d
00000120: 2861 803d d062 443d 2b54 2cbd d364 373d
00000130: 8135 33bc 8a37 77bd 5e59 4ebd f6d0 61bd
00000140: d1e4 d1bd 3e69 bcbd 8ff3 d2bd 8a34 b1bd
00000150: 8658 87bd db0c 06bd 2eb0 a53d d31e 68bd
00000160: 1047 9b3a e735 503d 83a4 aebd 250e b43d
00000170: 7579 8e3d 17bb 773d 16f6 86bd 9836 d93d
00000180: 7582 87bd 6e2f 11bd 6932 cfba 3e34 4fbd
00000190: 10e9 36bd 468f d33d f3b8 233d df50 433d
000001a0: 03ca e0bd 2ce6 e1bd 5b98 453d 4fce cb3c
000001b0: 4871 5fbd 9b4b d33d de77 29bd 5003 85bc
000001c0: 2b83 a6bd 7d4f b5bc 30b3 3fbd 11b0 a63d
000001d0: d1e2 6739 b47c 33bd c91e 09bd cf16 883d
000001e0: 0302 433d bdd0 953c 66a1 83bd 7063 b53d
000001f0: 5687 3c3d 1e62 ab3d 42a0 ca3d 4512 673d
-0.06048441 -0.08992828 -0.015826471 0.09362321 -0.038458526 -0.031447228 -0.05248912 -0.047166795
0.03538154 -0.044685327 0.035514064 0.008420594 -0.03893513 -0.08114012 -0.023959532 -0.053721827
0.09514243 0.086880274 0.0016358244 0.07993509 -0.07962994 -0.07591378 0.07145862 0.062079784
-0.0794619 -0.060654078 -0.038274944 0.10481824 0.037321635 -0.085288905 0.03529817 -0.09482111
0.020423558 -0.011176306 -0.03867773 -0.028126303 0.07335139 -0.058280583 0.015829543 0.10180141
-0.013511273 -0.022508882 0.035983272 -0.067475215 0.066751406 0.015172476 0.064583406 0.09627976
-0.029875314 0.025306085 0.03007149 -0.017822934 0.013186949 0.05761085 0.042835947 -0.067785226
-0.06346929 -0.05075382 -0.028147096 0.0697522 -0.09013485 0.047268815 0.0070874826 -0.05748815
-0.07645481 0.046422657 -0.030039389 0.08711972 -0.03024067 0.045560785 -0.026627865 0.045243956
0.06268531 0.047945797 -0.042072456 0.044773888 -0.010938049 -0.0603557 -0.050378196 -0.05513092
-0.102487214 -0.09199761 -0.10300361 -0.08652599 -0.066086814 -0.032727104 0.08090244 -0.05667002
0.001184674 0.050832655 -0.08527472 0.0879176 0.0695676 0.060481157 -0.06589906 0.10606116
-0.066166796 -0.035445623 -0.001580787 -0.05058693 -0.04465586 0.103300616 0.039971303 0.047684547
-0.10976031 -0.1103023 0.048241 0.024878649 -0.054551393 0.10317155 -0.04137408 -0.016236931
-0.08130487 -0.02213263 -0.046801746 0.08139051 0.00022114372 -0.043820098 -0.033476625 0.066449754
0.04760934 0.01828801 -0.06427269 0.08856857 0.046027504 0.08368324 0.09893848 0.056413908
