models/ecoli_core_v5_metabolic_nn.pth (torch, 132565 bytes, 14 tensors)

model.0.weight f4 [128, 20]
-0.24036925 -0.14742006 -0.18693568 -0.18304017 -0.04611658 0.12834987 0.09980488 -0.020175343
-0.14498636 0.029680101 -0.028317643 -0.024984833 0.07435642 -0.15675847 -0.012281436 0.0963837
0.15253967 -0.18642555 -0.044249184 -0.032282583 -0.13533267 0.017344074 0.2200506 0.18181781
-0.13533999 0.07544754 -0.07497097 -0.18223591 0.22057927 -0.12185989 0.022486707 -0.17991482
-0.13186124 -0.08626861 -0.19458213 0.0038450225 -0.17122328 -0.07552044 -0.1741675 -0.21260285
-0.036982574 0.031534836 -0.15519676 0.1116505 0.07584642 -0.19063294 0.19147491 0.05943236
-0.07853294 0.17787561 -0.1329778 -0.0048267515 -0.095058516 0.22474493 -0.032842655 0.13474745
-0.21894228 0.15571965 -0.0013309345 -0.17977156 -0.028268933 0.017535547 -0.20807081 -0.19246091
0.003840282 -0.08163053 -0.13660343 -0.20633906 -0.16314925 -0.12978613 0.17119479 -0.1531791
0.11087282 0.07115804 -0.0925282 0.14096738 0.16199704 0.06229794 -0.14280522 -0.17832026
0.12034649 0.13840392 0.009415819 0.24007782 0.19815096 0.17182621 -0.004596413 0.13449122
0.20216928 0.01621456 0.123496614 -0.08064896 0.055221375 -0.040469594 0.20007826 -0.13140874
0.0065387986 -0.08751913 -0.078525715 0.15896901 -0.21004999 0.15451522 -0.042634208 0.026277412
0.14465037 -0.04193924 -0.18736057 -0.040210966 0.06272733 0.1986282 0.08203895 0.0092384685
-0.06942114 -0.23959449 0.106982924 -0.1451599 0.13393062 -0.057920437 -0.070691146 -0.18707557
0.17086393 0.038084336 -0.021131983 -0.08200009 0.08200339 -0.03732199 0.20340757 0.15367863
-0.09342245 0.14275858 0.16988264 -0.13659629 0.09940582 -0.17398658 0.07633097 0.09699404
-0.0737817 0.16963777 0.16447082 0.08777658 -0.07023516 0.18667497 0.07462661 -0.037920132
0.13923073 0.01896085 -0.21782689 0.08742833 -0.16641882 0.029518148 0.0860305 -0.07261654
-0.1722966 -0.13480859 -0.0016506466 -0.19629888 -0.14506197 0.10130298 -0.14977752 0.18763533
-0.034356788 0.062025342 0.17335491 -0.1484863 -0.115446754 -0.030788736 -0.23684539 -0.025917493
-0.01802985 -0.17995675 0.19960888 -0.056478914 0.23210326 0.12062722 0.19754031 -0.014867442
-0.08618951 0.039546344 -0.040173136 -0.1100835 -0.259268 0.0773927 0.20613237 0.012388912
0.029784987 0.1379848 -0.117614836 0.1322448 0.21879259 -0.19124135 0.01676913 0.01605764
-0.102611974 0.09924177 0.16873804 -0.18944614 0.13637045 -0.20614572 -0.19444677 0.11083637
-0.17007916 -0.014196092 -0.11240593 0.12481215 -0.062905714 0.15150803 -0.2366852 0.13144402
-0.16960907 0.20896892 0.075987145 -0.16696133 0.09015737 -0.13221379 0.16928567 -0.1575154
-0.19782767 -0.021951249 0.035607148 0.056883413 0.06771562 -0.12869164 -0.023111703 0.035947114
0.13125066 -0.0059116664 0.12565833 -0.12730412 -0.13730428 0.047818743 -0.22142214 -0.19069733
0.16072647 0.17293924 0.13118444 0.0839793 0.15975596 0.19513245 -0.15340503 0.08047203
-0.22469422 -0.05669412 0.062710255 0.07677685 -0.05396481 -0.13253061 -0.17629543 0.05553144
0.12455663 0.19961147 0.014433595 -0.051147934 -0.14002298 -0.07765465 0.13136657 -0.16468534
00000000: 5b23 76be 49f5 16be 116c 3fbe e26e 3bbe
00000010: bde4 3cbd 266e 033e 8066 cc3d c346 a5bc
00000020: 4e77 14be af23 f33c 67fa e7bc feac ccbc
00000030: 2e48 983d 4b85 20be 1338 49bc d164 c53d
00000040: 5c33 1c3e 57e6 3ebe a23e 35bd be3a 04bd
00000050: a694 0abe 2915 8e3c f254 613e 732e 3a3e
00000060: 9196 0abe 3d84 9a3d 618a 99bd 0d9c 3abe
00000070: 88df 613e ae91 f9bd 0b36 b83c 973b 38be
00000080: a206 07be 99ad b0bd 8a40 47be c6fc 7b3b
00000090: 2855 2fbe 76aa 9abd f758 32be 90b4 59be
000000a0: 0a7b 17bd ac2a 013d e6eb 1ebe 04a9 e43d
000000b0: 5e55 9b3d 4835 43be 0012 443e 596f 733d
000000c0: e1d5 a0bd 0625 363e 552b 08be ba29 9ebb
000000d0: 0aae c2bd 8923 663e 0586 06bd 3cfb 093e
000000e0: 6832 60be f974 1f3e c072 aeba 0916 38be
000000f0: 4094 e7bc b5a6 8f3c 8410 55be 7914 45be
00000100: 3ead 7b3b e82d a7bd c5e1 0bbe 8c4a 53be
00000110: 9910 27be a8e6 04be b04d 2f3e fbda 1cbe
00000120: 4a11 e33d 4ebb 913d 6d7f bdbd c159 103e
00000130: 8de2 253e 202c 7f3d 883b 12be 9699 36be
00000140: 3878 f63d c2b9 0d3e cf44 1a3c f6d6 753e
00000150: 16e8 4a3e 36f3 2f3e 829d 96bb 11b8 093e
00000160: 7705 4f3e 66d4 843c cbeb fc3d 482b a5bd
00000170: cf2f 623d 72c3 25bd 51e1 4c3e 0390 06be
00000180: 6b43 d63b 3b3d b3bd 17d2 a0bd c6c8 223e
00000190: 5817 57be 3d39 1e3e 35a1 2ebd ba43 d73c
000001a0: 3a1f 143e 7bc8 2bbd 73db 3fbe 41b4 24bd
000001b0: 3077 803d 3165 4b3e 0904 a83d f25c 173c
000001c0: ac2c 8ebd 4258 75be dd19 db3d cca4 14be
000001d0: 1c25 093e fb3d 6dbd 85c6 90bd bd90 3fbe
000001e0: f4f6 2e3e 52fe 1b3d fb1c adbc aaef a7bd
000001f0: 65f1 a73d f1de 18bd 134a 503e ee5d 1d3e
00000200: 4554 bfbd 4e2f 123e b7f5 2d3e e6df 0bbe
00000210: 4795 cb3d 8a29 32be 6953 9c3d d0a4 c63d
00000220: dc1a 97bd 86b5 2d3e 0a6b 283e 35c4 b33d
00000230: 74d7 8fbd b927 3f3e d6d5 983d 2452 1bbd
00000240: 8092 0e3e c953 9b3c 030e 5fbe a00d b33d
00000250: b269 2abe 0bd0 f13c c230 b03d fbb7 94bd
00000260: 856e 30be 430b 0abe 825a d8ba 9302 49be
00000270: 208b 14be f077 cf3d 475f 19be 7a23 403e
00000280: b4b9 0cbd 490e 7e3d f383 313e cb0c 18be
00000290: 596f ecbd a938 fcbc 9987 72be ec50 d4bc
000002a0: 56b3 93bc 9546 38be 4566 4c3e 6f56 67bd
000002b0: 7aac 6d3e 670b f73d 0248 4a3e 9296 73bc
000002c0: 2084 b0bd 59fb 213d 968c 24bd 7573 e1bd
000002d0: c6be 84be 1080 9e3d 5d14 533e ddfa 4a3c
000002e0: a5ff f33c e34b 0d3e 0ce0 f0bd 2e6b 073e
000002f0: 2a0b 603e c6d4 43be 6a5f 893c 508b 833c
00000300: 3a26 d2bd 453f cb3d aac9 2c3e 2bfe 41be
00000310: b2a4 0b3e dd17 53be 0e1d 47be 2efe e23d
00000320: 3b29 2ebe ba96 68bc 1535 e6bd 839d ff3d
00000330: b6d4 80bd ec24 1b3e 9b5d 72be 4399 063e
00000340: 00ae 2dbe f3fb 553e 269f 9b3d e9f7 2abe
00000350: 6da4 b83d 0d63 07be 3959 2d3e b84b 21be
00000360: 5693 4abe 1bd3 b3bc cdd8 113d 95fe 683d
00000370: 7dae 8a3d bec7 03be c154 bdbc 483d 133d
00000380: 9366 063e a7b6 c1bb 94ac 003e 035c 02be
00000390: 7e99 0cbe 96dd 433d 7cbc 62be 2946 43be
000003a0: 7b95 243e fc16 313e 3755 063e 57fd ab3d
000003b0: 1197 233e cdd0 473e 3516 1dbe 85ce a43d
000003c0: 3e16 66be 1838 68bd 3c6e 803d 2e3d 9d3d
000003d0: 340a 5dbd 1bb6 07be ca86 34be ef74 633d
000003e0: 8c17 ff3d f366 4c3e e37a 6c3c 7f80 51bd
000003f0: 2f62 0fbe 6709 9fbd f584 063e 46a3 28be

model.0.bias f4 [128]
-0.13137664 -0.06158345 -0.106192976 -0.032526202 0.1587399 -0.14999886 -0.104110956 -0.09270787
-0.18166965 0.16827461 0.022369921 0.037319534 -0.17775019 0.18984532 -0.12551744 -0.015453632
-0.06756915 -0.1256317 0.16175646 -0.11365173 0.033610653 0.20769733 -0.00096091104 0.024262566
0.13845105 -0.015883071 0.05431157 -0.19149841 0.10336464 0.20520565 -0.05257852 -0.0010414667
-0.14865248 0.115182534 -0.034409173 -0.17212239 0.09774988 0.08068708 0.21933918 0.100879855
-0.14052355 0.01329492 -0.12881641 0.18980704 0.1250965 -0.053387307 -0.059572715 0.14428756
0.07207179 -0.04522262 0.21199383 -0.03537309 -0.19431145 0.16276377 0.15920901 -0.019769264
-0.118838534 0.065954916 -0.08877562 -0.010041228 0.053400077 0.09169817 -0.18368827 -0.076868676
0.14937083 -0.1681041 -0.08148431 -0.060367357 -0.013007254 0.074504234 0.07710645 -0.20043197
-0.19424407 0.013046591 0.17527927 0.11873742 -0.13046815 -0.13499312 -0.07002421 -0.07881599
-0.20856713 -0.12625238 -0.044911277 0.1552945 0.0460936 0.1216928 -0.21445431 0.11845244
0.06435308 -0.01246912 -0.1974032 -0.07943478 0.111829996 0.16463149 0.05804616 -0.050338518
-0.00914577 0.16536266 -0.1453642 0.19049455 -0.073021635 -0.011748159 0.044848148 0.16099319
0.05751231 0.1038829 -0.16317712 0.0058469884 -0.08269067 0.1932504 -0.08682622 0.14689973
-0.20496173 -0.09503591 0.20653896 0.07066589 0.103280015 0.026877392 0.15575857 0.1911522
0.027708514 -0.045046974 0.1679038 -0.06525681 0.21803366 0.19770195 -0.1314925 -0.06986985
00000000: 9987 06be ed3e 7cbd b47b d9bd 323a 05bd
00000010: b68c 223e 4d99 19be 2038 d5bd a0dd bdbd
00000020: 9c07 3abe 2e50 2c3e 2041 b73c 5edc 183d
00000030: 2504 36be d066 423e a587 00be 3b31 7dbc
00000040: b261 8abd 99a5 00be 7ca3 253e 3dc2 e8bd
00000050: 53ab 093d 9cae 543e a6e5 7bba 4ac2 c63c
00000060: 1dc6 0d3e 371d 82bc cf75 5e3d 2918 44be
00000070: d7b0 d33d 6e21 523e 935c 57bd d381 88ba
00000080: 5b38 18be d2e4 eb3d a2f0 0cbd da40 30be
00000090: 1731 c83d 453f a53d 739a 603e 199a ce3d
000000a0: 68e5 0fbe f0d2 593c 73e8 03be c75c 423e
000000b0: 4c19 003e a6ac 5abd 8502 74bd 1ec0 133e
000000c0: 609a 933d 5b3b 39bd e914 593e 60e3 10bd
000000d0: 95f9 46be 8cab 263e b007 233e 27f3 a1bc
000000e0: 9e61 f3bd 5f13 873d fecf b5bd f683 24bc
000000f0: 0aba 5a3d 40cc bb3d c718 3cbe 536d 9dbd
00000100: abf4 183e 7b23 2cbe 3fe1 a6bd c343 77bd
00000110: 611c 55bc ad95 983d fde9 9d3d 0a3e 4dbe
00000120: ebe7 46be 5ec1 553c 697c 333e 9b2c f33d
00000130: 7199 05be a33b 0abe da68 8fbd 476a a1bd
00000140: 9f92 55be 4e48 01be e3f4 37bd 8505 1f3e
00000150: a5cc 3c3d 133a f93d e999 5bbe 3197 f23d
00000160: 8ccb 833d 484b 4cbc 1124 4abe b4ae a2bd
00000170: 2007 e53d 2895 283e cfc1 6d3d c32f 4ebd
00000180: 24d8 15bc d454 293e 5ada 14be 0111 433e
00000190: 5e8c 95bd 5a7b 40bc b1b2 373d 66db 243e
000001a0: 0792 6b3d 8fc0 d43d e717 27be 1898 bf3b
000001b0: ba59 a9bd 6fe3 453e f2d1 b1bd e26c 163e
000001c0: 7de1 51be 30a2 c2bd f37e 533e 47b9 903d
000001d0: 7984 d33d fa2d dc3c 2d7f 1f3e 67bd 433e
000001e0: f7fc e23c 2d83 38bd f9ee 2b3e 5da5 85bd
000001f0: 3744 5f3e 6172 4a3e f8a5 06be ed17 8fbd

model.1.weight f4 [128]
1.0260918 0.9954966 0.97536355 0.97712004 1.0194186 0.9982821 1.0181394 0.9953158
0.9781098 0.9604261 0.9754744 0.9789424 0.976977 1.0422126 1.0179604 0.9701195
0.972811 1.0173262 0.9708175 1.0427233 0.9786902 0.99527043 0.97493184 1.0298613
1.0129371 0.9824885 1.0163896 0.9816178 1.0265778 0.9703869 0.96783334 0.9748866
1.0047023 0.9791914 1.0207905 0.97226197 0.9865537 0.9845491 1.0261688 0.9763658
0.99920917 1.0089896 1.0295042 0.97065747 1.0088314 1.0084999 1.0099772 1.0253282
0.96429133 1.0131544 1.040599 1.0151926 1.0086206 0.9605417 0.9723478 0.98141015
0.9633614 0.9939296 0.9771931 1.0107173 1.0120825 0.9817079 0.9870616 0.97499585
1.0196186 0.9760695 1.0217621 1.0419049 0.99238706 0.9955257 0.97922176 1.0305908
0.97949636 1.0001023 0.9797942 1.0298717 1.0137287 0.9843219 0.961826 0.9989061
0.9661745 1.0162841 1.0187579 1.0249156 0.9770607 0.9692495 1.0250666 1.0187216
0.98061943 1.0079283 0.9753141 1.0068455 1.0264043 0.97924477 0.9873626 1.0181689
1.0197477 1.018039 0.9709507 1.0079533 0.9871853 1.0232335 0.9956269 0.9810141
1.001209 0.97047585 1.0412779 1.0183042 0.9793357 0.985197 0.97577727 0.97542477
0.99917823 1.0437571 1.0367596 0.96786696 1.0162916 1.0241545 1.0140107 0.9719384
0.9826973 0.99877906 0.9724104 0.99880284 1.0160667 1.0315943 0.9773587 1.0191896
00000000: fa56 833f ddd8 7e3f 6db1 793f 8a24 7a3f
00000010: 4f7c 823f 6a8f 7f3f 6452 823f 04cd 7e3f
00000020: 6765 7a3f 7cde 753f b1b8 793f f89b 7a3f
00000030: 2a1b 7a3f 3967 853f 874c 823f c059 783f
00000040: 240a 793f bf37 823f 7f87 783f f577 853f
00000050: 718b 7a3f 0bca 7e3f 2295 793f 7fd2 833f
00000060: eca7 813f 5e84 7b3f 0e19 823f 4e4b 7b3f
00000070: e766 833f 476b 783f edc3 773f 2b92 793f
00000080: 169a 803f 4aac 7a3f 43a9 823f 29e6 783f
00000090: c98e 7c3f 690b 7c3f 8059 833f 1cf3 793f
000000a0: 2ccc 7f3f 9226 813f cbc6 833f 027d 783f
000000b0: 6321 813f 8616 813f ef46 813f f43d 833f
000000c0: ccdb 763f 0baf 813f 5932 853f d5f1 813f
000000d0: 7b1a 813f 10e6 753f c9eb 783f b23d 7b3f
000000e0: da9e 763f 2c72 7e3f 5429 7a3f 2f5f 813f
000000f0: eb8b 813f 3551 7b3f 12b0 7c3f 5499 793f
00000100: dd82 823f b1df 793f 1ac9 823f 245d 853f
00000110: 140d 7e3f c6da 7e3f 47ae 7a3f 66ea 833f
00000120: 46c0 7a3f 5a03 803f cbd3 7a3f d6d2 833f
00000130: ddc1 813f 85fc 7b3f 3b3a 763f 4fb8 7f3f
00000140: 3657 773f 9915 823f a966 823f 6f30 833f
00000150: a620 7a3f bc20 783f 6235 833f 7865 823f
00000160: e009 7b3f cb03 813f 2fae 793f 50e0 803f
00000170: 3761 833f c9af 7a3f ccc3 7c3f 5c53 823f
00000180: 1887 823f 1a4f 823f 3a90 783f 9d04 813f
00000190: 2db8 7c3f 51f9 823f 68e1 7e3f bd23 7b3f
000001a0: 9e27 803f 1b71 783f 9848 853f cb57 823f
000001b0: bfb5 7a3f df35 7c3f 8acc 793f 70b5 793f
000001c0: 25ca 7f3f d599 853f 8ab4 843f 21c6 773f
000001d0: d815 823f 7f17 833f 1acb 813f f4d0 783f
000001e0: 0d92 7b3f fcaf 7f3f e3ef 783f 8bb1 7f3f
000001f0: 790e 823f 480b 843f 2e34 7a3f ce74 823f

model.1.bias f4 [128]
0.03135772 0.05293978 -0.0029733754 0.0048427214 0.031053597 0.021549497 0.035258155 0.043065146
0.021297589 0.048761413 0.006886395 0.041370153 -0.011313528 0.04350007 0.038936768 -0.012628458
0.035288572 0.036538858 0.052678782 0.044642106 -0.009497781 0.046681855 0.05396817 0.04200224
0.029814173 0.045597047 0.030707128 -0.0018649235 0.040089607 0.0069031687 -0.001627265 0.011041526
0.03833018 0.044510268 0.031798344 0.016780185 0.02785671 -0.009675499 0.03610682 -0.0037576973
0.032823667 0.047046565 0.0428036 0.017046288 0.037557837 0.039450772 0.02915645 0.03759573
0.038450614 0.027801096 0.04062317 0.034622416 0.05206392 -0.016733505 -0.0012747193 0.005864649
0.05260687 0.00090730574 0.00707503 0.03705461 0.0352715 0.030551452 0.045768276 0.028096551
0.038745284 -0.00041340786 0.034612447 0.04286197 0.026204389 0.0325252 0.039423503 0.04267374
0.012539939 0.036105964 -0.0021272285 0.053968452 0.03326174 0.0105920285 0.019356111 0.031615436
0.033993185 0.04313764 0.045137256 0.047637764 0.0077272076 -0.005819681 0.04831234 0.02882412
-0.0010952819 0.037006788 -0.012100373 0.029864233 0.040076144 0.011766428 0.025129134 0.029204661
0.045571376 0.031398218 -0.004549356 0.030200966 0.03214986 0.04411171 0.023772508 0.044467494
0.048117198 0.05777053 0.041409783 0.038889308 0.0021520862 0.019780865 0.0004597562 0.025084322
0.03113846 0.042320937 0.05297464 0.0052099656 0.04198089 0.035795216 0.03597103 -0.016594788
0.020908942 0.029323565 0.030532513 0.045265753 0.045338668 0.038253807 0.032902982 0.039104257
00000000: f470 003d 62d7 583d f6dc 42bb b1af 9e3b
00000010: 1d64 fe3c 9288 b03c db6a 103d 1465 303d
00000020: 4878 ae3c 0cba 473d 45a7 e13b c073 293d
00000030: 605c 39bc 212d 323d 297c 1f3d 98e7 4ebc
00000040: c08a 103d c5a9 153d b5c5 573d a4da 363d
00000050: 959c 1bbc 7935 3f3d ba0d 5d3d 8a0a 2c3d
00000060: da3c f43c f8c3 3a3d 848d fb3c 7370 f4ba
00000070: 0035 243d fa33 e23b f449 d5ba 84e7 343c
00000080: 1b00 1d3d 6650 363d fb3e 023d 9976 893c
00000090: c133 e43c fc85 1ebc bfe4 133d b343 76bb
000000a0: 1c72 063d e6b3 403d d452 2f3d a8a4 8b3c
000000b0: 3fd6 193d 2297 213d 82d9 ee3c fbfd 193d
000000c0: 647e 1d3d 20bf e33c 7b64 263d 3cd0 0d3d
000000d0: fa40 553d b414 89bc 7b14 a7ba 3e2c c03b
000000e0: 4d7a 573d 42d8 6d3a a7d5 e73b 93c6 173d
000000f0: d978 103d 0a47 fa3c 8477 3b3d bd2a e63c
00000100: 60b3 1e3d aabe d8b9 c8c5 0d3d 0890 2f3d
00000110: 96aa d63c 2539 053d 8a7a 213d a9ca 2e3d
00000120: 5174 4d3c d9e3 133d f968 0bbb 060e 5d3d
00000130: 763d 083d 308a 2d3c b590 9e3c 307f 013d
00000140: 703c 0b3d 18b1 303d d8e1 383d d11f 433d
00000150: 8434 fd3b 06b3 bebb 29e3 453d 9020 ec3c
00000160: 908f 8fba 6e94 173d a540 46bc d6a5 f43c
00000170: e226 243d fac7 403c 9ddb cd3c 9d3e ef3c
00000180: 0da9 3a3d 6b9b 003d c412 95bb 0468 f73c
00000190: 92af 033d 7bae 343d 90be c23c 8c23 363d
000001a0: 8a16 453d cba0 6c3d 4e9d 293d 654a 1f3d
000001b0: 040a 0d3b 7b0b a23c 6f0b f139 a37d cd3c
000001c0: 1516 ff3c b858 2d3d f0fb 583d 5cb8 aa3b
000001d0: 27f4 2b3d 019e 123d 5c56 133d cbf1 87bc
000001e0: 3b49 ab3c f937 f03c 521f fa3c 9568 393d
000001f0: 0ab5 393d 06b0 1c3d 47c5 063d c92b 203d

model.1.running_mean f4 [128]
-0.13145775 -0.061572924 -0.10623455 -0.032552585 0.15865445 -0.14994094 -0.104018025 -0.09273824
-0.18162492 0.16832994 0.022406211 0.037338823 -0.17776512 0.18978882 -0.1254361 -0.015444581
-0.06754291 -0.12562585 0.16176577 -0.11370705 0.033629145 0.20769005 -0.00089482695 0.024179025
0.13837624 -0.015860254 0.054347448 -0.19150211 0.10324362 0.205137 -0.05252815 -0.0010377892
-0.14862613 0.11507249 -0.03446061 -0.17209138 0.09773408 0.08069081 0.21919018 0.10085894
-0.14055572 0.013268278 -0.12877528 0.18975253 0.12503837 -0.053503472 -0.05957775 0.14433387
0.07207093 -0.045205515 0.21189724 -0.035400372 -0.19439831 0.16278096 0.1591844 -0.019720288
-0.11888978 0.0659406 -0.08884272 -0.009954155 0.053393465 0.09166848 -0.18359748 -0.07691099
0.14932618 -0.16807774 -0.08168307 -0.06043125 -0.01296576 0.074509725 0.07708354 -0.20046198
-0.19429673 0.013029327 0.17529039 0.118603006 -0.13047096 -0.13504052 -0.07004839 -0.07874286
-0.20856576 -0.12624769 -0.04487378 0.15530048 0.046060137 0.121700235 -0.2143521 0.11846016
0.06433675 -0.012543371 -0.19742918 -0.07949677 0.11180213 0.16466275 0.058132008 -0.050392553
-0.009054234 0.16540232 -0.14535764 0.19044676 -0.07299958 -0.011886246 0.044804733 0.16102357
0.057527877 0.10385877 -0.16312096 0.0058380147 -0.082639724 0.19327196 -0.086803444 0.14691906
-0.2049701 -0.09500499 0.20645133 0.07071665 0.103309914 0.026905857 0.1557505 0.19115853
0.027736701 -0.045051012 0.16799207 -0.065170325 0.21797141 0.1978187 -0.13153431 -0.07003279
00000000: dc9c 06be e433 7cbd 8091 d9bd dc55 05bd
00000010: 5076 223e 1e8a 19be 6707 d5bd 8ced bdbd
00000020: e2fb 39be af5e 2c3e 3b8d b73c 98f0 183d
00000030: 0f08 36be 0058 423e 5272 00be 450b 7dbc
00000040: f053 8abd 10a4 00be eda5 253e 3edf e8bd
00000050: b7be 093d b3ac 543e d292 6aba 1713 c63c
00000060: 80b2 0d3e 5ded 81bc 6e9b 5e3d 2119 44be
00000070: 6471 d33d 6f0f 523e c227 57bd 6d06 88ba
00000080: 7331 18be 20ab eb3d 9226 0dbd b938 30be
00000090: ce28 c83d 3941 a53d 6473 603e 228f ce3d
000000a0: d7ed 0fbe 3163 593c abdd 03be 7d4e 423e
000000b0: 0f0a 003e 7526 5bbd cc07 74bd 42cc 133e
000000c0: ec99 933d 6b29 39bd 97fb 583e fbff 10bd
000000d0: 5a10 47be 0db0 263e 3c01 233e 718c a1bc
000000e0: 7c7c f3bd de0b 873d 2cf3 b5bd c116 23bc
000000f0: 1bb3 5a3d afbc bb3d fa00 3cbe 8283 9dbd
00000100: f6e8 183e 921c 2cbe 7449 a7bd c286 77bd
00000110: 576e 54bc 8e98 983d fadd 9d3d e845 4dbe
00000120: b9f5 46be f578 553c 537f 333e 22e6 f23d
00000130: 2e9a 05be 1048 0abe 8875 8fbd f043 a1bd
00000140: 4392 55be 1347 01be 92cd 37bd 1707 1f3e
00000150: 8ea9 3c3d f93d f93d 1e7f 5bbe 3e9b f23d
00000160: fcc2 833d b682 4dbc e02a 4abe 34cf a2bd
00000170: 84f8 e43d 5a9d 283e d41b 6e3d 6c68 4ebd
00000180: 3658 14bc 3a5f 293e a2d8 14be 7a04 433e
00000190: ce80 95bd 87be 42bc 2b85 373d 5de3 243e
000001a0: 5aa2 6b3d e8b3 d43d 2e09 27be d14c bf3b
000001b0: 043f a9bd 16e9 453e 01c6 b1bd f371 163e
000001c0: afe3 51be fa91 c2bd fa67 533e e4d3 903d
000001d0: 2694 d33d ac69 dc3c 0f7d 1f3e 10bf 433e
000001e0: 1438 e33c 6987 38bd 1d06 2c3e 0578 85bd
000001f0: e633 5f3e fc90 4a3e eeb0 06be 5a6d 8fbd

model.1.running_var f4 [128]
0.23217677 0.284018 0.2351617 0.26150537 0.24582493 0.2416572 0.22799458 0.20974681
0.27221236 0.27460977 0.2938605 0.23762515 0.20066418 0.18996514 0.19616607 0.25034583
0.27556238 0.23711547 0.15751009 0.25695992 0.21734872 0.21230653 0.1400937 0.2749822
0.32080397 0.17086177 0.2210968 0.25479013 0.21404696 0.30992648 0.24608985 0.21432582
0.18611713 0.15827538 0.25292763 0.26904336 0.28904423 0.22328606 0.18232474 0.14976981
0.21503954 0.329156 0.16570252 0.22478348 0.28687575 0.26455423 0.1853484 0.18057048
0.27810735 0.21277967 0.26770452 0.26256183 0.22546817 0.30606368 0.2884367 0.27195987
0.17419712 0.14365453 0.21528983 0.19267586 0.28976482 0.15284666 0.16769576 0.28064853
0.20223044 0.17776974 0.15607767 0.24007781 0.2918982 0.21996368 0.42833984 0.2284188
0.23216645 0.2906067 0.25313732 0.21505058 0.14202923 0.32901102 0.26969624 0.18929401
0.40867075 0.25594386 0.32670814 0.22573596 0.29716992 0.23146799 0.3124501 0.19782275
0.13104536 0.23903629 0.21807869 0.3061714 0.2226338 0.32408378 0.16259211 0.1764801
0.3886306 0.31473923 0.28701007 0.14610986 0.3048965 0.21337122 0.26314762 0.23893417
0.16101134 0.28203285 0.24991918 0.21700037 0.21565051 0.21662074 0.1729313 0.17890923
0.2616747 0.2544301 0.17660992 0.27214408 0.21679688 0.1742019 0.2268395 0.24063471
0.28046286 0.21906662 0.32293585 0.3012811 0.28303984 0.22395779 0.25829354 0.20302948
00000000: bfbf 6d3e cf6a 913e 3bce 703e 08e4 853e
00000010: 88b9 7b3e fc74 773e 6977 693e dec7 563e
00000020: 6b5f 8b3e a799 8c3e e274 963e 0254 733e
00000030: e97a 4d3e 3986 423e c2df 483e 542d 803e
00000040: 8316 8d3e 66ce 723e 534a 213e 4090 833e
00000050: aa90 5e3e e266 593e b974 0f3e 78ca 8c3e
00000060: 6b40 a43e 63f6 2e3e 3367 623e da73 823e
00000070: 202f 5b3e afae 9e3e fafe 7b3e 3a78 5b3e
00000080: 7d95 3e3e f112 223e bb7f 813e 0dc0 893e
00000090: 9bfd 933e 1aa5 643e 56b3 3a3e 425d 193e
000000a0: 5333 5c3e 2387 a83e ecad 293e a42d 663e
000000b0: 61e1 923e a773 873e f9cb 3d3e 78e7 383e
000000c0: 1664 8e3e eae2 593e 9110 893e 816e 863e
000000d0: 21e1 663e 61b4 9c3e faad 933e 533e 8b3e
000000e0: bb60 323e 2c1a 133e f074 5c3e d24c 453e
000000f0: 0e5c 943e d683 1c3e 70b8 2b3e 2ab1 8f3e
00000100: 7f15 4f3e 4509 363e d3d2 1f3e f5d6 753e
00000110: ae73 953e 293e 613e 5c4f db3e 9ee6 693e
00000120: 0bbd 6d3e 67ca 943e 379b 813e 3836 5c3e
00000130: 1c70 113e 2274 a83e a015 8a3e 4ad6 413e
00000140: 4b3d d13e 130b 833e 4a46 a73e 5427 673e
00000150: a826 983e f205 6d3e 76f9 9f3e 0c92 4a3e
00000160: c130 063e eec5 743e 0550 5f3e 7fc2 9c3e
00000170: 1dfa 633e 4fee a53e 8c7e 263e 33b7 343e
00000180: 97fa c63e 8025 a13e fcf2 923e d39d 153e
00000190: 651b 9c3e fc7d 5a3e 49bb 863e 29ab 743e
000001a0: 28e0 243e 9c66 903e d0ea 7f3e 5835 5e3e
000001b0: 7dd3 5c3e d4d1 5d3e e714 313e fb33 373e
000001c0: 3afa 853e a944 823e 3bd9 343e 7856 8b3e
000001d0: 0000 5e3e fc61 323e 9d48 683e f268 763e
000001e0: d498 8f3e 0053 603e d957 a53e 8441 9a3e
000001f0: 99ea 903e 3155 653e 0d3f 843e f6e6 4f3e

model.3.weight f4 [128, 128]
-0.04399132 -0.07808988 -0.034292333 0.026344184 -0.06835139 0.004409615 -0.056261815 0.0051081646
-0.031728946 -0.078570895 0.115699396 0.026560737 -0.031664066 0.04653901 0.03427298 0.04548627
-0.00051299436 -0.0356664 -0.022065282 0.06715449 -0.050698258 -0.059742115 -0.031602714 0.0057450356
0.019417299 0.076644145 0.017291343 -0.12505825 0.05275016 0.045921482 -0.01080627 -0.03005237
0.049435545 0.061660543 -0.092415385 0.03481304 0.013629797 -0.054358575 0.031446673 0.031593177
-0.016550148 -0.036044836 -0.07873771 0.050893616 -0.026050903 0.030109527 -0.119192876 -0.10184
-0.072040185 0.092829704 0.07520096 -0.062513486 0.04705347 0.0008695589 -0.04731053 -0.049630295
0.00022384424 0.056046188 -0.09351398 0.08686645 -0.0524141 0.048147153 0.0011904727 0.031382106
-0.08393671 -0.01836383 0.008543972 0.004318312 -0.02781253 0.08741582 -0.042708974 0.0064481436
0.055293262 0.025068909 -0.061991245 -0.04506395 -0.025132466 -0.060707666 -0.054093316 0.058161438
-0.03443018 0.053822167 -0.03178946 0.04683606 0.0052593867 -0.06746852 0.010223628 -0.022289705
0.049692303 -0.092522904 0.022078732 -0.053748846 0.040950704 0.044492107 0.03088312 0.043787006
-0.012744671 -0.050977137 0.02443553 -0.07724493 0.044724338 0.042420242 -0.01649759 0.013062951
0.017657975 0.054002386 0.036040723 0.033317845 -0.050539926 -0.023747964 0.046961013 -0.03478244
0.016003577 -0.012881832 -0.046817176 0.010886005 0.09265255 -0.03467091 0.044712294 0.06376963
0.0006063827 0.03913827 -0.0071510645 -0.067695156 0.00029263922 0.11119975 0.01931111 -0.08451228
0.073754504 0.077920824 -0.07394097 0.034061037 -0.060484804 0.041485276 0.022116894 0.013809473
-0.043502234 0.026077123 -0.046444662 -0.06147264 -0.046866123 -0.011359801 -0.02991421 -0.034013305
0.023666356 0.00069012487 0.069904305 -0.05885412 -0.00080556807 0.027648047 0.030607603 -0.021149648
-0.08571073 0.020190164 -0.020569425 -0.030631451 0.053121757 -0.047307804 -0.049716353 -0.010701302
-0.06347104 0.026546845 -0.01740831 -0.07877221 -0.02684788 0.06460422 0.011039032 0.061910633
-0.0386623 0.03073701 -0.049333137 -0.0806839 -0.035397995 0.024083901 -0.0604639 -0.027108269
-0.06712677 0.10761814 0.10432487 -0.052967496 -0.0058176294 -0.04250123 -0.04056567 0.019230021
-0.007527842 0.011270184 0.010133891 0.01086479 -0.07871332 0.013634715 -0.10513225 0.053822547
-0.06350787 -0.077913165 -0.014878062 -0.0017513297 0.08473685 -0.0036310125 -0.06873982 -0.006300797
0.083138354 0.10417064 0.030941136 -0.039976146 -0.04607174 -0.03501315 0.03799745 -0.022578651
-0.03300555 -0.055111133 -0.06489308 0.08815078 0.04448354 -0.08057667 -0.023663407 -0.06438238
-0.050676342 -0.060242113 -0.0375577 -0.019223507 0.0031550277 0.07680827 0.05562084 0.015432454
0.04531597 -0.023598524 -0.041864954 0.025028659 -0.095148 -0.081211634 0.05580671 -0.042024933
0.012153907 0.0030081337 -0.04197281 -0.10750318 0.034210745 0.02497306 0.023055049 0.008498669
0.016455263 0.07975468 0.06222848 0.05099155 0.018049654 -0.09527568 0.018165985 0.07138567
0.07572747 -0.03183144 -0.013776539 -0.11403526 0.06093468 0.025217857 -0.047564123 0.071454264
00000000: 3e30 34bd 96ed 9fbd 1e76 0cbd c2cf d73c
00000010: d0fb 8bbd 887e 903b ca72 66bd 6462 a73b
00000020: 36f6 01bd c7e9 a0bd cef3 ec3d e795 d93c
00000030: 2eb2 01bd b09f 3e3d d361 0c3d d04f 3a3d
00000040: 787a 06ba ee16 12bd 40c2 b4bc 4b88 893d
00000050: faa8 4fbd 26b4 74bd d971 01bd da40 bc3b
00000060: 0711 9f3c 9bf7 9c3d 93a6 8d3c 450f 00be
00000070: 8d10 583d 2a18 3c3d c80c 31bc 6330 f6bc
00000080: ed7c 4a3d c48f 7c3d 4744 bdbd 1e98 0e3d
00000090: 834f 5f3c 19a7 5ebd 3ace 003d d967 013d
000000a0: 2d94 87bc c0a3 13bd 3d41 a1bd d375 503d
000000b0: b468 d5bc 41a8 f63c 651b f4bd 7d91 d0bd
000000c0: ce89 93bd 801d be3d f602 9a3d 1207 80bd
000000d0: 24bb 403d 1cf3 633a b0c8 41bd 2349 4bbd
000000e0: bbb7 6a39 b090 653d 4284 bfbd 0ae7 b13d
000000f0: 2bb0 56bd f335 453d a309 9c3a 868a 003d
00000100: 03e7 abbd be6f 96bc 04fc 0b3c a080 8d3b
00000110: 1ad7 e3bc 1107 b33d 9bef 2ebd f34a d33b
00000120: 307b 623d 505d cd3c 88ea 7dbd fa94 38bd
00000130: 9ae2 cdbc 9aa8 78bd f490 5dbd b03a 6e3d
00000140: a906 0dbd a274 5c3d aa35 02bd 2bd7 3f3d
00000150: ef56 ac3b ef2c 8abd 0181 273c e698 b6bc
00000160: 288a 4b3d a67c bdbd 75de b43c c027 5cbd
00000170: edbb 273d 5b3d 363d 99fe fc3c 015a 333d
00000180: 06cf 50bc 67cd 50bd 052d c83c 9732 9ebd
00000190: de30 373d d9c0 2d3d f425 87bc fd05 563c
000001a0: 75a7 903c 9b31 5d3d 709f 133d 4b78 083d
000001b0: f402 4fbd 178b c2bc 315a 403d 0878 0ebd
000001c0: ef19 833c 520e 53bc 5ec3 3fbd 375b 323c
000001d0: 9fc0 bd3d 1603 0ebd 3d24 373d a799 823d
000001e0: a7f5 1e3a 734f 203d 7a53 eabb c2a3 8abd
000001f0: 5f6d 9939 b2bc e33d 5532 9e3c c614 adbd
00000200: 9a0c 973d f494 9f3d 5d6e 97bd 9683 0b3d
00000210: eabe 77bd 77ec 293d 7d2e b53c 2141 623c
00000220: 662f 32bd b19f d53c c23c 3ebd bcca 7bbd
00000230: b1f6 3fbd 751e 3abc a50e f5bc 8951 0bbd
00000240: f2df c13c 7fe9 343a fd29 8f3d 0511 71bd
00000250: c22c 53ba 287e e23c ccbc fa3c 0742 adbc
00000260: 1b89 afbd d865 a53c 3681 a8bc cfee fabc
00000270: 3396 593d d4c5 41bd 60a3 4bbd 8454 2fbc
00000280: 1bfd 81bd c578 d93c df9b 8ebc 5353 a1bd
00000290: 16f0 dbbc 384f 843d 0edd 343c 0196 7d3d
000002a0: 5c5c 1ebd 2fcc fb3c 8b11 4abd 9a3d a5bd
000002b0: 7dfd 10bd 9a4b c53c ffa8 77bd 2912 debc
000002c0: c379 89bd e666 dc3d 47a8 d53d 72f4 58bd
000002d0: d0a1 bebb c515 2ebd 3028 26bd 4788 9d3c
000002e0: 1eac f6bb 94a6 383c 9f08 263c 3b02 323c
000002f0: 7334 a1bd 2464 5f3c 944f d7bd 0875 5c3d
00000300: 6a10 82bd f090 9fbd 1dc3 73bc e08c e5ba
00000310: 838a ad3d 48f6 6dbb 76c7 8cbd eb76 cebb
00000320: 7144 aa3d 6b57 d53d 4478 fd3c 07be 23bd
00000330: b9b5 3cbd f369 0fbd 37a3 1b3d ddf6 b8bc
00000340: d430 07bd 36bc 61bd aae6 84bd 6588 b43d
00000350: 5f34 363d 6205 a5bd c3d9 c1bc e9da 83bd
00000360: ff91 4fbd 6fc0 76bd 1ad6 19bd 9e7a 9dbc
00000370: 95c4 4e3b a74d 9d3d aed2 633d 67d8 7c3c
00000380: 3d9d 393d b151 c1bc 967a 2bbd e708 cd3c
00000390: f4dc c2bd 4952 a6bd 9495 643d 5622 2cbd
000003a0: 2e21 473c 1c24 453b aeeb 2bbd a12a dcbd
000003b0: 9120 0c3d 4d94 cc3c f1dd bc3c 003e 0b3c
000003c0: 30cd 863c 6c56 a33d 4ae3 7e3d 84dc 503d
000003d0: dedc 933c e51f c3bd d5d0 943c a632 923d
000003e0: 0117 9b3d af61 02bd feb6 61bc 528b e9bd
000003f0: a596 793d ae95 ce3c 99d2 42bd 9d56 923d

model.3.bias f4 [128]
0.06295016 0.021158384 -0.018973898 -0.040780567 0.025476687 -0.055336677 -0.0049492647 -0.06445608
-0.024976235 0.083517894 0.074039765 -0.0679445 0.022614561 0.07781329 -0.033241555 -0.028746346
0.077663176 0.014622828 0.029354937 0.0045887497 0.071494326 0.07919825 -0.010890762 0.001521223
-0.038618695 -0.005531933 0.039254125 -0.07285764 0.0046526087 -0.043976843 0.02868652 0.01615761
0.068522684 -0.08858203 0.07653708 -0.045315217 0.026829083 -0.08520912 -0.036156844 0.0633819
0.03405261 -0.0037224393 -0.01676827 -0.075830355 -0.0076025054 -0.07897775 0.07510523 -0.06054274
0.066747166 0.06855976 -0.06476728 -0.07964342 0.0573365 0.0025550192 -0.0327195 0.020262009
-0.079288274 -0.035776164 0.054598574 -0.05656483 0.03507381 -0.008425302 -0.06389743 -0.020965748
0.034961354 0.0115073435 0.0707568 -0.07978628 -0.07288067 0.08531653 -0.06676418 -0.0487366
0.038810976 -0.0622695 0.04074897 -0.04232674 0.07265009 0.0812468 -0.053742647 -0.061498657
-0.06184305 -0.017423263 0.040718023 0.027449684 -0.05863045 -0.02689241 -0.07901275 0.046845794
-0.048591346 -0.07554045 0.016026968 -0.022447962 -0.08488961 0.066315025 -0.06834573 0.08020631
0.08143201 0.08366182 -0.04977653 0.084492385 -0.08702508 0.047754787 -0.014185114 0.020742677
-0.010998343 -0.02792582 -0.03682638 0.020993836 -0.0044893897 -0.05276245 -0.029321218 0.06976593
-0.062120173 -0.06467313 -0.06467894 -0.040459715 0.08102643 -0.055841424 -0.07851784 0.02826114
0.009861611 -0.06973114 0.07547472 0.028086783 0.0114212325 0.06735986 0.06606213 0.01597403
00000000: 03ec 803d 5954 ad3c 266f 9bbc 8609 27bd
00000010: 7cb4 d03c b6a8 62bd 712d a2bb 8d01 84bd
00000020: f69a ccbc 6e0b ab3d 29a2 973d 7c26 8bbd
00000030: 2c42 b93c 935c 9f3d 4c28 08bd 757d ebbc
00000040: df0d 9f3d 9694 6f3c c479 f03c 395d 963b
00000050: 9e6b 923d b132 a23d 2b6f 32bc c663 c73a
00000060: a32e 1ebd 3845 b5bb efc8 203d 6336 95bd
00000070: e974 983b 1021 34bd feff ea3c f75c 843c
00000080: 9f55 8c3d 7f6a b5bd 79bf 9c3d 739c 39bd
00000090: aac8 db3c 1e82 aebd 3319 14bd 5fce 813d
000000a0: c07a 0b3d 2bf4 73bb 9c5d 89bc f24c 9bbd
000000b0: 701e f9bb 16bf a1bd c5d0 993d aafb 77bd
000000c0: bdb2 883d 0f69 8c3d b5a4 84bd 171c a3bd
000000d0: aed9 6a3d 1c72 273b e204 06bd 83fc a53c
000000e0: e461 a2bd 078a 12bd c1a2 5f3d 86b0 67bd
000000f0: 8ea9 0f3d 470a 0abc a8dc 82bd 5cc0 abbc
00000100: a333 0f3d 4c89 3c3c f1e8 903d fd66 a3bd
00000110: 7642 95bd 6fba ae3d a9bb 88bd 07a0 47bd
00000120: 42f8 1e3d 4e0e 7fbd 64e8 263d ce5e 2dbd
00000130: 92c9 943d b964 a63d 4021 5cbd 04e6 7bbd
00000140: 234f 7dbd 3bbb 8ebc f1c7 263d 29de e03c
00000150: 7c26 70bd 794d dcbc 70d1 a1bd 60e1 3f3d
00000160: b807 47bd f4b4 9abd fd4a 833c cae4 b7bc
00000170: 9bda adbd 2cd0 873d d9f8 8bbd 3543 a43d
00000180: d3c5 a63d e356 ab3d 7ae2 4bbd 580a ad3d
00000190: 353a b2bd 869a 433d ae68 68bc 8cec a93c
000001a0: 6532 34bc b0c4 e4bc 42d7 16bd 44fb ab3c
000001b0: bb1b 93bb 701d 58bd 0d33 f0bc 71e1 8e3d
000001c0: b971 7ebd 5973 84bd 6476 84bd 16b9 25bd
000001d0: 2ff1 a53d fab9 64bd f6cd a0bd e883 e73c
000001e0: 9892 213c 33cf 8ebd 7d92 9a3d 4116 e63c
000001f0: 1f20 3b3c f7f3 893d 954b 873d f8db 823c

model.4.weight f4 [128]
1.0403452 1.0239733 1.0131888 1.0050493 1.0341736 1.0379266 1.0208851 1.0498251
1.049187 1.0302387 1.0286798 1.0316199 1.0194215 1.0040697 1.0381403 1.0183771
1.0242013 1.0281553 1.0307786 1.0456218 1.032836 1.0395973 1.043519 1.0279099
1.0318038 1.04068 1.0418857 1.0137295 1.0126778 1.0217938 1.0140188 1.0411085
1.0352913 1.0341511 1.0507389 1.0144535 1.0437135 1.0227063 1.0052354 1.0189549
1.0336044 1.04415 1.0428087 1.0136746 1.0257447 1.0158432 1.0378464 1.0190676
1.0286089 1.0388455 1.0441213 1.0387555 1.03263 1.028617 1.0235476 1.0424076
1.0246804 1.0428163 1.0267793 1.0251118 1.0405108 1.0294241 1.0209444 1.0397892
1.030373 1.0062736 1.0093449 1.0441087 1.0285846 1.0372536 1.0317726 1.0232251
1.045721 1.0121945 1.0272728 0.9994579 1.0357302 1.0242444 1.0366701 1.0297588
1.0164895 1.0155579 1.0274916 1.0063198 1.0046912 1.0360883 1.0361906 1.0376048
1.029875 1.016139 1.0340543 1.0399288 1.0417871 1.0342429 1.0211449 1.0290798
1.0181531 1.020344 1.0228922 1.0382254 1.0352128 1.0400077 1.029927 1.0482488
1.0336818 1.0236648 1.0323088 1.0256191 1.0151587 1.0386285 1.0375521 1.0147228
1.0409167 1.0205158 1.0314567 1.0368571 1.0347717 1.0302609 1.0125886 1.0267472
1.0183892 1.0330576 1.0401059 1.0408925 1.0358908 1.0134071 1.0018885 1.0406194
00000000: 082a 853f 8f11 833f 2cb0 813f 75a5 803f
00000010: cd5f 843f c7da 843f 5dac 823f ab60 863f
00000020: c24b 863f ddde 833f c8ab 833f 1f0c 843f
00000030: 677c 823f 5b85 803f c8e1 843f 2e5a 823f
00000040: 0719 833f 989a 833f 8ef0 833f efd6 853f
00000050: f833 843f 8611 853f 0892 853f 8d92 833f
00000060: 2612 843f 0135 853f 835c 853f e3c1 813f
00000070: 6d9f 813f 24ca 823f 5ecb 813f 0b43 853f
00000080: 6d84 843f 105f 843f 9d7e 863f 9dd9 813f
00000090: 6798 853f 0ae8 823f 8eab 803f 1d6d 823f
000000a0: 264d 843f b5a6 853f c17a 853f 17c0 813f
000000b0: 9a4b 833f 2607 823f 27d8 843f cf70 823f
000000c0: 75a9 833f e4f8 843f c4a5 853f f1f5 843f
000000d0: 382d 843f b9a9 833f 9c03 833f 9d6d 853f
000000e0: ba28 833f 017b 853f 816d 833f dd36 833f
000000f0: 752f 853f 2bc4 833f 4eae 823f d017 853f
00000100: 43e3 833f 93cd 803f 3732 813f 5ba5 853f
00000110: a9a8 833f bac4 843f 2011 843f 0af9 823f
00000120: 30da 853f 978f 813f ad7d 833f 79dc 7f3f
00000130: cf92 843f 711a 833f 9bb1 843f 23cf 833f
00000140: 541c 823f cdfd 813f d884 833f 16cf 803f
00000150: b999 803f 8b9e 843f e5a1 843f 3cd0 843f
00000160: f2d2 833f d810 823f e45b 843f 631c 853f
00000170: 4859 853f 1262 843f e0b4 823f e3b8 833f
00000180: d752 823f a29a 823f 22ee 823f 92e4 843f
00000190: da81 843f f91e 853f a6d4 833f 042d 863f
000001a0: af4f 843f 7307 833f b222 843f 7d47 833f
000001b0: b8f0 813f c7f1 843f 82ce 843f 70e2 813f
000001c0: c23c 853f 43a0 823f c606 843f bcb7 843f
000001d0: 6673 843f 97df 833f 819c 813f 746c 833f
000001e0: 945a 823f 3b3b 843f 3122 853f f73b 853f
000001f0: 1298 843f 53b7 813f e23d 803f 0433 853f

model.4.bias f4 [128]
0.04237925 0.02595471 0.021206064 0.020608768 0.035479914 0.039510414 0.021304617 0.053468097
0.050702978 0.033164326 0.029610394 0.031473007 0.019352911 0.011261107 0.035363995 0.022915846
0.028689118 0.03023107 0.038426712 0.046804056 0.033918854 0.044803664 0.047222916 0.03268823
0.02894384 0.03983083 0.044053152 0.020968108 0.017029198 0.03097044 0.01998943 0.041572813
0.043752175 0.03847163 0.050633762 0.021902291 0.046586953 0.03462597 0.010372788 0.029342854
0.036168184 0.050631415 0.045565065 0.026329732 0.038301602 0.016406558 0.045036137 0.029258138
0.02811357 0.041334756 0.051498983 0.04221867 0.03245565 0.035936136 0.03169163 0.044500936
0.027456146 0.048183788 0.03429148 0.02556071 0.041695192 0.032043997 0.018298175 0.043677803
0.03299974 0.014707904 0.012574411 0.045899875 0.033549994 0.041742947 0.034433432 0.024392042
0.049833477 0.017776432 0.026817692 0.005987038 0.037747726 0.025884503 0.039840046 0.035957754
0.021646628 0.022346053 0.029697705 0.014644716 0.00776517 0.042703614 0.035453398 0.052755844
0.037103347 0.02130204 0.035854608 0.04277933 0.04479937 0.03617345 0.033219285 0.030767675
0.021263 0.024713356 0.020158896 0.03710537 0.037252873 0.04139172 0.027561517 0.05092366
0.04157669 0.029297616 0.042283118 0.026560336 0.014739425 0.041610543 0.040163144 0.016372537
0.048669033 0.020603258 0.035982296 0.039330043 0.0381205 0.035593674 0.029886298 0.026391521
0.022249918 0.03142105 0.040402353 0.055266753 0.040584255 0.017020335 0.010010159 0.046189144
00000000: dd95 2d3d f99e d43c 57b8 ad3c b8d3 a83c
00000010: 6353 113d acd5 213d 0587 ae3c 5d01 5b3d
00000020: edad 4f3d 51d7 073d 7f91 f23c d7e9 003d
00000030: ff89 9e3c 8280 383c d6d9 103d 03ba bb3c
00000040: 7105 eb3c 26a7 f73c 5465 1d3d 9cb5 3f3d
00000050: 7fee 0a3d 0c84 373d d16c 413d 18e4 053d
00000060: a21b ed3c a725 233d 1471 343d 4fc5 ab3c
00000070: d180 8b3c b8b5 fd3c e0c0 a33c 4148 2a3d
00000080: 7b35 333d 6e94 1d3d 5965 4f3d 6f6c b33c
00000090: f6d1 3e3d f6d3 0d3d a0f2 293c 6d60 f03c
000000a0: 1725 143d e362 4f3d 6fa2 3a3d 73b1 d73c
000000b0: 24e2 1c3d 0c67 863c d077 383d c3ae ef3c
000000c0: 6e4e e63c a24e 293d 99f0 523d 7ced 2c3d
000000d0: 37f0 043d c531 133d 15cf 013d 9d46 363d
000000e0: b6eb e03c 5d5c 453d 3975 0c3d b264 d13c
000000f0: 94c8 2a3d 9140 033d 0ee6 953c 7fe7 323d
00000100: bc2a 073d 6cf9 703c e704 4e3c 8201 3c3d
00000110: b86b 093d a7fa 2a3d 120a 0d3d d2d1 c73c
00000120: 301e 4c3d e19f 913c c7b0 db3c ea2e c43b
00000130: 5c9d 1a3d bd0b d43c 512f 233d 7048 133d
00000140: 4554 b13c 120f b73c 9a48 f33c 64f0 6f3c
00000150: f872 fe3b fce9 2e3d 9537 113d 8316 583d
00000160: aef9 173d 9e81 ae3c 48dc 123d 6139 2f3d
00000170: 8b7f 373d 9d2a 143d f210 083d 7e0c fc3c
00000180: be2f ae3c aa73 ca3c 4524 a53c cdfb 173d
00000190: 7896 183d 5d8a 293d b1c8 e13c 5495 503d
000001a0: 524c 2a3d 8e01 f03c 1031 2d3d 1095 d93c
000001b0: a17d 713c d16f 2a3d 1c82 243d b31f 863c
000001c0: 2e59 473d 2ac8 a83c 2c62 133d 8a18 213d
000001d0: 3e24 1c3d acca 113d 1cd4 f43c 0833 d83c
000001e0: 7645 b63c 5cb3 003d f07c 253d 645f 623d
000001f0: ad3b 263d 3b6e 8b3c a601 243c d430 3d3d

model.4.running_mean f4 [128]
-0.08291817 -0.29415312 0.07904052 0.8392088 -0.36756986 -0.40086022 -0.10063928 0.05750974
0.35748738 0.27634352 -0.431043 0.4066188 -0.0518758 0.1774821 -0.090808645 0.15643223
-0.45076615 -0.17700766 0.29273543 -0.061155457 0.04875599 0.21047293 0.64756346 -0.57907176
-0.06339972 0.0928248 0.53208125 -0.21081133 -0.37104258 0.1617334 0.16042203 0.23538905
-0.09713511 -0.27616224 0.18482566 -0.03464599 0.017116843 -0.22744922 -0.038802247 0.2364914
0.1832023 -0.11974458 -0.10742992 0.19791502 -0.3151527 0.08489832 0.102996156 0.0835536
0.12258506 -0.073641844 0.030572584 0.11874816 0.25087973 -0.015874201 -0.18926433 -0.112942785
-0.258749 0.019896062 0.23103163 -0.16839115 -0.06714637 -0.26572296 0.23680423 0.030989297
0.011991141 -0.09892542 0.014270864 0.17385137 0.11818102 -0.46708706 -0.17674989 -0.15014806
0.4943916 0.0568187 0.07093353 -0.16743228 0.14297432 0.36916277 -0.12804511 -0.3815693
0.20021443 -0.09620779 -0.11320967 0.10489823 -0.38237938 -0.32392883 0.20600739 0.1307975
-0.43200716 -0.73665506 0.18088977 0.34929115 -0.044295598 0.25683248 -0.1920856 0.0061397585
-0.11626099 0.18328112 -0.6124748 0.044981364 0.039845563 -0.08974518 -0.24828894 0.10706237
-0.021193912 -0.39291862 0.26645464 0.24427791 -0.26743752 -0.19500402 -0.3076291 0.38476157
-0.14397858 0.029715527 0.03384737 -0.0739779 0.009923446 0.041353565 -0.46559775 0.2669408
-0.58412683 -0.03427298 -0.35150573 0.033596907 0.5641749 0.18317741 0.23886871 0.2958736
00000000: 00d1 a9bd 3d9b 96be ffdf a13d 63d6 563f
00000010: 1e32 bcbe 8d3d cdbe f81b cebd 558f 6b3d
00000020: 9608 b73e e67c 8d3e abb1 dcbe 5730 d03e
00000030: b87b 54bd debd 353e e2f9 b9bd c52f 203e
00000040: d2ca e6be 7f41 35be 6be1 953e 257e 7abd
00000050: 5cb4 473d 3786 573e b8c6 253f 0c3e 14bf
00000060: b6d7 81bd ee1a be3d 7a36 083f edde 57be
00000070: 4bf9 bdbe 719d 253e ac45 243e d409 713e
00000080: c6ee c6bd 2365 8dbe f042 3d3e f4e8 0dbd
00000090: 9f38 8c3c 73e8 68be 1bef 1ebd cd2a 723e
000000a0: 6299 3b3e a53c f5bd 3804 dcbd 3caa 4a3e
000000b0: b25b a1be 2cdf ad3d a6ef d23d 261e ab3d
000000c0: e00d fb3d 89d1 96bd 5b73 fa3c 3c32 f33d
000000d0: 4f73 803e 9d0a 82bc 82ce 41be 8c4e e7bd
000000e0: c07a 84be 11fd a23c 8e93 6c3e bb6e 2cbe
000000f0: 0984 89bd d70c 88be cf7c 723e 44dd fd3c
00000100: 7e76 443c 6999 cabd 58d0 693c 1806 323e
00000110: e408 f23d 0926 efbe ecfd 34be 6ac0 19be
00000120: e520 fd3e baba 683d 9945 913d 5e73 2bbe
00000130: dc67 123e e702 bd3e 421e 03be 0d5d c3be
00000140: 0305 4d3e 9708 c5bd 79da e7bd e2d4 d63d
00000150: 3bc7 c3be 00da a5be 9af3 523e c8ef 053e
00000160: 0b30 ddbe 6d95 3cbf 2b3b 393e 4ad6 b23e
00000170: 4d6f 35bd 8c7f 833e 16b2 44be 0730 c93b
00000180: 3e1a eebd 0cae 3b3e 26cb 1cbf 613e 383d
00000190: 1a35 233d 52cc b7bd 753f 7ebe 8443 db3d
000001a0: db9e adbc a12c c9be be6c 883e fd23 7a3e
000001b0: 92ed 88be 22af 47be 9081 9dbe 78ff c43e
000001c0: 1f6f 13be fa6d f33c 8aa3 0a3d ba81 97bd
000001d0: f395 223c 5b62 293d d462 eebe 77ac 883e
000001e0: 5689 15bf d361 0cbd 8ff8 b3be e99c 093d
000001f0: c46d 103f dc92 3b3e 009a 743e bf7c 973e

model.4.running_var f4 [128]
0.22492585 0.20549282 0.18079543 0.28321248 0.2013892 0.1732967 0.15952727 0.20601204
0.2695418 0.22254539 0.35595608 0.15121564 0.1515593 0.14894933 0.22014502 0.22832137
0.24090652 0.18760318 0.19582336 0.17643555 0.17555767 0.22490826 0.30092844 0.35375074
0.18749803 0.16273773 0.28193828 0.18868007 0.16286354 0.22924991 0.2528978 0.2300106
0.18700418 0.24786392 0.21966152 0.25198883 0.20468414 0.21072094 0.23737773 0.151817
0.247639 0.20097734 0.22361413 0.23340043 0.22448842 0.22497448 0.19696517 0.18940592
0.20479077 0.18782096 0.19125527 0.17517726 0.19237712 0.15460446 0.16223258 0.21998875
0.21613468 0.24352823 0.20957726 0.22462867 0.22365254 0.19850647 0.14533934 0.28472677
0.18835877 0.26775324 0.20645683 0.21458559 0.14979123 0.20365265 0.19703047 0.23449539
0.28241605 0.18198103 0.21799839 0.19266881 0.19603103 0.16632229 0.18435624 0.22640674
0.21658781 0.1604164 0.25238723 0.13484277 0.15608406 0.22647014 0.28146377 0.24144141
0.2615801 0.28639266 0.23920453 0.17749092 0.20880896 0.21569222 0.20339973 0.17721821
0.21189748 0.1654739 0.16057703 0.3225343 0.20978773 0.31037483 0.16285753 0.24154635
0.18598624 0.16890775 0.22458126 0.17766626 0.19615747 0.248514 0.2371925 0.14899771
0.18503585 0.21616729 0.17844778 0.26640597 0.19277158 0.19591191 0.3077177 0.24193838
0.1962643 0.2180846 0.22007105 0.17577314 0.25216252 0.22223021 0.237642 0.2016187
00000000: f652 663e b66c 523e 7022 393e 3a01 913e
00000010: f838 4e3e b174 313e 1e5b 233e d2f4 523e
00000020: 6201 8a3e f0e2 633e e03f b63e 46d8 1a3e
00000030: 5c32 1b3e 2c86 183e b26d 613e 14cd 693e
00000040: 33b0 763e 0c1b 403e eb85 483e 85ab 343e
00000050: 64c5 333e 5a4e 663e 4b13 9a3e d11e b53e
00000060: 7cff 3f3e b8a4 263e 375a 903e 5935 413e
00000070: b3c5 263e 7dc0 6a3e d27b 813e e687 6b3e
00000080: 067e 3f3e 0ad0 7d3e f3ee 603e ae04 813e
00000090: b898 513e 3bc7 573e 2613 733e ea75 1b3e
000000a0: 1495 7d3e 01cd 4d3e 1afb 643e 8600 6f3e
000000b0: 4be0 653e b65f 663e 3db1 493e a0f3 413e
000000c0: acb4 513e 2354 403e 6cd8 433e ab61 333e
000000d0: 82fe 443e a250 1e3e 4c20 263e bb44 613e
000000e0: 6952 5d3e 775f 793e 6c9b 563e 0f05 663e
000000f0: 2c05 653e 4845 4b3e d6d3 143e b5c7 913e
00000100: 1fe1 403e f416 893e 6b69 533e 53bc 5b3e
00000110: df62 193e 528a 503e 5bc2 493e 8f1f 703e
00000120: d698 903e 3c59 3a3e f83a 5f3e f94a 453e
00000130: 5cbc 483e 6450 2a3e e2c7 3c3e 2bd7 673e
00000140: 32c9 5d3e 3244 243e e638 813e 3914 0a3e
00000150: 80d4 1f3e cae7 673e 051c 903e 6b3c 773e
00000160: d4ed 853e 0fa2 923e 08f2 743e 2ec0 353e
00000170: 04d2 553e 6cde 5c3e 0548 503e b178 353e
00000180: a7fb 583e fd71 293e 4e6e 243e 3723 a53e
00000190: 98d2 563e 73e9 9e3e 20c4 263e ed57 773e
000001a0: 2d73 3e3e 27f6 2c3e a1f8 653e 25ee 353e
000001b0: 81dd 483e 747a 7e3e 97e2 723e db92 183e
000001c0: 0a7a 3d3e f55a 5d3e 04bb 363e 5d66 883e
000001d0: ea65 453e 229d 483e 2d8d 9d3e b2be 773e
000001e0: 82f9 483e 9251 5f3e 4e5a 613e e0fd 333e
000001f0: 721b 813e 5190 633e 6d58 733e 2275 4e3e

model.6.weight f4 [88, 128]
-0.025424125 -0.0027774894 0.10258516 -0.0879611 -0.057212856 -0.031502213 -0.061919346 -0.051808253
-0.062482283 -0.09778009 -0.084230125 -0.06384309 -0.008251778 -0.099963486 0.09951916 0.015820233
-0.09065222 0.11257748 0.11925492 0.056552004 0.017741507 -0.067550406 -0.0861089 0.038681746
0.03928039 -0.118975066 0.033854235 0.07285071 -0.09259683 0.024706371 0.028047822 -0.04631193
-0.041552138 -0.016297797 0.0014722584 -0.016585499 0.103013866 0.04032963 -0.069473095 0.01154174
-0.05788304 0.003089658 0.08231686 -0.033510327 -0.0957057 0.07320853 0.07439711 0.024265736
-0.028824328 0.110449836 -0.037975855 -0.04107086 0.02962672 -0.024426738 -0.048583996 -0.09916771
0.045234717 0.077630356 0.053650867 0.038474966 0.046491954 0.047737762 0.05558696 -0.06818294
0.095652096 0.052230623 -0.046925586 -0.094313115 0.02246096 0.018673256 -0.0705697 -0.12776023
0.07689454 -0.10672102 -0.08787401 0.019097254 0.008526407 -0.08212449 0.015821697 0.04919037
-0.038069993 -0.068185925 0.0934723 0.063977174 0.052658416 0.06062802 0.029632922 0.03424064
-0.018785385 -0.031288594 0.0417889 0.049839444 0.0102618765 0.08065887 -0.03282421 -0.020117784
-0.05468276 0.033353135 0.09662445 -0.010705836 -0.038967576 0.05348343 0.04043799 0.07167677
0.038295716 -0.026674064 0.042096943 0.012377336 0.096074924 -0.06182474 0.100428335 -0.019736925
0.028826972 0.028923552 -0.1134249 0.01806835 -0.10206499 0.05985542 0.012645483 -0.007037899
-0.061874628 0.04104828 -0.06192291 0.01475779 -0.035138 -0.04997913 0.063561514 0.08246784
0.011970655 0.0061623002 0.043569833 -0.030962925 -0.049767423 -0.044303644 0.051614907 -0.08437559
-0.0060920953 -0.101293676 0.122874506 0.07726868 -0.030023305 -0.1074676 0.11858417 0.060404994
-0.04369286 -0.03150384 -0.04904731 -0.012540734 0.12577356 0.044997606 -0.07303315 -0.050840598
-0.057587754 0.016555896 0.111607715 0.10888018 -0.019229349 -0.064540334 0.008827697 0.029342804
0.09876486 0.059402816 0.0068644723 -0.040534537 0.02204663 -0.01720136 0.024444949 0.10262402
0.033185966 -0.07047036 -0.13128634 -0.11715518 -0.09388297 -0.011522401 0.016183827 -0.12417797
-0.05004601 0.08342726 -0.13066123 -0.044829376 -0.0052529746 -0.034826815 -0.05955522 -0.038406845
-0.02795391 0.07037593 0.03932766 0.020462666 0.11381223 0.08758704 0.110629976 0.013427746
0.09739613 -0.028637275 0.0841167 -0.08140999 0.080070294 -0.02320627 -0.012244366 -0.07059951
0.028772557 -0.09041622 0.0151339 -0.04716564 0.0919713 -0.10963444 0.022726897 0.0355475
-0.07086809 0.00682654 -0.025928292 0.1374134 0.010807343 -0.034296222 -0.0868552 0.04633658
-0.023458192 -0.12351218 0.06358368 0.06834055 0.06267759 0.085700646 -0.0767229 0.06013213
-0.006837208 0.052444886 0.029866137 0.030928593 0.02005893 -0.07225068 -0.03698288 0.030382413
0.02468963 0.03413849 0.11036774 -0.104075 0.09705843 -0.061156593 0.073379435 -0.066837884
0.08278793 0.07862399 -0.03219361 -0.04602906 -0.033978406 -0.011033828 0.088688165 0.023536991
-0.06256113 0.06662449 -0.113317266 -0.06242703 0.012149232 -0.05807588 -0.053066745 0.0019798854
00000000: 4146 d0bc 8a06 36bb 2b18 d23d f324 b4bd
00000010: 0758 6abd 7708 01bd 249f 7dbd e434 54bd
00000020: 6ced 7fbd ee40 c8bd d880 acbd 2ac0 82bd
00000030: 7732 07bc a8b9 ccbd b4d0 cb3d 6f99 813c
00000040: dfa7 b9bd 068f e63d ec3b f43d 13a3 673d
00000050: a356 913c de57 8abd dd59 b0bd c070 1e3d
00000060: 79e4 203d 33a9 f3bd bdaa 0a3d c132 953d
00000070: 68a3 bdbd 0465 ca3c 8cc4 e53c 94b1 3dbd
00000080: 9332 2abd f582 85bc cbf8 c03a 50de 87bc
00000090: eff8 d23d af30 253d e947 8ebd 9119 3d3c
000000a0: c416 6dbd dc7b 4a3b be95 a83d 2042 09bd
000000b0: 5a01 c4bd 5bee 953d 835d 983d f0c8 c63c
000000c0: ff20 ecbc 8633 e23d 928c 1bbd eb39 28bd
000000d0: bcb3 f23c 951a c8bc 0300 47bd 7118 cbbd
000000e0: 0a48 393d aafc 9e3d 03c1 5b3d ed97 1d3d
000000f0: 596e 3e3d ac88 433d 27af 633d 7fa3 8bbd
00000100: 3fe5 c33d c7ef 553d 0b35 40bd 3c27 c1bd
00000110: 0c00 b83c a8f8 983c d986 90bd 94d3 02be
00000120: e27a 9d3d 8d90 dabd 4af7 b3bd d871 9c3c
00000130: 58b2 0b3c e230 a8bd 819c 813c d77b 493d
00000140: 48ef 1bbd 10a5 8bbd 686e bf3d 7706 833d
00000150: 5ab0 573d 1655 783d bec0 f23c ea3f 0c3d
00000160: cfe3 99bc 7828 00bd d62a 2b3d 7224 4c3d
00000170: 6e21 283c 7a30 a53d ae72 06bd 0dce a4bc
00000180: 08fb 5fbd 4c9d 083d 0ae3 c53d 8867 2fbc
00000190: 779c 1fbd 7111 5b3d 4ea2 253d 45cb 923d
000001a0: f8db 1c3d 9183 dabc d86d 2c3d 4fca 4a3c
000001b0: eec2 c43d f03b 7dbd 5fad cd3d 55af a1bc
000001c0: 8b26 ec3c 16f1 ec3c 504b e8bd 1404 943c
000001d0: 7307 d1bd f52a 753d 002f 4f3c 2d9e e6bb
000001e0: 4070 7dbd 3e22 283d e1a2 7dbd a8ca 713c
000001f0: ddec 0fbd ebb6 4cbd 8a2c 823d e6e4 a83d
00000200: 9120 443c 1fed c93b 4876 323d f6a5 fdbc
00000210: edd8 4bbd bd77 35bd 276a 533d 1ccd acbd
00000220: 33a0 c7bb 0f73 cfbd a1a5 fb3d 0b3f 9e3d
00000230: 6ff3 f5bc f917 dcbd 42dc f23d 3a6b 773d
00000240: 49f7 32bd 2c0a 01bd d5e5 48bd a777 4dbc
00000250: c9ca 003e 694f 383d 6792 95bd 3b3e 50bd
00000260: 23e1 6bbd 3ba0 873c 9692 e43d 92fc de3d
00000270: de86 9dbc b92d 84bd 0ba2 103c 5260 f03c
00000280: 3b45 ca3d 5e50 733d 5eef e03b 8b07 26bd
00000290: 229b b43c dee9 8cbc c640 c83c 8b2c d23d
000002a0: 02ee 073d c452 90bd ed6f 06be 0eef efbd
000002b0: b745 c0bd 74c8 3cbc f293 843c 0551 febd
000002c0: 0cfd 4cbd e9db aa3d 0fcc 05be 029f 37bd
000002d0: 2521 acbb 90a6 0ebd 2df0 73bd 7f50 1dbd
000002e0: 99ff e4bc 4121 903d 0a16 213d 52a1 a73c
000002f0: 6316 e93d d660 b33d f891 e23d 0c00 5c3c
00000300: 9f77 c73d b898 eabc 6045 ac3d 48ba a6bd
00000310: e5fb a33d 131b bebc 989c 48bc 7a96 90bd
00000320: 6db4 eb3c 242c b9bd 2df4 773c c230 41bd
00000330: 735b bc3d 0588 e0bd c22d ba3c 419a 113d
00000340: 4a23 91bd 2bb1 df3b 9267 d4bc 19b6 0c3e
00000350: 4811 313c 327a 0cbd 24e1 b1bd 6dcb 3d3d
00000360: 652b c0bc f4f3 fcbd 2938 823d 21f6 8b3d
00000370: 1c5d 803d d283 af3d e520 9dbd 1c4d 763d
00000380: a80a e0bb 73d0 563d d4a9 f43c f65d fd3c
00000390: a052 a43c 2af8 93bd 5c7b 17bd 8ae4 f83c
000003a0: e841 ca3c cdd4 0b3d 7b08 e23d 4625 d5bd
000003b0: 92c6 c63d 567f 7abd f547 963d 4de2 88bd
000003c0: b88c a93d 9d05 a13d 72dd 03bd f888 3cbd
000003d0: f12c 0bbd 3bc7 34bc 24a2 b53d a6d0 c03c
000003e0: 0d20 80bd 6c72 883d e212 e8bd 7cb3 7fbd
000003f0: 930d 473c f9e0 6dbd 845c 59bd f7c0 013b
