models/ecoli_core_v1_metabolic_nn.pth (torch, 80697 bytes, 5 tensors)

model.0.weight f4 [128, 20]
0	0x3d0eeb5b	0.03489242
1	0x3d5454bd	0.051838625
2	0x3c6be373	0.01439749
3	0xbd5e6d95	-0.054303724
4	0x3d82dd5a	0.06389876
5	0x3b80585c	0.0039167833
6	0x3cefcbf3	0.029272055
7	0x3cd3f35d	0.02587288
8	0x3d3b0a03	0.045663845
9	0x3d0ad32a	0.033892788
10	0x3d214cc7	0.03937986
11	0xbcc78f1d	-0.024360234
12	0x3dd4af6b	0.10385021
13	0x3c33a0ce	0.010963632
14	0xbd7c8000	-0.061645508
15	0x3df9d85d	0.12199471
16	0x3e376d5f	0.17912816
17	0xbce9fb66	-0.028562259
18	0xbdaedc80	-0.08538151
19	0x3d8c3cb7	0.06847518
20	0x3cfed1cb	0.031105896
21	0x3c932d0d	0.017965818
22	0xbcd70a9b	-0.026250174
23	0x3d1c34f0	0.038136423
24	0xbcda6c55	-0.026662985
25	0xbcb5b077	-0.022178872
26	0x3d05bfe5	0.032653708
27	0xbbb0204c	-0.005374944
28	0x3da094ad	0.07840858
29	0x3c9573df	0.018243728
30	0x3aa34e95	0.0012459332
31	0xbc4205d7	-0.011842213
32	0xba6876a9	-0.00088677794
33	0x3c1a81f4	0.009430397
34	0x3d7e3ff8	0.062072724
35	0x3e05fc38	0.13084495
36	0xbe276264	-0.16346127
37	0xbe06f9b7	-0.13181196
38	0x3e0bd1f3	0.13654308
39	0x3d388106	0.04504492
40	0x3d70d2ef	0.058794912
41	0x3e24518b	0.16046731
42	0x3d096833	0.033546638
43	0x3dd99658	0.10624379
44	0x3cc88fa5	0.024482558
45	0x3da4c75c	0.08045837
46	0x3d530dc0	0.051526785
47	0x3d02c8d0	0.03192979
48	0x3cc17981	0.023617508
49	0x3d0fefca	0.03514079
50	0x3d8ff62f	0.07029378
51	0xbb06ed0f	-0.0020588075
52	0x3d67ebce	0.056621365
53	0x3dc5276b	0.09626659
54	0x3e016f08	0.12640011
55	0xbc26d51f	-0.010182648
56	0x3e533b5f	0.20628117
57	0xbd5d83f1	-0.054080907
58	0x3dffc032	0.1248783
59	0x3e1d51b7	0.15363203
60	0x3dcfc36a	0.10144694
61	0x3dcb04a8	0.099129975
62	0x3d9bac05	0.076011695
63	0x3cfba2de	0.03071731
64	0x3df26004	0.1183472
65	0x3df7c5a6	0.12098245
66	0x3e27cd70	0.16386962
67	0x3dd49044	0.10379079
68	0x3d01d74f	0.031699475
69	0x3e183e29	0.14867462
70	0x3e1f09e4	0.15531117
71	0x3bbda85f	0.0057878937
72	0x3e44fb1a	0.19236413
73	0x3de2690e	0.11055194
74	0x3e4d06ec	0.20022172
75	0x3d876cfd	0.06612585
76	0xbd1f429e	-0.03888189
77	0x3dce6434	0.10077706
78	0x3e2d650f	0.16933082
79	0x3d9e1f05	0.0772076
80	0x3e43788a	0.19088951
81	0x3e853a30	0.26020956
82	0x3dc5f06c	0.096649975
83	0x3d8d037e	0.06885432
84	0xbd474db3	-0.048658084
85	0x3e3ee580	0.18642235
86	0x3e108542	0.14113334
87	0x3e30f744	0.17281824
88	0x3e269142	0.16266349
89	0xbc289e83	-0.010291698
90	0x3de3595c	0.11101028
91	0xbcb0a8ce	-0.021564867
92	0x3d902936	0.0703911
93	0x3e1f960c	0.15584582
94	0xbd4c7f9b	-0.04992638
95	0xbe5a7a34	-0.2133568
96	0x3dc5ceeb	0.09658607
97	0xbc657886	-0.014005786
98	0xbe2096ad	-0.15682478
99	0x3de819e0	0.1133306
100	0x3c0f1fa1	0.008735568
101	0x3d247ed0	0.04016
102	0xbc5011d7	-0.012699566
103	0x3d4b62b2	0.04965467
104	0x3cce0679	0.02514957
105	0x3b1c5d66	0.002385938
106	0xbc84e788	-0.016223684
107	0x3b58930a	0.0033046626
108	0x3c6c85f7	0.014436237
109	0x3d32bff1	0.04364008
110	0x3ba1aad0	0.0049336925
111	0xbb1e514c	-0.0024157343
112	0x3da8749a	0.08225365
113	0x3ce0e1a2	0.02745134
114	0xbc8aca90	-0.016942292
115	0xbe283108	-0.16424954
116	0x3c6a2194	0.014290232
117	0x3e243f7c	0.16039842
118	0x3e17e6eb	0.14834182
119	0xbe1a2ea0	-0.15056849
120	0x3b783526	0.0037873476
121	0x3c3f6fb7	0.01168435
122	0x3c61893d	0.01376563
123	0xbced6fda	-0.028983999
124	0x3b41c086	0.0029564216
125	0xbc36d7fc	-0.011159893
126	0xbcde06c4	-0.027102835
127	0x3cf24c0e	0.029577281
128	0xbbbf80eb	-0.0058442256
129	0x3c825856	0.015911262
130	0x3ccc1b60	0.024915397
131	0x3b4ff5ac	0.0031732125
132	0x3c8e4f38	0.017371759
133	0x3bcf4f41	0.0063265865
134	0x3c54c444	0.0129862465
135	0xbd2f7b1c	-0.042842016
136	0x3c792faa	0.015209118
137	0x3e131a79	0.14365567
138	0x3dc69855	0.09697024
139	0xbbe0f13c	-0.006864695
140	0x3d4a1ba3	0.049342763
141	0xbca36f62	-0.019950572
142	0x3c1c4a96	0.009539267
143	0x3d4fcc9f	0.05073225
144	0x3c9b396f	0.018948285
145	0x3bbacf3d	0.0057009743
146	0xbcb91bc2	-0.022596244
147	0xbbd58836	-0.0065164817
148	0x3d59cdef	0.05317491
149	0xbd45ae54	-0.048261955
150	0xbb1a1e5e	-0.0023516635
151	0xbc613a16	-0.013746759
152	0x3cd9b100	0.026573658
153	0x3d904fb5	0.07046453
154	0xbe25315f	-0.16132115
155	0xbdf6d2e8	-0.12051946
156	0xbe0345f3	-0.12819652
157	0x3cc3d82a	0.023906786
158	0x3dbec9e3	0.093158506
159	0x3e5a5c6d	0.2132432
160	0xbe330cf6	-0.17485413
161	0xbcea2794	-0.028583325
162	0xbe07ccaf	-0.13261674
163	0xbd59f4b8	-0.053211898
164	0xbda5b4fb	-0.0809116
165	0xbdc1481f	-0.09437584
166	0xbddd70af	-0.10812508
167	0xbdeb79a4	-0.114978105
168	0xbb3bd7d4	-0.002866258
169	0xbdcef27e	-0.101048455
170	0xbdf02a3c	-0.117268056
171	0xbca8c432	-0.020601366
172	0xbd1651ef	-0.03669923
173	0xbe2e90fe	-0.17047498
174	0x3de43769	0.11143381
175	0x3d5c73f4	0.05382152
176	0x3df4c69b	0.119519435
177	0x3e3a129b	0.1817116
178	0x3e56e41d	0.20985456
179	0xbe4aa88b	-0.19790857
180	0xbd2f58a8	-0.04280916
181	0xbe70cc10	-0.23515344
182	0xbe05a418	-0.13050878
183	0xbe080a83	-0.1328526
184	0xbc27bf26	-0.010238444
185	0xbe07a34f	-0.13245891
186	0xbd8c1ea0	-0.06841779
187	0xbdf19dbe	-0.11797665
188	0xbe0853f6	-0.13313279
189	0x3d0415cb	0.032247346
190	0xbd84e6aa	-0.06489308
191	0xbaf4d376	-0.0018678743
192	0xbe18c0c4	-0.14917284
193	0xbcac269b	-0.021014502
194	0x3e41fbb3	0.18943672
195	0xbe25abbf	-0.16178797
196	0x3de376c2	0.11106636
197	0xbe341293	-0.1758521
198	0x3e3d1287	0.18464099
199	0x3da9aac4	0.08284524
200	0x3e6917c2	0.22762969
201	0x3e59f329	0.21284164
202	0x3e133cc9	0.14378656
203	0x3b94e490	0.0045438483
204	0x3dc049bb	0.09389063
205	0x3e61e241	0.22058965
206	0x3e11c5ea	0.14235654
207	0x3d855ef4	0.065122515
208	0x3db02552	0.08600868
209	0x3da34110	0.07971394
210	0x3e2b0b88	0.16703618
211	0x3cfc26b5	0.030780176
212	0x3e2ebdc8	0.17064583
213	0x3e44b2bd	0.19208808
214	0x3e50479d	0.20339818
215	0xbe164977	-0.14676462
216	0xbe1f2f1e	-0.15545318
217	0x3e35fe66	0.17772827
218	0x3dd98ed6	0.10622947
219	0x3e01ced7	0.1267656
220	0xbdcba48f	-0.099434964
221	0xbdc8ca19	-0.09804172
222	0xbd9bf4e3	-0.07615068
223	0xbcf4d45e	-0.02988642
224	0xbdf0adfa	-0.117519334
225	0xbdf5c651	-0.120007165
226	0xbe264a10	-0.1623919
227	0xbdd42927	-0.10359412
228	0xbd015104	-0.031571403
229	0xbe16c67e	-0.14724156
230	0xbe1e56c3	-0.15462784
231	0xbbc2e4cb	-0.0059476844
232	0xbe42b73b	-0.1901521
233	0xbde02254	-0.109440476
234	0x3e3b75d0	0.1830666
235	0x3c9c29c4	0.019062884
236	0xbd4e79cc	-0.050409123
237	0x3e509db4	0.20372659
238	0x3c81af84	0.015830763
239	0x3c1db4e1	0.009625644
240	0x3d7393ee	0.05946725
241	0x3d807a56	0.06273334
242	0x3d854596	0.06507413
243	0x3d544938	0.05182764
244	0xbb6b2c4e	-0.0035884562
245	0x3c842ee0	0.016135633
246	0x3bbc2446	0.005741629
247	0xbcb64356	-0.022248905
248	0x3cc52ba3	0.02406866
249	0xbc849fdb	-0.016189506
250	0x3d1c9b1a	0.038233854
251	0xbcd1ae41	-0.025595786
252	0x3c1a20e6	0.009407258
253	0x3d416157	0.04721197
254	0x3e4e91a3	0.20172743
255	0x3c6481c6	0.013946956

model.0.bias f4 [128]
0	0xbe868bdd	-0.26278582
1	0xbc855848	-0.016277447
2	0xbc837e05	-0.016051302
3	0xbe569f98	-0.20959318
4	0xbe4632f7	-0.19355379
5	0xbe296d3c	-0.16545576
6	0x3c1c8d5f	0.00955519
7	0xbdc70133	-0.097170256
8	0xbe37c060	-0.17944479
9	0xbd78d1f2	-0.060747094
10	0x3d66df82	0.056365497
11	0x3e554a1a	0.20829049
12	0xbe8ed10a	-0.2789386
13	0xbe0c5487	-0.1370412
14	0xbc2bd15d	-0.010486928
15	0xbdcca9f5	-0.09993354
16	0xbc4275f0	-0.011868939
17	0xbe15c205	-0.14624794
18	0xbd8c07ff	-0.06837463
19	0xbc4e0c54	-0.012576181
20	0x3d99a557	0.07502239
21	0x3df62483	0.12018683
22	0xbe6b6eae	-0.2299144
23	0x3ded44de	0.11585401
24	0xbdfcd188	-0.123446524
25	0xbdafed99	-0.0859024
26	0xbbb02e1a	-0.0053765895
27	0xbdcd4e01	-0.10024644
28	0x3dec0cc7	0.115258746
29	0x3df486b9	0.11939759
30	0xbe35c692	-0.1775153
31	0xbe935c33	-0.2878128
32	0x3e38cd05	0.18046959
33	0x3e3e88c5	0.18606861
34	0xbe159903	-0.1460915
35	0x3b03aaf1	0.0020090903
36	0x3e3ff0c4	0.18744189
37	0xbe72c4a8	-0.23707831
38	0xbe589410	-0.21150231
39	0x3d5f5cd6	0.054531895
40	0x3e235284	0.15949446
41	0xbe177413	-0.14790373
42	0x3d506b7a	0.050883748
43	0x3c71651a	0.014733577
44	0x3e195884	0.14975172
45	0x3ebc34b1	0.3675895
46	0x3e799d81	0.24376489
47	0xbde69be6	-0.11260204
48	0xbe1c862d	-0.15285559
49	0xbdf8674e	-0.12129079
50	0xbc669935	-0.014074613
51	0xbe3e6521	-0.18593265
52	0x3e1b8d35	0.15190585
53	0x3dbeef96	0.09323041
54	0x3c71a96e	0.014749868
55	0xbcfd654e	-0.030932095
56	0xbd4e15f8	-0.05031392
57	0xbd8b504c	-0.06802425
58	0xbe45ecb5	-0.19328578
59	0xbd3ad4c4	-0.045613065
60	0x3e0647a5	0.13113268
61	0x3d453513	0.04814632
62	0x3d8e7940	0.0695672
63	0x3c2fe665	0.010736083
64	0xbd890aaf	-0.06691491
65	0xbe39bb1e	-0.18137786
66	0x3e2d2b5e	0.16911075
67	0xbe15ebd6	-0.14640746
68	0x3d3967fe	0.04526519
69	0x3e1f505c	0.15557998
70	0x3e219ca4	0.1578241
71	0x3dd342d6	0.10315482
72	0x3ca3b855	0.019985357
73	0x3cde564b	0.027140757
74	0xbbffbb6d	-0.0078043253
75	0x3d87c42a	0.06629212
76	0xbe154a0d	-0.1457903
77	0x3e1bfa5a	0.1523222
78	0xbdae259e	-0.08503269
79	0xbc554cc5	-0.013018792
80	0xbe0b43fe	-0.13600156
81	0xbcd86240	-0.026414037
82	0x3c695b5e	0.014242975
83	0xbd2acca8	-0.04169908
84	0x399a9c5e	0.00029489672
85	0xbdaa8d50	-0.083277345
86	0x3e3a0dff	0.18169402
87	0x3e78e812	0.24307278
88	0xbbe060d1	-0.006847479
89	0x3e54fd9f	0.20799874
90	0xbd20658f	-0.039159354
91	0xbdace6c9	-0.08442456
92	0xbd105362	-0.03523577
93	0xbeaba253	-0.3352228
94	0xbe660a00	-0.22464752
95	0xbe02b856	-0.12765631
96	0xbdcb62e7	-0.099309735
97	0xbdeb3fd1	-0.114867814
98	0xbe1215e2	-0.1426616
99	0xbd2d5d53	-0.04232533
100	0x3c5a2a26	0.013315713
101	0xbdcb0591	-0.09913171
102	0x3dda5a5b	0.10661765
103	0xbdf626ce	-0.1201912
104	0xbdd16739	-0.10224766
105	0xbe4aa776	-0.19790444
106	0xbd7f4f50	-0.062331498
107	0xbcdf15a9	-0.027232008
108	0xbd6b0719	-0.057379816
109	0x3e477276	0.19477257
110	0xbd07d092	-0.033157893
111	0xbea41506	-0.3204729
112	0xbaf9395d	-0.0019014288
113	0xbe3b1f04	-0.1827355
114	0x3cab79c6	0.02093209
115	0x3d870337	0.0659241
116	0xbe80ed31	-0.25180963
117	0xbd9c6ed4	-0.07638326
118	0xbe1b4a25	-0.15165003
119	0x3df8a4e2	0.12140824
120	0x3d75abf8	0.059978455
121	0x3e29035e	0.1650519
122	0xbe3b4cce	-0.18291017
123	0x3d39d175	0.04536577
124	0x3d3dda4e	0.04635077
125	0xbca35904	-0.019939907
126	0xbcb95171	-0.022621842
127	0xbd9cd7b4	-0.076583296

model.2.weight f4 [128, 128]
0	0xbd07bf7b	-0.033141594
1	0xbd377a93	-0.04479463
2	0xbc43b29d	-0.01194444
3	0x3d82e87b	0.063919984
4	0xbdcd5173	-0.10025301
5	0xbd2425a0	-0.040074944
6	0x3dc82711	0.09773076
7	0x3d87fa1e	0.06639503
8	0x3c9b181e	0.018932398
9	0x3d55fca5	0.052242894
10	0xbccc1d63	-0.024916356
11	0x3deaac24	0.114586145
12	0xbb9fd8c6	-0.0048781363
13	0x3d8642f8	0.06555742
14	0x3cc9de77	0.024642212
15	0x3dc54958	0.0963313
16	0xbc224ef3	-0.009906518
17	0x3dbd445c	0.09241554
18	0x3b0cbdfd	0.0021475547
19	0xbd70018e	-0.058595233
20	0xbc37b78f	-0.011213197
21	0x3cbea2d7	0.023271007
22	0x3d3f8bb9	0.04676411
23	0x3d93d1a7	0.072177224
24	0xbc7c0732	-0.015382575
25	0xbcc44189	-0.02395703
26	0xbd2b6fb4	-0.041854575
27	0x3d09f80c	0.03368382
28	0x3dbe62ad	0.09296165
29	0x3d695b5d	0.056971896
30	0x3d4beffe	0.04978942
31	0xbc192998	-0.009348296
32	0x3d393411	0.04521567
33	0x3d88e5c3	0.066844486
34	0x3dceec41	0.101036556
35	0xbcd7bc00	-0.026334763
36	0x3d9e041a	0.07715626
37	0x3d53b9cf	0.051690873
38	0x3cb31ee8	0.021865323
39	0x3dbb1974	0.09135714
40	0xbc1dc6fa	-0.009629959
41	0xbd1f81cd	-0.038942147
42	0xbd0a424f	-0.033754643
43	0x3bb5588b	0.005534237
44	0xbce52909	-0.027973669
45	0xbd445b5c	-0.04793869
46	0xbda9fe6a	-0.08300479
47	0x3d9b5a4f	0.07585584
48	0xbc3c19c1	-0.01148075
49	0x3ca44c25	0.02005584
50	0xbc9fee3d	-0.01952278
51	0xbc80f931	-0.015743824
52	0x3ddaf6d0	0.10691607
53	0x3d32ccbc	0.04365228
54	0x3cb7dcd3	0.022444164
55	0xbd39dfd8	-0.04537949
56	0xbd213351	-0.03935558
57	0x3dc233f9	0.09482569
58	0x3c01f07f	0.007930874
59	0xbd8f4e7e	-0.06997393
60	0x3d347b0a	0.04406265
61	0x3dc65ab6	0.096852705
62	0x3da35add	0.07976315
63	0xbd52ff6b	-0.051513117
64	0x3cf715c2	0.030161742
65	0x3bf7f98d	0.0075675906
66	0xbc630f8e	-0.013858689
67	0x3d09d796	0.033652864
68	0xbbe11bc0	-0.006869763
69	0xbd50fef4	-0.051024392
70	0x3db279b1	0.08714617
71	0x3d2688e3	0.04065789
72	0x3befe031	0.007320427
73	0x3b298a72	0.0025869873
74	0xbd8f9c83	-0.07012274
75	0x3d1816e6	0.037131213
76	0x3d82b162	0.06381489
77	0x3d47f213	0.048814844
78	0xbd5190f9	-0.051163647
79	0xbdb6d11d	-0.08926604
80	0xbce7040a	-0.028200168
81	0x3d52f240	0.05150056
82	0xbd017328	-0.031603962
83	0x3b88b2e5	0.0041717165
84	0xbd18b04e	-0.037277512
85	0x3bd6035e	0.006531163
86	0x3ccdba94	0.025113381
87	0x3cf95dd5	0.03044025
88	0xbd15ec7e	-0.03660249
89	0x3d8ce8e0	0.06880355
90	0xbd94d9a8	-0.07268077
91	0xbd8c69bd	-0.068561055
92	0x3d9b2bee	0.07576738
93	0xbdc5becc	-0.09655532
94	0x3d062acf	0.03275567
95	0xbdafeadb	-0.08589717
96	0x3d2efe89	0.042723212
97	0x3da0f800	0.07859802
98	0xbc2d110e	-0.010563148
99	0x3d2857fd	0.041099537
100	0x3ddf4220	0.10901284
101	0x3da15438	0.078773916
102	0x3cce1ced	0.025160277
103	0x3d4947da	0.04914079
104	0x3cec9063	0.028877443
105	0xbd07317f	-0.033006188
106	0x3da7ade3	0.08187463
107	0xbc3ad5c5	-0.011403506
108	0x3dcab5df	0.098979704
109	0xbb6c43b9	-0.0036051108
110	0x3da72037	0.08160441
111	0x3c9d74dd	0.019220764
112	0x3ddc9883	0.10771277
113	0x3d27a41e	0.040928
114	0x3ca7d9b8	0.020489559
115	0xbd12ab45	-0.035807867
116	0x3caed7f7	0.021343214
117	0x3d1fb346	0.038989328
118	0x3d9ee1f4	0.07757941
119	0x3dad0c98	0.08449668
120	0xbd7ed0fb	-0.062211018
121	0xbd69c309	-0.057070766
122	0x3d5c1a04	0.053735748
123	0x3c7a2e7b	0.015269871
124	0x3da1c6da	0.07899256
125	0x3d8b5d22	0.06804873
126	0xbc814980	-0.015782118
127	0xbcf6c022	-0.030120913
128	0xbd0a7eae	-0.033812217
129	0xbd1417af	-0.0361554
130	0xbd7b1736	-0.061301433
131	0x3dc04224	0.09387615
132	0x3d806cf3	0.062707804
133	0xbd34a6f8	-0.044104546
134	0xbd53c2b7	-0.051699366
135	0xbdc7b156	-0.09750621
136	0x3e540595	0.20705254
137	0x3dd6004f	0.104492776
138	0xbc5837a5	-0.01319686
139	0xbe860cd6	-0.26181668
140	0x3e1eb04c	0.1549694
141	0xbcb3c970	-0.021946639
142	0x3dacaee1	0.08431793
143	0xbd03883e	-0.032112353
144	0x3e4b1cc4	0.19835192
145	0x3e3a5383	0.1819592
146	0xbccf1f99	-0.025283622
147	0xbe105249	-0.1409389
148	0xbdfc1721	-0.12309099
149	0xbc7ca8b5	-0.015421082
150	0x3bf5474e	0.007485307
151	0xbdd321c0	-0.10309172
152	0x3dade299	0.08490486
153	0xbe198695	-0.14992745
154	0xbdce0fc7	-0.10061603
155	0xbbc7a8cc	-0.00609312
156	0x3d9df695	0.077130474
157	0xbe13ab61	-0.14420845
158	0x3c6458bc	0.013937172
159	0xbe2523a8	-0.16126883
160	0xbd5f5885	-0.05452778
161	0x3a7ffe6e	0.0009765391
162	0x3b8a57bb	0.004221884
163	0xbda6a3ae	-0.08136688
164	0xbdf55ae2	-0.11980225
165	0xbecbec3e	-0.39828676
166	0xbdf065ec	-0.1173819
167	0xbe64f2af	-0.22358201
168	0xbc84e00b	-0.016220113
169	0xbe08323f	-0.13300417
170	0xbe883da5	-0.2660953
171	0xbc4f3a41	-0.012648166
172	0xbd56dba0	-0.052455544
173	0x3c75f511	0.015012042
174	0xbd2e589a	-0.042564966
175	0xbdc749b1	-0.097308524
176	0x3a0b5e7e	0.00053165096
177	0xbda77666	-0.081768796
178	0x3d4d4743	0.05011679
179	0xbd7c3667	-0.06157532
180	0x3d8e4928	0.06947547
181	0x3d0cb422	0.034351476
182	0xbdb56080	-0.088562965
183	0xbda5ba6d	-0.080921985
184	0x3db6b792	0.08921732
185	0xbd4e1375	-0.050311524
186	0x3cdb0017	0.026733441
187	0xbe12e2da	-0.1434435
188	0xbe525de2	-0.20543626
189	0x3d40d529	0.047078285
190	0x3cb8bf7c	0.022552244
191	0xbdf67354	-0.12033716
192	0x3e942f2f	0.28942248
193	0x3d681993	0.056665014
194	0x3d703970	0.058648527
195	0xbd1b0a3e	-0.037851565
196	0xbd9e28eb	-0.07722648
197	0xbdaca997	-0.08430784
198	0xbc61f13a	-0.013790423
199	0x3dddd814	0.10832229
200	0x3caf07d8	0.021366045
201	0x3cd5f368	0.026117042
202	0xbd863c42	-0.06554462
203	0x3de250f6	0.11050598
204	0x3c597833	0.013273287
205	0xbde3542c	-0.11100039
206	0xbd45f4be	-0.048329107
207	0x3d87b1fa	0.06625743
208	0xbd9563d1	-0.07294429
209	0x3e5218ad	0.20517226
210	0x3dc63a71	0.096791156
211	0xbd29c9d4	-0.041452244
212	0xbe514126	-0.20435008
213	0x3d2abb5a	0.04168258
214	0x3dce5f52	0.10076775
215	0xbcd40ccf	-0.025885014
216	0xbd5e95b5	-0.05434199
217	0x3d60c57d	0.05487584
218	0xbddbf034	-0.107391745
219	0xbe3391da	-0.17536107
220	0xbca399cd	-0.019970799
221	0xbc3b6d37	-0.011439613
222	0xbde1c487	-0.11023813
223	0xbc4f293c	-0.012644108
224	0x3b4cd2e4	0.003125363
225	0xbe1e1225	-0.15436609
226	0x3cb544cf	0.022127537
227	0x3df9b935	0.121935286
228	0xbe30b09e	-0.17254874
229	0xbe5c6fa9	-0.2152697
230	0xbe08a951	-0.13345839
231	0xbd5ea798	-0.05435905
232	0xbd6d7379	-0.05797145
233	0x3c3b72c2	0.011440935
234	0x3dc210b9	0.09475846
235	0xbdef80cd	-0.11694489
236	0xbe1a17ca	-0.15048137
237	0xbe20e6bf	-0.15713023
238	0xbce2f4d5	-0.027704636
239	0x3da472a2	0.08029677
240	0xbdfdfef2	-0.124021426
241	0xbcdc41b5	-0.0268868
242	0xbdaa352e	-0.083109245
243	0xbd0fdc0e	-0.03512197
244	0xbe3625e9	-0.17787899
245	0xbd4821f4	-0.048860505
246	0x3e52c696	0.20583567
247	0xba9dbe2e	-0.0012034827
248	0xbca40f5e	-0.020026859
249	0xbbaf1ee7	-0.00534426
250	0x3cceb544	0.025232919
251	0xbd978233	-0.073978804
252	0xbd84a5f5	-0.06476966
253	0x3ccf55ca	0.025309462
254	0x3ba128c7	0.004918191
255	0xbe2a9e01	-0.16661836

model.2.bias f4 [128]
0	0x3da4f587	0.08054643
1	0x3d696dee	0.056989603
2	0x3ce73db9	0.028227674
3	0xba61bd55	-0.00086112815
4	0xbd9cba48	-0.07652718
5	0xba318f08	-0.00067733275
6	0xbdae7beb	-0.08519729
7	0x3d0914eb	0.033467215
8	0x3dc23370	0.09482467
9	0x3c30dd72	0.010794984
10	0xbcc0c344	-0.02353061
11	0xbc2b223b	-0.010445173
12	0xbe096b06	-0.13419732
13	0xbd06173e	-0.03273701
14	0xbd8d9689	-0.06913478
15	0x3cb00cd5	0.021490494
16	0xbc8f17fb	-0.01746749
17	0xbbd5667d	-0.0065124617
18	0x3bc23d5d	0.005927725
19	0x3c9e4048	0.019317761
20	0xbc842e43	-0.01613534
21	0xbc17b1c6	-0.009258693
22	0x3d0e3e5e	0.034727447
23	0x3d9b785f	0.07591318
24	0x3c9a9a90	0.01887253
25	0xbe040127	-0.12891065
26	0xbdc7daa1	-0.09758497
27	0xbddb2a49	-0.10701425
28	0xbc521252	-0.012821751
29	0xbd530442	-0.051517732
30	0xbbc11fe0	-0.0058936924
31	0x3d35949a	0.04433117
32	0xbc9a74f1	-0.01885459
33	0x3d186026	0.03720107
34	0x3c8679f1	0.016415568
35	0xbda72bb4	-0.081626326
36	0xbdcab6cd	-0.09898148
37	0xbd7702cf	-0.060305413
38	0xbc2f3744	-0.010694329
39	0xbe4f0530	-0.20216823
40	0x3cde2b1c	0.027120166
41	0x3d7845a1	0.06061328
42	0xbe13eff4	-0.14447004
43	0x3d2ef8c4	0.04271771
44	0x3ca555cf	0.020182518
45	0x3c23cda2	0.009997757
46	0xbc701f61	-0.014655919
47	0xbdebe63d	-0.11518524
48	0xbd105da8	-0.035245568
49	0x3c4b949e	0.01242557
50	0xbbd73dfe	-0.0065686693
51	0xbd994962	-0.074847
52	0xbdd0bc41	-0.101921566
53	0xbd2f2238	-0.042757243
54	0xbde39e4d	-0.11114178
55	0x3db78cda	0.08962412
56	0x3b095a94	0.002095853
57	0xbd5879cd	-0.052850533
58	0xbc52fc92	-0.0128776
59	0xbd756ba1	-0.059917096
60	0xbdf448de	-0.11927961
61	0xbd24c712	-0.04022891
62	0xbd0c4dfb	-0.034254055
63	0xbce6f994	-0.02819518
64	0x3d7bd4bd	0.06148218
65	0xbd3c420b	-0.04596142
66	0xbd80b022	-0.06283595
67	0xbba8bf11	-0.00514973
68	0x3c1a5f99	0.009422206
69	0xbdb6f6fa	-0.08933826
70	0xbe1e3c89	-0.1545278
71	0x3cf13e80	0.029448748
72	0x3c332ee4	0.010936473
73	0x3dc01bc8	0.09380299
74	0xbddee9e7	-0.10884457
75	0xbdbc2969	-0.09187586
76	0xbccbf97e	-0.02489924
77	0xba2add05	-0.000651792
78	0xbd994fa8	-0.07485896
79	0xbdabe12a	-0.08392556
80	0xbc7283d6	-0.01480194
81	0xbdb7b3c4	-0.089698344
82	0xbc420a33	-0.011843252
83	0x3d6bb76b	0.057547968
84	0x3d9f48bd	0.077775456
85	0xbdd17449	-0.10227258
86	0xbc9551aa	-0.018227417
87	0x3c30aacb	0.010782908
88	0xbcd15b91	-0.025556358
89	0xbda591a8	-0.08084422
90	0xbb353188	-0.002764793
91	0x3c8d490c	0.017246746
92	0xbd87d0d2	-0.06631626
93	0x3d1dbeef	0.038512167
94	0x3bd1b1d8	0.0063993745
95	0xbd5e7e42	-0.054319628
96	0xbdc80638	-0.09766811
97	0x3cf5783e	0.029964563
98	0x3d4d5b77	0.050136056
99	0x3ca49bcd	0.020093823
100	0x3b738a13	0.0037161156
101	0x3dc83c97	0.097771816
102	0xbc78c03e	-0.015182553
103	0xbd15e8f1	-0.036599103
104	0xbc87eaf8	-0.016591534
105	0xbd53958d	-0.051656295
106	0x3cc3afa9	0.023887472
107	0xbdde3889	-0.10850627
108	0x3ddb8d7e	0.10720347
109	0xbd244e3e	-0.04011368
110	0xba8c256b	-0.0010692304
111	0xbcca1e13	-0.024672544
112	0xbda6f5a0	-0.08152318
113	0x3ddc5948	0.107592165
114	0x3c6b1c84	0.01435006
115	0x3d07cc59	0.033153865
116	0x3de44648	0.111462176
117	0xbcd8a140	-0.026444077
118	0xbd880977	-0.0664243
119	0xb9a45e58	-0.0003135081
120	0x3df966bc	0.12177798
121	0xbdb3bbc1	-0.087760456
122	0xbdb16da1	-0.08663488
123	0x3cd6469c	0.026156716
124	0xbc1170bb	-0.008876975
125	0x3c2386c9	0.009980866
126	0x3de7345a	0.11289282
127	0xbd41972c	-0.04726331

model.4.weight f4 [1, 128]
0	0xbda75aa9	-0.08171589
1	0x3cb08be8	0.021551087
2	0xbbb81ecf	-0.005618907
3	0xbd819e55	-0.063290276
4	0x3c26e81c	0.010187175
5	0x3da9079a	0.08253403
6	0x3bb93e2d	0.005653164
7	0x3d0dcb93	0.03461797
8	0x3d893b95	0.067008175
9	0x3bf8db85	0.007594528
10	0xbca87e37	-0.020567996
11	0xbba326da	-0.0049789967
12	0xbdb1820a	-0.08667381
13	0x3ca08521	0.01959473
14	0xbcab8c82	-0.020941023
15	0xbd671a5f	-0.056421634
16	0xbd21ce11	-0.03950316
17	0xbd5593fa	-0.052143075
18	0xbd83b6f6	-0.064313814
19	0xbda7b8b4	-0.08189526
20	0xbdb7e142	-0.089785114
21	0xbd445bf6	-0.047939263
22	0x3c2c522a	0.010517636
23	0x3d4c5faf	0.04989594
24	0xbd841729	-0.0644973
25	0xbdc4ebf4	-0.09615317
26	0x3ce2c03d	0.027679557
27	0xbd870f19	-0.065946765
28	0xbd6c5977	-0.057702508
29	0x3ccb7a61	0.024838628
30	0x3d6f045e	0.058353774
31	0xbd874bce	-0.066062555
32	0x3d2d7a84	0.042353168
33	0xbd8e6adf	-0.06953978
34	0xbcc3bdfa	-0.023894299
35	0x3d00c52c	0.031438038
36	0x3bf15d55	0.0073658624
37	0x3d367f5b	0.04455505
38	0xbcbe19ff	-0.023205755
39	0x3bb6527f	0.0055640335
40	0x3d7b9fdd	0.061431754
41	0xbddaf882	-0.1069193
42	0xbd8a987f	-0.067673676
43	0x3d827ea0	0.06371808
44	0x3d4de1da	0.050264217
45	0xbd109fdd	-0.035308708
46	0x3d2a8ec6	0.041640066
47	0x3c180dfc	0.009280678
48	0x3d9059e7	0.070483975
49	0x3d7eb2ea	0.062182344
50	0xbd95e48c	-0.073189825
51	0xbdb53e36	-0.088497564
52	0xbd4fbb3c	-0.05071567
53	0x3c305d23	0.010764393
54	0x3bd5d5e1	0.0065257405
55	0xbcad7564	-0.02117414
56	0x3db55131	0.08853377
57	0xbce9bafb	-0.028531542
58	0xbdd2766f	-0.10276496
59	0xbc958de0	-0.018256128
60	0xbd754b9e	-0.059886567
61	0x3dcc4ec2	0.09975959
62	0xbd890f33	-0.06692352
63	0x3d158192	0.03650052
64	0x3d99da5d	0.075123526
65	0xbd38f3ab	-0.045154255
66	0x3cbaad58	0.022787735
67	0xbc878ef6	-0.016547661
68	0xbd4f6410	-0.050632536
69	0xbd8311bf	-0.06399869
70	0x3be9914a	0.0071279155
71	0xbc4ca43c	-0.012490328
72	0xbc3b521b	-0.01143315
73	0x3ddc5673	0.107586764
74	0x3c9ff49a	0.019525815
75	0xbd327292	-0.043566294
76	0xbd4ee139	-0.050507758
77	0xbce1d63e	-0.027567979
78	0xbcf87b70	-0.030332297
79	0xbd32ad5a	-0.043622352
80	0xbc8328e0	-0.016010702
81	0x3d086ce7	0.033306982
82	0xbd7c95ee	-0.06166642
83	0x3da31f5d	0.079649664
84	0xbd4e7538	-0.050404757
85	0x3bd39575	0.0064570257
86	0x3d17b23e	0.03703522
87	0x3c79915f	0.015232413
88	0xbd74fde4	-0.05981244
89	0x3db5d043	0.088776134
90	0xbc8fbe8a	-0.01754691
91	0x3d89836d	0.067145206
92	0x3d5f87f6	0.05457302
93	0xbcf3fe3d	-0.029784316
94	0xbcbe5802	-0.023235325
95	0x3cbeafc8	0.023277178
96	0xbd7d670c	-0.06186585
97	0xbd1cd249	-0.03828648
98	0x3c05e3d1	0.008171991
99	0xbd831d55	-0.06402079
100	0x3d9877aa	0.07444699
101	0xbd0b60e5	-0.034027953
102	0x3da53909	0.08067519
103	0x3dba1d58	0.09087628
104	0xbcbdf317	-0.023187203
105	0x3d3c34d3	0.045948815
106	0x3d54ed65	0.05198421
107	0x3c2219bf	0.009893834
108	0xbd3d0620	-0.04614842
109	0x3d6b03a9	0.057376537
110	0x3bbd7090	0.0057812408
111	0xbd8d74cb	-0.06907042
112	0x3b4c6cba	0.0031192736
113	0xbd048c8d	-0.032360602
114	0x3d9a6797	0.075392894
115	0xbc75795a	-0.014982546
116	0xbdaaa420	-0.083320856
117	0x3ca3578f	0.019939212
118	0x3cf9805b	0.030456712
119	0xbd0f3218	-0.034959882
120	0x3d91d616	0.07120912
121	0xbab04c63	-0.0013450499
122	0x3d9bd185	0.07608322
123	0x3be47522	0.006971971
124	0xbd3a2a99	-0.04545078
125	0x3da5c2bd	0.08093784
126	0x3d8841e0	0.0665319
127	0x3b20e393	0.0024549707
