models/ecoli_core_v4_metabolic_nn.pth (torch, 389589 bytes, 14 tensors)

model.0.weight f4 [256, 20]
0	0xbdfb6dc8	-0.122767985
1	0xbe810777	-0.25201008
2	0xbd3d0fbc	-0.046157584
3	0x3e4b85c2	0.19875243
4	0x3e074c9b	0.13212816
5	0xbcd402d4	-0.025880255
6	0x3de34a60	0.1109817
7	0x3d5ced53	0.053937268
8	0xbddc9de9	-0.107723065
9	0x3d360169	0.04443494
10	0x3e359388	0.1773206
11	0xbcb962e8	-0.02263017
12	0x3e53c5d0	0.20680928
13	0x3e6bed1e	0.23039672
14	0x3d0a61f1	0.03378481
15	0xbe15003b	-0.14550869
16	0x3d6e21c1	0.05813766
17	0x3d75a1d6	0.059968792
18	0x3dc659e4	0.09685114
19	0x3e615d0a	0.22008148
20	0x3da8cdf1	0.08242405
21	0x3e7976ed	0.24361773
22	0xbcf3c6ca	-0.029757876
23	0xbda489dd	-0.08034108
24	0xbe13a24a	-0.14417377
25	0xbd3c6795	-0.04599722
26	0x3d0cb263	0.03434981
27	0xbd89bd1d	-0.067255236
28	0x3d992330	0.074774146
29	0x3c03ffef	0.008056625
30	0xbd049d0c	-0.032376334
31	0x3bffcdd3	0.0078065186
32	0xbe2d8fc0	-0.16949368
33	0xbe259ff3	-0.16174297
34	0x3d84696f	0.06465422
35	0x3e0eb69b	0.13936846
36	0x3e566ce2	0.20939973
37	0xbe0b1273	-0.13581257
38	0xbbf80763	-0.00756924
39	0x3e1adbeb	0.15122955
40	0xbea9580d	-0.3307499
41	0xbe9f235f	-0.31081674
42	0x3d6470c6	0.05577161
43	0x3d156cf9	0.036480878
44	0x3e0dff1d	0.13866849
45	0x3d277ad7	0.040888634
46	0x3a0fd43c	0.00054866425
47	0xbc1baec3	-0.009502116
48	0xbc6dd5b9	-0.0145162875
49	0x3d75e694	0.06003435
50	0x3d2bfaf1	0.041987363
51	0xba083b38	-0.00051968126
52	0x3ca0c746	0.019626271
53	0x3ce3cd31	0.027807804
54	0xbe45e1d7	-0.19324432
55	0xbe111f0c	-0.14172
56	0x3e5a94a8	0.2134577
57	0x3dac22a3	0.08405044
58	0xbe379336	-0.1792725
59	0x3d9db68a	0.07700832
60	0xbe3fca70	-0.18729568
61	0xbb98ac6e	-0.004659227
62	0xbddbf9ad	-0.10740981
63	0x3db95f6d	0.09051404
64	0x3d92986f	0.07157981
65	0xbd2dcd25	-0.04243197
66	0xbe756f7c	-0.23968309
67	0xbe3b5d85	-0.18297394
68	0x3d1b344e	0.03789168
69	0xbd12f5a0	-0.035878778
70	0x3cb88f67	0.022529317
71	0x3b8bc28d	0.0042651356
72	0xbe04ff17	-0.12987934
73	0x3d0fac2d	0.03507631
74	0xbdbded8d	-0.09273825
75	0xbdf189b2	-0.117938414
76	0xbe1b5c97	-0.15172039
77	0x3e0cbad6	0.13743147
78	0x3d97649b	0.07392236
79	0xbcd1ec6d	-0.025625432
80	0xbea794ad	-0.32730618
81	0xbe2f5e1e	-0.17125747
82	0xbd32b060	-0.043625236
83	0xbdb131d5	-0.08652083
84	0xbcac7241	-0.021050574
85	0x3b7d15db	0.0038617763
86	0x3cf74263	0.030183023
87	0x3d70b4fc	0.05876635
88	0x3e0ad50a	0.1355783
89	0x3c34b08b	0.011028419
90	0x3e15ddf5	0.14635451
91	0xbd0305e2	-0.031988032
92	0x3d90aabd	0.07063816
93	0x3daa11d9	0.083041854
94	0xbdcfd2cb	-0.101476274
95	0x3e273fac	0.16332883
96	0x3e34bde6	0.17650566
97	0xbe4fc7fd	-0.20291133
98	0xbdbaeace	-0.09126817
99	0xbe343cfd	-0.1760139
100	0xbbca80a3	-0.0061798855
101	0x3d83f199	0.064425655
102	0xbdd69fca	-0.10479696
103	0x3b367afa	0.0027844296
104	0xbe1c7cc5	-0.15281971
105	0x3e712cb5	0.2355221
106	0x3e80316a	0.250377
107	0x3dd75483	0.10514166
108	0x3e3a006d	0.18164225
109	0xbdf4ede5	-0.11959437
110	0xbd6c62a6	-0.057711266
111	0xbcb3d0b9	-0.021950113
112	0x3d84bd4b	0.06481417
113	0xbe313efe	-0.17309186
114	0x3d8a53b0	0.067542434
115	0xbe339be2	-0.17539933
116	0x3e317102	0.17328265
117	0x3e3f1958	0.18662012
118	0x3e1f7478	0.15571773
119	0xbd474ded	-0.0486583
120	0x3db6906a	0.089142635
121	0x3dd4607f	0.10369968
122	0x3e3b7359	0.1830572
123	0x3d671b0f	0.05642229
124	0x3e33b42c	0.17549199
125	0xbdbe388d	-0.0928813
126	0x3dff74d5	0.12473456
127	0x3dc06db3	0.093959235
128	0x3c252267	0.010079003
129	0x3e51ac13	0.20475797
130	0x3d348a85	0.044077415
131	0x3cf73c6d	0.03018018
132	0x3e0d8887	0.13821612
133	0x3e19112d	0.14947958
134	0xbe45f015	-0.19329865
135	0xbd606142	-0.054780252
136	0x3dcb0ab7	0.09914153
137	0xbd3b4e53	-0.045728993
138	0x3e204a96	0.15653452
139	0xbe28d410	-0.16487145
140	0xbc8853f0	-0.016641587
141	0xbd042800	-0.03226471
142	0xbe54b6bc	-0.20772833
143	0x3b96f193	0.0046064346
144	0xbe0dcc99	-0.13847579
145	0x3d19fb00	0.037592888
146	0xbd9d14d0	-0.07669985
147	0x3dac0285	0.08398918
148	0xba07ae44	-0.0005175809
149	0x3e2d8d65	0.16948469
150	0xbd783004	-0.060592666
151	0xbbef9fef	-0.0073127667
152	0xbe635412	-0.22200039
153	0xbcd2ecf6	-0.025747757
154	0xbdbad2d3	-0.09122243
155	0x3d2390dc	0.03993307
156	0x3d7ede5e	0.062223785
157	0xbcad776a	-0.021175105
158	0x3e2396f4	0.15975553
159	0xbe305689	-0.1722051
160	0xbd25d6c0	-0.040488005
161	0xbe5dc5b7	-0.21657453
162	0x3de4c9cb	0.111713015
163	0x3e214981	0.15750696
164	0xbbd59d10	-0.0065189674
165	0x3e38e7ec	0.18057221
166	0x3db91fe2	0.09039284
167	0x3be66672	0.0070312554
168	0xbdcafae0	-0.09911132
169	0x3c5e9025	0.013584171
170	0x3bb05c2a	0.0053820806
171	0x3d652c61	0.055950526
172	0xbe2e4bab	-0.17021053
173	0x3d6b091d	0.057381738
174	0xbe1897b7	-0.14901625
175	0xbe2f6686	-0.17128953
176	0x3d4e928f	0.050432738
177	0xbe4d54fd	-0.20051952
178	0xbde03c44	-0.10948995
179	0xbd2e90c5	-0.04261853
180	0xbdd3ab1f	-0.10335373
181	0x3e22f7e2	0.15914872
182	0x3dac083c	0.08400008
183	0xbd0fe5bb	-0.035131197
184	0x3cf1bb81	0.029508354
185	0xbe290a64	-0.1650787
186	0xbe8a1f07	-0.26976797
187	0x3c3c4e10	0.011493221
188	0xbddad0c6	-0.106843516
189	0x3d935cac	0.0719541
190	0xbda7b303	-0.08188441
191	0x3d19f082	0.03758288
192	0xbd371362	-0.04469622
193	0xbea3ce6e	-0.3199343
194	0x3de5a957	0.1121394
195	0x3e3dd306	0.1853753
196	0x3e10b62d	0.14131995
197	0xbde7e5c2	-0.1132312
198	0xbe020b7f	-0.12699698
199	0xbd2f55af	-0.042806324
200	0x3dcfe466	0.101509854
201	0xbd724148	-0.05914429
202	0x3dcd96db	0.10038539
203	0x3d9fe4ea	0.07807334
204	0xbcb3fb71	-0.021970483
205	0xbe5e400b	-0.21704118
206	0x3e1857fb	0.14877312
207	0xbe11c168	-0.14233935
208	0x3ded9523	0.11600711
209	0xbd9644c4	-0.07337335
210	0x3e33cea6	0.17559299
211	0xbc6d12d5	-0.014469822
212	0xbe2ec121	-0.1706586
213	0xbe8ea035	-0.27856603
214	0xbde56cac	-0.11202368
215	0x3da165e9	0.07880766
216	0xbc9f021c	-0.019410186
217	0xbdb44224	-0.08801678
218	0xbd7d2b0f	-0.061808642
219	0x3e3aafdc	0.18231148
220	0x3e2db15d	0.1696219
221	0x3d1b00e4	0.037842646
222	0xbe3494f8	-0.17634952
223	0xbe4095d4	-0.18807155
224	0x3d2623dc	0.040561542
225	0x3e1f1f9d	0.15539403
226	0xbd66489a	-0.056221582
227	0x3e1c9c76	0.1529406
228	0xbe6316ae	-0.2217662
229	0xbe3a9aa6	-0.18223056
230	0xbe27a2f2	-0.16370752
231	0xbd2300f5	-0.039795835
232	0x3e46a20e	0.19397756
233	0x3e56051b	0.20900385
234	0xbdd27c80	-0.10277653
235	0xbe53d165	-0.20685346
236	0x3d55762d	0.052114654
237	0xbd261434	-0.04054661
238	0xbe53b114	-0.20673019
239	0xbe081c7e	-0.13292119
240	0x389c6d08	7.458968e-05
241	0x3d93bf03	0.07214167
242	0x3dcf049d	0.10108302
243	0x3d94161a	0.07230778
244	0x3e2a40b2	0.16626242
245	0x3dda8bfb	0.106712304
246	0x3e0817ef	0.1329038
247	0x3d7f4429	0.062320862
248	0x3e151831	0.1456001
249	0xbd2e7b02	-0.04259778
250	0x3e30ad7c	0.17253679
251	0xbdc4a394	-0.096015126
252	0xbe84b2ce	-0.25917667
253	0x3d05407a	0.032532193
254	0xbe34a4f8	-0.17641056
255	0x3e2ff4a9	0.17183174

model.0.bias f4 [256]
0	0xbc7168a7	-0.014734424
1	0x3d89c665	0.06727294
2	0xbe57f0d9	-0.2108797
3	0xbc47edc6	-0.012202686
4	0x3e26bb68	0.16282427
5	0x3e5bc141	0.2146044
6	0x3e47322e	0.19452736
7	0xbe3ba1bf	-0.1832342
8	0xbe3af051	-0.18255736
9	0x3cc644f0	0.024202794
10	0x3c63cdab	0.0139040155
11	0x3dab8f26	0.08376913
12	0x3e1fd9ab	0.15610377
13	0xbc1d2c9e	-0.009593157
14	0x3da9904a	0.08279474
15	0x3e5c0ef0	0.21490073
16	0x3e225813	0.1585391
17	0x3dfdd488	0.12394053
18	0x3e14ae11	0.14519526
19	0x3e64980a	0.22323623
20	0xbe205f82	-0.15661433
21	0xbe14edb8	-0.14543808
22	0xbda066eb	-0.0783213
23	0xbe474946	-0.19461545
24	0x3d6b1922	0.057397015
25	0x3dd1d293	0.10245242
26	0xbd49de8a	-0.049284495
27	0xbcfa9550	-0.030588776
28	0x3e594207	0.21216594
29	0x3e13b30d	0.14423771
30	0xbdf51a86	-0.119679496
31	0x3c7c8ef7	0.015414945
32	0xbd794636	-0.060857974
33	0xbd348dc1	-0.0440805
34	0x3dab5047	0.08364921
35	0xbe125902	-0.14291766
36	0x3e3582c9	0.17725672
37	0x3cb0c0e1	0.021576347
38	0x3d9df802	0.07713319
39	0xbd65e80f	-0.05612951
40	0xbe188c65	-0.14897306
41	0xbe3d9c2b	-0.18516605
42	0xbda7a382	-0.081854835
43	0xbd9ae5c9	-0.07563359
44	0x3d7f5a79	0.06234214
45	0x3e3f8351	0.18702437
46	0x3e417b1d	0.1889462
47	0x3c12dc63	0.008963677
48	0x3d319887	0.043358352
49	0xbe00168a	-0.12508598
50	0x3d502ae2	0.050822146
51	0xbe514795	-0.20437463
52	0x3c14d3a5	0.009083663
53	0xbe4ce10e	-0.20007727
54	0xbe1fc293	-0.15601568
55	0x3df143d2	0.11780514
56	0x3c12ba4f	0.008955552
57	0xbd821458	-0.063515365
58	0xbe4661b8	-0.19373214
59	0xbda4d3a8	-0.08048183
60	0x3e093153	0.13397722
61	0xbda9595b	-0.08268996
62	0x3b0a248b	0.002107891
63	0xbce7fda4	-0.028319187
64	0xbe0947f0	-0.13406348
65	0x3da1c8f5	0.07899658
66	0x3d954d85	0.07290176
67	0x3e01cbcb	0.12675397
68	0xbe365289	-0.17804922
69	0xbd99f90d	-0.07518206
70	0xbdf473fb	-0.11936184
71	0x3d97680b	0.073928915
72	0x3d4c4861	0.049873713
73	0xbd087134	-0.033311084
74	0x3dcc933e	0.09989022
75	0x3e232e8e	0.15935728
76	0xbc885972	-0.016644213
77	0xbdb21d00	-0.086969376
78	0xbdd0c1ba	-0.101932004
79	0xbd79d92f	-0.060998138
80	0x3e0f12cd	0.13972016
81	0xbe409a1c	-0.18808788
82	0xbd48c108	-0.049012214
83	0xbd1629f0	-0.03666109
84	0xbd21cd01	-0.039502148
85	0x3de3031d	0.11084578
86	0x3e6429cd	0.2228157
87	0x3e481415	0.1953891
88	0x3e159c42	0.14610389
89	0xbdf8e409	-0.12152869
90	0x3d79df7c	0.061004147
91	0xbdbc530e	-0.09195529
92	0x3e5fa5e7	0.2184063
93	0x3c75fff3	0.015014636
94	0xbdd3557d	-0.1031904
95	0x3d28acd9	0.041180465
96	0x3e28c5f1	0.16481759
97	0xbd652019	-0.055938814
98	0xbdf6edb5	-0.12057058
99	0x3e0c3372	0.136915
100	0x3e34d6d0	0.1766007
101	0x3dcf5562	0.10123707
102	0x3dd3c2c9	0.10339887
103	0x3d6f11b5	0.058366496
104	0xbe55b005	-0.20867927
105	0xbe1824a2	-0.14857724
106	0xbdf5c92e	-0.120012626
107	0xbe357356	-0.17719778
108	0xbe43211c	-0.19055599
109	0x3e15c8fc	0.1462745
110	0xbe54a4c4	-0.20765978
111	0xbdf78481	-0.1208582
112	0x3e1fe2a3	0.15613799
113	0xbe082b04	-0.13297659
114	0xbdcc6b17	-0.09981363
115	0xbd21ae86	-0.03947308
116	0xbd07502d	-0.033035446
117	0x3e0e5589	0.13899817
118	0x3dd38b71	0.10329331
119	0x3e4390f7	0.19098268
120	0x3c8238b6	0.015896183
121	0x3e041ee4	0.12902409
122	0xbd35dc67	-0.044399645
123	0xbd4412cb	-0.047869485
124	0x3e111868	0.14169466
125	0xbe278f52	-0.16363266
126	0x3e294800	0.16531372
127	0x3ccf218c	0.025284551
128	0xbc8394fa	-0.016062248
129	0xbe08c210	-0.13355279
130	0x3dd30991	0.10304559
131	0xbc318eef	-0.010837301
132	0x3dbea23c	0.093082875
133	0x3df77aa7	0.12083941
134	0x3e1b773f	0.15182208
135	0xbe54c349	-0.2077762
136	0x3e4912ad	0.1963603
137	0xbdfe4b25	-0.124166764
138	0x3da37364	0.079809934
139	0xbe2403e2	-0.16017106
140	0x3a3a053a	0.0007096116
141	0xbd8f0bf4	-0.06984702
142	0xbe2e3c4a	-0.17015186
143	0x3d851794	0.06498638
144	0x3c9046e6	0.017611932
145	0xbd0ed3fe	-0.03487014
146	0xbe02542e	-0.12727425
147	0x3e55e307	0.20887385
148	0x3d4ee429	0.05051056
149	0x3e239c88	0.1597768
150	0x3e406e81	0.18792154
151	0x3cb8272a	0.022479612
152	0x3e3d5da1	0.18492748
153	0xbe42b7f9	-0.19015492
154	0xbe426b1f	-0.18986176
155	0xbe3c0825	-0.18362482
156	0xbcd3eea0	-0.025870621
157	0xbdf8186d	-0.12114034
158	0xbd881817	-0.0664522
159	0x3dd3051c	0.10303709
160	0xbda3622e	-0.07977711
161	0xbe0d7ad9	-0.13816394
162	0xbd701731	-0.058615867
163	0x3e14758e	0.14497969
164	0xbe334306	-0.17506036
165	0xbe620c35	-0.22074969
166	0x3db8cf1f	0.0902388
167	0x3d9da8f6	0.07698242
168	0xbe5616f9	-0.20907201
169	0x3e152b80	0.14567375
170	0xbe16820d	-0.14698048
171	0xbd0e041c	-0.034671888
172	0x3dfd0008	0.123535216
173	0x3e0b2cd3	0.13591318
174	0x3e32362e	0.1740348
175	0x3e4e4536	0.2014359
176	0xbdbb65b4	-0.09150258
177	0xbd5cfe4f	-0.053953465
178	0xbe0a3c8f	-0.13499664
179	0x3e0391cd	0.12848587
180	0xbdbf9ee0	-0.09356475
181	0x3d8f3be7	0.06993847
182	0xbcc81672	-0.024424765
183	0x3e4b021c	0.19825023
184	0x3d791bf0	0.06081766
185	0xbbceb13d	-0.0063077495
186	0x3d183277	0.037157502
187	0xbe3b80f8	-0.18310916
188	0x3dc69551	0.096964486
189	0xb664c9dd	-3.4092147e-06
190	0x3d93a7cb	0.07209738
191	0xbd5b4d55	-0.053540546
192	0xbe150c82	-0.14555553
193	0xbd4b875c	-0.049689636
194	0xbdf4ef82	-0.11959745
195	0xbd137fe7	-0.03601065
196	0xbe271b28	-0.16318953
197	0xbe3474c2	-0.17622665
198	0x3e3d7ff4	0.18505841
199	0xbe4a16bd	-0.19735236
200	0x3c0ec15c	0.008713093
201	0x3e26f961	0.16306068
202	0xbe0449fd	-0.1291885
203	0xbce32bd9	-0.02773087
204	0xbe0b7b0a	-0.13621154
205	0x3e43c1b6	0.19116864
206	0xbde340cb	-0.11096343
207	0xbda0baac	-0.07848105
208	0x3e12234c	0.14271277
209	0xbddc930a	-0.10770233
210	0x3e0f42ec	0.13990372
211	0x3e057508	0.13032925
212	0x3e2975eb	0.16548888
213	0xbe0dcc76	-0.13847527
214	0xbdeedc27	-0.116630845
215	0xbdf0fb5e	-0.117666945
216	0x3e0f73bc	0.14008993
217	0x3dd40afb	0.10353657
218	0x3c5c3270	0.01343976
219	0xbcb34082	-0.021881346
220	0x3e52e10f	0.20593666
221	0xbe000d9e	-0.12505195
222	0x3e1dc18a	0.1540586
223	0xbda6adc9	-0.08138616
224	0x3e3a54c5	0.181964
225	0xbe199853	-0.14999513
226	0xbe325b04	-0.17417532
227	0xbe3392ca	-0.17536464
228	0xbe25a11e	-0.16174743
229	0x3e5c122c	0.21491307
230	0xbc35cd59	-0.011096322
231	0xbd8403e4	-0.064460546
232	0xbd25f9c4	-0.0405214
233	0xbe445e0d	-0.19176503
234	0xbda9cf57	-0.082915
235	0xbdc93154	-0.09823862
236	0xbd920869	-0.0713051
237	0x3e2faa5c	0.1715483
238	0xbdb2f9f3	-0.0873908
239	0x3e518c74	0.20463735
240	0x3daf6aaa	0.085652664
241	0x3db022c4	0.08600381
242	0x3e268349	0.16261019
243	0xbe22282a	-0.15835634
244	0xbe1d8f33	-0.15386657
245	0xbd5888cb	-0.05286483
246	0xbe12c2f1	-0.14332177
247	0x3e4cd210	0.20002007
248	0xbdb7023a	-0.089359716
249	0xbbb96529	-0.005657811
250	0xbd6e1901	-0.058129314
251	0x3d4eca97	0.050486173
252	0x3c245d27	0.010031975
253	0x3e264b45	0.1623965
254	0x3da4b4e0	0.08042312
255	0x3df07d9a	0.117427066

model.1.weight f4 [256]
0	0x3f796f0d	0.97435075
1	0x3f824de7	1.0180024
2	0x3f90cb12	1.1311972
3	0x3f7cea60	0.9879513
4	0x3f801617	1.0006741
5	0x3f7cd3fe	0.98760974
6	0x3f821468	1.0162477
7	0x3f80bf28	1.0058336
8	0x3f79cd74	0.9757912
9	0x3f7f34d2	0.9968997
10	0x3f726b7f	0.94695276
11	0x3f80b8df	1.0056418
12	0x3f7f5a2d	0.9974697
13	0x3f823f1c	1.017551
14	0x3f870fea	1.0551732
15	0x3f759174	0.9592507
16	0x3f718979	0.9435039
17	0x3f8ca2a5	1.0987135
18	0x3f8603f4	1.0469956
19	0x3f8ab887	1.0837563
20	0x3f72460b	0.9463813
21	0x3f78534d	0.97002107
22	0x3f8d32af	1.1031092
23	0x3f5dba4d	0.866124
24	0x3f6a28f7	0.9146876
25	0x3f84844d	1.0352875
26	0x3f6abb62	0.91692173
27	0x3f8a6d6a	1.081464
28	0x3f8085d3	1.004084
29	0x3f6c27fe	0.92248523
30	0x3f73e3d1	0.95269495
31	0x3f7d8f3c	0.99046683
32	0x3f8a2a6f	1.07942
33	0x3f776240	0.9663429
34	0x3f7f8235	0.99808055
35	0x3f812316	1.0088832
36	0x3f811fbe	1.0087812
37	0x3f7a0931	0.97670275
38	0x3f802bb4	1.0013337
39	0x3f779564	0.96712327
40	0x3f815fed	1.0107399
41	0x3f7e6c2d	0.99383813
42	0x3f73cef9	0.9523769
43	0x3f7eb214	0.99490476
44	0x3f739922	0.9515554
45	0x3f7c2425	0.9849265
46	0x3f923655	1.1422831
47	0x3f727c68	0.9472108
48	0x3f856c4f	1.0423678
49	0x3f72eda1	0.9489384
50	0x3f735801	0.9505616
51	0x3f760110	0.9609537
52	0x3f6d5a15	0.9271558
53	0x3f7a6db2	0.9782363
54	0x3f669890	0.9007654
55	0x3f80c929	1.0061389
56	0x3f786738	0.970325
57	0x3f79602a	0.9741236
58	0x3f6b8413	0.91998404
59	0x3f7dd6ca	0.9915587
60	0x3f949d43	1.1610492
61	0x3f76d3a9	0.9641672
62	0x3f811490	1.00844
63	0x3f6e6855	0.9312795
64	0x3f72c213	0.94827384
65	0x3f7336ab	0.9500529
66	0x3f726456	0.9468435
67	0x3f698e8e	0.91233146
68	0x3f74576a	0.95445883
69	0x3f74de1f	0.9565143
70	0x3f724973	0.94643325
71	0x3f76e531	0.9644347
72	0x3f7d1c4c	0.988713
73	0x3f743926	0.953997
74	0x3f870947	1.0549706
75	0x3f78178a	0.9691092
76	0x3f6b354d	0.91878206
77	0x3f7fd6ec	0.9993732
78	0x3f77bcb0	0.9677229
79	0x3f785be3	0.9701521
80	0x3f6cebe0	0.92547417
81	0x3f7aee15	0.98019534
82	0x3f756ae1	0.9586621
83	0x3f7bb5ae	0.98324096
84	0x3f7c6f79	0.98607594
85	0x3f7f686c	0.9976871
86	0x3f7c2ebf	0.9850883
87	0x3f6c07aa	0.92199194
88	0x3f776981	0.9664536
89	0x3f7d9c96	0.99067056
90	0x3f741c57	0.95355743
91	0x3f755765	0.9583648
92	0x3f7d8a83	0.9903948
93	0x3f8220c2	1.0166247
94	0x3f8278df	1.0193137
95	0x3f81bea7	1.0136307
96	0x3f8a7975	1.0818316
97	0x3f7b4e91	0.9816676
98	0x3f8b5a2a	1.0886891
99	0x3f740195	0.95314914
100	0x3f875050	1.0571384
101	0x3f791d62	0.9731046
102	0x3f826f74	1.0190263
103	0x3f71cce2	0.9445325
104	0x3f9bc0a6	1.2168167
105	0x3f7984e3	0.97468394
106	0x3f882ff8	1.0639639
107	0x3f7a47ba	0.97765696
108	0x3f714ecb	0.94260854
109	0x3f81ed08	1.0150461
110	0x3f887caa	1.0663044
111	0x3f767ef5	0.9628747
112	0x3f7f405b	0.99707574
113	0x3f7785cd	0.9668854
114	0x3f6f9088	0.9357991
115	0x3f761154	0.9612019
116	0x3f89d2e0	1.0767479
117	0x3f7402e1	0.9531689
118	0x3f788113	0.9707195
119	0x3f88807b	1.0664209
120	0x3f72614c	0.94679713
121	0x3f77c2a5	0.9678138
122	0x3f92895f	1.1448172
123	0x3f83970b	1.028047
124	0x3f75ff02	0.96092236
125	0x3f758a57	0.95914215
126	0x3f8f3223	1.1187176
127	0x3f6f0c67	0.933783
128	0x3f760619	0.96103054
129	0x3f810bf4	1.0081773
130	0x3f736c3a	0.95087016
131	0x3f5b346d	0.8562687
132	0x3f8662ca	1.0498898
133	0x3f7af177	0.98024696
134	0x3f80320d	1.0015274
135	0x3f80e435	1.0069643
136	0x3f75d114	0.9602215
137	0x3f6fdba3	0.93694514
138	0x3f7ec164	0.9951384
139	0x3f7ba732	0.98301995
140	0x3f80b768	1.0055971
141	0x3f5c4d7f	0.8605575
142	0x3f87c887	1.0608071
143	0x3f82a977	1.0207967
144	0x3f7c0ffa	0.9846188
145	0x3f77fec2	0.96873105
146	0x3f56e030	0.8393583
147	0x3f7c72c8	0.9861264
148	0x3f7f8113	0.99806327
149	0x3f75ac77	0.95966285
150	0x3f80975c	1.0046191
151	0x3f84d223	1.0376629
152	0x3f7003ad	0.9375561
153	0x3f78e473	0.97223586
154	0x3f6f8fae	0.9357861
155	0x3f68a9e0	0.9088421
156	0x3f6e7a03	0.93154925
157	0x3f80b157	1.005412
158	0x3f7fe977	0.99965614
159	0x3f80948a	1.004533
160	0x3f8565ce	1.0421693
161	0x3f7b47c1	0.9815636
162	0x3f88d81e	1.0690954
163	0x3f809328	1.0044909
164	0x3f7d0c74	0.98847127
165	0x3f92e80b	1.1477064
166	0x3f79b532	0.9754211
167	0x3f84fa8c	1.0388961
168	0x3f7efb75	0.9960244
169	0x3f8309a3	1.0237316
170	0x3f7ea9a2	0.9947759
171	0x3f8988bf	1.0744857
172	0x3f6bd4bf	0.921215
173	0x3f7827d1	0.96935755
174	0x3f844d18	1.0336027
175	0x3f78dfc6	0.9721645
176	0x3f7de202	0.99172986
177	0x3f806b1e	1.003269
178	0x3f71f2d8	0.94511175
179	0x3f71b4d9	0.94416577
180	0x3f71da39	0.94473606
181	0x3f83b64a	1.0290005
182	0x3f78b671	0.97153383
183	0x3f80edaf	1.0072535
184	0x3f77f148	0.9685254
185	0x3f6c3eaa	0.9228312
186	0x3f85f37b	1.0464929
187	0x3f7ea3a1	0.9946843
188	0x3f7414f1	0.95344454
189	0x3f66f838	0.902225
190	0x3f7a1b32	0.97697747
191	0x3f72aa08	0.947907
192	0x3f810d9b	1.0082277
193	0x3f804ecb	1.0024046
194	0x3f70cdb7	0.94063896
195	0x3f7f7682	0.99790204
196	0x3f7d7486	0.99005926
197	0x3f8b63e8	1.0889864
198	0x3f760bcb	0.96111745
199	0x3f775309	0.96611077
200	0x3f7b487d	0.98157483
201	0x3f8430e5	1.0327421
202	0x3f79b497	0.97541183
203	0x3f82adcb	1.0209287
204	0x3f7d711f	0.99000734
205	0x3f7830c2	0.969494
206	0x3f7ae2e6	0.9800247
207	0x3f6f1d65	0.9340423
208	0x3f8c882b	1.0979055
209	0x3f810223	1.0078777
210	0x3f7df75d	0.9920557
211	0x3f8338ca	1.0251706
212	0x3f7b81fd	0.9824522
213	0x3f7f0219	0.99612576
214	0x3f6e8042	0.93164456
215	0x3f8645cc	1.049005
216	0x3f8117a3	1.0085338
217	0x3f769b23	0.9633047
218	0x3f828a59	1.019847
219	0x3f76ab67	0.9635529
220	0x3f84cb40	1.0374527
221	0x3f7d40f4	0.98927236
222	0x3f6e04a5	0.92975837
223	0x3f72de13	0.9487011
224	0x3f7f5b0e	0.99748313
225	0x3f7a3908	0.9774327
226	0x3f7511ba	0.95730174
227	0x3f731c3c	0.9496496
228	0x3f73ebd4	0.9528172
229	0x3f7706b4	0.96494603
230	0x3f77c069	0.9677797
231	0x3f7893b9	0.97100407
232	0x3f82af68	1.020978
233	0x3f8d53af	1.1041163
234	0x3f80175d	1.000713
235	0x3f87f9be	1.062309
236	0x3f6d9e0d	0.9281929
237	0x3f83c83f	1.0295485
238	0x3f7a609c	0.97803664
239	0x3f6ffc1a	0.9374405
240	0x3f7f46be	0.9971732
241	0x3f713712	0.94224656
242	0x3f7d3cc0	0.9892082
243	0x3f83c88e	1.029558
244	0x3f8155f4	1.0104356
245	0x3f800737	1.0002202
246	0x3f849f3f	1.0361098
247	0x3f7c2a8f	0.9850244
248	0x3f77943b	0.96710557
249	0x3f6bd8e3	0.9212782
250	0x3f82767e	1.0192411
251	0x3f80a67f	1.005081
252	0x3f75ce8b	0.96018285
253	0x3f9c8e33	1.2230896
254	0x3f76c175	0.9638894
255	0x3f7637a4	0.9617865

model.1.bias f4 [256]
0	0x3dd806e7	0.105481915
1	0x3d934cd8	0.07192391
2	0xbea54698	-0.3228042
3	0x3d852192	0.06500544
4	0x3c30462c	0.010758918
5	0x3e824c0c	0.25448644
6	0x3d58942c	0.052875683
7	0x3d517b1e	0.051142804
8	0xba09f484	-0.0005262571
9	0x3c9a9bc9	0.018873112
10	0x3cb369ba	0.021901
11	0x3e1664b9	0.1468686
12	0x3d20aa42	0.03922487
13	0x3d55e84c	0.05222349
14	0x3da440d4	0.080201775
15	0x3cabca37	0.020970447
16	0x3d408728	0.047003895
17	0x3d83c4d6	0.06434028
18	0x3c939584	0.01801563
19	0xbd4f6f3e	-0.0506432
20	0x3d5e1881	0.054222587
21	0x3d9512c6	0.072789714
22	0x3b821aa5	0.0039704614
23	0x3d80b494	0.062844425
24	0x3d82ef20	0.06393266
25	0xbe5bafaa	-0.2145373
26	0x3d97ec9f	0.07418179
27	0xbd9664f6	-0.073434755
28	0xbcdc4297	-0.026887221
29	0x3db0d143	0.086336635
30	0x3b9218d8	0.004458528
31	0x3d3f29a8	0.046670586
32	0xbda133bd	-0.078711964
33	0x3d93dd43	0.07219937
34	0x3c87e170	0.01658699
35	0x3d4458f6	0.047936402
36	0x3d8b3606	0.067974135
37	0x3c810cd2	0.015753184
38	0x3d6ebfae	0.05828827
39	0x3d6bdd97	0.05758437
40	0x3c9ddae1	0.019269409
41	0x3d6b5102	0.057450302
42	0x3dbe4295	0.09290043
43	0x3da0b716	0.07847421
44	0x3d6d8e45	0.057997007
45	0xbc3cd67d	-0.011525747
46	0x3e02387b	0.12716858
47	0x3dcd26bf	0.10017156
48	0xbc8f8bb6	-0.017522674
49	0x3d947b16	0.07250039
50	0x3cb1aac0	0.021687865
51	0x3d2f2806	0.04276278
52	0x3dba5867	0.09098893
53	0x3d70f228	0.05882469
54	0x3deeda0e	0.116626844
55	0x3d274a53	0.040842365
56	0x3d652997	0.055947866
57	0x3d99569f	0.07487225
58	0x3e4a1aa2	0.19736722
59	0x3d4ac260	0.049501777
60	0xbe6af505	-0.2294503
61	0x3d1fb2c1	0.038988832
62	0x3c7f497e	0.015581487
63	0x3d5e4854	0.054268196
64	0x3d87506d	0.06607137
65	0x3d4ef53d	0.050526846
66	0x3d384dcc	0.044996068
67	0x3d4fd5cb	0.050741
68	0x3d1a5303	0.037676822
69	0x3d5db43a	0.054126956
70	0xbcc54697	-0.024081511
71	0x3d867da4	0.06566933
72	0x3d907677	0.070538454
73	0x3e14e797	0.1454147
74	0x3e56a8c9	0.20962824
75	0x3d8b95a1	0.06815649
76	0x3d65add9	0.056073997
77	0x3d79a6cb	0.06095008
78	0xbb7c01b0	-0.0038453154
79	0x3dac9f74	0.08428851
80	0x3d4cdc40	0.050014734
81	0x3db7545c	0.08951637
82	0x3d92fb67	0.071768574
83	0x3d918b35	0.0710663
84	0x3d2845ec	0.041082308
85	0x3e06a82f	0.13150094
86	0x3cfcc2fa	0.03085469
87	0x3daca9c1	0.084308155
88	0x3d98ff3d	0.07470558
89	0x3cce8993	0.025212085
90	0x3d0f4a00	0.03498268
91	0x3c98d395	0.018655578
92	0x3d0e2fcf	0.034713563
93	0x3dc07e21	0.09399057
94	0x3d6aa5bd	0.057286967
95	0x3cda21c0	0.026627421
96	0xbcea6bf3	-0.028615927
97	0xbd17f433	-0.03709812
98	0xbe1f5ca5	-0.15562685
99	0x3e541772	0.20712069
100	0x3bc3206c	0.0059547927
101	0x3c5dc226	0.013535058
102	0x3d29f2c6	0.041491292
103	0x3d98ef58	0.07467526
104	0xbe351359	-0.17683162
105	0x3e661f97	0.22472988
106	0xbe1206f4	-0.14260465
107	0x3d326ced	0.04356091
108	0x3dd48c86	0.10378365
109	0xbc3469ce	-0.011011554
110	0xbd5960b1	-0.053070728
111	0x3d85a5d9	0.065257736
112	0x3d37cc29	0.044872437
113	0xbb9017f1	-0.0043973853
114	0x3db7ed3e	0.08980797
115	0x3d441ae4	0.047877207
116	0xbe3fda94	-0.18735725
117	0x3c6cfecb	0.014465044
118	0x3dd4f8c1	0.103990085
119	0xbe27e627	-0.1639639
120	0x3d8ec7e4	0.0697172
121	0x3e0dd7d7	0.13851868
122	0xbe995ed0	-0.2995515
123	0xbc6760bc	-0.014122184
124	0x3d0a862b	0.03381936
125	0x3d9593ad	0.073035575
126	0xbd3b1c2c	-0.045681164
127	0x3da35727	0.07975607
128	0xbd8e5aa4	-0.06950882
129	0x3db04687	0.08607202
130	0x3d0bc97e	0.034127705
131	0x3dde48b5	0.108537115
132	0xbdc7470c	-0.09730348
133	0x3be04adb	0.006844861
134	0x3d8dbf0d	0.06921206
135	0x3b984ac1	0.0046475832
136	0x3cecdc6d	0.028913701
137	0x3d4efd2d	0.050534416
138	0x3d68e3fe	0.056858055
139	0x3d4095aa	0.04701773
140	0x3cde16c9	0.027110474
141	0x3d9581e9	0.07300169
142	0xbed3d481	-0.41373065
143	0x3d4a041c	0.049320325
144	0x3db30773	0.08741655
145	0x3d9c1a0a	0.07622154
146	0x3c835311	0.01603082
147	0x3cfa05f3	0.030520415
148	0x3ce27a73	0.027646279
149	0x3de418ed	0.11137567
150	0x3d67466a	0.056463636
151	0xbe2fa264	-0.17151791
152	0x3dc72d21	0.097254045
153	0x3dabf99a	0.08397217
154	0xbc482011	-0.0122146765
155	0x3e1889f4	0.14896375
156	0x3d892489	0.06696422
157	0x3a574bec	0.00082129124
158	0xbd5ae316	-0.053439222
159	0x3c52a54e	0.0128567945
160	0xbc99ba9c	-0.01876574
161	0x3d44fb85	0.04809143
162	0xbd966a0c	-0.073444456
163	0x3d8702d6	0.06592338
164	0x3e0a415a	0.13501492
165	0xbe72282e	-0.2364814
166	0x3ccb1711	0.024791272
167	0xbe1b5406	-0.15168771
168	0xbdcab2ac	-0.0989736
169	0x3d422616	0.047399603
170	0x3bf26ca2	0.007398204
171	0x3e4158d2	0.18881539
172	0x3dcb2762	0.09919621
173	0x3d835046	0.06411795
174	0x39b91200	0.0003529936
175	0x3d7072d8	0.058703274
176	0x3da8a45e	0.082344756
177	0x3db2b278	0.087254465
178	0x3d212da8	0.03935018
179	0x3d7a05b8	0.06104061
180	0x3d80d0cd	0.062898256
181	0x3c336179	0.010948532
182	0xbcd8239a	-0.026384164
183	0x3db5e029	0.08880646
184	0x3d01d3a6	0.031695984
185	0x3dcfe1b6	0.10150473
186	0xbd830f8a	-0.06399448
187	0xbe6e584f	-0.23275875
188	0x3da82b77	0.08211415
189	0x3d00bdff	0.031431194
190	0x3d80bc33	0.06285896
191	0x3e1c6462	0.15272668
192	0x3db586c6	0.088635966
193	0x3c8eb0ea	0.017418344
194	0x3d480718	0.04883489
195	0x3dd32fde	0.10311864
196	0x3d8f1eb9	0.06988282
197	0x3e3d074b	0.18459813
198	0x3ca78903	0.020451074
199	0x3c213d38	0.009841256
200	0x3da9ff67	0.08300667
201	0x3c84bb58	0.016202614
202	0xbe13167a	-0.14364043
203	0x3c93de48	0.018050328
204	0x3d8ce211	0.06879056
205	0x3d6267db	0.055274826
206	0x3dfe7c30	0.12426031
207	0x3dad654c	0.084665865
208	0xbe31c757	-0.17361198
209	0x3e06391e	0.13107726
210	0x3dab55b6	0.083659574
211	0x3db4f241	0.08835269
212	0xbd13ce2a	-0.036085285
213	0x3cd9bd7d	0.026579613
214	0x3d9adb9d	0.07561419
215	0xbcc6c202	-0.024262432
216	0xbc00a569	-0.007851937
217	0x3db84bac	0.08998808
218	0x3e450a9b	0.19242327
219	0x3d9ee493	0.07758441
220	0x3d4e12e9	0.050311003
221	0x3d4d966f	0.050192293
222	0x3dafafec	0.08578476
223	0x3de7165e	0.11283563
224	0x3ce5aa35	0.028035263
225	0x3dd6b654	0.10483995
226	0x3c529afe	0.012854336
227	0x3e0d8258	0.13819253
228	0x3e123655	0.14278539
229	0x3dfb0a9a	0.122578815
230	0x3dbae971	0.09126557
231	0x3cca647f	0.024706123
232	0x3e161b95	0.14658959
233	0x3eaadbd8	0.33370852
234	0x3d5af13b	0.05345271
235	0x3d978d5c	0.07400009
236	0x3c6de4a2	0.014519842
237	0x3dbd7ac1	0.09251929
238	0x3ba843ec	0.00513505
239	0x3d8411e6	0.06448726
240	0x3c52d5b9	0.012868338
241	0x3d3377e9	0.043815527
242	0x3d828e20	0.063747644
243	0xbd14753e	-0.036244623
244	0xbaef1954	-0.0018241801
245	0x3dcf8aa8	0.101338685
246	0x3da536a7	0.08067065
247	0x3d6b8688	0.057501346
248	0x3dc7df8d	0.09759436
249	0x3e11a5b6	0.1422337
250	0x3d6dba8f	0.058039244
251	0x3d64e840	0.055885553
252	0x3d8b4241	0.06799746
253	0xbeda84c3	-0.42679414
254	0x3cc7b23b	0.02437698
255	0x3d7e23cf	0.06204587

model.1.running_mean f4 [256]
0	0xbc715ea1	-0.014732034
1	0x3d89c763	0.06727483
2	0xbe57ee20	-0.21086931
3	0xbc47f2a8	-0.01220385
4	0x3e26ba4b	0.16282003
5	0x3e5bc5ce	0.21462175
6	0x3e4733fc	0.19453424
7	0xbe3ba1fc	-0.18323511
8	0xbe3af04b	-0.18255727
9	0x3cc63bcb	0.024198433
10	0x3c63cfa9	0.0139044905
11	0x3dab903d	0.08377121
12	0x3e1fda43	0.15610604
13	0xbc1d1cc2	-0.009589376
14	0x3da98f52	0.08279289
15	0x3e5c0e92	0.21489933
16	0x3e2257a1	0.1585374
17	0x3dfdd7d3	0.12394681
18	0x3e14adbd	0.14519401
19	0x3e649957	0.2232412
20	0xbe205f74	-0.15661412
21	0xbe14edcf	-0.14543842
22	0xbda06993	-0.07832637
23	0xbe47497a	-0.19461623
24	0x3d6b16f7	0.057394948
25	0x3dd1c959	0.10243482
26	0xbd49e032	-0.049286075
27	0xbcfa83b0	-0.030580372
28	0x3e5941b3	0.21216469
29	0x3e13b2bd	0.14423652
30	0xbdf519e3	-0.11967828
31	0x3c7c8490	0.015412465
32	0xbd794cc8	-0.06086424
33	0xbd348dd2	-0.044080563
34	0x3dab5164	0.083651334
35	0xbe12590c	-0.14291781
36	0x3e358328	0.17725813
37	0x3cb0c1c4	0.02157677
38	0x3d9df637	0.077129774
39	0xbd65e828	-0.056129605
40	0xbe188c8b	-0.14897363
41	0xbe3d9be8	-0.18516505
42	0xbda7a216	-0.08185212
43	0xbd9ae727	-0.0756362
44	0x3d7f5aeb	0.062342566
45	0x3e3f82f3	0.18702297
46	0x3e417d42	0.18895438
47	0x3c12d3d3	0.008961636
48	0x3d3192c5	0.04335286
49	0xbe00170a	-0.12508789
50	0x3d502ab3	0.05082197
51	0xbe51488f	-0.20437835
52	0x3c14db95	0.009085556
53	0xbe4ce176	-0.20007882
54	0xbe1fc2d6	-0.15601668
55	0x3df14422	0.117805734
56	0x3c12c17e	0.008957265
57	0xbd8212da	-0.06351252
58	0xbe466118	-0.19372976
59	0xbda4d491	-0.08048356
60	0x3e092b22	0.1339536
61	0xbda956c9	-0.08268506
62	0x3b09fb54	0.0021054344
63	0xbce8024b	-0.028321406
64	0xbe09488d	-0.13406582
65	0x3da1c71c	0.07899305
66	0x3d954e1e	0.0729029
67	0x3e01cbff	0.12675475
68	0xbe36530f	-0.17805122
69	0xbd99f9c7	-0.07518344
70	0xbdf4735c	-0.119360656
71	0x3d97676c	0.07392773
72	0x3d4c458f	0.049871024
73	0xbd0871d7	-0.03331169
74	0x3dcc92fd	0.09988973
75	0x3e232eae	0.15935776
76	0xbc88576a	-0.016643245
77	0xbdb21a85	-0.086964644
78	0xbdd0c0ae	-0.10193001
79	0xbd79d5b2	-0.06099481
80	0x3e0f1282	0.13971904
81	0xbe409a3e	-0.18808839
82	0xbd48c182	-0.04901267
83	0xbd162884	-0.036659732
84	0xbd21c9b9	-0.03949902
85	0x3de3060d	0.110851385
86	0x3e6429bc	0.22281545
87	0x3e481462	0.19539025
88	0x3e159bbc	0.14610189
89	0xbdf8e217	-0.12152498
90	0x3d79e079	0.06100509
91	0xbdbc51f3	-0.09195318
92	0x3e5fa564	0.21840435
93	0x3c75d531	0.015004442
94	0xbdd355fa	-0.10319133
95	0x3d28ae72	0.04118199
96	0x3e28c71d	0.16482206
97	0xbd651e15	-0.05593689
98	0xbdf7015c	-0.12060806
99	0x3e0c333e	0.13691422
100	0x3e34d684	0.17659956
101	0x3dcf551d	0.10123656
102	0x3dd3c4a9	0.10340244
103	0x3d6f10eb	0.058365744
104	0xbe55b03a	-0.20868006
105	0xbe18264c	-0.14858359
106	0xbdf5d5fc	-0.12003705
107	0xbe35731b	-0.1771969
108	0xbe4320e1	-0.19055511
109	0x3e15c91f	0.14627503
110	0xbe549ae0	-0.20762205
111	0xbdf78358	-0.12085599
112	0x3e1fe2e8	0.15613902
113	0xbe082b24	-0.13297707
114	0xbdcc6a75	-0.099812426
115	0xbd21abf8	-0.039470643
116	0xbd074363	-0.03302325
117	0x3e0e55f9	0.13899983
118	0x3dd38acc	0.10329208
119	0x3e4393aa	0.19099298
120	0x3c823a98	0.01589708
121	0x3e041fc2	0.1290274
122	0xbd35d413	-0.044391703
123	0xbd44164e	-0.047872834
124	0x3e1118b7	0.14169584
125	0xbe27901d	-0.16363569
126	0x3e2947a7	0.1653124
127	0x3ccf1d08	0.025282398
128	0xbc839c2f	-0.016065685
129	0xbe08c1a2	-0.13355115
130	0x3dd30a91	0.1030475
131	0xbc318f8e	-0.010837449
132	0x3dbea13e	0.09308098
133	0x3df779b3	0.12083759
134	0x3e1b778b	0.15182321
135	0xbe54c377	-0.20777689
136	0x3e4910fa	0.19635382
137	0xbdfe4b21	-0.124166735
138	0x3da3713f	0.07980584
139	0xbe2403f0	-0.16017127
140	0x3a39a7f6	0.0007082218
141	0xbd8f0b34	-0.06984559
142	0xbe2e3a57	-0.17014442
143	0x3d85167b	0.064984284
144	0x3c9044ea	0.017610986
145	0xbd0ed310	-0.034869254
146	0xbe0254a7	-0.12727605
147	0x3e55e20a	0.20887008
148	0x3d4ee5c2	0.050512083
149	0x3e239d1d	0.15977903
150	0x3e406fa7	0.18792592
151	0x3cb8192f	0.022472946
152	0x3e3d5db5	0.18492778
153	0xbe42b7d2	-0.19015434
154	0xbe426abb	-0.18986027
155	0xbe3c07c6	-0.1836234
156	0xbcd3f1cc	-0.025872134
157	0xbdf81b8d	-0.1211463
158	0xbd8816c4	-0.06644967
159	0x3dd30ab6	0.10304777
160	0xbda3633c	-0.07977912
161	0xbe0d79d1	-0.13816
162	0xbd700ba6	-0.05860486
163	0x3e14760c	0.14498156
164	0xbe334382	-0.17506221
165	0xbe62120d	-0.22077198
166	0x3db8cfff	0.09024047
167	0x3d9da998	0.07698363
168	0xbe5617d3	-0.20907526
169	0x3e152b35	0.14567263
170	0xbe168239	-0.14698114
171	0xbd0e1017	-0.034683313
172	0x3dfd0050	0.12353575
173	0x3e0b2c86	0.13591203
174	0x3e323859	0.17404307
175	0x3e4e44d1	0.20143439
176	0xbdbb676f	-0.09150588
177	0xbd5cfcff	-0.053952213
178	0xbe0a3ccb	-0.13499753
179	0x3e0391d0	0.12848592
180	0xbdbf9e6c	-0.093563884
181	0x3d8f3e3e	0.06994294
182	0xbcc8142a	-0.024423677
183	0x3e4b0177	0.19824778
184	0x3d791e0d	0.060819674
185	0xbbceb9a3	-0.0063087507
186	0x3d182f69	0.03715459
187	0xbe3b81eb	-0.18311279
188	0x3dc69716	0.09696786
189	0xb6087e7d	-2.0339205e-06
190	0x3d93aa5c	0.07210228
191	0xbd5b4d70	-0.053540647
192	0xbe150c04	-0.14555365
193	0xbd4b8702	-0.0496893
194	0xbdf4ef10	-0.1195966
195	0xbd138024	-0.036010876
196	0xbe271b22	-0.16318944
197	0xbe347239	-0.17621697
198	0x3e3d7fe2	0.18505815
199	0xbe4a17ee	-0.19735691
200	0x3c0eaf43	0.008708778
201	0x3e26f8ca	0.16305843
202	0xbe04499f	-0.12918709
203	0xbce32c27	-0.027731014
204	0xbe0b7ad3	-0.13621072
205	0x3e43c142	0.19116691
206	0xbde34002	-0.11096193
207	0xbda0baf1	-0.07848156
208	0x3e1226b7	0.14272581
209	0xbddc9115	-0.1076986
210	0x3e0f427c	0.13990206
211	0x3e05797a	0.13034621
212	0x3e297619	0.16548957
213	0xbe0dcbab	-0.13847224
214	0xbdeedbdd	-0.11663029
215	0xbdf0fbfa	-0.11766811
216	0x3e0f73a8	0.14008963
217	0x3dd407e8	0.103530705
218	0x3c5c28ea	0.013437489
219	0xbcb33a99	-0.021878527
220	0x3e52e073	0.20593433
221	0xbe000d35	-0.12505038
222	0x3e1dc17d	0.15405841
223	0xbda6ae10	-0.081386685
224	0x3e3a54d4	0.18196422
225	0xbe1998d8	-0.14999712
226	0xbe325b40	-0.17417622
227	0xbe33933d	-0.17536636
228	0xbe25a1a1	-0.16174938
229	0x3e5c12ca	0.21491542
230	0xbc35c193	-0.011093515
231	0xbd840385	-0.06445984
232	0xbd25ed5c	-0.040509567
233	0xbe445f1b	-0.19176905
234	0xbda9cf14	-0.0829145
235	0xbdc930e7	-0.098237805
236	0xbd9207a1	-0.07130361
237	0x3e2fa92e	0.1715438
238	0xbdb2fa1a	-0.08739109
239	0x3e518ce4	0.20463902
240	0x3daf6ad0	0.08565295
241	0x3db023bf	0.08600568
242	0x3e2683c5	0.16261204
243	0xbe2228a9	-0.15835823
244	0xbe1d8ea3	-0.15386443
245	0xbd5886f6	-0.052863084
246	0xbe12c472	-0.1433275
247	0x3e4cd30e	0.20002386
248	0xbdb6ffe9	-0.0893553
249	0xbbb99971	-0.0056640436
250	0xbd6e19b7	-0.058129992
251	0x3d4eccf8	0.050488442
252	0x3c2459ab	0.010031144
253	0x3e2657ad	0.16244383
254	0x3da4b521	0.0804236
255	0x3df07da1	0.11742712

model.1.running_var f4 [256]
0	0x3e970565	0.29496303
1	0x3e2822b9	0.16419496
2	0x3e7225f7	0.23647295
3	0x3e3106f3	0.17287807
4	0x3e4efdd7	0.2021402
5	0x3e81ba9d	0.25337687
6	0x3e512cd7	0.20427261
7	0x3e24effd	0.16107173
8	0x3e304836	0.17215046
9	0x3e8c400f	0.27392623
10	0x3e8ceeed	0.27526036
11	0x3eae4083	0.34033594
12	0x3e59dcfa	0.21275702
13	0x3e89de52	0.2692743
14	0x3e8cb198	0.27479243
15	0x3e977177	0.29578754
16	0x3e7e899b	0.2485718
17	0x3e1fb3b9	0.15595903
18	0x3e4588b4	0.1929043
19	0x3dc97874	0.09837428
20	0x3e78122b	0.2422568
21	0x3e9b940b	0.30386385
22	0x3ea73a8e	0.3266186
23	0x3e4fc0e0	0.2028842
24	0x3e82c7ca	0.25543052
25	0x3e71d91d	0.23617978
26	0x3eb69693	0.35661754
27	0x3e6cc3e5	0.23121603
28	0x3e85d4b6	0.26138848
29	0x3e34c65e	0.17653796
30	0x3e64d025	0.22345026
31	0x3e602d13	0.21892194
32	0x3ebdd5e5	0.3707725
33	0x3e42f9e5	0.1904064
34	0x3e4fab9c	0.20280308
35	0x3e817b45	0.2528936
36	0x3e29a2ce	0.16566011
37	0x3eb2f5bd	0.34953108
38	0x3e97a30b	0.2961658
39	0x3e87ca1e	0.2652139
40	0x3e2db35c	0.16962951
41	0x3e6ad7a5	0.22933824
42	0x3e66bc2c	0.2253272
43	0x3e850e79	0.25987604
44	0x3e00c29e	0.1257424
45	0x3e6a0d80	0.22856712
46	0x3e0347d3	0.12820368
47	0x3e74afa4	0.23895127
48	0x3e88ef74	0.26745188
49	0x3e895c95	0.26828447
50	0x3e9045d2	0.2817827
51	0x3e46d85c	0.19418472
52	0x3e63e56d	0.22255488
53	0x3e87eaac	0.26546228
54	0x3e86f43a	0.26358205
55	0x3eaf2732	0.3420959
56	0x3e9bf9a2	0.30463892
57	0x3e8c3f2d	0.2739195
58	0x3e84a8fc	0.25910175
59	0x3e325a98	0.17417371
60	0x3e22421c	0.15845531
61	0x3e2bcc59	0.16777171
62	0x3df87c29	0.12133057
63	0x3e82671a	0.25469285
64	0x3e59520e	0.21222708
65	0x3e013ef9	0.12621678
66	0x3e852ece	0.26012272
67	0x3e60b9f9	0.21945943
68	0x3e3da2c9	0.18519129
69	0x3e3de323	0.18543677
70	0x3e927846	0.28607386
71	0x3e91ba7c	0.2846259
72	0x3e54b20f	0.20771049
73	0x3e3c1b13	0.18369703
74	0x3e5a4cd2	0.21318367
75	0x3e57993f	0.21054552
76	0x3e93be5c	0.2885617
77	0x3e758f17	0.23980366
78	0x3e44cf90	0.19219804
79	0x3e6beff8	0.2304076
80	0x3e5e4b6d	0.2170846
81	0x3e8b5ffa	0.27221662
82	0x3e6d7252	0.23188141
83	0x3e64c0a4	0.22339112
84	0x3e6988e0	0.2280612
85	0x3e536b02	0.20646289
86	0x3e7961f5	0.24353774
87	0x3ecd9a07	0.40156576
88	0x3e3d64e5	0.1849552
89	0x3e5f8e99	0.2183174
90	0x3ea3a4f6	0.31961793
91	0x3e2804de	0.16408107
92	0x3e721276	0.23639855
93	0x3e7c123a	0.24616328
94	0x3e9709cf	0.2949967
95	0x3e39a34c	0.18128699
96	0x3e4651f0	0.19367194
97	0x3e343bf6	0.17600998
98	0x3e00b77a	0.12569991
99	0x3e4fda2a	0.20298067
100	0x3e8049f1	0.25056413
101	0x3e52c074	0.20581228
102	0x3e8251bc	0.25452983
103	0x3e31f271	0.1737764
104	0x3e39a155	0.1812795
105	0x3e880a93	0.26570567
106	0x3da27dfc	0.07934186
107	0x3e72d217	0.23712955
108	0x3e57f107	0.21088038
109	0x3e852d41	0.26011088
110	0x3e21af56	0.15789542
111	0x3e3ed79e	0.18636939
112	0x3e298d03	0.16557698
113	0x3e39aa4d	0.18131371
114	0x3e131911	0.14365031
115	0x3e48363c	0.19551939
116	0x3e4633b9	0.19355668
117	0x3e0c4c08	0.13700879
118	0x3e834677	0.25639698
119	0x3e5ebc6f	0.21751569
120	0x3e44d2c4	0.19221026
121	0x3e831c78	0.25607657
122	0x3ed2f441	0.41201976
123	0x3e7260b0	0.23669696
124	0x3e493421	0.19648792
125	0x3ea48516	0.32132787
126	0x3e1baddc	0.15203041
127	0x3e88ab22	0.26693064
128	0x3e983018	0.29724193
129	0x3e78a0f0	0.24280143
130	0x3e8b2b50	0.27181482
131	0x3e74c6fc	0.23904032
132	0x3e36e7a7	0.17861806
133	0x3e9364ab	0.2878774
134	0x3e8c201a	0.27368242
135	0x3e824b93	0.25448284
136	0x3e534346	0.20631132
137	0x3e833369	0.2562516
138	0x3e2d6da3	0.16936354
139	0x3eabe8ae	0.33575958
140	0x3e8b4590	0.2720151
141	0x3e478bd9	0.19486941
142	0x3ebdafa1	0.37048057
143	0x3e899941	0.26874736
144	0x3e55a7e5	0.20864828
145	0x3e97c28d	0.29640618
146	0x3e855680	0.26042557
147	0x3e679ada	0.22617665
148	0x3e83b0ad	0.2572073
149	0x3e59990f	0.21249793
150	0x3e7d883b	0.24758999
151	0x3e3d543a	0.18489161
152	0x3e60c145	0.21948726
153	0x3e926180	0.28590012
154	0x3e466df1	0.19377877
155	0x3e90dd49	0.28293827
156	0x3e95e012	0.29272515
157	0x3e46b182	0.19403651
158	0x3ea23fc6	0.3168928
159	0x3e8842ae	0.26613373
160	0x3e8ac09a	0.27100068
161	0x3e23ea16	0.16007265
162	0x3e87b0b3	0.26501998
163	0x3ec7426c	0.38917863
164	0x3eb2172b	0.347833
165	0x3e11b6a0	0.14229822
166	0x3e6cf695	0.23140939
167	0x3e75c081	0.23999216
168	0x3e804bd6	0.25057858
169	0x3e76e8c8	0.24112236
170	0x3e1cecf7	0.1532477
171	0x3e654100	0.22388077
172	0x3e42dd59	0.1902975
173	0x3e801bc8	0.25021195
174	0x3e34b48f	0.17647003
175	0x3e42a23c	0.190072
176	0x3e274f03	0.16338734
177	0x3e7519f2	0.23935679
178	0x3e87f4df	0.2655401
179	0x3e61db76	0.22056374
180	0x3e9ed710	0.31023455
181	0x3e8c8c68	0.2745087
182	0x3e26e80e	0.1629946
183	0x3e90f6b1	0.2831321
184	0x3e8b0d78	0.27158713
185	0x3e8ca170	0.27466917
186	0x3e7ac8f4	0.2449072
187	0x3e27c7d7	0.16384827
188	0x3e8c413b	0.27393517
189	0x3eaa65a2	0.33280665
190	0x3e915a2a	0.28389102
191	0x3e89855f	0.26859567
192	0x3e96cbd3	0.2945238
193	0x3e9eef47	0.3104193
194	0x3e50c950	0.20389295
195	0x3e98c572	0.2983814
196	0x3e426b5e	0.1898627
197	0x3deee582	0.11664869
198	0x3eb3dce9	0.3512948
199	0x3e689862	0.2271438
200	0x3e6323ab	0.22181575
201	0x3e32756d	0.17427607
202	0x3e6e0a89	0.23246206
203	0x3e8057b1	0.25066903
204	0x3e6e6a5d	0.23282762
205	0x3e382ddb	0.17986242
206	0x3eb202bc	0.3476771
207	0x3e836232	0.25660855
208	0x3dc7db6d	0.09758649
209	0x3e41a0ef	0.18909048
210	0x3e966c9b	0.29379734
211	0x3e396655	0.18105443
212	0x3e508835	0.20364459
213	0x3e749cc6	0.2388793
214	0x3e921c37	0.2853715
215	0x3e4f5250	0.20246243
216	0x3e8c0247	0.27345487
217	0x3e6346c5	0.22194965
218	0x3eb81a8e	0.3595776
219	0x3e6ab967	0.22922288
220	0x3eb77598	0.35831904
221	0x3e85d2b8	0.26137328
222	0x3e5a2a5b	0.2130522
223	0x3e722489	0.2364675
224	0x3e30e233	0.17273788
225	0x3e8172a3	0.25282773
226	0x3e8453b0	0.25845098
227	0x3e7b4593	0.24538259
228	0x3e7f57bf	0.24935816
229	0x3e8e369c	0.2777604
230	0x3e92c4cd	0.28665772
231	0x3eb00464	0.3437835
232	0x3e0ea85b	0.1393141
233	0x3e4e9882	0.20175365
234	0x3ec88ab6	0.39168328
235	0x3e63acce	0.22233889
236	0x3e665811	0.22494532
237	0x3e7d12c0	0.24714184
238	0x3e6f6051	0.23376586
239	0x3e32e1d1	0.17468955
240	0x3e4a1c6e	0.19737408
241	0x3ddd1f05	0.10796932
242	0x3dfe6108	0.12420851
243	0x3e4a95be	0.19783685
244	0x3e53d35d	0.20686097
245	0x3e8445ea	0.2583459
246	0x3e786100	0.24255753
247	0x3e9307e5	0.2871696
248	0x3e60027e	0.2187595
249	0x3dfa79bf	0.122302525
250	0x3e5b44f8	0.21413028
251	0x3e1f8237	0.15577017
252	0x3e7b25a6	0.2452608
253	0x3e80b966	0.25141448
254	0x3ea5abb7	0.3235757
255	0x3e8154fd	0.25260153

model.3.weight f4 [256, 256]
0	0x3c834a6c	0.016026698
1	0xbd44bd68	-0.048032194
2	0x3cde59b6	0.027142387
3	0x3c269cce	0.010169221
4	0x3c507b2a	0.012724677
5	0xbc089259	-0.008335673
6	0x3d920ef4	0.07131758
7	0x3c838354	0.016053833
8	0x3b52cf93	0.003216718
9	0xbbfed992	-0.0077774012
10	0xbbcf8691	-0.0063331802
11	0xbc8f0a9a	-0.01746111
12	0xbd7bdbbe	-0.06148886
13	0xbc078904	-0.008272413
14	0x3d249993	0.040185522
15	0x3c895ef3	0.016768908
16	0xbd11e263	-0.03561629
17	0x3ccaf367	0.024774266
18	0x3c80bfab	0.015716394
19	0x3d41fa3d	0.047357786
20	0x3b866b5a	0.004102153
21	0xbcbfc0a6	-0.023407292
22	0xbc103235	-0.008801033
23	0x3da44a8b	0.080220304
24	0xbc69c7f3	-0.014268863
25	0xbd07ab65	-0.03312244
26	0x3ce661b5	0.028122762
27	0xbde18206	-0.11011128
28	0x3ce62e92	0.028098378
29	0xbbeade6b	-0.0071676276
30	0xbd0c6203	-0.03427316
31	0x3d1487f6	0.036262475
32	0xbdb6d1ed	-0.08926759
33	0xbd8491bd	-0.0647311
34	0x3cc96229	0.02458294
35	0x3d0e0fe8	0.034683138
36	0xbc9d5d7f	-0.019209621
37	0x3d3ac141	0.045594458
38	0x3b3fc805	0.0029263508
39	0x3c95d47c	0.018289797
40	0xbc80a262	-0.01570243
41	0xbd034b9f	-0.03205454
42	0x3c671f4e	0.014106585
43	0x3a272477	0.0006375978
44	0xbc944a30	-0.018101782
45	0xbcb29e80	-0.021804094
46	0x3ce27576	0.0276439
47	0xbb32b723	-0.0027269803
48	0xbbecfca2	-0.0072322646
49	0x3cb780d1	0.022400292
50	0x3d9b0f1e	0.07571243
51	0x3c34b6d4	0.011029918
52	0xbc168ec9	-0.009189316
53	0x3c289d77	0.010291449
54	0xbd29be12	-0.04144103
55	0xbd2ae742	-0.04172445
56	0x3c1047fa	0.008806223
57	0x3c3e3d50	0.011611298
58	0x3c177d91	0.009246246
59	0x3c3b7875	0.011442293
60	0xbcec7349	-0.028863566
61	0xbc4422fa	-0.01197123
62	0xbcdcfb13	-0.02697519
63	0x3b356c54	0.0027682977
64	0x3d557e19	0.05212221
65	0xbd59ccf3	-0.05317397
66	0xbc92c4ca	-0.017916102
67	0x3c99a6d4	0.018756308
68	0x3bd77c12	0.0065760696
69	0x3c207623	0.009793791
70	0x3cad11a9	0.021126585
71	0x3b086cf8	0.0020816904
72	0x3d83ce37	0.06435817
73	0xbcc29a5e	-0.023755249
74	0xbdc375de	-0.09543966
75	0xbd3fcbbc	-0.046825156
76	0xbd222600	-0.03958702
77	0x3cd682e4	0.02618546
78	0x3d5aa15b	0.053376537
79	0x3d5c1aaf	0.053736385
80	0x3d938fc5	0.07205156
81	0xbd2e246c	-0.042515203
82	0x3c30302f	0.010753675
83	0x3d600705	0.054694194
84	0xbd419ac5	-0.04726674
85	0xbcb49373	-0.022042966
86	0xbd3bb684	-0.045828357
87	0x3c6c581c	0.014425304
88	0x3d3765ac	0.044774696
89	0xbccfbf2a	-0.025359709
90	0xbcde56d3	-0.02714101
91	0xbcb35c90	-0.021894723
92	0x3d538325	0.05163874
93	0x3b8e04f6	0.0043340875
94	0xbc474c4b	-0.012164186
95	0xbd3bbd44	-0.045834795
96	0xbd2e682f	-0.042579826
97	0xbd04c7be	-0.03241705
98	0xbd3ca235	-0.04605313
99	0xbcee56c0	-0.0290941
100	0xbda9f0f6	-0.08297913
101	0xbc8169e8	-0.01579757
102	0xbd944bf4	-0.072410494
103	0xbabe6d92	-0.0014528504
104	0xbd66a3bd	-0.056308497
105	0xbc52b6d3	-0.0128609715
106	0x3da602d8	0.08106011
107	0xbd6d48e6	-0.05793085
108	0xbc23f30f	-0.01000668
109	0xbd17b017	-0.037033167
110	0x3c080aeb	0.008303384
111	0xbb21ee19	-0.0024708568
112	0x3d4b1717	0.049582567
113	0xbc261e6c	-0.010139089
114	0x3c28e803	0.010309222
115	0xbd00bb1b	-0.031428438
116	0xbd85a8fa	-0.0652637
117	0x3d00a38e	0.031405978
118	0x3cf1965e	0.029490646
119	0x3c16ced8	0.009204589
120	0xbd6f9745	-0.05849387
121	0xbc95572f	-0.018230049
122	0xbddb123d	-0.10696838
123	0xbce5dc6d	-0.028059209
124	0xbcf1562e	-0.029460039
125	0x3ce5d0cd	0.028053666
126	0x3d56b14c	0.052415177
127	0x3d6f5333	0.058428954
128	0xbc6dcbdf	-0.014513939
129	0x3c84d48a	0.016214628
130	0xbbbeff63	-0.0058287843
131	0xbce69a4e	-0.02814975
132	0x3a93ea5e	0.0011285057
133	0xbc6fedd0	-0.014644101
134	0x3cb13870	0.021633357
135	0x3ccf3081	0.025291683
136	0xb9c4dec8	-0.00037550018
137	0x3d664961	0.056222323
138	0xbd12d449	-0.035846982
139	0xbc6506bf	-0.013978659
140	0x3c449266	0.011997795
141	0xbcc4d29b	-0.024026206
142	0xbda67098	-0.08126944
143	0xbcf4e2bc	-0.029893272
144	0xbcae3680	-0.021266222
145	0xbd31eb11	-0.043437067
146	0xbc9bc072	-0.019012664
147	0xbc8030dd	-0.0156483
148	0xbc851140	-0.016243577
149	0x3c246c37	0.010035566
150	0xbbee9a8c	-0.007281607
151	0x3d46cfa8	0.04853788
152	0x3d003c93	0.031307768
153	0x3d9ccc31	0.07656134
154	0xbd5572b0	-0.052111328
155	0x3c344401	0.0110025415
156	0x3c1d84c1	0.0096141705
157	0xbc793232	-0.015209721
158	0x3d84c67a	0.06483169
159	0xb9b99491	-0.0003539664
160	0x3bf5d67c	0.007502375
161	0x3c8da4a8	0.017290428
162	0xbdaae663	-0.08344724
163	0x3d101f95	0.03518637
164	0x3d59d84a	0.053184785
165	0x3d852138	0.065004766
166	0xbd1d03dd	-0.038333762
167	0xbd86c93f	-0.065813534
168	0xbd39e7f6	-0.04538723
169	0x3d2dd2f4	0.04243751
170	0x3c7e4a71	0.015520678
171	0xbe2315dc	-0.15926307
172	0x3cd3466e	0.02579042
173	0xbda2a70b	-0.07942017
174	0x3c8425b6	0.016131263
175	0x3ceb110d	0.028694654
176	0x3d064286	0.032778285
177	0xbd2fb69a	-0.04289875
178	0xbc0b7a83	-0.008513096
179	0x3d1ec705	0.03876402
180	0x3d1919c6	0.037378095
181	0x3c24db09	0.010061988
182	0xbd8f791c	-0.07005522
183	0x3ca5f659	0.02025907
184	0xbd2d24d0	-0.042271435
185	0x3d0d66e5	0.034521956
186	0x3c870eba	0.016486514
187	0xbca0dac4	-0.019635566
188	0xbca3edc0	-0.020010829
189	0xbb1f6412	-0.002432112
190	0xbd1e8d5a	-0.038709022
191	0xbd8f8e1d	-0.07009528
192	0xbd81e1d0	-0.063418984
193	0xbca7bd57	-0.020476026
194	0xbcef9240	-0.029244542
195	0xbbcb7a96	-0.0062096817
196	0x3caa3b45	0.020780215
197	0x3d175963	0.03695048
198	0x3c84ed7e	0.016226526
199	0x3d27bf16	0.040953718
200	0xbc3ef906	-0.0116560515
201	0x3d8406da	0.06446619
202	0xbd356ee9	-0.044295225
203	0x3d5975bd	0.0530908
204	0xbd42629f	-0.047457334
205	0xbd1c90d6	-0.038224064
206	0xbcd2e125	-0.025742123
207	0xbb40f410	-0.0029442348
208	0xbd18ca9b	-0.037302595
209	0xbd0f36aa	-0.03496424
210	0xbd34e5e5	-0.044164557
211	0x3ccc7c06	0.024961483
212	0xbba850f9	-0.005136606
213	0x3c827508	0.015924945
214	0xbb0d2948	-0.0021539498
215	0x3dae42d0	0.08508837
216	0xbb90d853	-0.004420319
217	0x3d6f4939	0.05841944
218	0xbda19e6f	-0.07891547
219	0x3bb65f94	0.005565593
220	0x3c8cdf87	0.01719643
221	0x3ba79ea3	0.0051153465
222	0xbd9be29e	-0.07611583
223	0x3d816190	0.06317437
224	0xbd64a18d	-0.05581813
225	0x3c617a6a	0.013762096
226	0xbd360917	-0.044442263
227	0x3caed465	0.021341512
228	0x3cdea86c	0.02717992
229	0x3b9507cc	0.0045480486
230	0xbba75d6f	-0.0051075737
231	0xb9c766ee	-0.00038032926
232	0xbd8409e2	-0.064471975
233	0x3a4509f1	0.0007516435
234	0xbd33ba3e	-0.043878786
235	0x3c0fd70a	0.008779297
236	0x3cec1c43	0.02882207
237	0x3d90e0c6	0.07074122
238	0xb94e026a	-0.0001964659
239	0xbcd1e47a	-0.025621641
240	0xbca52cee	-0.020163026
241	0x3d8780da	0.06616373
242	0xbce3ed1c	-0.027823023
243	0xbc46987f	-0.012121319
244	0xbcea097e	-0.02856898
245	0x3d7193d9	0.05897889
246	0x3d1b41a0	0.03790438
247	0xbd6939bc	-0.056939825
248	0x3d40b226	0.047044896
249	0xbcef1a5e	-0.029187378
250	0xbd8a9848	-0.067673266
251	0x3d0c311a	0.034226514
252	0x3c0a4563	0.008439395
253	0xbc2e593f	-0.010641395
254	0xbd3a7654	-0.045523003
255	0xbd8f5099	-0.06997795
