models/ecoli_core_v3_metabolic_nn.pth (torch, 83769 bytes, 6 tensors)

model.0.weight f4 [128, 20]
000000 45 82 03 3e e7 e2 72 bb 7a b1 89 3d fc 60 22 be
       0.12842663 -0.0037061514 0.06723304 -0.15857309
000010 d6 07 a1 3d 9d fb ee bd 4f 0a ce bc d4 52 bf bb
       0.07862823 -0.11669085 -0.0251514 -0.0058387313
000020 a2 77 58 be ea 2e 57 3e 3f ea 28 3c e4 ef 57 3c
       -0.21139386 0.2101399 0.010309755 0.013179753
000030 f8 7b 27 be 68 8a 48 be 15 e5 f2 bc d2 72 2e be
       -0.16355884 -0.19584048 -0.02965025 -0.17035988
000040 1b 15 9b bd 64 c4 0d be 75 9b 4f be f0 dc 82 3d
       -0.07572385 -0.13844448 -0.20274146 0.06389797
000050 40 77 4e 3e 28 60 85 3e 02 fa 08 bd ad 26 e7 bd
       0.20162678 0.26049924 -0.03344155 -0.11286674
000060 bf ba ab bd aa 53 6e 3e 2f 2b 71 3e 2d f8 b0 bd
       -0.08385228 0.23274103 0.2355163 -0.08641086
000070 d1 2c 50 3e d1 7d 20 be 64 dd c9 3d 7a ef 49 3e
       0.20329596 -0.15672995 0.0985668 0.1972026
000080 56 f4 2b bd f0 78 d7 3d 97 49 0f 3e 3d 39 bd bd
       -0.041981064 0.10521114 0.13992916 -0.09239433
000090 f4 2e 34 3c 93 82 16 3e ef 91 63 3e 6b 2c c8 bb
       0.010997523 0.14698248 0.22223638 -0.0061088107
0000a0 75 73 94 3d 83 07 84 3c c7 32 52 3d b9 96 63 bd
       0.07248584 0.016116863 0.051317956 -0.055563662
0000b0 80 e5 30 bb e0 b7 1c 3e 05 44 b5 bd 6d a0 8e bc
       -0.0026992261 0.15304518 -0.08850864 -0.017410481
0000c0 5e 03 6c 3c 84 ff 20 be 62 2e 8c bb 42 49 2b 3d
       0.0144051 -0.15722471 -0.00427799 0.04181791
0000d0 3e e7 32 3e 06 93 94 3c ae 7b 09 3e 33 60 30 be
       0.17471024 0.018136512 0.13426086 -0.17224197
0000e0 c4 db 38 3e 74 b8 36 3e 8e d4 de 3b 0c ee 3e be
       0.18052584 0.17843801 0.006800241 -0.18645495
0000f0 dc 15 66 be 4b b2 11 be de 2f f3 bc 6e 89 0e be
       -0.22469276 -0.1422817 -0.02968591 -0.13919613
000100 46 28 66 be d2 51 10 be c9 ba 34 be f4 63 83 3d
       -0.224763 -0.14093712 -0.17649378 0.06415549
000110 5f ed c4 bd 6f 12 a8 bc aa 59 36 bd 83 94 06 3d
       -0.096155874 -0.020516602 -0.044519104 0.032856476
000120 ca 3a 76 be c4 38 08 be d0 ae 5b 3e 7e c4 45 3d
       -0.24045864 -0.13302904 0.21453404 0.048283093
000130 c4 d6 ff bc a4 df ef 3d 7f 96 8f bb 4e 05 1a be
       -0.031230338 0.11712578 -0.004381954 -0.15041086
000140 97 2b 2a be 1c 45 51 be 44 68 d6 3d 57 15 ca bd
       -0.1661819 -0.2043652 0.10469106 -0.098673515
000150 6f ef ba 3c c5 1c 76 3e 5d 1a 85 bc 9d 4c 09 3e
       0.022819249 0.24034412 -0.016247923 0.13408132
000160 46 a1 de 3c 32 1b 43 be ba 68 b1 bd ea 4e 9d bd
       0.02717651 -0.19053343 -0.08662553 -0.07681067
000170 90 9e ad 3e bc 16 88 3c e9 dd f8 bd 05 4a 02 be
       0.33910036 0.016612403 -0.12151701 -0.12723549
000180 eb bf f8 bd 1f 07 95 3b fe 3c 49 3d 83 36 86 bd
       -0.121459804 0.004547968 0.049130432 -0.06553366
000190 e3 0a 60 3d dd 0b d6 3c e6 63 50 bd 39 f1 df 3d
       0.054697882 0.026128704 -0.05087652 0.109346814
0001a0 41 e1 54 bd 96 d7 07 bc 41 2e 52 3e 3a 1c 58 3c
       -0.05197263 -0.008291146 0.20525457 0.0131903235
0001b0 4f c2 76 3e 4b 7c 12 3e ec 18 4c 3e ee 1f 10 3e
       0.2409756 0.14305227 0.19931382 0.1407468
0001c0 52 91 e3 3c b6 35 89 bd b5 74 f4 bd 7a e3 58 be
       0.027779255 -0.06699698 -0.119363226 -0.21180525
0001d0 0b b9 d2 3d 9e 93 38 3e bc be 73 3d 07 c4 ca bc
       0.102892004 0.18025061 0.05950807 -0.024751676
0001e0 2f df 10 3e 7c e3 15 3e cb 31 c1 3d eb a1 15 be
       0.14147638 0.1463756 0.094333254 -0.14612548
0001f0 9b 56 07 bd 4d 0e 01 be 8a 64 9e bc 49 11 c6 3d
       -0.033041578 -0.12603112 -0.01933505 0.09671266
000200 b8 4b 0b bd 17 d1 00 3e a6 35 b2 bd 27 28 98 3d
       -0.034007758 0.12579761 -0.08701639 0.074295335
000210 d7 54 78 3e 61 09 df 3d 0d 24 ac 3d 8f b8 b7 ba
       0.24251114 0.10890461 0.08405314 -0.0014016795
000220 85 57 fe 3d 88 4c 9a bd ea eb 02 be 2b d8 1f be
       0.12419037 -0.075341284 -0.12785307 -0.15609805
000230 8e 3b 33 3e ec ce be 3d 86 a2 b9 bd fa 50 7b 3d
       0.17503187 0.09316811 -0.09064202 0.061356522
000240 87 b5 cc bd 2a bf b1 bd ca 8e 56 bd 59 d9 d0 bd
       -0.09995561 -0.0867904 -0.052382268 -0.10197706
000250 ea 7b 60 be 5a 73 bd 3c f0 76 f5 3c f7 7b a6 3b
       -0.2192227 0.023126293 0.02996394 0.0050806957
000260 76 7d ad be 6a c4 2b 3d df 77 1f be 9d cf ad bd
       -0.33884782 0.041935362 -0.15573071 -0.08486865
000270 ad 5c 51 be 44 76 59 3d 7b 07 2b be f4 e1 98 3c
       -0.20445509 0.053091303 -0.16702072 0.01866243
000280 76 05 02 3e d6 97 55 3e 9f 0d 19 3e 82 40 13 bd
       0.12697396 0.20858702 0.14946602 -0.03595019
000290 2c dd c1 bd 2f 96 a6 3d c1 7a 51 3d ee 6a ad bd
       -0.09466013 0.08134114 0.051142458 -0.08467661
0002a0 2c 81 5f 3d d0 55 b1 3d 2b 55 26 bd 1b a8 45 3b
       0.054566547 0.086589456 -0.040608566 0.0030160013
0002b0 6c e0 be bd 46 89 17 3e 3e d0 9e bd cf b3 4a be
       -0.09320149 0.1479846 -0.07754563 -0.19795154
0002c0 4a 71 b2 3d 87 b1 6c 3d 43 8a b1 bd a4 7d de 3d
       0.087130144 0.05778649 -0.086689495 0.10863808
0002d0 90 ef 8b be 35 01 42 be a2 e5 bf bc e0 b6 4a 3d
       -0.2733121 -0.18945773 -0.023424927 0.04949081
0002e0 97 a8 d5 3c 89 6f 30 bc 20 a6 be 3b 78 8f ec bc
       0.026081366 -0.01076878 0.0058181435 -0.028877005
0002f0 df ba 2d 3c 56 7e a1 3b bc 2b 6e bc ea 08 96 3c
       0.010603636 0.0049283905 -0.014536794 0.018314797
000300 85 ca 17 3c 9e 68 dc 3c 61 db 14 3e 96 c0 8d bd
       0.009264593 0.026905354 0.14536811 -0.069214985
000310 6d 8f 5c bd 9d a9 4f be 67 11 c0 bd 9d e1 34 bc
       -0.05384772 -0.20279546 -0.09378319 -0.0110401185
000320 ee 91 93 3d 95 31 79 be b2 22 e5 bd 63 71 90 bd
       0.07205568 -0.2433532 -0.11188258 -0.07052877
000330 da a0 fd bd 24 ac 74 be d2 02 32 be 1e 4b 55 be
       -0.123841956 -0.23893791 -0.17383888 -0.20829436
000340 e6 fc 35 be 5a 66 a0 ba fb 32 b0 bd c9 fe 07 3c
       -0.17772254 -0.0012237534 -0.08603474 0.008300492
000350 c6 4f 3b 3e c5 a9 af bd 64 e2 13 3e ed b5 62 bd
       0.1829215 -0.08577303 0.1444183 -0.05534928
000360 e1 4f 22 be 41 5a b1 bd 02 60 51 3e 9d 92 cc bd
       -0.15850784 -0.08659793 0.2044678 -0.09988902
000370 60 72 35 3e bc 5e f6 3d 95 7b c6 3d 97 b7 2a bc
       0.17719412 0.12029788 0.0969154 -0.010419748
000380 81 02 0b 3c 42 60 c4 3d 7e 23 3d 3d e2 6f 0f 3c
       0.008484484 0.09588672 0.046176426 0.008754702
000390 6b b6 9a 3d d0 e3 2a 3c 8f 1a 48 bd 7f 12 3b 3a
       0.07554325 0.010430291 -0.048853453 0.000713624
0003a0 99 65 9f be 99 a9 fd bd a3 b2 1a bd 50 39 0c be
       -0.311322 -0.12385864 -0.037768018 -0.13693738
0003b0 c7 b1 21 be 3f f3 35 3e 4d a6 0e 3e f3 a4 1c be
       -0.15790473 0.17768572 0.13930626 -0.15297298
0003c0 bc c6 54 bd 3a 92 d7 3d 65 76 ae bc 46 a7 34 be
       -0.05194734 0.105259374 -0.02129669 -0.17641935
0003d0 5a 95 33 be 8f e6 11 be 09 9d 63 be 7c aa e9 bd
       -0.17537442 -0.14248107 -0.22227873 -0.114094704
0003e0 41 e0 dc bd 9e 25 3a be 5a 87 41 be c5 e4 7a bd
       -0.107849605 -0.18178412 -0.18899289 -0.061253328
0003f0 6f 4b 3f 3e 02 e9 12 be bd 7d f5 3d ca ef b7 bc
       0.1868112 -0.14346698 0.11986873 -0.022453208

model.0.bias f4 [128]
000000 77 22 bc 3d 11 2d 1a 3e cf 0a d7 3d df a2 fd 3d
       0.09186261 0.15056254 0.105001085 0.12384581
000010 d7 cb b2 3d e1 1d 1a bd d0 40 00 be 7a d1 15 3d
       0.087302856 -0.03762615 -0.12524724 0.036576726
000020 3d dc e6 3d c0 e5 a5 3c 69 09 62 3d 72 07 dd 3d
       0.11272476 0.020251155 0.055184755 0.10792436
000030 94 f5 86 3d 92 b8 24 be f4 3c 14 3e 78 22 89 3d
       0.06589809 -0.16086033 0.14476377 0.066960275
000040 7d 5f 2a 3e 7f 0d b6 3d 30 ec 6c 3e c7 3a 76 3e
       0.16637988 0.08889293 0.23136973 0.2404586
000050 37 6a 8c bd d3 19 50 3e 42 09 3e 3e 64 64 d3 3d
       -0.068561964 0.20322351 0.18558219 0.10321882
000060 85 b0 0c bd 92 78 2f 3e ff 46 fd 3c 49 56 33 3e
       -0.03434803 0.17135838 0.030917643 0.17513384
000070 14 c4 21 3e 93 86 98 bd 33 3e 1f be 0b f8 34 3e
       0.15797454 -0.07447543 -0.15551071 0.17672746
000080 62 6e c2 bd b9 6b 2d bb 03 f1 81 3d f8 f7 4c 3e
       -0.0949371 -0.0026461913 0.063447975 0.20016468
000090 d0 a5 e7 bd 0b 49 6f 3c 90 15 e4 bd fe fb a2 bd
       -0.11310923 0.014604817 -0.11136925 -0.0795822
0000a0 cb 1c db 3d 58 88 6f bc b8 d6 21 bd a7 0c 33 bd
       0.10698851 -0.014619909 -0.039511412 -0.043713238
0000b0 0a 06 ae bd 3e 98 ed bb ca 68 98 3d 4a 30 b8 3e
       -0.084972456 -0.0072508147 0.07441862 0.35974342
0000c0 e3 d2 47 bc c5 53 68 bd e8 a5 b9 3c 4e fd 31 3d
       -0.012196275 -0.056720514 0.022662118 0.04345446
0000d0 12 6d 5c bd ce 33 97 bd c0 66 d4 3e 8f 6c 2d 3e
       -0.053814955 -0.07382928 0.41484642 0.16935943
0000e0 15 6a 81 3d e4 ce 2e 3e a3 4f 58 3e e2 4b cb 3d
       0.06319062 0.1707111 0.21124129 0.09926583
0000f0 b7 f9 14 3e 82 72 35 3e d1 f6 1f bd 8a 5e 16 bd
       0.14548384 0.17719463 -0.03905374 -0.036711253
000100 a8 e7 10 be 5e 57 65 3e e7 04 a0 3e 9f 9f d0 bd
       -0.1415087 0.22396609 0.3125374 -0.10186695
000110 aa 9c 3f 3e 97 64 8f 3e 4b 67 99 bd 28 44 3e bd
       0.18712106 0.2800643 -0.07490405 -0.046451718
000120 5b d4 76 bd 44 6e bc bd a3 f8 61 bd 01 1f 6a 3b
       -0.06026111 -0.09200719 -0.05516876 0.0035724046
000130 c7 61 d3 bd 65 63 d5 3e c8 6b 9d 3e 39 d6 65 bd
       -0.10321384 0.41677395 0.30746293 -0.0561125
000140 fe 32 e7 3c 12 01 f6 3d a2 fe 83 3e b3 66 9a bc
       0.028222557 0.12011923 0.25780207 -0.018847799
000150 55 11 48 3e 64 04 36 be be 4f 8f 3d c4 cc 1c 3e
       0.19537862 -0.17775112 0.069976315 0.15312487
000160 f0 29 9b bd 04 04 c0 bc ec 4f 7a bd 9c 59 01 3e
       -0.07576358 -0.023439415 -0.061111376 0.1263184
000170 cf fe ad 39 60 22 79 bd 53 e5 d0 3b 65 29 69 bd
       0.00033186979 -0.0608238 0.006374994 -0.056924243
000180 30 b9 13 be 2f 48 47 bc fc 38 8f 3d 51 cf 00 3e
       -0.14426112 -0.012163206 0.06993291 0.12579085
000190 d8 8f 23 3d 1f 9d 39 3d c0 43 8e 3d 14 fd 84 bd
       0.039932102 0.045315858 0.06946516 -0.06493583
0001a0 ca 8c c9 bd 0a 42 41 3d f0 6a fb 3c 1e b5 15 3e
       -0.098413065 0.04718212 0.03069064 0.14619872
0001b0 7f 6a 4f 3e b0 ce ea 3b 8b 9e 1b be 75 e3 cf 3d
       0.20255469 0.0071657524 -0.15197198 0.10150806
0001c0 9f 58 a7 3d b0 3f 11 be ff 78 5c 3e 74 16 19 3e
       0.081712 -0.14184451 0.21530531 0.14949971
0001d0 b0 79 4e 3e 1f ee a4 bd 6f ef ad bd 1a f8 ec bd
       0.20163608 -0.080532305 -0.08492934 -0.11570759
0001e0 b6 d3 e9 3d a7 89 90 3d b1 35 93 3e 75 3e 44 bd
       0.11417334 0.07057505 0.287519 -0.047911126
0001f0 b6 af 6d 3d f4 36 3a 3e 3e 03 3e be c7 07 2e bc
       0.0580289 0.18185025 -0.18555924 -0.010621971

model.2.weight f4 [128, 128]
000000 3f 5f b6 bc 48 bf d7 bc 1e 8a bc 3b f8 6d 00 3d
       -0.022262214 -0.026336327 0.0057537695 0.031354874
000010 81 a5 d0 3c 9a 06 3b 3d 04 41 52 3c ed da ca 3d
       0.025469543 0.045660593 0.012832884 0.09905038
000020 e4 cf 8d 3d bf 82 c0 ba ef 63 fc bb 62 ab 9f 3c
       0.069244176 -0.0014687403 -0.0077023427 0.019490901
000030 9b a1 1a bc e6 0f d8 bd 45 56 ed bc 15 34 50 bd
       -0.009437944 -0.105499074 -0.0289718 -0.05083092
000040 c4 09 35 3d 50 90 4c bd 11 5b bf 3d bd 77 84 bd
       0.044198766 -0.049942315 0.093435414 -0.06468151
000050 38 c2 1e 3d b1 b7 c9 3d 4a e9 4a 3d 80 f4 82 3d
       0.03875944 0.098494895 0.049538888 0.06394291
000060 46 c2 59 3d 5e be 73 3d 30 a0 21 bd 95 8e 9d 3d
       0.05316379 0.05950772 -0.039459407 0.07693211
000070 d1 2b 24 bc 52 c5 80 3c 4c 13 a2 3d 63 a8 d7 3c
       -0.010020212 0.01571909 0.07913837 0.02632541
000080 93 ed 1e bd bb bc 81 3b 6e 2f 6f bc 13 87 00 3d
       -0.038800787 0.003959266 -0.01459871 0.031378817
000090 fe 8d 83 bc 3a 9d 93 3c e6 d8 44 3d 98 59 6e 3b
       -0.016058918 0.018019307 0.048058413 0.003636932
0000a0 21 4e 86 bc 90 0b 70 bd 2f 2f a1 3d a1 55 46 bc
       -0.016394677 -0.058604777 0.07870328 -0.012105376
0000b0 84 d2 ee bc ec b6 51 3c 4f f8 89 3b 73 25 59 bd
       -0.029153116 0.01279996 0.004210509 -0.05301423
0000c0 ff a9 9a bd 55 96 10 3c 8a 1f 59 3d 8b 7d b1 3c
       -0.075519554 0.008824904 0.053008594 0.021666309
0000d0 96 cb 2c 3d 54 79 9e bd 9d be 31 bd 1d 92 b9 3d
       0.042186342 -0.07737985 -0.043394674 0.09061072
0000e0 ca 93 a7 bc 1c a9 40 bc 27 6e 9d 3d 60 16 bf 3d
       -0.020456214 -0.011759069 0.076870255 0.093304396
0000f0 21 c2 9b bc cc 13 1a 3d c0 28 9b bd a8 5e 0b 3d
       -0.019013466 0.037616536 -0.07576132 0.034025818
000100 dd 68 59 bd 75 21 bc 3b 15 44 d1 3c 89 ce 9e bd
       -0.05307852 0.005741293 0.02554516 -0.07754237
000110 0a dd 81 3d 70 d0 81 3d 35 ed 3a 3d 2f c8 9e 3d
       0.06340988 0.063385844 0.045636375 0.07753026
000120 17 e8 3d bd 01 e6 ae ba d5 94 54 bd 12 47 a0 bd
       -0.046363916 -0.0013343693 -0.05189975 -0.078260556
000130 83 f7 78 3d c9 25 45 bc 36 6c 33 3b 7e 86 b7 3d
       0.06078292 -0.012032934 0.0027377731 0.08961199
000140 57 0a 01 3e 66 cb bf bb a0 0d 58 3d 0e dc 39 3c
       0.126016 -0.0058531044 0.05274737 0.011343969
000150 74 bd 88 3d d8 23 06 3b d3 eb 22 bd 75 0a ee 3d
       0.0667676 0.0020468142 -0.03977568 0.11623088
000160 b8 99 88 3c 58 b0 44 3b 4e 86 ea bc 87 aa 30 bd
       0.016674861 0.0030012336 -0.028628495 -0.043131378
000170 71 aa 03 3c 70 4e 0d 3d f8 f3 58 bc 18 8a 49 bc
       0.008036242 0.034498632 -0.01324176 -0.0123009905
000180 18 cd c3 bc 09 9a 90 39 fd d2 80 3b 15 b4 bb 3d
       -0.023901507 0.00027580585 0.0039314018 0.09165207
000190 00 59 26 3d 86 66 4b bc c3 3c 8d 3d 3a c0 e0 bc
       0.04061222 -0.01241458 0.06896355 -0.02743541
0001a0 80 d5 f1 3d f5 c3 46 3c 4e 63 2c bd 30 5e bc 3d
       0.118083 0.012131681 -0.04208689 0.09197652
0001b0 3c 66 f3 3c 20 50 17 bc 83 d9 25 3d 58 bc d6 3d
       0.029711835 -0.009235412 0.04049064 0.104851425
0001c0 d2 80 b6 bd 47 ee 4f bd ea 82 d2 bd c5 38 00 3d
       -0.08911289 -0.05076435 -0.10278876 0.03130414
0001d0 82 b5 ec 3d 26 6a a4 bd 27 1b 97 3d 98 03 57 bd
       0.11558057 -0.08028059 0.07378226 -0.05249366
0001e0 b1 64 ba 3d df 46 27 3d b9 4f 77 bc 8c bc 5c bd
       0.091012366 0.040839072 -0.015094691 -0.05389075
0001f0 f6 c0 6f bd 6e 41 35 bd e9 6f 2e 3c fa 47 69 bd
       -0.05853363 -0.04425185 0.010646799 -0.056953408
000200 b8 32 8e 3c 88 d3 ff 3c 31 25 3d 3d b9 f7 3a 3d
       0.017358169 0.031228796 0.046178047 0.045646403
000210 04 43 a3 3d fb 32 d5 3d 60 3d 90 bd 23 a7 39 bd
       0.079717666 0.104101144 -0.07042956 -0.04532541
000220 59 41 4f 3d 42 e4 1a 3c b5 52 4b 3c c5 a5 c2 3d
       0.05059943 0.009453835 0.012409856 0.09504274
000230 af 13 8a bd e8 c8 80 bc 46 e5 05 3e 63 60 7e 3d
       -0.067420356 -0.0157208 0.13075742 0.06210364
000240 7a d7 30 bd 0f 04 87 3d 7d 4a 1a bb e5 a4 cd ba
       -0.043174244 0.06592571 -0.0023542934 -0.0015689401
000250 4b d3 4e 3d 87 50 d5 3c 4a 40 47 bd cf 94 08 3d
       0.050494473 0.026039375 -0.048645295 0.03334504
000260 e5 56 cd bd c5 8b 44 bd e7 33 6e 3d e6 73 a4 bc
       -0.100263394 -0.047984857 0.058154967 -0.020074796
000270 b3 1a 9b 3d dd 95 5c 3d af 41 ff bc 01 8a 42 3c
       0.07573452 0.05385386 -0.03115925 0.011873723
000280 a7 8c d5 3d d4 28 53 3d 94 ca 50 bd ad 80 34 bc
       0.10427218 0.05155261 -0.050974444 -0.011017007
000290 58 61 29 bc a5 03 7d bd 52 50 55 3d 7f 7a 0e 3d
       -0.01033815 -0.061771054 0.052078553 0.03478479
0002a0 dc 43 3e 3d e6 5a 80 3d 1f 6c 2f 3d b8 fd b2 ba
       0.046451434 0.062673375 0.04282772 -0.0013655936
0002b0 14 63 0d bb 2b b6 81 3d 68 be e1 39 04 eb 01 bd
       -0.0021573948 0.06333574 0.00043057208 -0.03171827
0002c0 41 a2 e2 3d fa 75 a8 3d 52 f0 29 bd 1d f0 8c 3d
       0.11066104 0.08225627 -0.041488953 0.068817355
0002d0 de ce 77 3d 2a 20 d4 bc 43 bf 6d 3d e9 bc 70 3d
       0.06050002 -0.025894243 0.05804373 0.05877391
0002e0 40 01 bc bc 80 0b 10 3d 51 32 95 bc d6 ce cb 3d
       -0.022949815 0.035167217 -0.01821247 0.0995156
0002f0 72 07 d1 3d 39 70 32 bd 94 7e 9d bc 8c 06 89 3c
       0.10206498 -0.043564055 -0.019225396 0.016726755
000300 72 2d 2a 37 4a e9 1e 3b aa ab d6 3c 10 0f 97 3c
       1.0143371e-05 0.0024247938 0.026204903 0.0184398
000310 15 1d 79 3d 8f d4 0d 3d 09 41 3d 3d 5a b7 81 3d
       0.06081875 0.03462654 0.0462046 0.063338
000320 5d 2a d2 3d e8 3e c1 3d 30 dc be 3c 0c 21 70 3a
       0.102619864 0.094358265 0.023298353 0.0009160198
000330 9a 0d 27 bd d9 b2 90 3c 84 df aa 3d 80 9d 43 bc
       -0.040784456 0.017663406 0.083434135 -0.011939406
000340 15 1b 1b bd af 5a c0 3d d6 30 8b 3d 48 6d 64 3d
       -0.037867624 0.093922965 0.06796424 0.05576828
000350 66 f0 17 3c 9d bd b7 3d ce 66 12 3d 31 a0 ba bd
       0.009273624 0.08971713 0.035742573 -0.09112585
000360 80 da b5 bc 70 88 01 3c 53 3a 65 bd ac fc 4f 3d
       -0.022198915 0.007906064 -0.055963825 0.050778076
000370 1a 55 b2 3d 97 db 0e 3d 24 c5 79 3d 42 00 e5 bb
       0.08707638 0.034877386 0.060979024 -0.006988556
000380 08 06 d3 3d e7 6f e1 bd c5 51 c7 3d b6 8b 85 3d
       0.10303885 -0.11007672 0.09732393 0.06520788
000390 fc b0 11 3d 2e df f4 b9 7f 3d 0b 3b 26 8b a3 3d
       0.035569176 -0.00046705588 0.0021246371 0.07985525
0003a0 d9 d3 88 bd ae 74 af 3d 33 4f 15 bd ab e5 a1 3d
       -0.06681032 0.08567177 -0.036452483 0.07905134
0003b0 05 d7 60 bd bd 4d 43 3d f1 91 d3 3d 46 b4 df bd
       -0.05489256 0.04768156 0.103305705 -0.10923056
0003c0 97 83 bd 3c 00 f1 6c 3d 70 c1 6e 3d 99 27 60 ba
       0.023134036 0.057847023 0.058289945 -0.00085508224
0003d0 d1 aa 7d bd a0 72 31 3d dc 82 1a bd 72 bf e1 3c
       -0.06193048 0.043322206 -0.037722453 0.027557109
0003e0 1a 37 3a bd d5 a6 54 3d 27 d0 ae 3d e7 dd a0 3d
       -0.045462705 0.051916916 0.08535796 0.078548245
0003f0 36 31 87 3d 80 84 5f 3d 5e 7d b4 3d 12 62 44 bd
       0.06601183 0.05456972 0.088129744 -0.04794509

model.2.bias f4 [128]
000000 a8 6a f7 3c e9 4e 90 bb af 5f d3 3c 90 60 6e 3c
       0.030202225 -0.004403938 0.025802461 0.0145493895
000010 48 39 a0 3d 55 75 f3 3d ce de ab bb 21 74 b3 bc
       0.078234255 0.11887614 -0.0052450662 -0.02190596
000020 f6 fe 18 3d 78 12 18 3d 7a 82 12 3d 19 51 e0 3d
       0.037352525 0.03712699 0.035768963 0.10952968
000030 c5 36 ab bb d8 0e b8 3d 71 4e f5 3d 0c a1 8c 3d
       -0.005225035 0.08987206 0.11977852 0.06866655
000040 b4 7b df 3d ff 72 d7 3c 56 77 5c 3d 26 a4 44 3d
       0.109122664 0.026299952 0.053824745 0.048008107
000050 79 c3 d0 bc a7 62 86 3d 11 83 26 3d c7 43 16 3c
       -0.025483834 0.06561785 0.04065234 0.009171433
000060 68 e9 d4 3c 38 31 13 bd 3f 74 ae bb d8 fa 89 3d
       0.025990203 -0.03593561 -0.005323916 0.06737298
000070 3b a9 6e 3d 10 b9 32 bd 57 9a e3 3d 4a 21 5a 3c
       0.05826686 -0.04363352 0.11113422 0.013313601
000080 3b 8d 6f 3c 84 81 28 bc 54 39 0c bd 41 8c 37 3d
       0.014621074 -0.010284785 -0.03423436 0.04481149
000090 7f 8d af 3d 6a e3 8b bc 25 19 53 3d 00 a6 a9 bd
       0.0857191 -0.017076213 0.05153765 -0.08283615
0000a0 b0 80 9a 3d a6 ef 80 3d e1 38 20 3d ac b2 65 3d
       0.075440764 0.06295709 0.039116744 0.056078598
0000b0 6e 6d 58 3c 64 6f 2d bd 95 f5 3b bb 8b 5d c2 3d
       0.013209684 -0.04234256 -0.0028680314 0.09490498
0000c0 f7 42 bb 3d 0b f7 1d bc be f4 59 3d 25 7b 45 ba
       0.09143632 -0.009641419 0.05321192 -0.00075333036
0000d0 8a 9f e7 3d c3 72 12 bb 16 86 9e 3c 1f 32 f8 3c
       0.113097265 -0.0022346235 0.019351047 0.030297337
0000e0 7b 3c ed 3d 2b 3a 0c 3d e5 36 eb bb 3d cb 71 3d
       0.11583801 0.03423516 -0.007178175 0.059031714
0000f0 d1 35 12 3d 7b b7 83 3c 4e 48 1a bd 51 07 9a 3d
       0.035695855 0.016078701 -0.03766661 0.07520927
000100 57 1f 08 bd 19 02 fa 3d d9 2a a6 bd 54 23 90 3d
       -0.033233013 0.12207431 -0.08113641 0.07037988
000110 9a 45 d5 3d 0d 49 0e bd 6f 53 fc 3b 5b 49 0e be
       0.10413666 -0.034737635 0.0077003757 -0.1389517
000120 fc 31 07 3d c3 a4 e4 bc f4 c0 ac 3d af 54 d6 bc
       0.033006653 -0.027910596 0.084352404 -0.026163427
000130 e4 35 28 3d 5d 9a a3 3b 61 c6 f7 3c fd 10 fb b9
       0.04106702 0.004992767 0.030245962 -0.00047887108
000140 a8 65 45 3d 64 7a 9b 3d b8 07 d2 bc 05 62 b4 3d
       0.04819265 0.075917035 -0.025638446 0.08807758
000150 02 c8 48 bc 09 8f 82 3d 44 4d e4 bb d1 45 a3 ba
       -0.012254717 0.06374938 -0.0069672186 -0.001245672
000160 81 28 14 bd e8 4a 01 bc a7 bc 99 bd 49 4c 8f bd
       -0.03617144 -0.007891394 -0.07506686 -0.06996972
000170 13 c7 5e bd e2 db a6 3d 6f 43 ab 3c 89 bc 3a 3c
       -0.05438907 0.08147408 0.020906178 0.011397489
000180 f9 7f d0 3d 83 aa 23 bd 3e b9 35 3d 1d 34 61 3d
       0.10180659 -0.039957535 0.044366114 0.05498134
000190 fd 58 89 bd 3a 09 8f 3d 06 28 b8 3c a2 d1 53 3d
       -0.06706426 0.06984182 0.022480022 0.051713593
0001a0 b5 22 08 bc ff da 9c bd 54 a0 11 bd 37 ab 52 bd
       -0.008309056 -0.07658958 -0.03555329 -0.051432814
0001b0 76 71 b8 bd b2 f5 86 3b 1d 13 59 bd 7b c8 15 3c
       -0.09006016 0.0041186446 -0.052996743 0.009142037
0001c0 03 0f 9d 3d 06 f0 31 bb 78 32 f6 3d c2 e9 cd 3c
       0.07668879 -0.0027151122 0.12021345 0.025135878
0001d0 8f ae a4 bb ef 5a db 3c 06 98 5c bd ff f4 18 bd
       -0.005025692 0.026776759 -0.05385592 -0.03734302
0001e0 77 b8 99 3d b1 dd d0 bc 1c be a0 3d 72 6a 12 bd
       0.07505887 -0.025496336 0.078487605 -0.035746045
0001f0 95 b9 ec 3d fb 6a 5b bd 8b 96 3b 3c ac 55 a8 3d
       0.115588345 -0.05356882 0.011449466 0.082194656

model.4.weight f4 [7, 128]
000000 70 08 a3 3c 07 af 80 3d bc 59 d9 bd ca a3 dd 3d
       0.019901484 0.06283384 -0.106128186 0.10822256
000010 78 0f a1 bd 9d 14 0b 3d c0 fb ea 3c 44 96 48 bd
       -0.078642786 0.033955205 0.028684497 -0.04897143
000020 f5 cd b9 bd 5b 3e e9 3c 13 b3 ab 3c 49 ba 49 bd
       -0.09072486 0.028472116 0.020959413 -0.04924992
000030 44 36 a2 3d 0f af bb 3c 47 3a 38 bd 6c 11 87 bd
       0.079205066 0.022910623 -0.044977453 -0.0659512
000040 3e 6c 64 bc 01 50 d2 bc 5d 5d 3b bd a4 71 f1 3c
       -0.013941823 -0.025672914 -0.045743335 0.029473133
000050 15 5e 90 3c b4 f6 07 bd 0f 89 ad bd d2 a4 0c bd
       0.017622987 -0.03319426 -0.084734075 -0.034336872
000060 15 65 83 3d ff 89 3a 3d a8 63 91 3d c3 07 38 3d
       0.06415764 0.04554176 0.07099086 0.044929277
000070 93 c5 2d 3d 11 77 cd 3c 8c c6 e1 bc dc e4 31 3d
       0.04242475 0.02508119 -0.027560495 0.043431148
000080 6a 2e 7c bd 3e 2c 7f bd c9 0b 33 3d 86 45 8b bd
       -0.0615677 -0.062298052 0.04371241 -0.0680037
000090 b7 a7 c9 3c e2 46 b6 bc 68 f5 35 3d 67 60 a4 3d
       0.024616105 -0.022250596 0.04442349 0.080262
0000a0 08 1a 59 bd 72 f9 73 3c e6 54 5d bd a8 57 57 bd
       -0.05300334 0.014891015 -0.054036044 -0.05257383
0000b0 26 c9 c2 3d 7c f9 96 3d 75 36 99 3d e6 6a 51 bd
       0.09511022 0.07371804 0.0748109 -0.051127337
0000c0 bd 17 4d bd 65 1e 1b bd 6f 40 fe bd 85 01 23 3d
       -0.050071467 -0.037870783 -0.124146335 0.03979637
0000d0 fe fe 71 bc fd d6 f2 3d f8 b1 79 bd cf 7f 8a 3d
       -0.0147702675 0.11857412 -0.06096074 0.06762659
0000e0 7a 4c dd bd f8 63 61 bd b9 bc a5 3c 6a 2d ea 3d
       -0.10805602 -0.05502698 0.020231592 0.11434443
0000f0 5c a4 cf 3c f8 94 bb bc 30 8e 77 bc 4f e6 ac bd
       0.025346927 -0.022898182 -0.015109584 -0.084423654
000100 11 07 21 bd 23 ef f7 bd ef 03 40 3d c2 27 0a bb
       -0.03931338 -0.121061586 0.04687875 -0.0021080826
000110 9d 64 9a bc 5d 86 f5 3b 85 91 e1 3b 35 db 83 bd
       -0.018846804 0.007492824 0.0068838024 -0.06438295
000120 61 e1 d2 3b 95 5b b5 3d 83 48 08 3e af 25 b6 bd
       0.0064355587 0.088553585 0.13308911 -0.08893906
000130 a2 0f ab bc 99 79 14 3d 92 f0 c9 3c 5c b7 fa bc
       -0.020881478 0.036248777 0.024650846 -0.03060501
000140 29 82 e7 3d 6d db 2a 3d 1a a7 8f 3d af b5 b8 bd
       0.11304123 0.041713167 0.07014294 -0.090190284
000150 75 59 61 bd 89 66 55 bd 2f fe 88 3d 6d 92 b7 3b
       -0.055016953 -0.05209974 0.06689107 0.005602172
000160 45 87 74 3c ef 19 f2 bd 0c 0f 41 bd bb 16 10 3d
       0.014924829 -0.11821353 -0.04713349 0.035177927
000170 70 c0 1c ba a2 23 a0 3c 96 b2 0c bc 08 a4 fb 3c
       -0.0005979603 0.019548241 -0.0085875 0.030717865
000180 09 d1 c7 bd 8a 12 ba 3d 7f 13 89 3d 59 2c a3 3d
       -0.09756667 0.09085567 0.06693172 0.07967443
000190 10 0b 26 3d 51 93 48 bd ba 78 fe bb 20 75 2f 3d
       0.040537894 -0.048968617 -0.0077658566 0.04283631
0001a0 ff fa 87 3c b2 13 83 bd 8e a1 15 bc 1a d3 e5 3d
       0.016599176 -0.06400241 -0.009132756 0.11221905
0001b0 22 fa 36 bd ce e0 99 bd 63 3c 82 3c 82 09 44 3c
       -0.04467214 -0.07513581 0.015897935 0.011965157
0001c0 d3 5d 27 bd e2 1f d2 3d 27 f5 bf bd 2e 1d 6a 3d
       -0.040860962 0.102599874 -0.09372931 0.057156734
0001d0 99 20 2b 3c 8d 62 27 3d ce 1a 82 3d 36 00 cc 3d
       0.010444784 0.04086547 0.06352769 0.09960978
0001e0 5a 43 a0 bc 07 b3 80 3d b8 0c db bd ea 94 6c 3d
       -0.019563366 0.06284147 -0.10695785 0.057759203
0001f0 92 23 ef bc 95 37 68 3d 66 ad bb 3d db 96 35 bd
       -0.029191766 0.056693632 0.091639325 -0.04433332
000200 d2 9e 8f 3d 26 7d a1 bd 92 41 58 bd 2a 1c ef bb
       0.070127144 -0.07885198 -0.052796908 -0.0072970586
000210 2a a7 8c 3d c5 c7 8b 3d 1c e2 32 bd 4e 0d ac 3d
       0.068678215 0.068252124 -0.043672666 0.08400975
000220 b0 be f6 3c a9 d9 7e 3d 4c 5d 9f bd d1 69 ee bc
       0.030120224 0.062219296 -0.07781467 -0.029103192
000230 a1 92 85 3d 09 d8 cb 3b ed 42 9b 3d a8 51 64 bd
       0.06522108 0.0062208218 0.075811245 -0.055741936
000240 15 15 bd bd a9 12 89 3d 50 e2 0f bd 8a ee b6 3c
       -0.09232537 0.06693012 -0.035127938 0.022330541
000250 5b c5 35 3c 6e 2b 6e 3d 4b d6 e2 3d b7 2f ce 3d
       0.0110944165 0.058146887 0.110760294 0.10067695
000260 17 16 a9 3d ae 64 ac 3d 58 99 a0 3d 2b 13 6e bd
       0.082561664 0.084176406 0.07841748 -0.05812375
000270 27 25 b3 3d 7f 18 ae bd 32 32 e5 3d 1c 17 cf 3d
       0.087473206 -0.08500766 0.111912146 0.1011183
000280 56 ca 20 bd 75 b9 4f 3d d5 b8 ec bd 8d 8d 42 3d
       -0.039255463 0.050713975 -0.115586914 0.047498275
000290 39 d4 1f bd a2 1a 54 3c 8f e3 3a bd 19 00 86 bd
       -0.03902075 0.012945803 -0.045627173 -0.065429874
0002a0 6c bb 28 bd 67 d2 73 bd e4 21 26 bc 3e aa 58 3c
       -0.041194364 -0.059526827 -0.010139916 0.013224183
0002b0 75 93 70 bd 87 1f fa bd 91 50 2e bd ba a6 c5 3d
       -0.058734376 -0.122130446 -0.042557303 0.09650941
0002c0 8e e8 8d 3d ef 6e f3 3c c2 c6 a3 3d 5d 1c 48 3d
       0.06929122 0.029715983 0.079968944 0.048855174
0002d0 40 8f 91 3d 34 21 6c 3d 2a 4c 45 3d 97 13 d4 3d
       0.07107401 0.057648852 0.04816834 0.10355299
0002e0 42 ea d2 bd 42 d6 86 bd 25 e4 2b 3c be 35 8a bd
       -0.102985874 -0.06583835 0.010491406 -0.06748532
0002f0 8a fb f3 bd f0 15 73 bd cc b7 de 3d cd e7 b7 bc
       -0.11913212 -0.059347093 0.108749 -0.022449398
000300 ba 42 aa bd 5c 74 a3 bd 7e e8 b0 bd 70 90 b1 3d
       -0.08313508 -0.07981178 -0.08638094 0.086701274
000310 56 4b 8d 3d 11 f3 cf bd 87 20 ce 3d b1 00 80 bd
       0.06899135 -0.10153783 0.10064798 -0.06250132
000320 df fd b1 bd 94 41 bb 3d fd 25 b9 bd 78 4a bb 3d
       -0.08691 0.091433674 -0.09040449 0.09145063
000330 cd 06 81 bc 7f ef ca bd ec b1 a6 3d c6 e5 17 bb
       -0.015750313 -0.099089615 0.08139405 -0.0023177727
000340 3e 49 f3 bd b0 e6 4f bd 74 eb b9 bd 46 83 8b 3d
       -0.11879204 -0.05075711 -0.09078112 0.06812148
000350 2a d4 86 bc b2 9d a4 3d 4c ed e2 3a f6 7f 3b 3d
       -0.01645859 0.080378905 0.0017313152 0.04577633
000360 b3 af f2 bd bb 78 b1 3d 57 31 f2 bd be 41 d8 3d
       -0.11849918 0.08665606 -0.11825817 0.10559414
000370 9c 38 99 3d ee 99 b7 bd e0 6a 3a bd e6 1a a7 bc
       0.074815005 -0.08964907 -0.04551208 -0.020398568
000380 8a 78 d6 bc 42 f4 cc 3c 77 06 75 3d e4 e7 30 3c
       -0.026180524 0.025018815 0.05982062 0.0107974745
000390 a9 be 8f bd 3a cf 00 bc 5e 49 f2 bd 9e 44 04 3d
       -0.070187874 -0.007861907 -0.118304 0.032292
0003a0 47 66 34 bd ed b6 2b 3e bb 0f f8 bd a9 34 e1 bc
       -0.04404285 0.16769 -0.12112375 -0.02749093
0003b0 e0 cf 05 3d 71 55 4e bc fb 6b 5d 3d 6a 71 1a 3d
       0.03266895 -0.012593613 0.054058056 0.037705816
0003c0 12 2b 6a bd 6e 00 93 3a d2 d7 b8 3d 69 5a a2 3d
       -0.05716998 0.0011215338 0.090255395 0.079274006
0003d0 63 32 ae 3d 36 dc 36 3d 79 ea a9 3c fe c5 50 3d
       0.08505704 0.044643603 0.020741688 0.05097007
0003e0 cb 8c 88 3c 0c f7 d7 3d 72 83 82 bd 6d cb ce bc
       0.016668698 0.10545167 -0.063727275 -0.025243485
0003f0 0b c7 54 3b 1a e3 e7 bd 01 ae d8 bd 2d 1c fa bd
       0.0032467272 -0.11322613 -0.105800636 -0.12212405

model.4.bias f4 [7]
000000 99 28 12 3d 3a 2e 2b 3d 3d 34 c1 bd c6 d0 ab 3d
       0.03568325 0.041792132 -0.09433792 0.0838943
000010 57 e1 ff 3a a5 ed ac 3c ab f9 58 bd
       0.0019522113 0.021109411 -0.052972477
