models/ecoli_core_v5_metabolic_nn.pth (torch, 389589 bytes, 14 tensors)

model.0.weight f4 [256, 20]
00000000: ebb7 2a3e 53a0 2b3c 43a6 af3d 8c39 b23c
00000010: fe30 003e ac27 593e af6c 0e3e cec1 513c
00000020: b5f9 113e fd6b f2bd 601c 8c3c 7006 28bc
00000030: 98e7 9cbd d810 fe3d 41b0 fabd 3098 58be
00000040: b990 0ebe 3ef7 57be d37d 833d dab3 5bbe
00000050: 15fe 20be 060d 3fbe 3b02 1a3e 4e9a e73d
00000060: cedc 083d d296 793d b7c5 87bc d9d1 85bd
00000070: 8190 583d 84a2 3e3c 6c78 fb3d ece9 9d3b
00000080: c9e6 1c3e 3268 1f3d 4a0a 453e b88e 57be
00000090: ceb4 58be 37aa 0f3e f4a8 aabd 6355 873d
000000a0: 82da 14be caf8 19bd 99ec 24be 4bc1 313e
000000b0: 7003 9ebc dfbf 7cbe 5074 debd 5d77 87be
000000c0: dcaa 71bc 03af 0f3d 8c0a 97bd 1403 b93d
000000d0: c0da 83bd 40be 2a3c e6bb 203e 32d7 033e
000000e0: 61a6 56be fb5d 7a3d d11c 61be c7bb 943d
000000f0: aaed 103e 21c5 293e 3229 f83d 4b24 013e
00000100: 17d8 d3bc ea53 4d3d 9d13 cfbe a267 3f3d
00000110: ad79 8abe 1405 11bd 3dae fcbc 2c96 633c
00000120: 1edf a9bd fc61 8ebe 640b 20bd c6ef 2fbe
00000130: 4fa0 26be 383c 20ba 6d86 5bbe 7a26 ed3c
00000140: 3b72 56be b9ec 2e3d e595 c83c 1baf 2cbe
00000150: 2da9 d8bd cb01 12be 0d88 873d 505e 393e
00000160: b178 343e 8ace 843d 1a53 0ebd 5f02 6f3d
00000170: 5132 6e3e abff 84bd 01bb 3f3e 0410 563d
00000180: 9569 51be 6e89 cb3d 838e d03d 0bf7 38be
00000190: f28e 9d3d 6310 353c 2a4b 293e 2672 41be
000001a0: c75a afbd 9291 d13d c232 abbd 522c 55be
000001b0: 7fa2 50be adee d8bc 1a43 3e3e 8f17 3b3d
000001c0: df4a 173e 272a 9c3d a945 4a3e b539 323e
000001d0: 6587 fcbd fcc8 63be 2acb 493e cbdf fe3b
000001e0: 068e b13c adf9 24be 111e 0fbe 6fce 60bd
000001f0: a44e 5cbe 2c01 09be 0214 19be 1d34 9fbd
00000200: e6d8 09bd 519f bcbd 13ce 12be 78e6 d3ba
00000210: bb0c fb3d 86d8 1a39 1e6f 2e3e 8c57 59be
00000220: 93c3 1abe 7c73 c1bd 7e46 fdbd c1da 263e
00000230: 2708 cabd 064a 793b 42cd 433e 1fd3 37bd
00000240: b963 27be db85 3b3d 4f80 adbd 1435 283d
00000250: 7d0c 5dbd f1b2 01be e13f 413d 8beb 6abb
00000260: b81c 9f3d f909 443e adf6 aebb 0856 233e
00000270: 880f 493e 8f9d e6bb 46fc c1bd 0213 65bc
00000280: 6a6f 57bd e243 263e 8e35 46be ebf9 833d
00000290: 2dde 27be 8131 763e 215f b4bd 6fe6 11bd
000002a0: ddf1 a9bd 8984 cc3d 0892 053e 991c 973d
000002b0: e993 943d 710b 583d b8cf 403e 6a96 9f3c
000002c0: 065a e13d d77a cc3d 8303 48be 3475 1bbe
000002d0: b307 033e cdfb 4a3e db00 903b d91c 1b3e
000002e0: 408d 083e f540 df3d f669 273e 033d b03d
000002f0: b0af 903d 8f40 55bd fc48 eebd a4c4 d93d
00000300: 59b0 573e 04e3 003e ae28 d4bd 5149 b9bd
00000310: 867c c0bd 12dd 5a3e 9a1e c43c 4d8a c7bc
00000320: 6a11 2f3d 0d34 093d ab5d 453e df54 6f3d
00000330: bc3b 48bd 4c29 9d3d ee4a e03d c817 0fbe
00000340: e966 80be d70e adbd 85cd 5bbd 99d3 feba
00000350: c23c 023e 3473 b73d dd51 863c 137e 193e
00000360: 826c 00be 06ce dc3d ea97 a8bb 2324 60be
00000370: 511e 21be 4f47 72be ff06 cfbd d32a efbd
00000380: b8e6 9e3c 37bc ff3d b1a4 a7bc 9313 a13d
00000390: eea0 a13d 406e 4ebd 25df 21bd 3258 0f3c
000003a0: 98f8 163e c5f3 223e a382 ccbd 41ee 4b3e
000003b0: 3463 23be 36d2 47be bfab 26be 0886 4b3d
000003c0: 9c3c 3f3d 5835 1c3e 3885 0a3d 84bd 2abd
000003d0: e683 a3bd cbbe 5abd 7b80 f3bd 0267 15be
000003e0: 4f49 33bd 7906 173c d69d 82be 6aa6 be3d
000003f0: 45c6 34bd b0b2 4fbe 7ee0 61bc ccb3 39be
0.16671722 0.010475236 0.08576634 0.021755956 0.12518689 0.2120654 0.13908647 0.012802554
0.14255412 -0.118370034 0.017103374 -0.010255441 -0.076613605 0.124055564 -0.12240649 -0.21151805
-0.13922395 -0.21090409 0.064204834 -0.21455327 -0.15721925 -0.18657312 0.15039913 0.11308728
0.0334137 0.06093485 -0.01657377 -0.06534166 0.052872185 0.011635426 0.12278828 0.0048191454
0.15322413 0.038917728 0.19242206 -0.21050537 -0.21162722 0.14029776 -0.083330065 0.06608083
-0.14536479 -0.03759078 -0.1610588 0.17358892 -0.019288749 -0.24682568 -0.108620286 -0.26458254
-0.014750209 0.035079014 -0.073750585 0.0903379 -0.064382076 0.010421336 0.15696678 0.12875059
-0.20961906 0.061124783 -0.21983649 0.07262378 0.14153162 0.16579105 0.121172324 0.12611501
-0.025859876 0.050128855 -0.4044465 0.04672969 -0.27045956 -0.035405234 -0.030844802 0.013890784
-0.08294509 -0.2780913 -0.039073363 -0.1718131 -0.1627209 -0.0006112489 -0.21437998 0.028949011
-0.20942013 0.042706225 0.024485538 -0.16863672 -0.10579143 -0.14258496 0.066177465 0.18102384
0.17624165 0.06484707 -0.03474722 0.05835187 0.23261382 -0.06494077 0.1872368 0.052261367
-0.20450433 0.09938322 0.10183432 -0.1806299 0.0769328 0.01105127 0.16532579 -0.188912
-0.08562236 0.102328435 -0.08359291 -0.20817688 -0.20374487 -0.026480997 0.18580285 0.045676764
0.14774655 0.076252274 0.19753136 0.17404826 -0.12330512 -0.22244638 0.19706407 0.007778143
0.021674167 -0.16110869 -0.13976313 -0.05488437 -0.21514374 -0.13379353 -0.14949039 -0.07773612
-0.033654116 -0.09210075 -0.14336424 -0.0016166708 0.122582875 0.00014767246 0.17034575 -0.21224803
-0.15113668 -0.09445855 -0.12366961 0.16294385 -0.09864836 0.0038038506 0.19121268 -0.044879075
-0.16346635 0.04578195 -0.084717385 0.041066244 -0.053966988 -0.12665917 0.04718006 -0.003584596
0.077691495 0.1914443 -0.0053394646 0.15950787 0.19634831 -0.0070378254 -0.094719455 -0.013981583
-0.052596487 0.16236833 -0.19356367 0.064441524 -0.16393347 0.24042322 -0.08807207 -0.03562015
-0.08298085 0.099862166 0.13043988 0.073785014 0.07254774 0.052745286 0.18829238 0.019480903
0.11003499 0.09984367 -0.1953259 -0.15181428 0.12795906 0.19822617 0.004394633 0.15147723
0.13335133 0.109010614 0.16349015 0.08605387 0.0706476 -0.05206352 -0.116350144 0.10633209
0.21063365 0.125866 -0.103593215 -0.09047187 -0.09398751 0.21373394 0.023940373 -0.02435794
0.042741217 0.033496905 0.19274013 0.05843055 -0.048885092 0.076738924 0.10951792 -0.13973916
-0.25078514 -0.08450096 -0.053662796 -0.0019441723 0.1271849 0.0895752 0.016396457 0.149895
-0.12541392 0.10781483 -0.0051450627 -0.21888785 -0.15734221 -0.23660015 -0.10108756 -0.1167809
0.019397125 0.12487071 -0.020464273 0.078650616 0.07892023 -0.05039811 -0.039519448 0.008749055
0.14743268 0.15913303 -0.099858545 0.19915105 -0.15955812 -0.19513783 -0.16276453 0.04968837
0.04668866 0.15254724 0.033818454 -0.041684642 -0.07984142 -0.05340461 -0.1188974 -0.14590076
-0.043771084 0.009217852 -0.25511044 0.09309085 -0.044134397 -0.20283008 -0.013786433 -0.18134993

model.0.bias f4 [256]
00000000: 06f4 9bbd e098 9b3d 66a7 363e bdba 4bbe
00000010: 2493 2d3e e5dd 33bd 276b 093d 9294 bdbd
00000020: cd50 53bd 56ad 18be 326b ea3d 183a 81bd
00000030: 1538 e2bb c36d 1abe c433 0bbe df01 15be
00000040: 4322 033d 7566 473e d258 193e 269d aa3d
00000050: 0baa 0b3d 82f8 4d3d e696 43bd 4c89 f2bd
00000060: 856d 4d3e fae7 4e3e 4797 df3d c239 fe3d
00000070: 2d8f cfbd 8d45 30bd 81f3 e4bc c125 42be
00000080: 9f4a 00be f82c e3bb 8a9b 6abd 446b a4bd
00000090: ae16 193e 9b3e 06be a59a ba3d f9a2 10bd
000000a0: 6ca9 4dbe 1f3b 0dbe d3cc b73d ce50 1e3e
000000b0: 8d60 293e da2e 063d 042d cd3d fac2 b33c
000000c0: 6921 513d 5cd7 1a3e c589 d43d fd55 513e
000000d0: 88a7 0fbe 7908 643e 9795 8cbd 6651 613e
000000e0: e109 033d dca2 ffbd 269c 5c3e effd 2a3d
000000f0: ad40 823c e846 b6bd eeb7 31be b10c 2c3d
00000100: 7796 1ebd 7f9f c2bc 3699 77bd db26 103e
00000110: 3f11 da3d 60d3 263e 0ab0 50bc 4c07 32be
00000120: f498 88b9 3d69 3c3e 638c a2bd a5d3 36bd
00000130: 24aa e73c d9a3 56be 9a28 7ebd d499 083d
00000140: 448f 443c 6de4 e5bd ed60 e7bd 2d44 db3c
00000150: 39f1 4fbe 1d94 00be b856 d73d 07f9 a9bd
00000160: 2c61 81bd e3db 57be 7cb4 51bd 934c 623e
00000170: 85bd 61be 3450 20be 0886 5ebe c494 573e
00000180: b143 b33b 92e0 88bd 7b6c 25be 68ea 063e
00000190: a33c f4bd e129 8d3d 31ea 833d 63da a9bd
000001a0: 3ff0 193d 3e71 48bd 9840 ec3c 4d07 5cbc
000001b0: 8ab1 903d ee3f 2e3e 657d c9bd 110f 1fbd
000001c0: 2ca7 30be a911 5dbe 7a87 363e 9a4e 033e
000001d0: 8e1f c13c 4192 25be d9ec 843d d610 0b3e
000001e0: d8fc 7e3c 9994 113e 6b62 053d 2210 8fbd
000001f0: da34 4fbe 72fe 4d3e 1270 4d3e 1142 91bd
00000200: 472d 653d ed72 19be 4198 be3d 2d43 06be
00000210: 8acb 233d 6964 2d3e 4061 273e 72e8 a1bd
00000220: 39eb b8bd 4d84 483b 3b59 9ebd 3df1 4f3e
00000230: 2dde b33d 2de6 2ebd bc24 56be 3784 723d
00000240: 7b18 49be 0b91 963c 2784 aa3d 9337 1b3e
00000250: cbc5 473e 85b7 703d 0623 5f3e 1baf f6bd
00000260: 2625 58be 44f7 abbc 57cc 3e3a 158d ccbd
00000270: ff6a 01be fb16 51be 2e15 0cbd 465c 123e
00000280: e726 8fbd 80ac 19be 8aef 923d db8b 2a3e
00000290: 6a45 76bc 2a17 08be c45c e53c d3c5 16be
000002a0: fa1a 253d 8464 14be 0a9d 14be 0738 b7bd
000002b0: cde2 8ebd d243 8c3d bd98 b23d 5a7a bf3d
000002c0: 5008 fbbd 7731 53bd ec89 0e3e dba9 273e
000002d0: 9d59 143e ef32 913d 792a 5cbd 2d7c ec3d
000002e0: ebc7 583e bbf4 c83d 3eaa 13be 6a1d 0c3d
000002f0: 319f fdbc 8e29 2b3e 6c41 01be 4f7f 073d
00000300: 4813 153e 7d26 503e f4a3 2fbe d877 47be
00000310: a4f2 383e 9a73 23bd 11a5 0e3e 91e8 b5bd
00000320: ebb8 5fbe f25c 973d 36b5 e9bd f82a ce3b
00000330: 7c4e 263e 9264 f43d ce08 c93c 4fac 26be
00000340: bfcb 5e3e 0838 3b3e df84 bbbd 64c7 3f3e
00000350: 6ca1 2abe b2b7 46be 87f8 d43d ab25 b3bd
00000360: 7f08 1b3b fc3a 5bbd 00b4 0b3d 2dfe cabd
00000370: 1ab6 1c3e 0fdd 533e 4fcd 983d df23 5b3e
00000380: 85e5 3bbe a9c6 203e 23c3 36be 964c 5bbe
00000390: 37c5 273e 3eb9 f93d 3913 35bc 08cf c8bd
000003a0: 8b11 2d3e 0197 ebbb 72fd 42be fb6c 3c3e
000003b0: 5916 20bc 0c61 c5bc c5ac 473e 7303 cebd
000003c0: 5672 44be 02e7 eb3d d638 babd 0ad0 653d
000003d0: 18b8 67bc 152e 223c 4b9a 20be bed5 b2bd
000003e0: 127e 12be 03e1 3e3d 9e0b f43d d654 b43c
000003f0: 590c 223c 0869 56bd 6c00 0e3e c0c6 4fbe
-0.07614903 0.07597518 0.17837295 -0.19895454 0.16950661 -0.043912787 0.033549454 -0.09256853
-0.05159073 -0.14909872 0.11446227 -0.06309909 -0.006903658 -0.15080933 -0.13593966 -0.14551495
0.032015096 0.19472678 0.14975289 0.08330755 0.034097712 0.050285824 -0.04775133 -0.118425936
0.2006131 0.2020568 0.10917526 0.1241336 -0.101347305 -0.04303508 -0.027948143 -0.18959714
-0.12528466 -0.006932851 -0.05727724 -0.08028272 0.14950058 -0.1310982 0.09111527 -0.035311673
-0.2008416 -0.13792084 0.08974614 0.15460512 0.16540737 0.032759525 0.10018352 0.021943558
0.051057253 0.15121216 0.1037784 0.20442958 -0.14028752 0.22268857 -0.068644695 0.22003707
0.031991843 -0.12482235 0.21543941 0.041746076 0.01589998 -0.08900243 -0.1735532 0.04200429
-0.038717713 -0.023757694 -0.060448848 0.14077322 0.10647821 0.1629157 -0.0127372835 -0.17385596
-0.000260539 0.1839952 -0.07936933 -0.044635434 0.028279372 -0.2096094 -0.06205044 0.033349827
0.011997048 -0.112252094 -0.11297784 0.026765907 -0.20306863 -0.125565 0.10514587 -0.08299451
-0.06317362 -0.21079974 -0.051197514 0.22099523 -0.22044952 -0.15655595 -0.21730816 0.21052843
0.005470716 -0.066834584 -0.16154663 0.13175356 -0.11925628 0.068927534 0.06441153 -0.08293607
0.037582632 -0.04893612 0.028839394 -0.013429475 0.07065113 0.17016575 -0.0983837 -0.038832728
-0.17251271 -0.21588768 0.17825118 0.12822953 0.023574617 -0.16169073 0.064904876 0.13580641
0.015563212 0.14216842 0.03256456 -0.06985499 -0.20235005 0.20116594 0.20062283 -0.07092679
0.055951383 -0.14985247 0.09306384 -0.13111563 0.03998903 0.16932835 0.16345692 -0.079056635
-0.0902924 0.0030596436 -0.07731863 0.20306869 0.08782611 -0.04269998 -0.2091245 0.05920812
-0.19638245 0.018379709 0.08325987 0.15157919 0.19509046 0.058768768 0.21790704 -0.120451175
-0.21107921 -0.020991929 0.0007278374 -0.09987847 -0.12638472 -0.20418923 -0.034199886 0.14293012
-0.06989842 -0.1500721 0.07174595 0.16654913 -0.015031198 -0.13290086 0.027998336 -0.14723901
0.04030893 -0.14491469 -0.1451303 -0.08946233 -0.069768526 0.06848873 0.08720539 0.093495086
-0.12257445 -0.051560845 0.139198 0.16373388 0.1448731 0.07089793 -0.053751443 0.11547122
0.21170013 0.09812304 -0.14420411 0.03420774 -0.030959697 0.1671507 -0.12622613 0.033080395
0.14558136 0.20327182 -0.17152387 -0.1947931 0.1806131 -0.039905168 0.13930155 -0.08882249
-0.21847884 0.07390775 -0.11411516 0.0062917434 0.16240877 0.11933245 0.024540331 -0.16276668
0.2175741 0.18283093 -0.091562025 0.18728405 -0.1666314 -0.19406012 0.10398965 -0.08747419
0.0023656187 -0.05352305 0.03410721 -0.099117614 0.15303841 0.20689796 0.074610345 0.21400402
-0.18349274 0.15700783 -0.17847876 -0.21415934 0.16383825 0.12193535 -0.011051946 -0.09805113
0.16901223 -0.007189632 -0.19041994 0.18400948 -0.009770953 -0.024094127 0.194995 -0.10059252
-0.1918424 0.115186706 -0.09092872 0.056106605 -0.014143012 0.009898682 -0.15683858 -0.08732174
-0.14305905 0.046601307 0.11916278 0.02201311 0.009890639 -0.05234626 0.13867348 -0.20290661

model.1.weight f4 [256]
00000000: 9dc6 753f 06c0 863f 2c29 723f 01bd 893f
00000010: 6e74 6f3f ccd0 743f 7d1f 7e3f 1b76 783f
00000020: 738b 693f acd8 753f f338 753f e819 843f
00000030: 31a7 783f c1ac 713f b194 763f 1321 793f
00000040: f1c2 833f 9510 6b3f 151f 763f c572 7b3f
00000050: 55ad 803f 9df4 8b3f 9480 7a3f a5cc 6c3f
00000060: 717d 743f c707 7b3f a40a 703f b616 753f
00000070: b057 803f 9b13 983f 5ca6 7b3f 0b8c 763f
00000080: c00d 813f 5b88 6a3f 1c48 723f bc6b 843f
00000090: 2a4d 6f3f 5368 6c3f bfa4 6e3f 4284 6a3f
000000a0: 5957 9a3f e56f 753f 178f 8b3f d1ea 7f3f
000000b0: aec4 733f 30c4 7f3f 37b4 813f a2ca 823f
000000c0: bd91 743f fdc4 623f 8f4c 7a3f e782 713f
000000d0: 78c8 853f 6cca 6b3f c2b0 783f cfbf 893f
000000e0: 3ecb 723f b049 6e3f bedb 783f 8283 763f
000000f0: a7d7 7c3f 0542 753f 368c 703f d222 7e3f
00000100: eba3 733f b18d 763f e7ec 713f 8512 6e3f
00000110: f220 763f a2b5 6a3f 0cfb 833f b948 763f
00000120: 44d7 773f e1e9 7d3f 319b 873f e158 823f
00000130: 31da 653f a701 7e3f ac09 713f 585a 753f
00000140: d88e 723f 38d8 683f 68c1 773f 6a23 853f
00000150: db2d 8d3f 6d98 8d3f 6eea 6e3f a7e4 813f
00000160: 61a0 653f ee38 813f 47e8 773f 5f9c 773f
00000170: 0716 713f 8c11 863f c04b 6c3f 4d0d 613f
00000180: d927 743f 83ec 743f bb0b 723f 7ab1 7d3f
00000190: 4e7c 793f d989 7c3f 1b7a 793f 0877 813f
000001a0: aa79 923f 8eea 763f ac46 7d3f 2a40 803f
000001b0: 2d91 793f e849 733f 51fa 883f 1809 8e3f
000001c0: 6c94 723f a7a8 793f 0f81 843f 71ee 7a3f
000001d0: c32b 803f 4e5b 5f3f 343b 893f 4c20 773f
000001e0: 2d57 833f 8cc4 6f3f 50de 8b3f 6ab8 723f
000001f0: abde 743f 2846 643f a8ca 7c3f 4a0b 743f
00000200: 9cd6 703f dbe3 6d3f 26ef 843f f460 7b3f
00000210: 78dc 7d3f 27da 703f 60b0 793f 2592 613f
00000220: ee37 763f 10b6 8c3f 5d71 923f e919 763f
00000230: cce8 7b3f da9a 723f 0dd0 6a3f 9903 8b3f
00000240: 9809 723f 2a2d 6f3f 823a 7a3f ad7e 723f
00000250: 5f53 773f 903b 803f 6575 8d3f c94d 7f3f
00000260: 696f 793f 90d1 763f bb9e 773f e360 7c3f
00000270: 2b5e 803f 48d9 793f 4b1b 943f 29b5 743f
00000280: fbe4 7f3f b59d 653f 660a 8c3f a794 6d3f
00000290: 8c5a 733f b6eb 743f c3ec 6e3f bf97 7d3f
000002a0: 07d2 783f 6563 843f 1157 8c3f f489 753f
000002b0: 1b6e 653f 0a32 803f 6252 7d3f 91ec 6d3f
000002c0: 1394 823f f14d 763f 0259 623f a821 773f
000002d0: 9401 853f 7c1b 7d3f c665 6f3f e362 7f3f
000002e0: 2a25 6c3f 8581 823f 969f 743f 253a 943f
000002f0: 9a23 753f a803 7b3f 68f9 993f d370 743f
00000300: 3d85 633f c2a7 733f 01c9 793f 8f5c 6c3f
00000310: 2a31 793f 9839 7b3f c4e6 733f 7632 803f
00000320: d52d 933f 82e0 7e3f 9454 7c3f 7569 713f
00000330: a6c1 643f 1dfa 753f 8463 663f b74e 733f
00000340: 4266 743f e3d5 923f b792 7c3f e682 723f
00000350: aedc 713f 82ee 763f b6a1 733f 862d 763f
00000360: 8f44 7e3f 3e64 723f 4789 713f 4ca6 853f
00000370: 1cb9 953f 1bd3 853f 0847 6b3f 579e 773f
00000380: 3cdd 643f a722 853f 7f28 613f 761b 743f
00000390: efab 733f 35fa 6f3f 0e2e 763f 1545 7e3f
000003a0: bdff 7a3f cb04 6a3f 3988 743f a467 763f
000003b0: f096 7e3f ca41 843f 397e 5d3f 1580 793f
000003c0: ebbb 723f 34c7 6d3f 06e8 793f 89bf 833f
000003d0: 998c 5e3f ebde 813f d65e 813f f7b2 643f
000003e0: 1bb3 773f 2806 6e3f 03d7 733f 631c 723f
000003f0: 4499 7e3f 981f 6f3f 8796 753f e38e 7d3f
0.96006185 1.0527351 0.94594073 1.0760804 0.9353703 0.956311 0.992668 0.97055215
0.9122841 0.9603374 0.9579002 1.0320406 0.97130114 0.94404227 0.96320635 0.9731609
1.0293866 0.9182218 0.9614118 0.98222 1.0052897 1.0934025 0.97852445 0.9249976
0.9550391 0.9805874 0.93766236 0.9573778 1.002676 1.1880983 0.9830072 0.9630744
1.0082321 0.9161431 0.9464128 1.0345378 0.9347712 0.92346686 0.9322013 0.9160806
1.2057906 0.9587386 1.0903043 0.99967676 0.95221984 0.99908733 1.0133122 1.0218089
0.9553488 0.8858183 0.9777307 0.94340366 1.0451803 0.92105746 0.9714471 1.076166
0.9484137 0.9308119 0.972103 0.96294415 0.9876656 0.9580386 0.93963945 0.9927188
0.95171994 0.96309954 0.9450211 0.9299701 0.9614402 0.916834 1.0310988 0.96204716
0.96812844 0.99184996 1.0594236 1.0183374 0.8978606 0.9922127 0.94155383 0.9584098
0.9474921 0.90954924 0.9677949 1.0401433 1.1029619 1.1062142 0.9332646 1.0147904
0.89697844 1.0095499 0.968388 0.9672298 0.94174236 1.0474105 0.92303085 0.8791092
0.953733 0.9567339 0.9454915 0.9909893 0.974553 0.9864784 0.97451943 1.011445
1.1443379 0.9645165 0.9893596 1.0019581 0.97487146 0.95034647 1.070139 1.1096525
0.94757724 0.9752297 1.0351886 0.9802008 1.0013355 0.87248695 1.0721192 0.96533656
1.0260979 0.9365928 1.0927219 0.94812644 0.95652264 0.8916955 0.9874673 0.95329726
0.9407747 0.92925805 1.0385482 0.98194814 0.99164534 0.94082874 0.9753475 0.88113624
0.9617909 1.0993061 1.1440846 0.96133286 0.98402095 0.94767535 0.9172371 1.0860473
0.9454589 0.9342829 0.97745526 0.9472454 0.9661159 1.0018177 1.1051451 0.99728066
0.97435623 0.96413517 0.9672658 0.9858534 1.0028738 0.9759717 1.1570829 0.9558893
0.9995877 0.89693767 1.0940673 0.9280495 0.9506004 0.95672166 0.9333002 0.9905967
0.97195476 1.0342833 1.096407 0.95913625 0.8962113 1.0015271 0.9895383 0.92939097
1.0201439 0.9621268 0.88417065 0.9653573 1.0391107 0.9887006 0.9351467 0.99760264
0.9224421 1.0195776 0.9555601 1.1580244 0.9575745 0.98052454 1.2029238 0.95484656
0.8887518 0.95177853 0.9757233 0.92328733 0.97340643 0.98134756 0.95273995 1.00154
1.1498362 0.9956132 0.98566556 0.9430154 0.89357984 0.9608477 0.899956 0.95041984
0.95468533 1.1471523 0.9866137 0.94730985 0.94477355 0.96457684 0.95168626 0.96163213
0.9932336 0.9468421 0.94350094 1.0441375 1.1697116 1.0455049 0.9190526 0.9672598
0.89400077 1.04012 0.8795242 0.953544 0.95184225 0.9374116 0.96164024 0.9932416
0.98046476 0.91413563 0.9552036 0.96251893 0.9944906 1.0332577 0.86520725 0.9746106
0.9481799 0.92882085 0.97619665 1.0292827 0.86933285 1.0146154 1.0107067 0.8933558
0.9675767 0.92978144 0.95249957 0.94574565 0.99452615 0.93407583 0.9593281 0.9904615

model.1.bias f4 [256]
00000000: e0eb 8a3d e37f d33d 6966 42bb 88a7 293c
00000010: 11c0 453d 79ba c73d d583 aa3c 1e2e 363d
00000020: b55c a13d c1b1 703d 48a5 b53e 53b6 2dbd
00000030: cfaa 8a3d 80e1 8bbd 2965 dc3d c179 38bd
00000040: 6863 153e be45 8e3d 8d08 4ebd 10ef 653d
00000050: b524 8c3d 45b4 acbe 71ae 4f3d 6251 ae3d
00000060: 042b af3d 75bc 943d 0136 cbbe 3771 573c
00000070: cd62 323c 3aae a2be 8b33 8d3d 3fab c43d
00000080: 3f62 153c f6fb 863d 3eea 5e3d bda7 b23e
00000090: fe29 af3d 5c76 e53c debd ec3c 0873 de3d
000000a0: 29fd 93be 2467 833d a5b7 57bd 3246 343d
000000b0: 9419 82bb e684 ee3d c50e 4ebd 4b5d 163c
000000c0: 333a 673b ea03 113e a183 b63d 190d b33d
000000d0: bed5 dfbd 87b1 5e3c 8066 f33d ad30 7bbe
000000e0: 7990 9f3d 931d 5e3d fed5 433d 1e35 8e3e
000000f0: f091 343e 8bd3 b03d 8204 943d 734f 5b3d
00000100: e1bf b53c a688 d73c ab5f 6dbc 0de2 8a3d
00000110: 448d aa3d ec9e 753d 0700 473d f02d 3fbe
00000120: 7e31 a43d 6226 d2bd 8d06 2cbe e158 9f3d
00000130: d2db db3d 16df ac3d 0b8f b73d e21a 9f3d
00000140: df8e a13d 8440 b53d cc27 9b3d 2639 0dbe
00000150: a117 72be 1469 c9be ea0a c63d 557b 7b3c
00000160: 3988 bb3d 5cff 1abe 5ba2 bd3d 7e8a 383d
00000170: f48e 6d3d f403 d0bd 1e98 803d b293 3c3e
00000180: 2049 283d 01dd 673d 655e 273d 6ae9 223d
00000190: d833 163d 34cd 4ebe 0221 9ebc da99 503c
000001a0: f590 183d 6832 b9bc 226b 8e3d 0cd3 483d
000001b0: 8dd7 5d3c 6a3d 9b3d 6fec 9fbe ec19 d3bc
000001c0: bf04 903c 26bf 633c b44c 823e 996e 683d
000001d0: e0d8 5c3d 8b6e b33d c0f5 efbd 32da 333c
000001e0: 2c1f 9b3c 3a9b 273e a77f 90be f6d5 133e
000001f0: 7694 813d ee95 5b3d b429 033d 5f41 713d
00000200: 7ffa 3f3e 7708 2d3d 92fd 84bc 3357 833d
00000210: 4595 5f3e 927c 293e 3116 7a3d 41bc d03d
00000220: 3eeb 5dbc c5c9 d1bd 08ae aabe 0a10 8c3b
00000230: fb0a 36bc 34c3 883e 1df2 81bd b4b8 68bd
00000240: 2ba7 0a3c dad0 863d 5089 dd3d b3ac c63c
00000250: df4b e1bc 1636 c23c 669c 7cbe e078 e33c
00000260: 3a55 02bd 6ee2 003e 7bee b53c 4cfd 0d3d
00000270: 0dd1 3cbd c3e4 c63d adbe 683d a100 253d
00000280: 9652 173d c092 523d a215 e93d 057a d43d
00000290: 71ca e53d dffb 83bd b61d aa3d 2e44 dc3d
000002a0: 5c4c 4f3e e45b 3bbd f9f1 643d e39c 943d
000002b0: a37b fe3d 11f1 80bb 321d df3b 166e 923d
000002c0: e652 503e 33f0 363d 165c ef3d a8fd d73d
000002d0: ffb0 b8be bc7d d73c edcc 5c3d 537e cc3a
000002e0: 86a6 2f3d bdfc d9bd 3ada 00bc 9347 eebe
000002f0: aeab 4b3e 71c4 29bd 0097 a1be 265b 8fbc
00000300: 65b4 db3e 46fc 0e3e 8c61 98bc 5142 453d
00000310: 9956 663d b01f 083d a19e 20bd a0cc 47bd
00000320: 8154 6dbe c26f 953d c5cb 893b ee32 a13c
00000330: 7165 133e ebd9 963d 05b2 983d 79e3 7e3d
00000340: 0e2c c03d 4f37 b8be 6e94 9c3d 0ef7 a1bd
00000350: b928 a53d 86bb 973d 9cab adbd 408e 2b3e
00000360: 87bd 3d3e ed74 ed3d 4c1f 613e 20aa de3d
00000370: 86b3 d5bd 59af 9f3d ddbb 163d 2961 943d
00000380: 9a67 6abd a0c6 70be 2f75 d53d ebfd e73d
00000390: 3758 1d3e c15c d83d dd7a 933d b3fa 923c
000003a0: 25ed 993c a71c 953d b12c e83d 1976 ea3d
000003b0: 114d b63a e458 74be 5409 583e 00ac ca3d
000003c0: 5308 a23d 74ab 273e 7080 e23b 2871 2b3d
000003d0: 53b2 283d a309 3f3d 7d55 843d 775d 663d
000003e0: 4bcd d93d 4a04 a63d e227 62bd 2a8b cb3d
000003f0: 61e1 063e 10a9 f43b bb9a a53c 4925 263d
0.06783271 0.10327127 -0.0029663092 0.010354884 0.048278872 0.09752364 0.020814816 0.044477575
0.078790106 0.05876327 0.35477662 -0.042410206 0.067708604 -0.0683012 0.10761482 -0.04503799
0.14588702 0.06946896 -0.050301123 0.05613619 0.06842939 -0.33731285 0.05070347 0.08511616
0.085531265 0.07262508 -0.3968964 0.013149551 0.010887814 -0.3177355 0.06894597 0.09602975
0.009117662 0.065910265 0.05442261 0.348936 0.08552931 0.02801054 0.02889913 0.10861784
-0.28904083 0.06416157 -0.05266537 0.044012256 -0.0039703343 0.11646442 -0.050307054 0.009177516
0.0035282492 0.1416165 0.08911825 0.087427326 -0.1092944 0.0135921305 0.11884785 -0.24530287
0.07791228 0.054227423 0.0478115 0.277749 0.17633796 0.086340986 0.07227422 0.053542566
0.022186222 0.026310276 -0.014488141 0.06781397 0.083277255 0.059966013 0.04858401 -0.18669868
0.080172524 -0.10261227 -0.16799374 0.07780624 0.10735287 0.08440988 0.0896283 0.07768799
0.078885786 0.08850196 0.0757595 -0.13791332 -0.23641826 -0.3933798 0.096700504 0.015349229
0.09156842 -0.15136474 0.092594825 0.04505395 0.05799766 -0.10157004 0.06279014 0.18415716
0.041085362 0.05660725 0.040861506 0.039773382 0.036670536 -0.20195466 -0.019302849 0.012731994
0.037247617 -0.022607043 0.06954028 0.049029395 0.013540161 0.07580073 -0.31235072 -0.025769196
0.017580388 0.013900554 0.25449145 0.0567461 0.053917766 0.08761319 -0.11716795 0.010977315
0.018935762 0.16367808 -0.2822239 0.14437088 0.06327145 0.05360978 0.032022193 0.058900233
0.187479 0.0422444 -0.016234193 0.06413116 0.21834286 0.16551426 0.06105632 0.101921566
-0.013544856 -0.102435626 -0.333359 0.004274373 -0.011111016 0.26711428 -0.063450076 -0.05681677
0.0084627075 0.06582804 0.10817206 0.024252271 -0.027501998 0.02370743 -0.24669036 0.027767599
-0.03181956 0.12586376 0.022208443 0.03466539 -0.046097804 0.097116016 0.056822468 0.040283803
0.036943994 0.051409483 0.11381079 0.10374836 0.11220253 -0.06444525 0.08306448 0.10755192
0.20243973 -0.04574193 0.055894826 0.07256486 0.124259256 -0.0039349874 0.0068089003 0.071499035
0.20344123 0.044662666 0.11687486 0.10546428 -0.36072537 0.026305072 0.05390637 0.0015601612
0.04288342 -0.10643909 -0.007864529 -0.46538982 0.1988971 -0.041447107 -0.31560516 -0.017499518
0.42911068 0.13963422 -0.018601201 0.048158947 0.05623493 0.033233345 -0.03921378 -0.04877913
-0.23176767 0.07296707 0.0042051994 0.019677605 0.14394166 0.07365783 0.074558295 0.062228654
0.09383403 -0.35979697 0.07645498 -0.0790845 0.08064408 0.07408814 -0.084799975 0.16753483
0.1852933 0.115945674 0.21984595 0.108722925 -0.10434632 0.07797117 0.036800254 0.07245094
-0.05722771 -0.2351327 0.104227416 0.11327728 0.15365683 0.105645664 0.07201169 0.017941808
0.018789837 0.072808556 0.11336649 0.114483066 0.0013908466 -0.23862034 0.21097308 0.09896088
0.07911744 0.16373998 0.0069122836 0.04185596 0.04118569 0.04664005 0.06461618 0.05624148
0.1063486 0.08106287 -0.055213816 0.09938653 0.13171913 0.007466443 0.020215383 0.0405629

model.1.running_mean f4 [256]
00000000: 3278 bdbd 829b 983d 7294 293e 8f86 713d
00000010: 36a4 b03d 644f c23d 10ef 0dbd 82f7 9ebd
00000020: 7ea7 8fbd 8d98 16be d528 623e 1250 8bbe
00000030: 8e7e dc3d 3d12 483d ed8d 4ebe ea88 50be
00000040: e57b c4bb 08d3 503e 8dde 3d3e cb28 883d
00000050: 16fe 293e fbd1 4e3d 66fc f4bc 3070 aebd
00000060: b322 693e 5a14 813e 52c6 c7bd a3e5 d4ba
00000070: aa68 87be 60e3 35be d383 f6bd fe98 0cbe
00000080: 0824 61bc 7638 743d a295 97bd df7a 64be
00000090: a7e1 153d 6690 e8bd 1306 3e3e 5e9e b0bd
000000a0: 4413 b9be 192e 63be 3f55 d5bd b3ce cabd
000000b0: 124a 2f3e 7984 003e 8c1c dc3d e586 2dbe
000000c0: 2492 45bd 24e8 4f3e 899a 893e c5c1 733e
000000d0: bebf d93c 9094 003e 42b1 2dbe a1d4 8a3e
000000e0: 5030 323e 770d 0abe f07f ce3d 8140 253d
000000f0: 00d5 4e3d 1d90 4cbe 027f b4bd 642b 1e3e
00000100: 9584 00be 676e 82bb 8e30 b1bd 2710 c13d
00000110: 4408 443e 7e48 5f3d bbe3 393d 5d9e 1ebe
00000120: f3b4 033e e0ec ac3d 40cb 79be f338 56be
00000130: 0655 8cbb 74a7 bfbe 5ead 9c3d 47b3 ff3c
00000140: 7827 17bd 3a92 583c 4446 b33b a8ed a8bd
00000150: 4ecb a1be fe54 9d3d 78f0 9b3d ee80 95bd
00000160: 4d8a c3bd f901 c1bd 5325 e13d 7be7 a53e
00000170: 7588 60be 7324 c9bd bf60 ddbd b664 7e3e
00000180: 7731 f93d 6669 433c 52ec 1fbe d581 143e
00000190: 6acc 6ebd f83c 653e aa01 813d f6af 2bbe
000001a0: 80bc 783e ec81 cabb 4168 f73d bed9 05be
000001b0: 3fbc ac3d d1bd 393e 1588 c2be b87a 4cbe
000001c0: ac85 4abe 7dd6 84be 7498 833e dc98 953e
000001d0: fc6c 0fbe 0951 98bd 5ef9 6a3e 50bf 083e
000001e0: 7029 0fbe 8aea e53d fad6 3c3e f651 93be
000001f0: b059 84be f5fc 383e 1433 3d3e a13c df3c
00000200: 0c49 ca3c 3d98 7dbe cbdc 863d a068 10be
00000210: aede cd3d 63f6 2a3e 760c 333e 2669 c6bd
00000220: d263 3abe e40f 4dbe 6ae9 13be d81c 813e
00000230: a3f3 5b3c c004 25bd 721f b2be f1fc 583c
00000240: f0df fbbc 8113 073e 01aa 713e 72f7 553e
00000250: 2e25 c9bc c0d7 38be bfbb c93e 9700 87bd
00000260: e0e6 0dbe 5e57 033e 2d19 aa3d 7e36 6abe
00000270: 8726 29bc e629 4f3d b316 f0bb d5b7 803e
00000280: 5736 77be ac52 a0bd abf7 913e 03be 2f3e
00000290: e456 d63c a73c 2fbe 88f1 03bd db10 0c39
000002a0: 34b5 853d 6b0e 663d 9d5b 533d 8838 bcbc
000002b0: 2f28 cbbc 692b aa3d c4e7 693e 97c9 453e
000002c0: 2f95 07bc ec89 29bd 0438 503e bdf7 1d3e
000002d0: e64b 883e ba74 c83d 67c8 0a3e 5300 633d
000002e0: 652f 6e3e b98f 9c3e 24e5 56be 1623 e03c
000002f0: a9a6 67bd e16f e33c adb1 c73d 443f 043c
00000300: c4be 123d 1f29 7c3e dda4 073d e26e 56be
00000310: 446c db3d 359a a03d 50c4 2e3e b255 82be
00000320: 24f4 5bbe 3c89 ccbc e188 15be e558 103d
00000330: 58cc ca3d 1e58 363e 30ad f13d 00d3 46bd
00000340: 6f5f 8b3e b4d3 bb3e 1569 a8bd 9b01 e23e
00000350: 3dcc f6bd 3308 7cbe 9365 c73c f79d e8bc
00000360: 022d 173e 5096 10be fa9e 623d 7e97 8fbe
00000370: a90f af3e dd14 283e 46cf 823c ad99 133e
00000380: 9b88 f4be 983c d3bb 10d2 3dbe ceaa 2bbe
00000390: 340f 8f3e e82c 2b3e c9ee da3b fe63 89be
000003a0: 76c8 043e c559 d5bb fdbc 68be ed23 2e3e
000003b0: 368f 06be 8d6a 08be 46dc 2e3e 930e ebbc
000003c0: b438 59be c905 843e dd8a 80be c5ca b1bd
000003d0: 92ab b8bd 4c51 983d 7c05 49be 449a 1abe
000003e0: 708f 13bd eb8f 9b3d fd62 1c3e 7de0 563d
000003f0: 52f5 623e 0e02 2d3d e892 af3d 9a46 52be
-0.09251441 0.07451536 0.16560534 0.058966216 0.08625071 0.09487799 -0.034651816 -0.07762052
-0.070143685 -0.14706631 0.22085889 -0.27209526 0.10766326 0.04884552 -0.20171328 -0.20364729
-0.0059962147 0.20393002 0.18541928 0.06648406 0.16600832 0.05049322 -0.02990551 -0.08517492
0.22767143 0.2521084 -0.097546235 -0.0016242753 -0.2644704 -0.17762518 -0.12036862 -0.13730237
-0.013741501 0.059624158 -0.07401587 -0.22312497 0.036592152 -0.11355667 0.18557005 -0.08623956
-0.3614751 -0.22185554 -0.1041665 -0.09902706 0.171181 0.12550534 0.107476324 -0.1694599
-0.048235074 0.20303398 0.26875713 0.23804386 0.026580688 0.12556672 -0.1696215 0.27115348
0.17401242 -0.13481699 0.10082996 0.04034472 0.0504961 -0.1997685 -0.08813287 0.1544624
-0.12550576 -0.003980446 -0.08651839 0.09426909 0.19143778 0.054512493 0.045383196 -0.15490098
0.12861995 0.08443618 -0.2439394 -0.20920162 -0.0042825965 -0.37432444 0.07650255 0.031213416
-0.036902875 0.013218457 0.005471023 -0.08248454 -0.31600422 0.076822266 0.07614225 -0.07299982
-0.09547863 -0.094242044 0.10993447 0.32403168 -0.21927054 -0.09821405 -0.108094685 0.24843106
0.12167638 0.011926984 -0.15617493 0.14502652 -0.058300413 0.22386539 0.062991455 -0.16766343
0.24290657 -0.0061800387 0.12080432 -0.13071343 0.084343426 0.18138815 -0.37994447 -0.19968688
-0.19777554 -0.25944892 0.2570225 0.29218185 -0.14006418 -0.07437331 0.22946689 0.1335423
-0.13980651 0.112263754 0.18441382 -0.2877347 -0.25849676 0.18065245 0.18476516 0.02725059
0.024693035 -0.24765106 0.06585082 -0.14102411 0.100522384 0.16695552 0.17485222 -0.09688024
-0.18202141 -0.20025593 -0.14444509 0.2521732 0.013424787 -0.040287733 -0.34789616 0.0132439
-0.03074643 0.13191034 0.23600008 0.20895174 -0.024553861 -0.18051052 0.3940105 -0.065919094
-0.13857603 0.12826297 0.08305583 -0.2287235 -0.010324127 0.050577067 -0.0073269247 0.25140253
-0.24141823 -0.078282684 0.28509268 0.17162327 0.02616448 -0.17112981 -0.032212764 0.0001335772
0.065287024 0.056166094 0.05160104 -0.022976175 -0.024799434 0.08309061 0.22842318 0.19315182
-0.008275314 -0.0413913 0.20333868 0.15426536 0.26620406 0.09787889 0.1355301 0.05542023
0.23260267 0.30578402 -0.20985848 0.02736048 -0.056555424 0.027763309 0.09750686 0.008071724
0.03582646 0.24625061 0.03311621 -0.20940736 0.107140094 0.07841913 0.17067075 -0.25456005
-0.21479851 -0.024967782 -0.14602996 0.035241026 0.09902257 0.17807052 0.11800611 -0.04854107
0.27221248 0.36684954 -0.08223168 0.4414185 -0.12050674 -0.24612503 0.024340427 -0.028395636
0.14763263 -0.1411984 0.055327393 -0.28045267 0.34191635 0.16414209 0.015967976 0.14414091
-0.47760472 -0.0064464323 -0.18537164 -0.16764376 0.27941287 0.16716349 0.0066812974 -0.268341
0.12967095 -0.0065109455 -0.22728343 0.17005892 -0.13140568 -0.13321896 0.17076215 -0.028693473
-0.21213037 0.25785664 -0.25105944 -0.08681253 -0.090170994 0.07437381 -0.19630998 -0.1509791
-0.036025465 0.075958095 0.15272136 0.052460182 0.22163895 0.042238288 0.08572942 -0.20534745

model.1.running_var f4 [256]
00000000: 2420 333e d6fb 513e 754e 823e 1ffa 9e3e
00000010: 8eb9 7f3e 46ba 673e f30a 423e 9c8a 313e
00000020: fc24 773e d498 7e3e 5afa 243e c1f0 453e
00000030: 1ed9 473e e67e 863e ce2f db3e 8698 a93e
00000040: 4bd1 823e 6f6a 063e 0cf8 5d3e d276 803e
00000050: 9b7b 423e 35dd 513e ca35 333e ea51 7b3e
00000060: d12d 613e bb10 153e 863c f83e e968 0d3e
00000070: eea4 853e 65d8 993e 1491 2c3e a5e1 913e
00000080: 98d8 4f3e 22d2 683e 27d5 193e 43a1 2f3e
00000090: b16d a23e 9e3d 9d3e 7891 9c3e dced 693e
000000a0: 408e 933e 1e54 cc3e 120a 893e c477 9b3e
000000b0: 4f17 6c3e ada1 573e bb68 8d3e d50a 693e
000000c0: 2ed1 8b3e 613a 363e a04c 883e 366e 433e
000000d0: 9e37 b53e ff6d c53e b3b8 7d3e e45e 9c3e
000000e0: f26d 0a3e bb08 913e 8de8 873e d3cf 783e
000000f0: c801 183e a6ba 8e3e ea41 683e 30e3 553e
00000100: 78b7 9b3e 2a22 733e 7c1e 273e e1d5 913e
00000110: f634 9a3e 921d 4b3e 9157 5a3e 49cc 993e
00000120: fce3 8a3e a06e 263e 8bd6 c33e 6ad9 3d3e
00000130: 877f a33e 56e8 993e f3c1 613e 5525 943e
00000140: 001d 3f3e c984 853e 500c 2a3e 73b1 993e
00000150: e9b6 753e c48f 353e 1b0c b23e 5729 5a3e
00000160: 84aa 4e3e fb1c a73e d6be dc3e 0609 8d3e
00000170: b6d0 883e d777 6e3e d488 073e 243b 8c3e
00000180: 5e38 383e 2f0c 903e 51e6 923e 1264 6c3e
00000190: 2024 c13e c255 bc3e 836d 493e ebb0 723e
000001a0: 36c4 4d3e bc1b 8f3e 9767 003e 760b 753e
000001b0: 75e0 ae3e 2466 963e 6879 913e 743c e93e
000001c0: 1f2c 8b3e 781d 6f3e cc61 123e e0ee 563e
000001d0: 6d86 ae3e 96fb aa3e 1511 ec3d ebec 2a3e
000001e0: f26a 183e fb6f 633e 0d93 523e 62bd 733e
000001f0: ffcc bb3e eb83 953e 670c 4f3e ba48 9c3e
00000200: 67f7 363e ad86 113e 14f0 cf3e d409 1f3e
00000210: 819f b33e 84be a73e a525 623e d080 d23e
00000220: e873 6b3e dbc9 aa3e f329 a43e 05c4 833e
00000230: 71b7 903e e2a1 9a3e a771 c43e c264 6c3e
00000240: 4fea 823e 9abd 903e 778f 323e 30d6 7b3e
00000250: 2d06 b13e 8262 6c3e 067f 2b3e 1dc8 293e
00000260: 8d8b a13e 7e6c 543e 94a6 6d3e f817 653e
00000270: 82b3 923e e151 3d3e 2e9a 8c3e bdcf ae3e
00000280: f09e 9b3e 0c82 d03e 3a6d 983e e486 8a3e
00000290: 5d2e a13e 1538 843e c0c0 973e 2d12 553e
000002a0: 011f 5c3e 8f10 ab3e 84e5 853e ff6a 8b3e
000002b0: ab70 9a3e 67de 723e f085 863e 019d 4f3e
000002c0: e94c fb3d 8e19 5e3e 7476 a63e 0d02 903e
000002d0: 1d2d 523e 7a4a a63e 0319 7f3e d920 b43e
000002e0: 80a4 ac3e 54cf bb3e 4e1f 8d3e b244 6c3e
000002f0: 8ee3 8a3e b9f9 613e de89 823e 69cd 8d3e
00000300: bfbe 953e c269 ad3e ac8a 463e 27a1 953e
00000310: 42dc 9d3e 3d31 af3e 8884 a73e 24ed a23e
00000320: 6fbb 123e 7db9 223e 150e 973e 8419 9d3e
00000330: 89b4 153e 336e 8a3e a7e0 433e ee71 903e
00000340: 5563 553e 6497 5d3e 3806 153e 5770 c13e
00000350: 3d9c 1d3e 575e 223e 5102 853e 5033 1e3e
00000360: 2e78 3c3e 1dd0 3d3e d5e2 8c3e a31b 853e
00000370: 1291 803e bb3e 6a3e 8c58 5c3e f5e0 a83e
00000380: 4ec5 ae3e b30f 5d3e 8b87 5c3e 2ace 873e
00000390: b3b0 933e 0516 7c3e 416e 953e dc3e 8c3e
000003a0: 4340 3c3e bbd6 323e d2ee 313e 8c72 123e
000003b0: ce10 003e 92da 843e 2683 2e3e 9244 a33e
000003c0: f917 3d3e 1d89 693e 9e22 ae3e 4156 ac3e
000003d0: 9884 173e 7011 813e 36c4 6d3e 8838 603e
000003e0: fea0 4e3e fbc5 6c3e 454f 6d3e 094c 413e
000003f0: bd37 793e 1099 a53e bbfb b03e 3f80 c83e
0.1749273 0.20506224 0.25450483 0.31050202 0.24973127 0.22629651 0.1894949 0.17338032
0.24135202 0.24862987 0.16111127 0.19330122 0.19516417 0.2626869 0.4280991 0.3312418
0.25550303 0.13126539 0.21676654 0.25090653 0.18992464 0.2049454 0.17500988 0.24542966
0.21990134 0.14557163 0.48483676 0.13809551 0.26102394 0.30047908 0.16852218 0.28492466
0.20297468 0.2273641 0.15022717 0.1715136 0.31724313 0.30711073 0.30579734 0.22844642
0.28819466 0.39907926 0.26765496 0.3036481 0.23055767 0.21057768 0.27618966 0.22758038
0.2730803 0.17795707 0.2662096 0.19085011 0.35393995 0.38560483 0.24777488 0.30541146
0.13518503 0.28326973 0.2654461 0.24298029 0.1484443 0.27876776 0.22681394 0.20887446
0.30413413 0.23743501 0.16320223 0.2848349 0.3011853 0.19835499 0.21322466 0.3003867
0.27127063 0.16253138 0.3824962 0.18539968 0.31933233 0.3006007 0.22046642 0.28934732
0.18663406 0.2607787 0.1660626 0.30018196 0.23995556 0.17730623 0.3477486 0.21304832
0.20182234 0.32639298 0.43114346 0.27545947 0.26721734 0.23287903 0.1323579 0.2738887
0.17990252 0.28134295 0.28691342 0.23085049 0.37722874 0.36784178 0.19670682 0.23700301
0.2009438 0.27950847 0.12539516 0.23930153 0.34155622 0.29374802 0.28412938 0.45553935
0.271821 0.23351085 0.14295119 0.20989561 0.34086934 0.3339507 0.11526696 0.1669194
0.14884546 0.22210686 0.20563908 0.23802713 0.36679837 0.29202208 0.20219575 0.30524236
0.17867814 0.14211531 0.40612853 0.15531093 0.3508263 0.3276254 0.22084673 0.411139
0.22993433 0.33357129 0.32063255 0.2573549 0.28264955 0.30201632 0.3836796 0.23085311
0.25569388 0.28269655 0.1743754 0.24593425 0.34575024 0.23084453 0.16747674 0.16580243
0.3155178 0.20744511 0.23208076 0.22372425 0.2865258 0.18488266 0.2746138 0.34142867
0.30394697 0.40724218 0.29770833 0.27056038 0.31480685 0.25824037 0.29639244 0.20807715
0.21496202 0.3341107 0.2615167 0.2723007 0.30164084 0.23717652 0.2627406 0.20274736
0.12270529 0.21689436 0.32512248 0.28126565 0.20525022 0.32478696 0.24911885 0.3518131
0.33719254 0.36681616 0.27562946 0.2307308 0.27126735 0.22067918 0.2549581 0.27695778
0.2924709 0.3386975 0.19388837 0.29224512 0.30832106 0.34217253 0.327183 0.3182155
0.14329313 0.1589107 0.2950293 0.3068353 0.1461965 0.270372 0.19128667 0.2821192
0.20838673 0.21639782 0.14553154 0.3778102 0.15391631 0.158563 0.2597833 0.15449262
0.1840522 0.1853642 0.2751681 0.25997648 0.2511068 0.22875492 0.21518153 0.3298413
0.34134907 0.2158802 0.2153608 0.26524478 0.28845748 0.24617775 0.2918568 0.27391708
0.18383889 0.17464726 0.17376259 0.14301509 0.1250641 0.25948006 0.17042217 0.31888252
0.18466176 0.22806211 0.34010786 0.33659557 0.14796674 0.25208616 0.2321938 0.21896565
0.20178601 0.23122399 0.2317477 0.18876661 0.24337669 0.3234334 0.34567055 0.39160344

model.3.weight f4 [256, 256]
00000000: eff8 d33b 5977 6dbd a471 8f3d 066f 1a3a
00000010: a129 50bd 5b41 1c39 c7ca 96bc 1205 c83c
00000020: 033a 0a3d 39a9 b03c 049d be3b 5732 48ba
00000030: cb59 8a3d db25 dc3c 8fef 63bd 02eb e63a
00000040: 75f8 0fbc c151 2ebd a21d 02bd eaba 49bd
00000050: a23f 6fbd 9f94 23bd f8dc a3bc 9734 85bd
00000060: ecfd e1bc 0bc4 873d ee86 4dba a29e a23d
00000070: 6e34 94bd 46e3 5f3d 5806 133c 473a db3c
00000080: 5398 78bd fa33 e23c 7d1a 45bd 6744 c8bc
00000090: 876e c43b 68af 75bc 9c0e 6ebb e022 c83c
000000a0: dd53 aa3d 0bf6 86bd 10d7 9f3b db0c 8cba
000000b0: 00c0 8ebc 8b91 2ebd e985 54bd 2134 023d
000000c0: 2c2f e73c 80cb 043d 9b2c 8f3d bd6d 333d
000000d0: 5751 0dbc 8fcc 01bd 8eb4 60bd a83c 673d
000000e0: 3dc4 183d 6345 193d 1e83 333c ee35 fcba
000000f0: 4c3e 103d f667 163d c15b 9d3b 0da6 11bd
00000100: 64d8 a23c 89bf 47bd 850a 5e3c f4aa c9bc
00000110: e3fa 8c3c a90c 9ebd 93b1 a13b e9b5 a1bd
00000120: 5608 b13b 8c7c 1fbc 4bcb c63c 0b26 603d
00000130: 9245 dabc 10e3 873c e3b5 d63c 68bf 2c3d
00000140: 0073 d83b 066f 613c e1f8 1dbd e841 7ebd
00000150: 474e 9abd ff14 483d 58bb 833d 672d 6cba
00000160: 01f0 7f3d f322 633c 5d0f b53c 43e8 e0bc
00000170: 9649 6dbd 94dd e2bb e349 9f3d bc4c a2bc
00000180: 37ec 3cba bc3f 073d a637 503c 8c28 89bd
00000190: 41ad c6bc e4a4 eb3b e40b e6bc 12bd 59bc
000001a0: 5ac5 90bc 73c7 90bd 1d93 80bd 4091 ffbb
000001b0: 8f9d 58bd 6e5b 05bd 25ac 5d3a cc02 78bb
000001c0: 6bd0 fe3c dc3c 87bc a341 443d 7c62 a93c
000001d0: 810d da3c b059 573d efac cabc 4b88 dabc
000001e0: c125 963d 56ff 11bd 4bfe 98bc c5e9 c9bc
000001f0: 148d c63c e5da 0dbd e562 e43c fffe d8bc
00000200: d2cb 3abc 7d6d d4bc c3f2 68ba 9005 bb3b
00000210: db3b 22bc 9a47 efbb c26e 0cbd dc25 173b
00000220: 5d67 09bc 4486 90bc a6d9 293d 1b5b 8d3d
00000230: 5596 3bbc 9453 ba3a 7afc 6dbc fab9 b83a
00000240: 3b1a 40bc 35ad 65bb 486e 283c 2bd7 3ebc
00000250: cfbf 7ebc 6f04 adbd bb43 233c 368a bfbd
00000260: c95a aebc e7bf eabb 5085 04bd 5f25 6a3c
00000270: 5cc4 363d 3503 6ebc a232 42bc 7917 74bd
00000280: b3cb 9f3d f13b 78bb 06a3 033c b54a 5a3c
00000290: 64f7 25bd 9310 563c 1d93 b23b fdbc d2bb
000002a0: 6ff4 8cbd dc96 97bd c400 d33b 48d1 aebc
000002b0: aee3 40bb 1206 5fbd c909 bdbc efe8 5bbd
000002c0: 9618 603c f1e0 dabb db47 4d3d b265 48bd
000002d0: bfc7 c4bc 358f 023c 99d5 1fbc 8f31 243d
000002e0: 2cbb 8f3c f8e8 c6bb 0016 48bc 9ff5 023d
000002f0: 7b8c 473c f950 a2bc 0078 563d 07f6 b13c
00000300: d346 2fbd 7fd4 b63a e1b7 2b3d 2a6b bebc
00000310: ea3f 08bd 3790 4abd c301 91bd ac99 063c
00000320: 9cc4 5a3d 6082 d2bc 54da 3fbc fce5 8c39
00000330: 8895 133d 1c36 1abc 4198 14bd 59db b33c
00000340: 41f7 cdbc ad2f afbc 5c59 463d 8fda cdbc
00000350: 1c63 94bc e714 a13c c3d1 5dbd ec07 993d
00000360: 2995 023c 5f55 f9bb 0487 a5bc 6e43 37bd
00000370: 1b6d a3bd e1e9 be3b 014d 573c 0a31 c83c
00000380: 14cc d63c 4863 80bd 0e76 03bd 722e 8bbc
00000390: 08ea 273c 76c3 9c3d 86af a3bc 7def 74bc
000003a0: 2d0d 6b3b 3486 313d 6a44 fdbb 9dbc 5cbd
000003b0: 6501 1cbc ee60 f13c 9329 533d f60b 1a3d
000003c0: 0ee7 f4bc 6efd 98bc 96dc a8bc 3bc5 f33c
000003d0: 5463 cd3c e360 4a3c e56d dfbb 940c c63c
000003e0: 4730 85bd b1c6 91bd b207 743c db87 3a3c
000003f0: 8de8 fcbc 0ea4 a13c 7218 d9b9 d111 a53d
0.006468884 -0.057975147 0.07004097 0.00058911776 -0.05082095 0.00014901666 -0.018407239 0.02441648
0.03374673 0.021565067 0.0058170576 -0.0007636896 0.06755408 0.02687352 -0.055648383 0.0017617645
-0.008787264 -0.042558435 -0.03176654 -0.04925052 -0.058410294 -0.039936658 -0.020002827 -0.06504171
-0.0275869 0.06629189 -0.00078402355 0.07940413 -0.07236563 0.054660104 0.00897368 0.026761187
-0.060692143 0.027612675 -0.048120964 -0.02444668 0.005994621 -0.014995433 -0.0036324626 0.024430692
0.08316777 -0.06589898 0.0048779324 -0.0010684984 -0.017425537 -0.04261927 -0.05188552 0.031787995
0.028220735 0.032420635 0.0699093 0.043805826 -0.00862535 -0.031689223 -0.05485969 0.05645433
0.037296522 0.037419688 0.010956554 -0.0019242147 0.03521566 0.03672024 0.0048021977 -0.03555875
0.019878574 -0.048766647 0.013552313 -0.02461765 0.017209476 -0.077172585 0.0049344986 -0.07896025
0.005402605 -0.009734284 0.02426686 0.05472378 -0.026644502 0.016587764 0.026209777 0.042174727
0.006605506 0.01375938 -0.038567428 -0.06207457 -0.075344615 0.04884815 0.06432217 -0.0009009451
0.062484745 0.013863313 0.022102052 -0.027454501 -0.057931505 -0.006923387 0.07777765 -0.01981198
-0.00072068296 0.033019766 0.01270858 -0.06697187 -0.024252536 0.0071912874 -0.028081842 -0.013289707
-0.01767223 -0.07069292 -0.0627806 -0.0077992976 -0.052884635 -0.032557897 0.00084561325 -0.0037843464
0.03110524 -0.016508512 0.04791416 0.020676844 0.026617767 0.052575767 -0.024740664 -0.026676318
0.0733142 -0.035643898 -0.018675944 -0.024647603 0.024237193 -0.034632582 0.027879188 -0.02648878
-0.011401134 -0.025931114 -0.0008886272 0.00570745 -0.009901966 -0.0073022367 -0.034285314 0.0023063337
-0.00838646 -0.017642148 0.04146733 0.069021426 -0.011449416 0.0014215582 -0.014525527 0.0014093511
-0.011725004 -0.0035045866 0.010280199 -0.01164798 -0.01554866 -0.08448111 0.009964879 -0.093525335
-0.021283524 -0.00716399 -0.0323537 0.0142911365 0.044620857 -0.014527132 -0.011852892 -0.059592698
0.078025244 -0.0037877525 0.008034473 0.013323476 -0.040519133 0.013065475 0.005449666 -0.0064312206
-0.068825595 -0.07401821 0.0064393003 -0.021340027 -0.0029432583 -0.05444915 -0.023075955 -0.05368894
0.013677737 -0.006679647 0.050117355 -0.04892511 -0.024021028 0.0079687135 -0.0097555155 0.040086325
0.017545305 -0.0060702525 -0.012212276 0.031972524 0.012179489 -0.019814001 0.052360535 0.02172376
-0.042792153 0.0013948827 0.041923407 -0.02324446 -0.03326408 -0.04945394 -0.07080414 0.008215349
0.053410158 -0.025696933 -0.011709768 0.00026874233 0.036031276 -0.009412315 -0.036278013 0.021955179
-0.025142314 -0.021385038 0.048425063 -0.02512863 -0.018113665 0.019663287 -0.054155122 0.07472214
0.007970133 -0.007609054 -0.020205982 -0.04474204 -0.079797946 0.0058262204 0.013140918 0.024437446
0.026220359 -0.062689364 -0.032095008 -0.01698992 0.0102486685 0.07654469 -0.019981157 -0.014949677
0.0035866008 0.043340877 -0.007729103 -0.053890813 -0.009521817 0.029465165 0.05155332 0.037609063
-0.029895332 -0.018675532 -0.020612996 0.029757133 0.025071777 0.012352201 -0.0068185204 0.02417592
-0.06503349 -0.071179755 0.014894413 0.0113849295 -0.030872608 0.019731548 -0.00041407679 0.08060039

model.3.bias f4 [256]
00000000: 4a0b b5bc e6a3 75bd 4a3d 28bb 47b4 66bd
00000010: 3a12 4dbd b812 1bbd e328 f1bc 7399 4abd
00000020: b74e b4bb 9e11 1f3d f424 423c 2eb8 e6bc
00000030: 3418 493d 4a9c 183d 0c89 473d 9b54 773d
00000040: 67ad 22bb e430 333d 6930 76bd 057c c3bc
00000050: 3f1e 75bc 3965 77bd 80d5 813b 2f20 e6bc
00000060: 7034 1a3d c66b df3c fce3 a23c 0c2a 7bbd
00000070: de44 c039 9c9c 653d 777d 52bd 123f 243d
00000080: 5841 8dbb 9c02 a73c c2a0 a5bc 6e9e e2bc
00000090: 1a60 edbb 7a86 e9bc 12d4 7b3c c1fa 2b3c
000000a0: aeb0 c13c f88d 50bc 36ba 1dbc 9f8c ddbc
000000b0: d382 debc 70a5 cbbc 5b00 0c3c 966a 983c
000000c0: 26b9 3ebc 38e3 6d3d 4aea 493d 7f95 d83c
000000d0: afd9 5f3c e007 a33c 6e02 49bd c1dd 0abd
000000e0: 25e5 193d d1ef 333c d2af 6dbb c3bf 193d
000000f0: 6282 64bc 67d0 363d 5e05 2fbd 3e78 6ebc
00000100: 675f d13c 3ec9 d9bc 4d3d 4dbd d7cc 7f3c
00000110: 23ca 14bd 2a31 01bd 651f 7a3d 2cae 2d3d
00000120: 8874 ceb8 12d2 9bbc 65e4 09bd 8b43 6a3d
00000130: b2e4 d53c 4739 4abc 5713 c73c ba7f 043d
00000140: cd24 3ebd 49af adbb 2bd9 99bc 9fcc a73c
00000150: 4d68 7abc c736 48bd e243 8abb f985 f13a
00000160: a892 55bc 5cae 3ebd f696 bbba 6133 1e3c
00000170: f747 2a3d 2a03 69bd 69f6 8a3c 3723 05bc
00000180: 8e15 61bc a91b d7bb bc0e 283c ef27 433d
00000190: 5606 613c 3fed 67bd 7a00 bfbc 1a16 fcbc
000001a0: 4150 813c f69f fdbc b1b1 e93c 4b3e 12bc
000001b0: 05ff b6bc 4aaf fa3c 8072 b33c 6ad8 27bd
000001c0: a442 3dbd 6084 38bc 90f2 14bc d0e0 de3c
000001d0: b707 243d f75e 733d 0ad9 1d3d d569 3dbd
000001e0: 28e6 c2bb 0145 a2bc fccb 28bd 2032 723d
000001f0: 5476 0abb aba2 0dbd c844 f2bb a032 d8bc
00000200: 72ad 113d e03b f43b 1e3e 5bbd 1a31 58bd
00000210: 2c9e cf3c 9a2b 6abd 647f 2b3c a7f9 96bb
00000220: 2988 893c 4fbb 553c d208 41bb e2f2 08bd
00000230: 99fa 463d f066 883c 5b50 ee3c 8d90 3dbd
00000240: 57d8 29bd 1eb7 87bc df71 ffbc c52d a63a
00000250: b1e6 e93b 6f81 77bd 0f6f ad3c ef37 3bbd
00000260: 6345 89bb 05cd 6fbd b53d d1bc b399 1bbd
00000270: 4f4d 09bc 4d7c 3f3d f6d1 94ba f7aa b03c
00000280: 4784 25bd 3ca2 e13c a0d9 063d 9aca 0f3a
00000290: a50c cfbc 90be 093b bf0d 6ebb 1219 69bc
000002a0: a533 b5bc 8078 3fbd 26b6 eebc bf48 02bd
000002b0: c2e8 aa3c d5ae 1a3d 5c4b 373d 32f5 53bd
000002c0: e358 bfbc 4479 afbc bd06 23bd cdeb b8bc
000002d0: 4011 fcbc 7292 263d 76f9 0d3d e75c 64ba
000002e0: 1440 fd3c aca0 3dbc 7808 c5bc da79 f6bc
000002f0: 203a f3bc 335d 753d 99de ebbc 8b51 983c
00000300: 76fb 5dbd db23 2bbc 2abc cc3c bed1 173b
00000310: addf 133d 0cda 093d 5f35 1b3b cdac 233c
00000320: c96c 023d f956 ea3c bb89 c43a b774 7d3b
00000330: 321c 72bd 8401 6f3c 2d9a 4dbc 92de 9abb
00000340: 7f25 6a3d 78d5 453d 4d81 453c bca0 a33a
00000350: a238 3e3d b52f 773d f28a ce39 8398 e7bc
00000360: ea55 603d b7b4 df3b 06e1 90bb 59f4 1a3d
00000370: e682 6b3d 728f 3a3d 9c60 153d 91a8 76bc
00000380: c674 ab3b 999c 69bd 1a21 5fbd f2f6 a63c
00000390: e13e 09bd 0460 003d 60f3 693d 74da 443d
000003a0: c90f 703d 134a 34bd 7178 7bbc a2b1 393c
000003b0: 3354 51bd fb9c 743b 186e 113d b2f8 c1bc
000003c0: f158 4f3d e852 8ebc 5dcb e0bc 3a58 41bd
000003d0: f6d1 283d a6f6 57bd 2ba6 ad3a 4d06 8b3b
000003e0: 128c 3bbc 7fba a0bc 4bd2 4dbd 791b 64bc
000003f0: 57fb b43c 8099 713d 0d16 24bd 2506 7dbd
-0.02210011 -0.05997076 -0.0025671297 -0.05632427 -0.05006621 -0.03785965 -0.029438442 -0.049462747
-0.0055025476 0.03883516 0.011849631 -0.028163996 0.049095348 0.037258424 0.048714682 0.06038342
-0.0024822594 0.043747798 -0.06010476 -0.023862848 -0.0149608245 -0.060399268 0.0039622188 -0.028091518
0.037647665 0.02727307 0.019884102 -0.061319396 0.00036672404 0.056057557 -0.051389184 0.04009921
-0.004310768 0.020386986 -0.020218257 -0.027663436 -0.007244122 -0.028506506 0.015370386 0.010496796
0.023643818 -0.0127291605 -0.009626916 -0.027044592 -0.027161991 -0.02485916 0.008545007 0.018605512
-0.0116408225 0.05807802 0.0492957 0.026438473 0.01366274 0.019901216 -0.049074583 -0.033902887
0.037572045 0.01098247 -0.0036268127 0.037536394 -0.013947101 0.04463234 -0.042729728 -0.014555035
0.025558187 -0.026585218 -0.05010729 0.0156128025 -0.036325585 -0.031541027 0.061065096 0.04240243
-9.844551e-05 -0.019021068 -0.03366508 0.05719332 0.026110027 -0.012342758 0.024301214 0.032348372
-0.046421815 -0.0053004366 -0.018780312 0.020483313 -0.015283656 -0.048880365 -0.004219518 0.0018426768
-0.013035454 -0.046553 -0.0014311958 0.009655804 0.041572537 -0.056887783 0.0169632 -0.008126072
-0.013738049 -0.0065645766 0.010257419 0.047645506 0.013734421 -0.05662274 -0.023315657 -0.030772258
0.015785338 -0.030960064 0.028527113 -0.008925985 -0.0223384 0.030601162 0.021905184 -0.040977873
-0.04620613 -0.011262029 -0.0090910345 0.027206808 0.04004642 0.059416737 0.038537063 -0.046243507
-0.005947847 -0.019808294 -0.04121016 0.059129834 -0.0021127658 -0.03457896 -0.0073934533 -0.026391327
0.0355658 0.0074534267 -0.053526036 -0.052781202 0.025343977 -0.057170488 0.010467384 -0.0046073976
0.016788559 0.013045146 -0.002945472 -0.033434756 0.048578832 0.016650647 0.02909105 -0.046280432
-0.041466083 -0.01656681 -0.031182228 0.0012678435 0.0071380963 -0.060426172 0.02117112 -0.04570764
-0.0041891797 -0.05854513 -0.02554212 -0.037988376 -0.008380248 0.0467494 -0.0011354077 0.021565897
-0.040409353 0.02754318 0.032922387 0.0005485207 -0.025274584 0.0021018125 -0.0036324111 -0.014227169
-0.022119353 -0.046745777 -0.02913959 -0.031807657 0.02086294 0.03776439 0.044749603 -0.05174751
-0.023357814 -0.021420129 -0.039801348 -0.022573376 -0.030769944 0.040667005 0.034661733 -0.00087113533
0.030914344 -0.011573952 -0.02405189 -0.0300874 -0.029690802 0.059903335 -0.028792666 0.01859357
-0.05419489 -0.01044556 0.024992067 0.0023165788 0.036101986 0.03365521 0.0023682935 0.009989929
0.031842027 0.028605925 0.001499466 0.0038674304 -0.05910892 0.014587764 -0.012548965 -0.0047262395
0.057164665 0.048299283 0.0120547535 0.0012483816 0.046440728 0.06034823 0.00039394904 -0.028270965
0.054769434 0.006826963 -0.004421356 0.037830684 0.05749788 0.045546956 0.036469087 -0.015054838
0.0052324263 -0.05703411 -0.054474927 0.020381425 -0.03350723 0.031341568 0.057116866 0.048059896
0.058608804 -0.044015955 -0.01534854 0.011333855 -0.05110569 0.0037325013 0.035505384 -0.023678157
0.05062193 -0.017373517 -0.027440721 -0.04720328 0.04121586 -0.052725457 0.0013248374 0.0042426945
-0.01144697 -0.019620178 -0.05024938 -0.013922566 0.022092504 0.05898428 -0.04006009 -0.061773438
