models/ecoli_core_v3_metabolic_nn.pth (torch, 83769 bytes, 6 tensors)

model.0.weight f4 [128, 20]
0.022184098 -0.21084917 0.106642194 -0.1723913 -0.21694927 -0.27870116 -0.15997754 -0.16457017
0.015410239 -0.04500221 0.02655424 -0.21385783 -0.06106101 -0.13160528 0.10176515 -0.20794338
0.030878613 -0.10203773 -0.03360131 -0.061260518 0.051750522 0.18595484 0.0015563694 -0.018443137
-0.042738006 -0.23554544 -0.20531338 0.08753458 -0.16230924 0.06083674 0.19995806 -0.067825325
-0.15587999 -0.15834868 -0.044887144 -0.15454641 0.01998009 -0.084363304 -0.08472799 -0.1776935
-0.1519619 -0.24788064 -0.087255955 0.006065168 0.074787706 -0.27065346 -0.20786276 -0.07579534
-0.117248155 -0.20684178 -0.18488659 0.02987828 0.057659768 0.09586044 0.12054764 0.14788608
-0.094150536 0.08093817 0.0013956286 0.19606346 -0.20760678 0.08727557 0.15412639 0.14431423
-0.07480496 0.25413057 0.062983036 0.021502297 0.044010505 0.15091276 -0.17110914 0.20488136
-0.14915353 0.01882353 0.0035849663 -0.15313013 0.19470182 -0.0024528059 -0.18687801 0.08859827
-0.14480095 0.105533004 0.20325342 0.13627388 0.10040027 0.06870674 0.20967895 0.21805413
0.09578718 0.17303999 0.05232856 0.19110605 -0.11355419 0.12309189 -0.10119343 -0.07469666
0.15140535 -0.075601 -0.1350762 -0.033274375 -0.07476137 0.19768985 -0.029522588 0.0041419794
-0.09564437 0.20357488 0.036326285 0.009158391 0.08928373 -0.12602378 0.17346303 -0.118319005
0.062365983 0.03941118 0.12664692 0.1656444 0.07923037 -0.15700966 0.12912786 -0.103013605
0.15029068 -0.06681478 0.09932111 0.09423715 -0.0005052414 0.0017674675 0.1435716 0.2014631
-0.05148143 -0.08488677 0.0037921793 0.064288594 0.1574315 0.24250858 -0.15644687 0.064166285
-0.058323905 0.13130763 0.15911914 -0.020349063 0.097221315 0.17399545 0.16857135 -0.1501584
-0.03924353 -0.1633012 -0.22407113 -0.19205733 0.041374236 -0.041003082 -0.08400113 -0.14456218
0.11740027 -0.13783333 -0.0067799552 0.22256196 -0.122679584 0.19019866 -0.15017237 0.15453961
-0.25450316 -0.16580464 0.09278681 0.09899382 0.005174881 -0.20840977 0.102114454 -0.073315404
-0.047282964 0.057304863 -0.11075383 0.08066324 -0.12975854 -0.06692155 0.17344218 -0.05887675
-0.1333756 0.08102712 -0.06864615 0.1509164 -0.002624541 -0.27360317 -0.12064459 -0.18901324
-0.09113924 0.06295016 0.18582419 -0.012746136 0.16913354 -0.18023369 -0.12114719 -0.18425141
0.14329861 0.18514057 0.0061429837 -0.10799009 -0.01948834 0.10310469 0.17133239 -0.19443601
-0.10735836 -0.013696482 -0.15719482 0.1834751 -0.09808593 -0.021243993 0.21832445 -0.03649907
0.11675186 -0.053972844 -0.19644326 0.094517075 -0.24886817 0.051954612 0.20913292 -0.2000709
0.055063047 0.052045614 0.0465476 -0.022419035 -0.1378508 0.046629388 0.018510062 -0.050247215
-0.14290142 -0.19061525 -0.07441447 0.100160554 0.058493294 0.016598815 0.053721312 -0.18044515
0.084039986 0.20313793 -0.15638077 -0.06680102 -0.13548489 0.10045561 0.034329847 0.15786365
-0.06087027 -0.124907 0.032550927 0.17496817 -0.00054612645 0.17512393 0.20780574 -0.003884413
-0.06891359 0.033473495 -0.04782045 -0.098170236 0.14189883 0.23308733 -0.13788739 0.051715825
00000000: 6dbb b53c d8e8 57be 3967 da3d 5887 30be
00000010: f327 5ebe ebb1 8ebe 27d1 23be 1585 28be
00000020: 3a7b 7c3c 3d54 38bd 4788 d93c 8cfd 5abe
00000030: 1c1b 7abd 89c3 06be 3f6a d03d 1cef 54be
00000040: 25f5 fc3c 28f9 d0bd 87a1 09bd 4fec 7abd
00000050: 5bf8 533d f26a 3e3e 17ff cb3a 1016 97bc
00000060: 0c0e 2fbd d332 71be ac3d 52be 5445 b33d
00000070: 6534 26be f22f 793d cec1 4c3e 01e8 8abd
00000080: 019f 1fbe 2826 22be 95db 37bd 6a41 1ebe
00000090: 49ad a33c abc6 acbd de85 adbd 49f5 35be
000000a0: e69b 1bbe 6cd4 7dbe 40b3 b2bd 51be c63b
000000b0: 4c2a 993d 1793 8abe fad9 54be 963a 9bbd
000000c0: cd1f f0bd 55ce 53be e952 3dbe 4bc3 f43c
000000d0: a62c 6c3d 7a52 c43d aee1 f63d 736f 173e
000000e0: ffd1 c0bd e9c2 a53d 86ed b63a dcc4 483e
000000f0: df96 54be 89bd b23d 4fd3 1d3e 1cc7 133e
00000100: 5833 99bd 671d 823e 40fd 803d 9625 b03c
00000110: 5c44 343d e088 1a3e 3c37 2fbe 6bcc 513e
00000120: b4bb 18be ce33 9a3c c1f1 6a3b 25ce 1cbe
00000130: ea5f 473e 41bf 20bb f35c 3fbe 0373 b53d
00000140: b346 14be b021 d83d aa21 503e 618b 0b3e
00000150: a89e cd3d 1fb6 8c3d 14b6 563e 9549 5f3e
00000160: 122c c43d 6531 313e 7956 563d 4eb1 433e
00000170: 198f e8bd 9a17 fc3d 803e cfbd 90fa 98bd
00000180: 010a 1b3e b2d4 9abd 6a51 0abe b64a 08bd
00000190: 7d1c 99bd 356f 4a3e 5bd9 f1bc 71b9 873b
000001a0: 32e1 c3bd ef75 503e dfca 143d 130d 163c
000001b0: 63da b63d 610c 01be 4ba0 313e 3c51 f2bd
000001c0: 7973 7f3d 9e6d 213d bbaf 013e b09e 293e
000001d0: 8843 a23d 24c7 20be 183a 043e ccf8 d2bd
000001e0: cde5 193e 30d6 88bd de68 cb3d 68ff c03d
000001f0: 2d72 04ba 5eaa e73a 6f04 133e 584c 4e3e
00000200: 31de 52bd 1dd9 adbd 3686 783b bda9 833d
00000210: b935 213e 2b54 783e 9c33 20be 9d69 833d
00000220: 0ce5 6ebd 8275 063e 21f0 223e 14b3 a6bc
00000230: f81b c73d dd2b 323e f89d 2c3e 20c3 19be
00000240: d3bd 20bd 6e38 27be e772 65be adaa 44be
00000250: 0878 293d d9f2 27bd c908 acbd 1c08 14be
00000260: 8e6f f03d 2e24 0dbe 632a debb 48e7 633e
00000270: 6f3f fbbd 70c3 423e c9c6 19be a23f 1e3e
00000280: 3d4e 82be b1c8 29be 0307 be3d 46bd ca3d
00000290: 0c92 a93b 5f69 55be 6221 d13d 6326 96bd
000002a0: c8ab 41bd 81b8 6a3d e7d2 e2bd c532 a53d
000002b0: 6cdf 04be 2a0e 89bd d49a 313e bf28 71bd
000002c0: 9d93 08be 8cf1 a53d 5a96 8cbd d489 1a3e
000002d0: 7e00 2cbb b715 8cbe 8314 f7bd b08c 41be
000002e0: 36a7 babd 03ec 803d b248 3e3e 2bd5 50bc
000002f0: 5831 2d3e 2e8f 38be 051c f8bd 67ac 3cbe
00000300: dfbc 123e 7d95 3d3e 154b c93b e929 ddbd
00000310: 03a6 9fbc 8d28 d33d c271 2f3e 3c1a 47be
00000320: b3de dbbd 3667 60bc aef7 20be e6e0 3b3e
00000330: 47e1 c8bd e207 aebc 7290 5f3e 0c80 15bd
00000340: 991b ef3d a112 5dbd 6c28 49be 2b92 c13d
00000350: 4cd7 7ebe 5cce 543d f126 563e 63df 4cbe
00000360: ca89 613d c82d 553d b2a8 3e3d 20a8 b7bc
00000370: c328 0dbe 75fe 3e3d 6aa2 973c 06d0 4dbd
00000380: c054 12be a530 43be 9d66 98bd fa20 cd3d
00000390: aa96 6f3d 3dfa 873c e10a 5c3d 9dc6 38be
000003a0: 281d ac3d 6403 503e 4822 20be f9ce 88bd
000003b0: 8dbc 0abe acbb cd3d 749d 0c3d 02a7 213e
000003c0: 1b53 79bd 3ecf ffbd 1f54 053d db2a 333e
000003d0: ed29 0fba b053 333e 07cb 543e a391 7ebb
000003e0: 9122 8dbd 811b 093d 60df 43bd 7a0d c9bd
000003f0: ed4d 113e 72ae 6e3e 5a32 0dbe f9d3 533d

model.0.bias f4 [128]
-0.094721936 -0.09378521 0.012418559 -0.20928784 0.07353066 -0.00539265 -0.1820898 -0.1288874
0.11362823 0.16165297 0.13380814 0.18604948 0.25624806 -0.1439651 0.030488035 0.13863875
0.0479434 -0.12499495 -0.03103265 0.23151179 -0.1749355 -0.0582196 -0.21568559 0.23652492
-0.18539207 0.22692123 -0.012813261 0.0013221252 0.05885806 0.03879691 0.19340274 0.09497838
0.09825815 -0.167351 0.22796692 -0.068962365 -0.0011764042 -0.034562558 0.08408162 0.033246063
0.013104757 0.19219406 0.14628564 0.08728454 0.20745912 0.036858555 0.25543207 -0.08466274
0.026709411 -0.03515684 -0.17136474 0.015578905 0.21129462 0.10171457 -0.19380392 0.0550503
0.0681051 0.0150020365 -0.11982715 0.289846 0.14429124 0.13016394 -0.10332504 0.11461021
-0.049175587 -0.1955641 -0.070452265 0.13305096 0.01308132 0.024073403 0.17001916 0.27922165
-0.09022605 -0.0115410425 0.17105505 -0.017870994 -0.11743896 0.09889477 -0.09639952 0.17436002
-0.14360924 0.15132457 -0.1184227 0.2492946 -0.0866164 0.22279158 0.16550627 -0.1377023
0.19770546 0.11513776 0.062280387 0.22562861 -0.08672139 0.031479195 0.008414282 -0.12559369
0.07468495 -0.08114917 0.017466517 0.020684414 0.021765383 -0.00351775 0.14380269 0.005560816
0.28772968 -0.06521739 -0.15097494 0.063377775 0.008204244 0.19692934 0.18587743 0.2520543
0.011199716 -0.12921287 0.05637763 0.034799524 0.14073683 0.20389286 -0.10702471 -0.060629863
0.17405902 0.052083388 0.08401794 0.07733707 0.11151263 0.046756268 0.08167868 0.052156623
00000000: 93fd c1bd 7612 c0bd 3677 4b3c 8d4f 56be
00000010: 3e97 963d d4b4 b0bb c075 3abe 0ffb 03be
00000020: ebb5 e83d 5b88 253e 0005 093e c183 3e3e
00000030: f232 833e 966b 13be 0bc2 f93c 51f7 0d3e
00000040: 4c60 443d 5afd ffbd 2f38 febc 6d11 6d3e
00000050: 4b22 33be ad77 6ebd afdc 5cbe 9733 723e
00000060: 6bd7 3dbe 0a5e 683e b6ee 51bc 294b ad3a
00000070: 2615 713d 82e9 1e3d 5e0b 463e 0684 c23d
00000080: 923b c93d 0f5e 2bbe 2970 693e 243c 8dbd
00000090: 9331 9aba 7891 0dbd fc32 ac3d 062d 083d
000000a0: 56b5 563c 85ce 443e e7cb 153e 3dc2 b23d
000000b0: 2a70 543e fff8 163d fec7 823e a963 adbd
000000c0: b2cd da3c 9e00 10bd 3d7a 2fbe aa3e 7f3c
000000d0: 9e5d 583e ba4f d03d 8974 46be 6c7c 613d
000000e0: b07a 8b3d 1acb 753c f067 f5bd b266 943e
000000f0: 15c1 133e b249 053e 149c d3bd c2b8 ea3d
00000100: 576c 49bd f541 48be 4749 90bd 833e 083e
00000110: 0853 563c 9635 c53c 8119 2e3e 24f6 8e3e
00000120: 6fc8 b8bd a416 3dbc 0e29 2f3e 3166 92bc
00000130: d683 f0bd 5789 ca3d 1d6d c5bd 6f8b 323e
00000140: 4d0e 13be d4f4 1a3e 9a87 f2bd 1547 7f3e
00000150: f063 b1bd 7a23 643e 7a7a 293e d501 0dbe
00000160: 4d73 4a3e 59cd eb3d b819 7f3d 300b 673e
00000170: fc9a b1bd 54f0 003d 0fdc 093c a29b 00be
00000180: 6cf4 983d 8931 a6bd f115 8f3c 5c72 a93c
00000190: 514d b23c 0d8a 66bb 0341 133e 8137 b63b
000001a0: 4e51 933e b290 85bd 2d99 1abe 35cc 813d
000001b0: 186b 063c d8a7 493e a756 3e3e 430d 813e
000001c0: 037f 373c 6150 04be 3bec 663d f289 0e3d
000001d0: 511d 103e 4ac9 503e c52f dbbd 0557 78bd
000001e0: 873c 323e 6455 553d 9911 ac3d e662 9e3d
000001f0: bc60 e43d 8083 3f3d 2747 a73d 2fa2 553d

model.2.weight f4 [128, 128]
0.0168946 -0.0010305688 -0.10410639 -0.02992813 0.036366697 0.027611557 -0.024186624 -0.101976365
0.04304981 0.07514906 0.03191345 0.03901908 0.089338325 0.052942507 0.07315754 -0.006734828
-0.008792584 -0.07697618 0.10038602 -0.076981254 -0.08286074 -0.024612533 0.06255621 0.0028506718
0.041214097 0.0007514599 0.027553054 0.04160877 0.01834282 -0.017405929 0.1170511 0.04000267
-0.053074144 -0.009187259 0.09045502 0.081544735 0.09449771 0.08295113 0.035507496 0.03904123
-0.05303299 -0.08923917 -0.02301838 0.020479321 -0.065863125 0.09649846 0.06729828 -0.039774563
0.061678503 0.04149679 0.035819713 0.06196293 0.0059814863 0.051039975 0.10179546 -0.101926655
-0.004983206 0.026292088 0.010735734 0.026322605 -0.027274387 -0.055644743 -0.011808269 -0.036786485
0.043272667 0.014028655 -0.013458543 -0.07169301 0.08985304 -0.031937517 0.009706417 -0.00025983073
-0.04438616 0.0021917361 0.009913822 -0.01459453 0.052059233 0.050181318 -0.049098883 0.09814891
0.08971864 0.009487837 0.02304901 0.093583904 0.0044506416 0.004223668 0.064510114 0.02201826
0.013901896 0.0458173 0.025112433 0.09443496 -0.008408672 -0.04861412 0.043932583 0.07153509
-0.013145345 -0.029602509 -0.056967016 0.055710517 0.116255805 0.12919635 0.033961177 -0.11190072
-0.030239439 0.02022524 0.07297732 0.0029815638 -0.04482018 0.08673006 0.015499232 0.027457163
0.00077946886 0.056002036 0.013017645 0.004072582 -0.050789263 0.038442615 0.08741143 -0.03780127
-0.015273188 0.097183704 -0.01603181 0.05945 0.03617176 -0.080034584 -0.0048843995 0.031536482
0.062183406 -0.0028781546 0.07938747 -0.0443205 -0.053629104 -0.084513366 -0.04086703 0.041112497
0.082595594 0.057490654 0.032036074 0.06692671 0.04807324 0.023506828 -0.03541365 0.09170861
0.00811681 -0.0022227855 0.085839 0.07073599 0.020705784 -0.041381486 -0.018841177 0.03411564
0.04743652 0.035759423 0.022509709 0.091019586 0.008462326 0.105886176 0.09141021 0.08085194
0.035060085 -0.03639082 -0.00023290701 0.09983525 -0.04689757 0.02668007 -0.037025668 0.045989934
-0.012986599 -0.120887995 -0.026549404 0.066391096 -0.042991936 0.07104338 -0.030384863 -0.0024677177
0.019118644 -0.04864654 -0.017575499 0.08835025 -0.015630193 0.004473823 -0.05498022 0.14215137
0.09384777 -0.039276306 -0.06927954 -0.08233854 -0.0052336375 0.057031035 0.07647563 0.01243305
0.0140813505 -0.044818245 0.12516643 0.07924345 -0.037856027 0.100673966 0.09325741 0.061468437
0.0051593403 0.06513061 0.005958383 -0.011163134 0.057295065 -0.06428785 -0.026226556 -0.012030833
0.013963576 0.05107881 0.028006114 -0.105403885 0.08869378 0.06343053 -0.018060636 0.0069087055
0.02059363 -0.043573827 -0.033476435 -0.0024644823 0.0947956 0.11954861 -0.010468764 -0.010798709
-0.019630954 0.089976616 0.055992045 0.035803135 0.04671127 0.08527286 0.0898443 0.0057760435
0.025196895 0.0068620546 0.007179362 0.116989374 0.08403702 0.055139158 -0.015269992 0.0015243441
-0.04732657 0.0067562265 0.058911886 0.006173631 0.10523711 0.024773614 -0.066081785 0.10713717
0.030471152 0.0049503404 0.076001786 0.048042733 -0.054518897 0.1314925 0.04639353 0.10216213
00000000: 8b66 8a3c 2714 87ba bb35 d5bd d62b f5bc
00000010: 3ff5 143d a231 e23c 0723 c6bc fcd8 d0bd
00000020: ff54 303d c0e7 993d aeb7 023d 79d2 1f3d
00000030: 03f7 b63d 3eda 583d 9fd3 953d d5af dcbb
00000040: c50e 10bc b0a5 9dbd 3097 cd3d 59a8 9dbd
00000050: e4b2 a9bd 39a0 c9bc 781d 803d 56d2 3a3b
00000060: 1dd0 283d 9ffd 443a f1b6 e13c f56d 2a3d
00000070: af43 963c e196 8ebc 7db8 ef3d d7d9 233d
00000080: 4664 59bd 2886 16bc 7b40 b93d ed00 a73d
00000090: 0488 c13d 48e2 a93d 4f70 113d b2e9 1f3d
000000a0: 1f39 59bd 07c3 b6bd 0b91 bcbc 40c4 a73c
000000b0: 3fe3 86bd fca0 c53d aed3 893d a7ea 22bd
000000c0: 99a2 7c3d 8af8 293d b1b7 123d d7cc 7d3d
000000d0: 5800 c43b 4b0f 513d 237a d03d ecbe d0bd
000000e0: 294a a3bb 8162 d73c efe4 2f3c 81a2 d73c
000000f0: 896e dfbc beeb 63bd 7877 41bc 6dad 16bd
00000100: ae3e 313d 72d8 653c 3981 5cbc c9d3 92bd
00000110: df04 b83d ead0 02bd aa07 1f3c e439 88b9
00000120: 43ce 35bd 3ba3 0f3b 956d 223c e51d 6fbc
00000130: 103c 553d ed8a 4d3d e91b 49bd 4c02 c93d
00000140: 68be b73d df72 1b3c 47d1 bc3c eba8 bf3d
00000150: b0d6 913b b266 8a3b e11d 843d a35f b43c
00000160: c7c4 633c ecaa 3b3d 97b8 cd3c 1e67 c13d
00000170: 87c4 09bc 991f 47bd a7f2 333d fd80 923d
00000180: 935f 57bc f680 f2bc 3f56 69bd b630 643d
00000190: 8617 ee3d 0c4c 043e e01a 0b3d 342c e5bd
000001a0: b3b8 f7bc 67af a53c 2275 953d 5766 433b
000001b0: 5d95 37bd 889f b13d 7ef0 7d3c d8ed e03c
000001c0: 4555 4c3a 6462 653d f647 553c 4b73 853b
000001d0: 6708 50bd 0176 1d3d c404 b33d 81d5 1abd
000001e0: 653c 7abc 4008 c73d 2455 83bc d881 733d
000001f0: d728 143d 2ce9 a3bd 500d a0bb 662c 013d
00000200: 07b4 7e3d 6c9f 3cbb e695 a23d 6a89 35bd
00000210: 31aa 5bbd 5815 adbd 3064 27bd 9465 283d
00000220: e127 a93d 527b 6b3d 4238 033d df10 893d
00000230: 72e8 443d 6491 c03c e70d 11bd b9d1 bb3d
00000240: 5efc 043c 27ac 11bb 5ccc af3d 08de 903d
00000250: 2d9f a93c a27f 29bd d058 9abc d7bc 0b3d
00000260: cc4c 423d 7978 123d 4866 b83c 7a68 ba3d
00000270: 91a5 0a3c dada d83d 4735 bb3d b495 a53d
00000280: 2a9b 0f3d 8a0e 15bd 8038 74b9 6c76 cc3d
00000290: ab17 40bd 2a90 da3c 3aa8 17bd f15f 3c3d
000002a0: bec5 54bc 2094 f7bd 237e d9bc 0ef8 873d
000002b0: 5018 30bd 317f 913d ade9 f8bc 6fb9 21bb
000002c0: b49e 9c3c 9841 47bd 7efa 8fbc faf0 b43d
000002d0: e40a 80bc 2699 923b f032 61bd 2190 113e
000002e0: 4233 c03d 31e0 20bd 6ee2 8dbd 1ca1 a8bd
000002f0: ef7e abbb 6099 693d 419f 9c3d feb3 4b3c
00000300: 77b5 663c 5693 37bd a12b 003e 644a a23d
00000310: ec0e 1bbd 272e ce3d befd be3d 54c6 7b3d
00000320: af0f a93b 3263 853d 8a3e c33b 94e5 36bc
00000330: 3bae 6a3d 59a9 83bd 13d9 d6bc f91c 45bc
00000340: 7cc7 643c 0438 513d 146d e53c fedd d7bd
00000350: 16a5 b53d dee7 813d e6f3 93bc 6c62 e23b
00000360: f9b3 a83c 787a 32bd 961e 09bd 2783 21bb
00000370: 3224 c23d e7d5 f43d 2e85 2bbc 11ed 30bc
00000380: 18d1 a0bc a945 b83d ea57 653d 4fa6 123d
00000390: 5154 3f3d 8aa3 ae3d 4a00 b83d f744 bd3b
000003a0: b869 ce3c 16db e03b da40 eb3b 2098 ef3d
000003b0: 9a1b ac3d 99d9 613d fd2e 7abc 80cc c73a
000003c0: 81d9 41bd 5663 dd3b 974d 713d 2c4c ca3b
000003d0: 8e86 d73d 09f2 ca3c e355 87bd bc6a db3d
000003e0: a39e f93c 7736 a23b d3a6 9b3d 75c8 443d
000003f0: 354f 5fbd f8a5 063e 2407 3e3d 613a d13d

model.2.bias f4 [128]
0.038480714 -5.2347106e-05 0.02725166 -0.03490408 -0.033166163 -0.06913115 -0.0407016 0.06813855
0.061955713 0.021730563 0.009257582 0.07938453 0.053832743 -0.046185326 -0.009283236 0.086592644
-0.061899792 0.080668196 0.07857698 -0.0063303225 0.050486285 -0.020249115 -0.0547045 0.015076366
0.092908844 -0.0036646272 -0.037714105 -0.0460115 0.025742464 0.053746004 -0.018636119 0.066238955
0.015533151 -0.057251263 0.037817154 -0.03101889 0.010422719 0.0076545295 0.026148515 0.045620482
0.109668285 0.016564416 0.03825286 -0.0005454538 -0.021528436 0.05140521 -0.089989424 0.057320483
-0.030920673 -0.02918004 0.05090815 0.0032024854 0.10874956 0.025149543 -0.04547102 0.06243283
0.097211875 0.014748317 0.05030642 0.014155855 0.09105341 0.044706993 0.06534216 -0.009760947
0.065703295 0.07357074 -0.026163766 0.015808752 0.03697193 0.074009314 -0.017965948 0.10229563
0.08481297 0.056835465 0.08514715 -0.021053499 0.119839035 0.10997348 0.013752131 -0.048083838
-0.011700771 0.116656244 0.023583386 0.102745 -0.025118325 -0.04646318 0.06320954 0.054240156
-0.038633022 0.036017045 -0.011031448 0.001346876 0.014091894 0.08283632 -0.033103485 0.00014199702
0.06547063 0.025661696 -0.061766386 -0.039457656 -0.06955046 0.07601968 0.032264944 0.04168444
0.051230267 -0.039705336 -0.016870528 -0.03934797 0.07014101 0.0010235993 -0.009560457 -0.028118059
-0.03134038 0.0501777 0.028942123 0.042074967 0.050102167 0.028255338 0.029369894 -0.004532068
-0.037069265 -0.056860056 0.062066164 -0.01957977 0.011307494 0.0009391794 -0.038176496 0.0122720925
00000000: f49d 1d3d 478f 5bb8 e03e df3c 95f7 0ebd
00000010: 3ed9 07bd a294 8dbd b9b6 26bd 398c 8b3d
00000020: 46c5 7d3d 4b04 b23c 1dad 173c 5b94 a23d
00000030: b97f 5c3d d32c 3dbd b718 18bc 7c57 b13d
00000040: a38a 7dbd 5e35 a53d f8ec a03d 986e cfbb
00000050: b5ca 4e3d 79e1 a5bc d311 60bd dd02 773c
00000060: fe46 be3d 3e2a 70bb 1b7a 1abd 8e76 3cbd
00000070: dce1 d23c c524 5c3d c6aa 98bc 4aa8 873d
00000080: c27e 7e3c 4d80 6abd 29e6 1a3d 541b febc
00000090: 0dc4 2a3c d9d2 fa3b 6935 d63c 8bdc 3a3d
000000a0: c499 e03d 19b2 873c 08af 1c3d c9fc 0eba
000000b0: 675c b0bc 458e 523d 604c b8bd e2c8 6a3d
000000c0: 5a4d fdbc fb0a efbc 1085 503d cae0 513b
000000d0: 17b8 de3d 6a06 ce3c d23f 3abd 91b9 7f3d
000000e0: 0517 c73d eda2 713c 1b0e 4e3d f6ed 673c
000000f0: 367a ba3d ae1e 373d 1cd2 853d 61ec 1fbc
00000100: 738f 863d 42ac 963d 6555 d6bc 5b81 813c
00000110: e16f 173d 3292 973d 532d 93bc 5f80 d13d
00000120: 6cb2 ad3d 4ecc 683d a161 ae3d 6378 acbc
00000130: 2b6e f53d c739 e13d 9e50 613c 8ff3 44bd
00000140: 97b4 3fbc 78e9 ee3d f231 c13c f86b d23d
00000150: f2c4 cdbc 2d50 3ebd 0174 813d ed2a 5e3d
00000160: a93d 1ebd 9c86 133d 3fbd 34bc a989 b03a
00000170: b0e1 663c 17a6 a93d 8597 07bd 09e5 1439
00000180: 7715 863d 7a38 d23c c0fe 7cbd 5a9e 21bd
00000190: 7970 8ebd 35b0 9b3d 3f28 043d 4ebd 2a3d
000001a0: d4d6 513d 10a2 22bd 1034 8abc 562b 21bd
000001b0: 17a6 8f3d 4b2a 863a 77a3 1cbc d857 e6bc
000001c0: c55e 00bd 2287 4d3d 0818 ed3c cd56 2c3d
000001d0: ee37 4d3d bd77 e73c 2299 f03c be81 94bb
000001e0: f1d5 17bd 17e6 68bd 1739 7e3d c165 a0bc
000001f0: 1143 393c 4333 763a f55e 1cbd e310 493c

model.4.weight f4 [7, 128]
0.108685486 0.036993653 -0.09860461 -0.07446404 -0.07474542 0.08499002 0.04152569 -0.026743537
-0.07707977 0.08311061 0.017207833 0.018958593 -0.011464205 -0.04745692 0.028731652 0.092459984
0.04128659 -0.116783075 -0.06882366 -0.07836182 -0.040806018 0.03458971 -0.0016830857 -0.07038393
-0.10592145 -0.022438526 0.0115306 0.059334576 -0.0045423307 -0.026791712 0.006500766 -0.097061396
-0.015169381 0.010978884 0.07328803 0.0014041963 -0.031825658 0.061069377 -0.0936104 -0.023311403
0.07170946 0.031591218 -0.041325275 0.067636095 -0.018640073 -0.021519458 -0.077912904 0.059050214
0.070603326 0.011263468 -0.09281946 0.013902621 -0.080103874 0.05642329 0.11201669 0.0037335686
-0.009709084 0.018136555 0.06019589 0.09877193 -0.09517585 0.0433549 0.07495692 -0.093557596
0.10923716 -0.05232722 -0.06719686 0.05405988 -0.07531818 -0.046791222 -0.06711717 0.0043025357
-0.03749845 -0.037802275 -0.017775105 0.110440664 -0.07039834 -0.012281855 0.02943938 0.091870375
-0.002293195 -0.10628491 -0.09702411 -0.011007513 0.104949914 0.046264455 0.027462065 0.043469157
-0.07431782 0.06864262 -0.012351268 0.039159402 -0.030593187 -0.026337793 -0.11885112 0.012210902
0.08317626 -0.016437303 0.050368693 0.044776056 0.07414709 0.04585487 -0.014235737 0.068395205
0.048726007 0.052203637 -0.05108691 -0.0051683504 0.0965802 -0.0120915305 0.08547297 0.11130401
0.12327573 -0.01834915 0.03377895 0.077561416 0.09730689 -0.014802501 0.07399798 0.035402995
0.106172815 -0.012506185 0.012436405 -0.093658015 -0.10065366 0.025739955 0.0571589 -0.08508839
-0.078622736 -0.025444968 0.035823334 0.06474365 -0.034416996 -0.1001268 0.0720162 0.038045708
0.062409583 -0.0026620848 -0.074190326 0.0960587 -0.03637869 0.1135263 -0.004987832 -0.02332749
0.022980697 0.028391307 0.024910873 -0.005866211 -0.07835888 0.105885506 0.037277803 -0.088833146
0.11722392 -0.07781258 -0.0140732 0.015046844 0.060407393 -0.04980439 0.077064626 0.10778907
-0.06391505 -0.06985146 0.0048311856 -0.027535068 -0.0025871375 -0.097943045 -0.06691064 -0.04302898
0.0573206 -0.025260385 -0.04334367 0.03267848 0.08230818 0.12530561 0.009145722 0.12961781
0.063999206 -0.037815873 0.093636796 0.019464646 -0.05184338 0.05694879 -0.0017310039 -0.09606167
-0.02945938 -0.07492268 0.07624062 -0.1047065 0.11403495 -0.08738505 -0.11274005 -0.035863157
0.032042563 0.11029913 -0.02084347 -0.10189082 0.12722844 -0.04324092 0.012987134 -0.111036375
0.10561835 -0.07637015 -0.06644771 -0.06876269 0.03989085 0.020478284 -0.05917671 -0.08367701
-0.091445595 0.109727785 0.086056404 0.08120353 0.004576195 -0.07754361 0.014260095 0.00014853888
-0.089296825 -0.0077244346 -0.0025607788 -0.05244483 0.07848364 -0.056807783 0.004185374 -0.051446263
0.0016467746 0.063808486 -0.018015182 -0.07293199 -0.0030274042 0.01484991 0.029777726 0.01530713
0.025314404 0.03767014 -0.05613468 -0.088624425 0.06900737 -0.04240761 -0.06885147 -0.05525704
-0.025178017 0.029773068 -0.02151479 0.07821689 0.058753826 -0.07538645 -0.0052776053 0.018537154
0.11718828 0.042346 -0.024131587 -0.01376349 0.106693305 0.002698687 -0.09606096 -0.109197676
00000000: 7f96 de3d a886 173d 37f1 c9bd 9a80 98bd
00000010: 2014 99bd 3f0f ae3d d816 2a3d 4315 dbbc
00000020: 00dc 9dbd e535 aa3d 71f7 8c3c 0d4f 9b3c
00000030: 5cd4 3bbc 3062 42bd a45e eb3c a95b bd3d
00000040: 211c 293d f72b efbd 6bf3 8cbd 297c a0bd
00000050: 3624 27bd f1ad 0d3d fc9a dcba 7325 90bd
00000060: 58ed d8bd 00d1 b7bc d7ea 3c3c d008 733d
00000070: d5d7 94bb 4b7a dbbc 6104 d53b 20c8 c6bd
00000080: ff88 78bc c7e0 333c 0918 963d 020d b83a
00000090: 9f5b 02bd e223 7a3d cfb6 bfbd 8ef7 bebc
000000a0: 69dc 923d cb65 013d b144 29bd cb84 8a3d
000000b0: 11b3 98bc 9349 b0bc cd90 9fbd a3de 713d
000000c0: 7a98 903d 698a 383c 2118 bebd d2c7 633c
000000d0: 800d a4bd 1c1c 673d 0269 e53d e3ae 743b
000000e0: da12 1fbc 1d93 943c f78f 763d f048 ca3d
000000f0: 8eeb c2bd e894 313d 0483 993d 209b bfbd
00000100: bbb7 df3d 1155 56bd 829e 89bd e56d 5d3d
00000110: 6b40 9abd 27a8 3fbd ba74 89bd 49fc 8c3b
00000120: fa97 19bd 8fd6 1abd 199d 91bc b72e e23d
00000130: 012d 90bd d539 49bc db2a f13c 8926 bc3d
00000140: 6e49 16bb e7ab d9bd 94b4 c6bd db58 34bc
00000150: fbef d63d cc7f 3d3d 20f8 e03c b70c 323d
00000160: f133 98bd 8194 8c3d f95c 4abc 9c65 203d
00000170: 909e fabc 5bc2 d7bc 3768 f3bd 3c10 483c
00000180: 5158 aa3d 86a7 86bc 674f 4e3d 1967 373d
00000190: 6eda 973d 51d2 3b3d 023d 69bc c912 8c3d
000001a0: ec94 473d 7bd3 553d 8240 51bd 445b a9bb
000001b0: d7cb c53d 8e1b 46bc 740c af3d 5bf3 e33d
000001c0: fc77 fc3d f550 96bc cc5b 0a3d 85d8 9e3d
000001d0: d648 c73d 3086 72bc 418c 973d bb02 113d
000001e0: 2271 d93d bee6 4cbc 10c2 4b3c c6cf bfbd
000001f0: 8223 cebd 99dc d23c 731f 6a3d d242 aebd
00000200: f504 a1bd f771 d0bc 7dbb 123d 5298 843d
00000210: d6f8 0cbd 480f cdbd 3b7d 933d d1d5 1b3d
00000220: 31a1 7f3d 5f76 2ebb 19f1 97bd 6cba c43d
00000230: d201 15bd 7a80 e83d f870 a3bb 4b19 bfbc
00000240: 0442 bc3c e394 e83c e311 cc3c 5839 c0bb
00000250: 9f7a a0bd 80da d83d 9cb0 183d 27ee b5bd
00000260: 1813 f03d 345c 9fbd 4793 66bc 0a87 763c
00000270: be6d 773d b0ff 4bbd 0fd4 9d3d 84c0 dc3d
00000280: e5e5 82bd 480e 8fbd ec4e 9e3b 3991 e1bc
00000290: f78c 29bb 5d96 c8bd 7208 89bd 283f 30bd
000002a0: 01c9 6a3d deee cebc 2289 31bd dfd9 053d
000002b0: 3191 a83d 1d50 003e f0d7 153c 88ba 043e
000002c0: 0412 833d d1e4 1abd a6c4 bf3d 5274 9f3c
000002d0: b959 54bd 2243 693d dae2 e2ba fbbb c4bd
000002e0: cc54 f1bc 1071 99bd 0b24 9c3d 5d70 d6bd
000002f0: 288b e93d eff6 b2bd 41e4 e6bd 3fe5 12bd
00000300: 103f 033d 83e4 e13d edbf aabc 22ac d0bd
00000310: 2c48 023e 641d 31bd fdc7 543c 0a67 e3bd
00000320: 6f4e d83d f467 9cbd bd15 88bd 74d3 8cbd
00000330: 9764 233d 13c2 a73c 4763 72bd da5e abbd
00000340: d447 bbbd f6b8 e03d 573e b03d 094e a63d
00000350: e8f3 953b 2fcf 9ebd 2ca3 693c 1ac1 1b39
00000360: 41e1 b6bd 411d fdbb bdd2 27bb 64d0 56bd
00000370: 08bc a03d 47af 68bd 7625 893b 51b9 52bd
00000380: 96d8 d73a 06ae 823d 9394 93bc 5e5d 95bd
00000390: 6a67 46bb 094d 733c 6bf0 f33c c2ca 7a3c
000003a0: 2760 cf3c 014c 1a3d 7aed 65bd b980 b5bd
000003b0: bc53 8d3d 9ab3 2dbd 0002 8dbd 3555 62bd
000003c0: 2142 cebc a6e6 f33c c93f b0bc 2d30 a03d
000003d0: daa7 703d 3664 9abd c3ef acbb 3bdb 973c
000003e0: 6900 f03d 0073 2d3d 9baf c5bc 4380 61bc
000003f0: 0582 da3d 74dc 303b 9cbb c4bd 08a3 dfbd

model.4.bias f4 [7]
-0.06440436 0.0028659017 0.013086958 -0.0044083716 0.08024645 0.06952022 -0.03230767
00000000: 6fe6 83bd dad1 3b3b ae6a 563c 1a74 90bb
00000010: 4058 a43d 9e60 8e3d 0c55 04bd
