models/ecoli_core_v4_metabolic_nn.pth (torch, 389589 bytes, 14 tensors)

model.0.weight f4 [256, 20]
0	0x3d867113	0.06564536
1	0xbe5fa1a5	-0.21839006
2	0xbbd20217	-0.0064089405
3	0x3dc951de	0.09830068
4	0x3e2ffb74	0.17185766
5	0x3ded8705	0.115980186
6	0x3c828504	0.015932567
7	0xbc7aa271	-0.015297518
8	0x3debc149	0.115114756
9	0x3e2723e6	0.16322288
10	0xbe139186	-0.14410982
11	0xbcc35f2d	-0.023849094
12	0x3e3ba0af	0.18323015
13	0x3e6354ff	0.22200392
14	0xbe1b05f9	-0.15138997
15	0xbd2f90e2	-0.04286278
16	0xbd5e62a7	-0.0542933
17	0x3d4351ce	0.047685437
18	0xbe48cf36	-0.19610295
19	0x3e1a4f40	0.15069294
20	0xbdb40b28	-0.087911904
21	0x3e424122	0.18970159
22	0x3e79ac43	0.24382119
23	0xbe15fc8b	-0.14647119
24	0x3d913416	0.07090013
25	0xbe044a6a	-0.12919012
26	0x3e357a8c	0.17722529
27	0xbdd35caf	-0.10320412
28	0x3cb02464	0.021501727
29	0x3e300edc	0.17193168
30	0xbd0d5412	-0.034504004
31	0xbe227b8d	-0.15867443
32	0xbe4dacf1	-0.20085503
33	0xbe711998	-0.2354492
34	0x3e065867	0.1311966
35	0x3e1a9737	0.15096746
36	0x3e108f8e	0.14117262
37	0x39298cc3	0.00016169534
38	0xbd80eadb	-0.06294795
39	0xbe342eee	-0.17596027
40	0x3e4bc379	0.19898786
41	0xbe428bab	-0.18998592
42	0x3d34862d	0.044073272
43	0x3e17b8f3	0.14816646
44	0xbe0b239d	-0.13587804
45	0x3e0ed2ab	0.13947551
46	0xbda03a08	-0.078235686
47	0xbd44a2ac	-0.0480067
48	0x3dab06f2	0.08350934
49	0x3de243ce	0.11048089
50	0x3dbc206c	0.091858715
51	0xbdd3a99f	-0.10335087
52	0x3df63988	0.12022692
53	0x3dca7a9e	0.098866686
54	0xbd895ddf	-0.067073576
55	0x3e45dada	0.19321766
56	0x3d8e1a24	0.0693858
57	0xbb02df74	-0.0019969614
58	0x3df5e915	0.120073475
59	0x3dd22d5f	0.1026256
60	0xbdcd9bf5	-0.10039512
61	0xbdb3766a	-0.0876282
62	0xbc1c1cb7	-0.0095283305
63	0xbbb82a26	-0.005620259
64	0x3c37047a	0.011170501
65	0xbe433b92	-0.19065693
66	0x3dc0d571	0.09415711
67	0xbd9ab6a1	-0.07554365
68	0xbe63150a	-0.22175995
69	0xbe046085	-0.12927444
70	0x3e479f13	0.19494276
71	0xbe35bfbe	-0.17748925
72	0xbe1aba78	-0.15110195
73	0x3bf6425a	0.007515234
74	0x3c702906	0.014658218
75	0x3e43f6cb	0.19137113
76	0xbd829e6d	-0.063778736
77	0x3dd53216	0.10409944
78	0xbe149697	-0.1451057
79	0xbe3fc036	-0.18725666
80	0xbcee13e6	-0.029062223
81	0xbe071122	-0.1319013
82	0xbde4295b	-0.111407004
83	0xbe36967e	-0.17830846
84	0x3dc5f559	0.09665937
85	0xbd5f51bc	-0.054521307
86	0xbe710e6d	-0.23540659
87	0x3cd18ca2	0.025579754
88	0xbc87de08	-0.016585365
89	0x3dc1164c	0.09428081
90	0xbe2ae886	-0.16690263
91	0xbd4c76ac	-0.04991786
92	0x3dc30e70	0.09524238
93	0xbe4004ea	-0.18751875
94	0xbe19c0ce	-0.15014955
95	0xba440885	-0.0007478076
96	0x3e32e285	0.17469223
97	0xbd9ac3d0	-0.075568795
98	0xbe062c1a	-0.13102761
99	0xbe15b533	-0.14619903
100	0x3d9e46c2	0.0772834
101	0x3e5380b1	0.2065456
102	0x3dac5c79	0.08416075
103	0xbcdd7b4c	-0.027036332
104	0x3d9f76c7	0.07786327
105	0x3e37e3fd	0.17958064
106	0x3e2bf0b5	0.16791041
107	0x3da0f83d	0.07859848
108	0x3e3ce516	0.18446764
109	0xbe08335a	-0.13300839
110	0xbc699a09	-0.014257916
111	0x3e0ff679	0.14058866
112	0x3e0965fd	0.13417812
113	0x3e4b428a	0.19849601
114	0xbddb5f48	-0.10711533
115	0x3e63fc73	0.2226427
116	0xbdfc3208	-0.1231423
117	0x3cf9552d	0.030436123
118	0x3e2ca47a	0.16859618
119	0xbe39e9e9	-0.18155636
120	0x3e3dd4f0	0.1853826
121	0x3e1f6919	0.15567435
122	0x3e07f54d	0.13277169
123	0x3db119e7	0.086475186
124	0x3d045bfc	0.032314286
125	0xbd5aac4e	-0.05338698
126	0xbe0c7831	-0.13717724
127	0x3e3e0b46	0.18558988
128	0x3df86393	0.12128367
129	0x3e31fce5	0.17381628
130	0xbe02f49f	-0.12788628
131	0xbdc644e7	-0.09681111
132	0x3e337fe1	0.1752925
133	0x3e0434a6	0.12910709
134	0xbe2dcc58	-0.16972482
135	0xbda713ea	-0.08158095
136	0xbe3b6f54	-0.18304187
137	0x3d463a6b	0.048395555
138	0x3e57c72e	0.21072075
139	0x39df0fcf	0.00042545653
140	0x3d3b3725	0.045706887
141	0x3dac415f	0.08410906
142	0x3e1c2cac	0.15251416
143	0xbe13d428	-0.144364
144	0xbd8a1eac	-0.067441314
145	0x3e183102	0.14862445
146	0x3de2238e	0.11041938
147	0xbe227a4c	-0.15866965
148	0x3d3911c1	0.045182947
149	0xbe04d994	-0.12973624
150	0xbe3f2043	-0.1866465
151	0xbdc06016	-0.09393327
152	0x3de8c532	0.11365737
153	0xbc7471fa	-0.014919752
154	0xbe1ba346	-0.15199003
155	0x3cb427da	0.021991659
156	0xbe594c13	-0.21220426
157	0xbd9e57ea	-0.07731612
158	0x3e3de747	0.18545257
159	0x3dd43f96	0.103636906
160	0x3e1056de	0.14095637
161	0xbba9f9a6	-0.005187231
162	0x3debca2c	0.115131706
163	0x3e2cc583	0.1687222
164	0xbe55e463	-0.20887904
165	0xbbfc81e7	-0.0077059153
166	0x3d16a8d7	0.036782112
167	0xbd813e5c	-0.06310722
168	0xbe1c5177	-0.15265451
169	0x3d891d56	0.066950485
170	0x3e4d9434	0.20076066
171	0x3dc1a017	0.09454363
172	0x3e593e4f	0.21215175
173	0xbd861d28	-0.0654853
174	0x3d87d27e	0.06631945
175	0xbe42e598	-0.19032896
176	0x3d9254c7	0.07145076
177	0x3e109503	0.14119343
178	0x3e3b6d81	0.18303491
179	0xbb9ee738	-0.0048493408
180	0xbe22160a	-0.1582872
181	0xbe88467c	-0.26616275
182	0xbdab4af9	-0.08363909
183	0xbe430809	-0.19046034
184	0x3d190865	0.03736152
185	0x3cf989fa	0.0304613
186	0x3dae1c22	0.0850146
187	0x3dca5871	0.0988015
188	0xbda5f3ea	-0.081031635
189	0xbe1dd94a	-0.1541492
190	0x3e14ed8c	0.14543742
191	0xbdf1ec80	-0.11812687
192	0xbc67c62f	-0.014146372
193	0xbc65046b	-0.013978104
194	0x3deecb6a	0.11659892
195	0xbe418f0b	-0.18902223
196	0xbdffb2cb	-0.12485274
197	0xbe6186df	-0.22024105
198	0x3e0b6854	0.13614017
199	0xbe57e871	-0.21084763
200	0xbe402ad1	-0.18766333
201	0x3d7b7426	0.061390065
202	0x3e2cd51a	0.16878167
203	0x3e64ea69	0.22355045
204	0x3d9322a7	0.07184344
205	0x3e4627ca	0.19351116
206	0x3ddb2e04	0.10702136
207	0x3e1db76a	0.15401998
208	0xbdc841e1	-0.097781904
209	0xbe58ec1b	-0.21183817
210	0xbbbde8a9	-0.0057955575
211	0xbe0df711	-0.1386378
212	0x3d4c163f	0.049825903
213	0xbe53756f	-0.20650266
214	0x3c0120b0	0.007881328
215	0xbdf2f796	-0.118636295
216	0xbe07e991	-0.13272692
217	0x3d158b30	0.036509693
218	0x3d84c85b	0.06483527
219	0x3e1c426e	0.15259716
220	0xbd653cc1	-0.055966143
221	0x3d12ce40	0.035841227
222	0x3d099455	0.033588726
223	0x3e2a8f6d	0.16656275
224	0x3e0aa5eb	0.13539855
225	0xbd88b145	-0.066744365
226	0xbd187082	-0.03721667
227	0xbd379c92	-0.04482705
228	0x3da6697a	0.08125587
229	0x3dacbbb1	0.08434237
230	0xbe6f9dfd	-0.23400111
231	0x3d8eb1d4	0.06967512
232	0x3c3fba4f	0.011702134
233	0xbc57eadb	-0.0131785525
234	0x3d9e84bc	0.07740161
235	0x3e5eeede	0.21770808
236	0xbc881abf	-0.016614316
237	0x3dd1e652	0.10249008
238	0xbe17c313	-0.14820509
239	0xbe5e6170	-0.21716857
240	0x3d664231	0.05621547
241	0xbdbb6d5b	-0.09151717
242	0x3e780624	0.24221092
243	0x3df8923e	0.121372685
244	0xbe866950	-0.26252222
245	0x3e17cfbd	0.1482534
246	0xbd559bf4	-0.05215068
247	0xbd8e9634	-0.06962243
248	0x3d78aa6d	0.060709406
249	0x3ce13255	0.02748982
250	0xbe14843c	-0.14503568
251	0xbd89b00b	-0.06723031
252	0xbd5e0d47	-0.05421188
253	0xbe070f19	-0.13189353
254	0x3e4bde0d	0.19908924
255	0x3cbe1c13	0.023206746

model.0.bias f4 [256]
0	0xbe2c0b33	-0.16801147
1	0x3d7c7699	0.06163654
2	0x3e099e65	0.13439329
3	0x3e08fbd1	0.1337731
4	0xbd7763d9	-0.060397957
5	0x3e08275e	0.13296267
6	0x3e11d9f1	0.14243294
7	0xbe04ec06	-0.12980661
8	0x3c9fb9f8	0.019497856
9	0x3d7997a8	0.060935646
10	0x3bdc0a6e	0.0067151105
11	0xbdc2bd0f	-0.09508716
12	0x3d1aadb3	0.03776331
13	0x3d827f9c	0.06371996
14	0x3cafba66	0.021451186
15	0x3db80adb	0.089864455
16	0xbe5477ba	-0.20748797
17	0xbe1c23be	-0.1524801
18	0xbe31d978	-0.17368114
19	0x3e64bd8a	0.22337928
20	0x3daab223	0.08334758
21	0x3ded2bdc	0.11580631
22	0x3d987285	0.07443718
23	0x3e2212ad	0.15827437
24	0xbd728c68	-0.059215933
25	0x3d22522a	0.03962914
26	0x3dfbcdf8	0.12295145
27	0x3dd55297	0.104161434
28	0xbe60a8c5	-0.2193938
29	0xbe3dabbd	-0.18522544
30	0x3e56a1a8	0.20960104
31	0x3da79761	0.0818317
32	0xbd58bb5e	-0.052913062
33	0x3d8d2801	0.06892396
34	0xbcdc9855	-0.026928106
35	0x3e40cb8f	0.18827651
36	0x3d095bb8	0.033534735
37	0xbde3d1a1	-0.11123968
38	0xbdf10251	-0.1176802
39	0x3e39a2b3	0.18128471
40	0xbdb974b2	-0.09055461
41	0xbe650e2d	-0.22368689
42	0xbd9e64a7	-0.07734042
43	0x3dd46c53	0.10372224
44	0x3d136655	0.035986263
45	0x3e3bb981	0.18332483
46	0x3e6468fc	0.22305673
47	0xbe103aa7	-0.14084874
48	0x3dd451f0	0.10367191
49	0x3e62cbdb	0.22148077
50	0x3cf37f43	0.029723769
51	0x3de19f0d	0.11016665
52	0xbd9f968e	-0.07792388
53	0xbe39cb40	-0.1814394
54	0xbe64153e	-0.22273728
55	0xbe41e87e	-0.18936345
56	0x3d79ff1b	0.061034303
57	0xbe268521	-0.16261722
58	0xbe171dc8	-0.14757454
59	0x3de141f0	0.10998905
60	0x3d066384	0.03280975
61	0x3dc1d76f	0.09464919
62	0x3e189212	0.14899471
63	0xbc6c9512	-0.014439838
64	0x3d7cc52d	0.06171148
65	0x3d65acba	0.056072928
66	0x3e07712f	0.1322677
67	0x3dfd92ba	0.123815015
68	0x3e1f75df	0.15572308
69	0x3e203cbd	0.1564817
70	0xbe1eedf9	-0.15520467
71	0xbd854dc7	-0.065089755
72	0xbe0614c0	-0.13093853
73	0x3e3beded	0.1835248
74	0x3db1aa20	0.08675027
75	0x3e08969b	0.13338701
76	0x3d84a15a	0.06476088
77	0x3e059868	0.1304642
78	0x3cc5826a	0.024110038
79	0xbdeb767f	-0.11497211
80	0x3e57aa37	0.21061026
81	0x3e40b6da	0.18819752
82	0xbcde7932	-0.0271574
83	0x3d11bc79	0.035580132
84	0x3e1c14c9	0.15242304
85	0x3dfb2687	0.12263208
86	0xbe43eb36	-0.19132695
87	0xbe30953a	-0.17244425
88	0xbe40a9ae	-0.18814728
89	0xbd9fca15	-0.07802216
90	0xbdda00ee	-0.106447086
91	0xbd5979cd	-0.053094674
92	0x3d30ce59	0.04316554
93	0x3ded08d0	0.115739465
94	0xbe33a315	-0.1754268
95	0x3d6a7009	0.05723575
96	0x3e14b34f	0.14521526
97	0x3e3af1dd	0.18256326
98	0xbd96b03a	-0.07357831
99	0x3e560465	0.20900114
100	0x3e1bf816	0.15231356
101	0xbdbb5ef8	-0.09148973
102	0xbd54fc53	-0.051998448
103	0x3d2f4271	0.042787973
104	0xbe0cd717	-0.13753925
105	0xbdbaf870	-0.09129417
106	0x3debbb99	0.11510391
107	0xbdc7989d	-0.097459055
108	0xbe375ff5	-0.17907698
109	0xbc5caf0f	-0.013469472
110	0x3dbde013	0.092712544
111	0x3d61187c	0.05495499
112	0x3e4890e4	0.19586521
113	0xbdec749c	-0.11545679
114	0x3de9450c	0.11390123
115	0x3e31627a	0.17322722
116	0xbe00eee2	-0.12591127
117	0xbd257479	-0.04039428
118	0xbe037c94	-0.12840492
119	0xbe4ef065	-0.2020889
120	0xbdc55982	-0.09636213
121	0x3e51579e	0.2044358
122	0x3e5d1a3a	0.21592036
123	0x3dd2e1d8	0.102969825
124	0xbdae5150	-0.08511603
125	0x3de40218	0.11133212
126	0xbe0f61e8	-0.14002192
127	0x3e61a58b	0.22035806
128	0xbe5f55ce	-0.21810076
129	0xbdd7514c	-0.10513553
130	0x3e1d5ec7	0.15368186
131	0xbc171444	-0.00922114
132	0xbd897210	-0.06711209
133	0x3d9f5825	0.07780484
134	0xbd575fc8	-0.05258158
135	0x3e0c5487	0.1370412
136	0xbe61f054	-0.22064334
137	0xbcd0a7f0	-0.025470704
138	0xbe41f331	-0.18940426
139	0xbddd1865	-0.107956685
140	0xbc88db8f	-0.016706256
141	0x3da5c22e	0.080936775
142	0xbdc35e69	-0.09539492
143	0xbd805d3a	-0.062677816
144	0xbcbcd6fe	-0.023051735
145	0x3c41a266	0.011818504
146	0xbe1e01af	-0.1543033
147	0x3e39ee45	0.18157299
148	0xbd6cde13	-0.057828974
149	0xbdfad481	-0.12247563
150	0x3c2d11a4	0.010563288
151	0x3e5b8f2b	0.21441333
152	0xbd85e926	-0.0653861
153	0xbcc5ff93	-0.024169719
154	0xbde1ab4f	-0.11019003
155	0xbe570d4c	-0.21001166
156	0x3d875774	0.06608477
157	0xbdac16f9	-0.08402819
158	0xbe3eeccf	-0.18645023
159	0xbe4a7d6e	-0.1977441
160	0x3d85e179	0.06537146
161	0xbd05c17c	-0.032655224
162	0x3e3594e3	0.17732577
163	0xbe2495bb	-0.16072743
164	0xbe390d47	-0.18071471
165	0xbdec31b8	-0.115329206
166	0xbc292870	-0.010324582
167	0xbd3246b8	-0.043524474
168	0xbd0ea4be	-0.03482508
169	0x3dd39d1e	0.10332702
170	0xbca3ae7d	-0.019980663
171	0x3e492192	0.19641712
172	0xbd63eeed	-0.05564778
173	0x3d977cb5	0.07396833
174	0xbe2287de	-0.15872142
175	0x3e3eccdd	0.18632837
176	0x3d0bf412	0.03416831
177	0xbe0723f5	-0.1319731
178	0x3e0385d3	0.12844019
179	0x3d2f7735	0.042838294
180	0xbd82ce62	-0.06387021
181	0x3ce4a092	0.027908597
182	0xbe076553	-0.13222246
183	0x3e082355	0.13294728
184	0x3e53d126	0.20685253
185	0x3b3e9446	0.0029080077
186	0xbd02585c	-0.031822547
187	0x3dd33378	0.10312551
188	0x3da713b5	0.08158056
189	0x3d85224c	0.06500682
190	0xbc5397ca	-0.012914607
191	0xbdd76ed3	-0.10519185
192	0x3e4f9496	0.20271525
193	0xbdd115b4	-0.10209218
194	0x3dcbdf1f	0.09954666
195	0x3e636eae	0.2221019
196	0x3da22be9	0.079185314
197	0xbdfc8cc4	-0.123315364
198	0xbe5a7a53	-0.21335725
199	0xbdcf24cd	-0.10114441
200	0x3de4c665	0.11170653
201	0x3e56609a	0.20935288
202	0x3e3e802f	0.18603586
203	0x3e4a7736	0.19772038
204	0xbdb4a725	-0.08820943
205	0xbdf56c81	-0.11983586
206	0x3e32a280	0.17444801
207	0xbe03e2d8	-0.12879503
208	0x3ccf67e3	0.025318092
209	0x3c8fe713	0.01756624
210	0x3e4946c9	0.19655909
211	0x3e3de2a5	0.1854349
212	0x3e4aadce	0.19792864
213	0x3e50a62f	0.20375894
214	0x3b7bbaf0	0.0038410984
215	0x3e07895a	0.13235989
216	0x3c5b291d	0.013376501
217	0xbdbc7d00	-0.09203529
218	0xbe2b7c39	-0.16746606
219	0x3e0cc5ad	0.13747282
220	0x3d7f0d6d	0.062268663
221	0xbd96c353	-0.07361474
222	0x3d4f6dd6	0.050641857
223	0xbe081508	-0.13289273
224	0x3db27f39	0.08715672
225	0xbde24d39	-0.11049885
226	0x3db15a32	0.086597815
227	0xbcebb57e	-0.028773066
228	0xbe3e4762	-0.18581918
229	0x3df24493	0.11829486
230	0x3e45fdda	0.19335118
231	0x3d26d128	0.04072681
232	0x3d33c4f5	0.043889005
233	0x3d74eaf6	0.05979439
234	0x3d7f9cee	0.06240552
235	0x3c3e757c	0.01162469
236	0x3e57a82a	0.21060243
237	0x3e05c863	0.13064723
238	0x3e650512	0.22365215
239	0xbe196dfd	-0.14983363
240	0xbd4c11e9	-0.049821768
241	0xbe46e72b	-0.19424121
242	0xbd540018	-0.051757902
243	0x3b2db681	0.0026506486
244	0x3d91b2a1	0.07114149
245	0xbd220efd	-0.039565075
246	0xbe27aae0	-0.16373777
247	0xbdf966c0	-0.12177801
248	0x3d1d2f53	0.03837521
249	0x3d1ca543	0.038243543
250	0x3c973878	0.018459544
251	0xbe199e05	-0.15001686
252	0xbe1f41b6	-0.1555241
253	0xbb76de45	-0.0037669104
254	0x3dad5700	0.084638596
255	0xbc8a59f0	-0.016888589

model.1.weight f4 [256]
0	0x3f8262a1	1.0186349
1	0x3f815f3d	1.010719
2	0x3f7c4aff	0.98551935
3	0x3f7888a2	0.97083485
4	0x3f83bc89	1.0291911
5	0x3f8372d3	1.0269417
6	0x3f8102f8	1.0079031
7	0x3f798366	0.97466123
8	0x3f7ad902	0.9798738
9	0x3f7a3618	0.9773879
10	0x3f79e69e	0.9761752
11	0x3f77c20b	0.9678046
12	0x3f7e156a	0.99251425
13	0x3f816f2b	1.0112051
14	0x3f834129	1.025426
15	0x3f7f7db0	0.9980116
16	0x3f8187db	1.0119585
17	0x3f809235	1.0044619
18	0x3f8451d3	1.0337471
19	0x3f7524e7	0.95759434
20	0x3f7bd395	0.98369724
21	0x3f8300ac	1.023458
22	0x3f813229	1.0093433
23	0x3f7c3066	0.9851135
24	0x3f7f3afd	0.99699384
25	0x3f85e182	1.0459445
26	0x3f7eac13	0.99481314
27	0x3f7e0860	0.9923153
28	0x3f7ac5b7	0.9795794
29	0x3f807e50	1.0038548
30	0x3f81ca4f	1.0139865
31	0x3f807f54	1.0038857
32	0x3f80d63a	1.0065377
33	0x3f8313c1	1.0240403
34	0x3f7c9735	0.98668224
35	0x3f7dcb8a	0.991387
36	0x3f7c7ceb	0.9862811
37	0x3f821183	1.0161594
38	0x3f84d443	1.0377277
39	0x3f7e2f09	0.9929052
40	0x3f84b3a4	1.0367322
41	0x3f7e8d46	0.99434316
42	0x3f7aa3c4	0.97906137
43	0x3f83ab04	1.0286565
44	0x3f79908b	0.9748618
45	0x3f7f973c	0.9984014
46	0x3f7f5c70	0.99750423
47	0x3f76f649	0.9646955
48	0x3f802813	1.001223
49	0x3f7a3db0	0.9775038
50	0x3f86f072	1.0542128
51	0x3f7e6edb	0.993879
52	0x3f82291a	1.0168793
53	0x3f7a0801	0.97668463
54	0x3f7dca16	0.99136484
55	0x3f7eabe1	0.99481016
56	0x3f770570	0.9649267
57	0x3f8456df	1.0339011
58	0x3f8082f4	1.0039964
59	0x3f814712	1.0099814
60	0x3f8174b9	1.0113746
61	0x3f7f3331	0.99687487
62	0x3f848e30	1.0355892
63	0x3f80faf5	1.0076586
64	0x3f78cd70	0.9718847
65	0x3f8484a2	1.0352976
66	0x3f816602	1.0109255
67	0x3f8241bc	1.017631
68	0x3f7ff6f8	0.9998622
69	0x3f7b6c04	0.98211694
70	0x3f80a6ce	1.0050905
71	0x3f7fbb00	0.99894714
72	0x3f779c94	0.96723294
73	0x3f7794cb	0.96711415
74	0x3f80aafa	1.0052178
75	0x3f7e948a	0.994454
76	0x3f814495	1.0099055
77	0x3f77e1e4	0.96829057
78	0x3f776c0e	0.96649253
79	0x3f7e0082	0.99219525
80	0x3f79ce16	0.9758009
81	0x3f7a5532	0.9778625
82	0x3f7e0bf9	0.9923702
83	0x3f81dde0	1.0145836
84	0x3f7cebdd	0.987974
85	0x3f811abc	1.0086284
86	0x3f80b072	1.0053847
87	0x3f857765	1.0427061
88	0x3f82fdaa	1.0233662
89	0x3f83549a	1.0260193
90	0x3f8013ce	1.0006044
91	0x3f838cd3	1.0277351
92	0x3f7a1a87	0.9769673
93	0x3f7bbae1	0.9833203
94	0x3f7d1c77	0.9887156
95	0x3f879e4c	1.0595183
96	0x3f7ca5c1	0.9869042
97	0x3f7d197e	0.98867023
98	0x3f7c280a	0.98498595
99	0x3f76b0dc	0.96363616
100	0x3f7c7ade	0.9862498
101	0x3f83b241	1.0288774
102	0x3f7dd60e	0.99154747
103	0x3f813dc0	1.009697
104	0x3f7ad29d	0.9797762
105	0x3f7f7ad1	0.9979678
106	0x3f82eef4	1.0229173
107	0x3f83976b	1.0280584
108	0x3f7a726d	0.9783085
109	0x3f800e83	1.0004429
110	0x3f853c1f	1.0408973
111	0x3f7a2aed	0.9772175
112	0x3f7d01a6	0.9883064
113	0x3f8353c2	1.0259936
114	0x3f7cde24	0.9877646
115	0x3f7ae6f0	0.9800863
116	0x3f81861d	1.0119053
117	0x3f787077	0.9704661
118	0x3f7a283d	0.9771765
119	0x3f81ac33	1.0130676
120	0x3f800024	1.0000043
121	0x3f811449	1.0084316
122	0x3f7bec7e	0.98407733
123	0x3f79446c	0.9737003
124	0x3f7adaec	0.979903
125	0x3f7aa1f8	0.97903395
126	0x3f7d48e1	0.9893933
127	0x3f807965	1.0037047
128	0x3f8047e7	1.0021943
129	0x3f7b8981	0.9825669
130	0x3f7ed8e8	0.9954972
131	0x3f81457d	1.0099331
132	0x3f7c1900	0.98475647
133	0x3f810d96	1.0082271
134	0x3f7f9ba1	0.99846846
135	0x3f813b9e	1.0096319
136	0x3f84ebf2	1.0384505
137	0x3f7bd5eb	0.9837329
138	0x3f808e24	1.0043378
139	0x3f8308dc	1.0237079
140	0x3f825e6d	1.0185066
141	0x3f845d05	1.0340887
142	0x3f830c9b	1.0238222
143	0x3f80240f	1.0011004
144	0x3f81c597	1.0138425
145	0x3f81677d	1.0109707
146	0x3f7c2f10	0.9850931
147	0x3f7e586f	0.9935369
148	0x3f8280d4	1.0195565
149	0x3f7d526f	0.9895391
150	0x3f80d882	1.0066073
151	0x3f7b3b52	0.9813739
152	0x3f7932da	0.9734322
153	0x3f815f99	1.0107299
154	0x3f838206	1.0274055
155	0x3f80b83f	1.0056227
156	0x3f801424	1.0006146
157	0x3f7d81c8	0.99026155
158	0x3f79e455	0.9761403
159	0x3f7c1ef2	0.9848472
160	0x3f758664	0.9590819
161	0x3f81ffb1	1.0156156
162	0x3f80f46f	1.0074595
163	0x3f8127ca	1.0090268
164	0x3f7cf4bd	0.9881094
165	0x3f809165	1.0044371
166	0x3f82529f	1.0181464
167	0x3f7f69e2	0.9977094
168	0x3f7b471c	0.9815538
169	0x3f74c7f8	0.9561763
170	0x3f843c00	1.033081
171	0x3f7c7e02	0.9862977
172	0x3f844ed7	1.033656
173	0x3f7da378	0.9907756
174	0x3f7fd048	0.99927187
175	0x3f8302c9	1.0235225
176	0x3f811692	1.0085013
177	0x3f7c0359	0.9844261
178	0x3f7bfa0f	0.98428434
179	0x3f7f37ce	0.99694526
180	0x3f7cea33	0.9879486
181	0x3f802fb7	1.0014561
182	0x3f7dfb59	0.9921165
183	0x3f80999a	1.0046875
184	0x3f782ea4	0.9694617
185	0x3f7899bc	0.9710958
186	0x3f7df415	0.99200565
187	0x3f7ee0fc	0.9956205
188	0x3f804f25	1.0024153
189	0x3f7c86f9	0.9864345
190	0x3f7ed81d	0.9954851
191	0x3f80e413	1.0069603
192	0x3f82eceb	1.0228552
193	0x3f7d9893	0.99060935
194	0x3f81e64f	1.014841
195	0x3f7bd406	0.983704
196	0x3f78c23c	0.9717138
197	0x3f823b6a	1.0174382
198	0x3f7d405e	0.9892634
199	0x3f7bf83a	0.9842564
200	0x3f7ed68a	0.9954611
201	0x3f7a6a3c	0.9781835
202	0x3f77c4eb	0.9678485
203	0x3f79dcad	0.9760235
204	0x3f80087b	1.0002588
205	0x3f7a20ba	0.97706187
206	0x3f80aecf	1.0053347
207	0x3f7caba3	0.98699397
208	0x3f83c8fe	1.0295713
209	0x3f8214ec	1.0162635
210	0x3f7fefe4	0.9997542
211	0x3f82be4e	1.0214326
212	0x3f823150	1.0171299
213	0x3f7e8af6	0.9943079
214	0x3f84f3c9	1.0386897
215	0x3f7c9a11	0.98672587
216	0x3f7fef74	0.9997475
217	0x3f839336	1.02793
218	0x3f79d2c7	0.97587246
219	0x3f830ded	1.0238625
220	0x3f7f666d	0.99765664
221	0x3f7cdb65	0.9877227
222	0x3f844d1b	1.0336031
223	0x3f81379e	1.0095098
224	0x3f7d5e1a	0.9897171
225	0x3f8197f1	1.0124494
226	0x3f829296	1.0200984
227	0x3f7a5363	0.9778349
228	0x3f796506	0.97419775
229	0x3f7c1a24	0.9847739
230	0x3f7fa1dc	0.9985635
231	0x3f7bb78e	0.9832696
232	0x3f7f7062	0.9978086
233	0x3f7e42c7	0.99320644
234	0x3f82395a	1.0173752
235	0x3f866258	1.0498762
236	0x3f83370c	1.0251174
237	0x3f81593a	1.0105355
238	0x3f7cafc3	0.9870569
239	0x3f7bf491	0.98420054
240	0x3f7b9fb9	0.9829059
241	0x3f766c81	0.96259314
242	0x3f7e92ef	0.9944295
243	0x3f8046f8	1.0021658
244	0x3f7ef928	0.9959893
245	0x3f812f19	1.0092498
246	0x3f7e0d44	0.9923899
247	0x3f7810ea	0.9690081
248	0x3f7ba692	0.9830104
249	0x3f7c2baf	0.98504156
250	0x3f7c6e49	0.9860578
251	0x3f7a1f96	0.97704446
252	0x3f829b87	1.0203713
253	0x3f7d1744	0.98863626
254	0x3f829853	1.0202736
255	0x3f7e4700	0.9932709

model.1.bias f4 [256]
0	0x3d07f32c	0.03319089
1	0x3d098bee	0.033580713
2	0x3c57ce4a	0.013171742
3	0xb94c84b2	-0.00019504389
4	0x3d1f5de0	0.038907886
5	0x3cd416f9	0.02588986
6	0x3c86c484	0.016451128
7	0x3c1440df	0.00904867
8	0x3d2e7c6c	0.042599127
9	0x3a4a0897	0.00077069685
10	0x3d29c031	0.041443054
11	0x3d12a339	0.035800193
12	0x3b0efd4e	0.0021818462
13	0x3d5f1587	0.05446389
14	0x3a3842fd	0.0007029025
15	0x3d2bba9e	0.04192602
16	0x3d0a9e9b	0.033842664
17	0x3cc35a54	0.023846783
18	0x3d1cbd88	0.03826669
19	0x3ccdb8ea	0.025112588
20	0xbc586591	-0.013207809
21	0x3ca40997	0.020024104
22	0x3d35d910	0.04439646
23	0x3ccd6663	0.025073236
24	0x3ccfe29c	0.02537661
25	0x3d07b55f	0.033131953
26	0x3d34806b	0.04406778
27	0x3d3fbf5b	0.04681335
28	0x3c10a958	0.008829437
29	0x3d08dc9b	0.03341351
30	0x3d2ee28b	0.042696517
31	0x3cbd0dc2	0.02307785
32	0x3d3e7c0e	0.046505027
33	0x3d584aba	0.05280564
34	0x3d150025	0.03637709
35	0x3d253896	0.040337168
36	0xbbefebcf	-0.0073218117
37	0x3d0dd136	0.034623347
38	0x3d1d4079	0.038391564
39	0x3cfa0096	0.030517858
40	0x3d16186b	0.03664438
41	0x3d070e73	0.032972764
42	0xbb7fc98f	-0.003903005
43	0x3d16dd9b	0.036832433
44	0x3caa9254	0.020821728
45	0x3d185988	0.03719476
46	0x3d125254	0.035723045
47	0x3c884cd6	0.0166382
48	0x3cb9ebdf	0.02269548
49	0xbae7dd04	-0.0017689769
50	0x3d0981d5	0.033571083
51	0x3c6b3bc9	0.014357516
52	0x3d117cfc	0.035519585
53	0xbc00b1c1	-0.00785488
54	0x3d4ee90f	0.05051523
55	0x3cb99402	0.022653583
56	0xbbba8873	-0.0056925355
57	0x3d0d1032	0.034439273
58	0x3d00bb88	0.031428844
59	0x3cef1a73	0.029187417
60	0x3d0c8012	0.034301825
61	0x3d40e014	0.047088698
62	0x3ceb5f51	0.028731974
63	0x3d76f987	0.06029656
64	0xbc1511d0	-0.009098485
65	0x3d117142	0.0355084
66	0x3d023ed4	0.0317982
67	0x3c02e016	0.007987997
68	0x3d1109a7	0.035409596
69	0x3cb69e09	0.022292154
70	0x3d02d69b	0.031942945
71	0x3d754e45	0.059889097
72	0xbacd0c3f	-0.0015643908
73	0x3d4bef77	0.04978892
74	0x3cc63217	0.024193807
75	0x3d0450bd	0.03230356
76	0x3c48d879	0.012258642
77	0x3d2f2ca3	0.04276718
78	0x3ab38dfa	0.0013698929
79	0x3bdb01f2	0.0066835815
80	0x3c2711af	0.010197087
81	0xbbd7890f	-0.006577618
82	0x3cdaf5b2	0.026728485
83	0x3d193310	0.037402213
84	0x3caf025b	0.021363428
85	0x3d1e59e8	0.03865996
86	0x3c9af944	0.018917687
87	0x3cf6ac34	0.03011141
88	0x3d35cbd7	0.04438385
89	0x3d1d90e6	0.038468264
90	0x3ca6c50f	0.020357637
91	0x3d0b7f6c	0.034057066
92	0x3ce3f9f7	0.027829153
93	0x3cf4e03c	0.02989208
94	0x3d11a4fc	0.035557732
95	0x3d268adc	0.04065977
96	0x3c9c62a2	0.01909
97	0xbb9f4993	-0.0048610657
98	0x3c4c4530	0.012467667
99	0x3ad34338	0.0016118055
100	0x3d351491	0.044209067
101	0x3d16be90	0.03680283
102	0x3cc8a728	0.024493769
103	0x3d2dc233	0.04242153
104	0xbc23df36	-0.010001948
105	0x3ca07e79	0.019591557
106	0x3d907278	0.07053083
107	0x3c83a2fe	0.016068932
108	0xbbb0a1e0	-0.0053903908
109	0x3cd44cd2	0.025915537
110	0x3d28c2c9	0.041201387
111	0xbc9af0d6	-0.018913668
112	0xbb4c1ae9	-0.003114397
113	0x3ca7b80d	0.020473504
114	0x3b953e06	0.004554513
115	0xbc10d56e	-0.008839948
116	0x3d3e1134	0.046403125
117	0x3c99a0ee	0.018753495
118	0x3cb4d13c	0.022072427
119	0x3d28dd1b	0.041226488
120	0x3d1cfd51	0.03832752
121	0x3d141821	0.036155824
122	0x3c337d65	0.010955189
123	0x3cee4c62	0.029089157
124	0x3d1a4ba0	0.037669778
125	0xbc38deb8	-0.011283569
126	0x3aba1399	0.0014196514
127	0x3d03209f	0.03201353
128	0x3d206dc9	0.0391672
129	0x3c5c0469	0.013428786
130	0x3cff0ec9	0.03113498
131	0x3d81ae16	0.063320324
132	0x3d4b3c6f	0.04961818
133	0x3ca23a3c	0.019803159
134	0x3d3c3b3c	0.045954928
135	0x3cbd3d84	0.023100622
136	0x3d0f7152	0.03502018
137	0x3c7a7a3a	0.01528793
138	0xb9e08f80	-0.00042831525
139	0x3cebb157	0.028771086
140	0x3d21d08f	0.039505538
141	0x3d04676f	0.032325204
142	0x3d3cbf44	0.046080843
143	0x3b9d8970	0.0048076436
144	0x3d739ea1	0.059477452
145	0x3cf642fa	0.030061234
146	0xbc021d3a	-0.0079415385
147	0x3d5e2de7	0.054242995
148	0x3d0037b0	0.031303108
149	0x3c3c1db7	0.011481694
150	0x3d1dff03	0.038573276
151	0x3be2366c	0.0069034602
152	0x3c6376f2	0.013883339
153	0x3cd2dd75	0.025740365
154	0x3d06766a	0.032827772
155	0x3d7337c8	0.05937937
156	0x3cd206f9	0.02563809
157	0x3d63ca8b	0.055613082
158	0x3b1446c3	0.0022625185
159	0x3cd2e5d0	0.025744349
160	0x3d0034ab	0.031300228
161	0xbc583fb4	-0.013198782
162	0x3ce0b68e	0.027430799
163	0x3d001edf	0.03127944
164	0x3ce705f5	0.028201083
165	0x3d099296	0.03358706
166	0x3cab3fff	0.02090454
167	0x3ce8f2b7	0.028436048
168	0x3c995041	0.018715026
169	0x3ce6025a	0.028077293
170	0x3cd1ce85	0.025611171
171	0x3cfe327e	0.031029936
172	0x3d475b39	0.04867098
173	0x3a0362e2	0.0005011988
174	0x3ca261ba	0.01982199
175	0x3cfdde68	0.03098984
176	0x3d43537d	0.047687043
177	0x3ceeac38	0.029134855
178	0x3bb248c8	0.005440805
179	0x3cdd259e	0.026995476
180	0xbc81391a	-0.015774298
181	0x3cb191de	0.021676
182	0x3c72a70b	0.014810334
183	0x3d3459d4	0.04403098
184	0x3be931a5	0.007116514
185	0x3cf4cb45	0.029882083
186	0x3c60e945	0.013727491
187	0x3cdcb729	0.026942806
188	0x3cb5e61a	0.022204448
189	0x3c284c71	0.010272131
190	0x3ccc032c	0.024903856
191	0x3d5cc1fd	0.05389594
192	0x3c637376	0.0138825085
193	0x3d481e21	0.04885686
194	0x3d1dcd1e	0.038525693
195	0x3c8ebcc5	0.017423997
196	0x3bded7c0	0.0068006217
197	0x3d23c7ba	0.039985396
198	0x3c021c10	0.007941261
199	0xba0f3c3b	-0.0005463992
200	0x3c0e434f	0.00868304
201	0x3c45dc4c	0.012076449
202	0x3c86b7b1	0.016445013
203	0x3c2db41c	0.010602023
204	0x3d0e70d6	0.034775577
205	0xba1890df	-0.00058199273
206	0x3ce3cbee	0.027807202
207	0x3ce1b43d	0.027551765
208	0x3c8c0fe6	0.017097425
209	0x3ca55708	0.020183101
210	0x3cca90db	0.024727276
211	0x3cf541f6	0.02993868
212	0x3d1dbe28	0.038511425
213	0x3ae6c902	0.0017607512
214	0x3d319ad8	0.04336056
215	0x3cfae817	0.030628247
216	0x3d0f5c4d	0.035000134
217	0x3d1350de	0.035965793
218	0x3cced474	0.02524779
219	0x3d1f2388	0.038852245
220	0x3cddda10	0.02708152
221	0x3cee52cb	0.029092213
222	0x3d218137	0.03942987
223	0x3d192abf	0.03739428
224	0x3bea5641	0.0071513955
225	0x3cc9e0d4	0.02464334
226	0x3d4e3aea	0.050349154
227	0x3c00d158	0.007862411
228	0x3b8e0ebc	0.0043352526
229	0xbbff96c3	-0.0077999546
230	0x3cc95894	0.02457837
231	0x3d72d7e7	0.05928793
232	0x3d2f88f1	0.042855207
233	0x3ba0dc23	0.004909055
234	0x3d54679c	0.051856622
235	0x3cb12709	0.021625059
236	0x3c9304ad	0.017946566
237	0x3d3c53d0	0.045978367
238	0x3d12b41f	0.035816308
239	0x3ca0e301	0.019639494
240	0xbc2756e5	-0.010213588
241	0x3ccf05f8	0.0252714
242	0x3c6c94e9	0.0144398
243	0x3d14e264	0.036348715
244	0x3d6b97c4	0.05751778
245	0xbcfb5eb8	-0.030684814
246	0x3d1cea32	0.038309284
247	0x3c84929f	0.016183196
248	0x3d1412cf	0.03615075
249	0x37f27ef8	2.8907773e-05
250	0x3c850398	0.016237065
251	0x3c8bee0e	0.017081287
252	0x3ce2582e	0.027629938
253	0x3c46e8f8	0.012140505
254	0x3d27bf67	0.04095402
255	0x3bdc2d95	0.006719301

model.1.running_mean f4 [256]
0	0xbe2c08ad	-0.16800185
1	0x3d7c72d8	0.06163296
2	0x3e099f31	0.13439633
3	0x3e08fb82	0.13377193
4	0xbd775efe	-0.060393326
5	0x3e0827d4	0.13296443
6	0x3e11da49	0.14243425
7	0xbe04ea39	-0.12979974
8	0x3c9fb836	0.019497018
9	0x3d799369	0.060931597
10	0x3bdc11b2	0.0067159766
11	0xbdc2bbaa	-0.0950845
12	0x3d1aad8f	0.037763175
13	0x3d82805d	0.063721396
14	0x3cafb871	0.021450253
15	0x3db807bc	0.0898585
16	0xbe5475b9	-0.20748033
17	0xbe1c213e	-0.15247056
18	0xbe31d3c2	-0.17365935
19	0x3e64bb45	0.22337063
20	0x3daab0ef	0.08334529
21	0x3ded2766	0.1157978
22	0x3d9871f0	0.07443607
23	0x3e221155	0.15826924
24	0xbd728844	-0.059211984
25	0x3d225a0e	0.039636664
26	0x3dfbcd07	0.12294965
27	0x3dd55133	0.10415878
28	0xbe60a541	-0.2193804
29	0xbe3dac0c	-0.18522662
30	0x3e56a022	0.20959523
31	0x3da79507	0.081827216
32	0xbd58bae0	-0.052912593
33	0x3d8d30be	0.068940625
34	0xbcdca652	-0.026934776
35	0x3e40cb14	0.18827468
36	0x3d0959df	0.033532973
37	0xbde3d694	-0.11124912
38	0xbdf1023c	-0.11768004
39	0x3e39a1ff	0.18128203
40	0xbdb972bc	-0.09055087
41	0xbe650dc8	-0.22368538
42	0xbd9e62ff	-0.07733726
43	0x3dd46c51	0.10372222
44	0x3d135f2f	0.035979446
45	0x3e3bb870	0.18332076
46	0x3e646930	0.22305751
47	0xbe103a30	-0.14084697
48	0x3dd45206	0.10367207
49	0x3e62ca90	0.22147584
50	0x3cf36e05	0.029715547
51	0x3de19c2f	0.11016118
52	0xbd9f945d	-0.0779197
53	0xbe39c9cd	-0.18143387
54	0xbe64124a	-0.22272602
55	0xbe41e6ac	-0.1893565
56	0x3d79fc74	0.061031774
57	0xbe268245	-0.16260631
58	0xbe171c77	-0.14756952
59	0x3de1416a	0.10998805
60	0x3d066215	0.032808382
61	0x3dc1d4c2	0.094644085
62	0x3e1890ee	0.14899036
63	0xbc6cab75	-0.014445175
64	0x3d7cc2ad	0.061709095
65	0x3d65af86	0.056075595
66	0x3e076f7a	0.13226119
67	0x3dfd8ed6	0.123807594
68	0x3e1f72bd	0.15571113
69	0x3e203711	0.15646006
70	0xbe1eecb3	-0.15519981
71	0xbd855292	-0.0650989
72	0xbe061389	-0.1309339
73	0x3e3bed50	0.18352246
74	0x3db1a63d	0.086742856
75	0x3e0896d4	0.13338786
76	0x3d84a29a	0.06476326
77	0x3e059757	0.13046013
78	0x3cc57ced	0.02410742
79	0xbdeb6fe8	-0.11495954
80	0x3e57a909	0.21060576
81	0x3e40b46b	0.18818824
82	0xbcde79a5	-0.027157614
83	0x3d11bd6e	0.035581045
84	0x3e1c137e	0.1524181
85	0x3dfb2816	0.12263505
86	0xbe43e9e4	-0.19132191
87	0xbe3094ce	-0.17244264
88	0xbe40a7d9	-0.18814029
89	0xbd9fc897	-0.07801931
90	0xbdd9fe49	-0.10644204
91	0xbd596fbb	-0.05308507
92	0x3d30c8c8	0.04316023
93	0x3ded0679	0.115735
94	0xbe33a1ca	-0.17542186
95	0x3d6a76b1	0.0572421
96	0x3e14b350	0.14521527
97	0x3e3af088	0.18255818
98	0xbd96af5d	-0.07357667
99	0x3e560261	0.20899345
100	0x3e1bf5a0	0.15230417
101	0xbdbb5d12	-0.09148611
102	0xbd54fec2	-0.05200077
103	0x3d2f422b	0.042787712
104	0xbe0cd5da	-0.13753453
105	0xbdbaf5a2	-0.09128882
106	0x3debc21c	0.11511633
107	0xbdc792ad	-0.09744773
108	0xbe375fe7	-0.17907678
109	0xbc5cac99	-0.013468885
110	0x3dbdded6	0.09271018
111	0x3d611840	0.054954767
112	0x3e489045	0.19586284
113	0xbdec7dd4	-0.11547437
114	0x3de9462e	0.11390339
115	0x3e31600f	0.173218
116	0xbe00eee1	-0.12591125
117	0xbd257813	-0.040397715
118	0xbe037b96	-0.12840113
119	0xbe4eeeb4	-0.20208246
120	0xbdc55cc2	-0.09636833
121	0x3e515698	0.20443189
122	0x3e5d18d3	0.21591501
123	0x3dd2de99	0.102963634
124	0xbdae4ecb	-0.08511122
125	0x3de3ff87	0.11132722
126	0xbe0f618b	-0.14002053
127	0x3e61a38d	0.22035046
128	0xbe5f52fa	-0.21808997
129	0xbdd7503a	-0.10513349
130	0x3e1d5dee	0.15367863
131	0xbc16d748	-0.0092066005
132	0xbd896f85	-0.06710724
133	0x3d9f56a3	0.077801965
134	0xbd575cb9	-0.05257866
135	0x3e0c5596	0.13704523
136	0xbe61ef31	-0.220639
137	0xbcd0a076	-0.025467139
138	0xbe41f044	-0.1893931
139	0xbddd161d	-0.107952334
140	0xbc88e16d	-0.016709054
141	0x3da5bc9f	0.08092617
142	0xbdc358c1	-0.09538413
143	0xbd805cd5	-0.06267706
144	0xbcbcec1a	-0.0230618
145	0x3c41a7a8	0.0118197575
146	0xbe1e01b9	-0.15430345
147	0x3e39ea42	0.18155769
148	0xbd6cdce7	-0.057827856
149	0xbdfad319	-0.12247295
150	0x3c2d34ac	0.01057164
151	0x3e5b8db2	0.21440771
152	0xbd85e7ca	-0.06538351
153	0xbcc5fad4	-0.024167456
154	0xbde1a5e5	-0.1101797
155	0xbe570a59	-0.21000041
156	0x3d8759a3	0.06608894
157	0xbdac1644	-0.08402684
158	0xbe3eeaa9	-0.18644203
159	0xbe4a7c5e	-0.19774005
160	0x3d85e02e	0.065368995
161	0xbd05c485	-0.03265812
162	0x3e3592e2	0.17731813
163	0xbe2494f2	-0.16072443
164	0xbe390bfa	-0.18070975
165	0xbdec2f38	-0.11532444
166	0xbc2930b0	-0.010326549
167	0xbd324231	-0.043520156
168	0xbd0ea31b	-0.03482352
169	0x3dd39b86	0.10332398
170	0xbca3b97f	-0.019985912
171	0x3e491ff4	0.19641095
172	0xbd63df59	-0.055632923
173	0x3d977b7f	0.07396602
174	0xbe228701	-0.15871812
175	0x3e3ecbaf	0.18632387
176	0x3d0bf552	0.034169503
177	0xbe07228a	-0.1319677
178	0x3e0383eb	0.12843291
179	0x3d2f7448	0.042835504
180	0xbd82cbab	-0.06386503
181	0x3ce494ce	0.027902987
182	0xbe076409	-0.13221754
183	0x3e0822d2	0.13294533
184	0x3e53cfd4	0.20684749
185	0x3b3e5ed3	0.002904822
186	0xbd025e30	-0.031828105
187	0x3dd33502	0.10312845
188	0x3da7111a	0.08157559
189	0x3d8522e6	0.06500797
190	0xbc53b9dc	-0.01292273
191	0xbdd76c61	-0.105187185
192	0x3e4f8f98	0.2026962
193	0xbdd1122b	-0.102085434
194	0x3dcbe12e	0.09955059
195	0x3e636d18	0.22209585
196	0x3da22c72	0.079186335
197	0xbdfc887d	-0.123307206
198	0xbe5a7935	-0.213353
199	0xbdcf2482	-0.10114385
200	0x3de4c634	0.11170617
201	0x3e565e5c	0.20934433
202	0x3e3e7d83	0.18602566
203	0x3e4a7596	0.19771418
204	0xbdb4a939	-0.08821339
205	0xbdf56d01	-0.119836815
206	0x3e32a0e8	0.17444193
207	0xbe03e284	-0.12879378
208	0x3ccf5ab8	0.025311813
209	0x3c8fe082	0.017563108
210	0x3e494413	0.19654875
211	0x3e3de218	0.18543279
212	0x3e4aad64	0.19792706
213	0x3e50a471	0.2037523
214	0x3b7c0c67	0.003845954
215	0x3e078852	0.13235596
216	0x3c5b27b8	0.013376169
217	0xbdbc7f04	-0.09203914
218	0xbe2b7b76	-0.16746315
219	0x3e0cc747	0.13747893
220	0x3d7f0d2b	0.062268417
221	0xbd96c2a1	-0.07361341
222	0x3d4f72ef	0.05064672
223	0xbe0812cd	-0.13288422
224	0x3db27f6b	0.08715709
225	0xbde249f0	-0.11049259
226	0x3db157e0	0.08659339
227	0xbcebb419	-0.0287724
228	0xbe3e4853	-0.18582277
229	0x3df24534	0.11829606
230	0x3e45fd72	0.19334963
231	0x3d26cfdc	0.040725574
232	0x3d33bf6e	0.043883733
233	0x3d74e420	0.05978787
234	0x3d7f96a3	0.062399518
235	0x3c3e75c7	0.01162476
236	0x3e57a755	0.21059926
237	0x3e05c4fa	0.13063422
238	0x3e650268	0.22364199
239	0xbe196d2f	-0.14983056
240	0xbd4c10f8	-0.04982087
241	0xbe46e6c7	-0.19423972
242	0xbd53f722	-0.051749356
243	0x3b2e75e1	0.0026620554
244	0x3d91af6e	0.07113539
245	0xbd220ced	-0.03956311
246	0xbe27a822	-0.16372731
247	0xbdf96795	-0.1217796
248	0x3d1d2fc0	0.038375616
249	0x3d1ca1cd	0.038240243
250	0x3c973a8a	0.01846053
251	0xbe199cb3	-0.15001182
252	0xbe1f41a0	-0.15552378
253	0xbb76a770	-0.0037636422
254	0x3dad51a1	0.08462835
255	0xbc8a571b	-0.016887238

model.1.running_var f4 [256]
0	0x3e7e2893	0.24820165
1	0x3ead3dac	0.33836114
2	0x3e55ebe6	0.2089077
3	0x3e647ee7	0.22314034
4	0x3e5a9586	0.21346101
5	0x3e834e86	0.25645846
6	0x3e840148	0.25782228
7	0x3e45fea7	0.19335423
8	0x3e71f673	0.23629169
9	0x3e636fc7	0.22210608
10	0x3e9fb0cc	0.31189573
11	0x3e072287	0.13196765
12	0x3e705004	0.23468024
13	0x3e3ab3f9	0.18232717
14	0x3e455da5	0.19274004
15	0x3e6efa90	0.2333777
16	0x3e5242ef	0.20533346
17	0x3e8f31c7	0.27967665
18	0x3eb045ad	0.34428158
19	0x3e82a8a1	0.2551928
20	0x3e3e0c0a	0.1855928
21	0x3e92df8b	0.28686175
22	0x3e6a1cc5	0.22862537
23	0x3e679377	0.22614847
24	0x3e31878e	0.17336866
25	0x3e44b170	0.19208312
26	0x3e46a692	0.19399479
27	0x3e790aae	0.2432048
28	0x3e29a94f	0.16568492
29	0x3e86bf8a	0.26318008
30	0x3e8d4894	0.27594435
31	0x3eb02113	0.34400234
32	0x3eab9ae3	0.33516607
33	0x3e33947c	0.17537111
34	0x3e30cf58	0.17266595
35	0x3e6e0ce2	0.23247102
36	0x3e3742c3	0.17896561
37	0x3e496225	0.19666345
38	0x3e683f7e	0.2268047
39	0x3e133094	0.14374
40	0x3e7a3441	0.24433996
41	0x3e184d12	0.1487315
42	0x3e9d6b20	0.30745792
43	0x3e57c81a	0.21072426
44	0x3dde8fec	0.10867295
45	0x3e91a867	0.28448793
46	0x3eab13c7	0.33413526
47	0x3e8752a1	0.26430228
48	0x3e9199b3	0.28437576
49	0x3e81a13f	0.25318334
50	0x3dccfd34	0.10009232
51	0x3e577195	0.21039422
52	0x3e60eef2	0.2196615
53	0x3e9860d4	0.29761374
54	0x3ea4b3d1	0.3216844
55	0x3e5cd1bb	0.21564381
56	0x3ea1840f	0.31546065
57	0x3e2956bc	0.16536993
58	0x3e444c72	0.19169787
59	0x3e4ac10d	0.19800206
60	0x3e6ee0fd	0.23328014
61	0x3e647d00	0.22313309
62	0x3e85f560	0.2616377
63	0x3e6ef09a	0.2333397
64	0x3e5502ae	0.20801803
65	0x3e99f3ae	0.30068725
66	0x3e43142a	0.1905066
67	0x3ea996fe	0.3312301
68	0x3e30fc4b	0.17283742
69	0x3e4caa42	0.19986823
70	0x3e851e51	0.25999692
71	0x3e5958d4	0.21225291
72	0x3e675f18	0.22594869
73	0x3e6ce527	0.2313429
74	0x3e73700d	0.23773213
75	0x3e8685a1	0.26273826
76	0x3eb3fb1f	0.35152528
77	0x3ea9951e	0.3312158
78	0x3e8120ab	0.25220236
79	0x3e7f0652	0.24904755
80	0x3e7b3171	0.24530579
81	0x3e582f25	0.21111734
82	0x3eb3a7d7	0.3508899
83	0x3e5659e6	0.20932731
84	0x3e7c9d13	0.24669294
85	0x3e45adf8	0.19304645
86	0x3eb18359	0.34670523
87	0x3e662d86	0.22478303
88	0x3e4c8b00	0.199749
89	0x3e4fe1b7	0.20300947
90	0x3e7eaaee	0.24869892
91	0x3e47f86b	0.19528358
92	0x3e464202	0.19361117
93	0x3e1032db	0.140819
94	0x3e58e1ab	0.21179835
95	0x3e6d3659	0.23165263
96	0x3e543b86	0.20725831
97	0x3e575d0d	0.2103159
98	0x3e04e953	0.12979631
99	0x3e919a2d	0.2843794
100	0x3e2b74a2	0.1674371
101	0x3e81a5f1	0.25321916
102	0x3e6bde4c	0.23034018
103	0x3e5a762d	0.21334143
104	0x3e5c1b42	0.21494773
105	0x3e6b2a1c	0.22965282
106	0x3e27aade	0.16373774
107	0x3e2249c4	0.15848452
108	0x3e24f12a	0.16107622
109	0x3e80995b	0.25117
110	0x3e492b1c	0.19645351
111	0x3e61dff5	0.22058089
112	0x3e8bdc72	0.27316624
113	0x3e866e05	0.26255813
114	0x3e8a04d4	0.2695681
115	0x3e48216c	0.19544
116	0x3eaa4a7d	0.33259955
117	0x3e8335a0	0.2562685
118	0x3eb25a4d	0.3483452
119	0x3e378082	0.17920116
120	0x3e9046f9	0.28179148
121	0x3da17413	0.078834675
122	0x3e8187a3	0.25298795
123	0x3e9ec0fc	0.3100661
124	0x3e620e19	0.2207569
125	0x3e1f3e1b	0.15551035
126	0x3e755a54	0.23960239
127	0x3e24f1ca	0.1610786
128	0x3e1a5bb6	0.15074047
129	0x3ea1ee18	0.31626964
130	0x3ea1417a	0.31495267
131	0x3e4aa5c0	0.19789791
132	0x3e8cf6da	0.27532083
133	0x3e50e8ee	0.20401356
134	0x3e4c75e4	0.19966847
135	0x3e3446c2	0.17605117
136	0x3e786651	0.2425778
137	0x3e841ef3	0.25804862
138	0x3e735000	0.23760986
139	0x3e9c783e	0.30560488
140	0x3e887a68	0.2665589
141	0x3e5c2fae	0.21502563
142	0x3e664eb4	0.2249096
143	0x3e43c910	0.19119668
144	0x3e3271d5	0.17426236
145	0x3e8d0b94	0.27547896
146	0x3e6077bf	0.2192068
147	0x3e5c8cf3	0.21538143
148	0x3e1d8088	0.15381062
149	0x3e52f5cd	0.20601578
150	0x3e13b4d9	0.14424457
151	0x3e4ed706	0.20199212
152	0x3e81b4e8	0.25333333
153	0x3e8d9eab	0.27660117
154	0x3e83afe9	0.25720146
155	0x3e2a0ec4	0.16607195
156	0x3e5ab67c	0.21358675
157	0x3e579201	0.2105179
158	0x3e172374	0.14759618
159	0x3e80277e	0.2503013
160	0x3e9c0332	0.30471188
161	0x3ea1cae6	0.31600112
162	0x3e84ff45	0.25976005
163	0x3e7d431d	0.24732633
164	0x3e8f6bef	0.28012034
165	0x3e8ee178	0.27906394
166	0x3e8a42d2	0.27004105
167	0x3e78859f	0.24269722
168	0x3ea0a0ea	0.31372768
169	0x3e98f714	0.29876006
170	0x3e9145fe	0.28373712
171	0x3e9df119	0.30848005
172	0x3e47708a	0.19476524
173	0x3e65561c	0.2239613
174	0x3e36da11	0.17856623
175	0x3ea84454	0.3286463
176	0x3e0db1fc	0.13837427
177	0x3e9f4f16	0.31115025
178	0x3e1fea05	0.15616615
179	0x3e9c5914	0.3053671
180	0x3e708235	0.2348717
181	0x3e2c863a	0.16848078
182	0x3e61d777	0.2205485
183	0x3e466d09	0.19377531
184	0x3e1abd98	0.15111387
185	0x3e831883	0.25604638
186	0x3e0ec06f	0.13940595
187	0x3e10b50b	0.14131562
188	0x3e44e792	0.19228962
189	0x3e50a856	0.20376715
190	0x3d8f14ba	0.06986375
191	0x3e96772c	0.29387796
192	0x3eafaf44	0.34313405
193	0x3e46335e	0.19355533
194	0x3e3b2dbb	0.18279164
195	0x3eb46ba3	0.3523837
196	0x3ea22e07	0.3167574
197	0x3e228f9d	0.15875097
198	0x3e6ed3cd	0.23322983
199	0x3e937824	0.28802598
200	0x3e8f984e	0.28045887
201	0x3e3710f4	0.17877561
202	0x3e76c655	0.24099095
203	0x3e748d03	0.23881917
204	0x3e325da0	0.17418528
205	0x3e837331	0.25673822
206	0x3e56a579	0.2096156
207	0x3ea6f207	0.32606527
208	0x3e52e2c5	0.20594318
209	0x3e80c0ec	0.25147188
210	0x3e22fea2	0.15917447
211	0x3e92e86d	0.28692952
212	0x3e8ea4d1	0.2786012
213	0x3e32d847	0.17465316
214	0x3e82de42	0.25560194
215	0x3e75a844	0.2398997
216	0x3e334994	0.17508537
217	0x3e3b391a	0.18283501
218	0x3ddc161d	0.10746405
219	0x3e667c19	0.22508277
220	0x3e933719	0.28752974
221	0x3e92de8c	0.28685415
222	0x3e13e354	0.14442188
223	0x3e741ee1	0.23839904
224	0x3e6b8f11	0.23003794
225	0x3ea0a30d	0.31374398
226	0x3e571ea1	0.21007778
227	0x3eac71f4	0.3368069
228	0x3e85cb2b	0.26131567
229	0x3e78a464	0.2428146
230	0x3e6f7b7d	0.23386951
231	0x3e0b8189	0.13623632
232	0x3e4e0f2e	0.20122978
233	0x3e636262	0.22205499
234	0x3e5de5d5	0.21669705
235	0x3e3c67cc	0.1839897
236	0x3e6a02d8	0.22852647
237	0x3e4de4af	0.20106767
238	0x3e46f315	0.19428666
239	0x3e4e0f3c	0.20122999
240	0x3e955038	0.29162765
241	0x3e4241d2	0.18970421
242	0x3e2fcfdf	0.1716914
243	0x3e19302c	0.14959782
244	0x3e0c2b98	0.13688505
245	0x3e88ff93	0.26757488
246	0x3e4010a2	0.18756345
247	0x3e4489bb	0.19193165
248	0x3e3e1415	0.18562348
249	0x3e1da818	0.15396154
250	0x3e8f6819	0.28009108
251	0x3ea85ceb	0.3288339
252	0x3e9239d1	0.28559735
253	0x3e889817	0.26678535
254	0x3e62ee23	0.22161154
255	0x3e963223	0.29335126

model.3.weight f4 [256, 256]
0	0x39b4d47e	0.00034490594
1	0xbcc14581	-0.023592712
2	0x3cd8b47a	0.026453245
3	0x3d1e6275	0.038668115
4	0xbcb3a488	-0.02192904
5	0x3dcfc0ff	0.10144233
6	0xbcabf434	-0.020990469
7	0xb9d55e31	-0.00040696704
8	0xbca45a94	-0.020062722
9	0xbd18cb78	-0.037303418
10	0x3c535fe0	0.012901276
11	0xbb4e09ce	-0.003143895
12	0xbd50c065	-0.05096473
13	0x3d2bf61c	0.041982755
14	0xbb39b31c	-0.0028335517
15	0x3ca824ca	0.020525355
16	0x3bc39da2	0.005969719
17	0xbd883c3a	-0.06652112
18	0x3d0bef82	0.03416396
19	0xbb1c5422	-0.0023853858
20	0x3cf747f1	0.030185672
21	0xbcb9f8c5	-0.02270163
22	0x3d8b96c1	0.068158634
23	0x3d7f7d79	0.06237552
24	0xbcad0980	-0.021122694
25	0xbc99542f	-0.0187169
26	0xbd34ea3a	-0.04416869
27	0x3d788128	0.060670048
28	0x3d278391	0.040896956
29	0x3c8d1cdc	0.017225675
30	0xbd082e1f	-0.03324711
31	0x3ca23698	0.019801423
32	0x3da16f28	0.078825295
33	0x3d27c9ef	0.040964063
34	0x3d8d0638	0.06885952
35	0xbb781acc	-0.003785777
36	0x3ba239ba	0.004950729
37	0x3cea89ee	0.028630223
38	0x3d00dfeb	0.031463545
39	0x3c4d95a6	0.012547886
40	0xbbd8bc21	-0.0066142236
41	0x3d13abb4	0.03605242
42	0xbd209f5c	-0.039214477
43	0xbcd9eef1	-0.026603194
44	0xbd16c21e	-0.03680622
45	0xbc701397	-0.014653108
46	0xbc97767f	-0.01848912
47	0x3d15ef4d	0.036605168
48	0x3b4d0b46	0.0031287237
49	0xbd38013c	-0.044923052
50	0xbd65b24e	-0.056078248
51	0xbc880b82	-0.01660705
52	0xbd91e138	-0.07123035
53	0x3c437fe7	0.01193235
54	0x3ce04e73	0.027381158
55	0xbc1ca8dc	-0.009561744
56	0xbd4509d9	-0.048105095
57	0xbcbd6a0f	-0.023121862
58	0xbd4f2f7e	-0.0505824
59	0x3d0f9429	0.035053406
60	0xbd65de15	-0.056119997
61	0x3cb38c8b	0.021917602
62	0xbd343b02	-0.044001587
63	0xbd20b459	-0.039234493
64	0x3c4254be	0.011861024
65	0xbd5f2f01	-0.054488186
66	0x3ca21af3	0.019788241
67	0xbc1f5728	-0.0097253695
68	0x3c7f31d5	0.015575846
69	0x3cf1c8f1	0.029514762
70	0xbb211ab4	-0.0024582567
71	0xbcab619f	-0.020920573
72	0x3d7d9781	0.061912064
73	0x3bf3d665	0.0074413293
74	0x3cb83a3e	0.02248871
75	0xbd1ee7e4	-0.038795367
76	0x3da2ffe2	0.07958962
77	0xbc0183c4	-0.0079049505
78	0x3d63deee	0.055632524
79	0xbcf12ff6	-0.029441815
80	0xbc8f5743	-0.017497664
81	0x3d340853	0.04395325
82	0xbcabd376	-0.020974856
83	0x3d248bc5	0.040172357
84	0xbd1a1b3d	-0.037623633
85	0xbcdcfa50	-0.026974827
86	0xbc365515	-0.011128684
87	0x3da78da3	0.08181312
88	0x3d492d8a	0.049115695
89	0xbac5d3ba	-0.0015093007
90	0xbca4df21	-0.020125927
91	0xbc6bb05a	-0.014385307
92	0x3c9cc758	0.019138023
93	0xbd87fa33	-0.066395186
94	0x3c7f0871	0.015565977
95	0x3d2f8fa2	0.04286159
96	0xbce99a7d	-0.028516049
97	0x3d891b79	0.06694693
98	0x3cd571f4	0.026055314
99	0x3c16f5ac	0.009213846
100	0xbd135d60	-0.03597772
101	0x3cf185eb	0.029482802
102	0x3d3c0bcc	0.045909688
103	0x3cbecc80	0.023290873
104	0x3d5d43c1	0.054019693
105	0x3d65ac2a	0.05607239
106	0xbbed9111	-0.0072499593
107	0x3cfc965f	0.030833421
108	0x3d2d2702	0.04227353
109	0x3d61b7b4	0.055106834
110	0x3ca101c2	0.019654159
111	0xbc0c8aee	-0.008578045
112	0x3d196f6a	0.03745977
113	0x3c2eee06	0.010676866
114	0x3bed9659	0.007250589
115	0x3ce5152e	0.0279642
116	0xbd2b9326	-0.04188838
117	0xbd296c2c	-0.041362926
118	0xbd2fd3a9	-0.042926464
119	0xbd44fc60	-0.048092246
120	0x3c3d6198	0.011558913
121	0xbd8d0417	-0.06885546
122	0xbda24bbd	-0.07924602
123	0xbba5dbe4	-0.0050616134
124	0x3d5ca404	0.053867355
125	0xbd416cf8	-0.04722306
126	0xbc12e131	-0.008964823
127	0x3d305ef2	0.043059297
128	0xbc722e5f	-0.014781564
129	0xbd13d164	-0.036088362
130	0xbcf2b085	-0.029625187
131	0xbd647d7c	-0.055783734
132	0xbd2b04c3	-0.041752588
133	0x3cf3d36c	0.0297639
134	0xbc940f15	-0.018073598
135	0xbd1da684	-0.03848888
136	0x3c883d88	0.016630903
137	0xbcd0c9ed	-0.02548691
138	0x3c8b7768	0.01702471
139	0xbd9e30ec	-0.07724175
140	0xbd304415	-0.043033678
141	0x3d574548	0.052556306
142	0x3cb6b9f0	0.022305459
143	0x3d90741e	0.070533976
144	0x3d7e83f6	0.062137567
145	0xbcc82f8a	-0.02443673
146	0xbd7fa74c	-0.062415406
147	0xbc7406ca	-0.014894197
148	0x3d435826	0.047691487
149	0xba8d836a	-0.0010796611
150	0xbc464a3f	-0.012102663
151	0xbc68f729	-0.014219084
152	0xbd262562	-0.040562995
153	0xbc262b4c	-0.010142159
154	0x3c155e10	0.0091166645
155	0x3d3bafe2	0.04582203
156	0xbc707414	-0.014676113
157	0xbd27df0a	-0.04098419
158	0x3cad10c2	0.021126155
159	0x3ca4430d	0.020051504
160	0xbd813908	-0.06309706
161	0xbd98eb65	-0.07466773
162	0x3cb987a6	0.02264769
163	0xbc257dcb	-0.010100792
164	0x3d88c60c	0.066783994
165	0x3b3f0fea	0.0029153773
166	0x3d2b18e5	0.04177179
167	0x3d1f4be2	0.038890727
168	0x3da63d1c	0.081171244
169	0xbb7ac2bc	-0.0038263043
170	0x3da00bce	0.078147516
171	0xbcdb87b0	-0.0267981
172	0x3d323734	0.043509677
173	0x3970bc14	0.00022958248
174	0xbc93d387	-0.0180452
175	0x3d1fc241	0.039003614
176	0x3d1cf882	0.038322933
177	0x3d131265	0.035906214
178	0x3d9edcee	0.07756983
179	0xbd5f271c	-0.054480657
180	0x3d0f8737	0.03504106
181	0x3ca71c55	0.020399252
182	0xbd05b368	-0.0326418
183	0xbc3263de	-0.010888068
184	0xbc7ab816	-0.015302679
185	0x3cb624a7	0.022234274
186	0x39a23bb4	0.0003094353
187	0x3d1a6074	0.03768964
188	0xbd57d649	-0.052694593
189	0xbcf8bc8e	-0.030363347
190	0x3d92b908	0.07164198
191	0xbd01231a	-0.031527616
192	0xbcfa1445	-0.030527243
193	0x3c3e75c0	0.0116247535
194	0x3d885a58	0.06657857
195	0xbd834748	-0.0641008
196	0x3d7069da	0.058694698
197	0xbcfdbff0	-0.030975312
198	0x3ca62977	0.020283444
199	0xbd2d8cd0	-0.042370617
200	0xbcde8718	-0.027164027
201	0xbd764b6b	-0.060130518
202	0x3ce8f98e	0.02843931
203	0x3c9c299b	0.019062808
204	0xbc4dcfd5	-0.012561758
205	0x3cb6372c	0.022243105
206	0xbcce8f8b	-0.025214931
207	0xbad6e3f3	-0.0016394838
208	0xbd530abc	-0.05152391
209	0xbd73c55b	-0.059514385
210	0xbd3f2015	-0.046661455
211	0x3d187807	0.037223842
212	0x3d88432b	0.06653436
213	0x3cfc9206	0.030831348
214	0x3d1eb28e	0.0387445
215	0x3cb671b3	0.022271013
216	0x3d4afa2b	0.049554985
217	0xbd1a698b	-0.03769831
218	0x3c7f0c38	0.015566878
219	0xbcceda1a	-0.025250483
220	0xbd17b342	-0.037036188
221	0x3d8c3eee	0.068479404
222	0x3c51025d	0.012756911
223	0x3d6b73ad	0.057483364
224	0x3d54ab0f	0.051920947
225	0x3d6702a9	0.05639902
226	0x3d080a8f	0.033213194
227	0x3d8201e4	0.06348017
228	0x3d1fc480	0.039005756
229	0xbc1ecdb2	-0.009692596
230	0xbcc88295	-0.024476329
231	0xbc69b280	-0.014263749
232	0xbd00977c	-0.031394467
233	0x3d60da3e	0.054895632
234	0x3d1692a3	0.036760937
235	0xbce5995e	-0.028027233
236	0x3d2a7055	0.041611034
237	0xbb203058	-0.0024442878
238	0xbc7845be	-0.015153347
239	0xbd37c5ed	-0.04486649
240	0xbd0c6a92	-0.03428132
241	0x3d38f3e4	0.045154467
242	0x3d8f4ae8	0.06996709
243	0x3d920739	0.07130284
244	0xbb821d40	-0.003970772
245	0xbd22eab6	-0.03977462
246	0x3c7d8cb7	0.015475444
247	0x3c810499	0.015749263
248	0x3d24e06d	0.04025309
249	0xbd51d06e	-0.051224165
250	0xbd32cba9	-0.043651257
251	0x3d4e9d1e	0.050442807
252	0xbbb78a6a	-0.005601217
253	0x3c1f16a9	0.009709992
254	0x3da0d034	0.078522116
255	0x3cb73b5b	0.02236717
