models/ecoli_core_v5_metabolic_nn.pth (torch, 394773 bytes, 14 tensors)

model.0.weight f4 [256, 20]
0	0x3be0df8c	0.0068625864
1	0xbdb327a5	-0.08747796
2	0x3e0467c7	0.12930213
3	0x3d863320	0.0655272
4	0x3cb8c9ce	0.022557165
5	0x3e4d8219	0.2006916
6	0x3d45a493	0.048252653
7	0x3e15e4fa	0.14638129
8	0x3e22bbc9	0.15891947
9	0x3d2d2add	0.042277206
10	0xbd50e91f	-0.05100357
11	0xbdd0815a	-0.10180922
12	0x39575f08	0.000205394
13	0xbdff63c7	-0.12470203
14	0x3df195a8	0.11796123
15	0x3d234dce	0.039869122
16	0x3dd82580	0.105540276
17	0x3e09b3c6	0.13447484
18	0xbe833612	-0.2562719
19	0x3cce6e0e	0.025198963
20	0xbd1d3f8c	-0.03839068
21	0x3e39429c	0.18091816
22	0xbe0639e0	-0.13108015
23	0xbd4b69c7	-0.049661424
24	0xbda16011	-0.07879651
25	0x3dba88ed	0.09108148
26	0xbddf8e2c	-0.10915789
27	0x3d494e35	0.04914685
28	0xbd8a8813	-0.06764235
29	0xbdce3731	-0.10069121
30	0xbddd6e29	-0.10812027
31	0x3b900195	0.00439472
32	0x3eaa49a7	0.33259317
33	0xbdbcc37d	-0.09216974
34	0x3dd63b25	0.104605
35	0xbe104f54	-0.14092761
36	0xbe08fd6c	-0.13377923
37	0xbe2c47af	-0.1682422
38	0xbe6ac12d	-0.22925253
39	0xbdda49d3	-0.10658612
40	0x3e2feb4b	0.17179601
41	0x3d826cd6	0.06368415
42	0xbe819acf	-0.25313422
43	0xbe0c4d57	-0.13701378
44	0x3cc3ff96	0.023925584
45	0x3e4de2a6	0.20105991
46	0x3c8edfb8	0.017440662
47	0xbe86436c	-0.26223314
48	0x3e47b12d	0.19501181
49	0xbd5b0e3b	-0.053480368
50	0xbd18bfb9	-0.037292216
51	0x3c9821b6	0.018570762
52	0x3dea945e	0.1145408
53	0xbd5a1a12	-0.05324752
54	0x3e035639	0.1282586
55	0xbe431918	-0.19052541
56	0x3b9c8c27	0.0047774496
57	0x3ded9d12	0.116022244
58	0x3e2e6b1a	0.17033044
59	0xbd9cab75	-0.0764989
60	0x3e2a7cc9	0.16649164
61	0x3e64e486	0.223528
62	0x3df87246	0.12131171
63	0x3e184c7d	0.14872928
64	0xbcc24e12	-0.023718867
65	0xbcef2605	-0.029192934
66	0x3d506230	0.05087489
67	0xbd68fc1d	-0.05688106
68	0x3daa54de	0.083169684
69	0x3d27391d	0.04082595
70	0xbded3124	-0.115816385
71	0x3d45556c	0.048177168
72	0x3e73ce66	0.23809204
73	0x3d417940	0.047234774
74	0xbe53fe67	-0.20702516
75	0xbe0abc84	-0.13548476
76	0xbe193ca4	-0.14964539
77	0xbe77b0ef	-0.24188589
78	0xbe0803bf	-0.13282679
79	0x3c2384c2	0.009980382
80	0x3c5219bc	0.012823518
81	0x3c06ef1f	0.008235722
82	0x3c1301b3	0.008972573
83	0x3b237bb9	0.002494557
84	0xba56c335	-0.000819254
85	0x3cd95b7f	0.026532887
86	0x3c714c0b	0.014727603
87	0x3c196ba6	0.009364044
88	0x3c165032	0.0091743935
89	0x3c9d8ebb	0.019233098
90	0x3c051f4d	0.0081251385
91	0x3d65d7d0	0.056114018
92	0x3e9f380f	0.31097457
93	0xbb9acc5b	-0.004724068
94	0x3e393425	0.18086298
95	0xbd8af151	-0.06784309
96	0x3e4f6477	0.20253168
97	0xbe5af506	-0.21382532
98	0x3b814cf2	0.00394594
99	0xbdfee3aa	-0.12445767
100	0x3d5a014f	0.053223904
101	0x3db30b15	0.08742348
102	0xbdc4a5d8	-0.09601945
103	0x3d2901f6	0.041261636
104	0xbce05119	-0.02738242
105	0xbc0d490c	-0.008623373
106	0xbd028459	-0.031864498
107	0xbd33afc1	-0.043868784
108	0xbdf6a783	-0.12043669
109	0xbd9b50e5	-0.07583789
110	0x3d8ee517	0.06977289
111	0x3c3a6696	0.011376997
112	0x3cc36464	0.02385158
113	0x3db5b098	0.08871573
114	0x3dd009cd	0.10158119
115	0x3e4fc2c7	0.20289145
116	0xbe0d6f34	-0.13811952
117	0xbe78612b	-0.24255817
118	0x3cdb8238	0.026795492
119	0xbd8b1f40	-0.0679307
120	0xbe46f501	-0.19429399
121	0xbe45bfc8	-0.1931144
122	0x3d814d33	0.06313553
123	0x3df60483	0.12012579
124	0x3bc3dcbf	0.0059772427
125	0x3c5ef76b	0.013608794
126	0x3dedbde7	0.116084866
127	0xbdb3e977	-0.08784764
128	0xbdea89c4	-0.11452058
129	0x3e2c0912	0.16800335
130	0x3d83037f	0.06397151
131	0xbd4dd48d	-0.050251532
132	0x3e1f35c3	0.15547852
133	0xbde47c08	-0.111564696
134	0xbe0a936f	-0.13532804
135	0x3dc71e8d	0.09722624
136	0xbe077b8d	-0.13230725
137	0xbd8cbf51	-0.06872428
138	0xbe72b22a	-0.23700777
139	0x3e54a5e3	0.20766406
140	0x3ded861c	0.11597845
141	0x3d524228	0.051332623
142	0xbe50eb88	-0.20402348
143	0xbdc19f47	-0.09454208
144	0x3cbf62df	0.023362575
145	0x3dc81e66	0.09771423
146	0x3d0a6c82	0.033794887
147	0x3e5d3f31	0.21606137
148	0xbd719bc9	-0.05898646
149	0xbe20522b	-0.15656345
150	0x3de49d0f	0.11162769
151	0x3c847f91	0.01617411
152	0x3de508c9	0.11183316
153	0x3dadb9b7	0.08482688
154	0xbe622982	-0.22086146
155	0xbe07f22b	-0.13275973
156	0xbe084233	-0.13306503
157	0x3e16a7a5	0.14712389
158	0x3d983fae	0.07434021
159	0x3e3630b5	0.17792018
160	0xbe27dc93	-0.16392736
161	0x3e12ae51	0.14324309
162	0x3d1a547c	0.037678227
163	0xbc50839b	-0.01272669
164	0xbc377cb2	-0.011199163
165	0x3e0c985f	0.1373
166	0x3c238803	0.009981158
167	0xbdf05c50	-0.11736357
168	0xbcb7df51	-0.022445353
169	0xbd2fd0cf	-0.042923745
170	0xbd223042	-0.039596803
171	0xbe8d8df0	-0.27647352
172	0x3e612c29	0.21989502
173	0x3dc90042	0.09814502
174	0xbe124043	-0.14282326
175	0xbcf44f53	-0.029822981
176	0xbc9fc526	-0.019503187
177	0x3e0c10c9	0.13678278
178	0x3bc459c8	0.005992148
179	0xbd996576	-0.07490055
180	0x3e49bfd1	0.19702078
181	0xbd561778	-0.052268475
182	0x3cbbfe2c	0.022948347
183	0xbd4d58e9	-0.05013362
184	0x3cd48d2d	0.025946224
185	0xbdd9e808	-0.106399596
186	0xbd7b43d9	-0.061344
187	0xbd235477	-0.039875474
188	0x3e741ac8	0.23838341
189	0xbe1f1919	-0.15536918
190	0xbd89d414	-0.06729904
191	0xbe10a7cd	-0.14126511
192	0x3d1ef5db	0.038808685
193	0x3dcc915c	0.099886626
194	0x3e19a72e	0.1500518
195	0x3da8985c	0.08232185
196	0xbdd9ccc2	-0.106347576
197	0xbdb2c926	-0.08729772
198	0xbdf7cc3f	-0.12099504
199	0x3e35f61c	0.17769665
200	0xbe4879be	-0.19577691
201	0xbe46b1e4	-0.19403797
202	0x3e198dd7	0.14995514
203	0x3c9af59d	0.018915946
204	0x3b88334a	0.0041565048
205	0xbe6f449c	-0.23366016
206	0x3d0802da	0.033205844
207	0xbd6b1e7c	-0.05740212
208	0xbe12c838	-0.1433419
209	0xbe00468f	-0.12526916
210	0xbc5c5ec6	-0.01345033
211	0x3e0c1d6c	0.13683099
212	0x3cd1dfb8	0.025619373
213	0x3e4fc1c2	0.20288756
214	0xbe2b5386	-0.1673108
215	0x3e0af031	0.13568188
216	0x3dfda1b6	0.123843595
217	0x3da63fb6	0.08117621
218	0x3e1c82a8	0.15284216
219	0xbe1b47f5	-0.15164168
220	0x3e116c7c	0.1420154
221	0xbdee6f9d	-0.11642382
222	0xbd9a2cf2	-0.07528104
223	0xbcb6b372	-0.022302363
224	0x3dd155d0	0.102214456
225	0xbda1fddd	-0.07909749
226	0x3e0cedab	0.13762538
227	0x3e511231	0.20417096
228	0xbe15265f	-0.14565419
229	0xbd52bf95	-0.051452238
230	0xbea4f506	-0.32218188
231	0x3c392579	0.011300438
232	0x3ce3fbe0	0.027830064
233	0x3cc06169	0.023483949
234	0xbc58b715	-0.013227244
235	0xbdf5896c	-0.11989102
236	0x3e076418	0.13221776
237	0xbd2a2ace	-0.041544728
238	0x3d9ca5d8	0.0764882
239	0x3e64e515	0.22353013
240	0xbe66c4b5	-0.22535975
241	0xbe984005	-0.29736343
242	0x3e3301a4	0.17481095
243	0x3c8b04da	0.016970087
244	0xbbe3221c	-0.0069315564
245	0x3cbed467	0.02329464
246	0x3dc6e847	0.09712272
247	0x3e79f80d	0.2441103
248	0xbd0fcdd5	-0.035108406
249	0x3e017109	0.12640776
250	0xbdb9b626	-0.09067945
251	0x3e591623	0.2119985
252	0xbd16210e	-0.036652617
253	0xbdb489f9	-0.08815379
254	0x3d2c08ba	0.04200051
255	0xbd5efa3b	-0.054437857

model.0.bias f4 [256]
0	0xbb2e2bbb	-0.0026576358
1	0x3e293193	0.16522817
2	0xbe5206bd	-0.20510383
3	0x3e541f40	0.20715046
4	0xbe5de22a	-0.21668306
5	0x3be3964f	0.0069454084
6	0x3dcf9cf8	0.10137361
7	0xbdb03393	-0.08603587
8	0xbd8efef3	-0.069822215
9	0xbe2a1c0e	-0.16612265
10	0x3e5d5221	0.21613361
11	0xbdddddef	-0.10833346
12	0xbe5420fc	-0.20715708
13	0xbda5b5be	-0.08091305
14	0x3e155a85	0.14585312
15	0xbe22906d	-0.15875407
16	0x3e2478fb	0.16061775
17	0xbe1fea6a	-0.15616766
18	0x3d94f0de	0.07272504
19	0x3e5f864e	0.21828577
20	0xbe0e637d	-0.1390514
21	0xbe5f65a8	-0.21816123
22	0x3e55febf	0.20897959
23	0xbe27e398	-0.16395414
24	0xbd99af09	-0.075040884
25	0x3e527ca8	0.20555365
26	0xbe30a18e	-0.17249128
27	0xbdc74c92	-0.097314015
28	0xbce53659	-0.027980017
29	0x3e42418d	0.18970318
30	0xbdfdfad9	-0.12401361
31	0x3d7d475d	0.061835635
32	0xbdaeea4d	-0.08540783
33	0xbd2d812c	-0.042359516
34	0xbd3eef55	-0.046614964
35	0x3bbb15bf	0.0057093794
36	0x3dbafca9	0.09130222
37	0xbde3172b	-0.11088403
38	0xbe3cab1f	-0.18424653
39	0x3e3056e4	0.17220646
40	0xbd4ba7ab	-0.049720448
41	0x3dd35935	0.10319749
42	0xbe4a1cc5	-0.19737537
43	0x3d1846b3	0.0371768
44	0xbe37492e	-0.1789901
45	0x3dbe3a09	0.09288413
46	0xbdb20d40	-0.086939335
47	0xbe258532	-0.16164091
48	0xbcddceb2	-0.027076099
49	0xbc17bfcb	-0.009262036
50	0x3dd6bca3	0.10485198
51	0xbca6917a	-0.02033304
52	0xbe45a2fa	-0.19300452
53	0x3e145f82	0.14489558
54	0xbe564e58	-0.20928323
55	0xbe454565	-0.19264753
56	0xbe13e268	-0.14441836
57	0x3d8f2ff2	0.06991567
58	0xbd6d4e78	-0.05793616
59	0xbdc13426	-0.09433775
60	0x3d407634	0.046987727
61	0x3d90ce29	0.07070572
62	0x3db26b65	0.0871189
63	0x3dc7c487	0.097542815
64	0x3e41474a	0.18874851
65	0xbde94dcb	-0.11391791
66	0xbe3b819e	-0.18311164
67	0x3d8aaf09	0.067716666
68	0x3d6acc10	0.057323515
69	0xbd5839f9	-0.052789662
70	0xbe541672	-0.20711687
71	0xbb1c4a92	-0.0023848158
72	0x3e114d0b	0.14189546
73	0x3e1a859e	0.15090033
74	0xbce1f428	-0.027582243
75	0xbd0fbaf9	-0.03509042
76	0x3dc8f845	0.09812979
77	0x3def7cb6	0.116937086
78	0x3db47dcb	0.088130556
79	0xbe3fce41	-0.18731023
80	0x3c7ccee3	0.015430185
81	0x3e247615	0.1606067
82	0xbe1ac850	-0.15115476
83	0x3e2c1baa	0.16807428
84	0xbe3583df	-0.17726086
85	0xbdbe273b	-0.09284826
86	0xbcbd0fc3	-0.023078805
87	0xbc682420	-0.014168769
88	0x3e0d9fbb	0.13830464
89	0x3e08a5f5	0.13344558
90	0xbd285275	-0.041094262
91	0x3c027cbc	0.007964309
92	0x3e491de1	0.19640304
93	0x3d9c63b0	0.076362014
94	0x3de54597	0.11194914
95	0xbdafaf32	-0.08578338
96	0x3c9eba1a	0.01937585
97	0x3bc9e614	0.0061614607
98	0x3e0c56c6	0.13704976
99	0x3cbd52a0	0.023110688
100	0x3d22288e	0.039589457
101	0x3dc2d94a	0.09514101
102	0x3e37ab9d	0.17936559
103	0xbd23ca0c	-0.03998761
104	0x3d84b9a5	0.064807214
105	0x3dab10e9	0.08352835
106	0xbd74b350	-0.05974132
107	0x3e3bb5a5	0.1833101
108	0xbc569ff0	-0.0130996555
109	0x3d8802b1	0.06641138
110	0xbdd121cb	-0.102115236
111	0x3c80b34e	0.0157105
112	0x3e43dba5	0.19126756
113	0xbde8b6a2	-0.113629594
114	0xbd3699dc	-0.044580325
115	0x3e325c81	0.174181
116	0x3e64446c	0.22291726
117	0x3e4ffb8c	0.20310801
118	0x3e0e2e0f	0.13884757
119	0x3e2ea8ac	0.1705653
120	0xbde354d9	-0.11100168
121	0xbc7b15af	-0.015324994
122	0xbd200f9f	-0.039077397
123	0x3c9a4062	0.018829528
124	0x3d4236bc	0.04741548
125	0x3e054509	0.13014616
126	0xbe20bc78	-0.15696895
127	0xbde8106a	-0.11331256
128	0x3e048c10	0.12944055
129	0x3dddde6e	0.10833441
130	0xbc5e35be	-0.013562618
131	0xbe50d1d4	-0.20392543
132	0xbe6141b2	-0.21997717
133	0xbe4db5ed	-0.2008893
134	0x3c80b0d1	0.015709313
135	0x3c77c0b2	0.015121626
136	0xbc66e3ac	-0.014092367
137	0x3df084b9	0.11744065
138	0xbe0bc859	-0.13650645
139	0x3e0c9546	0.13728818
140	0x3e217574	0.15767461
141	0x3e278c80	0.1636219
142	0x3da73934	0.081652075
143	0x3dc35cad	0.09539161
144	0x3e450721	0.19241
145	0x3dfc490e	0.123186216
146	0xbd5a20a8	-0.0532538
147	0xbe38be84	-0.18041426
148	0x3dfc6b57	0.12325161
149	0x3cc76a28	0.024342611
150	0xbe31e6db	-0.1737322
151	0xbe302a99	-0.1720375
152	0xbe39bfde	-0.18139598
153	0xbe5c4dfb	-0.21514122
154	0xbe0845e0	-0.13307905
155	0xbdea45ae	-0.114390716
156	0xbe2068a2	-0.15664914
157	0x3ddfd15f	0.10928606
158	0x3e5868d5	0.2113374
159	0xbdd3aa0c	-0.10335168
160	0xbbcdd0c7	-0.0062809917
161	0x3e2038c1	0.1564665
162	0xbe57ebd5	-0.21086057
163	0xbe4d2f79	-0.2003764
164	0x3d5733d8	0.052539676
165	0xbe4c2d72	-0.19939211
166	0x3dc99844	0.098434955
167	0xbd3c36ef	-0.045950826
168	0x3db542c4	0.08850625
169	0xbe634e3d	-0.22197814
170	0x3e6144dd	0.21998926
171	0x3e535008	0.20635998
172	0x3d973ca8	0.07384616
173	0x3e07c563	0.13258891
174	0x3e5f801f	0.21826218
175	0xbe5247e5	-0.20535238
176	0x3e4424ab	0.19154613
177	0xbe217f13	-0.15771131
178	0xbde82657	-0.11335438
179	0x3e4bcdff	0.199028
180	0xbe45a3ad	-0.19300719
181	0x3e08c7ff	0.13357542
182	0x3e5723c9	0.21009745
183	0xbe5740b4	-0.21020776
184	0x3d8eff81	0.06982327
185	0xbde5e993	-0.11226191
186	0xbe39719f	-0.1810975
187	0x3e2e2a29	0.1700827
188	0xbe2ecac1	-0.17069532
189	0x3ba06cbb	0.004895774
190	0xbdc3bb4a	-0.09557207
191	0xbe3cf573	-0.18453006
192	0xbe533957	-0.20627342
193	0x3a1e5537	0.00060399197
194	0xbc9fecb1	-0.019522043
195	0xbd332dd8	-0.043744892
196	0xbdb832d7	-0.08994072
197	0xbda73bdf	-0.081657164
198	0xbcab4a7f	-0.020909546
199	0x3dc02e3c	0.093838185
200	0xbd944b44	-0.07240918
201	0x3e543884	0.20724684
202	0xbe114565	-0.14186628
203	0x3d21e314	0.0395232
204	0x3dd314da	0.103067115
205	0xbd59742e	-0.053089313
206	0x3e21f232	0.15815046
207	0xbe3fc50a	-0.18727508
208	0x3d8cf057	0.06881779
209	0xbd0d8f83	-0.03456069
210	0x3e3e3d09	0.1857797
211	0x3d98e72c	0.074659675
212	0x3d6bc2b3	0.057558727
213	0xbd3ea729	-0.046546135
214	0xbd9e7a58	-0.07738179
215	0xbdaa323a	-0.08310361
216	0xbe097e09	-0.13426985
217	0xbd569479	-0.05238769
218	0xbdb98386	-0.09058289
219	0xbb848e32	-0.0040452713
220	0x3e547f55	0.20751698
221	0x3dc060d5	0.09393469
222	0xbe5c7ee6	-0.21532783
223	0x3d3d6795	0.04624136
224	0x3e01f1c2	0.1268988
225	0xbe118c45	-0.14213665
226	0xbdf255f9	-0.11832804
227	0xbdd65019	-0.10464496
228	0x3e4affe6	0.1982418
229	0x3e2a6729	0.16640915
230	0xbda3ae59	-0.079922386
231	0x3d4240b7	0.047424998
232	0x3e0f88f0	0.14017081
233	0x3e39bb6a	0.18137899
234	0xbe3b5484	-0.18293959
235	0xbe03db46	-0.12876615
236	0xbdb781f9	-0.08960337
237	0xbd8c6f40	-0.06857157
238	0x3ce18f31	0.0275341
239	0x3dbcc89b	0.0921795
240	0xbcfe35da	-0.031031538
241	0xbde4a116	-0.11163537
242	0xbc0b61bd	-0.008507189
243	0xbcda0318	-0.026612803
244	0xbdba4a4f	-0.090962045
245	0x3e3ff532	0.18745878
246	0xbb91e0ca	-0.004451846
247	0xbdbb1d1e	-0.09136413
248	0xbc81691c	-0.01579719
249	0xbe0c5679	-0.13704862
250	0xbdbbb00c	-0.09164438
251	0x3e32e736	0.17471012
252	0x3d549e73	0.05190892
253	0xbd195543	-0.037434828
254	0xbe52e2e3	-0.20594363
255	0xbdb4049f	-0.08789944

model.1.weight f4 [256]
0	0x3f6650e5	0.89967185
1	0x3f484945	0.782368
2	0x3f5c51ff	0.86062616
3	0x3f6edbc8	0.9330411
4	0x3f8a5ba7	1.080922
5	0x3f670cc4	0.90253854
6	0x3f4f7023	0.8103048
7	0x3f69b961	0.9129849
8	0x3f557757	0.83385223
9	0x3f5b793a	0.8573185
10	0x3f6bbbf1	0.9208365
11	0x3f653cfb	0.89546174
12	0x3f5c0c1a	0.85955966
13	0x3f66e014	0.90185666
14	0x3f727215	0.94705325
15	0x3f62f252	0.88651
16	0x3f6252af	0.88407415
17	0x3f585cd7	0.8451666
18	0x3f64613d	0.89210874
19	0x3f80bae3	1.0057033
20	0x3f48dec2	0.784649
21	0x3f9410f3	1.1567672
22	0x3f494fac	0.78637195
23	0x3f7c7f32	0.98631585
24	0x3f78cfbc	0.9719198
25	0x3f8ddf15	1.1083704
26	0x3f5d25b1	0.8638564
27	0x3f627cb8	0.88471556
28	0x3f645b3a	0.892017
29	0x3f4a251a	0.7896286
30	0x3f51f3ee	0.8201283
31	0x3f66a1f3	0.90090865
32	0x3f5fb828	0.87390375
33	0x3f642d6a	0.89131796
34	0x3f73bb7e	0.95207965
35	0x3f84b73f	1.0368422
36	0x3f82be21	1.0214273
37	0x3f578a94	0.8419583
38	0x3f60732d	0.87675744
39	0x3f5296e5	0.82261497
40	0x3f6490f3	0.89283675
41	0x3f599d9e	0.8500613
42	0x3f51ac3f	0.8190345
43	0x3f7d9afd	0.9906462
44	0x3f5e79aa	0.86904395
45	0x3f5c7a6b	0.86124295
46	0x3f78ecd2	0.9723636
47	0x3f4c4319	0.7978988
48	0x3f640d07	0.8908238
49	0x3f6b7a8c	0.91983867
50	0x3f72c78c	0.94835734
51	0x3f3e543c	0.7434728
52	0x3f669081	0.90064245
53	0x3f140a06	0.57827795
54	0x3f62141f	0.8831195
55	0x3f7ebe09	0.9950872
56	0x3f7e81d2	0.9941684
57	0x3f8109da	1.0081131
58	0x3f70d3a3	0.9407293
59	0x3f6568fa	0.89613307
60	0x3f6b1678	0.9183116
61	0x3f848c7f	1.0355376
62	0x3f55c40d	0.83502275
63	0x3f5ddaeb	0.8666217
64	0x3f5fe97a	0.8746563
65	0x3f7486f6	0.95518434
66	0x3f66eef2	0.9020835
67	0x3f615ecb	0.8803527
68	0x3f8262e7	1.0186433
69	0x3f925af6	1.1434009
70	0x3f8c1ba2	1.0945933
71	0x3f6f0b85	0.9337695
72	0x3f5442fa	0.829147
73	0x3f58d3d7	0.8469824
74	0x3fb4fbed	1.4139382
75	0x3f90c4a9	1.1310016
76	0x3f6f54c6	0.9348873
77	0x3f547abe	0.8299979
78	0x3f50f1e8	0.8161912
79	0x3f3a27fb	0.72717255
80	0x3f9e8b55	1.2386271
81	0x3fa3ce1d	1.2797276
82	0x3f660162	0.8984586
83	0x3f566b92	0.8375789
84	0x3f581ae6	0.84416044
85	0x3f64c72f	0.8936643
86	0x3f72ffc5	0.94921523
87	0x3f5c5e53	0.8608143
88	0x3f46b779	0.7762371
89	0x3f4e896d	0.80678445
90	0x3f64f0a1	0.8942967
91	0x3f628a2e	0.88492095
92	0x3fad997b	1.3562464
93	0x3f7ce99c	0.9879396
94	0x3f538bc0	0.82635117
95	0x3f4a8ffe	0.79125965
96	0x3f6921fe	0.9106749
97	0x3f5a8996	0.8536619
98	0x3f8a3cda	1.079982
99	0x3f75ddc3	0.96041507
100	0x3f64f1dd	0.89431554
101	0x3f7fd19d	0.9992922
102	0x3f5da2d2	0.8657657
103	0x3f855384	1.0416112
104	0x3f900f57	1.1254681
105	0x3f3b4962	0.7315885
106	0x3f76aedd	0.9636057
107	0x3f60ea18	0.878572
108	0x3f6fd89a	0.9368988
109	0x3f5ec97b	0.87026185
110	0x3f67c199	0.9052978
111	0x3f558826	0.8341087
112	0x3f72b786	0.94811285
113	0x3f7197cd	0.94372255
114	0x3f78dbed	0.9721058
115	0x3f653e3b	0.8954808
116	0x3f6239b2	0.88369286
117	0x3f6f0900	0.9337311
118	0x3f559204	0.8342593
119	0x3f6d5b2a	0.9271723
120	0x3f6e5b2e	0.9310788
121	0x3f71a548	0.94392824
122	0x3f6c27cf	0.92248243
123	0x3f679ffa	0.9047848
124	0x3f5e1c2d	0.8676174
125	0x3f710137	0.9414248
126	0x3f6fa60a	0.9361273
127	0x3f690e33	0.9103729
128	0x3f7ab8ca	0.97938216
129	0x3fa20fc1	1.2661058
130	0x3fa7b124	1.3100934
131	0x3f877942	1.058388
132	0x3f6f91c3	0.9358179
133	0x3f664717	0.89952224
134	0x3f543ed3	0.8290836
135	0x3f64d25a	0.8938347
136	0x3f70b621	0.94027907
137	0x3f501d96	0.81295145
138	0x3f5b1593	0.85579795
139	0x3f880cb6	1.0628879
140	0x3f6d0f0e	0.92601097
141	0x3f7091d8	0.9397254
142	0x3f5e06f5	0.86729366
143	0x3f583f76	0.84471834
144	0x3f6af290	0.9177637
145	0x3f78cea5	0.97190315
146	0x3f4ba1ab	0.7954356
147	0x3f808a57	1.0042218
148	0x3f5c1d61	0.8598233
149	0x3f65e050	0.897954
150	0x3f556364	0.83354783
151	0x3f7b76dd	0.98228246
152	0x3f5571be	0.8337668
153	0x3f838a14	1.0276513
154	0x3f5622e4	0.8364699
155	0x3f7c2e64	0.98508286
156	0x3f627820	0.88464546
157	0x3f827ddf	1.0194663
158	0x3f690323	0.9102041
159	0x3f6ce12a	0.92531073
160	0x3f766fab	0.9626414
161	0x3f61748d	0.8806847
162	0x3f80ad54	1.0052896
163	0x3f90f2ef	1.1324137
164	0x3f806f02	1.0033877
165	0x3f526822	0.82190144
166	0x3f64d39e	0.893854
167	0x3f6af6d1	0.9178286
168	0x3f64ea58	0.8942008
169	0x3f646ad5	0.8922551
170	0x3f59cdec	0.85079837
171	0x3f57f890	0.8436365
172	0x3f7051a3	0.9387457
173	0x3f6aa5f6	0.91659486
174	0x3f71c6e5	0.94444114
175	0x3f6631a2	0.89919484
176	0x3f9a3c28	1.2049608
177	0x3f58157e	0.84407794
178	0x3f8fe5e0	1.1242027
179	0x3f7a75e3	0.9783613
180	0x3f554c82	0.83319867
181	0x3f67b225	0.905062
182	0x3f69d7d6	0.91344965
183	0x3f51995f	0.8187465
184	0x3f579876	0.8421701
185	0x3f599c0c	0.85003734
186	0x3f573f72	0.84081185
187	0x3f5ee6ce	0.8707093
188	0x3f907430	1.1285458
189	0x3f69ec16	0.91375864
190	0x3f6d62fa	0.9272915
191	0x3f4ac28d	0.7920311
192	0x3f84065c	1.0314441
193	0x3f4cfc31	0.80072314
194	0x3f63a12d	0.8891781
195	0x3f694640	0.9112282
196	0x3f8ac277	1.0840596
197	0x3f64a862	0.8931943
198	0x3f6bf501	0.9217072
199	0x3f872c5d	1.0560414
200	0x3f857197	1.042529
201	0x3f839c45	1.0282065
202	0x3f63f4cb	0.890454
203	0x3f821949	1.0163966
204	0x3f6eff8c	0.93358684
205	0x3f696ad6	0.91178644
206	0x3f61b9b0	0.8817396
207	0x3f55ca1e	0.8351153
208	0x3f56fca9	0.8397928
209	0x3f77504e	0.9660691
210	0x3f671018	0.9025893
211	0x3f764714	0.96202207
212	0x3f5921d4	0.8481724
213	0x3f612ab2	0.8795577
214	0x3f679a24	0.90469575
215	0x3f67f8ac	0.9061382
216	0x3f5bb67e	0.85825336
217	0x3f617ad9	0.88078076
218	0x3f6b1700	0.9183197
219	0x3f5b0ea0	0.8556919
220	0x3f4eaba1	0.80730635
221	0x3f467b44	0.7753184
222	0x3f6690cd	0.900647
223	0x3f518ed1	0.81858546
224	0x3f67a75a	0.90489733
225	0x3f7e068e	0.9922875
226	0x3f451ef6	0.7700037
227	0x3f7741bf	0.96584696
228	0x3f59b3a4	0.85039735
229	0x3f51c169	0.81935745
230	0x3f73298e	0.9498528
231	0x3f7b0a73	0.9806282
232	0x3f7277ca	0.94714034
233	0x3f92ecd4	1.1478524
234	0x3f4daa67	0.8033814
235	0x3f5d4d83	0.864464
236	0x3f6c9b04	0.92424035
237	0x3f9cf9f5	1.2263781
238	0x3f5a8d81	0.8537217
239	0x3f53774f	0.82603925
240	0x3f6e98a3	0.93201655
241	0x3f7362b6	0.95072496
242	0x3f55d008	0.83520555
243	0x3f76e4a2	0.96442616
244	0x3f5ac936	0.85463274
245	0x3f9fd1bc	1.2485881
246	0x3f7ae987	0.98012584
247	0x3f70c5a1	0.9405156
248	0x3f4fcc9b	0.8117158
249	0x3f4742ef	0.7783651
250	0x3f679f12	0.904771
251	0x3f6ab542	0.9168283
252	0x3f507c7a	0.81439936
253	0x3f7dde60	0.9916744
254	0x3f4f3707	0.8094334
255	0x3f56c253	0.83890265

model.1.bias f4 [256]
0	0xbdca8c36	-0.09890024
1	0x3e21ebe4	0.15812641
2	0x3dc5c8f9	0.09657473
3	0x3e110e48	0.14165604
4	0x3dad0e1a	0.08449955
5	0xbc58032a	-0.013184348
6	0x39398312	0.00017691802
7	0x3d6f00fb	0.058350544
8	0x3c1c92ee	0.009556515
9	0x3d92ce28	0.071682274
10	0x3d52433c	0.05133365
11	0x3d8213fb	0.06351467
12	0x3dc6fa7d	0.097157456
13	0x3df95297	0.12173956
14	0xbf0b255e	-0.5435389
15	0x3ecca4e8	0.39969563
16	0x3dc6269e	0.096753344
17	0x3de96a95	0.11397282
18	0x3c27963f	0.010228693
19	0xbf0d20f7	-0.55128425
20	0x3dea0453	0.11426606
21	0xbef1923f	-0.4718189
22	0x3db94d0d	0.090478994
23	0xbee61cde	-0.449439
24	0xbb5d6048	-0.0033779312
25	0xbe2d356c	-0.1691491
26	0x3dcf62cf	0.10126268
27	0x3eb3e5c7	0.35136244
28	0x3d7a73d7	0.06114563
29	0xbe69003a	-0.22753993
30	0x3de6d7f5	0.11271659
31	0x3cb82ebd	0.022483224
32	0x3dc9048e	0.09815322
33	0x3df65128	0.12027198
34	0x3c8cf1ec	0.017205201
35	0x3e56c594	0.20973808
36	0xbe22b0b4	-0.1588772
37	0x3e06ff39	0.13183297
38	0x3e1f0d55	0.1553243
39	0x3df51f81	0.119688995
40	0xbdfaaf41	-0.12240458
41	0x3d3eb146	0.04655578
42	0xbf1dd7cf	-0.6165742
43	0x3e2daaf0	0.16959739
44	0x3df57a6f	0.11986243
45	0x3dc0f4f0	0.09421718
46	0xbdc77aa0	-0.09740186
47	0x3d9cf294	0.076634556
48	0x3da1f953	0.07908883
49	0xbedd4a2a	-0.43220645
50	0xbdb35a3a	-0.08757444
51	0x3caccbb2	0.021093223
52	0x3c4b2e7b	0.0124012185
53	0x3f26f4c9	0.6521726
54	0x3a9875a2	0.0011631737
55	0x3e460e64	0.19341427
56	0xbee8d263	-0.45473012
57	0x3d4df9e3	0.05028714
58	0x3da2b35f	0.079443686
59	0x3e6b3ea7	0.22973119
60	0x3dcecd8c	0.10097799
61	0xbdd5ceb9	-0.1043982
62	0x3e022568	0.12709582
63	0x3df2f4c8	0.118630946
64	0x3dcfa282	0.10138418
65	0x3e584788	0.21121037
66	0xbd5bde77	-0.053678956
67	0x3d49864a	0.049200334
68	0x3e087fd2	0.1333001
69	0xbd8d2f2c	-0.06893763
70	0x3e2248ec	0.1584813
71	0x3d1d58dd	0.038414825
72	0xbcec10e2	-0.028816644
73	0x3e8eed8c	0.2791561
74	0x3d498286	0.049196742
75	0xbe2cac9c	-0.1686272
76	0x3e4d87b1	0.20071293
77	0x3e8c2de0	0.2737875
78	0x3df5345f	0.119728796
79	0x3b893524	0.004187243
80	0x3e3eaeec	0.18621415
81	0x3ea2c348	0.31789613
82	0x3dc3a758	0.09553403
83	0xbee96ee2	-0.4559241
84	0x3e063f7d	0.13110156
85	0x3e5269d5	0.20548184
86	0x3d86b33a	0.065771535
87	0x3d762f43	0.060103666
88	0x3e1ab2d6	0.15107283
89	0x3df440f7	0.119264536
90	0x3df9864b	0.121838175
91	0x3da7d81b	0.08195516
92	0xbc962615	-0.018328706
93	0x3d7cc8ca	0.061714925
94	0x3e0cd9f7	0.13755022
95	0x3ea4f54a	0.3221839
96	0xbd3237a5	-0.043510098
97	0x3c94db72	0.018171046
98	0xbdc966fa	-0.09834094
99	0xbc01c896	-0.007921359
100	0x3da05344	0.07828382
101	0xbe87d3bd	-0.2652873
102	0x3e1cacdc	0.15300316
103	0xbed45a01	-0.41474918
104	0xbe26caad	-0.16288252
105	0x3d3f38b8	0.04668495
106	0xbe7866ed	-0.24258013
107	0x3d3d3ee2	0.046202548
108	0xbbef2a6b	-0.007298758
109	0x3cd776bd	0.026301736
110	0x3d8eb77f	0.06968593
111	0x3ded22fc	0.11578938
112	0x3dba6f6e	0.09103285
113	0xbe34efa1	-0.17669536
114	0xbdb0308e	-0.08603011
115	0x3d8d9110	0.06912434
116	0x3d3c0428	0.0459024
117	0x3d0980c9	0.033570085
118	0x3c95b11a	0.018272925
119	0x3e3471f2	0.17621592
120	0x3c573f49	0.013137647
121	0x3d7f727a	0.062365033
122	0xbcec16e2	-0.028819505
123	0xbd160554	-0.036626175
124	0x3da21ace	0.07915269
125	0x3e063e02	0.13109592
126	0xbc6e5796	-0.014547249
127	0xbcb04617	-0.021517796
128	0xbbe95348	-0.0071205236
129	0x3d206026	0.039154194
130	0xbe437a32	-0.19089583
131	0xbed43cda	-0.41452676
132	0x3dc788fe	0.09742926
133	0xbdfbcc82	-0.12294866
134	0x3e2ee04d	0.17077751
135	0xbe9cdf69	-0.30639198
136	0x3e87e9a6	0.26545447
137	0x3e615f56	0.22009024
138	0x3e279d7a	0.16368666
139	0xbef3b7d1	-0.47601178
140	0x3da8ab3e	0.08235787
141	0x3d0ff771	0.035148088
142	0x3d9a121c	0.07522985
143	0x3d8d9ffa	0.06915279
144	0xbe29a0d6	-0.1656526
145	0x3eded0b2	0.43518597
146	0x3e33e430	0.17567515
147	0x3d6ea391	0.058261458
148	0x3e0627c5	0.13101108
149	0x3d0651f5	0.032793004
150	0xbd8d126f	-0.068882816
151	0xbccdf08e	-0.02513912
152	0x3d6d4e16	0.057935797
153	0x3ece2675	0.40263715
154	0xbdaa3406	-0.08310704
155	0xbe9c66a8	-0.3054707
156	0x3d934975	0.07191745
157	0xbebf28e4	-0.37335885
158	0xbdc20400	-0.09473419
159	0x3de88aba	0.11354585
160	0x3da0e3c1	0.078559406
161	0xbef2e1ae	-0.47437805
162	0xbe9c4f72	-0.30529362
163	0xbea27abe	-0.3173427
164	0xbd2b947a	-0.041889645
165	0xbd834816	-0.06410234
166	0x3d68093b	0.056649428
167	0x3d9ee5d3	0.07758679
168	0x3d821722	0.063520685
169	0x3d5b0297	0.053469267
170	0x3dcfc069	0.10144121
171	0x3e1448c6	0.14480886
172	0x3d870a08	0.0659371
173	0x3dc168a2	0.09443785
174	0x3ae32fe1	0.0017332995
175	0x3deb521c	0.114902705
176	0x3f0c3b11	0.5477763
177	0x3d68d0b6	0.056839667
178	0xbef36a77	-0.47542164
179	0x3c552acd	0.013010693
180	0x3d56d6b7	0.05245086
181	0x3da7e9b8	0.08198875
182	0xbebb5899	-0.36591032
183	0x3e023343	0.12714867
184	0x3dabfdae	0.08397995
185	0xbc10b359	-0.008831822
186	0x3de25b56	0.11052577
187	0x3e9481e4	0.2900535
188	0x3dfe7274	0.12424174
189	0x3d0062c4	0.03134419
190	0xbec88098	-0.3916061
191	0x3e76ccb8	0.24101532
192	0x3e2ea978	0.17056835
193	0x3da57513	0.08078971
194	0x3c4293a2	0.011876019
195	0x3d8074bd	0.06272266
196	0x3e26a494	0.16273719
197	0x3c87aff8	0.0165634
198	0x3db2caed	0.08730111
199	0xbd79be27	-0.06097236
200	0xbebec953	-0.37262973
201	0xbe89d1fa	-0.26918012
202	0x3e30225e	0.1720061
203	0xbe549b1f	-0.20762299
204	0xbc9de3f2	-0.019273732
205	0x3e073773	0.13204746
206	0x3dc48b79	0.09596915
207	0x3c986bb5	0.018606046
208	0xbc786615	-0.015161057
209	0xbba6a48d	-0.005085534
210	0x3db2dda7	0.08733683
211	0x3ceb0faf	0.028694002
212	0xbd94b9d2	-0.07262005
213	0x3d78f978	0.060784787
214	0x3e02938f	0.12751602
215	0x3d885ae1	0.06657959
216	0x3e10e106	0.1414834
217	0x3d9ab065	0.07553176
218	0x3da1693e	0.078814015
219	0x3c2cb3e3	0.010540935
220	0xbb974dfe	-0.0046174517
221	0x3ec0ec41	0.37680247
222	0xbb1ebc4e	-0.0024221125
223	0x3e6302d0	0.22169042
224	0x3dc8b648	0.098003924
225	0x3ef6a59c	0.48173225
226	0x3dc5adba	0.09652276
227	0x3c2231ed	0.009899599
228	0xbe6aa6fe	-0.22915265
229	0xbc23b24f	-0.009991243
230	0x3d9fdc83	0.07805731
231	0x3ee3685d	0.4441556
232	0x3e4c6f05	0.19964226
233	0x3f02bb53	0.51067084
234	0x3d831460	0.064003706
235	0x3e02768f	0.12740539
236	0xbe88c85b	-0.2671536
237	0xbd1b1054	-0.03785737
238	0x3e8c602a	0.27417117
239	0x3e12e207	0.14344035
240	0xbdbc5ac5	-0.091970004
241	0x3ce53264	0.02797813
242	0x3df3b1c3	0.1189914
243	0x3d936944	0.07197812
244	0xbe9a39fc	-0.30122364
245	0xbebfe676	-0.37480515
246	0xbec4dbd5	-0.3844897
247	0x3b847de8	0.0040433295
248	0x3d5ef745	0.054435033
249	0x3d2feb31	0.042948905
250	0x3e4386df	0.19094418
251	0xbdb6cbc2	-0.089255825
252	0x3d061064	0.032730475
253	0xbd738820	-0.05945599
254	0x3dfdbb10	0.12389195
255	0x3e235d74	0.15953618

model.1.running_mean f4 [256]
0	0xbb2ddb61	-0.0026528465
1	0x3e292fd0	0.16522145
2	0xbe520620	-0.20510149
3	0x3e541f34	0.20715028
4	0xbe5dea6c	-0.21671456
5	0x3be362fb	0.0069392896
6	0x3dcf9c2f	0.101372115
7	0xbdb0346d	-0.086037494
8	0xbd8f00ff	-0.06982612
9	0xbe2a1c91	-0.1661246
10	0x3e5d52b0	0.21613574
11	0xbdddde4d	-0.10833416
12	0xbe541fcb	-0.20715253
13	0xbda5b1d3	-0.08090558
14	0x3e1546ad	0.14577742
15	0xbe2283a4	-0.1587053
16	0x3e2479ef	0.16062139
17	0xbe1fe9da	-0.15616551
18	0x3d94f2c2	0.07272865
19	0x3e5f6bf6	0.21818528
20	0xbe0e6322	-0.13905004
21	0xbe5f651e	-0.21815917
22	0x3e55fdb1	0.20897557
23	0xbe27da5c	-0.16391891
24	0xbd99af5c	-0.0750415
25	0x3e529911	0.20566203
26	0xbe30a135	-0.17248996
27	0xbdc74d5c	-0.09731552
28	0xbce53b46	-0.027982365
29	0x3e424135	0.18970187
30	0xbdfdfb08	-0.12401396
31	0x3d7d415c	0.06182991
32	0xbdaeea08	-0.08540732
33	0xbd2d8546	-0.042363428
34	0xbd3ee70b	-0.04660706
35	0x3bba71de	0.0056898436
36	0x3dbaf4a4	0.09128693
37	0xbde3165e	-0.110882506
38	0xbe3caa57	-0.18424354
39	0x3e30570e	0.17220709
40	0xbd4bab8b	-0.049724143
41	0x3dd35d99	0.10320587
42	0xbe4a222a	-0.19739595
43	0x3d184284	0.03717281
44	0xbe374910	-0.17898965
45	0x3dbe3a05	0.0928841
46	0xbdb20f3e	-0.086943135
47	0xbe2585ff	-0.16164397
48	0xbcddd0a9	-0.027077036
49	0xbc187996	-0.009306332
50	0x3dd6c2de	0.10486387
51	0xbca6a0d0	-0.020340353
52	0xbe45a055	-0.19299443
53	0x3e1465cf	0.14491962
54	0xbe564dcc	-0.20928115
55	0xbe454785	-0.19265564
56	0xbe13e693	-0.14443426
57	0x3d8f2f2d	0.0699142
58	0xbd6d50c1	-0.05793834
59	0xbdc1332f	-0.094335906
60	0x3d407566	0.04698696
61	0x3d90d35d	0.07071564
62	0x3db26b42	0.08711864
63	0x3dc7c32a	0.097540215
64	0x3e4147d5	0.18875058
65	0xbde94fdd	-0.11392186
66	0xbe3b88d2	-0.18313912
67	0x3d8aa7d7	0.06770294
68	0x3d6ac292	0.057314463
69	0xbd582689	-0.052771125
70	0xbe542715	-0.20718034
71	0xbb1cb649	-0.0023912361
72	0x3e114ce2	0.14189485
73	0x3e1a8517	0.15089832
74	0xbce296f9	-0.02765988
75	0xbd0fee20	-0.035139203
76	0x3dc8fde1	0.098140486
77	0x3def7d78	0.11693853
78	0x3db47be1	0.088126905
79	0xbe3fcfa8	-0.18731558
80	0x3c7c9aae	0.015417738
81	0x3e2478ae	0.1606166
82	0xbe1ac871	-0.15115525
83	0x3e2c1136	0.1680344
84	0xbe358401	-0.17726137
85	0xbdbe2706	-0.09284787
86	0xbcbd18f6	-0.023083191
87	0xbc6834d3	-0.0141727505
88	0x3e0da0e4	0.13830906
89	0x3e08a6c6	0.13344869
90	0xbd285628	-0.04109779
91	0x3c0282b9	0.007965737
92	0x3e492d36	0.19646153
93	0x3d9c5f1d	0.07635329
94	0x3de54799	0.11195297
95	0xbdafaeef	-0.08578288
96	0x3c9eafe0	0.019370973
97	0x3bc9f103	0.006162764
98	0x3e0c5d06	0.1370736
99	0x3cbd56ba	0.023112644
100	0x3d2228b5	0.039589603
101	0x3dc2e1ec	0.095157474
102	0x3e37ab70	0.17936492
103	0xbd23d0d0	-0.03999406
104	0x3d84b795	0.06480328
105	0x3dab1035	0.083527006
106	0xbd74b864	-0.05974616
107	0x3e3bb260	0.18329763
108	0xbc5698cd	-0.013097954
109	0x3d880779	0.0664205
110	0xbdd122c4	-0.10211709
111	0x3c80af5b	0.015708616
112	0x3e43dc03	0.19126897
113	0xbde8b204	-0.11362079
114	0xbd3695f0	-0.044576585
115	0x3e325fe2	0.17419389
116	0x3e6443f5	0.22291549
117	0x3e4ffa98	0.20310438
118	0x3e0e2ead	0.13884993
119	0x3e2eaa0a	0.17057052
120	0xbde34fb6	-0.11099188
121	0xbc7b14f6	-0.015324822
122	0xbd2010b0	-0.039078414
123	0x3c9a4633	0.018832302
124	0x3d4229ed	0.047403265
125	0x3e05465c	0.13015121
126	0xbe20bba5	-0.1569658
127	0xbde80a16	-0.11330049
128	0x3e048c49	0.1294414
129	0x3dde620c	0.10858545
130	0xbc5e522a	-0.013569394
131	0xbe50cc0c	-0.20390338
132	0xbe614070	-0.21997237
133	0xbe4db55a	-0.20088711
134	0x3c80ac42	0.015707139
135	0x3c779a60	0.015112489
136	0xbc66613c	-0.014061268
137	0x3df08366	0.11743812
138	0xbe0bccf2	-0.13652399
139	0x3e0c929d	0.13727804
140	0x3e2174f6	0.15767273
141	0x3e278d70	0.16362548
142	0x3da737a4	0.081649095
143	0x3dc35bba	0.0953898
144	0x3e450694	0.1924079
145	0x3dfc62b2	0.12323512
146	0xbd5a1f9f	-0.053252812
147	0xbe38bdb0	-0.1804111
148	0x3dfc6b75	0.12325183
149	0x3cc76092	0.02433804
150	0xbe31e63c	-0.17372984
151	0xbe302a66	-0.17203674
152	0xbe39c08a	-0.18139854
153	0xbe5c5cfa	-0.21519843
154	0xbe0845b1	-0.13307835
155	0xbdea5116	-0.11441247
156	0xbe2068d6	-0.15664992
157	0x3ddfc5a2	0.10926367
158	0x3e586916	0.21133837
159	0xbdd3aa9f	-0.10335278
160	0xbbcd5c01	-0.0062670712
161	0x3e2042d2	0.1565049
162	0xbe57e8e7	-0.21084939
163	0xbe4d232c	-0.20032948
164	0x3d573c7d	0.05254792
165	0xbe4c2c86	-0.1993886
166	0x3dc99536	0.09842913
167	0xbd3c33d7	-0.045947876
168	0x3db540cf	0.08850252
169	0xbe634ec6	-0.22198018
170	0x3e6146ac	0.21999615
171	0x3e534f8a	0.2063581
172	0x3d974166	0.07385521
173	0x3e07c39f	0.13258217
174	0x3e5f7f30	0.21825862
175	0xbe5246d1	-0.20534827
176	0x3e43a583	0.19106106
177	0xbe217d57	-0.1577047
178	0xbde7fd5b	-0.113276206
179	0x3e4bd122	0.19903997
180	0xbe45a384	-0.19300658
181	0x3e08c72c	0.13357228
182	0x3e571bcf	0.21006702
183	0xbe5742fb	-0.21021645
184	0x3d8efeb3	0.06982174
185	0xbde5ee41	-0.11227084
186	0xbe397223	-0.18109946
187	0x3e2e28f1	0.17007805
188	0xbe2eb45f	-0.17060994
189	0x3ba05bf1	0.004893773
190	0xbdc3b19c	-0.09555361
191	0xbe3cf5a2	-0.18453076
192	0xbe533b48	-0.20628083
193	0x3a1d28b0	0.00059951376
194	0xbc9ff243	-0.0195247
195	0xbd332cbc	-0.043743834
196	0xbdb83119	-0.0899374
197	0xbda73c07	-0.08165746
198	0xbcab36ce	-0.020900156
199	0x3dc035bb	0.09385248
200	0xbd94536b	-0.07242473
201	0x3e543b88	0.20725834
202	0xbe1145c8	-0.14186776
203	0x3d21dd76	0.039517842
204	0x3dd3142c	0.10306582
205	0xbd596a9b	-0.053080183
206	0x3e21f20e	0.15814993
207	0xbe3fc4e4	-0.18727452
208	0x3d8cf24a	0.068821505
209	0xbd0d9626	-0.03456702
210	0x3e3e42a2	0.18580106
211	0x3d98e4f2	0.07465543
212	0x3d6bc53c	0.057561144
213	0xbd3e9f5a	-0.04653869
214	0xbd9e79d5	-0.07738081
215	0xbdaa3011	-0.08309949
216	0xbe097ec6	-0.13427266
217	0xbd5696c0	-0.05238986
218	0xbdb98357	-0.09058254
219	0xbb84a621	-0.0040481244
220	0x3e547f1a	0.2075161
221	0x3dc05d3c	0.09392783
222	0xbe5c7e8a	-0.21532646
223	0x3d3d6144	0.046235338
224	0x3e01f119	0.12689628
225	0xbe1188af	-0.14212297
226	0xbdf25625	-0.11832837
227	0xbdd64da0	-0.104640245
228	0x3e4b042e	0.19825813
229	0x3e2a673a	0.1664094
230	0xbda3ac86	-0.079918906
231	0x3d4277e7	0.04747763
232	0x3e0f8be4	0.14018208
233	0x3e3998ce	0.18124697
234	0xbe3b5410	-0.18293786
235	0xbe03db20	-0.12876558
236	0xbdb77e73	-0.08959665
237	0xbd8c5240	-0.068516254
238	0x3ce1a356	0.027543705
239	0x3dbcc747	0.09217697
240	0xbcfe43f7	-0.031038268
241	0xbde4a1a7	-0.11163645
242	0xbc0b5050	-0.008503035
243	0xbcda081c	-0.026615195
244	0xbdba4d17	-0.09096735
245	0x3e3fe599	0.18739928
246	0xbb90b6e6	-0.0044163344
247	0xbdbb1c9e	-0.09136318
248	0xbc816822	-0.015796725
249	0xbe0c576d	-0.13705225
250	0xbdbbb814	-0.091659695
251	0x3e32e64d	0.17470665
252	0x3d549a35	0.051904876
253	0xbd19910d	-0.037491847
254	0xbe52e163	-0.2059379
255	0xbdb404e7	-0.087899975

model.1.running_var f4 [256]
0	0x3e6cea66	0.23136291
1	0x3ea22662	0.3166991
2	0x3ea77563	0.32706746
3	0x3e8cd8e7	0.27509233
4	0x3e13df50	0.14440656
5	0x3df257dd	0.11833165
6	0x3e8877a1	0.2665377
7	0x3e54eb26	0.20792827
8	0x3e8152fa	0.2525862
9	0x3e529f7c	0.20568651
10	0x3e8daa1c	0.27668846
11	0x3e828a66	0.25496215
12	0x3eb80536	0.35941476
13	0x3e39fe87	0.181635
14	0x3df45bcb	0.119315706
15	0x3e559e65	0.20861204
16	0x3e7bb47a	0.24580565
17	0x3eaa05b0	0.33207464
18	0x3eb5a201	0.35475162
19	0x3e127f81	0.14306451
20	0x3ea02cb9	0.3128412
21	0x3dd104ea	0.102060154
22	0x3e9a8108	0.30176568
23	0x3e1b9930	0.15195155
24	0x3e8f7263	0.28016958
25	0x3e1cbdcc	0.15306777
26	0x3e22d13a	0.15900126
27	0x3ea193d7	0.31558105
28	0x3e9b6657	0.30351517
29	0x3e7f0910	0.24905801
30	0x3e197020	0.14984179
31	0x3e8601dc	0.26173294
32	0x3dff3e41	0.12463046
33	0x3e7dac30	0.24772716
34	0x3e503e28	0.2033621
35	0x3dd4a74d	0.103834726
36	0x3edfd080	0.4371376
37	0x3e5ae78a	0.21377388
38	0x3e4f7108	0.20257962
39	0x3ea948a8	0.33063245
40	0x3e5ac5e7	0.21364556
41	0x3e44db2a	0.1922423
42	0x3e363551	0.17793776
43	0x3e807407	0.25088522
44	0x3e915f2d	0.28392926
45	0x3e76f58f	0.2411711
46	0x3eba6eec	0.36412752
47	0x3e3a2db1	0.18181492
48	0x3e503541	0.20332815
49	0x3e30e231	0.17273785
50	0x3e39220f	0.18079399
51	0x3e65f33d	0.2245607
52	0x3e84e11b	0.25952992
53	0x3e1a35f2	0.15059641
54	0x3e9037de	0.28167623
55	0x3e85f902	0.2616654
56	0x3e8795a0	0.26481342
57	0x3e0f206e	0.13977215
58	0x3e525467	0.2054001
59	0x3e58ebba	0.21183673
60	0x3eaef197	0.34168693
61	0x3e54f80b	0.20797746
62	0x3e86ec4a	0.2635215
63	0x3edcfd67	0.4316208
64	0x3e2dc4fc	0.16969675
65	0x3e585596	0.21126398
66	0x3e2321d0	0.15930867
67	0x3e8f5398	0.27993464
68	0x3de639c3	0.11241486
69	0x3e16f7cc	0.14742965
70	0x3e55e0fa	0.20886603
71	0x3eacf7c4	0.3378278
72	0x3eae1f3d	0.34008208
73	0x3e1fca84	0.15604597
74	0x3e34f627	0.17672025
75	0x3db5568e	0.088543996
76	0x3e81f062	0.2537871
77	0x3e53bef2	0.20678309
78	0x3e5735d1	0.21016623
79	0x3e82bc0b	0.2553409
80	0x3e0643ae	0.13111755
81	0x3e2edf25	0.1707731
82	0x3e5d0406	0.21583566
83	0x3e088c03	0.1333466
84	0x3e7b9187	0.24567233
85	0x3e36a746	0.17837247
86	0x3e701788	0.23446476
87	0x3e7e43ea	0.24830595
88	0x3e9d0983	0.3067132
89	0x3ecb99b4	0.39765704
90	0x3e638d52	0.22221878
91	0x3e6bb93a	0.23019877
92	0x3e06b21f	0.13153885
93	0x3e271784	0.16317564
94	0x3e9cf59d	0.30656138
95	0x3eb00a84	0.34383023
96	0x3e92e4c1	0.2869015
97	0x3ec3f1a5	0.38270298
98	0x3e15e7c4	0.14639193
99	0x3e5f5d5a	0.21812955
100	0x3e749ef7	0.23888765
101	0x3e03ecc5	0.12883289
102	0x3e99399a	0.2992676
103	0x3dfd19b0	0.12358415
104	0x3e0de8b7	0.13858305
105	0x3eb6ff05	0.3574144
106	0x3de19c6a	0.11016162
107	0x3e76b4df	0.24092434
108	0x3e403dd3	0.18773584
109	0x3e19f8fc	0.15036386
110	0x3e65df0e	0.2244837
111	0x3ec905db	0.3926228
112	0x3e7a95fc	0.24471277
113	0x3e6f8693	0.2339118
114	0x3e2e2cf4	0.17009336
115	0x3e58ab7c	0.21159166
116	0x3e5ac14f	0.21362804
117	0x3e5bba70	0.21457839
118	0x3eab49e7	0.3345482
119	0x3e579bf3	0.21055584
120	0x3e921a3e	0.28535646
121	0x3e8ce1f3	0.27516136
122	0x3e9281f6	0.28614777
123	0x3e5949da	0.21219578
124	0x3e0f4896	0.13992533
125	0x3e383b5a	0.17991391
126	0x3e849a90	0.25899172
127	0x3e67a06a	0.22619787
128	0x3e5c4555	0.21510823
129	0x3e2e9dfe	0.17052457
130	0x3d9bf155	0.0761439
131	0x3dfa697f	0.12227153
132	0x3e89fe3f	0.26951787
133	0x3e803114	0.25037444
134	0x3eddbaa2	0.43306452
135	0x3e86aa55	0.26301828
136	0x3e136218	0.14392889
137	0x3e70b1f3	0.23505382
138	0x3e14d5d9	0.14534701
139	0x3e17d69b	0.14827959
140	0x3e4abd63	0.19798808
141	0x3e8557aa	0.26043445
142	0x3e7291de	0.23688456
143	0x3e749508	0.23884976
144	0x3e6445f6	0.22292313
145	0x3e3a57ff	0.1819763
146	0x3e5fab53	0.21842699
147	0x3e3a282d	0.18179388
148	0x3e30692f	0.17227624
149	0x3e8fab39	0.2806032
150	0x3e8569e1	0.26057342
151	0x3e5c1958	0.21494043
152	0x3e6395e3	0.22225146
153	0x3e473d3d	0.19456954
154	0x3e5e44e1	0.21705963
155	0x3e051d49	0.12999453
156	0x3e827820	0.25482273
157	0x3e396dbb	0.18108265
158	0x3e339582	0.17537501
159	0x3e285c72	0.16441515
160	0x3e329b70	0.17442107
161	0x3e2799b0	0.16367221
162	0x3e1e0e54	0.15435153
163	0x3e33d451	0.17561461
164	0x3e464381	0.19361688
165	0x3e2be45c	0.16786331
166	0x3ec6f27b	0.38856873
167	0x3e6caf95	0.23113854
168	0x3e8a593e	0.2702121
169	0x3e687381	0.22700311
170	0x3e5758f0	0.2103002
171	0x3e4261b3	0.18982582
172	0x3e02738d	0.12739392
173	0x3ea74c6a	0.32675487
174	0x3e1f4968	0.15555346
175	0x3e88c93f	0.2671604
176	0x3e5ea9df	0.21744488
177	0x3e7ac9be	0.24491021
178	0x3e5a5cc4	0.2132445
179	0x3e763b46	0.24046049
180	0x3e522b71	0.20524384
181	0x3e4e7d47	0.20164977
182	0x3e3d08f1	0.18460442
183	0x3e4909fb	0.19632713
184	0x3e57fda6	0.21092853
185	0x3eb92b61	0.36165908
186	0x3ea63c6d	0.32467976
187	0x3ea259ab	0.31709036
188	0x3df909e0	0.12160087
189	0x3e8d3648	0.27580476
190	0x3e38c995	0.18045647
191	0x3e7fb7b8	0.24972427
192	0x3e6cce26	0.23125514
193	0x3e10a3a2	0.14124921
194	0x3e866bbe	0.26254076
195	0x3e82155d	0.25406924
196	0x3e26a2f0	0.16273093
197	0x3e80b65b	0.25139126
198	0x3e857373	0.26064643
199	0x3e31e487	0.17372333
200	0x3e280169	0.16406788
201	0x3e3b1e87	0.18273364
202	0x3e58c179	0.21167554
203	0x3e1cc191	0.15308215
204	0x3e8c40e0	0.27393246
205	0x3e6ab519	0.22920646
206	0x3e8389bf	0.2569103
207	0x3e9ea88c	0.30987966
208	0x3e9fac1c	0.31185997
209	0x3e3064ac	0.17225903
210	0x3e6a9507	0.22908412
211	0x3e6cad04	0.23112875
212	0x3ea5d018	0.32385325
213	0x3e661fec	0.22473115
214	0x3eb16ac6	0.34651774
215	0x3e7a3ffd	0.24438472
216	0x3e987ef2	0.29784352
217	0x3e48e90c	0.1962015
218	0x3eabdb79	0.33565882
219	0x3e82cc56	0.2554652
220	0x3e8abdda	0.2709797
221	0x3e55f1d1	0.20893027
222	0x3e7788ed	0.24173327
223	0x3eafef58	0.34362292
224	0x3e979fb6	0.29614037
225	0x3e4fbd8c	0.2028715
226	0x3e8b52bd	0.27211562
227	0x3e6bb70e	0.23019049
228	0x3e699702	0.22811511
229	0x3e9af965	0.30268398
230	0x3e892d73	0.26792488
231	0x3e417a93	0.18894415
232	0x3e80b099	0.25134733
233	0x3e0b641d	0.13612409
234	0x3e18ccc1	0.14921857
235	0x3eb808bd	0.35944167
236	0x3e2bea89	0.16788687
237	0x3e0cb91d	0.1374249
238	0x3e3da238	0.18518913
239	0x3e81b5f2	0.25334126
240	0x3e4388e6	0.19095191
241	0x3e575d9c	0.21031803
242	0x3eb3eb3b	0.35140404
243	0x3e267f8f	0.16259597
244	0x3e757d48	0.23973572
245	0x3df19a3e	0.117969975
246	0x3e524f3e	0.20538041
247	0x3e8431cc	0.25819242
248	0x3e9aa317	0.30202553
249	0x3e9d48d1	0.30719617
250	0x3e25d7ee	0.16195652
251	0x3ebd229b	0.36940464
252	0x3ea0d5f4	0.31413233
253	0x3e445333	0.19172363
254	0x3ea80ad2	0.32820755
255	0x3e33f941	0.17575552

model.3.weight f4 [256, 256]
0	0xbcfa15e9	-0.030528026
1	0xbd16a239	-0.0367758
2	0x3c1a7a86	0.009428626
3	0x3d27590e	0.040856414
4	0x3cf75d63	0.030195897
5	0xbc13118c	-0.0089763515
6	0xbcb4635b	-0.022020033
7	0xbcf27faf	-0.0296019
8	0x3accfdbe	0.0015639586
9	0x3cd375bc	0.025812976
10	0x3b9a5d4f	0.0047108303
11	0x39e234bb	0.00043145366
12	0xbb1bd7e6	-0.0023779809
13	0x3d60ab56	0.0548509
14	0xbda4f5ca	-0.08054693
15	0x3c9639f2	0.018338177
16	0x3cd0dd3c	0.025496118
17	0xbc9d26a7	-0.01918347
18	0x3d3a0099	0.045410726
19	0x3d099b98	0.03359565
20	0xbcc683e5	-0.024232814
21	0xbce272dd	-0.027642662
22	0x3cc7cb8a	0.024389047
23	0xbda06dc9	-0.0783344
24	0xbd145786	-0.03621628
25	0xbc97e883	-0.018543487
26	0xb93bda02	-0.00017914924
27	0x3d169a09	0.036767993
28	0xbbf3164e	-0.0074184304
29	0x3c0ab651	0.008466319
30	0xbd1dae0f	-0.038496073
31	0xbc2c0c06	-0.0105009135
32	0xbd94b16b	-0.07260402
33	0xbb772610	-0.0037711896
34	0xbc916976	-0.017750483
35	0xbd98505b	-0.074372016
36	0x3cbe597a	0.023236025
37	0x3ce26900	0.027637959
38	0x3ca57b82	0.020200495
39	0x3d0bb313	0.034106325
40	0x3bc17fa6	0.0059051095
41	0x3cad4409	0.021150606
42	0x3c3c9e25	0.011512314
43	0xbc2fb8ca	-0.0107252095
44	0x3cdba089	0.026809948
45	0xbcfc4824	-0.030796118
46	0xbcfa30d5	-0.030540863
47	0x3c0ab41c	0.008465793
48	0x3c5a52f7	0.013325444
49	0xbd087df0	-0.03332323
50	0xbce154bb	-0.027506223
51	0xbce1b4c6	-0.02755202
52	0x3d7e243f	0.062046286
53	0xbc3633db	-0.011120762
54	0xbd5fd70d	-0.054648448
55	0x3d82b6f1	0.063825496
56	0x3cc1c53f	0.023653625
57	0xbcbe856f	-0.023256985
58	0x3d4c13f2	0.04982371
59	0x3cd5c2c9	0.026093857
60	0xbb4c02c3	-0.0031129576
61	0xbd7a75d8	-0.06114754
62	0xbd1a4b6c	-0.037669584
63	0x3c299825	0.0103512155
64	0xbdb0da35	-0.0863537
65	0xbd31c5fb	-0.0434017
66	0x3aa2c8d3	0.001241947
67	0xbce347b6	-0.027744155
68	0x3d4cbdd6	0.04998573
69	0xbd8988c6	-0.067155406
70	0xbcba9ff2	-0.022781346
71	0x3c1c9816	0.0095577445
72	0xbd423802	-0.047416694
73	0x3b933d33	0.0044933795
74	0xbda380d2	-0.07983555
75	0xbca170d2	-0.019707117
76	0x3c8e5a1e	0.017376956
77	0x3d3e1bfd	0.04641341
78	0xbc961980	-0.018322706
79	0x3b18895e	0.0023275237
80	0xbccb77b8	-0.02483736
81	0xbd9e1ca5	-0.07720307
82	0xbcc9d87e	-0.024639364
83	0xbbec25c4	-0.0072066505
84	0x3d4363e3	0.04770268
85	0xbcc9a403	-0.02461434
86	0xbbf3a9e9	-0.0074360264
87	0xbc823c96	-0.01589803
88	0xbc1b1ba7	-0.009467042
89	0xbc85ec7f	-0.016348122
90	0xbd34944d	-0.044086743
91	0x3c76961d	0.015050438
92	0xbd4539b9	-0.04815075
93	0x3b956cf9	0.0045601097
94	0xbceaa8a1	-0.028644862
95	0x3c9cbe39	0.019133674
96	0xbd4d4c7f	-0.05012178
97	0x3d1d35e2	0.038381465
98	0x3b748d0b	0.0037315513
99	0x3bf152ce	0.0073646074
100	0x3cb62dfc	0.022238724
101	0xbde5486a	-0.111954525
102	0x3d1d5341	0.038409475
103	0xbc8df691	-0.017329486
104	0xbdfdb05f	-0.12387156
105	0x3d157e68	0.036497504
106	0xbd047665	-0.032339472
107	0xbc5e15b6	-0.013554981
108	0xbce92013	-0.028457677
109	0xbd65982f	-0.056053337
110	0xbbfe46f4	-0.007759923
111	0xbcb2bd26	-0.021818709
112	0xbca1d980	-0.019757032
113	0x3d412194	0.047151163
114	0x3a12c1b9	0.0005598325
115	0xbb1e27f3	-0.0024132698
116	0xbdbbb8b7	-0.09166091
117	0xbd3bcef8	-0.045851678
118	0xbce9eb60	-0.028554618
119	0xbc39c8ae	-0.01133935
120	0x3c772f7f	0.015087008
121	0xbd3237f9	-0.04351041
122	0x3d7a8303	0.0611601
123	0xbd4d7674	-0.050161794
124	0xbcea28e4	-0.028583951
125	0x3d50eb88	0.05100587
126	0x3b3967ae	0.0028290558
127	0x3bd720a4	0.0065651704
128	0x3d900df6	0.07033913
129	0x3d91bd0e	0.071161374
130	0x3c60f054	0.013729174
131	0xbd6709a9	-0.056405697
132	0xbc2bcb5d	-0.010485497
133	0x3b5650d1	0.003270198
134	0x3d059c5f	0.03261983
135	0xbcbf21b5	-0.023331502
136	0xbd2da1b9	-0.04239056
137	0xbcfaa031	-0.030593963
138	0xbbe31481	-0.0069299345
139	0x3da5b790	0.080916524
140	0x3bd226da	0.006413323
141	0x3c6fcec9	0.014636704
142	0xbce02444	-0.027361043
143	0x3c4c9cfe	0.012488602
144	0x3c0f81ba	0.008758957
145	0x3cb9ac15	0.022665063
146	0x3ce15b22	0.027509276
147	0xbd192d0b	-0.037396472
148	0x3d86b4f8	0.06577486
149	0x3ceba882	0.028766874
150	0x3ce01844	0.02735532
151	0xbd721aa2	-0.05910743
152	0x3bf6a4af	0.007526956
153	0xbd362e91	-0.044478003
154	0xbd1303ed	-0.035892416
155	0x3b689ef0	0.0035495125
156	0xbc14c2fb	-0.00907969
157	0x3d865083	0.06558325
158	0xba7f6f3f	-0.0009744055
159	0x3cabb7f6	0.020961743
160	0x3d5fa48a	0.054600276
161	0xbdb2766e	-0.08713995
162	0xbccf6c2d	-0.025320137
163	0xbd844d3e	-0.06460045
164	0xbdc7431e	-0.097295985
165	0x3c87ba2b	0.016568264
166	0x3c8a61f8	0.016892418
167	0x3d762c57	0.06010088
168	0x3ccfa938	0.025349244
169	0xbc808aa9	-0.015691118
170	0xbd1f4735	-0.038886268
171	0xbc1e8349	-0.0096748555
172	0x3d19f1d3	0.037584137
173	0xbca070e6	-0.019585084
174	0xbd2ad81f	-0.041710015
175	0xbccd4fdb	-0.025062492
176	0x3ce23d3c	0.02761709
177	0xbd4dcf12	-0.050246306
178	0x3d8d91e6	0.069125935
179	0xbcd9006e	-0.026489463
180	0x3c0739d4	0.008253533
181	0xbd1e1eef	-0.03860372
182	0xbc45f902	-0.012083294
183	0x3dac7dcf	0.084224336
184	0x3ca5e5e1	0.020251216
185	0x3ca17e00	0.019713402
186	0x3cff764b	0.031184336
187	0x3d0d9eed	0.03457539
188	0x3d1306c8	0.03589514
189	0x3d25cbdb	0.040477615
190	0xbc65f011	-0.014034287
191	0x3d811d35	0.06304399
192	0x3d4415dc	0.04787241
193	0xbd220759	-0.03955779
194	0xbc080052	-0.008300858
195	0x3c6bd67f	0.014394402
196	0x3c385704	0.011251215
197	0x3d074908	0.033028632
198	0xbc64ed06	-0.013972526
199	0xbd5d581e	-0.054039113
200	0xbe12b409	-0.1432649
201	0x3c2b0380	0.010437846
202	0x3b809100	0.0039235353
203	0x3c8e070d	0.017337346
204	0x3d538a10	0.05164534
205	0x39315a8e	0.0001691377
206	0x3d087c4d	0.033321667
207	0x3c87ede8	0.016592935
208	0x3c954065	0.018219182
209	0x3bd94849	0.0066309315
210	0x3c80cd47	0.015722884
211	0x3d9f89af	0.07789933
212	0x3c9c7d3a	0.019102681
213	0x3cf8f463	0.03038997
214	0x3b910e4f	0.0044267545
215	0xbd030dd9	-0.031995628
216	0x3cea666b	0.02861329
217	0xbd112c4d	-0.03544264
218	0x3d02dc9b	0.031948667
219	0xbc55c895	-0.013048311
220	0xbcf50593	-0.029909885
221	0xbd422896	-0.047401987
222	0x3d35420e	0.044252448
223	0x3c458a27	0.012056864
224	0xbd046f3e	-0.03233265
225	0x3d240ba8	0.04005018
226	0x3bef0c83	0.0072951927
227	0xbd815782	-0.06315519
228	0x3d07ba62	0.033136733
229	0xbcaae30b	-0.020860216
230	0xbd16c8d6	-0.036812626
231	0x3b694e6a	0.0035599717
232	0x3c7c1636	0.015386155
233	0xbd4fb501	-0.05070973
234	0x3c6f7750	0.014615849
235	0xbbb3654b	-0.0054747215
236	0xbd5035c5	-0.05083253
237	0x3d750d6e	0.05982726
238	0x3caeebb3	0.021352625
239	0x3cfa0098	0.030517861
240	0x3b996a8a	0.00468189
241	0xbc348360	-0.01101765
242	0x3cba0ab8	0.02271019
243	0xbd483a57	-0.048883762
244	0x3d4e9969	0.050439272
245	0xbc24fc63	-0.010069939
246	0xbda635ed	-0.08115754
247	0x3be6eefc	0.007047532
248	0x3d07bbea	0.033138193
249	0xbb918fae	-0.004442177
250	0x3c283c6c	0.010268312
251	0xbd53e067	-0.05172768
252	0xbbeffffb	-0.0073242164
253	0xbc44e1c0	-0.012016714
254	0xbc748131	-0.01492338
255	0xbbc132bc	-0.0058959406
