models/ecoli_core_v5_metabolic_nn.pth (torch, 388565 bytes, 14 tensors)

model.0.weight f4 [256, 20]
00000000: 66fe 4a3e 1dc0 843c 2be8 343e 1b05 f8bd
00000010: 29ab 97bd 9198 6a3e ec51 133e 58b6 503e
00000020: eeb2 41bc a81d ad3d 0cfe 133e 87aa 863c
00000030: 9fc3 2bbe 4cd1 5d3d 4e99 393e f731 073e
00000040: 29cd ce3d d38d 4b3e bc20 633e c9d7 1bbe
00000050: 81bf 97bd e259 203d 7da3 86bb d72f 52be
00000060: 7887 6b3c f42b 28be d7c4 0cbe 022d 77bd
00000070: 72ae eabd 4610 093e db1b f7bd ce9a 56bc
00000080: 44a2 4f3e fe31 b7bd 8957 86bd 26c1 0d3b
00000090: 83e3 523c fe09 7cbd f9c9 bf3d 1e39 4e3b
000000a0: e543 5b3e 91e6 103e 64b8 1c3e a50d 393e
000000b0: 9d04 f9bc 23aa e93d 17c8 a23d edb5 b53d
000000c0: 8da7 bf3d cb77 3f3e c82a 14be dd98 643d
000000d0: eda3 283d 1262 43bd 821c 083d 4d46 5d3e
000000e0: 695f 25be b0e3 893c b692 27bd 8215 25be
000000f0: 2ece a8bd 5d2b 443e 487c 93bd 5a95 573e
00000100: ba8a a9bd ee4c 2e3e 8acc 363e e99b ac3d
00000110: 6855 623d 5a90 d3bc 92ff 3abd fc74 8f3c
00000120: 2bf5 28bc 8115 adbd ddf8 a23d d618 c8bd
00000130: f388 70bd cd04 703d 8e88 df3b a9f5 3c3e
00000140: 519e a3bd c6b4 513e 471f 47bd 9c8b bdbd
00000150: ebd3 2abe 2b73 563d 8d96 ae3d 9f27 2e3c
00000160: 96f0 20be f7ae ddbd 8ecf 823d 9ab0 b83c
00000170: 9303 583c 95c4 393e e137 d93b 9a3c eebd
00000180: 98d4 383e 1ed3 3a3d 3e15 89bc 5a91 3cbe
00000190: 0648 c73d cdfc f1bd 9b50 e13d b943 cb3d
000001a0: d6ab d03c ccf2 14bd b7a5 4bbd 79d5 e33d
000001b0: b8f4 dabd 9fa0 4a3d 0211 5a3d 6f82 253c
000001c0: 68c4 4d3e efcf 61bd aaef 28be 9140 47bd
000001d0: c747 98bc 5734 38be 4b77 02be 8760 4abe
000001e0: 9c17 32bd fb79 363e de58 203e 83d8 463e
000001f0: 37a7 40bd 9ddf eebd c573 ed3c eb9e 7bbe
00000200: d733 16be 0229 403e 19c9 073e a076 003d
00000210: 3513 013e 4154 ae3d b321 513e cdff 63be
00000220: 5b13 5e3e 0a2d 7b3d c8cc af3d f13b fd3d
00000230: 6983 83be 1072 90be 9123 cfbd d247 4d3d
00000240: 73f2 febd a678 3a3e 2fcd 14bd ebaf d6bd
00000250: deeb 0cbe 882f d7bd 4b82 133d cb97 1fbd
00000260: 9b70 cebd f93a 9cbd 3ef3 053e 2617 283e
00000270: 5fb1 173e 2f05 90bd 5a24 7dbd 0e09 e53c
00000280: 4876 e4bd 3ac3 f8bd 3637 0e3e 5097 ad3d
00000290: 1854 a9ba 2eb4 0b3e 7014 583e 988f 6d3e
000002a0: f5c8 37be 30ad 093e e0e5 0d3d 32f5 98bc
000002b0: fd50 61be 9095 1b3e eeb1 26be b3b9 30be
000002c0: b3e0 193d 6112 92bd a646 41bd b166 c73d
000002d0: d8ed 76be 62ee 4cbe a157 6c3d 35db 683d
000002e0: 889b acbc 6151 56bd e6e7 27be e8f5 2c3d
000002f0: 02cf 973d a256 c73d 6458 a33d 5dd5 17bc
00000300: 8759 febd c826 42be e849 b3bd a470 cd3d
00000310: 5089 05bd a12f 5bbe 2695 1b3e 6e11 ef3d
00000320: f77c 58be 6264 6cbe c81a f43c 1a5d 8f3c
00000330: 0f6a c13b eafd 283d fb50 cb3c 5f2f e43b
00000340: 239b 743c 2f8c c93c 3500 8e3c 8e91 25bb
00000350: fceb 3e3c 1b39 fe3c 3e9e 20be da26 5dbe
00000360: 1452 a0bc 3676 3f3e 0d3e 91bd 82e5 d8bd
00000370: 99f7 d63d 0bc5 953d 18e4 0d3e 1e82 14be
00000380: 7ffc 47be 9b75 403e c176 043e 84c8 2ebe
00000390: 38cf de3d 1d49 e1bd 7320 c03d 2242 d23d
000003a0: 211e 433b 199e e33d dcae f4bd c8dc 37bb
000003b0: 81da 2ebc 862f e83d 2860 60be 02d3 613e
000003c0: b1fc 2f3e 8ef9 36bb b22f 13bd 4c61 a1bd
000003d0: 8970 2a3e 86f2 6c39 b0cd ae3d 63da 823c
000003e0: b620 01be 10c0 d53d e663 9c3d 8c2a 623d
000003f0: 77bb d03b a239 2e3e 690f 53be aeee ea3c
0.19823608 0.016204888 0.1766669 -0.12110349 -0.07405693 0.22909762 0.1438672 0.20382059
-0.011822445 0.08452922 0.1445238 0.016438736 -0.16773842 0.05415468 0.18124887 0.13202654
0.10097725 0.1987832 0.22180456 -0.15219034 -0.07409573 0.03914822 -0.004108845 -0.20526062
0.01437556 -0.16423017 -0.13746963 -0.060345657 -0.11459054 0.13385114 -0.1206586 -0.013098432
0.20276743 -0.08945082 -0.06559665 0.0021630018 0.012871626 -0.061532967 0.09364695 0.003146715
0.21412618 0.14150454 0.15304714 0.18071611 -0.030397708 0.11409404 0.0794832 0.0887259
0.0935813 0.18698041 -0.14469445 0.055809844 0.041171957 -0.04770095 0.033230312 0.21608849
-0.16149677 0.016832203 -0.0409114 -0.16121486 -0.08242451 0.19157167 -0.07201439 0.21053067
-0.08278413 0.17021534 0.17851463 0.08428175 0.05525723 -0.025825668 -0.045653887 0.017511837
-0.010312359 -0.08451367 0.07957623 -0.09770362 -0.058724355 0.05859833 0.0068216985 0.18453087
-0.07989181 0.20479116 -0.048613813 -0.09255144 -0.16682403 0.052355926 0.08524809 0.010629564
-0.15716776 -0.108243875 0.06387244 0.022545148 0.013184446 0.18141396 0.0066289757 -0.116326526
0.18049848 0.045611493 -0.016733762 -0.18414822 0.09730534 -0.11815796 0.110017024 0.099250264
0.025472563 -0.03636436 -0.049718585 0.11124701 -0.10691208 0.049469586 0.053238876 0.010101899
0.20094454 -0.05512994 -0.16497675 -0.04864556 -0.018588914 -0.17988716 -0.12740819 -0.19763385
-0.043479547 0.1781997 0.156589 0.1941853 -0.04703447 -0.116637446 0.028985867 -0.24572341
-0.14668213 0.18765643 0.13260306 0.03136313 0.12604983 0.08512164 0.20423011 -0.22265549
0.21687071 0.06132225 0.08583981 0.123649485 -0.25686195 -0.28212023 -0.10114206 0.05011732
-0.12448587 0.18210086 -0.03632849 -0.104827724 -0.13761851 -0.10507113 0.03601293 -0.03896312
-0.100800715 -0.07628436 0.13081071 0.1641508 0.14813755 -0.07032239 -0.061802246 0.02795842
-0.11155373 -0.121466115 0.13888249 0.08476126 -0.0012918739 0.13642952 0.21101546 0.23199308
-0.17947753 0.13444972 0.034643054 -0.018671606 -0.22003551 0.15193772 -0.16278812 -0.17258339
0.037567805 -0.07132412 -0.047186516 0.09736384 -0.24114168 -0.20012811 0.057700757 0.056849677
-0.021070257 -0.052323703 -0.16397056 0.042226702 0.074125305 0.09733321 0.079758435 -0.009267178
-0.1241942 -0.18960106 -0.08754331 0.1003125 -0.032601655 -0.21404888 0.15193614 0.11673246
-0.2114142 -0.23085168 0.029797927 0.017500449 0.0059025357 0.041257776 0.024818888 0.006963655
0.014929566 0.024602978 0.017334083 -0.002526376 0.011652943 0.03103309 -0.15685365 -0.21596852
-0.019570388 0.18697438 -0.07091913 -0.1059065 0.10496444 0.073129736 0.13856542 -0.14502761
-0.19529913 0.18794863 0.12935926 -0.17068678 0.108793676 -0.110002734 0.09381189 0.1026652
0.0029772597 0.11114139 -0.11947414 -0.002805518 -0.010672213 0.113371894 -0.2191168 0.2205315
0.17186238 -0.0027919742 -0.035934158 -0.07879886 0.16644491 0.00022597061 0.085353255 0.015973276
-0.12610134 0.10437024 0.076362416 0.055216357 0.006370004 0.17014173 -0.20611347 0.028678264

model.0.bias f4 [256]
00000000: 786e 92bd 69da 1d3e 253d 1a3e 9ea3 303e
00000010: c6e1 e63d 1fbd 233e 869d af3d a552 4abd
00000020: cad5 9a3d d848 513d 5c96 2e3e fb18 f43c
00000030: 192e 0c3e cb56 d5bd acb8 4abe 7287 c23c
00000040: 6e3e 5abd 8b44 2a3e ec69 cebc b813 04be
00000050: 625d 573c c88f 63be 100b a2bc 9b50 e73d
00000060: 8b43 c83c 6e86 f4bd d7c8 513e c8a4 09bc
00000070: 6c99 1f3e 461e 233e 64d2 fcbd 4c43 4cbe
00000080: 2c61 abbd 587f 3e3e 6579 853d 7527 433e
00000090: c95d 423d 1c9e 41be f2b0 b13c 0915 40be
000000a0: d221 1d3e 1d79 fc3c 2e8d 863d 61b6 533e
000000b0: a578 073e 57ca 4abe 42a3 62be c3aa 33bd
000000c0: a379 db3b fdf6 fd3d 8f2f 0ebe e2ab 13be
000000d0: 1f83 c73d 24e1 153e 17ac 2f3e fa59 953d
000000e0: 7714 fc3c 44cd 4ebe 212c 423e ef78 86bd
000000f0: 91a4 073e e746 54bb f1a8 35be f9ed 5fbe
00000100: b8ce 0e3e ede9 cbbd 22b3 9e3d 9eef 16bd
00000110: f8b3 4cbe 0e3b 5d3e 697e 653d 4fc3 f0bd
00000120: 0f15 61be 784f aabc ef7f 3cbe e585 313e
00000130: 332c 85bd f732 483e aedc 543d 6a4b 523e
00000140: f29f f5bd 336b 1d3c 915e ccbd ee19 4b3e
00000150: 4508 a6bd c0cb 9dbb 2e3b a43d 8dbf 9d3c
00000160: ff1c 2bbe 8678 f7bd f6f2 4a3e 1258 62be
00000170: 2cac 30bd eed8 d23d 4bd2 253e 3a42 4e3e
00000180: 0915 233e be36 b33d 7977 a03d 9527 1d3d
00000190: 4441 893c e6d9 91bd 5b21 20be dee7 2d3e
000001a0: c3d4 003d 9b9f a7bd 448c ec3b 512c cf3c
000001b0: 596b 423e 835f dbbd 4909 8a3c 144a 74bd
000001c0: e4c8 3e3e 9409 333c af6a 67bd 0508 e9bd
000001d0: 19a2 fdbd cf23 033e 2a65 133e 6c87 cc3d
000001e0: bc51 2fbe c64c 3a3e 7b14 35be 88a6 0b3e
000001f0: cc8a f7ba e20b 013e 8f33 c23d 4c3a 2dbd
00000200: 06cb 293e ba62 2fbe e34e c63d 7664 51bd
00000210: 5986 5bbd eb9e b4bd 01d9 dabd cbab 133e
00000220: 93af e13c 714f 0c3e 752a 64be c6ca 3ebe
00000230: cc46 7b3d 6904 59be 1782 dabd 0940 103e
00000240: 16a2 00be e042 5dbe 51e3 3d3d 5a63 bd3d
00000250: 870b 62be 7be7 ab3d a286 293d 2a90 55be
00000260: d41b 513d 5409 d1bb 5393 5abe bead 363e
00000270: 973b eabd 7ef2 dcbd ed0d cbbd ee1d 953d
00000280: 4ac1 d5bc dca8 89bd 5334 36be fe91 a6bd
00000290: 518e 4ebd 90d9 20bc 600c eeba 44e5 53bd
000002a0: 9055 643e e49e 3e3e ff30 07be 3038 ebba
000002b0: 3cbf cdbc 0189 093e c0d3 443d 0e2a bdbd
000002c0: a2be 43be 95e2 323d de71 573d e292 153d
000002d0: 9860 253e ec2a d9bc 59d2 58be 55c9 dabd
000002e0: 2378 a03d b1f2 06be 5167 3a3e 853c f53d
000002f0: 9e95 52be 6217 0abd 2dc9 20bd 0d11 53be
00000300: 5f2e 35be 936d 4e3e 0a3b b03c 9ebc 2c3e
00000310: baad 163d 565a 1a3e 2ca9 96bc f60c 00be
00000320: 77c2 3ebe 0ec5 cc3d 9616 f03c f27d 3d3e
00000330: c4c6 f33c e849 dcbc dfc0 d1bc c880 0f3e
00000340: 6a79 b73d 72fd c23b 4259 e13c e5a5 1dbe
00000350: 383c a2bb efd3 8fbd 247a 563d 24c7 343e
00000360: a41d f2bd 6789 60bd f39e 17be b02f 5fbe
00000370: 999d 4abe bcfc 333d 1862 05be 1889 99bc
00000380: c87b efbd bfaa 5d3d 0478 0e3d 4953 32bc
00000390: 89cb 203e 1598 1fbd 7e7a eabc 3887 58be
000003a0: 37f3 603d 2bc4 203e 5447 2c3d 9aa4 e43c
000003b0: f88e 4e3b 67d6 e13a 8c09 f8bd ed47 2ebd
000003c0: fe10 34be 35f6 3a3d 2f13 3a3e 8365 c1bd
000003d0: 7227 e7bc b12b 4d3e 1cce f4bd 1fde c6bd
000003e0: 7961 c63d 74a3 013b 3ae5 573d b790 283c
000003f0: 8f17 41be c276 2dbe 727e 2bbb eb7d 5c3d
-0.071499765 0.15415348 0.15062387 0.17249915 0.112735316 0.15990113 0.08574967 -0.049395222
0.07560308 0.05109486 0.17049545 0.029797068 0.1368946 -0.10416945 -0.19797009 0.023746226
-0.053282194 0.1662771 -0.025196992 -0.12898147 0.013144823 -0.22222817 -0.019780666 0.11294671
0.02444627 -0.11939703 0.2048677 -0.008401103 0.1558587 0.15929517 -0.12344816 -0.19947547
-0.083681434 0.18603265 0.06517295 0.1905802 0.04745272 -0.1890797 0.02169082 -0.18758024
0.15344933 0.03081947 0.06569897 0.20675041 0.13229616 -0.19803749 -0.2213259 -0.043864023
0.00669785 0.12400625 -0.1388533 -0.14421037 0.09741806 0.14636666 0.17155491 0.07292552
0.030771477 -0.2019549 0.18962146 -0.06566035 0.13246371 -0.0032390894 -0.17740227 -0.21868123
0.13946044 -0.09956727 0.077490106 -0.03684961 -0.19990528 0.21604559 0.056028757 -0.11756002
-0.2198069 -0.020789847 -0.18408178 0.17336233 -0.06502571 0.19550692 0.05196827 0.2053658
-0.11993398 0.009608078 -0.099789746 0.1983411 -0.08107046 -0.0048155487 0.080191 0.019256378
-0.1671028 -0.12083535 0.19819245 -0.22103909 -0.043132946 0.10295282 0.16193502 0.20142451
0.15925993 0.087506756 0.078352876 0.038367826 0.016754754 -0.07121639 -0.15637724 0.16982982
0.031452905 -0.08184739 0.0072188694 0.025289686 0.18986262 -0.10711577 0.01685013 -0.05964096
0.18631321 0.010927577 -0.056498226 -0.11378483 -0.12384433 0.12806629 0.1439406 0.09986767
-0.17121023 0.18193349 -0.17683594 0.13637745 -0.0018885969 0.12602189 0.0948249 -0.042291924
0.16581354 -0.17127505 0.09683015 -0.051121198 -0.05359492 -0.08819374 -0.106859215 0.14421003
0.02754954 0.1370218 -0.22281821 -0.1863204 0.061346814 -0.21193089 -0.10669344 0.14086927
-0.12561831 -0.21607542 0.046359364 0.092474654 -0.2207471 0.08393761 0.04138816 -0.20855775
0.05105193 -0.006379286 -0.21345262 0.17839715 -0.11437147 -0.10788439 -0.099147655 0.07281099
-0.026093144 -0.067216605 -0.17793398 -0.081333145 -0.050428692 -0.009817496 -0.0018161647 -0.051732317
0.22298265 0.186153 -0.13202284 -0.0017945822 -0.025115602 0.13431169 0.048053503 -0.09236537
-0.1911569 0.043673117 0.052598827 0.03651703 0.16150129 -0.026509725 -0.21173991 -0.10682932
0.07835414 -0.13178517 0.18203475 0.11974434 -0.20564887 -0.033713706 -0.039254356 -0.20611973
-0.1769347 0.20158987 0.021512527 0.16868827 0.036786772 0.15073523 -0.018391214 -0.12504944
-0.1862887 0.09998523 0.029307645 0.18505076 0.029757865 -0.02689071 -0.025604663 0.1401397
0.08958705 0.005950623 0.027508382 -0.15395315 -0.0049510263 -0.07022845 0.052362576 0.17654091
-0.1182206 -0.054818537 -0.14806728 -0.21795535 -0.19786681 0.0439422 -0.13025701 -0.01874213
-0.11693531 0.054117914 0.034782425 -0.010884115 0.15702643 -0.038963396 -0.028622862 -0.21145332
0.054919448 0.15699832 0.04206021 0.02791052 0.0031518321 0.0017230035 -0.12111196 -0.042549063
-0.17584607 0.045644958 0.1817138 -0.0944319 -0.028217051 0.20036198 -0.11953375 -0.09710335
0.0968656 0.0019781264 0.05270884 0.010288409 -0.18856643 -0.16939834 -0.0026167897 0.053831022

model.1.weight f4 [256]
00000000: 9397 713f aa66 7c3f 61e9 793f d637 6a3f
00000010: e48a 6d3f e140 793f e4bd 763f ca99 7b3f
00000020: a02d 7b3f 5c56 843f d5a1 963f efcd 6d3f
00000030: 64ad 793f 4d3f 753f fa93 733f 807c 6c3f
00000040: 463f 793f 9bcd 7f3f 5db4 783f 05e6 7c3f
00000050: c993 653f 080b 853f b6bc 813f ddf0 6b3f
00000060: 6198 7b3f 5919 5d3f c109 7c3f e92a 713f
00000070: 9a85 773f 5859 7e3f fd81 763f 2f10 6e3f
00000080: d360 6e3f 2005 693f 3fc8 7b3f c2be 783f
00000090: a211 743f aac2 903f 7208 683f 8a46 7a3f
000000a0: 5284 673f 6dcd 833f d3c3 753f 4f1c 643f
000000b0: 2a98 7a3f 85f5 803f f9aa 743f b435 823f
000000c0: 0c67 803f c97d 813f 6441 793f cc1c 7e3f
000000d0: bb3c 7d3f a37d 9e3f 5ce5 793f e7c8 753f
000000e0: 6edc 773f 9cde 7a3f 07a8 7f3f 34ef 693f
000000f0: 8892 803f 8688 853f 53ee 6d3f 6279 763f
00000100: beba 783f 3114 6b3f 96b7 673f 13dd 793f
00000110: 7b05 973f cfdb 733f a9b2 7b3f 4a1a 7b3f
00000120: 86fb 7c3f f3fd 7e3f 0992 783f f09a 7c3f
00000130: 046b 713f 8b6c 783f 363a 7b3f 813e 833f
00000140: 7767 783f 88a5 773f 778d 763f d892 863f
00000150: aaf1 6b3f dab8 6f3f 7a54 7d3f 0340 7d3f
00000160: 2eb5 783f 4b3c 783f f0c7 6f3f c9bb 723f
00000170: d407 773f eb9e 6c3f 8c2d 763f a916 683f
00000180: b30d 6e3f 6a20 843f a482 7d3f ca49 873f
00000190: e2a6 713f d72e 7d3f f3c1 713f 357c 803f
000001a0: 825e 823f 2121 723f 99f8 783f 701e 773f
000001b0: 819c 773f 293b 613f 46bd 733f 3619 8c3f
000001c0: d5b1 783f 8138 7c3f 8a3d 803f 5a3b 763f
000001d0: 78fd 7a3f 29ba 6d3f f4d3 643f 9e0b 813f
000001e0: 3108 773f 6516 7a3f 89b0 823f d296 7e3f
000001f0: b1ef 833f a704 753f 1f96 813f 63f7 793f
00000200: 3e3b 7e3f 1dc3 743f d9d0 813f 5e97 853f
00000210: 7467 6d3f c170 6c3f 7645 683f 1f0d 7c3f
00000220: e33d 853f eb02 703f 86c1 743f 3312 7b3f
00000230: 234a 753f 75c1 803f fc15 793f 6420 763f
00000240: 2410 6a3f 916b 6f3f c788 743f 68eb 863f
00000250: f877 893f bb8c 833f 5358 7b3f c277 773f
00000260: 60e3 763f e9ae 7c3f 6cc1 813f 220c 703f
00000270: 8381 6c3f c281 743f 6e98 6e3f 6717 7c3f
00000280: 54c5 793f ad30 7c3f 9356 743f 5e0f 823f
00000290: 9b58 7d3f 9aa6 783f 2e67 823f d34a 813f
000002a0: 7d72 943f 6360 7a3f 9a92 753f 4d85 6f3f
000002b0: 5517 853f f302 743f 1a90 7f3f e2c6 8b3f
000002c0: 8add 783f 1410 813f e3b8 7f3f cbf5 823f
000002d0: 6138 873f 5f05 7c3f 266b 723f ab88 783f
000002e0: 7647 813f 9b08 673f 7aa3 773f ea95 7c3f
000002f0: d60e 7f3f 789a 7a3f a347 723f 1895 733f
00000300: 4434 813f 3c36 7e3f bfcb 7a3f 18de 763f
00000310: 55d1 733f cf41 6a3f 14e6 673f 44a0 763f
00000320: 83c0 7b3f 317a 763f e4e7 783f eacf 703f
00000330: edf4 903f 147b 813f f192 783f b014 7c3f
00000340: aa5e 7c3f 4d8c 823f f19d 7c3f 8d2a 763f
00000350: 3449 7f3f 2c7a 6f3f fc12 6e3f b0d9 803f
00000360: 6f17 783f 1421 743f 4e81 673f 9054 6b3f
00000370: 268e 773f 7d09 833f d1bd 883f 1091 7f3f
00000380: 9421 803f 6bd5 883f 70aa 8f3f 4b27 833f
00000390: 60d4 6f3f 920f 773f 6de6 7a3f 15b2 7d3f
000003a0: a22a 833f 61c8 823f e6c0 813f 2367 7b3f
000003b0: 602f 6c3f c672 7a3f 1c06 883f 040f 743f
000003c0: 8d3b 5d3f 561a 823f 0b4a 643f 0ca7 703f
000003d0: 4d7c 6d3f fb20 813f 416c 6f3f 115d 753f
000003e0: af0b 703f 5823 7a3f 07d1 813f 97a3 813f
000003f0: 0a11 7f3f 738b 7d3f 261d 773f 517c 793f
0.9437191 0.9859415 0.9762173 0.9149145 0.92790055 0.9736462 0.963835 0.9828154
0.98116493 1.0338855 1.1768137 0.92892355 0.975302 0.95799714 0.9514767 0.9237747
0.9736217 0.99923104 0.9715021 0.9878848 0.8967863 1.0393991 1.0135715 0.92164403
0.98279387 0.863668 0.98452383 0.942061 0.96688235 0.9935508 0.96292096 0.92993444
0.9311649 0.91023445 0.98352426 0.97166073 0.95339406 1.1309407 0.90637887 0.97763884
0.9043628 1.0297066 0.9600193 0.89105695 0.97888434 1.0074927 0.95573384 1.0172639
1.0031447 1.0116512 0.97365403 0.9926269 0.9892079 1.2382091 0.976156 0.9600968
0.96820724 0.97995925 0.99865764 0.9138062 1.0044718 1.0432289 0.9294178 0.96278965
0.97159946 0.91827685 0.90514505 0.9760296 1.1798548 0.95257276 0.9831949 0.9808699
0.98821294 0.99606246 0.9709783 0.98673916 0.9430392 0.97040623 0.981357 1.025345
0.97032875 0.96736956 0.9630961 1.0513563 0.92165625 0.93641436 0.98957026 0.989258
0.9715146 0.96967 0.93664455 0.9481779 0.9649632 0.9242999 0.9616325 0.90659577
0.92989653 1.0322392 0.99027467 1.0569394 0.9439527 0.98899597 0.9443657 1.0037905
1.0185091 0.945818 0.9725433 0.9653082 0.9672318 0.87980896 0.95210683 1.0945194
0.9714635 0.9852372 1.001878 0.96184313 0.9804301 0.9286218 0.89385915 1.008167
0.96496874 0.9769042 1.0210124 0.99448884 1.0307523 0.95710224 1.0123938 0.9764311
0.99309146 0.9561022 1.014186 1.0436819 0.9273598 0.9235955 0.9073099 0.9845752
1.0409511 0.9375445 0.95607793 0.98074645 0.9581625 1.0059038 0.9729917 0.96143174
0.9143088 0.9352351 0.95521206 1.054059 1.0739737 1.0277323 0.9818165 0.9666711
0.96440697 0.9870439 1.0137153 0.93768513 0.9238512 0.95510495 0.9320134 0.9847321
0.97566724 0.98511773 0.954446 1.016094 0.98963326 0.97129214 1.0187738 1.010096
1.1597439 0.97803324 0.9592682 0.93562776 1.0397745 0.95317 0.99829257 1.0920069
0.9721304 1.0083032 0.9989149 1.023126 1.056408 0.98445696 0.94694746 0.9708354
1.0099933 0.90247506 0.9673382 0.9866625 0.9963201 0.9789195 0.9464056 0.95149374
1.0094075 0.99301505 0.9796714 0.9643264 0.9524129 0.91506666 0.90585446 0.96338296
0.98340625 0.962802 0.97228837 0.9406725 1.1324745 1.0115685 0.97099215 0.98469067
0.98581946 1.0199066 0.986785 0.9615868 0.99721074 0.93545794 0.9299772 1.0066433
0.96910757 0.95362973 0.9043168 0.9192591 0.96701276 1.023727 1.0682927 0.9983072
1.0010247 1.069013 1.1223888 1.0246366 0.93683434 0.96508133 0.9800785 0.99099857
1.0247386 1.0217401 1.0136993 0.9820425 0.9225979 0.9783138 1.0626864 0.9533541
0.8641899 1.0164287 0.8917548 0.94004893 0.9276779 1.008819 0.9352456 0.95845133
0.9376783 0.9771018 1.0141915 1.0128049 0.99635375 0.9904091 0.9652885 0.97455317

model.1.bias f4 [256]
00000000: 8d95 5b3e 616e a23d 3b22 913d 52c6 f93d
00000010: bfc8 d63d be3b 923d aa90 a5bd 1fc4 933d
00000020: 17b3 053e cc47 39bd 2e35 04bf 779f 013e
00000030: 8bc8 a63d 90af 863d 52b5 c13d 4d6f aa3d
00000040: c26e d2be 24e6 ca3d 04d6 ee3d 378e 6dbd
00000050: d644 d63c 38c1 3b3c ba9f 893d 708a 963e
00000060: c979 233b be4d 283e 9989 fa3e 24af 2e3e
00000070: cc9a 13be 4ba1 033e e041 5f3d 7c12 8f3d
00000080: 658c 013e 0bad ba3d 60a3 6c3d 176d 083d
00000090: 25b9 5c3d 4eab c43d 42cc 8b3d 9a27 a53d
000000a0: d087 f93d 6990 22bc 13da c03c d75b 033e
000000b0: 854f febc e069 8e3d efc6 cc3d c01f 9bbd
000000c0: b84e ac3d 2e6f f43d 184f 613e 5859 0f3e
000000d0: fa07 433d da5b 483e d881 b33d 21ee d03d
000000e0: 48be 39bb 1aaa 233d c6fa 09be 0c22 d93d
000000f0: 4828 993e 3453 51bd 537e 283e 8746 443d
00000100: 4aa2 cc3d d0dc a63e 8aa8 b33d c453 11bd
00000110: 2557 bebc 6d03 683d b527 f5ba b403 c73c
00000120: e5e1 c4bd c3a5 a43d 5d5c d5be 9419 a83d
00000130: 7adf 803d 6568 103d f718 8b3d 541e 87be
00000140: ac7c 033e 3f5b 813d b43e b1bb b475 e13d
00000150: 93a2 713d d72a fdbb 10ae ac3e 0a1c 363d
00000160: 18c1 0a3e 2c79 fbbc 468f 7a3c 5ae3 aa3d
00000170: dd59 b33d 298c 673d 38c2 fd3c 2c2c fd3e
00000180: e162 20bf 6665 b03d 42bd 593d 31cf c73d
00000190: a7c0 e83c d6e6 643d c7be 903d 58fc f73d
000001a0: fd4a df3c c026 013e e97c 763e 5290 813d
000001b0: d073 b43d 14fa 4e3d 0ff5 de3d 12df 8ebd
000001c0: 8bcb 503d ec63 a13d 648e 4ebe 9841 6f3d
000001d0: 0419 813d 3e7a ca3d faa7 1c3e 3920 dd3d
000001e0: 3e01 c63c 8049 473d bdb8 bb3d 20d1 2fbe
000001f0: 53b4 cebe d42f 8fbe 620d 213d 8e7c ea3d
00000200: fff0 70bd 8a57 103e 246a 98be 1897 af3d
00000210: 60b9 9d3d 18d0 ec3d 1c01 b33d da46 8b3d
00000220: d5be ad3d 5f0e cf3d 075f 613e b77a 3f3e
00000230: 808b ddbb 6079 9d3c 735a 1c3d 359d 8a3b
00000240: e432 c23d 3f73 b53d d529 9e3d 5209 26be
00000250: 5316 91be 2fac bbbd 0104 b63d 4ab2 983d
00000260: 0ccc c73d 204b 283d 7e01 77bd 17ae f33d
00000270: ccde 4f3d 2e74 3f3d f930 673d db8f b6bc
00000280: 0110 a1bc c370 073e 7d8b b4be 6b31 5f3b
00000290: 47c6 4e3d e070 39bd 6fd8 f93c fa7f c33e
000002a0: 128b 8bbe eca0 b1ba 3614 7b3d 7180 413d
000002b0: 8c28 083e 05d3 003e e2a4 433d 59dc 9a3d
000002c0: 5a6f 5cbe 9ecb 503e 94e2 783d fc6d f93d
000002d0: 881e f9bc 42ea 193d 03d8 8e3d 0428 393d
000002e0: 2edc 293d 7880 6cbd e1b8 fe3d 644a 903d
000002f0: b6ac 583d 191c 403b b9c3 373d 8d21 2a3d
00000300: 80f6 e63d 37a6 c2bc 603b f03d c55a 37be
00000310: e14e 813d b780 ec3d 9aee a13d 6f33 6dbd
00000320: 48f1 d53d 0cc2 163d 08dc c03c 133a af3d
00000330: 183a 99be 6577 58bc 1a28 213e e561 b13e
00000340: ecc8 3c3d 40c0 bf3c ca2d 3c3d 2cb0 173c
00000350: a830 4a3e 0ec3 283e a192 383c 2554 493d
00000360: 643d 393d 4cec c73c 4b00 823d adce 063e
00000370: ecfb 5d3d a616 96be ed8d aabc fbad 5b3b
00000380: 4069 ccbd 8f70 f5be fa1f 033d 96c0 edbe
00000390: b08a 913d 38e2 533d 5a5e b43d 71c6 8abd
000003a0: 501d 1d3d 9ddd f93d d07e 76bd af96 f9bd
000003b0: ce8d be3d d412 e03d e8da 053e 3081 be3d
000003c0: eb5e a43d 9ff9 693d ecdc 283d 265b 61bd
000003d0: ee09 5e3d be32 b33d bf88 193e 8c91 923c
000003e0: 4c63 fe3d ff2a 443d 7ab7 403d 9819 823d
000003f0: 819c cf3d 595b b03c 253f 983d 3d07 203e
0.21443768 0.07931209 0.07086607 0.1219603 0.10487508 0.07140301 -0.08084233 0.072151415
0.13056599 -0.045234486 -0.51643646 0.12658487 0.08143719 0.06576455 0.09458412 0.0832201
-0.41100127 0.09907177 0.11661914 -0.057996955 0.02615587 0.011459641 0.067199185 0.29402494
0.0024944416 0.16435906 0.48933104 0.17058998 -0.14414519 0.12854497 0.054506183 0.069859475
0.12651213 0.091150366 0.057772994 0.03330716 0.053887505 0.09602986 0.068260685 0.08064194
0.12184107 -0.009922125 0.023541486 0.12828003 -0.031043777 0.06953788 0.09998881 -0.07574415
0.08413452 0.11935268 0.22002828 0.13998926 0.04761503 0.19566289 0.08765 0.102016695
-0.0028342176 0.039957143 -0.13474569 0.10602197 0.29913545 -0.05110474 0.16454439 0.047918823
0.09991892 0.32590342 0.08772381 -0.035480276 -0.023234913 0.056643892 -0.001870385 0.024293758
-0.096133985 0.08039429 -0.4167203 0.08208004 0.06292625 0.03525581 0.06791871 -0.26390326
0.12840527 0.06316232 -0.005409086 0.11008778 0.058992933 -0.007726054 0.3372655 0.044460334
0.13550222 -0.030697428 0.015292948 0.08344145 0.087573744 0.05653015 0.0309764 0.49447763
-0.6265088 0.0861309 0.053159006 0.097563155 0.028412176 0.055884205 0.07067638 0.121086776
0.027257437 0.12612438 0.24071087 0.06326355 0.08811152 0.05053146 0.10886585 -0.06976141
0.050975364 0.07880387 -0.20171505 0.058412164 0.063035995 0.09886597 0.15298453 0.107971616
0.024170514 0.04865408 0.091660954 -0.17169619 -0.4037195 -0.27966177 0.039319403 0.11449538
-0.05882358 0.14095894 -0.2976848 0.08573741 0.07701373 0.11563128 0.08740446 0.06800623
0.08483664 0.10110163 0.22008906 0.18699156 -0.0067610145 0.019222915 0.038172197 0.0042301663
0.09482363 0.08859872 0.077228226 -0.16214493 -0.28337345 -0.09163701 0.088874824 0.07455881
0.09755716 0.04108727 -0.060304157 0.118984394 0.050749585 0.046741657 0.05644319 -0.022285393
-0.019660952 0.13226609 -0.3526267 0.0034056555 0.05048206 -0.04527366 0.030498711 0.38183576
-0.2725454 -0.0013551987 0.06129857 0.047241632 0.13296717 0.12580498 0.047764666 0.07561559
-0.21526852 0.20390174 0.060762957 0.12179181 -0.030410066 0.03757692 0.06974795 0.045204177
0.041469745 -0.057739705 0.124376066 0.07045439 0.052899085 0.0029313623 0.04486439 0.041535903
0.11277485 -0.023760898 0.11730075 -0.1790572 0.06313873 0.11547988 0.07906838 -0.05791038
0.10446411 0.03680615 0.02354242 0.08555999 -0.29927135 -0.01321206 0.15737954 0.34645
0.04609005 0.023407102 0.045942105 0.009258311 0.19745123 0.16480657 0.011265428 0.049152512
0.045224562 0.024404667 0.06347712 0.13164778 0.05419533 -0.29314154 -0.020819629 0.0033520448
-0.09981012 -0.47937438 0.032012917 -0.46435994 0.07106531 0.05172941 0.08807059 -0.06776131
0.038358033 0.122004725 -0.06017953 -0.12186944 0.09304391 0.10941091 0.13071787 0.09301984
0.08025917 0.057122823 0.041226313 -0.055018567 0.05420869 0.08749913 0.1499357 0.017891668
0.12421283 0.047892567 0.047049977 0.06352538 0.101372726 0.021527933 0.07433919 0.15627761

model.1.running_mean f4 [256]
00000000: 4f6f 92bd 56da 1d3e 693d 1a3e 26a3 303e
00000010: 2fe2 e63d a6bc 233e 1d9e af3d 7752 4abd
00000020: 23d7 9a3d b04d 513d 7ca6 2e3e 9619 f43c
00000030: 802e 0c3e 3c55 d5bd c4b8 4abe a588 c23c
00000040: 1635 5abd b544 2a3e 9269 cebc ed16 04be
00000050: 1b5c 573c 268f 63be 100f a2bc 3751 e73d
00000060: cb41 c83c ea84 f4bd 1bc5 513e a69d 09bc
00000070: 109b 1f3e 401e 233e f3d1 fcbd 7443 4cbe
00000080: 6c60 abbd 697f 3e3e a679 853d ff27 433e
00000090: 645e 423d fe9c 41be 0dad b13c 0e15 40be
000000a0: 7e21 1d3e 3374 fc3c 278e 863d 0db6 533e
000000b0: 6579 073e 29ca 4abe 6fa3 62be 05ac 33bd
000000c0: 4621 db3b 35f7 fd3d 1331 0ebe 35ae 13be
000000d0: a184 c73d 95e0 153e 1cac 2f3e 595a 953d
000000e0: 6c11 fc3c 35cd 4ebe 7d2b 423e 4779 86bd
000000f0: 4da4 073e 6532 54bb c3a8 35be efec 5fbe
00000100: 2acf 0e3e 46ec cbbd c5b2 9e3d cff0 16bd
00000110: d2b4 4cbe ca3a 5d3e a07e 653d fac2 f0bd
00000120: 7713 61be 6e50 aabc e079 3cbe 8785 313e
00000130: c82b 85bd 3c33 483e f9d8 543d 374b 523e
00000140: 469f f5bd 8e6f 1d3c 085e ccbd b518 4b3e
00000150: 5b08 a6bd cade 9dbb a93b a43d 67bc 9d3c
00000160: 151d 2bbe a078 f7bd e2f2 4a3e 1b58 62be
00000170: 77ac 30bd 68d9 d23d 72d2 253e b040 4e3e
00000180: 561d 233e 6538 b33d 6a78 a03d 6520 1d3d
00000190: 3e42 893c 03da 91bd 2f21 20be 25e9 2d3e
000001a0: 5ad5 003d 2fa0 a7bd 859f ec3b dd2e cf3c
000001b0: c46b 423e 4e5f dbbd e10a 8a3c 3a56 74bd
000001c0: 38c9 3e3e dd0c 333c 0561 67bd e207 e9bd
000001d0: f5a1 fdbd bc24 033e 2465 133e 2988 cc3d
000001e0: 9751 2fbe e04c 3a3e fd14 35be f2a5 0b3e
000001f0: 3224 fcba 790b 013e e633 c23d e336 2dbd
00000200: 08c8 293e 8f62 2fbe d150 c63d cf5e 51bd
00000210: 5988 5bbd 769f b4bd b6d9 dabd d3ab 133e
00000220: 6ea6 e13c 944f 0c3e 232a 64be 38cc 3ebe
00000230: b446 7b3d 9904 59be 3a82 dabd ee3f 103e
00000240: aca1 00be f242 5dbe 56e3 3d3d 8d65 bd3d
00000250: 2609 62be 21ea ab3d 7886 293d 7f90 55be
00000260: ef19 513d a50c d1bb 2e93 5abe 1eae 363e
00000270: 2d3a eabd 91f1 dcbd 260e cbbd d91f 953d
00000280: bdbe d5bc 03aa 89bd fb33 36be 4493 a6bd
00000290: 7b8d 4ebd 4adc 20bc ba4a eeba f3d4 53bd
000002a0: ff56 643e 419f 3e3e 2431 07be 124a ebba
000002b0: c7bd cdbc bb88 093e 62d5 443d 3c25 bdbd
000002c0: cabe 43be 22d4 323d 776f 573d 9797 153d
000002d0: 7060 253e 902c d9bc 32d2 58be cac9 dabd
000002e0: 337d a03d a2f2 06be bb67 3a3e 023c f53d
000002f0: 8e95 52be e816 0abd 1bca 20bd 7710 53be
00000300: 5c2e 35be f36c 4e3e 6a3c b03c 33bb 2c3e
00000310: 53ae 163d 3c5a 1a3e 74a6 96bc ac0c 00be
00000320: 48c2 3ebe 6cc5 cc3d d20c f03c 1b7e 3d3e
00000330: 0ad3 f33c 034c dcbc dfc2 d1bc fc81 0f3e
00000340: 2979 b73d 33dc c23b 885b e13c 9da5 1dbe
00000350: c827 a2bb 31d4 8fbd ef79 563d 76c7 343e
00000360: 951d f2bd c988 60bd 6a9f 17be 9a2f 5fbe
00000370: 7c9d 4abe 0bfe 333d 0c62 05be 5388 99bc
00000380: 507d efbd 9698 5d3d 6b73 0e3d 7758 32bc
00000390: 63cb 203e c697 1fbd 2c79 eabc cf87 58be
000003a0: 2cf6 603d ddc1 203e 1946 2c3d 40a5 e43c
000003b0: 3f95 4e3b c4f3 e13a bf0d f8bd 5648 2ebd
000003c0: 1a11 34be 08f5 3a3d 2313 3a3e bb64 c1bd
000003d0: 2821 e7bc f72a 4d3e 21cd f4bd 97de c6bd
000003e0: e760 c63d 6c9f 013b c1e3 573d 7e9b 283c
000003f0: b117 41be e676 2dbe 1c82 2bbb a67d 5c3d
-0.07150137 0.1541532 0.15062489 0.17249736 0.1127361 0.15989932 0.085750796 -0.04939505
0.07560565 0.05109948 0.17055696 0.029797357 0.13689613 -0.10416648 -0.19797045 0.023746798
-0.053273283 0.16627772 -0.025196824 -0.1289937 0.013144518 -0.22222576 -0.019782573 0.112947874
0.024445435 -0.11939414 0.20485346 -0.008399403 0.15586495 0.15929508 -0.12344732 -0.19947606
-0.083680004 0.1860329 0.06517343 0.19058226 0.0474533 -0.18907544 0.021688962 -0.18758032
0.15344808 0.030817127 0.06570082 0.20674916 0.13229902 -0.1980368 -0.22132657 -0.043865222
0.006687316 0.124006666 -0.13885908 -0.14421923 0.09742094 0.14636452 0.17155498 0.07292623
0.030770026 -0.20195468 0.18961902 -0.065661006 0.1324627 -0.003237867 -0.17740159 -0.21867727
0.13946214 -0.09957175 0.07748941 -0.036850747 -0.19990852 0.21604457 0.056028962 -0.11755939
-0.21980081 -0.020790305 -0.18405867 0.17336093 -0.06502491 0.19550794 0.051964734 0.20536505
-0.119932696 0.009609116 -0.099788725 0.19833644 -0.081070624 -0.0048178183 0.08019192 0.019254876
-0.16710313 -0.12083554 0.19819215 -0.22103922 -0.043133225 0.10295373 0.1619356 0.20141864
0.1592916 0.08750991 0.07835467 0.038360972 0.01675522 -0.071216606 -0.15637659 0.16983469
0.031453468 -0.081848495 0.0072211646 0.0252909 0.18986422 -0.10711537 0.01685089 -0.059652545
0.18631446 0.01092836 -0.05648901 -0.11378457 -0.123844065 0.12806982 0.14394051 0.09986908
-0.17120968 0.18193388 -0.17683788 0.13637522 -0.0019236861 0.12602033 0.09482555 -0.042288672
0.16580212 -0.17127441 0.09683383 -0.051115807 -0.053596828 -0.08819477 -0.10686056 0.14421014
0.02754518 0.13702232 -0.22281699 -0.18632591 0.061346725 -0.2119316 -0.1066937 0.14086887
-0.12561673 -0.21607569 0.046359383 0.09247885 -0.22073802 0.08394266 0.041388005 -0.20855902
0.051050123 -0.006379681 -0.21345207 0.17839858 -0.114368774 -0.10788263 -0.09914808 0.07281465
-0.026091928 -0.0672188 -0.17793266 -0.081335574 -0.050427895 -0.009818146 -0.0018180229 -0.051716756
0.22298811 0.18615438 -0.1320234 -0.0017951152 -0.025114907 0.13431065 0.04805506 -0.092356175
-0.19115749 0.043659337 0.052596536 0.03652152 0.16150069 -0.026510507 -0.21173933 -0.106830195
0.0783638 -0.13178495 0.18203633 0.11974336 -0.20564863 -0.03371325 -0.039255243 -0.2061175
-0.17693466 0.20158748 0.021513183 0.16868286 0.036787342 0.15073484 -0.018389918 -0.12504834
-0.186288 0.09998593 0.029302988 0.18505137 0.029763717 -0.026891714 -0.025605617 0.14014429
0.08958656 0.00594666 0.027509466 -0.15395208 -0.00494859 -0.07022894 0.05236238 0.17654213
-0.118220486 -0.05481795 -0.14806905 -0.21795502 -0.19786638 0.043943446 -0.13025683 -0.018741762
-0.11693823 0.054100595 0.03477804 -0.0108853495 0.15702586 -0.0389631 -0.028622232 -0.21145557
0.054922268 0.15698953 0.042059038 0.027910829 0.0031522063 0.0017238786 -0.12111997 -0.042549454
-0.17584649 0.045643836 0.18171363 -0.09443041 -0.028214052 0.20035921 -0.11953188 -0.097104244
0.096864514 0.001977886 0.052707437 0.0102909785 -0.18856694 -0.16939887 -0.002617008 0.053830765

model.1.running_var f4 [256]
00000000: 4d97 883e 6ad8 483e 81bd 613e cca4 393e
00000010: f4df 2f3e 831b fa3d a872 8b3e 5d78 883e
00000020: 151a 973e 463d 563e 73b1 d33d 1ab1 6b3e
00000030: 029d 0c3e b2b2 7d3e efcf 753e 713e 583e
00000040: 08b5 dc3e 95b9 903e ab20 233e 2691 5f3e
00000050: 2980 bc3e 806e 503e e561 f33d b287 c43e
00000060: 2b75 843e 9d21 9a3e f121 4b3e 2200 6a3e
00000070: 9ec6 8b3e 9911 8e3e a564 9e3e d59c 8f3e
00000080: 6724 373e fa45 903e 16bc b33e b04a a73e
00000090: 0549 733e d916 1b3e 08d7 3a3e f2bb 563e
000000a0: fa41 283e bf9d 753e c57c 403e 048d a23e
000000b0: 5a3e 8a3e bac6 033e 42de a13e a0e1 4c3e
000000c0: 23c2 463e 6633 443e 55b0 4e3e 1b45 243e
000000d0: f2ec 9f3e f68f 973d ffd2 4d3e 6124 813e
000000e0: f1a7 5d3e a648 b23e 85bf ac3e 7201 813e
000000f0: d537 513e 0816 cf3e ec74 8d3e 509b 403e
00000100: ac46 0b3e d533 773e eff9 663e 318f 793e
00000110: ba7e 713e 3869 3e3e b489 4f3e e051 6d3e
00000120: 7abb 393e 14ac 583e bd69 6e3e 5249 963e
00000130: d6dc a13e a242 553e 8b81 253e eb38 383e
00000140: 1536 873e e76f ae3e 0e4a 5d3e f708 1c3e
00000150: c34b aa3e 2ba9 c63d 025e 153e b36e 7d3e
00000160: d256 953e 389f 803e 4d62 a53e 8af1 a53e
00000170: f4df 323e 8add 863e 119a 903e 7435 253e
00000180: 64e9 f03d b99c 283e 47d1 973e 654c e23d
00000190: 1072 183e 16b1 7d3e 9568 b03e 60f4 5c3e
000001a0: 583d 7f3e 8439 9d3e 2d20 bc3e c311 613e
000001b0: 9e30 8a3e 2faf 5b3e 5c58 833e a5f9 803e
000001c0: 3f5c 4e3e 8482 343e df81 5d3e cd2e 723e
000001d0: 92d5 6e3e 9a39 783e a9c5 753e 2f62 423e
000001e0: 0eeb 743e aa06 973e b127 993e c22f 9e3e
000001f0: fd73 083e 38a5 fe3e 4e3c 5a3e 4ec6 3b3e
00000200: b636 a03d 7108 0d3e 5fde 993e 7a93 3e3e
00000210: d98e 963e 01fb 413e bb02 5c3e 9bcb f83d
00000220: cc58 df3d 5343 7c3e 4d94 8c3e b455 b23e
00000230: 71d7 233e 078e 163e 44df 953e 4b8e 873e
00000240: e904 bf3e a774 8a3e c0e4 823e bec7 713e
00000250: 0f22 253e e560 863e fe6e 6d3e de40 883e
00000260: e734 8b3e faa2 a03e 513d a33e d6d9 4f3e
00000270: a06b 753e ea1b 313e 8d73 823e b56f 243e
00000280: baec 633e 8a97 5c3e dc27 cc3e fb7a 2b3e
00000290: f05b 8b3e 9320 923e 68ef 603e f6c4 5c3e
000002a0: 578b 3b3e 4be8 7e3e 0e1d 9c3e 6682 953e
000002b0: dee7 943e 12d8 263e 765e 5f3e bb77 3f3e
000002c0: b204 963e 255d cf3e 5ae8 2e3e 0f1b 643e
000002d0: d486 2d3e 0258 233e 9a17 9f3e 1c42 623e
000002e0: 5ecd 463e 3350 773e f955 733e c94a 5a3e
000002f0: 1ea4 153e c86b 913e 1a4f 993e 7145 6c3e
00000300: 7527 363e 3d18 643e c957 813e 3b7f a73e
00000310: 365a 2c3e ec5c 563e 781c 6a3e 522e 883e
00000320: 3d2c 743e a784 8d3e 0247 3b3e b268 503e
00000330: f113 4b3e d0af 743e c90a 533e d7bb 473e
00000340: 52fa 513e 81fa 523e b443 6e3e 463f 733e
00000350: e940 9a3e a612 873e e04b 0c3e 8a95 373e
00000360: 503f 873e 695c 403e 5d00 903e cbca 363e
00000370: d80f 463e b6ef 653e 3934 a63d d6a9 833e
00000380: 5bf9 313e f37e 3e3e 3630 ff3d eaee 9a3e
00000390: 97dd 913e 7a99 343e 6027 2c3e e660 9b3e
000003a0: 2cab 5d3e 9327 2a3e e150 b43e a33e 333e
000003b0: 8a12 ac3e 7501 963e 0f01 533e 8d37 3e3e
000003c0: c7e3 833e 0321 443e 9f80 6f3e 6219 3a3e
000003d0: c36a 9b3e ca50 443e e2a8 253e 1608 763e
000003e0: e659 023e bfb0 893e 64ef 9c3e 2b75 8c3e
000003f0: f897 613e 4e79 3f3e 4499 c53e a28b 193e
0.26677933 0.19613805 0.22044946 0.18129271 0.17175275 0.12212279 0.27235913 0.2665433
0.29512087 0.20921811 0.1033658 0.23016778 0.13731769 0.24775198 0.24005102 0.2111757
0.43106866 0.28266588 0.1593043 0.21832713 0.36816528 0.20354652 0.11883906 0.38384777
0.25870642 0.3010377 0.19837166 0.22851613 0.2729997 0.277478 0.3093616 0.2804934
0.1788498 0.28178388 0.35104436 0.3267417 0.23758323 0.15145434 0.1824609 0.20970133
0.16431418 0.23985957 0.18797596 0.3174821 0.27000695 0.12868777 0.31614882 0.20007944
0.19409995 0.19160232 0.20184453 0.16041987 0.31235462 0.07400505 0.2010002 0.25223067
0.21646096 0.3482105 0.33739868 0.25196415 0.20431454 0.40446496 0.27628267 0.18809247
0.13601178 0.24140866 0.2255628 0.2437103 0.23583499 0.18594825 0.20267373 0.23175764
0.18137923 0.21159393 0.23282523 0.29352814 0.31613797 0.208262 0.16162698 0.17990462
0.2640845 0.3406975 0.21610281 0.15237795 0.33260927 0.09700235 0.14586642 0.2474926
0.291678 0.25121474 0.3230156 0.32410842 0.17468244 0.26340896 0.28242543 0.16133672
0.11763266 0.16466035 0.29651853 0.11049727 0.14887261 0.24774584 0.3445479 0.21577597
0.24925745 0.30707943 0.36743298 0.21979432 0.26990217 0.21453546 0.2565335 0.25190464
0.20152377 0.17627913 0.21631573 0.23650666 0.23323658 0.24240723 0.24001183 0.18982767
0.23917791 0.29497272 0.29913095 0.3089581 0.13325496 0.49735427 0.21312067 0.18337366
0.07822935 0.13772751 0.30052468 0.18610945 0.2940586 0.18943407 0.21485417 0.1214821
0.109056085 0.24635057 0.27456895 0.3483101 0.16000153 0.14702617 0.292719 0.26475748
0.37308434 0.27042124 0.25565147 0.23611352 0.16126274 0.262458 0.23186871 0.2661199
0.271888 0.3137434 0.31882718 0.20297942 0.23966837 0.17295805 0.25478783 0.16058238
0.22258273 0.21542183 0.3987416 0.16746132 0.2721858 0.28540477 0.21966326 0.2155951
0.18314873 0.248933 0.30490917 0.2920105 0.2908315 0.16293362 0.21813378 0.18698017
0.29300457 0.4050075 0.17080823 0.22275947 0.16945964 0.15951541 0.31072694 0.22095531
0.19414279 0.24151687 0.23763265 0.21317591 0.14613387 0.28402543 0.29943162 0.23073365
0.17788489 0.22274871 0.25262287 0.32714257 0.16831288 0.20933884 0.22862422 0.2659784
0.23845 0.27640268 0.18288806 0.20352438 0.19831826 0.23895192 0.20609583 0.19505249
0.20505646 0.20603372 0.23268014 0.23754606 0.30127648 0.26381415 0.13700819 0.17928138
0.2641549 0.18785252 0.28125277 0.17850797 0.19341981 0.22454724 0.081154294 0.25715512
0.17380278 0.18603115 0.124603674 0.30260402 0.28489372 0.17636672 0.16811895 0.30347365
0.21647328 0.16616659 0.35217956 0.17504363 0.33607894 0.29297987 0.20605873 0.18575878
0.25759718 0.19153218 0.23388909 0.18173745 0.3035489 0.19171444 0.16177705 0.24026522
0.12729606 0.2689266 0.3065139 0.27433142 0.22030628 0.18698618 0.38593495 0.14994672

model.3.weight f4 [256, 256]
00000000: 4920 3dbd 88b3 9ebc 7e87 c7bb 5779 0fbc
00000010: 7984 723c ebcd b33c b034 a23c 6cef 803d
00000020: b32f 00bd 5e1e c5bc 5c29 00be ca0a 6a3d
00000030: 7167 433d fa4f c0bc a205 ea3c 1b3c ac3d
00000040: cdb6 ae3c edfd 28bd a6ae 2cbb 3cef 093c
00000050: 663a e0bc 6178 003d 7e63 cd3c 1d8f 803c
00000060: 65f7 833d 9e66 ccbc 3277 773c 0e7c 8e3c
00000070: 021b cb3d 2f86 67bb 2470 12bd d82b 01bd
00000080: 9427 2f3d f637 82bb ed90 ad3c dea8 08bd
00000090: 39b5 b83a 32d6 8e3c 885f 32bd 8814 6d3b
000000a0: 42bb 20bd bb17 2dbc 329a 3dbd 410d c03c
000000b0: 5574 b73c a05d 363c 20dd 1b3d d241 70bc
000000c0: e4fb 11bd 7014 723c e3df db3d 0f1e 9f3c
000000d0: b41a 71bd 081b bf3c b1b9 cbbc 115f 413d
000000e0: 243c 8dbb 4aae adbc 9aa7 123d 42e9 c53c
000000f0: 3faf 1abd bdc8 40bd a861 2d3c 17ca 2e3b
00000100: a780 1ebd 4e5c 5c3d ff42 27bd 7349 8fbb
00000110: 430d a73a 70a3 993c ed83 6d3d 5ab1 ac3c
00000120: 23c0 6fbc 1c11 783d 38bc f43d 05a8 1ebd
00000130: 2099 813c c27b e23c 2f41 2f3d 967b 22bd
00000140: c850 9bbd f199 d93b dc32 e33c b030 25b9
00000150: 73e2 513d 387e 8f3d 3fad cdbd ed72 dfbc
00000160: 725d 103c 3e42 ed3c 0855 22bd 61fc 00bc
00000170: b075 0bbc a165 3c3d a225 a33c 5230 1b3c
00000180: 7874 8e3d ed30 803d be57 f0bc f1ed eb3c
00000190: 9aba 5dbd 52f1 093d 3ec5 a53b 1008 7a3c
000001a0: 11af 313c 2cd2 e9bc 33e6 34bd 7681 9d3a
000001b0: e445 11bc 583c 8ebd 956f 32bd 529c 1f3d
000001c0: f845 b83b 6b81 683b 44c3 ac3b 2753 43bd
000001d0: 78c3 21bd b8f9 35bd 7e54 2c3d ffa2 663c
000001e0: 8940 b1bc 0ff0 f13a 1594 573a 1fb8 c03c
000001f0: 1131 c43d a200 a63d b04e 66bd 01d8 95bc
00000200: aa6c a73d 86e0 41bd 1842 f43c 0884 323d
00000210: 01eb e0bb 297a d3bc f32d 623c f87b ce3c
00000220: fddd ccbc d199 1e3d 1aea 81bc 399d 1f3c
00000230: fda5 4d3b d29e e63c 1d29 c73c c0bf 9a3b
00000240: 8f1e b4bc 1cb5 353d b9a9 c0bc 239a 653c
00000250: f9be edbc 75cc 963a 1a69 d8bc c4d0 f3bb
00000260: df25 643c bf2c f33c 6bab 2d3d dbc6 ad3b
00000270: d781 67bc bd24 333c 96c2 ba3c 5f6e 5dbc
00000280: 07ca 0b3c 8a96 d73c 7c59 413d e9a2 8ebc
00000290: 87e1 8d3c eb42 303c 47f4 3abc e26d 273e
000002a0: 25e6 3cbd 0024 90bc 893d 103d ced8 303d
000002b0: a277 f63c 950c 8dbc 180d 38bd 4e9a c23c
000002c0: 10cd a13d 8ce5 93bd 4347 8d3c 0b42 b53c
000002d0: dac6 2abc ef80 36bd 3d6b 69bd 1d7a cb3c
000002e0: bbce bcbd 156e 56bc 047e 303d fcfd ddbc
000002f0: 751d 1abd a0b3 ad3d d9d8 d13c b4e4 8dbb
00000300: 5d68 41bd b61c 393c ef32 493b 7bf6 583d
00000310: 2b68 21bc 69af c03c 20c1 3b3d a702 ab3c
00000320: a23e f7bc e2df 96bc 730f f2bc 57c1 49bd
00000330: 0e32 0cbc 1ef7 2cbd dd92 46bd e804 883d
00000340: 7499 0a3d d44c 40bc 88b5 573c 895f 183d
00000350: df52 e33c b8f5 99bb 8cff fe3a d621 933d
00000360: bcf6 ceba c126 5eba 911e f4bc 2072 30bc
00000370: f421 0bbc 411a 563a 11d1 ccbb b7fd cf3b
00000380: 43c2 edbc d354 103d 6a1c 97bd e828 b33d
00000390: bfdf 18bb 8c8e 3fbd da58 b13c ca27 38bd
000003a0: 2991 e73c e15d d73c e237 913d 3a28 153d
000003b0: b29e b73b 15b8 f6bc 9178 5c3d ef34 763b
000003c0: 0fcb c03c bc33 873c 3354 59bc 2b58 0c3c
000003d0: bb5b 67bd e47a 83bd 2dd3 10bd edb0 123d
000003e0: 69d2 663c 5178 c73c 8a61 503d 3c7e 67bd
000003f0: 9070 42bd 517c 473d 02b7 6d3c 5770 743c
-0.046173368 -0.019372717 -0.00608915 -0.008756957 0.014802092 0.021948775 0.019800514 0.06295666
-0.03129549 -0.024062332 -0.12515777 0.057139196 0.04770607 -0.023475636 0.028567139 0.08409902
0.0213274 -0.041257787 -0.0026349216 0.008418854 -0.027371597 0.031364802 0.025071856 0.015693242
0.06443671 -0.024951275 0.015104102 0.017393138 0.09917261 -0.0035327782 -0.035751477 -0.031535953
0.042762354 -0.003973956 0.02118727 -0.03336417 0.0014092094 0.01743612 -0.043548137 0.0036175568
-0.039241083 -0.01056474 -0.04628963 0.02344382 0.022394339 0.01113072 0.038052678 -0.01466413
-0.035640612 0.0147753805 0.107360624 0.019423513 -0.058863357 0.02332832 -0.024868818 0.047209803
-0.004310148 -0.021201272 0.03580437 0.024159078 -0.037764784 -0.04706644 0.010582365 0.0026670748
-0.03869691 0.053798966 -0.040835377 -0.0043727695 0.0012745041 0.01875469 0.057987142 0.021080662
-0.014633211 0.06056319 0.119499624 -0.038734455 0.015820086 0.027646903 0.042786773 -0.039668642
-0.07583767 0.0066406657 0.027734213 -0.00015753764 0.05124135 0.07006496 -0.1004281 -0.02727648
0.008811342 0.02896225 -0.039631873 -0.007872672 -0.008511946 0.04599536 0.019915406 0.00947197
0.069558084 0.06259332 -0.029338714 0.028799983 -0.054133035 0.033677407 0.0050589135 0.015260711
0.010844962 -0.0285426 -0.044164848 0.0012016732 -0.008866761 -0.069451034 -0.043563444 0.038967438
0.0056235753 0.003547753 0.005272301 -0.047686722 -0.039493054 -0.044427603 0.042072766 0.014076947
-0.021637218 0.0018458384 0.0008223665 0.023525296 0.09579671 0.081055894 -0.056227386 -0.018291475
0.08175023 -0.047333263 0.029816672 0.043582946 -0.006863952 -0.025815086 0.0138049 0.025205597
-0.025008196 0.03872091 -0.015858699 0.009742075 0.0031379454 0.028151903 0.024311597 0.0047225654
-0.021987228 0.044362172 -0.02351843 0.0140138 -0.029021727 0.0011505025 -0.026417304 -0.0074406583
0.013925045 0.029684423 0.042399805 0.0053032464 -0.014130077 0.010934052 0.022797864 -0.013515084
0.008532054 0.0263169 0.04720448 -0.017411666 0.017319454 0.010758142 -0.011410779 0.1635051
-0.04611792 -0.017595291 0.035214934 0.04317551 0.030086342 -0.017217914 -0.044934362 0.023755219
0.07900441 -0.07221517 0.017245894 0.022126218 -0.0104233865 -0.044556554 -0.056987036 0.024838502
-0.09219118 -0.013087769 0.043088928 -0.027098648 -0.03762575 0.084815264 0.025616096 -0.004330242
-0.04721867 0.011298349 0.0030700525 0.052969437 -0.009851496 0.023521142 0.045838475 0.020875288
-0.030181233 -0.018417303 -0.029548382 -0.04925665 -0.008556856 -0.042227857 -0.048479903 0.06641561
0.03383775 -0.011737067 0.013165839 0.037200484 0.027749477 -0.0046984814 0.0019454821 0.07184188
-0.0015790085 -0.0008474403 -0.029799731 -0.010769397 -0.008491982 0.0008167364 -0.0062505086 0.006347384
-0.029023295 0.035237145 -0.073784664 0.087480366 -0.0023326722 -0.046766803 0.021648813 -0.04495982
0.02826746 0.026289882 0.07090737 0.036415316 0.0056036348 -0.030117074 0.05382592 0.0037568172
0.023534326 0.016504161 -0.013264704 0.008565943 -0.056483965 -0.06419924 -0.035357643 0.03581326
0.014088252 0.024349364 0.05087427 -0.05651687 -0.04747063 0.04870254 0.0145089645 0.014919362

model.3.bias f4 [256]
00000000: 95f4 16bc a9c1 5dbd 3c3b 0d3d 05e3 41bd
00000010: e675 553d 5c58 03bd 0cd4 803d 23a0 3c3d
00000020: ac6d 29bd d890 0dbd a78d 22bd baba 16bc
00000030: e5c3 e2bc d521 273d f237 cb3c f3b8 123d
00000040: c714 42bb 352c 23bc 1a80 a13c 747c 6abd
00000050: 131e 533c a349 34bd 034a 593c 1d9f 59bd
00000060: 7731 3e3d d536 6a3d dd24 063c 2328 14bd
00000070: 447d 4abd 36ca 29bd 6669 263d e6d2 33bb
00000080: 30cd 543d 030b 60bd 1157 45bb 53a1 5d3d
00000090: 286f 52bc 5f83 eebc d3fb 6e3a 2301 ab3b
000000a0: dbec 693d 4909 783d 4b77 1bbd d9bd 063d
000000b0: a14e 31bc adbf 23bd 0f34 19bd c896 5c3d
000000c0: 38e7 713d 6346 493d 391f 5c3d 63ea 2a3d
000000d0: 1fae 12bd 815b 3c3d 2dc4 2abd b871 483d
000000e0: b5b3 923b 10a9 55bc dfe2 373d 97eb 9f3b
000000f0: 6be6 173d e063 573d 4094 40bd 0c38 543d
00000100: 1dd9 103d 559c 5b3d 081e 2ebd 9d19 77bd
00000110: 1bcc 2abd c8c9 61bd 6a5b 06bd e282 7e3d
00000120: 8ca8 fcbc f363 2ebd 2eb4 313d 5852 f7bc
00000130: 1140 493d 7e7d 2a3c ed64 a9bc 1c58 b7ba
00000140: 013d 46bc 30c7 b03c 4ece 4bbd d41f 30ba
00000150: e103 543c 0d2a 1a3d 3772 e23c 3bab c43b
00000160: 9be7 71bd 7892 92bb f167 5e3d 10f0 51bd
00000170: f8ac f1bc 5fcf 083d db97 a23c c6d8 49bd
00000180: 7757 833c 3897 933b 1c27 3fbc a43d 803d
00000190: 9782 2abd 366b 00bd 271f 00bd b1c6 9b3c
000001a0: 7de2 613d 4722 273d 4743 3339 1cfe 133d
000001b0: ec87 1a3d 6a70 fabc 8919 453d 0d1f 38bc
000001c0: 087d f1bc ee4b e4bc 93dd 22bc 71dc f73c
000001d0: 177a 0dbc 855f 5bbd 0415 9c3c 959f 14bd
000001e0: cf8d 603d 9fd7 f8bb 0a25 4a3c c54d 9e3c
000001f0: 5337 46bb 8bfb 45ba 7123 78bd c0c9 743d
00000200: 7bed e3bc d4f5 4bbd a19b 69bb a1db 5bbd
00000210: b993 443d 49b1 48bd 757f 0b3d 3ebf 4abd
00000220: 6417 89bc 1898 1e3d 1548 533d 5a57 acbb
00000230: 069a 6f3d 0a79 24b9 d158 76bd e762 303c
00000240: 296e 553c 0d8d 31bc 477c 6abb 32df 2ebd
00000250: 4afc 0c3d 929a 2e3c a830 22bd f748 1fbc
00000260: 8d76 fe3b 03f7 673b 4ed8 613b 8c05 72bd
00000270: 7711 3bbd 039b 193d 2a1f c23c c397 d4ba
00000280: 7e8d 04bd fe6e 213c d557 10bd 0ee1 733d
00000290: 4033 5fbd b49e b3bc e101 7f3d df49 753d
000002a0: 4a38 d8ba 1fae 23bd bbf0 3538 c4cb ebbb
000002b0: 54dd 633d f10a 4d3d cb23 b1bc f9e6 83bc
000002c0: 695d 1cbd 739c 7b3d 585a 14bd f368 7f3d
000002d0: f8e9 afbc ae34 123d c289 f9bc da82 173d
000002e0: 7ee7 703c ed8f 3f3d 94d4 5fbc b5d4 9bbc
000002f0: 2c6e 8d3b 802e 78bd 07a1 293d edd7 493d
00000300: 7267 b4bc dcce fabc fabe 54bd b8e3 503b
00000310: 2eb5 54bc f870 5abd 185d f6bc 40b2 083c
00000320: 590d 4d3d e90f 673d bbe4 03bd d917 513d
00000330: dce4 2f3d c799 56bd 890c 42bc b398 f7bc
00000340: 0fb1 71bd 76ff b43c 54d0 933b 4310 0dbd
00000350: aa34 85bc d7f3 ccbc d3b6 56bc bb23 923c
00000360: c478 00bc ee24 2e3d 1df9 4e3c 7299 cd3c
00000370: 2101 043d 17c1 73bd d0e8 1fbd 8637 bdbc
00000380: 8e2f a03a dc63 cbbc d0f0 5d3d 71e0 613c
00000390: d9f9 593c 1183 033d 667a a2bc 89c7 d8bc
000003a0: 60e8 e3bc 7ef7 c1bb 608d 1abc 42b0 873c
000003b0: dac5 aabc 1fac d03c 8137 963b 0d55 e43c
000003c0: a4b3 793d a4c0 bc3c 59cf 143d 9eb2 cd3b
000003d0: ce14 d9bc 6453 6ebd 41f4 16bd 17ac 69bd
000003e0: af1b bdbb 66c2 08bc 26f8 bdbb f59d ca3c
000003f0: 37d0 363d 15f0 2abd ff7c 3d3c 18ec 063d
-0.009213586 -0.054139767 0.03448032 -0.047335643 0.05211439 -0.032066688 0.06290445 0.046051156
-0.041364357 -0.034561962 -0.03968587 -0.0091997925 -0.0276813 0.04080375 0.02480695 0.035820913
-0.0029614435 -0.00995927 0.019714404 -0.057247594 0.012885588 -0.044015538 0.013262275 -0.053130258
0.046433892 0.0571812 0.0081875 -0.03617109 -0.04943587 -0.04145261 0.04062786 -0.0027438938
0.051953495 -0.054698 -0.003011171 0.05410893 -0.0128438845 -0.029115377 0.0009116504 0.0052186414
0.05711065 0.06055573 -0.037955564 0.032895897 -0.010821969 -0.03997772 -0.037403163 0.053854734
0.059058398 0.04913939 0.053740714 0.041727435 -0.035810586 0.045985702 -0.041690994 0.048936576
0.004476989 -0.013040796 0.044894096 0.0048803794 0.037084978 0.052585483 -0.047016382 0.051811263
0.035363305 0.053615887 -0.04250911 -0.06032716 -0.041698556 -0.055124074 -0.032802023 0.06213654
-0.030842088 -0.042575788 0.043384723 -0.030190632 0.049133364 0.010405896 -0.020678008 -0.0013988051
-0.012099505 0.021579355 -0.049757294 -0.000671861 0.012940378 0.03763776 0.027642353 0.0060018576
-0.059058767 -0.004473027 0.054298345 -0.051254332 -0.029501423 0.03340089 0.019847801 -0.049278997
0.016032917 0.0045041107 -0.011667039 0.06261757 -0.041628446 -0.031352244 -0.03127971 0.019015642
0.055147637 0.040804174 0.00017095833 0.03613101 0.03772728 -0.030571181 0.048120055 -0.011237872
-0.029478565 -0.027868237 -0.009940523 0.030256482 -0.0086350655 -0.05355789 0.01905299 -0.036285
0.05482274 -0.0075940634 0.012337932 0.019324193 -0.0030245378 -0.00075524364 -0.060580675 0.059762716
-0.0278232 -0.049794987 -0.003564574 -0.05367625 0.04799244 -0.048997197 0.0340571 -0.04949879
-0.016734786 0.038719267 0.051582415 -0.0052594366 0.058496498 -0.0001568535 -0.060143296 0.010765768
0.0130267525 -0.010836852 -0.0035779641 -0.042693324 0.03442029 0.01065697 -0.039597183 -0.009721986
0.007765597 0.0035395033 0.0034461203 -0.05908732 -0.045670953 0.037501346 0.0236965 -0.0016219545
-0.0323615 0.009853123 -0.035240013 0.0595408 -0.054492235 -0.021926261 0.06225765 0.059884902
-0.0016496268 -0.039960977 4.337796e-05 -0.0071959216 0.055630997 0.050059263 -0.021623513 -0.016101347
-0.03817502 0.0614285 -0.03621897 0.062355947 -0.02147387 0.03569477 -0.030461196 0.036990024
0.01470363 0.046768118 -0.013661522 -0.019022325 0.004316112 -0.06059122 0.041413333 0.04927819
-0.022021983 -0.030616216 -0.051939942 0.0031874012 -0.01298265 -0.05333039 -0.030073687 0.008343279
0.050061557 0.056411657 -0.032200556 0.051048134 0.042942867 -0.052392747 -0.011843809 -0.03022418
-0.059006747 0.02209447 0.0045109186 -0.034439337 -0.016260464 -0.025018616 -0.013105112 0.017839303
-0.007841293 0.042515688 0.012632635 0.025097582 0.03222764 -0.059510317 -0.039040387 -0.023097765
0.0012221204 -0.02482789 0.054184735 0.013786421 0.013304197 0.032107417 -0.019833755 -0.026462333
-0.027820766 -0.005919396 -0.0094331205 0.016563538 -0.020846296 0.025472699 0.0045842533 0.027872587
0.060962334 0.023041077 0.036330555 0.0062773963 -0.026499178 -0.058184996 -0.036854032 -0.057048883
-0.0057711224 -0.008347129 -0.005797404 0.024733523 0.044632163 -0.041732866 0.011565446 0.03294
