models/ecoli_core_v2_metabolic_nn.pth (torch, 81721 bytes, 6 tensors)

model.0.weight f4 [128, 20]
0	0xbdceef9c	-0.101042956
1	0xbe34f07d	-0.17669864
2	0x3da330f7	0.07968324
3	0x3de43bba	0.111442044
4	0x3d9ef2a5	0.077611245
5	0x3e64e9a7	0.22354756
6	0xbcc005a8	-0.023440197
7	0x3d5a64e2	0.053318866
8	0x3e6bb7bb	0.23019306
9	0xbe0b4371	-0.13599946
10	0x3dd89dcd	0.10576973
11	0xbc2d3b2d	-0.010573191
12	0xbe271ad3	-0.16318826
13	0x3e2233ee	0.15840122
14	0xbe4f3470	-0.20234847
15	0xbde59598	-0.11210173
16	0x3d13c402	0.0360756
17	0xbe267fe1	-0.1625972
18	0xbe2aeb84	-0.16691405
19	0xbe1008c3	-0.14065842
20	0xbe76039b	-0.24024813
21	0xbe0a813d	-0.13525863
22	0x3d4661d7	0.04843315
23	0xbe345bb8	-0.17613113
24	0xbbc802bf	-0.006103843
25	0xbdd5fe85	-0.104489364
26	0x3e3353d6	0.1751245
27	0x3e755733	0.23959045
28	0x3d85e7d9	0.06538362
29	0x3db59150	0.08865607
30	0xbe677da2	-0.22606519
31	0xbdf6224f	-0.120182626
32	0x3dbd38ec	0.092393726
33	0xbe1d594e	-0.15366098
34	0x3e409987	0.18808566
35	0xbc9f69ce	-0.019459631
36	0xbe3d5dbd	-0.1849279
37	0xbda8de56	-0.08245532
38	0x3d5d0ad4	0.053965405
39	0x3c11bde9	0.008895376
40	0xbe655c93	-0.22398596
41	0xbe0093e5	-0.12556417
42	0xbe3df600	-0.18550873
43	0xbe749e82	-0.23888591
44	0x3d9e9dc0	0.07744932
45	0x3d6014f5	0.054707486
46	0x3e21681a	0.15762368
47	0xbe3244b9	-0.17409028
48	0xbe0f528e	-0.13996336
49	0xbc95d631	-0.018290611
50	0xbe5922ce	-0.21204683
51	0x3d9accfb	0.07558628
52	0x3c8e044e	0.017336037
53	0xbdc64b31	-0.096823104
54	0x3e1d5426	0.15364131
55	0xbdc1d333	-0.09464111
56	0x3a85a4bc	0.0010196189
57	0xbe32d0b7	-0.17462431
58	0xbddb8a0f	-0.10719692
59	0x3d63dceb	0.055630606
60	0x3e132475	0.14369376
61	0x3e367478	0.17817867
62	0xbd844173	-0.06457796
63	0xbe1c42de	-0.15259883
64	0x3e42f466	0.19038543
65	0x3e75261f	0.23940323
66	0x3d36ad71	0.044599
67	0xbdb43d45	-0.08800749
68	0x3e3c4b01	0.18387987
69	0x3c145f06	0.0090558585
70	0x3d50f0e5	0.051010985
71	0xbe0aeec3	-0.13567643
72	0x3e423ef8	0.18969333
73	0x3e3ce6b4	0.18447381
74	0x3e5b5510	0.21419168
75	0xbe649071	-0.22320725
76	0x3c87c600	0.016573906
77	0xbe066f84	-0.13128477
78	0x3e2ef256	0.17084631
79	0x3d9abd2c	0.07555613
80	0x3da7f832	0.082016364
81	0xbdbfad51	-0.09359229
82	0x3d5dc676	0.054144345
83	0xbc0cae60	-0.008586496
84	0x3d4ddb25	0.05025782
85	0x3e704a6a	0.23465887
86	0x3d538653	0.051641773
87	0x3d3dc4cf	0.04633027
88	0xbde7686b	-0.11299213
89	0xbe17c9d8	-0.14823091
90	0x3db063e0	0.086128
91	0xbcbadc46	-0.022810113
92	0x3e613873	0.2199419
93	0x3dc045f6	0.09388344
94	0x3d8a1398	0.067420185
95	0x3e5e9602	0.21736911
96	0xbdd3224e	-0.103092775
97	0x3d25cbba	0.040477492
98	0xbe2df352	-0.1698735
99	0xbd955b6f	-0.0729283
100	0x3df294e5	0.11844806
101	0xbe71056f	-0.23537229
102	0xbe747a62	-0.2387481
103	0xbdcdbce6	-0.10045795
104	0xbe3cf1f8	-0.18451679
105	0x3de7c94d	0.11317692
106	0xbe26fd11	-0.16307475
107	0xbd1bc706	-0.0380316
108	0xbe673841	-0.22580053
109	0xbe8f5beb	-0.27999815
110	0xbe135b14	-0.14390212
111	0x3e0614a8	0.13093817
112	0x3dc97a71	0.09837807
113	0x3daeee95	0.085416
114	0x3e4e8ba1	0.20170452
115	0x3dad8d51	0.084742196
116	0x3ddceb06	0.10787015
117	0xbe3de6b0	-0.18545032
118	0xbd1f60aa	-0.038910545
119	0x3df76e22	0.12081553
120	0xbcd4f838	-0.025997266
121	0x3e5eb8f2	0.21750239
122	0x3dd74a0e	0.10512172
123	0x3e4119f6	0.1885756
124	0xbd2397ce	-0.039939694
125	0x3b8d6c19	0.0043158648
126	0x3db94c49	0.09047753
127	0x3cab722d	0.020928467
128	0xbd80bc45	-0.062859096
129	0xbc093e9f	-0.008376746
130	0x3da8000b	0.08203133
131	0x3d2a90d9	0.041642044
132	0x3e523ffb	0.20532219
133	0x3dc335ed	0.0953177
134	0x3e0cb80c	0.13742083
135	0xbda4ecb2	-0.080529585
136	0xbce52b28	-0.02797468
137	0x3e2aa5e8	0.1666485
138	0x3d909505	0.07059673
139	0xbe5afea0	-0.21386194
140	0xbca8a372	-0.02058575
141	0x3e82f1eb	0.25575194
142	0x3e2008c1	0.1562834
143	0xbd988a13	-0.074482106
144	0x3e32145b	0.17390577
145	0xbd42fa93	-0.047602247
146	0x3d747084	0.059677616
147	0x3e250f60	0.16119146
148	0x3e52f98c	0.20603007
149	0x3df31c68	0.118706524
150	0x3ca8cd1e	0.02060562
151	0x3c81cf94	0.015846051
152	0xbe001cc2	-0.1251097
153	0xbe40b8cc	-0.18820494
154	0x3e38639e	0.18006751
155	0xbe4824f4	-0.19545346
156	0xbda33931	-0.07969893
157	0x3d447c03	0.04796983
158	0xbe02f2ea	-0.12787977
159	0xbe570273	-0.20997028
160	0x3dc18e93	0.09451022
161	0x3d86539c	0.06558916
162	0x3d729453	0.059223484
163	0x3d88dac5	0.06682352
164	0xbd158b04	-0.03650953
165	0x3e1cfeeb	0.15331618
166	0x3e3fd3e4	0.18733174
167	0x3e25b63b	0.16182797
168	0x3e264841	0.162385
169	0x3e35f6d0	0.17769933
170	0xbdee35fe	-0.11631392
171	0xbe0c4c9e	-0.13701102
172	0x3e39fab4	0.18162042
173	0x3d978ae7	0.073995404
174	0xbe5a3189	-0.21307959
175	0xbe169380	-0.14704704
176	0x3d77ecf9	0.06052873
177	0xbe5742c1	-0.21021558
178	0xbd89dfd4	-0.06732145
179	0xbe0101d2	-0.1259835
180	0x3dead8ae	0.114671096
181	0x3e15107d	0.14557071
182	0xbe043553	-0.12910967
183	0xbe1e7f52	-0.15478256
184	0xbdda673f	-0.10664224
185	0xbb62351f	-0.0034516526
186	0xbc590364	-0.013245437
187	0x3cd00c38	0.025396451
188	0xbd89bed4	-0.06725851
189	0x3e1f9ce4	0.15587193
190	0xbdcf839c	-0.10132524
191	0xbe180ceb	-0.14848678
192	0x3d3f41c1	0.046693567
193	0x3daec07d	0.08532808
194	0xbe33356a	-0.17500845
195	0xbe01f2d9	-0.12690295
196	0x3e231c80	0.1592884
197	0xbde0dcdf	-0.10979628
198	0xbc4dbeea	-0.0125577245
199	0xbd8efab3	-0.06981411
200	0xbc9476e5	-0.0181231
201	0xbdb37aa0	-0.08763623
202	0x3d7fc4c4	0.06244351
203	0x3e333ff9	0.17504872
204	0x3e1f7e11	0.15575434
205	0x3d467fef	0.04846185
206	0xbe18b3cd	-0.14912339
207	0xbc36d704	-0.011159662
208	0x3e7fab87	0.24967776
209	0x3e231064	0.15924221
210	0x3cad4934	0.02115307
211	0xbd702cf1	-0.05863661
212	0x3e1d8da5	0.15386064
213	0xbcde06f6	-0.027102929
214	0x3d005d7a	0.031339146
215	0x3d439eac	0.047758743
216	0xbe48caef	-0.19608663
217	0x3e043b88	0.12913334
218	0xbe241200	-0.16022491
219	0x3db2583f	0.08708238
220	0x3dc5c3d1	0.0965649
221	0x3e7c72fa	0.24653235
222	0x3e4a279e	0.19741675
223	0xbb90a4a8	-0.00441416
224	0x3e104f6e	0.140928
225	0x3e069612	0.13143185
226	0x3e05032d	0.12989493
227	0x3de4b399	0.11167068
228	0x3db7b192	0.08969416
229	0x3cad5718	0.021159694
230	0x3df4becb	0.11950453
231	0x3b7fbb2b	0.0039021473
232	0xbdb6a9ad	-0.08919082
233	0xbdb1be27	-0.08678847
234	0xbd94a3d7	-0.072578125
235	0x3e4da447	0.20082198
236	0xbd897a29	-0.06712753
237	0xbda49a65	-0.08037261
238	0xbd29280e	-0.041297965
239	0x3c3dcda5	0.011584674
240	0x3e25a6a3	0.16176848
241	0x3e249a11	0.16074397
242	0xbd491f8c	-0.04910235
243	0x3e0c3363	0.13691477
244	0xbd94d55e	-0.07267259
245	0xbd90417e	-0.07043742
246	0x3e3bdbe3	0.18345599
247	0x3e07db28	0.13267195
248	0xbdc99638	-0.09843105
249	0xbd3826f8	-0.04495904
250	0x3e07e6bb	0.1327161
251	0x3db06f2f	0.086149566
252	0x3d9ff102	0.078096405
253	0x3d8d2ab9	0.06892914
254	0x3e0a9ac0	0.13535595
255	0xbe0dadce	-0.13835832

model.0.bias f4 [128]
0	0x3e5ba770	0.21450591
1	0xbdd716e9	-0.10502417
2	0x3df7bfd1	0.12097133
3	0x3e395883	0.18100171
4	0x3e20d73f	0.1570711
5	0x3dea0ca3	0.114281915
6	0xbe308747	-0.17239104
7	0xbe031706	-0.12801751
8	0xbe0dec6b	-0.13859718
9	0xbc973632	-0.01845846
10	0x3e145c5b	0.14488356
11	0x3e6ece29	0.23320831
12	0xbce1c016	-0.027557414
13	0x3e521319	0.20515098
14	0x3d84b374	0.064795405
15	0xbc5f5875	-0.01363193
16	0x3e4d3533	0.20039825
17	0xbd826e62	-0.0636871
18	0x3e861f73	0.2619587
19	0xbb28225a	-0.002565524
20	0x3cfe79de	0.03106397
21	0xbe06e80d	-0.13174458
22	0xbe137571	-0.14400269
23	0x3e8fdfc6	0.28100413
24	0x3d1f0236	0.038820468
25	0x3e80265a	0.2502926
26	0xbc230179	-0.009949082
27	0x3e316ffd	0.17327876
28	0xbdd53cb7	-0.10411971
29	0xbe37c9ab	-0.17948024
30	0x3e802dfd	0.25035086
31	0x3c1571e0	0.009121388
32	0xbdeda103	-0.11602976
33	0xbc9313cb	-0.017953774
34	0xbd9ab40a	-0.07553871
35	0x3e542903	0.2071877
36	0x3e841d7d	0.25803748
37	0x3e1448c9	0.1448089
38	0x3c8799a2	0.01655275
39	0x3e1535bf	0.14571284
40	0x3d34277a	0.04398296
41	0xbda3f4a6	-0.08005647
42	0xbde4b385	-0.11167053
43	0xbe2cf6f6	-0.16891083
44	0xbe242657	-0.1603025
45	0xbd76a967	-0.06022015
46	0xbc86b2e0	-0.016442716
47	0x3e0f11a9	0.1397158
48	0x3e54ace4	0.20769078
49	0xbdf0bf20	-0.11755204
50	0xbd99310c	-0.07480058
51	0x3e7b3d59	0.24535121
52	0x3e0ebc8e	0.13939115
53	0x3d796d8b	0.060895484
54	0xbe3b848b	-0.1831228
55	0xbe15c0c1	-0.14624311
56	0xbdbc0d1b	-0.09182187
57	0x3e3e0fdc	0.18560737
58	0xbe0ca877	-0.13736139
59	0xbd81c9f3	-0.06337347
60	0xbd66aabe	-0.056315176
61	0x3e8c1b43	0.2736455
62	0x3d855f72	0.065123454
63	0x3e9eac12	0.30990654
64	0x3ddc5f94	0.107604176
65	0x3cbd9680	0.023143053
66	0xbc94b9f0	-0.018155068
67	0xbcc3347b	-0.023828736
68	0xbe1ce1e9	-0.15320553
69	0x3e3edb80	0.1863842
70	0x3e0d739f	0.13813637
71	0xbd42d67f	-0.04756784
72	0x3e728ac6	0.2368575
73	0xbd80073f	-0.06251382
74	0xbd23fa7c	-0.040033802
75	0xbe0011eb	-0.12506835
76	0x3e02a86b	0.12759559
77	0x3d85a42f	0.06525456
78	0x3da52e64	0.08065489
79	0xbd79a07e	-0.060944073
80	0x3abf612a	0.0014601101
81	0x3d1509f0	0.03638643
82	0x3cc4f04c	0.024040364
83	0xbd2ba3fd	-0.04190444
84	0xbe1812ac	-0.14850873
85	0x3e15c7f3	0.14627056
86	0x3d950154	0.07275644
87	0x3e869069	0.2628205
88	0x3e24daea	0.16099134
89	0x3c2754b4	0.010213066
90	0x3dd27946	0.10277037
91	0xbe36a1cb	-0.17835157
92	0xbe441e10	-0.19152093
93	0x3da2676b	0.07929882
94	0x3e31933e	0.17341325
95	0xbd545b1b	-0.051844697
96	0x3e522051	0.2052014
97	0xbdd3dd41	-0.10344935
98	0x3b580a51	0.0032965133
99	0x3dd25ccb	0.10271605
100	0x3b310573	0.0027011305
101	0xbe2f0230	-0.17090678
102	0x3e55f2db	0.20893423
103	0x3d9d41e4	0.07678583
104	0xbda1e453	-0.079048775
105	0xbd8cef8b	-0.06881627
106	0xbdb794bc	-0.08963916
107	0x3ca41668	0.020030215
108	0xbe5a0a84	-0.21293074
109	0xbdfb09f1	-0.122577555
110	0xbe544a67	-0.20731507
111	0x3dd8d459	0.10587377
112	0x3da19a68	0.07890779
113	0x3dcb1b43	0.09917309
114	0x3dfe7ae4	0.12425783
115	0xbe0baa25	-0.13639124
116	0x3e50dae7	0.20396005
117	0xbdbeb5e5	-0.093120374
118	0xbcfa88f5	-0.030582884
119	0x3e76c8aa	0.24099985
120	0x3cee70c4	0.029106505
121	0x3e578c82	0.21049693
122	0xbb69abc4	-0.0035655359
123	0x3d533069	0.05155984
124	0xbded4646	-0.11585669
125	0xbe05eb58	-0.13078058
126	0x3e98edff	0.29869077
127	0xbc34b34a	-0.011029074

model.2.weight f4 [128, 128]
0	0xbd162d55	-0.036664326
1	0x3dc3b793	0.095564984
2	0x3dc67f55	0.096922554
3	0xbd585396	-0.05281409
4	0xbd11c5aa	-0.035588898
5	0xbc104c6b	-0.008807282
6	0x3bc02ca1	0.005864695
7	0x3cecf5f6	0.028925877
8	0xbdc44a80	-0.09584522
9	0x3d7ef734	0.06224747
10	0xbc0638d8	-0.008192264
11	0x3d82e3d9	0.06391115
12	0xbdb61814	-0.08891311
13	0x3d7e1df8	0.0620403
14	0x3daa1a91	0.083058484
15	0x3ca803e7	0.020509673
16	0x3dcd102d	0.10012851
17	0x3cd72eb9	0.026267396
18	0xbd9f79c9	-0.077869006
19	0xbd590f5a	-0.052993156
20	0xbd4e1cfa	-0.050320603
21	0x3d0f29c6	0.034951948
22	0x3db2c9ff	0.08729934
23	0xbd125854	-0.035728768
24	0xbc1d0729	-0.009584227
25	0x3de215d4	0.1103932
26	0x3d3d514c	0.04622011
27	0x3d6b2561	0.057408694
28	0x3d6625e3	0.056188475
29	0xbc7c0765	-0.015382622
30	0xbc4afc86	-0.012389308
31	0x3d18f68d	0.037344504
32	0x3d660d7d	0.056165207
33	0xbc83bee5	-0.016082237
34	0x3d5fa514	0.05460079
35	0x3d256b4f	0.04038554
36	0xbd649f1f	-0.055815812
37	0x3cf5939f	0.029977618
38	0x3de9e10a	0.11419876
39	0x3d91040b	0.07080849
40	0x3d7acaf4	0.061228707
41	0xbcd7ef9a	-0.026359368
42	0x3ddfe00e	0.10931407
43	0x3cb6390c	0.022243999
44	0x3d4e6c40	0.050396204
45	0xbcdeddc9	-0.027205365
46	0x3a63f8b0	0.000869642
47	0x3d4e5f51	0.05038387
48	0xbb7324f3	-0.003710088
49	0xbc9f9336	-0.019479375
50	0x3deae404	0.11469272
51	0xbd00548d	-0.031330634
52	0x3dc11275	0.094273485
53	0xbd56f543	-0.052479994
54	0xbc126df4	-0.008937348
55	0x3dfd523c	0.123692006
56	0x3cf4ea49	0.029896872
57	0x3d722bed	0.059123922
58	0xbc82c207	-0.01596166
59	0x3dde2781	0.108473785
60	0x3c18a93e	0.009317694
61	0x3d1241b7	0.0357072
62	0x3cb01e6d	0.021498883
63	0x3db7d71b	0.08976575
64	0xbcdc087f	-0.02685952
65	0x3d5fdaf5	0.054652173
66	0x3c1c29d3	0.009531456
67	0xbd4650e7	-0.048417
68	0x3d14d429	0.036335144
69	0x3c6bbc89	0.014388212
70	0x3dab5c67	0.08367234
71	0xbd0ed9ee	-0.034875803
72	0x3d2499e0	0.04018581
73	0xbc6cd628	-0.014455356
74	0x3ba69852	0.005084076
75	0x3de56209	0.11200339
76	0xbd6cf452	-0.05785019
77	0xbd4336ee	-0.047659807
78	0x3d0ea654	0.03482659
79	0x3d925ab6	0.07146208
80	0xbd0586d7	-0.032599296
81	0x3c6ff286	0.014645224
82	0x3d4c689c	0.04990445
83	0xbc793986	-0.015211469
84	0x3dbb4b29	0.09145195
85	0x3d9d3bd9	0.07677431
86	0x3d127708	0.03575805
87	0x3d42965f	0.047506686
88	0x3c5b42b5	0.013382603
89	0xbc8dd996	-0.017315667
90	0x3dd4a0ef	0.10382258
91	0x3cdf3de2	0.027251188
92	0x3df295ff	0.11845016
93	0x3d0e7000	0.03477478
94	0x3ca0cc01	0.019628527
95	0xbd02dbe9	-0.031948004
96	0xbc9d01a2	-0.019165818
97	0x3b58c38a	0.0033075535
98	0x3dad55f0	0.08463657
99	0x3d0c390d	0.034234095
100	0x3c8b9c92	0.017042432
101	0x3d8b44c4	0.068002254
102	0xbd13dcef	-0.03609937
103	0xbd35d74a	-0.04439477
104	0x3d72cd11	0.059277598
105	0xbc5c9f67	-0.013465739
106	0x3d11c9c6	0.035592817
107	0x3d830768	0.06397897
108	0x3c507f58	0.012725674
109	0xbdaaa84b	-0.083328806
110	0x3a3d9833	0.0007232457
111	0x3d17df38	0.037078112
112	0xbc5ae41d	-0.0133600505
113	0xbc8e4fa4	-0.01737196
114	0x3ae7506a	0.0017647867
115	0x3d8222e7	0.06354313
116	0xbd119152	-0.03553898
117	0x3bca879f	0.006180718
118	0x3d32b4c6	0.04362943
119	0x3d8cc1a4	0.068728715
120	0x3c8bb31b	0.017053178
121	0x3d8ef411	0.06980146
122	0xbd7732d9	-0.060351226
123	0x3bbdccfe	0.0057922592
124	0x3ddc4026	0.10754423
125	0x3d450f62	0.048110373
126	0x3d03f584	0.032216564
127	0xbd1d2611	-0.03836638
128	0x3d4b6272	0.04965443
129	0x3d8f39bd	0.069934346
130	0xbc3c548e	-0.011494769
131	0xbcffb8dd	-0.03121608
132	0xbd077b83	-0.033076774
133	0xbc59f67a	-0.0133033935
134	0xbd24829f	-0.040163632
135	0x3c916c09	0.01775171
136	0xbd9fc0c7	-0.07800441
137	0xbd6f2f92	-0.058394976
138	0x3c566cd9	0.013087475
139	0x3d1dc9c7	0.038522508
140	0x3b91e6e9	0.0044525755
141	0x3db72af9	0.08943743
142	0xbd69ab71	-0.057048265
143	0x3d43e1c9	0.047822747
144	0xbbbf95e1	-0.0058467244
145	0x3c8af6fd	0.016963476
146	0x3d1e6d54	0.038678482
147	0x3c4f90c2	0.01266879
148	0x3d466efb	0.048445683
149	0x3d0a4731	0.0337593
150	0xbbd3cd83	-0.006463708
151	0x3b7e1e82	0.0038775508
152	0x3bdab24c	0.0066740867
153	0xbcb6db3a	-0.022321332
154	0xbb4bdd40	-0.0031107217
155	0x3da69753	0.081343316
156	0xbba84880	-0.005135596
157	0x3d356ca6	0.04429307
158	0x3b906ddd	0.004407628
159	0xbd05e54f	-0.03268939
160	0xbd23d7cd	-0.040000726
161	0x3d8c725e	0.06857751
162	0x3d8e859f	0.0695908
163	0xbde2a18d	-0.110659696
164	0xbd14cbcd	-0.036327172
165	0xbd1f7354	-0.038928345
166	0x3d4f0b9a	0.050548173
167	0xbd924db3	-0.07143726
168	0xbd9a7e97	-0.07543676
169	0x3d96d335	0.07364503
170	0x3dc8d80a	0.09806831
171	0xbde49157	-0.11160534
172	0xbda714cb	-0.08158263
173	0xbd6fb779	-0.058524583
174	0xbe1d8d00	-0.15385818
175	0xbd5c3661	-0.053762797
176	0xbd34ca52	-0.04413826
177	0x3dac9209	0.084262915
178	0xbe010a48	-0.12601578
179	0x3d16c850	0.036812127
180	0xbd205c2f	-0.039150413
181	0xbc1c0e32	-0.009524869
182	0x3d3d8753	0.046271633
183	0x3d67bf14	0.05657871
184	0x3e03610f	0.12829994
185	0xbd958991	-0.07301629
186	0x3dcd40e1	0.1002214
187	0x3ddab547	0.10679107
188	0xbd7ef649	-0.062246595
189	0xbd2a934d	-0.041644383
190	0x3d424c18	0.04743585
191	0xbda41673	-0.08012094
192	0xbd87fb6e	-0.06639753
193	0xbca1bc66	-0.019743156
194	0xbd82f17f	-0.06393718
195	0xbd01b798	-0.03166923
196	0xbc387f5b	-0.011260833
197	0x3dd1c755	0.10243098
198	0x3d1b1a22	0.03786672
199	0x3d2610bc	0.040543303
200	0x3bf97806	0.007613185
201	0x3cd9949a	0.026560117
202	0x3ddf51fa	0.10904308
203	0x3da4a519	0.080393024
204	0xbc9aa68c	-0.018878244
205	0xbccd9772	-0.025096629
206	0xbccb5d6d	-0.024824822
207	0xbd4f229a	-0.050570108
208	0x3d67574c	0.056479737
209	0x3c7772ae	0.015103025
210	0x3c0b013a	0.008484179
211	0x3dd543c4	0.10413316
212	0xbd67bcd5	-0.05657657
213	0xbd84f2b8	-0.064916074
214	0x3de03ada	0.10948725
215	0x3db7f500	0.08982277
216	0x3d541cc0	0.05178523
217	0xbd262215	-0.040559847
218	0xbc91cedf	-0.01779884
219	0xbcbfa853	-0.023395693
220	0x3c71dc89	0.014762052
221	0xbb7730f0	-0.0037718378
222	0x3c99d281	0.018777134
223	0xbde0be4b	-0.109737955
224	0xbd7b7cbf	-0.061398264
225	0xbceeb1dc	-0.029137544
226	0x3daaf329	0.0834716
227	0x3db1b31a	0.08676739
228	0xbd61c761	-0.055121783
229	0x3d9369fd	0.0719795
230	0x3d951943	0.07280209
231	0x3c4a8e56	0.012363037
232	0xbd1e127a	-0.03859184
233	0xbb325dfc	-0.0027216664
234	0xbd2ac51e	-0.04169189
235	0xbc1de736	-0.0096376445
236	0xbdf142c3	-0.11780312
237	0x3dbdf5a8	0.09275371
238	0x3cbf42aa	0.023347218
239	0xbcae0c93	-0.02124623
240	0x3d124eb0	0.035719573
241	0xbdc7e384	-0.09760192
242	0xbd949adf	-0.07256102
243	0xbdb23f5f	-0.08703493
244	0xbd42a77b	-0.047523003
245	0xbd265835	-0.040611465
246	0xbce5c9be	-0.0280503
247	0xbd833e8a	-0.06408413
248	0x3d85f4a7	0.06540804
249	0xb7f06b29	-2.866013e-05
250	0x3d431957	0.047631588
251	0x3d04329b	0.032274824
252	0x3d5ac46c	0.05340998
253	0xbca7c8b7	-0.02048145
254	0xbd8216c3	-0.06351998
255	0x3bc70948	0.0060741045

model.2.bias f4 [128]
0	0x3df51cf3	0.11968412
1	0x3dd19c11	0.102348454
2	0x3d1d8fef	0.038467344
3	0x3ddc8c51	0.10768951
4	0x3d84bfee	0.0648192
5	0x3d7b4d50	0.061353028
6	0xbd5c85fa	-0.053838708
7	0xbd39810c	-0.045289084
8	0x3d490036	0.049072467
9	0x3b0137f6	0.0019717193
10	0xbcab7ce5	-0.020933578
11	0xbd938cfe	-0.072046265
12	0x3cf68897	0.030094428
13	0xbd02e56f	-0.031957086
14	0x3db7d7ab	0.08976682
15	0xbda5d967	-0.08098107
16	0xbdaf3f0d	-0.08556948
17	0xbd306406	-0.04306414
18	0x3de0277f	0.10945033
19	0x3d095c89	0.033535514
20	0x3e15f8a5	0.14645632
21	0xbcacb227	-0.021081043
22	0x3cd4469b	0.025912574
23	0xbd6d7941	-0.057976965
24	0x3bd11d2c	0.0063816514
25	0xbd39affe	-0.045333855
26	0x3de0aeaa	0.109708145
27	0x3d336c2c	0.043804333
28	0x3d29f351	0.04149181
29	0x3c90eb01	0.017690184
30	0x3d8a37b2	0.06748904
31	0xbcc1c2d8	-0.023652479
32	0x3d64a7c9	0.055824075
33	0x3b7532a8	0.0037414227
34	0xbdda42e0	-0.10657287
35	0x3b347b07	0.002753915
36	0x3de82853	0.11335816
37	0xbc189632	-0.009313153
38	0x3d8fdedc	0.07024929
39	0xbd820a42	-0.06349613
40	0xbb9d7bf7	-0.0048060375
41	0x3dbe7a5b	0.09300681
42	0x3dad533a	0.0846314
43	0xbc83f2f4	-0.01610706
44	0x3b613889	0.0034365973
45	0x3d26e37b	0.040744286
46	0xbd8a7c15	-0.06761948
47	0xbd899939	-0.06718678
48	0x3cd48a8f	0.025944976
49	0x3d6db908	0.058037788
50	0x3dbe6a66	0.09297638
51	0x3ce90a6d	0.028447354
52	0xbd3a8156	-0.0455335
53	0x3c98d311	0.018655332
54	0x3ce27e08	0.027647987
55	0x3d9e1cd9	0.07720346
56	0x3d91f98f	0.07127678
57	0x3db41a43	0.087940715
58	0x3dc69333	0.09696045
59	0xbd41baea	-0.047297396
60	0xbaf9c993	-0.0019057266
61	0xbcbcb807	-0.02303697
62	0x3dca50e8	0.09878713
63	0x3bea4dd1	0.0071503897
64	0xbdae3367	-0.08505898
65	0x3c0538bf	0.008131205
66	0x3abb59ee	0.0014293769
67	0x3dd18935	0.10231248
68	0xbbdb7dc5	-0.0066983425
69	0xbdac2fa8	-0.08407527
70	0xbd2a578b	-0.041587394
71	0x3d3c3f01	0.045958523
72	0x3d9c54fb	0.07633396
73	0xbd630d5e	-0.05543267
74	0x3c88131c	0.016610675
75	0x3d469930	0.048485935
76	0x3c4d4ca0	0.012530476
77	0x3dc1e865	0.09468154
78	0x3d910ce8	0.0708254
79	0x3d459595	0.048238356
80	0x3cbd1e8f	0.02308586
81	0x3da8c0f8	0.08239931
82	0x3c675b0a	0.0141208265
83	0xbd34714f	-0.044053372
84	0xbcded6e2	-0.027202073
85	0xbd05ec7d	-0.032696236
86	0xbd281bc8	-0.04104212
87	0xbd6eec01	-0.05833054
88	0x3da15abc	0.07878634
89	0x3d151549	0.036397252
90	0x3d806a56	0.06270282
91	0xbb5dcad3	-0.0033842816
92	0xbdbb55fd	-0.0914726
93	0xbd6b5993	-0.05745847
94	0xbd0fbdba	-0.035093047
95	0xbdbf2df8	-0.0933494
96	0xbc4821a4	-0.012215052
97	0x3d1ff29b	0.039049726
98	0xbba23f88	-0.004951421
99	0xbd220fb7	-0.039565768
100	0xbd4d9936	-0.05019494
101	0xbc905edf	-0.017623363
102	0x3d0ad5e1	0.033895377
103	0x3d574a3e	0.052561037
104	0xbd908137	-0.07055896
105	0xbd3016d9	-0.04299054
106	0xbd84a8ce	-0.064775094
107	0xbdc780fe	-0.097414
108	0xbc025179	-0.007953995
109	0xbcf7b786	-0.030238878
110	0x3ca54fb0	0.0201796
111	0x3dad8e79	0.0847444
112	0xbbe5d49e	-0.0070138713
113	0x3d02ac5b	0.031902652
114	0xbd8dff3e	-0.06933449
115	0x3cf9d873	0.030498719
116	0x3d011daf	0.03152245
117	0x3de1648b	0.11005505
118	0x3b6f739f	0.0036537421
119	0x3dec3212	0.11532988
120	0x3db67a8a	0.08910091
121	0xbd897dfe	-0.06713484
122	0xbd9f832f	-0.07788693
123	0xbdcd4ede	-0.10024808
124	0x3da38e7e	0.079861626
125	0x3cbbb44d	0.022913123
126	0xbb9fe702	-0.004879833
127	0xbcc15fb6	-0.023605209

model.4.weight f4 [3, 128]
0	0xbda3ba6c	-0.079945415
1	0x3c265c9a	0.010153914
2	0x3ca18f3a	0.019721616
3	0xbd62b479	-0.055347893
4	0xbd296cfc	-0.0413637
5	0xbdd3262e	-0.103100166
6	0xbd1bbb1c	-0.03802024
7	0x3c8a33af	0.016870348
8	0xbd029284	-0.03187801
9	0x3d830f3f	0.06399392
10	0x3cfe6664	0.031054683
11	0x3bad9b89	0.0052980823
12	0x3de2ef69	0.1108082
13	0x3d4ba42f	0.049717125
14	0xbd6682b1	-0.05627698
15	0x3d963214	0.073337704
16	0x3bae464f	0.00531844
17	0x3d81492b	0.06312784
18	0x3c5e6454	0.013573725
19	0x3d9daf9d	0.07699511
20	0x3d9b1aa4	0.07573441
21	0x3c0b4918	0.008501314
22	0xbd835436	-0.06412546
23	0xbd47bc04	-0.04876329
24	0x3dd19833	0.10234108
25	0x3d5bcd12	0.053662367
26	0xbd87b4b8	-0.06626266
27	0x3d37a811	0.044838015
28	0x3da30fb8	0.079619825
29	0x3d601090	0.054703295
30	0xbd8922b3	-0.066960715
31	0x3cf23353	0.029565489
32	0xbd437d6a	-0.047727026
33	0x3d8ed489	0.069741316
34	0xbe153f83	-0.14575009
35	0x3b9fa3f6	0.0048718406
36	0xbdb683f5	-0.089118876
37	0x3d7a6ab9	0.061136935
38	0x3db3ffa0	0.08788991
39	0xbd620876	-0.05518385
40	0xbd7c7a58	-0.061640114
41	0xbd36552a	-0.044514813
42	0x3d57ba86	0.052668117
43	0xbcd4b57f	-0.02596545
44	0xbc8fd721	-0.017558636
45	0xbc677413	-0.014126795
46	0xbd51a75e	-0.051185004
47	0x3deeb57b	0.116557084
48	0xbd7dbbed	-0.061946798
49	0xbd8b71c8	-0.068088114
50	0x3dede40b	0.11615761
51	0xbd90f5db	-0.07078143
52	0xbcbaecd0	-0.022818
53	0x3d8b336c	0.06796917
54	0xbc1a2f3f	-0.009410678
55	0x3d5a98e2	0.053368457
56	0xbdc788c0	-0.0974288
57	0xbc2f70ad	-0.010708016
58	0xbbf6bbfe	-0.0075297346
59	0xbbf377b5	-0.0074300417
60	0xbd95d075	-0.07315151
61	0x3d9e50eb	0.07730278
62	0xbdbb75f6	-0.09153359
63	0xbdc854fe	-0.09781836
64	0xbd60b3db	-0.054859024
65	0x3d74fc33	0.05981083
66	0xbbcf06a7	-0.0063179317
67	0x3cc66c5a	0.024221588
68	0x3d96b6ad	0.073590614
69	0x3da0c80c	0.07850656
70	0xbd0e3ff6	-0.034728967
71	0x3d86b5f9	0.06577677
72	0xbd96d26e	-0.07364355
73	0xbc16d847	-0.009206838
74	0x3ddf460e	0.10902034
75	0x3d891c05	0.066947974
76	0x3ddc5a97	0.10759466
77	0xbd60bc28	-0.05486694
78	0xbdc72ec7	-0.09725719
79	0x3d652ac0	0.055948973
80	0x3d574df1	0.052564565
81	0xbc88d883	-0.016704803
82	0xbc667e7b	-0.014068241
83	0xbc3d0f4b	-0.011539291
84	0x3cc9ab72	0.024617884
85	0xbd1abf84	-0.0377803
86	0x3c2f872e	0.010713382
87	0xbc1cfd7c	-0.00958192
88	0xbda0e71c	-0.078565806
89	0x396376ac	0.00021692616
90	0xbd850ef2	-0.06496991
91	0xbd1a2f88	-0.037642986
92	0x3d515827	0.05110946
93	0xbcf8e8ad	-0.030384386
94	0xbd34d2e9	-0.044146452
95	0xbdb14f9d	-0.08657763
96	0xbcf07385	-0.029351959
97	0xbdafd3d5	-0.08585326
98	0xbd3cc24b	-0.04608373
99	0xbda19192	-0.078890935
100	0xbd226964	-0.03965129
101	0x3ded78f3	0.11595335
102	0x3d9f748e	0.07785903
103	0x3dcd57f9	0.10026545
104	0xbd61d584	-0.055135265
105	0xbd32fdf0	-0.043699205
106	0x3dd5729a	0.10422249
107	0xbd7ce8cc	-0.06174545
108	0xbda260fc	-0.079286546
109	0xbbf1c666	-0.0073783873
110	0xbd689827	-0.05678573
111	0xbdcb4527	-0.09925299
112	0x3d2802ce	0.0410183
113	0x3dce14a4	0.10062531
114	0x3c10c78f	0.008836641
115	0x3dc79664	0.097454816
116	0x3cbe4ce7	0.02323003
117	0xbd996654	-0.07490221
118	0xbcfb18bc	-0.030651443
119	0xbda3c20b	-0.07995995
120	0x3b9e6600	0.0048339367
121	0xbd942583	-0.07233717
122	0x3dabf4fd	0.08396337
123	0x3bba58ff	0.0056868787
124	0xbc175e5e	-0.0092388075
125	0xbdbc9f02	-0.09210016
126	0xbb23c029	-0.0024986363
127	0xbd5e191c	-0.054223165
128	0x3b7b78c3	0.003837154
129	0xbdbfa693	-0.093579434
130	0x3bbb1c37	0.0057101506
131	0xbc8a3841	-0.016872527
132	0xbd1c0fa8	-0.03810087
133	0xbd473cdb	-0.04864202
134	0xbdc50ff2	-0.09622182
135	0x3d6dea22	0.058084615
136	0x3d44c239	0.048036788
137	0xbd8d3c45	-0.06896261
138	0x3def5f5d	0.11688111
139	0xbcc515db	-0.024058273
140	0x3bde01d4	0.0067751203
141	0xbd90b1fe	-0.07065199
142	0x3c0f45e5	0.0087446915
143	0x3d9dfbc4	0.07714036
144	0x3d95d66d	0.07316289
145	0x3c452f26	0.012035167
146	0xbd6b0f0d	-0.0573874
147	0x3d6f4f7e	0.05842542
148	0xbc266aa8	-0.010157265
149	0x3cf8b4ef	0.030359713
150	0x3c2142e4	0.009842608
151	0xbc46ba32	-0.012129353
152	0x3d9d86fd	0.076917626
153	0xbcf0be78	-0.029387698
154	0xbd4ecd06	-0.050488494
155	0xbdcde96a	-0.10054286
156	0x3d8c5ad3	0.06853261
157	0x3d18d266	0.037310027
158	0xbc5a1a0b	-0.013311873
159	0x3dd4b35f	0.10385775
160	0xbd2acd77	-0.041699853
161	0xbd19f3bd	-0.037585963
162	0xbd4c594b	-0.049889844
163	0x3d33cc49	0.043895993
164	0xbc3dbabd	-0.011580166
165	0xbd1dd117	-0.03852948
166	0xbd2270e5	-0.039658446
167	0xbcaa5f1e	-0.020797309
168	0xbafc580f	-0.0019252318
169	0xbd2dff79	-0.042479966
170	0x3dcdfbce	0.100577936
171	0x3cfed1ed	0.03110596
172	0x3c0cc4d3	0.008591848
173	0x3daba335	0.08380739
174	0x3d7c602e	0.06161516
175	0x3d123244	0.03569247
176	0xbcfa0bd3	-0.030523216
177	0xbdea89d5	-0.114520706
178	0x3d8e6c62	0.06954266
179	0xbd2fcbfa	-0.042919137
180	0xbdb7499c	-0.08949587
181	0x3c1d20b5	0.0095903175
182	0xbd7da5d5	-0.061925728
183	0xbda07d38	-0.078363836
184	0xbd862cac	-0.06551489
185	0xbd84163e	-0.06449555
186	0xbd560ea7	-0.052260067
187	0x3da02582	0.07819654
188	0xbd5ff5ff	-0.05467796
189	0xbd695648	-0.05696705
190	0x3d2b05a6	0.041753434
191	0x3cdd2d12	0.02699903
192	0x3ca629b8	0.020283565
193	0x3d3ea874	0.04654737
194	0x3dc0ed42	0.09420253
195	0xbd546fdf	-0.0518645
196	0x3da1013c	0.078615636
197	0x3cf61d46	0.030043256
198	0x3d90ab93	0.07063975
199	0xbd570fe1	-0.052505378
200	0xbcef2444	-0.029192097
201	0x3dc1057d	0.09424875
202	0xbd7d2974	-0.06180711
203	0x3dbc762e	0.092022285
204	0x3ddd1cdb	0.10796519
205	0xbdde85d0	-0.108653665
206	0xbdb3a1a2	-0.087710634
207	0x3d4af9c4	0.0495546
208	0xbd59cf4c	-0.05317621
209	0xbd6a78f0	-0.05724424
210	0x3df0bb3c	0.11754462
211	0xbd8a4d2d	-0.06753001
212	0x3dee033d	0.116217114
213	0xbc16771a	-0.009183669
214	0x3c5b0b0c	0.013369333
215	0xbd860b0b	-0.06545075
216	0xbd1a29ba	-0.03763745
217	0xbce1a4b4	-0.027544357
218	0xbdb898c7	-0.09013515
219	0xbd1bfc50	-0.03808242
220	0xbd009b30	-0.031398
221	0xbd3070c2	-0.043076284
222	0x3d007863	0.03136481
223	0x3da01c7b	0.07817932
224	0x3d060684	0.032721058
225	0xbdc6f987	-0.09715562
226	0x3debf83e	0.11521958
227	0xbcdffafc	-0.027341358
228	0x3dba47f2	0.09095754
229	0x3da76be7	0.081748776
230	0xbd836f4f	-0.06417715
231	0x3d76d364	0.06026019
232	0xbdb88963	-0.090105794
233	0x3da3da47	0.080006175
234	0x3c76a098	0.015052937
235	0xbd9880c4	-0.07446435
236	0x3d0d2c9a	0.034466363
237	0x3dd6decf	0.10491716
238	0x3c2bc04d	0.01048286
239	0xbd999d09	-0.07500655
240	0x3d94d2b1	0.07266749
241	0x3dc8ec35	0.09810678
242	0xbd5634fe	-0.05229663
243	0xbaa9e25c	-0.0012961137
244	0x3d840231	0.064457305
245	0xbdb31eef	-0.087461345
246	0xbc9222c9	-0.017838852
247	0x3c969657	0.018382234
248	0xbd8cfaf8	-0.06883806
249	0x3bb1766c	0.0054157283
250	0x3d954d06	0.07290082
251	0xbd5393e6	-0.05165472
252	0xbd1df4a1	-0.038563374
253	0xbcd4504d	-0.025917197
254	0x3c892e7c	0.016745798
255	0xbce744c0	-0.028231025

model.4.bias f4 [3]
0	0xbd62e355	-0.055392582
1	0x3d244f5f	0.040114757
2	0x3cd8e2fc	0.026475422
