models/ecoli_core_v3_metabolic_nn.pth (torch, 83769 bytes, 6 tensors)

model.0.weight f4 [128, 20]
000000 ca a0 3d 3e e3 71 01 3e 0e 70 d8 bd 3d c3 b0 bd
       0.18518367 0.126411 -0.10568248 -0.08630989
000010 4f 4a 16 be 0b 4d f8 bd a1 1d a6 3c 6e 2c 77 3d
       -0.14676784 -0.1212407 0.0202778 0.060345106
000020 65 f8 d8 bd e8 6d 1f 3d a1 e4 74 3e a2 48 fe ba
       -0.105942525 0.038923174 0.2391534 -0.0019400308
000030 37 e4 67 3e 5b 3d bf 3d 6c 8a 5a bd 55 98 2b be
       0.22645651 0.093378745 -0.053354666 -0.16757329
000040 20 b8 6c bc 73 68 ad 3d a2 8e 5a be aa 3e 89 bb
       -0.014448196 0.08467188 -0.21343473 -0.0041883783
000050 aa 19 0a be 98 5d 37 3e 91 ff 36 be 1c bf 50 be
       -0.13486353 0.17906797 -0.17870928 -0.20385402
000060 d8 52 11 3e ff ab 1b be d7 71 65 be 2a 99 06 3e
       0.14191759 -0.1520233 -0.22406708 0.13144365
000070 8d e2 68 be 3d 4b 21 3e 0a 1a 00 be db ca 2c 3e
       -0.22742672 0.15751357 -0.12509933 0.16874258
000080 76 07 90 be 18 08 98 bd cf b6 b5 3d 45 6d 53 3e
       -0.28130692 -0.07423419 0.088727586 0.20647152
000090 81 de fc bc ef eb 25 be 91 ae 90 3d 85 61 10 be
       -0.030867817 -0.16203283 0.07064546 -0.14099701
0000a0 fd 05 dc bd 29 80 4e 3e 99 b9 79 3d 44 02 34 3e
       -0.1074333 0.20166077 0.060968015 0.1757899
0000b0 91 8f c7 3c 08 db 37 3c 8d 44 07 3e 2e f1 7c be
       0.02436045 0.011221655 0.13209744 -0.24701378
0000c0 dd db c7 bd ab 15 56 3d 56 1f 39 bd 67 80 52 be
       -0.097587325 0.052266758 -0.0451959 -0.20556794
0000d0 37 f0 06 3e 83 53 a0 3b 7a 1e 80 3d e1 69 34 3e
       0.13177572 0.004892768 0.06255813 0.17618515
0000e0 b8 62 3d 3e 61 35 01 3e b9 5d aa bc c5 8f 32 3d
       0.1849469 0.12618019 -0.020796644 0.04359414
0000f0 f0 2c f5 bd 48 10 71 be 38 12 1d be db 72 c6 bd
       -0.11971462 -0.23541367 -0.15338981 -0.09689876
000100 9e 4c 52 be 26 66 43 be 4c eb 67 be 39 c6 a9 bd
       -0.2053704 -0.19081935 -0.22648352 -0.08289761
000110 61 a7 7e 3a b3 8a f8 bd 25 68 86 3d e1 91 70 3d
       0.00097142725 -0.1213583 0.06562833 0.05873287
000120 3d a8 6f bd cd cf 85 3d 49 8b 0d bd d7 a7 63 be
       -0.058510054 0.065337755 -0.03455666 -0.22231995
000130 2b 5f c4 3c 18 5b 54 be 8e e0 55 3e bc 18 ce 3d
       0.02397116 -0.20737875 0.20886442 0.100633115
000140 f4 fd c2 bd 05 0f 6a 3d 6d c0 d3 bd 57 34 36 be
       -0.09521094 0.05714323 -0.10339437 -0.17793404
000150 c9 b2 bc bc 3a 5d d4 bb 0f 9b f4 bd d2 84 46 be
       -0.02303447 -0.00648084 -0.119436376 -0.19386604
000160 6a 51 8a be 7c 9e 72 bc 8b 3a b1 bc 99 57 23 bd
       -0.2701524 -0.014808293 -0.02163436 -0.03987846
000170 c9 62 e2 bc 2c e7 22 be 3e 02 da 3c 68 9c 29 3e
       -0.027634995 -0.15908498 0.026612397 0.1656357
000180 55 5f 94 3d 4d c8 5c be 59 26 de bd bb af df bd
       0.07244746 -0.21560784 -0.10847158 -0.1092219
000190 aa d6 24 3e 71 bb 6b 3e 94 72 3c 3e 3b 87 19 3d
       0.16097513 0.23020722 0.18403083 0.03748248
0001a0 b6 24 56 3e 74 d2 0d 3e a5 2a 5d 3e 86 4e c9 3d
       0.20912442 0.13849813 0.21598299 0.0982943
0001b0 1a fc 65 bb 7b 8d 11 3e ea af 10 3e 91 b0 17 3d
       -0.0035092891 0.14214127 0.14129606 0.03703362
0001c0 46 1a 76 3d 87 e5 b1 bd 0d 53 5a 3d d5 c0 14 be
       0.06008365 -0.08686357 0.05330186 -0.14526685
0001d0 fc 20 48 3d a3 a0 08 be a4 18 19 3e 8a 04 87 3d
       0.04885958 -0.13342528 0.14950806 0.06592663
0001e0 e5 cc 71 3e 8c 52 66 bc b4 2f 42 3e 6f 1d 63 3c
       0.23613317 -0.014057767 0.1896351 0.013861998
0001f0 6f 97 cc 3d 47 7e e3 3d 68 ec d2 3d 8a a8 0f bd
       0.09989821 0.1110807 0.10298997 -0.03507284
000200 df 4f f9 3b 0a 69 26 3e 7c be c4 bc ce 19 e1 3d
       0.0076083983 0.16251007 -0.024016611 0.1099125
000210 fe 7b d4 bd b5 ea 01 3e ba c1 55 3c 21 49 bc bd
       -0.10375212 0.1268719 0.013046676 -0.09193636
000220 b3 f0 21 3a 8e db 03 3e a9 c6 dd bd e6 a2 0e be
       0.00061775296 0.12876722 -0.10828907 -0.13929328
000230 7b 91 c1 3d c7 b5 07 3e 77 2c 1e 3d a2 c6 14 be
       0.09451576 0.13252936 0.038616624 -0.14528897
000240 ff 36 b5 bd 65 8d 0b 3e bb 58 9c 3c 25 97 0b 3e
       -0.0884838 0.13628156 0.019085279 0.13631876
000250 19 7f 18 be 54 8f ee 3d 04 a9 39 3d 91 40 2b be
       -0.14892234 0.116484314 0.0453272 -0.16723849
000260 77 3a c8 3d a5 b7 5f 3e b3 e8 9d bc 7c 20 d1 bd
       0.09776776 0.21847399 -0.019275999 -0.10211274
000270 d1 02 e2 3c e8 26 2c 3e d5 46 f0 bd 16 eb 85 3d
       0.027589234 0.16811717 -0.1173226 0.0653898
000280 e2 fa d9 3d c5 13 24 be 86 38 2c be 3d 01 a5 3d
       0.10643555 -0.16023166 -0.16818437 0.08056877
000290 59 5d a0 bb 1c 16 2a 3e cc 3f 06 3e 66 b8 5a 3e
       -0.0048939404 0.16609997 0.13110274 0.21359405
0002a0 a5 30 34 3e eb 49 cf 3d 2a 77 ef 3c c1 38 0c bd
       0.17596681 0.101215206 0.029231627 -0.034233812
0002b0 2e a6 b1 3b 4a b6 46 3e 02 38 52 bc 1e 59 cd 3d
       0.0054214215 0.19405475 -0.012830736 0.100267634
0002c0 f9 3c 0d 3e f4 35 62 be f0 be e8 3d 6a 73 4d be
       0.1379279 -0.22090894 0.113645434 -0.20063558
0002d0 c1 2d 74 3e fb 4c a7 3d 2e c3 0b 3e 24 41 45 3e
       0.23845579 0.0816898 0.13648674 0.1926313
0002e0 c6 52 5a 3d 78 69 23 3e c4 c5 03 be 69 8d 1c bd
       0.053301595 0.15958202 -0.1286841 -0.038220797
0002f0 28 8a 24 3e e2 2a 5b 3d 5e 85 55 3e 84 61 cb bc
       0.16068327 0.053507693 0.20851657 -0.024826773
000300 e7 a4 5e 3d fe 7f 70 3e d4 69 95 3d 77 c5 e8 3d
       0.054356482 0.23486325 0.07295576 0.113657884
000310 63 04 2f 3e c5 76 0a 3e b6 64 f0 bd 24 09 4e be
       0.17091517 0.1352187 -0.11737959 -0.20120674
000320 50 66 2c be ab e0 25 be b6 9a f5 3d a8 dd 1b 3e
       -0.16835904 -0.16198985 0.119923994 0.15221274
000330 03 d8 1a 3e 94 ec 14 3d 6c 06 f6 bd 11 4e a2 bd
       0.15121464 0.03635843 -0.120129436 -0.07925046
000340 4c aa d9 bd f9 0e 26 be ae 62 e4 bd 16 ab 08 3e
       -0.10628185 -0.16216649 -0.11151634 0.13346514
000350 5b 0f 1a be 2b 03 72 be 3b 04 c5 bd 17 4b fc 3d
       -0.1504492 -0.23634021 -0.096199475 0.1231901
000360 2c cb 5f 3e 03 7d 1d be 70 92 0b 3e 3d 80 f4 3d
       0.21854848 -0.1537972 0.1363008 0.11938522
000370 d4 4a 82 3e 75 a4 62 3e d8 f3 47 bc bc cf fd 3d
       0.25447714 0.22133048 -0.012204133 0.12393138
000380 4b 0b f8 3d 62 15 98 3d e4 54 9c 3d 4d 1a a9 bd
       0.12111529 0.074259534 0.07633379 -0.082569696
000390 f6 eb 5e 3e 0c e3 13 3e bb 96 f3 bc b1 dd 03 3e
       0.217697 0.1444208 -0.02973496 0.12877537
0003a0 e7 2f a5 bd 7d 57 0e be 47 da 5b bb 5d c9 f8 bc
       -0.08065777 -0.13900562 -0.0033546851 -0.030369455
0003b0 12 20 4d be fb 25 1e be 86 52 4d 3e 84 a6 4d bd
       -0.20031765 -0.15444176 0.20051011 -0.05020763
0003c0 e5 b5 19 3e 72 47 72 bc 5c 8d 23 3c 58 ed ca bd
       0.15010794 -0.014787542 0.009982433 -0.09908551
0003d0 41 36 17 be 89 54 1c be f9 cc 4c be ef 50 20 3d
       -0.1476679 -0.15266623 -0.20000066 0.039139684
0003e0 30 70 87 be 7c c0 10 3d 57 36 02 bc 6c c0 86 bd
       -0.2645278 0.035339817 -0.007947526 -0.0657967
0003f0 1e f2 53 3e 12 37 a1 3d e4 63 56 3e e0 2f 5e be
       0.20697829 0.07871832 0.20936543 -0.2169795

model.0.bias f4 [128]
000000 cb 17 ac bd bc 11 71 3e 6b 37 57 3e 2d 30 00 be
       -0.08402976 0.23541921 0.21017234 -0.12518378
000010 ff 2f 63 3c cb ac 82 3e 78 9d 37 bd 37 0c b4 bc
       0.013866424 0.25522456 -0.04482791 -0.02197848
000020 16 a4 88 bd 25 ce 90 3c be 75 b8 3d 59 f6 0e 3e
       -0.06671922 0.017676422 0.090068325 0.13961162
000030 37 0c 2c 3e 5f c9 0e bd 9a 5b ce 3d f9 3c 95 bd
       0.16801535 -0.03486001 0.10076065 -0.0728702
000040 76 f4 19 be 62 3a d6 bd cb 08 9a bd d8 6a dd bc
       -0.1503466 -0.104603544 -0.075212084 -0.027028486
000050 cb cf a9 3d 09 02 11 be 10 15 3c 3e 2f 78 e0 bd
       0.082915865 -0.14160933 0.1836741 -0.10960423
000060 e5 81 e3 3d 6d 96 f0 bd da ba de 3d db 53 9b 3d
       0.1110876 -0.117474414 0.10875483 0.075843535
000070 38 28 14 be 05 7e a7 bc 29 b1 85 3d ad 65 be 3c
       -0.14468467 -0.020445833 0.06527931 0.023241842
000080 2a 21 fe bd 0a 43 42 bd f6 ab e4 3d fc 42 f3 bd
       -0.12408669 -0.047427215 0.111656114 -0.11878011
000090 90 82 38 3c 04 b5 d6 bc 76 9d 49 bd 8c 66 77 3d
       0.011261597 -0.026209362 -0.049222432 0.06040053
0000a0 96 40 63 3e a9 91 73 bd e5 3d 7f 3d 70 c9 56 3e
       0.22192606 -0.059465084 0.062314887 0.2097528
0000b0 12 26 c0 3c 50 35 02 be 82 d3 48 3e bd 27 d7 3d
       0.023455653 -0.1271565 0.19611934 0.10505626
0000c0 90 f5 84 3e 30 5a 21 be 95 10 84 bd 2e 67 53 3e
       0.259686 -0.1575706 -0.06448475 0.20644829
0000d0 c5 ab a4 bb b8 e3 a6 bd ec 98 09 3e 7d 2e 25 bd
       -0.0050253593 -0.08148903 0.13437241 -0.040327538
0000e0 5f 2f 23 3e ea 48 a8 bd 01 ee 11 3c 1b 21 27 3d
       0.1593604 -0.08217032 0.008906842 0.040803056
0000f0 8b 70 a1 bd 12 e2 81 bd a7 d9 9d 3d f9 3c 5b 3d
       -0.07882794 -0.063419476 0.077075295 0.053524945
000100 e6 3e b7 bc 93 8e a7 3d 66 92 8a 3e a5 bc b2 bd
       -0.02236886 0.08181491 0.27064818 -0.08727387
000110 a5 06 27 be a3 21 b8 3c ac 98 56 bc cb 79 79 bd
       -0.16311128 0.022476977 -0.013097923 -0.060907166
000120 79 8f 45 3e 7d e8 60 3c 83 c3 42 bd 19 1a b6 3d
       0.19293012 0.0137273045 -0.047549736 0.088916965
000130 9f bd 7e 3e e2 bb 3f 3e c6 17 56 bd 4b 7d 1a 3e
       0.24877022 0.18724015 -0.052268766 0.15086858
000140 4a ee d9 bd 96 f0 2a 3e 0e 2c 41 3e c9 4a 3b 3e
       -0.10641153 0.16693339 0.18864462 0.18290247
000150 e9 02 55 3e 42 2f 60 bc b1 b1 88 3d 7c 69 d9 3c
       0.20801891 -0.013683142 0.06674517 0.026539557
000160 3f 0e 4d 3e ce e8 a4 3d e3 a5 42 3d 46 76 8a 3e
       0.20024966 0.080522165 0.047521483 0.2704336
000170 a2 57 86 3c 00 7e ac bd c9 e3 a0 bd 67 22 7f 3e
       0.016399208 -0.0842247 -0.078559466 0.24915467
000180 cf 2d 19 3e a1 df 6e bd 04 48 48 3e 87 c9 d3 3d
       0.14958881 -0.058318738 0.19558722 0.10341173
000190 e5 89 cc 3d bf 54 ff 3d 62 ae e2 bc 15 4c 42 3e
       0.09987239 0.12467336 -0.027671043 0.18974335
0001a0 f5 15 60 3d ed 29 08 bc 1d 7d 00 3d 49 27 19 3e
       0.05470844 -0.008310777 0.031369317 0.14956392
0001b0 e0 c0 54 3e 72 35 5c 3e ac e4 e3 bd 15 35 b6 bd
       0.20776701 0.21504763 -0.111276 -0.08896843
0001c0 10 3f 29 3e 3f 1f d1 3a a3 0b 00 bd 2f 37 ef 3d
       0.16527963 0.0015954747 -0.031261098 0.11680447
0001d0 e5 83 70 3e 94 93 2d 3e e5 30 09 be ea 02 03 3e
       0.23487814 0.16950828 -0.13397558 0.1279408
0001e0 95 ea 9f bd 45 6f 78 bb 4e 38 44 be 63 41 73 bc
       -0.07808415 -0.0037908119 -0.19162104 -0.014847132
0001f0 7a 90 67 bc 0a 8b 60 3e a5 59 bc bc f0 9f 13 3d
       -0.014133567 0.21928039 -0.022991965 0.0360412

model.2.weight f4 [128, 128]
000000 bb 18 68 3c 87 fc 55 3d 36 cd b8 bc 9a 39 79 3d
       0.014166052 0.052242782 -0.02255879 0.06084595
000010 fc 0b bf 3d 0d 32 a9 bd 31 06 9d bd 5e 36 86 bd
       0.09328458 -0.082614996 -0.076671965 -0.065533385
000020 b7 54 0a bb 35 63 a5 bc 32 2b a2 3d 21 db 82 3d
       -0.0021107623 -0.020188907 0.07918395 0.06389452
000030 35 27 17 bd b9 bd 5e 3d db 1c 4c bd f0 07 73 3d
       -0.036902625 0.054380152 -0.049832206 0.05933374
000040 79 a2 6a 3d 5f 06 28 3d 9c e8 06 3d 0e 44 2f 3d
       0.057283852 0.0410217 0.032936677 0.04278951
000050 cd 63 f8 bb a9 61 65 bc e0 03 ad bd 05 20 7c bd
       -0.0075802566 -0.014000335 -0.08448005 -0.061553974
000060 91 ea 46 3c 5b ee 8f bc 94 61 c1 bc d8 d0 e9 bc
       0.012140886 -0.017569711 -0.0236061 -0.028541967
000070 70 84 82 bc 81 9b 8b bd cc 57 d5 3c 31 33 7b 3b
       -0.015932292 -0.068167694 0.026042841 0.0038330073
000080 eb 62 b1 3b 2a ac 93 bd bd 50 9c bc da 98 09 3d
       0.0054134033 -0.07210572 -0.019081468 0.033593036
000090 2f 81 69 3d 59 5c 06 bd e1 ef c7 bc 1e e5 74 3d
       0.057007965 -0.032802913 -0.024406375 0.059788816
0000a0 05 05 73 3d 58 7a 8a 3d a0 8d 0f bd 01 33 d6 bd
       0.05933096 0.067616165 -0.035047174 -0.10458947
0000b0 d5 f7 87 3c 3b df 50 bd 5e fe cf 3d 74 03 8e 3d
       0.016597668 -0.05099414 0.101559386 0.069342524
0000c0 f2 47 8b bc a7 cf 1c 3d 41 4e c4 bd 23 91 04 bd
       -0.01700208 0.03828397 -0.09585238 -0.032364976
0000d0 76 5e 70 3d b5 cc 3f bd 4e d3 be 3d 0b 1d 74 bc
       0.058683835 -0.046826083 0.09317647 -0.0148995025
0000e0 ff a1 04 bd a3 cf 4f bd 56 a1 69 3d 99 be 16 bb
       -0.032381054 -0.050735127 0.057038628 -0.0023001789
0000f0 64 59 23 bb 3a 8e 0b bd 8f 3a 84 3d 59 95 c1 3c
       -0.0024925107 -0.034071185 0.06456482 0.023630785
000100 8a 49 40 bd 2a 96 02 bd 15 da 36 3d 1b 9d d3 bd
       -0.046945132 -0.03188149 0.044641573 -0.103327
000110 4d 5e b3 3d 5a ce e0 ba fc 6d 1a 3d 12 d4 0f 3d
       0.08758221 -0.0017151341 0.037702546 0.035114355
000120 5e 4b 90 bc 08 22 13 bc 80 a7 7d 3d 0c b1 23 bb
       -0.017614063 -0.008980282 0.06192732 -0.0024977354
000130 5f 1d 9a 3d d7 a1 ae 3d be 6e 31 3d 37 54 d0 bd
       0.07525133 0.08526962 0.043318503 -0.10172313
000140 cb 57 43 ba 99 66 13 3d a5 4b a1 3d 19 a6 9d bc
       -0.0007451742 0.035986517 0.07875756 -0.01924424
000150 52 85 82 bc 49 37 67 bd a5 b6 99 3d b1 b8 3b 3d
       -0.015932713 -0.05644921 0.0750554 0.045830432
000160 67 2c 81 3d 52 13 7a 3d ee bb c7 3c e7 b1 71 b9
       0.06307297 0.06105358 0.024381604 -0.00023049825
000170 93 f7 58 bd 73 fc b3 bd 12 8e dc bd 94 c3 20 3b
       -0.05297048 -0.08788385 -0.10769285 0.0024530636
000180 ba 75 42 bd 5d 6a 1f 3d 54 34 7c 3d ba 95 2a 3d
       -0.047475554 0.038919795 0.06157334 0.041646697
000190 aa f4 28 3b 76 93 2f 3c f8 e2 0e 3d de d6 bd 3d
       0.0025780597 0.01071631 0.034884423 0.09269498
0001a0 be 56 c7 3c 60 0f a3 3c 2f 68 05 3c c7 8d b8 3d
       0.024333354 0.019904792 0.008142515 0.09011417
0001b0 84 9a 98 bd 00 22 22 3c fb 81 1c bd a8 ff 88 3d
       -0.074513465 0.009895802 -0.038209897 0.066893876
0001c0 a0 62 aa 3d 2b 79 be bd 82 48 da 3d 5f ad ad bd
       0.083195925 -0.09300455 0.10658361 -0.084803335
0001d0 db 25 2d 3d 82 16 1d bd 85 9c a1 bd 91 b9 f3 bc
       0.04227243 -0.038351543 -0.07891182 -0.02975157
0001e0 e3 4c 0a 3d 9f d0 82 3d 1e 26 a8 3d 1b 86 9b bd
       0.03376473 0.063874476 0.08210395 -0.07593938
0001f0 39 d3 4b bd 2d 66 16 bc 04 38 04 3d 4c 12 92 bd
       -0.049761984 -0.009179634 0.032279983 -0.07132396
000200 79 54 f5 3d df fb 01 3d 79 63 8c bd 77 2f 55 bc
       0.119790025 0.031734344 -0.068549104 -0.013011805
000210 79 72 21 3d e0 42 a4 3c 67 64 98 bd 8d 1b 68 3d
       0.03941581 0.02005142 -0.07441025 0.0566669
000220 7f 2e 1e 3b 3b b5 6b bb 7f 3b 92 bd f0 74 42 bd
       0.00241366 -0.0035966176 -0.07140254 -0.0474748
000230 66 56 2d bc 42 b1 a5 3c 0a 1e fc 3d 61 71 5c bd
       -0.010579681 0.020226125 0.12310417 -0.053819064
000240 29 de b7 bd cb a1 ab bd 17 7d 0a 3d 33 66 f6 3d
       -0.089779206 -0.08380469 0.0338107 0.12031212
000250 d2 06 4b bc 4c 56 47 bd 82 9a df 3d a2 01 3a 3c
       -0.012391763 -0.048666283 0.10918142 0.011352928
000260 8f e2 6a 3c 61 5f 4c 3d f9 ca b6 bd 91 9b b4 bc
       0.014336242 0.049895648 -0.08925433 -0.022046836
000270 d1 cb a1 3c b7 15 b9 3d a8 94 47 3d 8f f1 cc 3d
       0.019750508 0.09037345 0.048725754 0.10007011
000280 d0 88 0c 3d 7e d8 2f bd e0 54 51 3d ae 2e 5b 3d
       0.034310162 -0.042931072 0.051106334 0.053511314
000290 95 b3 b9 3b 91 ce 8b 3d 76 ee d8 ba 1f ff b8 3d
       0.00566716 0.06826509 -0.0016550559 0.090330355
0002a0 fb 81 99 3c 74 6f 13 3d 44 55 83 3c 74 43 2d bc
       0.018738737 0.03599496 0.016031869 -0.010575164
0002b0 47 07 bd 3d 28 38 a4 3d f6 3c d1 3d 40 85 0a bd
       0.09229904 0.080185235 0.102167055 -0.033818483
0002c0 46 0d 4c bd eb 10 9d 3d c1 df c0 bd d7 4b a3 3b
       -0.049817346 0.076692425 -0.09417678 0.004983406
0002d0 2f ee 64 bd 2f 64 a2 3d 0a f4 a6 3d 78 e3 c1 3d
       -0.055891212 0.07929265 0.081520155 0.09467214
0002e0 30 5c db 3d 0b 13 1a 3d b5 d2 23 bd 4b 8a b5 3c
       0.10710943 0.037615817 -0.039995868 0.02216067
0002f0 b0 fa 0d bd 38 36 88 3d 9d c3 71 3d 32 b9 03 3d
       -0.034662902 0.066509664 0.059024442 0.032159038
000300 b7 5a 8e 3c 54 e3 81 bd fe f8 8f 3d b6 eb f0 3d
       0.01737724 -0.063421875 0.07029913 0.11763708
000310 55 54 95 3d 03 bb e4 bc 49 c2 c7 3d d8 e4 a4 bb
       0.07291476 -0.027921205 0.09753854 -0.005032163
000320 88 53 55 bd b8 75 29 3d 0c b1 0c 3d a2 94 b2 3d
       -0.052081615 0.04137203 0.034348533 0.08719756
000330 f8 56 0e 3d ba c6 38 3d c5 e0 8b bc 7e 4d 28 bd
       0.03475091 0.045111395 -0.017074952 -0.041089527
000340 b2 0d 8d 3d 43 75 a3 3a 38 75 04 bd 40 05 49 3d
       0.06887378 0.001247086 -0.03233835 0.049077272
000350 eb fb 58 bd 50 6b 5a 3d 20 0c ca 3c b6 bb 3a 3d
       -0.052974623 0.053324997 0.024663985 0.04558917
000360 69 8d 83 bd f4 9f be bc 20 37 3e bd c3 44 5a bc
       -0.06423456 -0.023269631 -0.04643929 -0.013322058
000370 83 d6 12 bc 0b 19 dd bb 1d 3a 78 bd 30 6b 88 3d
       -0.008962276 -0.00674737 -0.060602296 0.066610694
000380 c5 70 63 3d 61 d6 2d 3d 7b 9e 89 3c e4 35 2a 3d
       0.055527467 0.042440776 0.016799202 0.0415553
000390 0f 56 8a bc 17 69 a3 3d 1a 07 d3 bd 2e 51 d1 bd
       -0.016886739 0.07979029 -0.10304089 -0.10220562
0003a0 3c e1 cd 3d 23 85 09 3d 2b f8 11 3d d3 b9 24 3d
       0.10052726 0.033574235 0.035637062 0.04021628
0003b0 fa 04 7f ba 68 68 41 bd a2 b8 43 3d 9b 7c b4 3d
       -0.00097282196 -0.04721871 0.0477835 0.08812829
0003c0 77 2a ac 3c 49 f4 c6 3d 84 3e c5 3d a8 16 98 bd
       0.021016343 0.097145624 0.096310645 -0.07426196
0003d0 98 65 5a 3d d0 3e e7 3d 05 b3 45 bd ff 47 02 bc
       0.053319544 0.112912774 -0.04826643 -0.0079517355
0003e0 25 04 46 3d 78 e9 e5 3d 1a a9 26 bd c5 f9 b9 bc
       0.048343796 0.11226171 -0.04068861 -0.022702107
0003f0 2e 34 c0 3c 2b d5 fc 3c c8 e9 cd ba 1f ec f2 bc
       0.023462381 0.030863365 -0.0015709931 -0.029653607

model.2.bias f4 [128]
000000 38 59 81 bd 80 f3 5f 3c 99 28 bd bc f1 9b 3d bc
       -0.06315845 0.013668895 -0.023090648 -0.011572824
000010 4c 54 84 3d f4 14 2b bd da f7 de 3c fa 8e 7c bd
       0.06461391 -0.04176803 0.027217794 -0.06165979
000020 1b 1b f5 3d fd 14 f5 bc d7 ab a6 3d 01 c0 d2 3d
       0.119680606 -0.029917235 0.081382446 0.10290528
000030 90 a7 90 bd 2f 7a 22 bd 09 a0 53 bd a9 d4 ef 3d
       -0.0706321 -0.039667305 -0.051666293 0.117104836
000040 ec e6 de bc 9b 09 90 3d 7b ec 0e 3d 1c 1b 87 3d
       -0.027209722 0.07033082 0.034893494 0.065969676
000050 fa b7 69 bc 0c 30 6b bc c1 ba 6a 3d 27 77 a2 3d
       -0.014265055 -0.014354717 0.05730701 0.07932883
000060 c2 af 92 bc 8b 83 db 3c 38 21 e9 bd 55 73 9f 3d
       -0.017906073 0.026796123 -0.11383289 0.0778567
000070 68 cf 25 3d 09 78 f3 3c d1 6e a5 3d 24 5f 25 3b
       0.040481 0.029720323 0.08077777 0.002523371
000080 ef c7 5d bd fe 3d b7 3d 88 5c c9 3d 2f c2 b6 3d
       -0.05414575 0.08947371 0.09832102 0.08923756
000090 e6 1e 6c 3d 50 c3 a9 3d e5 3b 41 3d e5 db e3 bc
       0.057646655 0.08289206 0.04717626 -0.027814815
0000a0 c3 7b 59 bc 62 f5 32 bc b9 fd b0 3b 11 9e 5f bd
       -0.013274136 -0.010922762 0.00540134 -0.054594103
0000b0 e5 e5 f9 bd 0d af 49 bd a3 fb 32 3d 57 91 aa bd
       -0.12202052 -0.049239207 0.04369701 -0.083285026
0000c0 0f c5 23 bd 94 83 db 3c 2f 4a 08 bc 74 05 78 3d
       -0.03998285 0.02679614 -0.008318468 0.060552076
0000d0 27 a4 fe 3c 9a 9c e6 3c ee 4b f9 bc 7f 8b 9c 3d
       0.031084133 0.028150845 -0.030431714 0.07643794
0000e0 09 f1 ba 3d eb bf 6b 3d b7 f3 66 3d 9c a5 ef bc
       0.09128005 0.057556074 0.05638477 -0.029253773
0000f0 45 e4 d5 bc df 00 9d bd fc 67 98 bc 50 83 af 3b
       -0.026109824 -0.07666182 -0.018604271 0.00535623
000100 f3 cc b1 bc 1d 1f 82 3b c9 75 3a bd 7a c1 e9 3b
       -0.021704173 0.003970994 -0.045522485 0.00713366
000110 55 2b 9b 3d 24 42 50 3d 68 a0 9a 3d bd 3c 5e 3d
       0.07576624 0.050844327 0.07550126 0.054257143
000120 1f 9e e2 b9 8e 12 8e 3d ee e9 85 3d d6 c2 2d 3d
       -0.00043223888 0.06937133 0.06538759 0.04242214
000130 c9 5c 61 b9 7d 31 07 3e 57 2f 34 3c 5c c5 4e bd
       -0.00021492237 0.13202472 0.010997615 -0.050481185
000140 67 89 b2 3d a6 4b 08 3d af 11 c0 3d 20 2a 76 ba
       0.08717614 0.03327527 0.09378373 -0.00093904324
000150 41 c6 79 bd 7b f2 99 bd 84 ea 73 3d 19 3e 86 bd
       -0.060980085 -0.075169526 0.059549823 -0.06554813
000160 98 6f 61 bd 79 95 0f bb 54 e8 59 bd b5 60 ca 3d
       -0.055038065 -0.002190916 -0.05320008 0.09881727
000170 5f 6a 6d bc 4f 18 3d bd 36 13 f1 3d 3f 99 73 bd
       -0.014490693 -0.04616576 0.11771242 -0.05947232
000180 8e 70 87 3b 83 25 83 bc a2 2b 61 bd 2b 0c 60 bd
       0.0041332906 -0.016009098 -0.054973252 -0.054699104
000190 7d f3 d8 3d 70 0a 65 3d 04 29 b8 bc f1 13 4c bc
       0.10593317 0.055918157 -0.022480495 -0.012455926
0001a0 93 7d 61 bd a9 86 98 bd d2 8f cf 3d ee 97 7e 3d
       -0.055051398 -0.074475594 0.101348534 0.06215661
0001b0 c1 93 e2 3c e6 6c bd bc f0 43 d7 bc 76 b0 c4 3d
       0.027658345 -0.023123216 -0.026277512 0.0960397
0001c0 b2 9f b8 3d 47 6c 59 bd 7a 1e be bd 08 51 9f 3d
       0.090148345 -0.053081777 -0.09283157 0.07779127
0001d0 83 5e f5 bc 22 12 a5 3c 2a 4d 54 bd de 45 bf 3d
       -0.029952293 0.020150248 -0.051831402 0.09339498
0001e0 fb 3b 9e bd 56 87 7c bd a4 c1 31 3d 54 ef b2 3b
       -0.07726284 -0.061652504 0.04339756 0.005460659
0001f0 f9 c4 b5 bd 7f b9 67 bd fa 3b c1 3c 09 36 01 3d
       -0.0887546 -0.056573387 0.02358817 0.031545673

model.4.weight f4 [7, 128]
000000 61 48 2b bd af 5f 8f 3c d8 a4 b6 3c bc ab 18 3d
       -0.041817073 0.01750168 0.0222954 0.037273154
000010 5a 85 99 bd de 9c 3f bc d8 5b c9 bd 35 eb fa 3c
       -0.07496138 -0.011695115 -0.09831971 0.030629734
000020 2e 46 d6 3d 24 64 b1 bd a6 c1 87 3d 0c 79 67 bd
       0.104626045 -0.086616784 0.066287324 -0.056511924
000030 f9 ce 9b 3d af 53 89 bd c2 6d f5 3c bd 0b a1 bd
       0.07607836 -0.067054145 0.029959563 -0.07863567
000040 20 c8 f2 bc fc 76 ac bc da 6b 47 3d 2e d2 92 bd
       -0.029636443 -0.02105283 0.04868684 -0.07168995
000050 ea 13 25 bd 31 09 b2 3d bc 1c 47 3d 96 01 7e bb
       -0.040302195 0.08693159 0.048611388 -0.003875827
000060 03 41 1a bc c3 3a ba 3d 1c 28 b8 3d 7d 19 dc bd
       -0.009414914 0.09093239 0.08992025 -0.10747049
000070 00 89 d9 bc 7b 7e 72 bd de e3 8c bd 07 12 ad 3d
       -0.026554585 -0.059202652 -0.068794 0.08450704
000080 7a 3f 34 bd 68 d7 cd 3b cc f3 9f bc 33 ae ff 3b
       -0.04400585 0.006281782 -0.019525431 0.0078027486
000090 e6 97 d2 bc 00 b0 fa bd 85 81 15 bc ba 62 82 bc
       -0.025707196 -0.122406006 -0.009125118 -0.015916217
0000a0 2e 9c 92 3d e3 61 39 3d e9 31 af 3d e5 ef ea 3d
       0.07158695 0.045259368 0.085544415 0.114715375
0000b0 0a 1f a5 3d cf 9f e3 3c 06 af 64 3d fe d8 c9 3d
       0.08062561 0.027786164 0.055830978 0.09855841
0000c0 c0 4b 52 bc c4 71 3a bc a5 fc de 3a c5 48 8b 3c
       -0.012835443 -0.011379663 0.001701255 0.017002473
0000d0 47 ea 03 bd fe fe b7 3d d3 5a 61 3c 8d fa ec 3c
       -0.032205846 0.08984183 0.013754564 0.028928066
0000e0 df 32 c9 bd 1a 00 b7 3d a5 56 e0 3d 52 d7 8f 3d
       -0.09824156 0.08935566 0.10954026 0.07023491
0000f0 72 1d 2b 3c 5e 3f ae 3d 41 b3 93 3c 10 b2 60 bd
       0.010444032 0.0850818 0.01802981 -0.054857314
000100 6b 62 d1 3d 30 4f d5 bc 4a 1e b6 3d 59 d9 d5 3d
       0.1022385 -0.026038736 0.08892496 0.104418464
000110 7a 01 bf bd 45 9b 9d bd 9c 30 85 3d 3d 4c 82 bd
       -0.093264535 -0.07695631 0.06503412 -0.063621975
000120 4f d6 1d 3d 5d 77 d0 bd d1 9a b9 bd 31 67 ba bd
       0.03853446 -0.10179017 -0.09062732 -0.091017134
000130 51 c1 fb 3b 55 77 99 bd 2d a6 f6 3b 07 e4 1e 3d
       0.007682957 -0.07493464 0.007527134 0.038791683
000140 89 2e ec 3d 5d 1b bc bd 75 fa e3 bb 31 91 e5 bd
       0.115323134 -0.09184907 -0.006957347 -0.11209334
000150 5e b8 d1 3c f6 f8 73 3d 63 3f 8a 3d 08 ac 37 3d
       0.025600608 0.0595636 0.06750371 0.044841796
000160 98 b7 86 bd 5f 47 41 3c 13 30 7f 3d fc c2 cf bc
       -0.065779865 0.011796801 0.062301707 -0.02536153
000170 3d bd f3 3d 19 81 a7 3c c2 a3 ae bd 70 29 e2 3d
       0.11901329 0.0204473 -0.08527328 0.1104306
000180 1f 7a 44 3d de 31 f7 3d bf 83 06 bd 44 15 d7 3d
       0.047968026 0.12070058 -0.032840487 0.10502103
000190 58 ed 28 bd 0c a0 06 bd 80 59 be bd 39 c1 d5 3d
       -0.041241974 -0.032867476 -0.092944145 0.10437245
0001a0 1b a5 63 bd 8f 86 1e bd fa d6 2a bd 58 99 7a 3d
       -0.05557738 -0.038702544 -0.041708924 0.061181396
0001b0 7e dc 91 bd 7f 63 0b bd 19 a9 58 3d dd bf 3c 3d
       -0.07122134 -0.034030434 0.05289564 0.046081413
0001c0 b9 3c 1e 3c f7 39 64 bd 3f f5 02 bd 9c 54 02 3d
       0.009658032 -0.055719342 -0.031972166 0.03181897
0001d0 a1 ca ff 3c f5 ce 18 3d 02 72 05 3d b7 e3 8f bd
       0.03122455 0.037306745 0.03257943 -0.07025855
0001e0 65 94 27 3d 5f dd 78 bb 74 09 88 bb 0f 91 93 bc
       0.040913004 -0.0037973744 -0.0041515175 -0.018013505
0001f0 09 e9 82 3d 01 48 cb bc d9 78 c0 3d 1e f2 ea bc
       0.06392104 -0.024814608 0.0939805 -0.028679904
000200 11 ba 1f bd ce b9 4c bd b2 c1 85 ba 5e 92 e1 bc
       -0.038995806 -0.049981885 -0.001020482 -0.027535614
000210 31 96 03 3c d9 be c9 3d 75 60 e6 3d df 73 ae 3d
       0.008031414 0.098508544 0.112488665 0.085181944
000220 b8 c0 c7 bd 58 4f 3a 3d fb 52 21 bd f8 e4 60 bd
       -0.09753555 0.045485824 -0.039385777 -0.05490586
000230 51 cf 08 3b 56 24 80 bd b0 f3 f9 bd 06 b4 47 bc
       0.0020875523 -0.062569305 -0.12204683 -0.012188917
000240 ef 97 ec bd 9a 8a 05 3d 6a a7 b0 bd 27 d7 aa bd
       -0.115524165 0.032602884 -0.08625682 -0.08341818
000250 3d 22 d6 bd 86 a6 c9 bd 27 03 ca bd 96 62 9e 3d
       -0.10455749 -0.09846215 -0.098638825 0.077336475
000260 2a b0 63 bd 1e 8b 70 3d c6 8d 38 bd c9 72 9a bd
       -0.055587925 0.058726422 -0.04505708 -0.07541425
000270 a3 22 7f bd 2a 21 ae 3d 6c 26 1d bd 0a f0 c5 bd
       -0.06228889 0.08502419 -0.03836672 -0.096649244
000280 29 4c 46 bd 53 02 34 3d 7e cf c4 bc 90 6c cb 3d
       -0.048412476 0.04394753 -0.024024721 0.09932816
000290 24 52 8e 3d 49 97 e2 3d 2b 1b 24 3d 32 ef b0 3d
       0.06949261 0.110640116 0.040064972 0.08639373
0002a0 fc 36 f7 bc 1f eb 80 bc cf 15 82 bd b7 d0 f5 3b
       -0.030177586 -0.015737114 -0.06351816 0.0075016874
0002b0 e1 8d 39 3d 15 81 b8 bc bd f5 d6 3c c1 9c b9 bd
       0.045301322 -0.022522489 0.026240224 -0.090631016
0002c0 7f 27 de 3d 2c 33 fd 3d e0 7d 76 bd d4 f2 b3 bc
       0.10847377 0.12363276 -0.060178638 -0.021966375
0002d0 f5 81 24 3c 0b d0 fb 3d 25 69 c3 3d e0 52 02 bd
       0.01004075 0.122955404 0.09541539 -0.031817317
0002e0 b7 b5 7d bd 8c de a8 bd ef cb d7 bd da fd b6 bc
       -0.061940875 -0.082455724 -0.10536944 -0.022337843
0002f0 c0 fd bb 3d 4d f2 9b ba 58 67 a7 bd c1 60 c1 3d
       0.09179258 -0.0011897773 -0.08174008 0.094422825
000300 ae bf 47 3d d5 b4 8a 3a 2c 20 c2 3c 42 89 2d 3d
       0.048766784 0.0010582457 0.023696981 0.042367227
000310 2f 45 9d 3c f4 63 6c 3d 19 22 b9 3d 47 92 4b bc
       0.019198028 0.05771251 0.09039707 -0.012425012
000320 ae f2 e5 3d 2f 19 b1 bd 5d c5 43 bc e3 ec e9 3d
       0.11227928 -0.086473815 -0.011948911 0.11422136
000330 80 85 b4 3c f7 02 95 3d 57 e4 f1 bc 92 1e 82 bd
       0.022036314 0.07275956 -0.029527826 -0.06353487
000340 7b a9 be bd e2 09 65 bd e7 1b 5e 3d a1 ae 13 3d
       -0.093096696 -0.055917628 0.05422583 0.03605521
000350 c5 dd 59 bd 9a 8b ee 3d bf 3e bd 3d 95 f5 30 bd
       -0.05319001 0.11647721 0.092404835 -0.043202955
000360 e3 15 00 3d 6b 86 f6 3c 91 0d be 3d 99 fa b8 bd
       0.031270873 0.030093392 0.09279931 -0.09032173
000370 5c 1c 14 bd 49 84 a9 bd 72 f8 28 3d a4 a4 fd bc
       -0.036159858 -0.082771845 0.04125256 -0.030962296
000380 f2 3f 8d bc 32 d5 a7 3c d1 85 6b 3d dc 28 05 3d
       -0.017242406 0.020487402 0.057500664 0.03250967
000390 72 5f da bd 5f 55 8f 3c 4a b8 bb 3d 15 02 f7 bb
       -0.10662736 0.017496763 0.0916601 -0.00753809
0003a0 53 e1 92 bd 11 61 ab bd 74 94 f1 3c f5 e9 7b bd
       -0.071718834 -0.08368123 0.029489733 -0.061502416
0003b0 55 fd 89 3d ee 69 fe 3d e9 7f 8d bd b3 2d 63 3c
       0.067377724 0.12422548 -0.069091626 0.013865876
0003c0 de 6b 97 bd 1a d9 c2 3d ce f1 81 bd 3f fa 91 bd
       -0.07393621 0.09514065 -0.06344949 -0.07127809
0003d0 1c e8 38 bd 24 55 7f bd 8f ce 5e bd 0b d9 bc 3d
       -0.04514323 -0.062337056 -0.05439621 0.09221085
0003e0 8d 19 39 bc 8c d5 20 bd ca 5a 60 3d c7 e6 e3 3c
       -0.011297596 -0.039266154 0.054774083 0.027820004
0003f0 cb b3 19 3d 1a d5 7d bc 2d 26 8c 3d 9f e7 00 3d
       0.03752498 -0.015492702 0.06843219 0.03147089

model.4.bias f4 [7]
000000 a8 1b af 3c 00 ae 9c bc fd 62 f4 bc 46 6c 55 bd
       0.021375492 -0.019125938 -0.029832358 -0.05210521
000010 08 f8 7d 3d 29 c3 56 3d a3 30 cf bc
       0.06200412 0.052432213 -0.025291746
