models/ecoli_core_v5_metabolic_nn.pth (torch, 389589 bytes, 14 tensors)

model.0.weight f4 [256, 20]
00000000: 0ed2 de3d cb0d bebd 5729 063e 5f7f 403e
00000010: 6add bbbc 9809 8bbe fb59 14be 3928 b93d
00000020: 0533 553c 0027 a3bd fc64 57bd 6aab 05bc
00000030: 18af 23be 4fc8 34be 2e0b 98bd 6900 ab3d
00000040: 72cb 1cbe 72a7 4abe bc7d 9e3c 75e1 f83d
00000050: 9fa9 23bd 71c2 0fbe c6d8 babd 80b3 503e
00000060: c14c 203e b641 5f3e 4134 0abe c8f0 89bc
00000070: 27f1 893e 631a a1bc fdf3 7fbe 953d 03be
00000080: aafb f0bc 4e36 e63d 9e0b a2bd 7f31 e23c
00000090: 3525 42be 1eaa 22be 245d 5ebe a6f7 8b3c
000000a0: 80d1 48be 3569 9abe 8b87 083b 6804 e43d
000000b0: 7959 51bd 2dbf 49bc 14bd 073e 80e3 0f3e
000000c0: 3e9d 1c3e 7b91 edbd 78f3 24bd b7f2 073d
000000d0: 7ca1 a739 16c9 fa3d 9a38 1ebe 4645 183e
000000e0: 0624 263d 2e3c 03be 1624 c83c e1e0 4e3e
000000f0: e619 c03d f71e 5b3e a34a ddbd 10a4 acbc
00000100: 89ee b43c ed26 473e 646f 7d3d 5172 e83d
00000110: 104e e63c cd5f 183e 2e72 2d3e 0551 b03d
00000120: b0e4 bdbd cbc5 60be 7c43 2f3e df6a 11bd
00000130: ed09 57bd f0fa 80bd 5e3d 40be 8618 bd3c
00000140: 3029 81bd 83f6 1dbe 4d20 9f3d 6fe5 e63d
00000150: 2529 d83d 9468 133e f907 be3c a70a 7d3d
00000160: ec23 cd3d 55e6 f13d b8ad 643e fb13 fe3d
00000170: 4b7b fa3d f992 c7bd 80a9 babd d016 503e
00000180: a2db 07bd 061d 35be 5ce2 e4bd f188 7b3d
00000190: e596 783d f20e a1bd 3e33 353e 88c0 3d3e
000001a0: 3e12 8ebe 5d9f 843d e856 123e 5f6b 71bd
000001b0: 7600 31bd 34a5 99bd 6a9e d5bd 5024 00be
000001c0: 422e 243e f12d 973d f0fa d2bc 2e0b fc3d
000001d0: f6ae 403e 84bd f93d b5d6 5fbe 2c6a 1cbe
000001e0: 377f 473c fac6 89bd 48f3 fe3d 6420 943d
000001f0: f0af 983d 2811 30be 1b32 81be 0b45 89be
00000200: 16ee cf3d cd5a 2b3e 50a7 243e 2216 463d
00000210: 5477 373e 51a3 35be 587a f7bc 1f65 80bd
00000220: a904 60bc 37cb 4e3d 635f 0bbe 7e6d 003d
00000230: 144c b33d ae9b 8cbe d727 043e 12b0 49bc
00000240: 2b8b 8a3d 8022 38bc 1674 263e aa98 24be
00000250: 8ba9 ad3d da60 0bbd ee1f cdbd 3cf7 233e
00000260: 3c32 ec3b 2150 93bd d05f 3abe 5d9f 6e3c
00000270: c235 db3d 60bb 053e ecb1 ddbc 9875 593b
00000280: e2d9 3b3e 587a 5a3e 382d 1fbc 491e 8cbd
00000290: dd98 6cbd 940e 96be 17d3 63be 3eb7 89bc
000002a0: f6c3 ab3c bfcb df3d 659e 063d d374 35bd
000002b0: 7c40 343e a213 313e 3820 3f3e 7501 5cbe
000002c0: 0f4c abbd 2018 533e 923a 063e ced3 d23d
000002d0: 4921 8ebe 5fbb 8dbe c91b 233d 776e 9f3c
000002e0: 4e6c 993c 1795 6c3d 6f6d 033c de03 2b3c
000002f0: d419 a23a 6e8a 963d 03df 773d ea59 2aba
00000300: 2253 033e ba9b 153c 68df 433d 9bfe 91bd
00000310: ec49 283e d4da b0bd 3e61 383d 6d43 5fbe
00000320: 4581 c6bd 0e7e 58be 350c 0ebe a15e 0ebe
00000330: 0f24 1f3d 63d5 5f3e 75b0 0f3e bc8c 97bd
00000340: 89e9 493e 2db4 7b3d 567d 5d3d 3afc 1bbb
00000350: c967 6f3e b20f 67bd 6768 153e 9333 003e
00000360: 28ed 47be b858 83bd 43e4 4f3e 3b67 95bd
00000370: bd96 8f3d 5628 fa3c 3550 183e 442c 033e
00000380: 57f8 29bd be2e 8b3c 361b fe3d 8999 a7bc
00000390: ff65 103e 02fd d53d 0150 113d c077 86bd
000003a0: 688e 97bd 053a d83c c86f 5abe 4158 ec3c
000003b0: c825 ca3d 75af 393e d486 963d a9d2 02be
000003c0: 7a5b bb3d dfb9 3bbe 37f0 b2bd 02e8 c8bd
000003d0: c23a c2bd b605 89bc 6568 27bc 46fd f23b
000003e0: cdaa f63c dad9 e8bc 13e3 853c b809 e9bd
000003f0: 9086 f1bd 89b2 d6bc 8150 9c3c b13c 12be
0.108799085 -0.092799746 0.13101707 0.18798588 -0.022932727 -0.27155757 -0.1448745 0.09040875
0.013012652 -0.07966423 -0.05258654 -0.008158544 -0.15984762 -0.17654537 -0.07424007 0.083496876
-0.15311983 -0.19790438 0.019347064 0.121523775 -0.039956685 -0.14039017 -0.091233775 0.20380974
0.1565428 0.2180241 -0.13496496 -0.016838446 0.26941797 -0.019665902 -0.24995418 -0.1281646
-0.029416878 0.112408265 -0.07912372 0.027611492 -0.18959506 -0.15885207 -0.21715218 0.017085861
-0.19611168 -0.30158392 0.0020832743 0.11133653 -0.05111072 -0.012313646 0.13255721 0.14051628
0.15294358 -0.11600014 -0.040271252 0.033190455 0.00031973037 0.12245385 -0.1545128 0.14870176
0.0405617 -0.12815925 0.02443127 0.20202972 0.0937994 0.21398531 -0.108052514 -0.021074325
0.022086399 0.19448443 0.06187381 0.11349929 0.028113395 0.14880295 0.16938087 0.08609203
-0.09272134 -0.21950452 0.17115587 -0.03550231 -0.0524997 -0.062978625 -0.1877341 0.023082983
-0.06306684 -0.15426068 0.07769833 0.1127423 0.10554723 0.14395362 0.023197161 0.061777737
0.10016617 0.118115105 0.22331893 0.12406155 0.122305475 -0.0974483 -0.09114361 0.20321202
-0.033168443 -0.17686853 -0.11175987 0.061409894 0.06069078 -0.07864179 0.17695329 0.18530476
-0.27748293 0.06475709 0.14290965 -0.058940288 -0.04321333 -0.07502213 -0.10430606 -0.12513852
0.16033271 0.073818095 -0.025754422 0.1230682 0.18816742 0.1219435 -0.21859248 -0.15274876
0.0121763265 -0.06727405 0.12448746 0.072327405 0.074554324 -0.17194045 -0.2523354 -0.26810488
0.10152833 0.16733856 0.1607945 0.04836095 0.17916614 -0.17738082 -0.030209705 -0.06269287
-0.013672986 0.05048677 -0.13610606 0.03135442 0.08754745 -0.27462524 0.12905823 -0.012310045
0.067648254 -0.011238694 0.16255221 -0.16073862 0.084796034 -0.03402791 -0.10015856 0.16012281
0.007208137 -0.07193018 -0.18200612 0.014564362 0.10703613 0.13059759 -0.027062379 0.0033181664
0.18344834 0.21335733 -0.009715371 -0.06841714 -0.05776297 -0.29307997 -0.22248493 -0.01681101
0.020967465 0.10927533 0.0328659 -0.044300865 0.17602724 0.17292646 0.18664634 -0.21484931
-0.083641164 0.20614672 0.1310828 0.10294305 -0.2775977 -0.27682015 0.03982142 0.019461853
0.018728402 0.05775937 0.0080216965 0.010437934 0.0012367317 0.07350622 0.060515415 -0.00064983836
0.12824681 0.009131366 0.04782048 -0.0712864 0.16434449 -0.08635488 0.045014612 -0.21803065
-0.09692625 -0.21141836 -0.13871844 -0.13903286 0.038852748 0.21858744 0.14032157 -0.0739989
0.19717993 0.061451126 0.054074608 -0.0023801462 0.23379435 -0.056411453 0.14590608 0.12519674
-0.19524062 -0.06413406 0.20301919 -0.0729508 0.07011173 0.030536812 0.14874347 0.12809855
-0.0414966 0.016990062 0.12407534 -0.020458953 0.14101408 0.10448648 0.03547669 -0.06565809
-0.07400209 0.026394853 -0.21331704 0.028850676 0.098704875 0.18133338 0.07349935 -0.12775673
0.09148307 -0.18332623 -0.087372236 -0.09809877 -0.094838634 -0.016726356 -0.010217761 0.0074154465
0.030110741 -0.028424192 0.016343629 -0.11378807 -0.11793244 -0.02620818 0.019081356 -0.14280964

model.0.bias f4 [256]
00000000: 2413 c83d b511 ae3d 6e6d 943d 57bd 93bc
00000010: 3941 adbc bac8 093e 2137 aebd 6b2f 2abe
00000020: 54e9 3bbc c271 12be f152 db3d b799 0b3d
00000030: d1fb fa3d 138f 013d 33b1 903c 02f5 f03d
00000040: 9711 c7bc 1929 ba3d cafb ce3d b30f 853d
00000050: faa4 92bd 35c6 123e 1604 973b 459f 7e3d
00000060: 8c58 2b3c cbb9 43bd d591 273e c134 40be
00000070: 5680 563e d609 04be 50a6 373e da33 26be
00000080: 81d0 0a3e 7bb2 183e f9cd 2dbb d75c 1fbe
00000090: 1f5c 393e f689 f6ba 4773 a63d 0b26 cb3d
000000a0: 5de0 40be 061d 47be 62ae 803d e6ad 953d
000000b0: 6d49 263e 3cca 063e 050a 2fbe 545d e93d
000000c0: e52f 54be 3685 fdbd f1d3 35bc 6ac8 e93d
000000d0: bd09 243e cc45 64be 54b4 8abd a15c aebd
000000e0: 5c30 bf3c 6367 4f3e 132c e4bd 10cd 3c3e
000000f0: b104 323e e34f af3c 66d3 e03c ac73 87bd
00000100: 46a6 543e 3aea 633e a8c9 8d3d 0f52 60bd
00000110: cf5b 4a3e dd05 53be e128 95bd d2c6 25bd
00000120: e61f a13d 9d98 453e 934d 613d 0828 393e
00000130: 18b1 79bd fe25 803d 8d4e 08be 45fa 0b3e
00000140: 8447 f33d 8f97 c03c af16 503e 3816 d03d
00000150: 894f 793d f3eb 273e a2aa cebd 787e 97bd
00000160: b877 39be 5c51 923d 90a6 943d c856 633c
00000170: 7870 09be 06d2 15be ec84 553d 3997 4fbe
00000180: 727e 0d3e 14b0 e5bb 8e18 8dbd 1f5b 1bbe
00000190: e48f 2ebe 37f7 5bbe 160b 663e 0c08 2b3d
000001a0: 5223 cabd f29c 803d bb1e 21be 0a23 113e
000001b0: 2de4 fe3d d78e 423e 7cf1 3c3c 347c 9dbd
000001c0: 5934 1f3e 12db 3abd f2c3 69be 32f3 473e
000001d0: 1b20 9a3d ae00 44be c652 2bbe 6261 a3ba
000001e0: c2da df3c 971d 1f3e 99b9 55bc 39f6 8e3c
000001f0: 8c3a 873d 6076 833c c10b a63d 1400 fd3d
00000200: 66dc 9ebb 9a70 083e 71c5 95bd 69a8 44bd
00000210: b9c6 dabc c576 fd3d 73e8 ebbd 0f6d 59be
00000220: 3ac7 563e 568d f5bc c67b 17be 4b60 cd3c
00000230: 2049 e4bc dcdf 393d 6a31 db3c 3e3d 023e
00000240: 883b 0a3d 3caf a3bd 7d32 0fbc 7886 e63d
00000250: 6b09 1fbe aac0 233e 7b13 2d3c 7c75 0dbe
00000260: f73e 27be 4d8f 9abd 480c 103e 1f94 343e
00000270: 78fb 3fbe b40e 8f3c 7141 173d 31b1 4fbe
00000280: ebcd 0ebd 2578 2f3d b9a0 42bd 8c1b 353e
00000290: 27e4 aebb 46fa 963d c2f1 be3d ae53 423e
000002a0: cdce 4cbe 084e 4fbd 3c71 58be d83b e63d
000002b0: 12e8 6cbe 0673 1ebe 4e0c ac3d 46e1 e2bd
000002c0: 7ec0 213e 121b 083e 7729 e1bd 34ee 50be
000002d0: 031e 06bd bba9 c7bd 3265 48bc 9044 d93d
000002e0: f92c 703e 8ff4 02bd 95af 2a3d 5c39 583e
000002f0: b3bc 87bd a1cd 103e de4f 53be bb83 a1bc
00000300: 30d4 9bbd af64 1abe 56e9 5e3e c053 663e
00000310: c990 373e d06a 0dbe a389 933d 17de f6bd
00000320: 780b 533e 300b edbd ad45 a03d ab45 0cbd
00000330: f922 e0bd 1d79 223e 6302 0dbd ff42 ae3b
00000340: 4cc6 393d 7222 153e 7514 2b3e 5676 bb3d
00000350: 18a3 a23d 42c4 1cbe c9bc 9b3d ea1c 33be
00000360: d1d4 173e 293f 013e f1d5 3b3e 971b 60be
00000370: 0a2e 84bb 4cd3 4ebd 394d bbbc 126d 9abd
00000380: 642a a4bd 8b92 0e3d fc6f 56be e562 91bd
00000390: e8d8 40be 32e8 953d 19d2 103e 6099 003e
000003a0: 18f7 253e c56a 633d 1342 483e 7e49 61bd
000003b0: 8aaa d93d d61c ae3d aa98 42be 2edb 6a3e
000003c0: f11d 68bd 9744 00be 6efe 5cbc 612a 61bd
000003d0: 7168 83bc 29c7 653d 7cf2 143e a7c2 8f3d
000003e0: 4b47 4dbd 87ed ad3c 0db3 1dbe d820 d5bd
000003f0: 1810 6ebe 091f 313d f1aa fdbd 3a15 ae3c
0.09769276 0.08499471 0.072474346 -0.01803462 -0.021149265 0.13455477 -0.08506609 -0.16619651
-0.011469204 -0.14301208 0.10709179 0.03408214 0.122550614 0.031630587 0.01766262 0.117654815
-0.02430038 0.0908987 0.10106619 0.06497135 -0.07160373 0.14333422 0.0046086414 0.06216361
0.010458123 -0.047784608 0.16364224 -0.18770124 0.20947394 -0.12894377 0.17934537 -0.16230717
0.135561 0.14911835 -0.0026520474 -0.1556276 0.18101548 -0.0018809426 0.08127456 0.099193655
-0.18835588 -0.19444665 0.06283261 0.07308559 0.16238947 0.13163084 -0.17093666 0.11394754
-0.20721395 -0.123789236 -0.011097894 0.11415179 0.1601934 -0.2229225 -0.06772676 -0.08513761
0.02333849 0.20254283 -0.11141219 0.184376 0.17384602 0.021400398 0.027444553 -0.066138595
0.20766553 0.22257319 0.069232285 -0.054765757 0.19761585 -0.20607705 -0.07283188 -0.040472813
0.07867412 0.19296499 0.05500562 0.18081677 -0.060959905 0.062572464 -0.13311215 0.13669689
0.11878875 0.023509769 0.20321153 0.10160488 0.060866866 0.16398601 -0.100911394 -0.07397169
-0.18112075 0.07144424 0.07258332 0.013875671 -0.1342181 -0.14630899 0.052128717 -0.2027253
0.13817766 -0.0070095155 -0.06889449 -0.15171479 -0.17047077 -0.21481024 0.22465166 0.04175572
-0.09870018 0.06279935 -0.15734379 0.14173523 0.12445865 0.18999802 0.011532184 -0.076897055
0.15547313 -0.045619078 -0.22828653 0.19526365 0.07525655 -0.19140884 -0.16730794 -0.0012464935
0.027325992 0.15538631 -0.013044738 0.017451392 0.06602964 0.016047657 0.08107711 0.123535305
-0.004848051 0.13324204 -0.073130496 -0.04801217 -0.026706086 0.12376169 -0.115189455 -0.21233009
0.20974436 -0.02997462 -0.1479331 0.02507033 -0.0278669 0.045379505 0.02675696 0.12718675
0.03374818 -0.07992408 -0.008740065 0.11256117 -0.15530936 0.15991464 0.010563727 -0.13814348
-0.16332613 -0.07546864 0.14067185 0.17634629 -0.18748271 0.017463066 0.036927644 -0.20282437
-0.034864347 0.042839188 -0.04751656 0.1768629 -0.0053372565 0.073719546 0.093234554 0.18977234
-0.20000763 -0.050611526 -0.21136945 0.11241883 -0.23135403 -0.15473565 0.084007844 -0.11078124
0.15796086 0.13291577 -0.10994237 -0.20403367 -0.032743465 -0.097491704 -0.012231158 0.106087804
0.23454656 -0.03197151 0.041671354 0.21115631 -0.066277884 0.14140941 -0.20635936 -0.019716134
-0.07608831 -0.1507747 0.21768698 0.22492886 0.17926325 -0.13810277 0.072039865 -0.12054079
0.20609844 -0.115743995 0.078257896 -0.034246128 -0.109441705 0.15866514 -0.034426104 0.005318045
0.045355126 0.14563921 0.16707022 0.0915343 0.07941264 -0.15309241 0.07604367 -0.17491499
0.14827277 0.1262175 0.18343331 -0.21885525 -0.0040338086 -0.050494477 -0.022863971 -0.07540335
-0.08015898 0.034807723 -0.20941156 -0.07098941 -0.18832743 0.07319678 0.14142646 0.12558508
0.1620754 0.055521745 0.19556455 -0.05500173 0.10628231 0.08501594 -0.19003549 0.22935173
-0.05666918 -0.12526165 -0.013488395 -0.054972056 -0.016041012 0.056098137 0.14545625 0.07019549
-0.05011682 0.021231426 -0.15400334 -0.10406655 -0.23248327 0.043242488 -0.1238612 0.021250356

model.1.weight f4 [256]
00000000: 0e6e 793f 87a3 783f 0d74 813f 9283 7b3f
00000010: 9cad 783f a434 723f 6a8d 853f e71e 713f
00000020: 5c07 7e3f afe4 a03f 2b5d 833f 6cf0 7b3f
00000030: a319 733f 7fde 793f 646e 743f c273 763f
00000040: 86fa 883f 44e8 813f 1f5d 813f df61 6e3f
00000050: a5d5 7c3f 2d9b 613f b48d 903f 4ee6 7d3f
00000060: b7a5 713f 28e5 743f 7baa 833f 339f 623f
00000070: bba7 7f3f 4f28 723f 76b7 7a3f df11 793f
00000080: 9306 753f e390 6a3f 67a5 793f ad9b 833f
00000090: 9629 913f c22a 743f f2fb 733f e4c7 6e3f
000000a0: 7eac 873f 3915 7b3f 6143 733f 6637 753f
000000b0: 37a2 783f 85f9 7c3f f483 733f 4567 843f
000000c0: c66c 783f 6e0a 713f 685b 853f 0bed 843f
000000d0: e839 683f 4ce6 853f dee9 853f 739d 6a3f
000000e0: aafb 6c3f 4271 7c3f 4769 733f 92f3 8b3f
000000f0: ffb6 753f aada 783f 50e0 783f 9086 843f
00000100: 849b 783f 8a44 713f f1b5 6d3f bf47 7b3f
00000110: a266 743f c117 763f 5cd0 6d3f 9737 713f
00000120: e0ca 853f 6bcc 763f d5a3 7c3f f3af 773f
00000130: 2535 663f 375c 6e3f e165 7e3f 590b 6f3f
00000140: ba50 843f b67d 6d3f e957 7c3f f3d0 743f
00000150: 1432 6d3f a3c6 903f d13e 743f f9e6 873f
00000160: 00ae 933f 9771 623f 4685 783f 879e 7d3f
00000170: f985 7e3f 55dd 753f c436 773f c9de 833f
00000180: cd18 773f 4158 693f 18a2 743f cf38 753f
00000190: 3563 7f3f 0669 6b3f eb5b 7d3f 0b5c 8a3f
000001a0: 680d 8d3f 03ef 793f f3ea 733f 7cf3 683f
000001b0: b274 783f 3333 823f 5023 783f 4e69 793f
000001c0: 2103 793f 72df 773f eaa0 7d3f 7ee3 793f
000001d0: e4d4 763f 5817 7d3f cc95 833f 2a89 723f
000001e0: 9f17 783f 5d67 5c3f f464 703f 18cf 813f
000001f0: bf7f 7b3f 5d38 7c3f cd9e 7d3f 3274 823f
00000200: 3b53 7f3f 25c7 903f 974b 813f 4028 7d3f
00000210: 21e8 7c3f 2c4a 8a3f 0c59 7b3f a889 5e3f
00000220: 2b96 643f 58a1 703f 0608 883f 11b3 833f
00000230: d54d 763f cdd8 6c3f 0267 7b3f 791b 6c3f
00000240: 358d 6f3f a255 6b3f a026 833f 902f 7b3f
00000250: 5903 783f 1dd6 753f ec4b 783f 4c38 743f
00000260: 0a66 8d3f 1393 893f 7928 793f bf03 6d3f
00000270: 112b 773f 52a1 7b3f 3c58 7d3f 7d2f 703f
00000280: 9a6d 7b3f a6f6 783f f083 793f 39eb 943f
00000290: 8a97 823f 841f 6c3f a55f 913f 9598 793f
000002a0: 0b57 853f 8520 783f e858 8e3f dde2 803f
000002b0: 652c 843f a8d9 853f 963e 933f 377d 7f3f
000002c0: 35a7 6d3f 24ec b33f d440 763f b5d6 713f
000002d0: 072a 7d3f ca0f 6c3f 508a 7f3f ba89 733f
000002e0: bc50 7a3f 02fa 673f 5597 7f3f 4ba4 7a3f
000002f0: 42fc 913f 0340 6e3f 8ddc 6f3f 4ae6 863f
00000300: 15e0 893f 77dc 693f 8065 783f df54 723f
00000310: 2812 6b3f fd38 823f 6219 743f 6ca4 823f
00000320: 84da 6d3f 9ed3 693f 564a 7a3f 9b38 703f
00000330: 7fd4 763f 9074 673f 3926 6b3f c4a3 6e3f
00000340: 0af5 6c3f c313 7f3f 3e00 763f 802a 783f
00000350: 92c3 843f 71f7 793f dc2f 783f d9e6 863f
00000360: e726 703f eee5 643f fec0 7b3f a9ea 873f
00000370: 3fbe 5d3f 65d3 823f a581 6c3f 2d49 763f
00000380: 0891 7c3f 695b 853f 829e 713f d569 803f
00000390: b210 7c3f 6c52 693f 1cbc 7e3f fe91 7f3f
000003a0: d22a 813f 758d 843f 5271 733f c6e8 823f
000003b0: 0392 7b3f d680 6d3f d9cb 723f 6aae 753f
000003c0: 7fcc 903f 0525 803f 5c7e 6c3f 1aac 6f3f
000003d0: ca5e 833f c1f3 693f 09fd 7d3f 92c7 813f
000003e0: 186e 733f 2d66 7a3f 2285 793f fe4c 833f
000003f0: 4471 673f 9a4c 6b3f 511c 793f b963 803f
0.97433555 0.9712452 1.0113541 0.98247635 0.97139907 0.94611573 1.0433781 0.9418778
0.9922998 1.2569789 1.0262808 0.9841373 0.94960994 0.9760513 0.9548094 0.9627038
1.0701454 1.0149007 1.0106543 0.9311809 0.98763496 0.88127404 1.1293244 0.9917954
0.94393486 0.95662165 1.0286402 0.8852417 0.9986531 0.94592756 0.9793619 0.97292894
0.95713156 0.9162733 0.9751801 1.0281883 1.1340816 0.95377743 0.95306313 0.9327376
1.0599515 0.9807926 0.9502469 0.95787656 0.9712252 0.98818237 0.9512322 1.0344015
0.97040975 0.9415654 1.041852 1.038484 0.9071336 1.0460906 1.0461996 0.916465
0.9257151 0.9861032 0.95082515 1.0933707 0.95982355 0.97208655 0.97217274 1.0353565
0.971123 0.9424521 0.92855746 0.9815635 0.95469105 0.96129996 0.92896056 0.9422545
1.0452538 0.9640567 0.9868749 0.9675285 0.8992484 0.9310946 0.99374205 0.9337669
1.0337136 0.92769945 0.9857164 0.9563133 0.9265454 1.1310619 0.9540835 1.0617362
1.1537476 0.88454574 0.9707836 0.9907002 0.99423176 0.9604085 0.9656794 1.0302364
0.9652222 0.9115029 0.95559835 0.9578981 0.9976075 0.9195713 0.9896838 1.0809339
1.1019716 0.9763033 0.9528038 0.9099653 0.9705306 1.0171875 0.9692888 0.9742631
0.972704 0.96825325 0.9907366 0.9761275 0.96418595 0.98863745 1.0280089 0.94740546
0.9691104 0.8609522 0.9390404 1.0141325 0.982418 0.98523504 0.99070436 1.019171
0.99736375 1.1310774 1.0101193 0.9888954 0.987917 1.0803885 0.9818275 0.86928797
0.8929164 0.9399619 1.0627449 1.0289022 0.9621251 0.9251831 0.9820405 0.9222942
0.9357484 0.9192754 1.0246162 0.9811945 0.9688011 0.96029836 0.9699085 0.953984
1.1046765 1.0748008 0.9732738 0.9258384 0.9655009 0.9829303 0.9896276 0.9382246
0.98214114 0.97251356 0.97466946 1.1634284 1.0202496 0.9223559 1.1357313 0.97498447
1.0417188 0.9692462 1.1120882 1.0069233 1.0326048 1.0457048 1.1503475 0.9980044
0.9283326 1.4056439 0.9619267 0.9446824 0.98892254 0.9221159 0.99820423 0.9513203
0.9777944 0.90615857 0.9984029 0.9790694 1.1405108 0.93066424 0.9369591 1.0539029
1.077151 0.9135203 0.97029877 0.94660753 0.9182458 1.0173641 0.9535123 1.0206428
0.92911553 0.9133853 0.9776968 0.93836373 0.96417993 0.90412235 0.918552 0.93218637
0.925614 0.9963953 0.9609412 0.9693985 1.0372183 0.9764319 0.9694803 1.0539199
0.9380936 0.89413345 0.9834136 1.0618488 0.8661842 1.0220762 0.9238532 0.9620541
0.986588 1.0418521 0.9438249 1.0032297 0.98462975 0.9114139 0.9950578 0.9983214
1.0091193 1.0355669 0.9509479 1.0227287 0.9826967 0.92774713 0.94842297 0.9596926
1.1312407 1.0011297 0.9238031 0.9362198 1.0263302 0.91387564 0.99214226 1.0139029
0.95089865 0.9781216 0.9746877 1.0257871 0.90407205 0.9191376 0.9730883 1.0030433

model.1.bias f4 [256]
00000000: 5037 bebc 8a07 ee3c 8c1c ca3b f073 c63d
00000010: fa8a 7a3d 85a8 263e ca40 10be e531 153d
00000020: 413f 023d 9189 6bbe 252c bc3d 7ac4 0e3e
00000030: 1d68 873c e290 073d 65f7 3d3d 98e2 82bd
00000040: af75 72be f1d9 ae3a 7f98 343d a211 e93c
00000050: a0f3 72be 44ee 103e 7904 13be 424f fd3b
00000060: 365c a53d 0bc3 923d 8b42 203e 8e97 21be
00000070: 2095 bd3c 1eb6 c2bc 6e99 273c b060 c73c
00000080: 174e cbbc 5db7 353d 513d 18bd 02fe 8ebd
00000090: 273a 64be d519 b63d 8885 b93c a2ea 823b
000000a0: 2810 88bd 3c14 853d 60d3 eb3d a45a 013e
000000b0: c754 823d 5625 963d 2827 eb3c 450b 573a
000000c0: 28e4 d43d 405c a6bb 7fe7 44bd b126 fabd
000000d0: e6fd 593d 95aa 69bc f889 16be e849 de3d
000000e0: d20a 0a3e e383 6e3c 75f9 bc3b c524 0dbe
000000f0: 440a af3d 485b 04bc d95f 30ba d19e 893d
00000100: 3c1d 9cbd b729 92ba 31a7 5b3e 0949 3ebd
00000110: 9638 023c ac6d a5ba aedb afbc c8fc 5d3d
00000120: 0044 75be 3eea 763d 49a9 9f3d 6d6d cb3c
00000130: 3cf9 cb3b faf2 ef3d 5592 c0bc ce3d 3f3e
00000140: 5f2b 483a 84ce d2ba d277 363d 1aa4 8ebd
00000150: 8515 3d3e 6b44 ec3d 879f 133d c0af 263e
00000160: 6482 60be 4728 e03d c144 943c ed64 b33c
00000170: e218 2b3d 1ed6 7bbd 53f4 ed3c f7b3 75be
00000180: 2d9b bd3b c732 3e3e 310e dc3b 3622 06bd
00000190: 42ab 0d3e 8b31 b73d c0b8 f53d e8ca 1e3e
000001a0: b81b c2bd 3eb1 6c3d f33a 0b3e 92f2 6039
000001b0: 3bb9 b23c e3de 1fbe abe2 97bd 0f13 6e3d
000001c0: 0184 d83d 13f1 403d 9112 18be 0a9a 8f3d
000001d0: af7a 413d dfd9 973b 9cc1 edbd c36c f53d
000001e0: 8b9a 863c 0531 8ebc 5be2 8d3c 2819 c7bc
000001f0: 31bb 233d be17 ad3d 00a1 c3bd 1709 783b
00000200: 4c7c 59be 8a74 fb3d 7fae abbd becd 2b3d
00000210: c191 8b3d 5418 28bd 2ad9 06bd 36a0 10ba
00000220: f06d 4e3d 2918 793d b8a2 243e 13cf 97bd
00000230: b06b ffbb 67a2 153e 89b6 a13a 995d 723e
00000240: 90ee b03d 9881 0b3d c9ec 23be a6ae 7bbd
00000250: a742 0a3e 5ce0 6ebc 9941 edbb 1ae7 c43c
00000260: 7984 5dbe 843b 82be cbc3 e4bc 8b71 45bc
00000270: 361d 32bd 95eb 1d3d 9658 8fbd 0e55 a13d
00000280: 9fd3 2b3d a2b7 c8bd d2f1 383e da27 8a3c
00000290: c9c8 e6bd 2f42 023c 9b51 3b3e cec2 f4bc
000002a0: 96d6 f83d 0360 13be 6dd3 dabd 67b7 f5bd
000002b0: 04b2 9fbd 6f61 493e c624 d3bb 427f 19bd
000002c0: acbd b03c b453 a4be f78f 54bb 817e ea3c
000002d0: a673 72bd d49c 54bd ea10 9dbd d975 cbbc
000002e0: d331 f0bd 759f f13a 4f7b e03b 8e6f bfbd
000002f0: 8166 bdbc 09a6 0c3e 09ab d8bd 0a8b 073e
00000300: 1d38 46be 1133 a53d 55e1 2c3e 399f 2c3e
00000310: 2241 f43d 301d 873d c984 f7bb ece7 043e
00000320: 78ea b03c 00b6 303d eeeb 853d 1477 a23a
00000330: f387 0bbd bc08 c33c c342 bc3c 4334 be3d
00000340: 545c 7d3d 8cc5 99bd f136 b43c acd2 b8bb
00000350: f4d9 263e 1aa9 0b3e 20c5 493e ec8a 8fbd
00000360: 33af fc3c 608f 833d bb22 50bc 0d97 583e
00000370: 1096 633b 8bee 5abd 408c 9fbc 7e8d 16bd
00000380: d6d1 e8bd b964 893c 82f9 183d 3455 903d
00000390: c71a 28bd 27be 2e3d 4d8d 8b3d 3b01 cdbd
000003a0: d2a9 23be d224 2bbe 6ec9 83bd 7dcb f6bc
000003b0: 9e20 4bbd 44f6 81ba f04d e73d dec1 b33d
000003c0: 1371 62bd 3389 0fbd 7631 f53d 5e8c 933d
000003d0: 51ff b7bd faf0 3c3e f779 ab3c 55e1 65bd
000003e0: 0ab4 bc3c 93f4 2f3d f89e 443c 6c41 df3c
000003f0: 8acf eb3d 5671 36bd ce80 103e cf01 133e
-0.023219734 0.02905633 0.006167954 0.09690082 0.061167695 0.16275223 -0.14087215 0.036424536
0.031798605 -0.23001696 0.091881074 0.13942137 0.016529137 0.033097155 0.046378512 -0.063908756
-0.23677705 0.0013340098 0.044090744 0.02845079 -0.23725748 0.14153391 -0.14357175 0.0077303955
0.080742285 0.07166108 0.15650384 -0.1578047 0.023142397 -0.02376848 0.010229452 0.024338096
-0.02481751 0.044364322 -0.03716785 -0.06982042 -0.22287808 0.08891646 0.02264668 0.0039952556
-0.066437066 0.06498 0.11514926 0.12632233 0.06363826 0.0733134 0.028705195 0.00082032784
0.1039508 -0.005076915 -0.048072334 -0.12214411 0.053220652 -0.014261861 -0.14701068 0.1085394
0.1348069 0.014557811 0.0057670423 -0.13783558 0.0854688 -0.008078404 -0.00067281496 0.06719745
-0.076227635 -0.0011151348 0.21450497 -0.04645637 0.007948061 -0.0012621186 -0.021467056 0.05419615
-0.23951721 0.060281985 0.077959605 0.024832452 0.0062247794 0.11716266 -0.023507277 0.1867592
0.00076358573 -0.0016083275 0.044547863 -0.06964894 0.1846524 0.11536487 0.03604081 0.16277981
-0.2192474 0.10945182 0.01809919 0.021898711 0.041771777 -0.061483495 0.029047167 -0.23994432
0.0057863207 0.18574058 0.006715559 -0.03274747 0.13834861 0.089449964 0.11998129 0.1550709
-0.09477943 0.05778622 0.13596706 0.00021452669 0.02181684 -0.15612368 -0.0741628 0.058123644
0.10572053 0.047104906 -0.14850833 0.070118025 0.04723614 0.0046341266 -0.11609194 0.11983635
0.016431114 -0.017357359 0.017319849 -0.024303988 0.03997344 0.08451794 -0.09552193 0.0037847215
-0.21238822 0.122780874 -0.08382892 0.041944258 0.0681491 -0.041038826 -0.032921948 -0.00055170374
0.050397813 0.060814057 0.16077697 -0.07412543 -0.00779482 0.14612733 0.0012337725 0.23668517
0.08639252 0.034059137 -0.16008295 -0.061445855 0.13501988 -0.014579859 -0.007240486 0.024035979
-0.21632566 -0.25436032 -0.027925393 -0.012050997 -0.04348489 0.038554747 -0.06999318 0.07877551
0.041949864 -0.0980065 0.18060997 0.016864706 -0.112687655 0.00795035 0.18292849 -0.029878046
0.12150304 -0.14392094 -0.106848575 -0.11997872 -0.07797626 0.19666074 -0.0064435927 -0.037474878
0.021574818 -0.3209511 -0.0032434443 0.028624775 -0.059192322 -0.051907375 -0.07669242 -0.024836468
-0.11728253 0.0018434363 0.006850637 -0.09347449 -0.023120167 0.13735212 -0.10579497 0.13236633
-0.19357343 0.08066381 0.16882832 0.16857614 0.119264856 0.06597364 -0.007553671 0.12979096
0.021596178 0.04314232 0.06539141 0.0012395107 -0.0340652 0.023807876 0.022981053 0.09287312
0.06185563 -0.07508382 0.021998854 -0.0056403484 0.1629408 0.13638726 0.19704103 -0.07008919
0.03084526 0.06423831 -0.012703593 0.21151371 0.0034726895 -0.05345015 -0.019476056 -0.03675603
-0.11368148 0.016771661 0.037347324 0.07047501 -0.041041162 0.042661812 0.0681406 -0.1001
-0.1598275 -0.16713265 -0.06434904 -0.030126328 -0.049591653 -0.0009915312 0.11294162 0.087772116
-0.055283617 -0.035042953 0.119723246 0.07204507 -0.089842446 0.184513 0.02093218 -0.056123096
0.023035068 0.042957854 0.012000792 0.027252875 0.11514194 -0.04454168 0.14111635 0.14356159

model.1.running_mean f4 [256]
00000000: 9660 c83d 6006 ae3d d7c2 963d feae 91bc
00000010: d0da a6bc bcb3 093e ed70 adbd 6748 29be
00000020: c55d 3ebc b782 16be f775 e43d b005 093d
00000030: a230 fa3d 6d81 fb3c fe0f 873c bbdb ef3d
00000040: 8a04 e6bc f8f7 b53d edb8 c93d 3012 853d
00000050: deac 8ebd 2d27 133e d040 b53b 92ab 7f3d
00000060: b508 273c 8ad4 37bd 1a1c 253e afa2 40be
00000070: 4f76 553e bbb9 03be 5267 3a3e 5b0a 26be
00000080: 61d5 093e 3b12 193e 7d92 05bb 1be4 23be
00000090: a487 3a3e 5658 c8ba b37e a43d c5e0 ca3d
000000a0: 0a62 42be dddd 45be 5f07 803d c600 983d
000000b0: 2e17 263e ce06 083e b788 2ebe 5a17 ea3d
000000c0: 2acf 53be 43ec fcbd 1e66 37bc a73c e93d
000000d0: 875c 243e 46f8 61be 1d29 8ebd 51e2 b0bd
000000e0: acc5 c03c 0c46 4f3e e594 e3bd 83f1 3c3e
000000f0: 7585 323e d503 b53c 5ccb e63c 2786 86bd
00000100: 0be3 543e 1789 633e b40b 8f3d 0cca 60bd
00000110: 8083 4a3e 3cba 51be f1ed 96bd e2a8 26bd
00000120: 1808 a33d 5295 443e dfe5 623d 71b1 383e
00000130: 852e 7bbd d15f 803d c0d5 08be 3f8d 0a3e
00000140: bd72 f43d d28e ba3c 463c 503e a52c ce3d
00000150: 81c9 713d e919 253e 54c1 c9bd afef 99bd
00000160: 0684 38be e38f 943d 23e0 943d b70c 463c
00000170: 90ca 09be 0367 16be c649 553d e2b8 4fbe
00000180: 1576 0d3e bd3f b4bb c7b2 8cbd 82ee 19be
00000190: 57d6 2ebe 081a 5bbe ea57 5d3e d04f 4e3d
000001a0: 012b cabd adcc 813d d4a1 21be eb9a 103e
000001b0: 8518 fe3d 6e05 433e 0e72 313c f6ff a2bd
000001c0: cda5 1f3e 4617 39bd 71ee 68be 4cb7 473e
000001d0: 51a8 973d 5cd2 42be 71ce 2abe 681f ffba
000001e0: 1c2b df3c f455 1f3e 1820 57bc 3973 913c
000001f0: ccd0 853d 78f2 893c bfb0 a43d 5842 fe3d
00000200: 0fd0 a2bb a775 0f3e bee2 96bd 0e37 41bd
00000210: b752 e1bc fb60 fe3d 5267 f6bd 2817 59be
00000220: 0417 573e a667 04bd 6f38 16be b820 c33c
00000230: da25 e1bc db31 323d 603c cf3c c3e4 013e
00000240: 9bed 0d3d 0766 a3bd 51dd 12bc 691a e93d
00000250: fc8b 1cbe 51f2 223e 5c2e 283c fd68 0dbe
00000260: 7f49 26be 8952 91bd f275 113e bd5e 363e
00000270: 47b1 3fbe 27f1 963c 005c 143d 0a20 4fbe
00000280: e0a9 03bd b2be 333d 577f 32bd b357 333e
00000290: 7486 c3bb 7f8c 993d c688 b63d 5f19 423e
000002a0: 65a3 4dbe 34df 6fbd fbbc 57be 78a5 e83d
000002b0: dea8 6ebe 0cb2 1ebe 98b6 b33d fd56 e0bd
000002c0: 760b 1f3e 5bf8 083e 7615 e1bd 029f 50be
000002d0: 1ce6 03bd 8982 c9bd e06b 0bbc 9139 d93d
000002e0: a424 703e 1f79 f3bc 548a 2b3d 9c15 553e
000002f0: 6a62 90bd 37ee 103e cb88 53be 9caa 9ebc
00000300: 6b2a 9cbd bf7e 19be ef1b 5f3e 902e 663e
00000310: 8105 373e 39bf 0ebe c984 963d 580b f6bd
00000320: 88b9 523e a33b f1bd 5ba4 a33d 6e3c 0bbd
00000330: 3d09 e5bd ee72 223e c62b 0dbd afa3 c13b
00000340: 56a4 3f3d e6b1 133e 1ee4 2a3e 250f b63d
00000350: 6f89 a23d dca3 1bbe fd09 993d 291a 2ebe
00000360: b61d 193e 7f48 023e dd94 3e3e 0cdc 63be
00000370: 6b0c 7abb b592 5cbd 117d cabc 1e53 99bd
00000380: aec5 a7bd bd4e 0a3d 489f 55be 3607 98bd
00000390: 744f 42be f593 953d 3ec4 113e 8885 003e
000003a0: af29 273e d19b 5f3d a7e3 483e ab57 5ebd
000003b0: bfb9 d93d 517f ad3d a06e 44be 98a2 683e
000003c0: 4581 6ebd 0a3b 01be 5612 61bc 43ad 5ebd
000003d0: 1276 6ebc 9dfd 683d 4d98 1a3e 1eaf 903d
000003e0: 61a4 49bd 91ac b73c 52cd 1cbe 4b48 d6bd
000003f0: 6dab 6ebe 30ed 303d 5740 fdbd 5845 a83c
0.09784047 0.0849731 0.073613815 -0.017783638 -0.02036801 0.1344747 -0.084688045 -0.16531526
-0.011619036 -0.14698301 0.111553125 0.03345269 0.12216307 0.030701363 0.016487118 0.11711832
-0.028078336 0.08885187 0.09849725 0.064976096 -0.069665655 0.14370413 0.005531408 0.06241948
0.010194947 -0.044880427 0.16124001 -0.18812059 0.20845912 -0.1286382 0.18203476 -0.16214888
0.13460304 0.1494836 -0.0020381503 -0.16004984 0.18215805 -0.0015285115 0.080319785 0.09906153
-0.18982711 -0.19322915 0.06251406 0.074220225 0.1621978 0.13283846 -0.1704434 0.11430235
-0.20684496 -0.12349751 -0.01119378 0.11388522 0.16050921 -0.22067365 -0.069414355 -0.086369164
0.023531757 0.20241565 -0.11112384 0.18451504 0.17433722 0.022096554 0.028173141 -0.06568556
0.20789735 0.22220264 0.06984654 -0.054880187 0.19776726 -0.20481199 -0.073696025 -0.040688403
0.07960528 0.19197586 0.055395003 0.18036439 -0.06132366 0.062682755 -0.13362789 0.13530444
0.11935947 0.02277318 0.20335492 0.10067109 0.05903006 0.16123165 -0.098513275 -0.07516419
-0.18019113 0.07254007 0.07269313 0.012087992 -0.13456178 -0.14687733 0.05207231 -0.20285371
0.13814576 -0.0055007623 -0.068700366 -0.1503239 -0.17073952 -0.21396649 0.21615568 0.050369084
-0.098714836 0.06337867 -0.15784389 0.14121597 0.124070205 0.1904504 0.010830415 -0.07958977
0.15590592 -0.04518821 -0.22747208 0.19503516 0.07405151 -0.19025558 -0.16680314 -0.0019464316
0.027242236 0.15560132 -0.01313021 0.017755138 0.065339655 0.01683925 0.08041524 0.12414998
-0.00496865 0.14009725 -0.073674664 -0.047171645 -0.027505262 0.12420841 -0.120314255 -0.2120024
0.21004874 -0.03232541 -0.14669965 0.023819312 -0.02748387 0.043504577 0.025297344 0.12684922
0.034650426 -0.079784445 -0.008963899 0.113819905 -0.15287775 0.15912749 0.010264959 -0.13809581
-0.16238974 -0.070958205 0.14205149 0.17809577 -0.1871997 0.018425537 0.03622055 -0.20227066
-0.032144427 0.043883033 -0.043578472 0.17513923 -0.005966956 0.07497501 0.08912806 0.18954991
-0.20081861 -0.058562472 -0.21068184 0.11359686 -0.23306605 -0.15497607 0.08775061 -0.10954092
0.15531716 0.1337599 -0.109904215 -0.20373157 -0.03220187 -0.09839351 -0.008509606 0.10606683
0.23451477 -0.029720841 0.041879967 0.20809025 -0.07050021 0.14153372 -0.20657651 -0.019368462
-0.07625278 -0.14989756 0.21788 0.224787 0.17873193 -0.13940133 0.073495455 -0.120138824
0.20578587 -0.11778953 0.07990333 -0.033993177 -0.11183403 0.15864155 -0.034465574 0.005909405
0.046787582 0.14423332 0.16688582 0.08889607 0.0793637 -0.15199226 0.07472608 -0.17002167
0.1495274 0.12722968 0.18611474 -0.2225191 -0.0038154374 -0.05385085 -0.02471784 -0.074865565
-0.08192001 0.033766497 -0.20861542 -0.074232504 -0.18975621 0.07303611 0.14235017 0.12550938
0.16324495 0.054591957 0.19618092 -0.054282825 0.106311314 0.08471549 -0.19182825 0.22718275
-0.05822875 -0.12620178 -0.013737282 -0.054364454 -0.014554517 0.05688249 0.1509716 0.07064651
-0.04922903 0.022421153 -0.15312698 -0.104630075 -0.23307581 0.04319495 -0.123657875 0.020540878

model.1.running_var f4 [256]
00000000: 883e 783e 271b a73e 41c9 723e 12b5 733e
00000010: 62dd 473e 70f4 7c3e 1b96 a73e dd9e 533e
00000020: 5330 9a3e fe61 3c3e 6390 8a3e 43f7 d53d
00000030: 0b5d c73d a841 973e 9ebd 883e 920a 703e
00000040: db7b e13e d64b 823e 79a1 573e 8520 843e
00000050: 1f8f 3c3e 9999 023e c3b1 6a3e 3ca9 893e
00000060: e076 803e f93a a63e 2ec1 523e c7f4 9f3e
00000070: 4ab5 203e 60af 6c3e f1bf 953e fbe1 683e
00000080: 0ffa 8a3e b937 b33e bfad df3e 3061 883e
00000090: f13f 833e 6436 9a3e 67ab 663e 96ab 513e
000000a0: c5e8 aa3e 3d2d 213e 243e 913e 14e3 c33e
000000b0: a950 353e ca1a a03e c49a 2a3e 3466 7c3e
000000c0: 34d0 523e 60e0 933e 9ac6 143e fd1c 8b3e
000000d0: fa4f 863e 0d66 943e d89b a23e 6dec c83e
000000e0: d734 733e 74bf a03e 4209 3a3e d211 493e
000000f0: 5f7a 773e c0f4 313e 514c 513e 2edb 6a3e
00000100: 3a9e 5c3e c598 693e 0076 a33e 3544 653e
00000110: 4a14 773e 02ae 7b3e d6d3 c13e 8b79 743e
00000120: 5733 8c3e 0d74 2a3e 3a47 343e d54a b73e
00000130: 65d9 793e 7ebd 1b3e 98b0 0b3e 9995 503e
00000140: 86de 733e af59 4b3e 0c93 563e 7558 893e
00000150: a2a0 553e cd04 123e 9f94 6b3e d3dd 863e
00000160: 63a9 e63e 26c7 723e 454a 703e b497 523e
00000170: 9185 643e f2ed 243e 8936 8a3e 078c 963e
00000180: 0e11 8b3e 7151 5e3e 87c3 343e c67a 573e
00000190: d0cc 913e 6d34 6e3e d004 5a3e b291 543e
000001a0: 47b7 8a3e 0346 743e c57b 893e f9b3 003f
000001b0: f6a8 4e3e 96fe a63e 84ba a53e 398c af3e
000001c0: fa21 fe3d dd33 923e 14b3 9d3e fc6b 5a3e
000001d0: 0a9a a03e bdf8 a43e affa 953e 7184 173e
000001e0: 076d 843e e657 823e c527 a73e df54 df3e
000001f0: 0e62 143e a0e6 503e f357 703e ccf7 093e
00000200: 2259 a33e 8809 2f3e 02eb 813e 2313 123e
00000210: aec5 6f3e b6f4 123e 9745 223e a948 a43e
00000220: 8c6c 7e3e f407 aa3e 4ac6 553e 895a 893e
00000230: 0ef3 993e 1881 cb3e 2806 d83e d622 5f3e
00000240: 89ee 883e 5fde 633e a9ff 9f3e 5dfe a73e
00000250: ba7a 983e b304 a03e c255 923e 8374 873e
00000260: 0fd6 dd3e 19ea 883e 2f70 933e 07d2 713e
00000270: 681d 843e 9046 243e 4f7a a53e f8e6 243e
00000280: 17bb 303e 416a 7a3e 6ab1 e13d 5800 933e
00000290: 191d 523e 3fd8 9e3e d3dd f43d dc74 623e
000002a0: 5d72 7e3e 8d4b 803e dc4b 8e3e c5c0 f83d
000002b0: 53b1 6a3e 7ede 873e 69e0 ec3e 74ad 943e
000002c0: e0ea 9b3e 2017 923e d4e5 673e 281f fd3d
000002d0: 5f3f aa3e 64d5 9e3e 543e ce3e f371 aa3e
000002e0: be71 c13e f48b 873e e2d6 033e 1f63 683e
000002f0: c683 9e3e d573 833e d956 763e 7638 5c3e
00000300: 9fc9 2d3e 8c40 673e 04ee 8f3e 20dc 763e
00000310: cc3b 493e 49b7 c53e a8ab cb3e dad3 663e
00000320: 7fa9 d03e e27d 633e 51c4 8c3e 9fdc 6e3e
00000330: 5b53 613e a8d8 743e 6de9 983e 3076 383e
00000340: 1aab 983e cff1 da3e 4eb5 853e f9fa 963e
00000350: 240a a13e 6f1d 4b3e f661 2e3e 3805 c73e
00000360: 173c 243e 9bcb 8a3e 7423 6f3e 83e9 ba3e
00000370: 14dc 823e 53a6 713e 2ae4 963e 0b77 4c3e
00000380: d225 a63e e0e6 e93d fdd7 9a3e 118e 613e
00000390: 3bcb 493e d327 393e 7599 1e3e 86d5 af3e
000003a0: 638a a93e 1fcf d73e e8ad a43e 808a a53e
000003b0: ae51 833e 96a4 853e ab4c 6f3e a222 303e
000003c0: e387 9e3e 3c66 793e bc19 5a3e f5a2 953e
000003d0: c950 8a3e b48c 7d3e fe29 4c3e a715 8d3e
000003e0: 367d 8d3e 7ba9 a23e 1d39 2e3e bdeb 663e
000003f0: 8d7d 4e3e 08ee 4f3e f448 593e 89d2 5c3e
0.24242604 0.32637903 0.23709585 0.23799542 0.19518045 0.2470262 0.3273171 0.2066607
0.30114993 0.18396756 0.27063283 0.10447552 0.097345434 0.2954228 0.26707166 0.23441532
0.44039807 0.25448483 0.2105769 0.2580606 0.18413971 0.12753905 0.22919373 0.26886928
0.25090694 0.32466868 0.20581505 0.31241438 0.15694156 0.23113775 0.29248002 0.22742455
0.27143905 0.3500345 0.43687245 0.26636648 0.2563472 0.30119622 0.22526322 0.20475611
0.33380714 0.15739913 0.28367722 0.38259184 0.1770655 0.31270438 0.16660601 0.24648362
0.20587236 0.28882122 0.14528885 0.27170554 0.26232892 0.2898411 0.31759524 0.3924288
0.23750626 0.31396067 0.18167594 0.19635704 0.24167775 0.17378521 0.20439269 0.22935173
0.21544734 0.22812183 0.31925964 0.223893 0.24128833 0.24578097 0.3785693 0.2387449
0.2738292 0.16645832 0.17605296 0.3579928 0.24399336 0.15209004 0.13641584 0.20369567
0.23815355 0.1985843 0.20954531 0.268253 0.20862058 0.14259644 0.23005913 0.26341113
0.45051107 0.23708782 0.23465832 0.20565683 0.22316577 0.16106394 0.26994732 0.29403707
0.2716145 0.21710755 0.17652713 0.21042928 0.28476572 0.23262186 0.21290898 0.20758703
0.27092955 0.23854832 0.2685224 0.50274616 0.20181641 0.3261611 0.32368863 0.3428667
0.12408824 0.28555194 0.30800688 0.21330255 0.31367522 0.32221022 0.2929282 0.14796616
0.2586443 0.25457686 0.3264753 0.4361944 0.1449053 0.20400476 0.2347105 0.13473433
0.3190394 0.1709348 0.2537461 0.14265113 0.23415253 0.14351162 0.15846859 0.32086685
0.24846095 0.33209193 0.20876423 0.26826885 0.3006825 0.39746928 0.42192197 0.21790633
0.26744488 0.22252797 0.3124974 0.3281125 0.29781133 0.31253585 0.28581053 0.2645608
0.43327376 0.26741102 0.28796527 0.23615275 0.25803685 0.16042542 0.32319877 0.16103733
0.17258869 0.24454595 0.11020167 0.287112 0.20518912 0.31024358 0.11956372 0.22114891
0.24848314 0.2505764 0.2779225 0.12146143 0.22919206 0.26536936 0.4626496 0.29038584
0.30452633 0.28533268 0.22646266 0.12359458 0.33251473 0.3102218 0.40281928 0.3329006
0.3778209 0.26473963 0.1287494 0.22694062 0.3095991 0.2567431 0.24056567 0.21505913
0.16971444 0.22583216 0.2811128 0.24107409 0.19651717 0.38616398 0.397794 0.22541752
0.40754315 0.22215989 0.27493528 0.23326348 0.22004454 0.23910773 0.2986559 0.18013835
0.2981804 0.4276261 0.26114887 0.29488352 0.3145305 0.19835447 0.17029557 0.3887117
0.16038547 0.27108464 0.23353368 0.3650628 0.2555853 0.23598604 0.2947095 0.19967286
0.3245073 0.11420989 0.3024291 0.2202685 0.19706433 0.18081598 0.15488227 0.34342593
0.33113393 0.42150208 0.3216393 0.3233223 0.25648254 0.26102132 0.2336909 0.17200711
0.30963048 0.24355406 0.2129888 0.2922589 0.2701476 0.24760705 0.19937894 0.27555582
0.2763459 0.31769928 0.17013974 0.22550865 0.20165081 0.20305645 0.21219236 0.21564688

model.3.weight f4 [256, 256]
00000000: 8159 383c 3c9b 32bd f5af 1d3c b6da dfbc
00000010: 7c4a 1d3b 8bcf ba3d 85c5 ab3d df34 f83c
00000020: 2e1b 7abc 5dae a7bb aba1 f13c 9a4f f13c
00000030: e373 af3d ba4f 42bd e75a 143c 5791 20bb
00000040: 4828 483d 0f30 55bd 276d 08bd 80b7 2bbd
00000050: 704b 8bbc 34b0 9ebb 249d 923b c812 893d
00000060: 7fac 31bd 8c6a 213d 258c d1ba 6cda 653d
00000070: 4fa4 7bbc 1e04 d73c 4f79 89bc c5a3 a83b
00000080: fc21 863d 7f56 a2bc ab7e 13bd 1b01 4abb
00000090: 28c1 1d3d 4261 0d3c 5ef5 af3b 2ee5 dcbc
000000a0: 5ffc d8bb 11a2 a83c 4564 1abd 9305 863c
000000b0: 46b7 64bd a6ce 873d 7892 9f3d 2e13 39bd
000000c0: 5c8d 4abd c1d2 2abc 913f 5e3d 72dc 13bd
000000d0: df14 0b3c c243 bdbc 8c76 e93c 871c b8bc
000000e0: e181 a9b9 57eb 813d f7dd a2bc e020 853c
000000f0: a023 4c3c 69d8 713c 4ec3 8f3b d24a c2bc
00000100: c457 c23d 5d8e 0dbc 2327 93bc 5626 173c
00000110: 4c02 5f3c de2c 1ebd a8e7 59bb 2fa9 643c
00000120: ad93 e73c f33b 70bd 5498 65bd 6b9a 84bd
00000130: 0802 d83c 271e 4b3d d28d 33ba 6fcb 15bc
00000140: adaa 313d 490f 7b3c 8068 4bbd 1bba 053d
00000150: 9340 c43c a542 843d baa1 f3bc 6029 ac3c
00000160: a407 50bc d4a8 d8bb 96c0 40bd 2a69 b43d
00000170: 3c12 51bd 6d1f 54bd efa7 423c 0cbd ff3c
00000180: a301 e9ba bbdb 78bd cecc 4a3c 1945 033c
00000190: c797 05bd f53f d6bc 98fa 8cbc cef2 4c3d
000001a0: 26a4 ba3d 1541 b3bc a6dc 1bbd d18f ee3b
000001b0: 4be0 31ba a40f 933d 524b ad3c ef4a 9d3c
000001c0: 240a 0bbd 7443 1b3c ee8e 41ba eb54 803c
000001d0: 3ea4 74bc 7d44 42bd e5c5 3f3d cebf 1cbb
000001e0: 79b5 813c 6b3d 353d 4e32 183d 2ef5 053b
000001f0: 5121 f73c 8e54 763d f67d fcbb dca8 e2bc
00000200: be15 1a3d 5dbb 12bd e5cb 2e3d 96d1 30bd
00000210: 2d4a 9e3c c2ad 773d de51 063d 939c 5fbc
00000220: 2e4b cdba e152 2bbd 21ab d4bb a476 82bd
00000230: fe08 4e3d 6d34 4c3c 238e bc3c 6d1c 4d3d
00000240: e5aa 06bd 8b15 803c 88e9 1c3d f3d7 103d
00000250: a5dc 3f3d fd3c f83c dde3 483d 31f8 32bb
00000260: 2126 45ba f78e e4bc c6cb 993b 1280 813c
00000270: bacd 243d d3e2 f03c 5bba 0abd 9dc8 15bc
00000280: 5439 1ebd d34a a83c fbf5 36bd f675 123a
00000290: 1476 8abc 914a 6d3d 5314 643d e6d3 ceba
000002a0: f8d0 7fbd 95aa e9bc 9802 043c be6b 12bd
000002b0: 19eb ae3b c1e6 633c c3ef 3bbd d8c3 2c3d
000002c0: f73b bdbc 37e9 da3d d697 0abd 7d0c 8fbc
000002d0: 2b4f 803d b5ab 3cbd 5b80 cebc 4516 2ebd
000002e0: 1677 d13c c67b 5e3d 4516 643d faa8 fd3c
000002f0: fe94 6c3d 76f2 83bb e47d 9f3c c6dd 1a3d
00000300: 28f9 04bd 33a1 9cbc b144 b1bc 8ccc 03bd
00000310: 8e13 643d eb5c 613d c819 333c 4167 063c
00000320: cece 71bd 53f9 983d 9763 853c c510 fa3c
00000330: 938f 4bbd b29a d13c 2d3c 1cbc db2c 2b3d
00000340: 588b 613c cb3a 07bd 5965 14bd f3fe 9739
00000350: ae11 8d3d 2b19 93bc b529 c4bc 03a4 283d
00000360: a05b 94bc c973 353d d699 4e3d c1a0 6c3d
00000370: 9552 903b 13d2 f83c 5f5f 4d3b 1fdc 7f3d
00000380: 93bf 5bbc a39d e13c 1065 873b 2309 663a
00000390: 9d4c e03c a920 193c eb3c eabb 7545 2c3d
000003a0: a52e 483d 59a0 663d 1dfc 51bd 2c7c 1a3d
000003b0: e1a5 a13b 418f bebc eee5 8dba ea19 2e3c
000003c0: 6a02 9a3d f067 3d3c 4513 6a3c edd9 773c
000003d0: 1933 4b3d aae4 513d f725 153d 69c4 10bd
000003e0: eeb8 1abd 1cde 70bb 2f27 19bc d33d 933d
000003f0: 7503 413d c5fc 723c b955 7a3d d37f 813b
0.011251808 -0.043605074 0.009624471 -0.02732597 0.0024000695 0.09121617 0.08387283 0.030298648
-0.015265269 -0.0051172213 0.029496035 0.029456902 0.085670255 -0.047439314 0.009054876 -0.0024500692
0.04886654 -0.052047785 -0.03330722 -0.041923046 -0.017003745 -0.0048427824 0.004474299 0.06693035
-0.043377396 0.03940825 -0.0015987201 0.056116506 -0.015358998 0.02624708 -0.016781477 0.005146476
0.06549451 -0.019816635 -0.036009472 -0.0030823413 0.038514286 0.008629145 0.005369826 -0.02696475
-0.006621882 0.020585092 -0.03769328 0.01636008 -0.055838846 0.06631212 0.077916086 -0.045184307
-0.049451217 -0.010426224 0.05425984 -0.036098905 0.008488863 -0.023103599 0.02849891 -0.02247454
-0.0003233096 0.06343716 -0.019881232 0.016251028 0.012459666 0.014761069 0.004387296 -0.023717318
0.09489396 -0.008639899 -0.017962998 0.009225449 0.013611387 -0.038617007 -0.003324965 0.013956352
0.02826866 -0.058650922 -0.056053475 -0.064747654 0.026368156 0.049589302 -0.0006849441 -0.009142741
0.04337566 0.0153234685 -0.049660206 0.032648187 0.023956573 0.06458024 -0.029740203 0.021015823
-0.012697134 -0.0066119228 -0.047058664 0.08809121 -0.05104278 -0.051787782 0.011880859 0.031218074
-0.0017776977 -0.060756426 0.012377931 0.00801208 -0.03261545 -0.026153544 -0.017209336 0.050036244
0.0911334 -0.02188162 -0.038052224 0.007280328 -0.00067854364 0.071807176 0.02115408 0.01920077
-0.033945218 0.009476531 -0.0007383664 0.015665492 -0.0149317365 -0.047428597 0.046819586 -0.0023918035
0.015833603 0.044248026 0.03715735 0.0020440328 0.030167254 0.06013923 -0.0077054454 -0.027668409
0.03761839 -0.035823215 0.042674918 -0.043168627 0.01932248 0.060468443 0.03279292 -0.01364817
-0.0015662664 -0.041827086 -0.0064901267 -0.06370285 0.050301544 0.012463671 0.023016995 0.050075937
-0.03287782 0.015635272 0.03830865 0.035362195 0.046841282 0.030302519 0.049045432 -0.0027308578
-0.0007520635 -0.027900202 0.004693481 0.015808139 0.04023526 0.029405033 -0.03386913 -0.009142068
-0.03862889 0.020543491 -0.04466818 0.00055870356 -0.016902007 0.05793244 0.055683445 -0.0015779703
-0.062455148 -0.028523723 0.008057259 -0.035747282 0.0053380844 0.0139099965 -0.04588295 0.04217896
-0.023099883 0.106890135 -0.03383621 -0.01746201 0.062651 -0.04606219 -0.025207689 -0.042501707
0.02556948 0.05431726 0.0556853 0.030964363 0.057759278 -0.0040267063 0.019469209 0.037809156
-0.032464176 -0.019119835 -0.0216392 -0.032177493 0.05568271 0.055020254 0.01093144 0.008203329
-0.059035115 0.0746943 0.01628284 0.030525574 -0.04969747 0.02558646 -0.009535831 0.041790824
0.013766132 -0.033015054 -0.036229465 0.00028990916 0.06888138 -0.017956337 -0.023945669 0.04117204
-0.018110096 0.044299874 0.050439678 0.057770494 0.004404376 0.030373609 0.0031337363 0.062465783
-0.013412374 0.027540987 0.0041319206 0.0008775165 0.027380282 0.009346166 -0.0071483753 0.042058427
0.04887261 0.056305263 -0.051265825 0.037716076 0.0049331044 -0.023261668 -0.0010825971 0.010626296
0.07519992 0.011560425 0.014286821 0.015127641 0.049609277 0.05124346 0.03641316 -0.03534356
-0.03777402 -0.0036753481 -0.009347721 0.071895264 0.047122438 0.014830773 0.061116908 0.0039520054

model.3.bias f4 [256]
00000000: 03e5 5f3c 552a f5b9 93b3 683d 7d1d 42bd
00000010: 8428 233c 5e84 ff3c a0d4 22bd 4b63 a43a
00000020: edcc 24bd 6553 e6bb d801 0cbd 8351 6f3d
00000030: 80db 263d 4c7d 8cbd ae48 ba3c a784 babc
00000040: 67fa 35bc 78f4 15bd 59d8 643d e741 e93c
00000050: 73cd 17bd a4b8 f43a 6bc7 b53c ad7f 523a
00000060: 9df2 0e3c 64d1 1dbd 9611 283d a36b 633d
00000070: 1157 4bbc 03d8 87bd 36af b73c 9d63 dbbc
00000080: 40c6 e33c 2dc5 4abd de75 113c f1cb f9bb
00000090: d358 74bd 093a bdbc 0e80 d6bc 9080 d23c
000000a0: dcc4 c93c 5c78 bd3c 89d2 85bd b341 8c3c
000000b0: c09d 523d a9d9 d9bc 1c71 edbc d3c4 293d
000000c0: 59b9 fe3c f6d0 d1bc 4bcb 18bd 5809 75bd
000000d0: 5ae7 55bd 7b01 c03b c160 acbc 0618 55bc
000000e0: 8565 42bd ca48 67bd 7b5e 673d 146d 99bc
000000f0: db7b cdbb e79d 42bc 6f5b 0e3c ba64 bebc
00000100: 194c 7a3d 2a44 283d 0deb 94bc d9cd 9a3c
00000110: e8c9 a43c fa7e 163c 36dd a73c a490 d0bc
00000120: 6823 85bd 3292 01bd ef1d c0bc 4b92 ac3c
00000130: cf9e 58bd 635a 59bd dfe4 503b 82bc 123c
00000140: 5d7b e4bc 2272 26bd 6dba 20bb 4077 0abd
00000150: 59a8 333d a72c 3bbd 5f93 b33c 2c03 103b
00000160: 0348 143d 63f1 dbba 4db2 3fbd da71 023c
00000170: bc79 053d ed81 18bd e883 383c a223 bbba
00000180: b343 36bd ee7d 4a3d 40c3 6b3d ed49 3f3c
00000190: 9b97 5f3c 72e6 c6bc 1bbd 6abd 6792 2a3d
000001a0: 905e 903c 17f7 07bd 12c4 1d3d e14b 85bc
000001b0: b455 413d ad68 10bd b914 59bb a72c 1fbd
000001c0: 49b8 8b3d 69e6 793d 70b4 0d3d 02ae 813d
000001d0: bbec 75bd cecd 15bc 80e4 c93c 2de3 24bd
000001e0: c4ec 9c3c 6c36 b33c 9640 64bb 5a7e 543d
000001f0: d358 683d 3f35 11bd 1105 843c 40af 0bbd
00000200: a335 973c dd4b 923c 8e95 443d baa8 643d
00000210: 1766 893d fefb 893c 83e1 163b 1b6f 523c
00000220: aeae 28bd 1b16 383d 94fb 5b3b 08ea 6b3d
00000230: fd06 52bc ff2d 0fbb 0f00 533c 125c 49bd
00000240: 5f0c 8e3c 65e9 b23c 8d8f 353d 077c dbbc
00000250: 2447 003d ca4a 47bd 83ee 493b 1462 34bd
00000260: 27b0 4bbc ca57 d73c 77d4 093d 71bb 443b
00000270: d7ee 12bd d925 d8bc f342 02bd 63c8 33bd
00000280: 72cc 463c ad61 19bc 41f3 c33c 4816 13bd
00000290: 3129 9b3c f642 9cbc 39ce 4abd bf57 4bbd
000002a0: a8a0 173d 3b09 f93c 01df 14bc 0e78 5ebb
000002b0: 9bed 6fbc 8c10 763d b6b9 803c c983 173d
000002c0: 6326 133c bdd6 86bc e359 da3c 49e5 26bd
000002d0: 59b8 1cbd 360a 2a3d dffe 303d 4389 06bd
000002e0: 7969 633d ee1b 3abd 2224 71bb 29e7 a6ba
000002f0: 5c9f 003d b336 c9bc e17f d5bb bbb8 423d
00000300: bcb8 74bd 5b11 8a3d 3420 803c a2bc ea3b
00000310: 7c55 24bd 5e96 33bc 2dbb 0b3d 6ae9 0abd
00000320: 389d c5bc 94dc 523c e85a 3c3d f5d9 b13c
00000330: 9c9e 54bd 899f 1c3d 271a cc3c ffda 14bd
00000340: 2e16 f4ba b4df 943b 6c26 3f3d 8699 14bd
00000350: 42e9 fd3c 2fd5 4dbd c2be 18bd 5566 4b3d
00000360: 1f92 00bc 61e3 48bd 6d18 853d 6e86 17bd
00000370: bab3 08bd 3ab9 34bd f0c4 213c 930c d7bb
00000380: 4640 2abd fc65 4dbd d20c 243d a308 7dbd
00000390: aaaf 63bc dfca 1fbd 1aa2 f13c 6516 333d
000003a0: 960e 9ebc 0ce8 02bd a642 5dbd 2c9e 1fbc
000003b0: 8b8e 59bd 8d09 3f3d 2f36 47bd 5f3c 9c3b
000003c0: 8c3a 45bd 29ca dd3c 7872 78bb 1865 09bd
000003d0: 0ff1 433d e123 34bb 784d 06bd f34b d3ba
000003e0: 7bd4 c6bc 3f67 373d 3f0d 713d 07e7 a93c
000003f0: 7e2c 9bbb be2b 653d 1b70 9bbb ce56 23bd
0.0136654405 -0.0004676158 0.05681188 -0.047391403 0.00995839 0.031191047 -0.039753556 0.0012541799
-0.040234495 -0.0070289844 -0.034181446 0.058427345 0.040736675 -0.06859836 0.022739735 -0.022768332
-0.011107064 -0.036610097 0.055870388 0.028473807 -0.037061166 0.001867075 0.022189816 0.00080298894
0.008724836 -0.03852977 0.041032396 0.055522572 -0.012410895 -0.06632998 0.022422414 -0.026780898
0.027804494 -0.049504448 0.008878199 -0.0076231887 -0.059655022 -0.023098962 -0.026184108 0.025696069
0.024630003 0.02312868 -0.06534297 0.017121172 0.051419973 -0.026593046 -0.028984599 0.04144747
0.03109424 -0.025612336 -0.03730325 -0.059823364 -0.052222587 0.0058595515 -0.02104223 -0.013006216
-0.047460098 -0.0564659 0.056486588 -0.01872877 -0.0062708682 -0.011878467 0.008688792 -0.02324139
0.06110773 0.04108063 -0.018178487 0.018896984 0.020115808 0.009185547 0.020491224 -0.025459595
-0.06500894 -0.031633563 -0.023451773 0.021065852 -0.052885827 -0.053064715 0.00318747 0.008956077
-0.027890855 -0.04063619 -0.002452518 -0.033805132 0.04386172 -0.04569688 0.021920858 0.0021974547
0.03620149 -0.0016780313 -0.0468009 0.007961715 0.032586798 -0.037233282 0.011261918 -0.0014277587
-0.044498157 0.049436502 0.05755925 0.01167534 0.013646985 -0.024279807 -0.05730925 0.041643526
0.017623216 -0.033194628 0.038517065 -0.016271533 0.047200873 -0.035256077 -0.0033123924 -0.038860943
0.06822259 0.061010752 0.034595907 0.063320175 -0.060040217 -0.009143306 0.02464509 -0.040255714
0.019155867 0.021876536 -0.0034828535 0.05187831 0.056725334 -0.03545117 0.016115697 -0.03410268
0.018458193 0.01785844 0.04799419 0.055824973 0.06708925 0.016843792 0.00230226 0.012843872
-0.041182213 0.044942956 0.00335667 0.057596236 -0.012819049 -0.0021847484 0.012878432 -0.04916007
0.017339883 0.021839807 0.044326354 -0.02679254 0.031317845 -0.04865531 0.003081233 -0.044038847
-0.012432135 0.026286978 0.033649888 0.003001895 -0.035872307 -0.026385235 -0.03180213 -0.043892276
0.0121337045 -0.009361667 0.023919703 -0.03590992 0.01894054 -0.019074898 -0.049513076 -0.049644228
0.037018448 0.03039991 -0.009086371 -0.003394607 -0.014644052 0.060074374 0.015713554 0.036990914
0.00898132 -0.016459817 0.02665419 -0.040746007 -0.038261745 0.041513644 0.043211814 -0.032845747
0.05552051 -0.045436792 -0.0036795218 -0.0012733686 0.031401977 -0.024562215 -0.0065154885 0.047539454
-0.05974649 0.067415915 0.015640356 0.0071636 -0.040120587 -0.010961143 0.03411405 -0.033914007
-0.02412282 0.012869973 0.045985132 0.021710375 -0.051909074 0.038238082 0.024914814 -0.036341663
-0.0018622333 0.004543269 0.0466675 -0.036279224 0.030995015 -0.050252136 -0.037291296 0.04965814
-0.007847338 -0.04904497 0.064987995 -0.036993437 -0.033374526 -0.04412196 0.009873614 -0.0065627783
-0.041565202 -0.050146088 0.04005129 -0.061775815 -0.013896862 -0.039011832 0.029496241 0.04372253
-0.019294064 -0.03195958 -0.05401864 -0.009742301 -0.053114455 0.046639968 -0.048635658 0.004767939
-0.048151538 0.027073937 -0.0037910026 -0.033543676 0.047837313 -0.0027487206 -0.032788724 -0.0016120657
-0.02427124 0.044776198 0.058850523 0.020740045 -0.0047355285 0.05594992 -0.0047435886 -0.039877705
