models/metabolic_nn.pth (torch, 80465 bytes, 5 tensors)

model.0.weight f4 [128, 20]
000000 f9 92 53 be cb 38 a4 bd 3b f4 c0 bd 60 17 3a be
       -0.20661534 -0.08018645 -0.09421583 -0.1817298
000010 8e 0b 03 be ab 56 36 bc ba 94 a9 bc 25 74 1b be
       -0.12797377 -0.011129062 -0.020700801 -0.15181024
000020 5c de 92 bb 6d 36 bb 3c e9 a8 33 3e 80 e7 1d be
       -0.0044820737 0.0228531 0.17544903 -0.15420341
000030 f6 37 14 be 26 5e af bd 40 37 2f 3e fa f4 83 3d
       -0.14474472 -0.08562879 0.1711092 0.0644321
000040 b9 90 96 bc e9 65 48 bd 54 b6 d1 bd 1c 9f 0c 3e
       -0.018379556 -0.048925314 -0.102398545 0.1373257
000050 8a 9c cf 3d e3 d9 b3 3c a8 c4 5b 3e a7 66 ff 3d
       0.10137279 0.021954482 0.21461737 0.12470751
000060 61 c2 e2 3b e0 8d 6d 3d 63 06 1c be fa b2 b9 bd
       0.0069201444 0.05799663 -0.15236811 -0.0906734
000070 9e b2 e5 3d c8 9f 20 3e d6 da 1d 3e 4a 32 2b bd
       0.11215709 0.15685952 0.1541551 -0.041796006
000080 e2 a8 20 3e 49 c1 bc 3d 99 a3 a9 bd 38 94 07 3e
       0.15689424 0.09216554 -0.08283157 0.13240135
000090 f7 27 03 3e c0 07 f8 bd 0f 8e 3a be df f4 d3 3c
       0.12808214 -0.12110853 -0.18218254 0.0258736
0000a0 fd db 64 be c3 0c 3e 3c 04 2b da 3a 26 8f 17 be
       -0.22349544 0.011599722 0.00166449 -0.148007
0000b0 b5 2a ac 3b 94 41 6e bc 7f 04 95 bc be 49 24 be
       0.0052541145 -0.014542002 -0.01819062 -0.16043755
0000c0 6d f7 7d be 9a a6 1a 3e f5 c8 45 3b 1c ab be 3d
       -0.24801417 0.15102616 0.0030179594 0.0930998
0000d0 92 71 dd 3b 32 2d 96 3c 8d 75 7e bd c7 cf 32 bd
       0.0067579234 0.018332098 -0.062123824 -0.043655183
0000e0 da 30 f0 bc 78 cf 7e bb 70 00 85 3d bf 6f fb bd
       -0.02932017 -0.0038880985 0.06494224 -0.12277173
0000f0 99 2f 3d 3e e9 c5 1d 3e 38 80 79 3e 6e a0 d6 bd
       0.18475188 0.15407528 0.24365318 -0.10479818
000100 0d f2 76 ba c6 12 7e 3d 85 3c 83 bd ed 33 19 be
       -0.00094202237 0.062029622 -0.064080276 -0.14961214
000110 b4 dc 1c bd 88 4f 5e be 8f 2d 45 3e 71 cd e4 3c
       -0.038296416 -0.21710026 0.1925566 0.027929993
000120 ab 75 a3 3d fa 26 44 be 9f 86 6a 3d 99 f9 63 bc
       0.07981428 -0.19155493 0.05725729 -0.013914489
000130 6f 8d 99 3d 1e ac 41 be 94 d0 c3 bd 42 61 53 3e
       0.074976794 -0.18913314 -0.095612675 0.2064257
000140 33 d6 7a be b2 56 6a be a5 4b 73 3d cf 32 24 3e
       -0.24495773 -0.22884634 0.059398312 0.16035007
000150 ed 19 45 bd 4c f6 de bd 54 e6 20 be 61 d6 2c 3d
       -0.048120428 -0.10886821 -0.15712863 0.042196635
000160 35 56 a7 bd ad 8f 0d be 52 29 8e 3d 8b 59 16 3e
       -0.081707396 -0.13824339 0.06941475 0.14682595
000170 4c 0b 60 bd 02 29 f5 3d 58 82 bc 3d 09 21 1e be
       -0.054698274 0.11970712 0.092045486 -0.1544229
000180 aa 15 ee 3d ea 03 62 be 33 fb c2 3d c5 82 30 3d
       0.11625226 -0.22071806 0.09520569 0.04309346
000190 57 8c 36 be c5 88 d8 3d 4c 50 4a 3e e4 b7 62 3e
       -0.17826973 0.10572962 0.19757193 0.22140461
0001a0 84 de be bb f1 95 30 3e 12 d7 39 bc 14 b9 25 be
       -0.005824866 0.17244698 -0.011342781 -0.16183883
0001b0 e1 55 fe bd e8 35 5d bd d4 20 13 3e 41 70 1e 3e
       -0.12418724 -0.054006487 0.14367992 0.15472509
0001c0 04 1f 03 3d 68 2c 3c 3e 6e f3 5d 3e 6c fe 91 bd
       0.032012 0.18376315 0.21674892 -0.07128605
0001d0 c6 ca ef 3d 6c db 78 3d b9 24 97 3d a6 f0 14 3c
       0.11708598 0.060756132 0.07380051 0.009090578
0001e0 2d 47 bc 3d 1e 39 17 bc 14 22 10 be a8 d3 62 be
       0.09193263 -0.009229926 -0.140755 -0.22151053
0001f0 7a 06 11 bb 69 35 f3 bd b5 b9 cd bd dd 7a 95 bc
       -0.0022129104 -0.118754216 -0.100451864 -0.018247062
000200 35 c6 ea bc bf a2 28 3e 43 46 89 be fc b8 2b be
       -0.028658966 0.16468333 -0.26811418 -0.16769785
000210 f5 2e 68 be 54 d4 e4 3b a3 3a 1e be 35 5b 04 3e
       -0.22674163 0.0069833193 -0.15452056 0.12925418
000220 ea 82 5d 3e b3 db 61 be a6 65 e7 3d 34 59 c6 bd
       0.21631971 -0.22056465 0.11298685 -0.09684983
000230 32 1d 77 3e 17 b4 08 3e 27 6a d9 3b e4 30 02 3e
       0.24132231 0.13349949 0.006634969 0.12713963
000240 b0 e1 33 3e 55 df c2 3d 9b 84 19 bd e9 de 1f be
       0.17566562 0.095152535 -0.037479978 -0.15612377
000250 32 47 e8 bd 26 aa 5e 3e f7 9a 08 3e ca 31 a2 bd
       -0.113417044 0.21744594 0.13340364 -0.07919653
000260 3b 6a 2a 3e 18 06 44 3e 4b a5 04 3d c3 4e 1e be
       0.16642086 0.1914295 0.0323842 -0.15459733
000270 2d 73 04 3e 5c 71 32 3d ee 03 5b 3e e2 c1 1d be
       0.12934561 0.04356514 0.21388218 -0.15405992
000280 04 ec 57 3e 9b 0e 36 be 97 bc 40 3c db 62 dd 3d
       0.21086127 -0.17779009 0.011763713 0.10809871
000290 a0 24 1b 3e f9 7f 6e 3e 28 c2 dc 3d 06 5a 96 bc
       0.1515069 0.23291005 0.1077922 -0.018353473
0002a0 ab 8d 49 bc 39 69 c7 3d 0c 46 20 3e 2f 1c 53 3e
       -0.012301843 0.097368665 0.15651721 0.2061622
0002b0 12 9c bd 3c 15 ef 47 3e 1a a7 6c 3d 6f 49 09 be
       0.02314571 0.19524796 0.057776548 -0.13406919
0002c0 6e b3 1f be 3f c9 b7 bd 0c da 2a be 95 6b 8a bc
       -0.1559579 -0.089739315 -0.16684741 -0.016897002
0002d0 02 d8 44 3e 81 b2 3b 3d da 92 f1 3d 1b b6 f8 3d
       0.19223025 0.04582453 0.11795588 0.12144109
0002e0 14 b1 f7 3d a5 5f 4d be 37 4f af 3c 42 49 9a 3c
       0.12094322 -0.20056017 0.021400077 0.01883376
0002f0 42 3a 04 be 03 f4 44 be bb b6 cc bd 7a 03 7d be
       -0.12912849 -0.19233708 -0.099957906 -0.24708357
000300 e1 37 05 be fe 70 f5 3d 5a cf 2b be ef a6 22 3e
       -0.13009597 0.11984442 -0.16778317 0.15883993
000310 bf 4a c9 bd 1b 47 90 3d 67 7f 2d be 18 aa 10 bd
       -0.0982871 0.07044812 -0.16943131 -0.035318464
000320 85 ef d4 bd 60 db 90 bc 45 3c 59 be 2d f7 8b bd
       -0.10397247 -0.017682731 -0.21214397 -0.068342544
000330 b5 c9 79 3d 7e db 3e be ed 9a 51 be 43 eb 4a 3d
       0.06098338 -0.18638417 -0.20469256 0.04954077
000340 83 cd 4b be b3 8b a1 3d e8 91 c9 bd 43 b0 83 3d
       -0.19902615 0.07887974 -0.098422825 0.06430104
000350 19 bd e5 3d 7f 2f 60 be 9c 32 2e 3e ac d6 40 3e
       0.11217708 -0.21893118 0.17011493 0.18831891
000360 4a 9f bd bd 92 80 87 3c 94 1e c7 bd e9 2d fc bc
       -0.092588976 0.0165408 -0.09722629 -0.03078361
000370 3b 66 7b 3e ff 2b a3 3d e3 0e 0e 3e 14 d7 52 3e
       0.24550717 0.07967376 0.13872866 0.20589858
000380 06 b8 14 3e a4 4b 1d 3e 3e fc 34 3e f7 2e 0f 3e
       0.14523324 0.15360886 0.17674348 0.1398276
000390 81 89 59 3e ec f3 90 bd f2 90 05 be d4 5d 46 3e
       0.2124386 -0.070777744 -0.13043573 0.1937173
0003a0 6f 2b ab bd 3c e6 2d 3d 7f e5 60 3d 23 9b bc 3d
       -0.08357894 0.042455897 0.054906365 0.092092775
0003b0 b0 87 01 bd 62 30 18 3e 9b c9 00 be 34 30 25 be
       -0.031623542 0.14862207 -0.12576906 -0.1613167
0003c0 3a 20 12 be 4e c2 10 3e e1 b4 2a be 34 30 51 bd
       -0.14270106 0.14136621 -0.16670562 -0.05107136
0003d0 20 03 ea 3d a3 19 8e 3d 46 d5 0f be ca 3f a7 bd
       0.11426377 0.069384836 -0.14046201 -0.08166464
0003e0 1c b7 6c 3c b2 c9 35 be 42 f5 20 3e 81 c7 1a 3e
       0.014447954 -0.17752722 0.15718558 0.15115167
0003f0 07 e0 48 be fb bb 21 be e0 69 18 3e 43 f1 d0 3c
       -0.1961671 -0.15794365 0.14884138 0.025505668

model.0.bias f4 [128]
000000 8e 02 42 3e 48 31 3c bc ce 91 9c bb de 60 94 3e
       0.18946287 -0.011486359 -0.0047781235 0.28980154
000010 ab be 87 3d fc 9b 5b 3c 90 19 1c be a3 f7 43 bd
       0.06628164 0.013403889 -0.15244126 -0.047843587
000020 e7 99 3a 3d b3 86 59 3e e2 8c b3 bd 5a 4d 47 3d
       0.04555693 0.2124279 -0.08767106 0.048657753
000030 f4 f3 d4 bd 3d 18 30 3e c3 a5 4a 3e 9a c4 15 bd
       -0.10398093 0.17196746 0.19789796 -0.036564447
000040 a5 d0 c4 3d b4 ce 8d 3e 04 1f 03 be f6 25 75 3d
       0.09610108 0.27696764 -0.128048 0.059850655
000050 27 3a eb 3d 9c 5c 0a be 48 cd 76 3e cd 12 80 3c
       0.11485701 -0.1351189 0.24101746 0.015633965
000060 31 f2 3e be 2c 61 47 bd b9 ff 72 3d 5f e3 0f 3d
       -0.18647076 -0.048676655 0.059325907 0.035128947
000070 ae c0 e6 bd da 78 af 3d e3 55 7b 3e 86 de db 3d
       -0.112672195 0.085679725 0.24544482 0.10735802
000080 80 b3 0e 3e 49 91 04 3e 68 6f bc bd 9a 47 2e be
       0.13935661 0.12946047 -0.092009366 -0.17019501
000090 c8 dd 17 3e 63 28 4e 3d ce b4 04 be 3a ff 2c 3d
       0.14830697 0.050331485 -0.12959597 0.04223559
0000a0 ea 32 5a 3d 9f 49 66 be 93 c3 0a 3d f3 1d b9 bd
       0.05327121 -0.22489022 0.03387792 -0.090389155
0000b0 07 e1 54 3d 9a d5 15 be aa dd b0 bc 52 41 09 be
       0.051972415 -0.14632264 -0.021590073 -0.13403824
0000c0 de 78 91 3c 2d 10 e5 3d 29 87 9d bc 90 e7 c9 3d
       0.01775783 0.11184726 -0.019229488 0.0985862
0000d0 0d f1 2e 3e 53 0a 89 bc bd 93 9f bd d5 ef 76 bd
       0.17084141 -0.016728556 -0.07791851 -0.060287315
0000e0 42 fc 24 3e 61 a3 1c 3e 3c 1c 0e be d3 7e 35 be
       0.16111854 0.15296699 -0.13877958 -0.17724161
0000f0 18 d7 62 3d 3f 9d 5a 3e 1c b4 17 3e 32 52 60 3e
       0.05538091 0.21349047 0.148148 0.21906355
000100 2f 77 a7 3d f4 03 1c be 01 ce df bd ac f0 de bd
       0.08177029 -0.15235883 -0.10927964 -0.10885748
000110 f1 89 f9 bc 46 70 a0 bc de dc 4e 3e 56 47 5e 3e
       -0.030461283 -0.019584786 0.20201442 0.217069
000120 17 11 ee bb 47 07 54 be 8e 3c 99 3d 11 cd 17 3e
       -0.007265221 -0.20705901 0.07482253 0.1482432
000130 c5 fa e1 bc d5 64 f9 bd 19 51 d2 3d 06 b3 3a 3d
       -0.027585397 -0.12177435 0.102693744 0.045580886
000140 69 eb dd 3d 98 83 ee bd db fd 69 bd 07 83 1e be
       0.108359165 -0.11646193 -0.05712686 -0.1547967
000150 3d e3 3e 3b 3d ea 4a 3e 79 e0 ed bd 9e 61 21 3e
       0.0029127144 0.19815917 -0.116150804 0.15759894
000160 fd 19 5d be 4e 20 67 bc 7b 84 4e 3e 0b 91 ec bd
       -0.21591945 -0.014106823 0.20167725 -0.11551102
000170 21 68 72 be d7 f3 6c bc 7f 69 6b 3e ae ea 22 3e
       -0.23672535 -0.014462433 0.22989462 0.15909836
000180 79 fd 96 bd ae ed 3f 3e f3 cb 56 3e 85 92 4c 3d
       -0.07372565 0.18743011 0.20976238 0.04994442
000190 fe 6c 66 3e b6 bc 6d 3e d6 ad 64 3e 4f b5 5b 3e
       0.22502515 0.23216519 0.22331938 0.21455882
0001a0 17 3b 84 3c c8 db ac bd 07 a5 11 3e a8 70 c1 3d
       0.016141457 -0.084403574 0.14223109 0.094453156
0001b0 93 dd b3 3d c5 a4 cb 3c 7b 14 65 be 37 8e 4d 3e
       0.08782496 0.024858842 -0.22371094 0.20073782
0001c0 76 30 3b be 56 47 97 3d d8 49 41 3e 07 01 f3 3d
       -0.18280205 0.07386653 0.18875825 0.1186543
0001d0 f7 16 4e be 37 f3 56 3e 76 2b 09 be f2 86 08 3e
       -0.20125948 0.20991217 -0.13395485 0.13332728
0001e0 93 b9 56 bd 79 d8 4e be f2 85 b1 3d 4c 71 2e bd
       -0.05242307 -0.20199765 0.08668126 -0.042588517
0001f0 8a 98 0c 3e b6 58 4f 3e ac b6 00 be f9 a2 f6 3b
       0.13730064 0.20248684 -0.12569684 0.007526752

model.2.weight f4 [128, 128]
000000 16 e7 3e bd 04 27 ac 3c fd 51 4a bd 72 08 b8 3c
       -0.0466071 0.021014698 -0.049394596 0.022464965
000010 ec 06 c9 bd 3c d8 c4 bd be b3 c9 bc 7d 6c d7 3c
       -0.09815773 -0.09611556 -0.02462184 0.026296848
000020 07 51 50 3c f1 89 20 3d 7c 9e c0 3c 8d 56 89 3d
       0.012714631 0.03919405 0.023513071 0.067059614
000030 f6 21 b4 bd 0b 94 3c bd 91 31 8d bd 7f a9 5b bd
       -0.0879554 -0.046039622 -0.0689422 -0.05362844
000040 c4 a0 3c bd 1c 85 81 bd 95 80 8b bd 42 cf 84 bd
       -0.046051756 -0.06324217 -0.068116345 -0.06484844
000050 8f 99 19 bd bb 2a 73 bd 54 e1 a6 bc 99 25 e0 3c
       -0.03749996 -0.059366923 -0.020371117 0.027361678
000060 d6 94 96 bd 3f 54 52 3d 0a ba 9d bd c3 b8 fc bb
       -0.07352607 0.051349875 -0.077015 -0.007712455
000070 7e a9 87 bd 51 2e 90 3c ef c2 c3 3b 38 39 b5 bd
       -0.06624125 0.01760021 0.0059741656 -0.08848804
000080 3f 42 06 3d 93 4a 62 3d 61 96 18 3d 56 7b f2 3b
       0.03277802 0.0552469 0.037252788 0.0073999567
000090 a1 24 58 bc 49 43 5a bd 9d c1 c7 bd 7c ed ad 3b
       -0.013192327 -0.053286824 -0.09753726 0.0053078514
0000a0 88 36 3a 3d 59 da 67 3d b6 25 c0 bd cb cb 16 bb
       0.04546216 0.056604717 -0.09382193 -0.0023009654
0000b0 92 0b 97 3d 9f dd 91 bd 52 e4 34 bd a0 ed 44 3d
       0.07375254 -0.07122349 -0.044163056 0.04807818
0000c0 1b e6 ce bc 39 68 75 3d 95 3b 94 bd 53 8a 81 3d
       -0.025256207 0.059913848 -0.07237927 0.063252114
0000d0 db f1 1c bd a3 b3 94 bd 9b 89 83 bd 0c 3b b4 bd
       -0.03831659 -0.072608255 -0.064227305 -0.08800325
0000e0 4f 59 17 3d ab 87 03 bc 64 49 91 bd 8a f2 8b bd
       0.036950406 -0.008027951 -0.07094076 -0.0683337
0000f0 a5 e0 33 3d bb 32 c4 bc b1 87 95 bd 90 94 29 3c
       0.04391541 -0.023949971 -0.07301272 0.0103503615
000100 77 c1 a2 bc b4 4b 97 ba dc 59 ea 3c 80 1f 23 3d
       -0.019867642 -0.0011542947 0.028607301 0.039824963
000110 47 3e c9 3c 1d 2a e7 bc ef db 03 bd 3b ed 79 bd
       0.024565829 -0.028218323 -0.032192167 -0.061017256
000120 a1 ba 39 bd e6 b8 b2 3c eb ea dc 3c a1 c6 86 3c
       -0.045344 0.021816682 0.026967486 0.016452136
000130 94 08 e1 3a 06 c4 1d bd c5 03 53 bd 43 4b 92 bd
       0.0017168694 -0.03851702 -0.051517267 -0.07143261
000140 31 b5 89 bd 63 ef e8 bc 19 85 c4 bd 97 0d 74 3c
       -0.06724013 -0.028434461 -0.09595699 0.014895818
000150 00 d5 bc bd 3b 90 84 bd f0 00 92 bd 75 86 53 bc
       -0.09220314 -0.06472822 -0.07129085 -0.012910475
000160 e6 6b 6b 3c da bb 13 bd 83 c2 43 bd 47 59 5f bd
       0.014368987 -0.03606782 -0.047792923 -0.0545285
000170 74 4e 5d 3d 31 89 97 bd f8 da 5c bd 0c 8a 45 3c
       0.054029897 -0.07399214 -0.053919762 0.012056839
000180 eb a0 85 bd 7a d1 92 bd 6b 18 64 bd 39 18 3a bd
       -0.06524833 -0.07168861 -0.05568735 -0.045433257
000190 02 5e 95 bd 63 af 45 bd 30 49 3e 3c eb 43 a6 bd
       -0.07293321 -0.048262965 0.011614129 -0.08118423
0001a0 cc cb ad bd d8 62 c3 bd a6 b8 3c 3d 1f 6f 90 bd
       -0.08486137 -0.09540337 0.046074532 -0.07052445
0001b0 87 56 25 bc 18 02 9e 3c 47 80 8e bd ad f2 87 3d
       -0.0100914305 0.019288108 -0.06958061 0.066380836
0001c0 c1 4e ca 3c 7d ec ef bc c5 ad 05 bd 64 7e 33 bd
       0.024695756 -0.029287571 -0.032636423 -0.043821707
0001d0 c9 f8 8e 3d 1a 7a c2 bd 4a f2 62 3d 94 16 f0 3c
       0.06981046 -0.09495945 0.055406846 0.029307641
0001e0 10 23 67 bc cd 4f 74 bd 76 24 8f 3d 69 a9 49 bd
       -0.014107481 -0.059646416 0.06989376 -0.049233828
0001f0 bf 31 f5 bc 90 e5 86 3d 61 1e 3e 3d 7b 05 28 bb
       -0.029930947 0.06586754 0.04641569 -0.0025638032
000200 50 7b 92 3d f4 cf 60 bd 27 46 88 bd 9c 2a 53 3d
       0.07152426 -0.05488582 -0.066540055 0.051554307
000210 80 da 9b bd 2c 4f cc 3d fc e7 a9 3d 03 18 c2 3d
       -0.07610035 0.09976038 0.08296201 0.09477236
000220 11 ba 96 bc 1c 02 e3 3d a8 04 62 bc 2f 46 68 bd
       -0.01839927 0.11084387 -0.013795055 -0.056707557
000230 de 1b 40 3c 7c 97 2d 3d d2 1c b3 bc c5 7e dd 3c
       0.011725394 0.042380795 -0.021864329 0.027037987
000240 b5 9a 20 bd 78 8d 1c 3c a0 fc 85 3d d5 52 a2 3c
       -0.03921004 0.009555213 0.06542325 0.019814888
000250 bb 90 ad bd ee 3d b8 bc f8 28 4c bc cc a0 fd 3c
       -0.08474871 -0.022490468 -0.01246094 0.030960463
000260 87 cb 25 bd 5d e8 b1 bb 6e a1 6a 3d 6f f8 05 bc
       -0.040477302 -0.005429311 0.057282858 -0.008176907
000270 11 66 35 bd b6 a6 80 3d 7e 16 6c 3d 9d 9e cd 3c
       -0.04428679 0.062817976 0.057638638 0.025100047
000280 d6 fb bc bc df 71 3f bc 21 ae fa 3c 80 03 9e bd
       -0.023069303 -0.011684864 0.03060061 -0.07715511
000290 24 45 f5 3b a9 21 b4 3d 61 44 4f bc 89 ed 44 ba
       0.007485049 0.08795483 -0.01265058 -0.0007512202
0002a0 86 88 6b 3d ee ef c2 bc bd cb 5e 3d 27 08 8a bd
       0.057503246 -0.023796048 0.05439352 -0.06739836
0002b0 ee 91 71 bc 7f 08 bc 3d ac 31 a1 bc b5 46 24 3d
       -0.014744265 0.09181308 -0.019677006 0.040106494
0002c0 89 25 e2 3d 5a 69 bf 3c ad fd 93 bc e0 d9 08 3d
       0.110423155 0.023365665 -0.018065298 0.033410907
0002d0 e7 e4 fc bc 54 eb 0d bd bb 53 61 3c 49 01 2d bd
       -0.030870868 -0.034648255 0.013752873 -0.042237554
0002e0 0a df e7 bb 88 a3 95 3c 99 b5 a6 3c af 87 ae bd
       -0.007076149 0.018266454 0.020350264 -0.08521973
0002f0 ab f5 b2 3d 38 eb c9 3d 86 da 9a 3d 62 1f 64 3c
       0.08738264 0.098593175 0.07561211 0.013923498
000300 02 f2 e9 bc 1f 31 3b 3d 0f ea 2e bd 7e 7f 36 bc
       -0.028557781 0.045701142 -0.042703684 -0.011138795
000310 b7 1b 52 bd 25 c8 97 bc 38 e7 04 3c aa 93 55 3d
       -0.051295962 -0.018528054 0.0081117675 0.052142777
000320 f4 b6 57 3d c3 a5 8f 3d 50 43 91 bb 00 a7 d0 3d
       0.052664712 0.070140384 -0.004433073 0.10188103
000330 34 7c 8c bd c8 a4 66 3d 81 9e b0 bb 88 25 32 bd
       -0.06859627 0.05630949 -0.005389989 -0.043492824
000340 63 59 9c 3d 95 af 6e bd 99 19 91 bd 33 20 09 3b
       0.07634237 -0.058272917 -0.070849605 0.0020923733
000350 fb aa b8 bd 39 fe a8 3d 97 a6 7b bb 88 15 64 3d
       -0.09016987 0.08251614 -0.0038398856 0.055684596
000360 20 74 81 bc df 42 d0 bd ee 9c 8a 3d 1a bc ea 3c
       -0.015802443 -0.10169005 0.06768213 0.028654147
000370 c2 90 c7 3c e7 02 73 3a 51 79 46 3c 4d c9 c3 3d
       0.024361018 0.0009270147 0.012113885 0.095598795
000380 58 97 0e 3d cf ed fb 3c ca cf a6 3d 47 a4 b8 3c
       0.0348123 0.030753044 0.08145101 0.022539271
000390 65 f8 10 bd 7b c2 3f 3d 2b a1 22 bd 85 45 2c 3d
       -0.035393137 0.04681633 -0.039704483 0.042058486
0003a0 04 5f 4c bd ec 3f f2 3d f5 42 91 bc 91 ff 78 3c
       -0.0498953 0.118285984 -0.017732123 0.0151976505
0003b0 13 01 4f 3d 4f 7c 22 3c c2 d6 07 3d 93 33 ad 3c
       0.050538134 0.009917333 0.033163793 0.021142757
0003c0 0f 38 9f bd a8 e5 7e 3d ec 9a 33 3d ac ef cb 3c
       -0.07774364 0.062230736 0.043848917 0.024894558
0003d0 9f 4d c6 3c a9 b9 97 bd 00 e4 10 bd dd b1 65 bd
       0.024206934 -0.07408459 -0.035373688 -0.056077827
0003e0 b3 57 88 bc 50 dd 41 bd 0c dc 90 3d fc 56 75 3d
       -0.01664338 -0.0473302 0.070732206 0.059897408
0003f0 22 7a 9f 3c c3 cd d5 bc 93 df 8e bd 0b d1 c6 3c
       0.019467417 -0.026099091 -0.06976237 0.024269601

model.2.bias f4 [128]
000000 c4 1e a7 3c 0b 3c 33 3c 09 2d 32 bd db 5e 23 3d
       0.020400412 0.010939608 -0.04349998 0.039885383
000010 b8 ef b3 bd 2c ad 11 bd 47 7e 06 bd 3d 99 3a bd
       -0.08785957 -0.03556554 -0.03283527 -0.045556296
000020 c6 9f d9 bc 24 df e1 bc 14 ad 59 3d 3c e3 5b 3c
       -0.026565444 -0.027572222 0.053143576 0.013420876
000030 a6 3b b3 3c 12 cd 17 3d e4 64 91 3d ed 0c 40 3d
       0.021879029 0.037060805 0.070993215 0.046887327
000040 28 30 14 3d f1 bf a9 bb 20 1f 3a 3b 29 8d 7e 3d
       0.036178738 -0.005180352 0.00283999 0.06214634
000050 e1 1a 81 3c c4 50 18 bd c3 f5 a2 bd 64 79 67 bc
       0.015759887 -0.0371864 -0.079570316 -0.014128063
000060 0a 48 bb bc a3 de a8 bd 01 5a 19 3c eb 65 20 3d
       -0.0228615 -0.082455896 0.0093598375 0.039159697
000070 21 3f 19 3d 8b 0a 3f 3d 8f a8 7b 3d c4 de 2f 3d
       0.03741372 0.046640914 0.061440047 0.042937055
000080 e6 2b 9d 3d e1 f7 11 bb 69 4b 81 3d 7c 9b 78 3d
       0.076743886 -0.0022272991 0.063132115 0.060695156
000090 a0 ba 07 bd d8 e0 9f bc cc a9 4c bd a0 20 19 bc
       -0.033136964 -0.019516394 -0.04996662 -0.009346157
0000a0 95 32 7d 3d fd 30 82 bd 29 df d5 3d 05 0b 75 3d
       0.061815817 -0.06357 0.10442955 0.059824962
0000b0 2f 97 df bc 2b fd a2 bb 81 2d 85 3d 85 51 7a 3d
       -0.02729377 -0.0049740276 0.0650282 0.0611129
0000c0 5c 93 3b 3d c6 f1 d0 bc e3 cd 8b bd cf c4 09 bd
       0.04579483 -0.025505912 -0.06826379 -0.033634957
0000d0 5e 1e 29 bd 6f 81 6c 3d 80 c3 bd bc 63 1a 91 bd
       -0.041288726 0.057740625 -0.02316451 -0.07085111
0000e0 97 ae 17 3d 10 91 db 3d 13 77 27 3d 04 77 bd 3d
       0.037031736 0.10721028 0.040885042 0.09251216
0000f0 c0 27 3b 3c eb bf 9a bc 90 65 cc bd 94 28 38 bd
       0.011423051 -0.018890342 -0.09980309 -0.044960573
000100 24 66 77 3c d0 32 d3 bd 61 ac 74 3d 73 4c 5e 3d
       0.015100036 -0.10312426 0.059734706 0.054272126
000110 10 01 5c 3c 4b bb 0d bc f9 ce 85 bd c8 99 3a 3c
       0.013427988 -0.008650611 -0.065336175 0.011389203
000120 0b 4d b9 3d 03 11 58 bd 5a 1b 6b 3b 1a 88 e4 bc
       0.09047898 -0.0527506 0.0035874457 -0.02789693
000130 ef 2e a0 bd 0b 38 6b bd fb bc 32 3d 26 d8 5d bd
       -0.07821452 -0.057426494 0.043637257 -0.054161213
000140 b8 14 d6 3d e9 e9 63 bc c4 68 dc bd 4b a3 99 bd
       0.104531705 -0.013910749 -0.1076217 -0.07501849
000150 d4 2e 4e bd be 9c 80 3d 3f cb 96 bd 32 1e ae 3d
       -0.050337628 0.06279896 -0.07362985 0.08501853
000160 90 8b 56 bd b6 8e 6d 3d 5f 46 85 3d 2f 7c 80 bc
       -0.05237919 0.057997428 0.06507563 -0.015684215
000170 b2 f4 5b 3d e9 50 52 bc 08 b0 f2 bc a7 94 5b 3d
       0.053700157 -0.012836673 -0.029624954 0.053608563
000180 b8 92 12 bd c0 56 89 3d c7 f3 98 bd c5 52 b4 bd
       -0.035784453 0.067059994 -0.07468372 -0.088048495
000190 fc 37 06 3d 2d 1a 95 bd 9d 58 4e bd 80 c6 87 3d
       0.032768235 -0.07280383 -0.050377477 0.06629658
0001a0 94 21 d5 3c f2 44 01 3c a4 5f 97 3d e8 dc de 3c
       0.026016988 0.007889973 0.07391289 0.027204946
0001b0 40 44 80 3c f5 13 f2 3c 58 a2 c7 3c dc 4d 7e 3b
       0.015657544 0.029550532 0.024369404 0.0038803732
0001c0 48 8c 83 bc 17 49 94 3d a9 39 f6 bc dd 2a 5b 3b
       -0.016058102 0.07240503 -0.030056791 0.0033442297
0001d0 60 87 9e bd 53 f0 8a bd 0d 6d 10 bd c3 f2 20 3d
       -0.077406645 -0.067841195 -0.03526025 0.039294016
0001e0 ac 17 b3 3c e9 b8 e7 3d 33 e6 61 3d 26 6e e8 3b
       0.021861874 0.11314566 0.055151176 0.007093209
0001f0 8a 99 00 3d 40 62 2b bc 68 38 6e bd 94 94 5e 3d
       0.031396426 -0.010460436 -0.058159262 0.054340914

model.4.weight f4 [1, 128]
000000 db d0 ba bc d9 0d 02 3d 52 8b 8c bd 5b 7e c1 3c
       -0.022804668 0.031751487 -0.06862511 0.023619821
000010 d9 29 64 3d a0 97 26 3d 2e 3d 05 3b 05 46 a7 3d
       0.05570397 0.040671945 0.0020330655 0.08167652
000020 3f ad aa 3d fc 9b 77 3d 39 ff 06 3d 74 00 06 3d
       0.08333825 0.060451493 0.032958243 0.032715276
000030 31 59 92 bd d9 cd 92 3d 6c 24 c6 3d d5 bf 4c 3d
       -0.07145918 0.071681686 0.09674916 0.049987633
000040 01 bf e1 3c 9e ef 93 bd f4 59 85 3c b1 14 ce bd
       0.027556898 -0.07223438 0.016278245 -0.1006254
000050 57 d9 68 3d 04 7f c8 bb 23 50 60 bd dc c0 b5 3d
       0.056847896 -0.006118657 -0.054763924 0.08874676
000060 eb 6d 98 3d 69 1f da 3d 3a 90 9e bd 05 60 25 bd
       0.0744284 0.10650522 -0.07742353 -0.040374774
000070 a4 f8 7c 3d 16 a4 da 3b 7b 21 75 bd 84 b3 dd bd
       0.06176056 0.0066723926 -0.059846383 -0.108252555
000080 07 9f 27 3d d8 b0 4f bd de 8b a7 bd f6 33 63 bd
       0.040923145 -0.05070576 -0.081809744 -0.055469476
000090 7e f3 ab bd dd 54 b7 3d 0f 2c da bc a1 be 29 3d
       -0.08396052 0.08951733 -0.026632337 0.041441564
0000a0 fc 78 13 bd 4e c6 87 bc 29 d9 74 bd e7 ba 59 bd
       -0.03600405 -0.016574051 -0.059777413 -0.05315676
0000b0 b6 f9 ab bd e9 38 84 3d ce f6 72 3d 25 01 8d bd
       -0.08397238 0.06456167 0.059317403 -0.06884984
0000c0 c9 21 ae 3c fb f0 a5 3d e5 af d5 bc aa 06 bf 3d
       0.021256344 0.08102604 -0.02608485 0.09327443
0000d0 b5 32 64 3d 68 9c 91 bc fc 6f 4b 3d 0a 30 b0 3c
       0.05571242 -0.017774776 0.049667343 0.021507282
0000e0 8e 6e 6d bd 4d 0e ce bc 94 e4 7e bd 4f 7b 8b 3d
       -0.05796676 -0.025153304 -0.062229708 0.068106286
0000f0 a9 10 bc 3d 79 f4 75 3c 4b ce 9b 3a a7 02 9c bd
       0.09182865 0.0150119 0.0011887042 -0.076176934
000100 4e c1 a0 3d 2f 6f 24 bd a0 e1 4a bd f6 2d 70 3d
       0.0784937 -0.040145095 -0.04953158 0.05863758
000110 81 99 8d bd 35 19 38 3d 45 bb 9c 3d 06 61 82 bd
       -0.06914044 0.044945914 0.07652906 -0.06366162
000120 69 9a b4 bd cb 55 e3 3c 33 4d 94 bc 7c 95 9d 3d
       -0.08818514 0.02775087 -0.018103218 0.076945275
000130 e2 85 12 bd e3 f8 a0 bd 79 64 a5 bd 99 b7 98 3d
       -0.03577221 -0.078599714 -0.08075804 0.074568935
000140 da fb 39 3d 83 bc 62 bd f8 c3 ac 3c ea 12 3b 3c
       0.0454062 -0.05535556 0.021089539 0.011418084
000150 8a 6b 65 bd 2e 37 a3 3c a2 1b a1 3d 79 99 b7 bd
       -0.05601076 0.019923773 0.07866599 -0.089648195
000160 08 f3 27 bd cc cb ae 3d d3 f2 c4 3d 06 b1 0e bd
       -0.041003257 0.08534965 0.096166275 -0.03483679
000170 c5 c8 49 3d 20 9e ac bd a2 bd 68 3d 40 0a a4 3c
       0.049263734 -0.084285975 0.056821473 0.020024419
000180 43 48 3d 3d e3 24 28 3d b3 4e ad bc 6d e7 83 bd
       0.046211492 0.041050803 -0.02115569 -0.06440625
000190 65 b9 d4 3c 33 ae 71 3d e5 33 99 bd 6e ef 30 3d
       0.02596731 0.05900402 -0.07480601 0.043197088
0001a0 d1 db 88 bc b2 23 0c 3d 3b e3 15 bd 86 1f c5 3c
       -0.01670638 0.03421373 -0.036593657 0.024062883
0001b0 1a 45 8a 3d db c6 31 bc 1a 42 93 bc b1 8f 94 bd
       0.06751461 -0.0108506335 -0.017975856 -0.072539695
0001c0 f2 2f b2 3d b3 e4 4a 3d 5e 57 3e 3d 2f 72 af bd
       0.08700551 0.04953451 0.04647004 -0.08566701
0001d0 11 5b b1 bc e8 ed d6 3d 43 97 ac 3d 4a c8 81 bd
       -0.02164987 0.10494596 0.084272884 -0.0633703
0001e0 68 ee 88 3d 58 92 55 3d 9d 0e a8 3d b2 98 ec 3d
       0.066860974 0.052141517 0.08205912 0.11552562
0001f0 f1 63 71 3d 5f e9 41 bd 0e f5 f9 3b 66 85 64 3d
       0.058933202 -0.0473417 0.0076280897 0.05579128
