models/metabolic_nn.pth (torch, 288849 bytes, 5 tensors)

model.0.weight f4 [256, 20]
00000000: 357c e53d 4921 303d 2d24 3a3e af08 01bd
00000010: 83d6 79bd da2e 993b f816 433e e325 3e3e
00000020: 09f9 93bc 6479 513e 39c6 fb3d 4f7c 173e
00000030: 05a4 2ebd 5d03 fc3b 179b 513e 2593 493e
00000040: 3495 833d aba6 22be 33c6 0abd cb8e f73d
00000050: f653 2dbe 01dc d6bc 44d2 0b3e e68e 383e
00000060: 11d3 b83d 514f c93d 719e 2dbd f159 41be
00000070: a5ef c6bd eecf d7bc 37c2 043e 0317 d2bc
00000080: 00c7 cd3d 3aaa bdbd f330 783d 6927 0a3d
00000090: bde5 293e 71eb 6b3d 1cb0 04be 580b 54bd
000000a0: be9a 7bbd c273 c73d 8bcb 103d 74d7 e93d
000000b0: 3a5c 373e 06d4 693e 4a31 303e 2883 c73d
000000c0: d910 0f3e 57a8 01be db65 cf3b 856b 4d3e
000000d0: dd7f 373e 6115 5c3e 2c83 973c d135 e33d
000000e0: b9a8 54be 111e 173e 7d24 3fbd 791d 4a3e
000000f0: de71 103e fe4c e6bd c79d e33d 28bc 11bd
00000100: 7bcb f7bd 8b58 873d e759 073e 4cf8 8ebd
00000110: dd32 adbc 97c5 cd3d 060a 233e ddb6 48be
00000120: caa4 073e ac58 1e3e 581f 81bd 9e6b 8d3d
00000130: 22eb a5bd 8d30 0abd 2be2 413e 385d 0fbe
00000140: c061 d1bc ef3a ca3d 4893 ff3d a78e cd3c
00000150: ff56 27bd 7d57 f03d 7c2e d1bc a4b2 54be
00000160: 579d 293e 390e 863d 35d1 32be 8180 3c3e
00000170: bb7c 45be e092 8cbd 7103 f6bd 6bab 22be
00000180: ea4e 303e f7b5 5cbe 74df 91bc 8697 a9bd
00000190: c3c9 353e 7e12 c73d 63ae 053d 5c2b 8abc
000001a0: 6700 013e a60c 463e 4a76 02be eab1 553e
000001b0: dc75 053c a64e 15be 534d b6bc 6405 003d
000001c0: 0f92 45bc e270 323e 1b53 db3d 1aff f93d
000001d0: 753e 02bc 282f 40be 662f 24bd 0bea 5bbd
000001e0: ecc5 e1bd a7ce 673c ded9 48be e818 4cbd
000001f0: 1917 183e b5c3 16bd f118 4fbe 0b68 8c3d
00000200: 80f9 35be 1c8e 5e3e bf69 043e 0041 5abc
00000210: f531 40be 194f 2fbd 9458 ed3d a21c 32be
00000220: 9210 4f3e 8452 ff3d ff2a 29be 95de 22be
00000230: 4ca6 d63d 2357 413d d772 43be 8e81 debc
00000240: 7c64 a93d c736 25be 7562 353d 274d 1abe
00000250: ae47 79bd 0778 df3c 4dc5 0abe 4c9a 083e
00000260: 6fd8 4bbe b0c3 5dbe 2f6f d33d cf7b 3f3e
00000270: 4b91 ffbd 69cc 2c3e 6c40 3c3e cfd3 4dbe
00000280: 0a4c 213e 7be4 913d 1653 143d a1d6 a7bd
00000290: 6a84 30be 83e4 ec3d 4b7a d43c b6cc 22bd
000002a0: c47b 8abd 4a50 4ebe 55d4 5a3e 9527 7bbd
000002b0: 9165 033e 15e1 13bd 2523 ea3d 4780 d53d
000002c0: ab14 373e 9cab 173e 795a 8e3d 1643 3a3e
000002d0: 0a25 3bbd cd48 7f3d b59e 96bc 39b3 213e
000002e0: 3ef3 103e 89c2 433e 4017 daba 2765 d93c
000002f0: f5ec 5d3e a200 99bd ccca 48be 6ff7 263e
00000300: 7298 1abc 944b 4f3e 62ab 21bd 7097 46be
00000310: 9793 1dbe 9c6c 523e 8756 32be 0af7 4c3e
00000320: 3e56 6fbb 90ba 9ebd 1abc 13bc 0941 00bd
00000330: 17eb 80bd 9535 943d 4839 0ebe bb8d 183e
00000340: 8050 9b3d d38d 03be b178 13be 23a8 babd
00000350: f6d6 e9bd 2bd3 16be 42e0 633e 724f 0e3d
00000360: 7c80 26bd 851a 033e 0b1c 4f3e f5f6 fb3d
00000370: dc79 1b3e 065f 683e 14cd 263e cbbf 9f3d
00000380: e28c fabd c35c 70bd 957c a5bd 6a96 273e
00000390: 2dd9 663e 370e 73bd 504d 94bd c199 b5bd
000003a0: ffca 4f3b df77 d1bd f51e 3f3a 6972 033e
000003b0: c381 343e 2af6 4cbe 566f 3c3d 3aff 4abe
000003c0: 2fb6 463e 002a 553e 5aea e93d 4a92 52be
000003d0: ade1 e83d e23e c4bd 26b7 813d 67d6 9abd
000003e0: ad68 963c ab78 023e 8537 723e f14e 29be
000003f0: ba21 b8bd b835 9cbd 91fb 573e 7191 bf3d
0.11205331 0.043000493 0.18177862 -0.031502422 -0.06099559 0.0046747746 0.1905173 0.1856914
-0.018063085 0.20456463 0.12293667 0.14793514 -0.04263689 0.0076908306 0.20469318 0.19685037
0.064249426 -0.15883891 -0.033880424 0.120877825 -0.1692656 -0.026227953 0.13654429 0.18023261
0.09024633 0.098295815 -0.04238743 -0.18881966 -0.09713677 -0.026344266 0.12964712 -0.025645738
0.10047722 -0.09260984 0.060593557 0.03372899 0.16591544 0.05759758 -0.12957805 -0.05176863
-0.06142687 0.09738876 0.035350364 0.114180475 0.17906275 0.22834787 0.17206302 0.09741813
0.1397127 -0.12661873 0.006329281 0.20060547 0.1791987 0.2149253 0.018495165 0.11094249
-0.20767488 0.14757563 -0.046665657 0.19737805 0.14105937 -0.11245154 0.11114078 -0.03557983
-0.12099358 0.06608685 0.13217889 -0.069809526 -0.021142418 0.10047453 0.15921792 -0.19601007
0.13246456 0.15463513 -0.063048065 0.06905292 -0.08101489 -0.033737708 0.18933932 -0.14000404
-0.025559306 0.09874522 0.124792635 0.025092436 -0.04085445 0.11735437 -0.02553486 -0.20771271
0.16563927 0.065456815 -0.17462619 0.18408395 -0.19285862 -0.06863952 -0.12012375 -0.15885703
0.17217603 -0.21553789 -0.017806746 -0.08280854 0.17752747 0.09720324 0.03263701 -0.016866378
0.1259781 0.19340762 -0.12740436 0.2086865 0.008145776 -0.14580783 -0.022253668 0.03125514
-0.012058749 0.17425874 0.107092105 0.1220686 -0.007949461 -0.18767989 -0.040084265 -0.053689998
-0.11024079 0.014148391 -0.1961436 -0.04982844 0.14852561 -0.036807735 -0.20224358 0.06855782
-0.17770958 0.21733898 0.12930964 -0.013321161 -0.18769057 -0.042800043 0.115891606 -0.17393735
0.20221165 0.124669105 -0.16520308 -0.15905221 0.10480937 0.04720224 -0.19086777 -0.027161386
0.08271119 -0.16134177 0.04428335 -0.15068494 -0.060859375 0.027278913 -0.13551827 0.1334011
-0.19906782 -0.2165668 0.10323941 0.18699573 -0.12478884 0.16874851 0.1838395 -0.2010033
0.15751663 0.07123657 0.03621205 -0.08195234 -0.17238012 0.11567023 0.02593722 -0.03974601
-0.06761888 -0.20147815 0.2137006 -0.061317045 0.12831713 -0.036103327 0.114324845 0.104248576
0.17878978 0.14811558 0.0695085 0.18189654 -0.04568962 0.062325288 -0.018386224 0.15791024
0.1415529 0.19117178 -0.0016639009 0.026537491 0.21672423 -0.07470824 -0.19608611 0.16305326
-0.00943576 0.20243675 -0.039470084 -0.19393706 -0.15388332 0.20549244 -0.1741582 0.20016113
-0.003651991 -0.07750428 -0.009017015 -0.031312022 -0.0629484 0.072367825 -0.13889039 0.14897816
0.075837135 -0.1284707 -0.14401509 -0.09114101 -0.11417954 -0.14728992 0.22253516 0.034743734
-0.040649876 0.12803085 0.20225541 0.12302963 0.15183204 0.22692499 0.16289169 0.078002535
-0.122339025 -0.058682214 -0.08080403 0.16365972 0.22543783 -0.05933973 -0.07241309 -0.08867217
0.0031706688 -0.10227942 0.0007290685 0.12836613 0.17627625 -0.20015779 0.046004616 -0.19823924
0.19405435 0.20816803 0.11421652 -0.20563617 0.11371169 -0.095823064 0.06333761 -0.07560425
0.01836046 0.12741344 0.23653992 -0.1653402 -0.08990808 -0.076274335 0.21092059 0.093539126

model.0.bias f4 [256]
00000000: 16fa afbd e933 f1bd 0351 183e 0386 cebd
00000010: f3aa 21be 2a09 b1bc 9e00 58be 36de 293e
00000020: 994e 04bd 4b8b fabd d11d 5dbc 9a62 14be
00000030: 8c0e bc3d f854 95bd 8753 45be dad3 2f3e
00000040: b64c 69bc e986 863c 75ed 08be de52 29bd
00000050: aed1 41be ac45 1f3e 61fe 09be f368 ac3d
00000060: 94e5 08be 16bf 18be 8082 9e3d 2330 c13d
00000070: 0922 273d 05a3 85bd 601e 043c fc7b ccbd
00000080: d883 d23d 54ae 1a3e fddb de3d ff6b 763d
00000090: a4e8 ebbd c10d 583d b20e 2abe 93ac 13be
000000a0: 5379 e53d 3038 c73d 0aaf 183e ffe9 2dbe
000000b0: 8d7d 183e 76b8 ef3d 72b0 7fbc f8ff 603d
000000c0: fadb 0a3e 0c4d 5a3d 77db 213e 4ac4 b13d
000000d0: d4f4 963d d486 cb3d 90c6 fbbd 5a1e 45be
000000e0: 31c0 f13d 81f5 c3bb 0739 22be b62f bdbc
000000f0: 8097 10be 376d 65bd bab6 61bd 6a4f 723e
00000100: 0a5f cb3d 87ba 54be 13cd 37be cd12 aabd
00000110: 516e d5bd 1e1c 423e 7e09 a4bd 22b8 9a3d
00000120: a3a7 75bd e560 f53d 9a13 663d 462c ab3d
00000130: 70c1 babc 64c1 55be 7bd7 18be 92f2 febd
00000140: 4d2f c6bd a4ad 5a3e 1079 2fbd 99ab c23d
00000150: 3557 1cbd 9506 0d3e 06d2 fd3d 810b a3bd
00000160: fead 2abe 060f 013e b0bf 44be dd39 0f3e
00000170: 33d2 28bc 4111 423e e424 a8bc c298 643d
00000180: cbf9 513d 58fd 5dbe 9db9 c6bd 3789 263e
00000190: fca8 6a3d 2004 c4bd d49c d83c b4b0 ea3c
000001a0: 7c73 893d 84cc 683e 84a9 193e 88d5 393c
000001b0: 056a 6bbc e622 26be 46b4 49bd 53a0 5bbd
000001c0: b9f7 96bd de2f 543d 33bf ef3d 4a70 323e
000001d0: 4ba9 4abe f202 5a3c 6c5b fc3b 175d a4bb
000001e0: df2b c3bd 97f4 0cbe e4c9 d63c ef7f e0bc
000001f0: 673e 59be 1424 08bc cbc6 eabb 5c2f 44be
00000200: 3a7b 2ebe 369a 33be 245f d03d ec52 96bd
00000210: ac1f fbbd 694a 3a3e 1975 303e d041 4b3e
00000220: 3842 12be 2317 0abe 7377 b63d eeff e13d
00000230: 1d0a 0c3e a5eb 643e 77fe 92bd 9983 143c
00000240: 85c4 abbd 95ac 00be 66fc 443d fdd1 33bd
00000250: 9a1f 993d 297d f83c 01c9 49be c97d 4ebe
00000260: 2c99 bcbd 9f8d 643e a8c5 523d 0ff1 17bd
00000270: f0b1 3e3d ca0b 15bd e871 1b3e b84e 84bd
00000280: 19cd 6a3b 40e9 12be 6fdc 403e f063 2b3e
00000290: 52aa 0a3e cfd5 8c3d 683d 843d f362 1fbd
000002a0: 13a8 eb3c 3119 db3d 7fa0 31be a2f5 313e
000002b0: 6cb5 123e 298e 0dbc f6ea cbbd 2553 b53d
000002c0: 16a1 1fbe 7ed3 e53d 5d9d 05be 09df 49be
000002d0: 0b63 6d3d 2361 ddbd 06b5 db3d b937 623e
000002e0: 82db 473d 4f7b 7e3d c9f1 45bc d09a 373e
000002f0: 2c8f b0bc 79db 9d3d 15e9 e33d 09eb 053e
00000300: 9040 cc3d 82fb 163e c450 10be 78d7 bdbc
00000310: 97c1 eebd 221f 543e cb1c cabd dfb1 123d
00000320: 2817 a0bd eefe 573e a280 84bd a407 5f3d
00000330: ef1b c83d b21d 21be 8168 3abe 416c 083e
00000340: a097 3fbe 77cd 193e ab2d c8bd c978 0a3e
00000350: 45ef 45be 4897 293e 177e 4fbe 9bde 3dbe
00000360: 89db 01ba 8dce 21bd b289 71be fa41 86bd
00000370: 835d 57be d355 873d 3b9f c03d be29 29bd
00000380: be30 423e c14b 283e 1aca 92bc c68e 5d3e
00000390: 563a 3c3d 30c4 f73c e646 cd3d 063f 69be
000003a0: 009d 533e 6346 edbd 0dc3 a73d 7003 51be
000003b0: 598b 1abe ce85 01be 0043 56bd 078c 3dbc
000003c0: e274 4b3a 5b32 b4ba 1736 42be e316 54bd
000003d0: 30de 5cbe 78ec f6bd 8aec c13d b50d 19be
000003e0: 1c7b 423c 3cef 743e 3273 0f3d 3022 65be
000003f0: 3eac 43bd e5ee 513e 0699 3b3e 5751 3e3e
-0.08592622 -0.11777479 0.14874654 -0.100841545 -0.15787868 -0.021610815 -0.21093985 0.16588673
-0.03230152 -0.12233599 -0.013495878 -0.14490739 0.09182462 -0.07291597 -0.19270144 0.17170659
-0.014239481 0.016421752 -0.13371833 -0.041338794 -0.18927643 0.15553921 -0.13475944 0.08418455
-0.13368827 -0.14916644 0.07739735 0.094330095 0.040803943 -0.06525234 0.008063883 -0.09984586
0.102790534 0.15105563 0.10881803 0.060161587 -0.11518982 0.05274749 -0.16607168 -0.144213
0.112047814 0.09727514 0.14910522 -0.16983794 0.14891644 0.11705105 -0.015606033 0.05493161
0.13560477 0.053296134 0.15806375 0.08680017 0.07370916 0.09937826 -0.12293732 -0.1924986
0.11804236 -0.005980194 -0.15842067 -0.02309404 -0.14120293 -0.05601236 -0.055105902 0.23663107
0.09930237 -0.2077428 -0.17949323 -0.08304367 -0.10421432 0.18956038 -0.08009623 0.07554652
-0.059974324 0.11981372 0.056171037 0.08358054 -0.022797316 -0.20874554 -0.1492595 -0.1244861
-0.09676991 0.21355301 -0.042840064 0.09505386 -0.038169105 0.13772042 0.123935744 -0.079611786
-0.16667935 0.12603387 -0.19213748 0.13986917 -0.010304022 0.18951894 -0.020525403 0.055809744
0.05126361 -0.21678674 -0.09703372 0.16263281 0.057290062 -0.09571099 0.026441969 0.028648712
0.0671148 0.22734267 0.15006071 0.011342414 -0.014368539 -0.1622425 -0.049244188 -0.053619694
-0.07371468 0.051803462 0.1170639 0.17425647 -0.19791143 0.013306366 0.007701328 -0.00501598
-0.09529852 -0.13765179 0.026219316 -0.027404753 -0.21215211 -0.008309383 -0.0071648112 -0.19158691
-0.17039195 -0.17539296 0.10174397 -0.07340035 -0.122619 0.18192448 0.17232169 0.19849324
-0.14283073 -0.13485388 0.08909502 0.11035143 0.13675733 0.22355516 -0.071774416 0.009064578
-0.083870925 -0.12565835 0.04809227 -0.043901432 0.07476731 0.030333119 -0.19705583 -0.2016517
-0.09208903 0.22319649 0.05145803 -0.037095126 0.046556413 -0.036388196 0.1518017 -0.06460327
0.0035827814 -0.1434679 0.18834089 0.16737342 0.13541535 0.06876718 0.06457025 -0.038912725
0.028766667 0.10698164 -0.1734638 0.17378858 0.1432702 -0.008639851 -0.099569246 0.08853749
-0.15588793 0.112219796 -0.1304831 -0.19713987 0.057955783 -0.10809543 0.10727887 0.22091569
0.048793323 0.062129315 -0.012081572 0.1793015 -0.021552645 0.07707877 0.11128441 0.1307794
0.09973252 0.1474438 -0.1409331 -0.023174033 -0.11658018 0.20715001 -0.09868773 0.035814162
-0.07816917 0.21093342 -0.06469847 0.054450646 0.09770953 -0.15733984 -0.18203928 0.13322546
-0.18710184 0.15019785 -0.097743355 0.13522638 -0.19329555 0.16561615 -0.20262943 -0.18541948
-0.0004953673 -0.039503623 -0.23587683 -0.06555553 -0.21031766 0.066081665 0.09405371 -0.041299574
0.18963906 0.16435148 -0.017918635 0.21636495 0.04595407 0.030244917 0.100232884 -0.22777948
0.2066536 -0.11585691 0.081915 -0.20411468 -0.1509222 -0.12648699 -0.05230999 -0.01156903
0.00077612523 -0.0013747917 -0.18965946 -0.05177964 -0.21569133 -0.120568216 0.09468944 -0.14946635
0.011870172 0.23919386 0.03502197 -0.22376323 -0.047771685 0.20501287 0.18320093 0.18585716

model.2.weight f4 [256, 256]
00000000: 45c9 df3c 208a bc3c 58cb 79bd 7f30 04ba
00000010: b65e cf3c 00de 6b3b 95a1 dcba 7081 873c
00000020: 02ec e93c bb21 d13c b477 ea3c deb3 45bd
00000030: 54da 42bd cd59 27bc 1061 09bd cbf8 4a3d
00000040: 890d 6abd 34d5 053c 7dcb ab3a d947 e9bc
00000050: cf59 943c fa24 59bd 2f09 ffbc 1310 2d3d
00000060: e7ad 11bd 41dc 323c 8c26 593c 76fb 9bb9
00000070: 8582 293d ec3b ac3c 34bd 91bd 3395 56bd
00000080: caa6 52bc 5ecf 8cbc b638 66bd d189 84bd
00000090: d8b5 813c cf00 54bd 9174 2e3d 5554 4b3d
000000a0: 46f2 1abd 4ebf e53c 03fc d0bb 1ce9 0f3d
000000b0: deb4 e03c 7653 4fbd d5c5 df3c 3fff ebbb
000000c0: 8986 0e3d db6c 093a 2b5e 003d 3c3c c1bb
000000d0: 3028 f43c a6cf 973c 8f66 afbc 8d3b dabb
000000e0: fef5 3f3d 83c2 ea3a fbab 03ba f971 1fbc
000000f0: 1e4e 5abd d851 89bc e3ad b93c 84f3 8fbd
00000100: 6ace 24bd cf0d 0ebd 8219 8cbd 24a4 ff3c
00000110: 54c6 00bd e47e febc 97f3 f73c 0d86 94bd
00000120: a289 0d3d 6067 f13c 16c6 73bd 804e 4dbd
00000130: 615f 08bd 66ad c23c 3826 123c 10d5 bb3c
00000140: 8b39 3bbb 1541 70bd a72c 9a3c 1de1 e33c
00000150: 533c 363c 8afe 0e3d acb8 27bd fc1e 87bd
00000160: e407 803c 96ef 3e3d 2e8c c83c 2ac0 403d
00000170: 07e6 06bd e342 24bd b959 1dbd 5147 33bd
00000180: 6710 bb3c c6a1 263b b09c a63c e9f1 0bbd
00000190: a321 b13c 3b8c 76bd fd66 73bd 4444 3abd
000001a0: 8005 6dbd ffef abbc 73ff 0b3d 3a22 0fbd
000001b0: 0a84 c73c b01d a239 3049 833b b241 013d
000001c0: 2935 98bc 42de 5e3d 3c6b a7bc 52e5 28bd
000001d0: 0629 4d3d 7efc 3ebb 59ed 533d 86a5 ca3c
000001e0: 8f7f e63c 47b4 a63c cda5 51bd 7df6 3e3d
000001f0: efb4 b5bc 1c72 02bc 4124 71bb ecc5 1dbd
00000200: 415d db3c 64aa 3dbd 66b1 4dbd d4a2 14bd
00000210: 3b15 79bc 6d26 1fbd ce52 b3bb a950 2abd
00000220: 1765 03bd 44cd 28bd 0bd3 20ba fe2d 1ebc
00000230: d55e 89bb 4eca 363c 9ba5 16bd d8c0 a43c
00000240: d357 4c3d 64c1 4fbc 7cb6 753b b34d 59bd
00000250: b993 25bc 6bbd 32bd 67fa 783c 0c42 4bbd
00000260: 5f3b 8a3c 6efc 8fbb ed95 27bd ef93 8bbd
00000270: d35b 0bbd ef59 4abc fffb eebc 38c3 8a3c
00000280: 15ad c2bc 0e7b e7bc 2793 d8bc 32d4 d83b
00000290: 0663 4d3c 4684 303d b89b efbc 58a0 d53c
000002a0: 03cc db3b 0fce 243d 76cf 80bd b964 fa3c
000002b0: 5c02 06bc 7557 9abc c464 cabc 4ddf ab3b
000002c0: f51a 71bd 5c84 323d eaa2 423b 065e 4f3c
000002d0: 6ffb fcbc 2ec1 163d 0fc5 8dbd 1df9 b0bc
000002e0: 187c 88bd 87d2 c4bc 728a 973c 34ce 363d
000002f0: 9473 19bd 4dfb 10bd abff 22bd 6cb0 81b9
00000300: b212 e8bc f12a b83b f96a 5bbd f388 59b9
00000310: e4ef e4bc b07b d7bb 6834 5a3b 0384 323d
00000320: 05fb f53b 66b4 a23c e03f 8bbd 94a0 9f3c
00000330: df95 3abd 7b4b 913a ac55 7abd 1768 fe3c
00000340: 3cf5 1ebd 620a 94bd e0a1 713c 2d38 56bd
00000350: d292 1e3d 906f 6c3c a492 42bd b800 2e3d
00000360: 6151 cb3c f139 313d 2937 e3bc a917 16bd
00000370: 8f4e 493d 3743 60bd 3c00 0b3d 62f3 2b3c
00000380: 5675 a13c 7004 e93c d212 0c3d 8e24 92bc
00000390: a0d7 aabc 7106 4cbd e2bc 53bd c070 12bc
000003a0: 50af cdbb 9426 86bd 0680 0dbd 3cae f53c
000003b0: a03c 49bc 5214 7f3c e2ca ed3c f4d6 aabb
000003c0: a4f2 35bd babb 443d 699f 77bd 954c 5d3c
000003d0: afb5 47bc 543d d53c 2491 713c 1d81 30bd
000003e0: 272a 36bd b9ae 213d 7350 1cbd 0cb2 9c3c
000003f0: d898 a7bc 2dd8 73bd 1957 6dbb 55a0 8fbc
0.027317652 0.023015082 -0.06098494 -0.0005042627 0.025313716 0.0035990477 -0.0016832823 0.016541213
0.02855492 0.02552878 0.028621532 -0.048267238 -0.047571495 -0.010214281 -0.03353983 0.049553674
-0.057141814 0.008168507 0.0013106909 -0.028476642 0.01810923 -0.05301378 -0.031132309 0.042251658
-0.035566237 0.01091677 0.013253819 -0.00029751257 0.04138424 0.021024667 -0.07116166 -0.05238838
-0.012857148 -0.017188724 -0.056206428 -0.06471599 0.01583378 -0.051758584 0.042591635 0.049640972
-0.037828706 0.028045323 -0.0063776984 0.03513442 0.027429994 -0.050616704 0.027316013 -0.0072020586
0.03479627 0.0005242356 0.031339806 -0.005897073 0.02980432 0.018531632 -0.021411208 -0.006659931
0.046865456 0.0017910752 -0.00050228805 -0.009731763 -0.053297155 -0.016762659 0.022665923 -0.07028869
-0.040235914 -0.034681138 -0.06840803 0.031206198 -0.03143914 -0.031066366 0.03026752 -0.07252131
0.034555085 0.029468238 -0.05951508 -0.05012369 -0.033294085 0.023764323 0.008920245 0.022928745
-0.0028568234 -0.058655817 0.01882012 0.027817303 0.011122781 0.034910716 -0.0409476 -0.06597707
0.015628763 0.046615206 0.024480905 0.047058262 -0.032934215 -0.04010285 -0.038415644 -0.043769184
0.02283497 0.0025426014 0.020338386 -0.03416625 0.021622485 -0.060192328 -0.05942439 -0.04547526
-0.057866573 -0.020988462 0.034179162 -0.03494475 0.024354953 0.00030921167 0.0040065274 0.031556793
-0.018580036 0.05441118 -0.020436876 -0.041234322 0.05008795 -0.0029142196 0.051740024 0.02473713
0.028136997 0.020349635 -0.05118351 0.04662179 -0.022181002 -0.007961776 -0.003679529 -0.03851883
0.026777865 -0.046305075 -0.05021801 -0.036288098 -0.015202816 -0.038855005 -0.0054725176 -0.04158083
-0.03207883 -0.04121138 -0.00061349635 -0.00965452 -0.004192213 0.011156632 -0.036779027 0.020111486
0.049888443 -0.012680385 0.0037492802 -0.053052615 -0.010106021 -0.043637674 0.015196419 -0.049623534
0.016874013 -0.0043941056 -0.040914465 -0.068153255 -0.034023117 -0.012350543 -0.029172895 0.01693879
-0.023764173 -0.02825692 -0.026437355 0.0066170925 0.012535816 0.043094896 -0.029249057 0.026077434
0.0067076697 0.040235575 -0.0628957 0.030565606 -0.008179273 -0.01884053 -0.024706252 0.0052451254
-0.0588636 0.04358326 0.0029699155 0.012656694 -0.030881612 0.036805324 -0.069223516 -0.021603161
-0.06664294 -0.024026169 0.018498633 0.044630244 -0.03746374 -0.03539591 -0.039794605 -0.00024736242
-0.028329227 0.0056203534 -0.053568814 -0.0002074575 -0.02794642 -0.006576024 0.0033295397 0.043582927
0.0075067305 0.019861411 -0.067992926 0.01948575 -0.045553084 0.0011085117 -0.06111686 0.031055493
-0.038808092 -0.07228543 0.014748067 -0.052299667 0.038714238 0.014430895 -0.04750313 0.042481154
0.024819078 0.043268148 -0.027736263 -0.036643658 0.049147185 -0.0547516 0.03393577 0.010495039
0.01970927 0.028444499 0.034197636 -0.017839696 -0.020854771 -0.04981083 -0.051693805 -0.0089380145
-0.0062770024 -0.06550327 -0.03454592 0.029990308 -0.0122825205 0.01556881 0.029027406 -0.0052136127
-0.044420853 0.048030593 -0.06045476 0.013507028 -0.012189313 0.02603022 0.014744077 -0.043091882
-0.044473793 0.03947327 -0.03816266 0.019127868 -0.020458624 -0.059532333 -0.0036215244 -0.017532507

model.2.bias f4 [256]
00000000: 27aa 0ebd c842 ca3c 4706 2dbd 127c d03c
00000010: d03a 403d a9cc 6cbd 12b5 93bc 1534 163d
00000020: 08c9 323d c8a0 183b e68e e93c 55fe 6f3c
00000030: 67e0 31bd 3592 fe3c 7e91 963c d482 923c
00000040: 39da 673d b7fe 09be 30fe a6bc 785c 54bd
00000050: 590f ecbb ab84 463d a6ce f7bc 3a49 ccbc
00000060: 2eb2 793d 71c0 203c d3e4 f03c ef67 0a3d
00000070: 5421 debc cd20 4e3d 7d72 723d f018 783d
00000080: d7ab 8dbd 08cf 813c f069 02bd ce54 a1bc
00000090: 3124 89bc 4c25 2a3d a33e 063c 8192 5b3d
000000a0: 084c 3bbd 4f6f 2c3d c017 273d fa0c 68bd
000000b0: fbe2 cc3c 84e2 03b8 bd4b 3cbd a4b0 87bc
000000c0: a589 c13b cc86 2abd d182 453d 65f8 ee3c
000000d0: c266 913c d6ef 573d 3a05 58bd 82eb 8abd
000000e0: bfce 1f3d 7840 a0bc ea88 fabc 39b4 413c
000000f0: 464e 4fbd 85c5 ef3c 24cf 443d f7b4 82bb
00000100: fdbb 3dbc 9335 57bd ccda d8bc ea41 9b3b
00000110: 7d09 493d a58b 263d e1c3 a6bc 7cdc 2fbd
00000120: d18c 68bc 3537 f0bb 1a0c 07bd a2cd 8bbd
00000130: bdcb 71bc 3b88 3e3d 80e4 823c fbc3 8ebc
00000140: 9ed8 0c3d 55aa 5cbd c2d0 a0bd 9433 9ebd
00000150: 4009 023d 15f3 c6bc 09b6 143d b0e7 733d
00000160: 58af 21bd 5dcc 9bbc d16c f5bc f4b1 463d
00000170: 4d3d 873c d948 10bd fc28 393d 6e80 0fbd
00000180: 0ae6 48bd 33d0 533d d669 b2bc af41 2dbd
00000190: 16a0 ca3c 0714 c338 dc5a 2b3d 9430 be3c
000001a0: d0e7 2dbd 8956 963c bd22 0b3d 6e3c 1ebd
000001b0: 6cf0 e2bc 9b37 f5bc 6981 5abc 9679 6b3d
000001c0: 51d3 38bd 2af2 c63c 4ee2 f03c 2966 893c
000001d0: 96e6 223d 0f55 c2bc 80fb 62bd 1e89 9b3d
000001e0: d7d1 113c be36 c3ba 90ff 7cbd b803 723c
000001f0: 7116 073d 50c8 353d 8ce1 923d 81dc 6a3c
00000200: 5290 d43c 3e4b 7e3d 44ee 3ebd 7bb9 5a3d
00000210: d06f 33bd 7954 5c3d d9f3 abbc c9bd be3c
00000220: c80f 0d3d e0d7 343d ac0d 543d ee34 96bc
00000230: f59c 8b3c 4af5 91bd 9f95 88ba ca8c 753c
00000240: 39d0 993c 1888 7cbd 432b 3a3c f7c8 80bc
00000250: 8765 0cbc cb11 373c af8a 623d f042 2a3c
00000260: 8ac7 31ba 9e67 163d 2435 9a39 dac1 6b3d
00000270: c1a5 c7bc e2f6 c93c 8ded 5abc 17bd 673d
00000280: 191f 57bd cf3c c33c 1db6 ea3b cbe5 053d
00000290: 8eb0 8dbc e25a 0f3d 81b7 843c aed6 c6bc
000002a0: 097a 6fbc cfe4 06bd 775a 56bc 681a 113d
000002b0: 2bf2 2ebd 48fd 723d 2a34 813d 9dd5 2bbd
000002c0: f433 e83c 90e1 323b 4dab e6bc 55fa 1fbd
000002d0: c5c9 3d3c fb6a 8d3c 1ba7 063d 375b d63c
000002e0: d3cb 833d e923 c43c 38b7 403d 0ea8 1e3d
000002f0: 644c 503c a7e2 973d 73a9 1c3c bf00 003d
00000300: 3ac5 d6bc 2b50 81bc e65b 3fbd 9625 12bd
00000310: 527c 113d 58f3 153d 3167 69bc bd0f 113d
00000320: 181d 8fbd e84b fcbc 2593 8cbd e87f 813c
00000330: 9e69 433c 5d29 86bd aa83 4d3b c921 c4bc
00000340: b947 b5bc 0cc9 c2bc 7525 c6bc bc85 823d
00000350: c8a9 0abb ba02 d5bc b67d 20bd 1d88 37bc
00000360: db6a d9bc 3310 2bbd e3a0 eebc 79a7 3bbc
00000370: bbbb 47bc 5481 8abd 8ff8 97bd 50c5 293d
00000380: b94d fcb9 84a6 9c3c 1bb3 5bbb 08ff a43c
00000390: c615 0e3d 9940 8cbc 9eba b63a ae30 70bc
000003a0: 544f f8bc 6cc5 b33c 4ae1 75bd 6b55 36bd
000003b0: eeab dabc e7df b7bc 1f74 103d 65cc 0bbd
000003c0: 1a1f fbbb 87a3 08bd 3d14 3b3d 6dba 1f3d
000003d0: 17dd ffbb bb8d 8dbd ba9c 093d eb82 2c3d
000003e0: 8eac 283d bc98 86bc d601 9e3c ca80 413d
000003f0: c742 493d cf5e 49bd 0b39 513b 92dc 4b3d
-0.03483024 0.024690047 -0.042242315 0.025449786 0.046931088 -0.057812367 -0.018030677 0.036670763
0.04364875 0.0023289192 0.028510522 0.01464804 -0.043426897 0.031075576 0.018379923 0.01788465
0.056604598 -0.13476072 -0.020384878 -0.051845998 -0.007203978 0.048466366 -0.030249905 -0.02493726
0.06096094 0.009811507 0.029405987 0.033790525 -0.027115501 0.05032425 0.059191216 0.060570657
-0.069175415 0.01584579 -0.03183931 -0.019693758 -0.01674089 0.041539475 0.008193645 0.053606514
-0.045726806 0.04209834 0.040794134 -0.056653 0.025010576 -3.1443793e-05 -0.045970667 -0.016563721
0.005906301 -0.04163246 0.04822046 0.029171178 0.017749194 0.05271896 -0.05273936 -0.06783201
0.039015528 -0.019561991 -0.030582864 0.011822754 -0.050611757 0.02926899 0.048049107 -0.003988858
-0.011580464 -0.052541327 -0.026471518 0.004738082 0.049081314 0.04066052 -0.020357074 -0.04293488
-0.0141937295 -0.0073308 -0.032970525 -0.06826331 -0.014758048 0.04651664 0.015978098 -0.017427435
0.03438627 -0.05387338 -0.078523174 -0.077246815 0.031747103 -0.024285832 0.036306415 0.059547126
-0.03947386 -0.019018346 -0.029959114 0.048509553 0.016508723 -0.035225723 0.0452051 -0.03503459
-0.049047507 0.051712226 -0.021778982 -0.04229897 0.024734538 9.302055e-05 0.041834697 0.023216523
-0.0424574 0.01835181 0.033968676 -0.03863185 -0.027702533 -0.029933741 -0.013336518 0.057489
-0.045123402 0.024285395 0.029404785 0.016772347 0.039770685 -0.0237222 -0.05541563 0.075945124
0.008900127 -0.0014893634 -0.06176716 0.014771394 0.032980386 0.044380486 0.07171926 0.014334799
0.025947724 0.062083475 -0.046613947 0.053399544 -0.043807805 0.053791497 -0.020990299 0.023283856
0.03443888 0.044151187 0.05177085 -0.018335786 0.017042616 -0.07126863 -0.0010420567 0.01498718
0.018776046 -0.061653227 0.011362853 -0.015720828 -0.008569128 0.011173676 0.05530804 0.010391936
-0.0006781748 0.03671991 0.00029412762 0.057557918 -0.02437103 0.024653856 -0.013362301 0.056576815
-0.05251989 0.023832707 0.007162823 0.03268985 -0.017296102 0.034998782 0.016200783 -0.02427229
-0.014616498 -0.032933053 -0.013083092 0.035425574 -0.042711418 0.05932358 0.06308778 -0.041951764
0.028345086 0.002729509 -0.028157854 -0.039057095 0.01158375 0.017262926 0.032874208 0.026166542
0.06435361 0.023942905 0.04704973 0.03873449 0.012713525 0.074162774 0.009561884 0.03125071
-0.026217092 -0.015785297 -0.0467185 -0.035680376 0.03551895 0.036609024 -0.014245794 0.0354154
-0.06987971 -0.030797914 -0.06864003 0.01580806 0.011927037 -0.06550858 0.0031358995 -0.023941891
-0.022128927 -0.023777507 -0.024187783 0.06373164 -0.0021158326 -0.026002277 -0.039182387 -0.0112018855
-0.02654021 -0.041763496 -0.029129451 -0.011453503 -0.0121907545 -0.06762949 -0.07420456 0.041447937
-0.00048123093 0.01912237 -0.0033523503 0.02014114 0.034688734 -0.017120646 0.0013941114 -0.014660044
-0.030311264 0.021944724 -0.060029306 -0.044515055 -0.02669331 -0.022445632 0.03526699 -0.034130473
-0.0076636197 -0.033359077 0.045673598 0.03899615 -0.0078083384 -0.069117986 0.03359673 0.04211704
0.041180186 -0.016430251 0.019287985 0.047241963 0.04913595 -0.049162682 0.003192487 0.0497709

model.4.weight f4 [1, 256]
00000000: 042f 9ebc 9877 fdbc ca35 2a3d ab15 07bd
00000010: 4c2d d03c 7b24 0d3d 6bd0 743d d409 85bd
00000020: 8d29 713d 5b5b 863d d618 66bd 648a 253d
00000030: 2c3d 41bd 0694 bd3c 6672 37bd 0f57 61bd
00000040: 629b 70bd 08a9 06be b6a9 15bd 2517 4e3d
00000050: 824b 2e3d 4d7c 783d 6841 2abd fc9a bd3b
00000060: e7b8 35bd cab0 c23c 95fc 133d 3ba8 4b3c
00000070: f419 1c3d 9cff 563d 154c d2bc 3e10 673d
00000080: 2635 b23b b5b4 403d 8426 383d 2c8d 2c3d
00000090: 2988 dfba e193 1ebd 556b 48bd 35b8 873d
000000a0: 8aba 5c3d 26da 8cbc c0e2 893c c385 7d3c
000000b0: 954e 4fbd 31e8 8e3d 4bac 14bd b31a 34bc
000000c0: 67ce 2e3d 76dc 673c b1ef a6bc 1de5 5f3d
000000d0: 3341 f4bc 5124 33bd 6d85 7d3d 9736 913c
000000e0: 0dd5 e73d cfa4 303d f171 b2bc 8408 b6bc
000000f0: 5f9f 183d e0f9 02bd 5045 603d 1828 65bd
00000100: 38ce 57bd 876d b2bc 0513 1bbd 8d3a 133d
00000110: 0504 4e3d d847 c4bc d9d7 ce3c eb9a fa3c
00000120: d938 9a3c 9fea c8bb 8b24 6d3d fbc2 fa3c
00000130: a6a2 01bd c367 38bd 818b bc3c 3bdc 8abc
00000140: 695c 13bc eaed 323c b40e 023d ee60 4e3c
00000150: eada c7bc 4880 713d f0f1 a7bb 6a1c 03bc
00000160: 5ea5 4bbd 9ee6 2e3d 532a 3fbd 4352 853d
00000170: 0f29 e3bc 325f 2f3d 46f4 023b 85b8 80bd
00000180: 9b87 e23c 5334 7d3d ea2e b73c 3ed5 ce3c
00000190: 8389 f33c b6c3 b4bb 96a4 34ba 39c2 73bc
000001a0: abb6 fd3c e2ce 35bd 0742 d0bc a92f 43bd
000001b0: 549b 203d 2eb6 80bd e359 f8bc 9edf bdbc
000001c0: 55c9 853c 6829 bdbb 38cd 80bb fa48 f33b
000001d0: aa30 3d3c 46ef 563d 44a4 58bd a6b6 823d
000001e0: 63ae ddbc 723c f63c 2bd4 823c 67c2 513d
000001f0: 0216 f93c 9392 88bd ae3f 823d 6fc9 823c
00000200: 153a 243d 7c04 533c cfc2 ca3c 43d8 96bc
00000210: 2380 cc3c def8 c73b e113 52bd 314c 96bc
00000220: 8570 41bd 4ab1 0abc e9c7 33bc 33b3 3bbd
00000230: 2093 ca3c 96bf 973c b2b6 b73c 5ad7 8d3d
00000240: 593f e43c bd50 d33c 328c 83bd 699b 723d
00000250: 8108 eb3c 9e32 77bc 1469 f3bc b073 003d
00000260: e65c 3dbd a1d1 f43c 82ee 3a3d 246f 5fbd
00000270: d5fb 1b3d 4e48 1ebd 964f 563d 5b5e a4bc
00000280: 87ad 8b3d 8faa 3ebd cb7b a2bb ecbe 40bd
00000290: c24c ac3b 92ec 103d a7be a33c 68d8 b0bb
000002a0: 038d 6e3c bccc afbb 75dc 4cbd d3ca d53c
000002b0: 439d 0b3b 05ca 3ebd 2aed 8ebd b572 18bd
000002c0: 4e5c b9bc 0c26 4e3d 1732 fabc 8444 33bd
000002d0: b286 a3bc a6fa 3dbd 6abe 4f3d c502 ad3c
000002e0: dc17 9bbc ca33 91bc bc5e 41bd 1da4 313d
000002f0: 711a 8cbd cc8a 123c 8bae 97bb 9924 b5bc
00000300: b1d7 4e3d 2b72 8dbc e6d8 81bc d39a fa3c
00000310: 4acb 403d 7084 10bd 9790 e33c 9590 3ebd
00000320: fbe7 ef3a f026 74bc 7fe9 8fbc ee47 f4bc
00000330: c2d9 2fbc 152d bdb9 1e81 a53c 24e2 ca3c
00000340: f7ba 49bd b3a4 91bb 6e94 d33b a53d 50bd
00000350: 5b97 fe3c 55fb 203d 1662 143d 2aae 6bbb
00000360: daca 293b 6452 673c ae47 27bd d931 173d
00000370: 1cae 06bd 644a ef3b 1956 353d 56fb 6bbc
00000380: 7679 68bd 5de4 d73c 2759 afbc 8e03 393d
00000390: aed8 85bd 4074 e33c 97e5 e93c 1edc 6d3d
000003a0: 47d7 1abd 2a7a de3b f9b1 d43b 8adc 5d3d
000003b0: 140e 3cbd dbd6 5ebc 1ed9 7a3b cca1 74bc
000003c0: 9dbc 1fbd 4053 4bbd 44ba 1fbc 4874 ec3b
000003d0: 1104 e73c 88de 413d 457b 09bc e225 ea3c
000003e0: c84d e33c 64b3 11b9 82bd 10bd f650 cbbc
000003f0: 45f3 623c 7e62 283d 951f 933c 88de 0b3d
-0.019309528 -0.030940816 0.041555203 -0.03297965 0.025412224 0.03445862 0.059769075 -0.06496015
0.058877517 0.065603934 -0.05617603 0.040415183 -0.04717748 0.023141872 -0.044786833 -0.055014666
-0.058741935 -0.13150418 -0.036538802 0.05031504 0.04255248 0.060665417 -0.041566283 0.005786298
-0.04436579 0.02376594 0.036129553 0.012430246 0.03811069 0.05248986 -0.025671044 0.056411974
0.0054384647 0.047047336 0.044958606 0.04212682 -0.0017054129 -0.038715247 -0.048930485 0.066269316
0.053888835 -0.017193865 0.016831756 0.015473786 -0.05061205 0.06977881 -0.036297124 -0.010992694
0.04267731 0.014151683 -0.020377966 0.05466186 -0.029816246 -0.043735806 0.061894823 0.017726226
0.11319933 0.043125924 -0.021782847 -0.022220857 0.037261363 -0.03197658 0.0547536 -0.05594644
-0.0526869 -0.021780742 -0.037859935 0.03594451 0.050296802 -0.023960039 0.025249409 0.030591449
0.018825935 -0.0061314846 0.05789618 0.030610552 -0.031649254 -0.04502083 0.02301574 -0.016950717
-0.0089942 0.010920981 0.031752303 0.012596352 -0.024396379 0.05896023 -0.0051252767 -0.00800238
-0.049718253 0.042700402 -0.046671223 0.06509831 -0.02772954 0.042815395 0.0019982024 -0.06285194
0.027652552 0.06181748 0.022361238 0.025248166 0.029728657 -0.0055164946 -0.00068909803 -0.014877849
0.030970892 -0.044386752 -0.02542211 -0.047652874 0.039210632 -0.06284748 -0.030316299 -0.023177918
0.016331354 -0.0057727583 -0.003930714 0.007424471 0.011547247 0.052474283 -0.05289103 0.06382494
-0.027060693 0.03005812 0.01597031 0.051210787 0.030406002 -0.06668582 0.06359802 0.015965192
0.040094454 0.012879487 0.024751095 -0.018413668 0.024963444 0.0061026653 -0.05128849 -0.018346878
-0.047226448 -0.008465121 -0.010972955 -0.045825195 0.024728358 0.018523972 0.022425983 0.06925841
0.027862238 0.025795335 -0.064232245 0.059230242 0.028690578 -0.015087752 -0.029713191 0.03136033
-0.046231173 0.029885115 0.045637615 -0.05454935 0.038081963 -0.038643174 0.052321993 -0.020064523
0.06820207 -0.046549376 -0.004958605 -0.047057077 0.0052581737 0.03538186 0.019988371 -0.0053968914
0.014559987 -0.0053649824 -0.05001493 0.02609769 0.0021303452 -0.04657938 -0.06978829 -0.03721877
-0.022627022 0.050329253 -0.030541463 -0.043766513 -0.019961689 -0.046381615 0.050718702 0.021119485
-0.018932275 -0.01772489 -0.047209486 0.0433694 -0.06840981 0.008944225 -0.0046289614 -0.022112178
0.050498668 -0.017266354 -0.015850496 0.030591404 0.04706887 -0.035282552 0.027778907 -0.046524603
0.0018303388 -0.014901862 -0.017567394 -0.029819455 -0.01073307 -0.00036082478 0.02020317 0.024766035
-0.04925057 -0.0044446825 0.006456903 -0.05084004 0.031078031 0.03930219 0.036226355 -0.0035961964
0.0025908262 0.014118765 -0.040839843 0.036912773 -0.032880887 0.007302569 0.044271562 -0.014403185
-0.05675646 0.02635401 -0.021404816 0.045169406 -0.06535469 0.027765393 0.02855186 0.05807125
-0.03780296 0.0067894654 0.0064909426 0.0541654 -0.045911863 -0.01360103 0.0038276385 -0.0149311535
-0.038998235 -0.04963994 -0.009748999 0.0072160102 0.028200181 0.047331363 -0.008391206 0.028582517
0.02774705 -0.00013895106 -0.03533698 -0.024818879 0.013851945 0.041109554 0.017959395 0.03414777
